save/checkpoint/ckpt/acrobot_dqn_noisy_mod_hid_64_12810000_ckpt.tar (torch_old, 808811 bytes, 34 tensors)

feature.weight f4 [64, 6]
0	0xbda4eff2	-0.080535784
1	0xbcebfb59	-0.028806375
2	0x3d118909	0.035531078
3	0x3e374333	0.17896728
4	0xbe514862	-0.20437768
5	0xbe4dcbc5	-0.20097263
6	0x3edbf4f3	0.4296032
7	0xbcd05e74	-0.025435664
8	0x3e5823ec	0.21107453
9	0xbe619da8	-0.22032797
10	0xbea5d451	-0.32388547
11	0xbe553232	-0.20819929
12	0xbe6b886f	-0.23001264
13	0x3c835e68	0.016036227
14	0xbf4f5489	-0.80988365
15	0x3ce8b6f4	0.028407551
16	0xbe4453f2	-0.19172648
17	0xbdde337f	-0.10849666
18	0xbed0e7f3	-0.40801963
19	0x3da64438	0.081184804
20	0xbe8935ae	-0.26798767
21	0xbe784af7	-0.24247347
22	0xbebea603	-0.37236032
23	0x3d20ec25	0.039287705
24	0x3de0d7b6	0.109786436
25	0xbe0bdbc3	-0.13658051
26	0xbf20e230	-0.62845135
27	0x3eeff287	0.4686472
28	0x3ddc48f2	0.10756101
29	0x3d34a5a1	0.04410327
30	0xbefde705	-0.49590316
31	0xbf0a5c5d	-0.54047185
32	0x3d1d12be	0.038347952
33	0xbe247f7f	-0.16064261
34	0x3dffce36	0.124905035
35	0x3d53f772	0.051749654
36	0xbca78503	-0.020449167
37	0xbd3ff67b	-0.04686592
38	0xbed7c2f7	-0.42140934
39	0xbec4ef78	-0.3846395
40	0x3e1537f1	0.14572121
41	0x3e2d60bf	0.16931437
42	0x3f050e13	0.519746
43	0xbed6eae6	-0.41976088
44	0x3e36a22f	0.17835306
45	0xbd370daf	-0.044690784
46	0xbe9bcffe	-0.30432123
47	0xbe6d7dcf	-0.23192523
48	0x3e11477f	0.1418743
49	0x3ea57188	0.3231318
50	0x3ed639d3	0.4184099
51	0xbeee1463	-0.4649993
52	0x3dc538a2	0.096299425
53	0x3e0076f9	0.12545384
54	0xbea79171	-0.3272815
55	0xbdc644e2	-0.09681107
56	0xbe043ed5	-0.12914594
57	0xbdfc4155	-0.123171486
58	0xbe405cc6	-0.1878539
59	0x3ccf2c30	0.025289625
60	0x3d00186f	0.0312733
61	0x3ed36dff	0.41294858
62	0x3c4acebe	0.012378393
63	0xbba9e077	-0.005184229
64	0xbe45bffe	-0.1931152
65	0xbe61f20b	-0.22064988
66	0xbe884252	-0.26613098
67	0x3d9ca7c8	0.07649189
68	0xbc91e1c1	-0.017807843
69	0xbdb42030	-0.08795202
70	0x3ea61d1b	0.3244408
71	0x3ea2cbe0	0.3179617
72	0x3ecfcefb	0.405876
73	0x3e5e364d	0.21700402
74	0xbd34ad97	-0.04411086
75	0xbe019da3	-0.1265779
76	0x3e6e6777	0.23281656
77	0xbe8935f1	-0.26798967
78	0xbde1afb7	-0.11019843
79	0xbf10d183	-0.5656969
80	0x3eb071d8	0.34461856
81	0x3ebf5c54	0.37375128
82	0x3dbf5220	0.09341836
83	0x3d3755ca	0.04475955
84	0x3e208f79	0.1567973
85	0xbe46ec42	-0.19426063
86	0x3cb10051	0.021606596
87	0x3e34fca8	0.17674506
88	0x3e0cb84f	0.13742183
89	0xbe92be45	-0.2866079
90	0x3d0d1790	0.0344463
91	0xbdc48e18	-0.09597415
92	0x3ead333b	0.33828148
93	0x3e88c48e	0.2671246
94	0x3e1ded17	0.15422474
95	0x3e5decb6	0.2167233
96	0x3ee96a6b	0.45589003
97	0xbe417a5c	-0.18894333
98	0x3e1bbcdd	0.15208764
99	0x3e94229a	0.2893265
100	0x3cf67577	0.030085308
101	0x3d42694e	0.047463708
102	0x3e4a72d7	0.1977037
103	0x3c997072	0.018730376
104	0x3eb6fd2c	0.3574003
105	0xbf1662bf	-0.58744425
106	0x3d59d70b	0.053183597
107	0x3db10530	0.086435676
108	0x3efa6e77	0.48912403
109	0xbd999d3b	-0.075006925
110	0x3d8dafb9	0.06918282
111	0x3cd3d905	0.025860319
112	0x3e02567f	0.12728308
113	0x3c96f42f	0.018426983
114	0xbdd0ba81	-0.10191823
115	0x3ed535ba	0.41642553
116	0x3f18f913	0.5975506
117	0xbe90e201	-0.28297427
118	0x3e691782	0.22762874
119	0x3da5ede1	0.081020124
120	0xbece3828	-0.4027722
121	0xbd962e96	-0.07333104
122	0xbeee8f90	-0.46593904
123	0x3d5015d1	0.050802056
124	0xbddcce20	-0.10781503
125	0xbe85bb27	-0.26119348
126	0x3eda8335	0.42678228
127	0x3f22e89e	0.63636196
128	0x3ed95401	0.42446902
129	0xbcab38e0	-0.020901144
130	0xbe3f643c	-0.1869058
131	0xbdbc2b6d	-0.0918797
132	0xbeb5a250	-0.35475397
133	0x3ecf195b	0.40449032
134	0xbed84164	-0.4223739
135	0x3e00bb7a	0.12571517
136	0x3cc89308	0.024484172
137	0x3caee6ce	0.02135029
138	0xbf067939	-0.5252872
139	0xbc9d2c5d	-0.019186193
140	0xbeb01573	-0.34391364
141	0xbe1ed24a	-0.15509906
142	0x3c678d8c	0.0141328685
143	0xbe2ea12f	-0.17053674
144	0x3deb05b0	0.11475694
145	0x3bf18c17	0.0073714363
146	0xbe175b92	-0.14781025
147	0xbdf0b1c6	-0.117526576
148	0x3d6ee429	0.05832306
149	0x3db06aff	0.08614158
150	0x3e56b1eb	0.20966308
151	0xbd7e6360	-0.06210649
152	0xbe29f1f2	-0.16596201
153	0x3e260a1c	0.16214794
154	0x3e8d4803	0.27594003
155	0xbd145902	-0.036217697
156	0xbe43ce5d	-0.1912169
157	0xbede80a1	-0.4345751
158	0xbee19323	-0.4405757
159	0xbe0d2563	-0.13783793
160	0x3acd8b63	0.0015681799
161	0x3c223374	0.009899963
162	0x3ef5a361	0.4797621
163	0xbecd6b31	-0.40120843
164	0x3ec71286	0.3888132
165	0x3f0920da	0.5356575
166	0xbe6acebc	-0.22930425
167	0xbe55b246	-0.20868787
168	0xbe4c180b	-0.19931047
169	0x3ea11f83	0.31469354
170	0xbd9668a5	-0.07344178
171	0xbdcce1ad	-0.10003982
172	0x3d7dd277	0.061968293
173	0x3ea5062a	0.32231265
174	0x3f16dae7	0.5892777
175	0x3ef311f1	0.47474626
176	0xbef3dc84	-0.47629178
177	0x3eeb83f9	0.45999125
178	0xbdd2ea02	-0.1029854
179	0x3af955af	0.0019022728
180	0xbe4c7bfd	-0.19969173
181	0x3e93cc69	0.2886689
182	0x3d85d2e5	0.065343656
183	0x3c37178b	0.011175047
184	0x3edda637	0.43290874
185	0x3e563393	0.20918112
186	0xbf4fda75	-0.81192714
187	0x3e7d6751	0.24746443
188	0x3c71551b	0.014729763
189	0x3c2f0906	0.010683304
190	0xbe494521	-0.19655277
191	0x3b127ee5	0.0022353467
192	0xbe7a4a52	-0.24442413
193	0xbdb2a6eb	-0.08723243
194	0x3ddfb1ec	0.10922608
195	0xbccfbb4a	-0.025357861
196	0x3ed9ae73	0.42515907
197	0x3e2ae37e	0.16688344
198	0x3d891269	0.066929646
199	0xbe27875b	-0.16360228
200	0xbdc58046	-0.09643607
201	0x3e3dc531	0.18532254
202	0xbec9cf29	-0.39415863
203	0xbea6ef09	-0.32604244
204	0xbe56232e	-0.20911857
205	0x3ed44637	0.4145982
206	0x3eb3ec0c	0.35141027
207	0x3e638cb9	0.2222165
208	0x3d17a357	0.037021007
209	0x3d35a703	0.044348728
210	0x3e9e3b0f	0.30904433
211	0xbdbfedea	-0.093715504
212	0xbed6960d	-0.41911355
213	0xbe9cf6c0	-0.30657005
214	0x3d23dc5a	0.040005066
215	0xbd2b73eb	-0.041858595
216	0xbeba00f9	-0.36328867
217	0xbe82a44e	-0.2551598
218	0xbebc688c	-0.36798513
219	0x3f11a840	0.56897354
220	0xbd8304ef	-0.063974254
221	0xbda85f4e	-0.08221303
222	0xbe20d7f4	-0.1570738
223	0x3f397add	0.724531
224	0x3ee1abd5	0.4407641
225	0xbd9dd556	-0.07706706
226	0xbd0aad1c	-0.033856496
227	0x3e06c2bb	0.13160221
228	0xbf2bf8c1	-0.67176443
229	0x3f277949	0.6541944
230	0xbe63a2fe	-0.22230145
231	0x3e3e4f66	0.18584976
232	0xbd218a63	-0.039438616
233	0x3d122049	0.03567532
234	0xbf292e9b	-0.6608674
235	0xbd6d782a	-0.057975926
236	0xbe74c71e	-0.23904082
237	0x3d1a4184	0.037660137
238	0x3e9e5e67	0.30931398
239	0xbc3a6d7d	-0.011378643
240	0xbe198de5	-0.14995535
241	0x3ed2e67f	0.4119148
242	0xbf1c1fa7	-0.609858
243	0x3e2b345b	0.16719191
244	0xbdd5d1c4	-0.104404
245	0x3dd22f65	0.10262946
246	0x3cb10b67	0.021611882
247	0xbe26162c	-0.16219395
248	0x3e8a871c	0.27056205
249	0x3e7f23ed	0.24916048
250	0x3d8d8b17	0.06911295
251	0x3d376e4b	0.044782918
252	0xbe98eeb0	-0.29869604
253	0x3dc3a4ea	0.09552939
254	0xbea1623e	-0.31520265
255	0xbd8e2eb9	-0.069425054

feature.bias f4 [64]
0	0xbed72e3a	-0.42027456
1	0x3ebe9ccc	0.37229002
2	0xbcca2b79	-0.024678933
3	0xbe437290	-0.19086671
4	0x3db1c96f	0.086809985
5	0xbf02bb0a	-0.5106665
6	0xbf0e31b9	-0.5554462
7	0x3f0076fa	0.50181544
8	0x3e409a84	0.18808943
9	0xbee0384c	-0.4379295
10	0x3ee7908d	0.4522747
11	0xbe7f92cb	-0.24958341
12	0x3e56ab40	0.20963764
13	0x3e9dc006	0.30810565
14	0xbee8d937	-0.45478222
15	0xbe56238d	-0.20911999
16	0x3e8f1386	0.27944583
17	0x3eed7a52	0.46382385
18	0x3eb20ce5	0.34775463
19	0xbd88a150	-0.06671393
20	0xbef3fe5a	-0.47654992
21	0xbc5a5d6c	-0.013327938
22	0x3ed49603	0.415207
23	0xbf17246c	-0.5903995
24	0x3f2121e1	0.6294232
25	0xbf050f71	-0.51976687
26	0x3ede7eb3	0.4345604
27	0x3e647dc0	0.22313595
28	0xbecfa68f	-0.40556762
29	0xbdf73fa4	-0.12072685
30	0xbf057630	-0.52133465
31	0xbe9a2290	-0.30104494
32	0xbe7b46c3	-0.24538712
33	0xbe69e05c	-0.22839493
34	0x3ee89337	0.45424816
35	0x3dd646ad	0.10462699
36	0x3eb6cf50	0.35705042
37	0x3ed2d7ee	0.41180366
38	0x3ded620e	0.11590968
39	0xbf091262	-0.53543675
40	0xbe0aaee2	-0.13543275
41	0x3f09d96e	0.53847396
42	0x3e9dbf0d	0.30809823
43	0x3ed6df6e	0.41967338
44	0x3de73967	0.112902455
45	0x3d16af4a	0.036788262
46	0xbe637394	-0.22212058
47	0x3ef66d1d	0.48130122
48	0x3b70a863	0.003672146
49	0xbf00c077	-0.5029368
50	0xbf12617a	-0.5717999
51	0xbf11d74d	-0.5696915
52	0xbec15af9	-0.3776472
53	0xbd19dd52	-0.037564583
54	0xbe143827	-0.14474545
55	0xbec8a5b8	-0.39188933
56	0xbeda01c4	-0.42579472
57	0x3dfc238c	0.123114675
58	0x3f070ca4	0.52753663
59	0x3e5cca52	0.21561554
60	0x3d52ee25	0.051496644
61	0xbe906cf8	-0.28208137
62	0xbe441f45	-0.19152553
63	0x3ea7fee5	0.32811657

hidden.weight_mu f4 [128, 64]
0	0xbe097c99	-0.13426436
1	0xbb32dbc9	-0.0027291647
2	0x3d5eb75e	0.05437409
3	0x3c591cd9	0.013251507
4	0x3e19dad7	0.15024887
5	0xbdd0341b	-0.10166188
6	0xbe8e2e53	-0.27769718
7	0x3e011537	0.12605749
8	0x3ca43c58	0.020048305
9	0xbd0b1042	-0.03395105
10	0x3d99e516	0.07514398
11	0xbe4947a3	-0.19656233
12	0x3dfb19aa	0.122607544
13	0x3cec8f01	0.028876783
14	0xbc6c1b1f	-0.014410763
15	0x3da09fb4	0.07842961
16	0x3dcf0640	0.10108614
17	0x3e435444	0.19075114
18	0x3e892af5	0.26790586
19	0x3b3117d5	0.0027022262
20	0xbdcefe40	-0.10107088
21	0xbc36f137	-0.011165909
22	0x3e7d9a92	0.24765995
23	0xbdd207b4	-0.102553755
24	0x3dc2f9ff	0.09520339
25	0xbd012b2f	-0.031535324
26	0x3e158dcc	0.14604872
27	0x3d1a35d1	0.03764898
28	0xbcc6eff3	-0.024284339
29	0x3e2443b3	0.1604145
30	0xbd557618	-0.052114576
31	0x3e2299d0	0.15878987
32	0xbe5f7384	-0.2182141
33	0xbdc8b51e	-0.0980017
34	0x3e4768df	0.19473599
35	0x3e1bc54c	0.15211982
36	0x3db64031	0.08898962
37	0x3bf1978d	0.0073728026
38	0x3e5f2737	0.21792303
39	0x3d4d080a	0.050056495
40	0x3de9dd46	0.11419158
41	0x3e44803b	0.19189541
42	0x3cba738e	0.022760179
43	0x3e2f7825	0.17135675
44	0x3d5a4d93	0.053296637
45	0x3cf2f44e	0.02965751
46	0x3abdbdcb	0.0014476118
47	0x3df30303	0.11865809
48	0xbdca6c92	-0.098839894
49	0x3d148a00	0.03626442
50	0x3d23aae7	0.039957907
51	0xbe62932f	-0.22126459
52	0xbcf2fa7c	-0.029660456
53	0xbdffc2d5	-0.12488333
54	0x3e024c11	0.1272433
55	0x3db823a2	0.089911714
56	0xbe57dad3	-0.21079569
57	0x3da19949	0.07890565
58	0x3e4eaec1	0.20183851
59	0x3dd2bf8f	0.10290443
60	0x3e1b825c	0.15186447
61	0x3d751aaf	0.0598399
62	0x3dc9b2ce	0.098485574
63	0xbbe6751d	-0.007033004
64	0x3df62506	0.120187804
65	0xbe0d58de	-0.13803431
66	0xbe08268e	-0.13295957
67	0x3d0ce936	0.034402095
68	0x3dd1d719	0.10246105
69	0xbc820d30	-0.015875429
70	0xbd9a74f2	-0.07541837
71	0xbd7f9462	-0.06239737
72	0xbdaa6d8a	-0.08321674
73	0xbdda8496	-0.1066982
74	0xbe251a53	-0.16123323
75	0x3df5c0da	0.11999674
76	0xbda5a027	-0.08087187
77	0x3d3aeed3	0.045637917
78	0x3ccb10ce	0.024788287
79	0xbda4ee27	-0.080532365
80	0x3d8e11d2	0.06936993
81	0xbcb8b804	-0.022548683
82	0xbdd2dfcf	-0.10296594
83	0xbd918e86	-0.07107262
84	0x3dd97bd8	0.106193244
85	0x3d38c7b9	0.045112345
86	0xbda9f3b5	-0.082984366
87	0xbca16bd8	-0.019704744
88	0xbde457b5	-0.11149541
89	0xbad7ee83	-0.001647428
90	0x3d940333	0.07227173
91	0xbd29807a	-0.04138229
92	0x3cd63f80	0.026153326
93	0xbb718667	-0.0036853792
94	0x3e4325dc	0.19057411
95	0xbe052e0f	-0.13005851
96	0xbd2863d6	-0.041110836
97	0xbd3aaba8	-0.04557386
98	0xbd8d7663	-0.06907346
99	0xbdea66f5	-0.11445419
100	0xbe02fcbe	-0.12791726
101	0xbc572265	-0.013130759
102	0x3db3e439	0.087837644
103	0xbcf09a57	-0.02937047
104	0xbdeba259	-0.11505575
105	0xbe139c16	-0.14415011
106	0x3d929b8d	0.07158575
107	0xbdbfdc15	-0.09368149
108	0xbd0188c1	-0.03162456
109	0x3d0e6f2a	0.034773983
110	0x3dc5b90c	0.096544355
111	0x3d87dc6f	0.06633841
112	0xbd6f482e	-0.058418445
113	0x39ae99f6	0.00033302576
114	0x3d00bd64	0.031430617
115	0xbdb91989	-0.090380736
116	0xbda4b6ec	-0.08042702
117	0xbc399972	-0.011328088
118	0xbd5d5c31	-0.054043
119	0xbddf0a62	-0.10890652
120	0xbd318613	-0.043340754
121	0x3c2e0f44	0.010623757
122	0xbdc1090c	-0.09425554
123	0xbd42b7c2	-0.047538526
124	0xbd813431	-0.06308783
125	0xbdd69029	-0.10476715
126	0xbc8192a8	-0.015817001
127	0x3d1c5649	0.038168225
128	0xbe2df089	-0.16986288
129	0xbded90a6	-0.11599855
130	0xbd4ce209	-0.05002025
131	0xbda12ccb	-0.07869872
132	0x3b6a11ff	0.0035716293
133	0x3da81d94	0.082087666
134	0x3ddf49be	0.10902737
135	0x3a213559	0.0006149612
136	0xbe243fc6	-0.16039953
137	0x3cd1df3e	0.025619145
138	0xbdc19eff	-0.09454154
139	0xbd20b13d	-0.039231528
140	0xbc7a2701	-0.015268088
141	0xbe065a90	-0.13120484
142	0xbe4e85b8	-0.20168197
143	0xbd73bb94	-0.05950506
144	0x3aeabdf7	0.0017909397
145	0xbe04507c	-0.12921327
146	0xbe5e4656	-0.21706519
147	0xbce31ca6	-0.027723622
148	0x3cbd6dd1	0.023123654
149	0xbd98ed93	-0.07467189
150	0xbd5495c8	-0.051900655
151	0xbdd86326	-0.10565786
152	0xbd81016a	-0.06299098
153	0xbdbd88e6	-0.09254627
154	0xbe347157	-0.1762136
155	0x3cabcc02	0.020971302
156	0xbdc8ae45	-0.09798864
157	0x3d40d83c	0.047081217
158	0x3b0b0937	0.002121521
159	0xbdeff4b8	-0.11716598
160	0x3d9ffb49	0.07811601
161	0x3bad9baa	0.0052980976
162	0xbd45b3f5	-0.048267324
163	0x3c042ed4	0.008067805
164	0xbdf33479	-0.11875243
165	0x3d6d2ed0	0.057905972
166	0x3d5bf54b	0.053700726
167	0xbd3fd3cf	-0.046832856
168	0xbd85ccc9	-0.065332
169	0xbe5197eb	-0.20468108
170	0xbda1f514	-0.07908073
171	0xbdc36317	-0.09540384
172	0xbe00909e	-0.12555167
173	0xbdbb0104	-0.09131053
174	0x3d600a74	0.05469747
175	0xbe371390	-0.17878556
176	0x3ad1418b	0.0015964968
177	0xbd9f03c9	-0.07764394
178	0x3d1080df	0.03527915
179	0x3cff5a55	0.031171003
180	0xbd3aeee6	-0.045637988
181	0x3bcb0338	0.006195452
182	0xbd5b4497	-0.05353221
183	0x3c37a2d3	0.011208254
184	0xbe0ba650	-0.13637662
185	0xbaacc7e7	-0.0013182134
186	0xbcda5c08	-0.026655212
187	0xbe10a568	-0.14125597
188	0xbe37875e	-0.17922732
189	0xbdfeb2b5	-0.124364294
190	0xbd28f5ae	-0.041249923
191	0xbd48b319	-0.048998926
192	0xbe35c3bc	-0.17750448
193	0x3df198ae	0.117966995
194	0x3dfab947	0.1224237
195	0x3c85faef	0.016355006
196	0x3d621d14	0.055203512
197	0x3bf6a4fb	0.0075269914
198	0xbacb4798	-0.0015509007
199	0x3e72834b	0.23682897
200	0x3d931a52	0.071827546
201	0xbe1ff6bd	-0.15621467
202	0x3e0b60be	0.13611123
203	0xbcba8330	-0.022767633
204	0x3d7dc282	0.061953075
205	0x3e6d8faf	0.23199342
206	0xbde24617	-0.11048525
207	0xbd9f48ce	-0.07777558
208	0x3d804515	0.06263176
209	0x3e07778a	0.13229194
210	0x3e1028a5	0.14078005
211	0x3d832eeb	0.06405433
212	0x3cc54146	0.024078976
213	0x3d3731d5	0.044725258
214	0x3e1433bd	0.14472862
215	0xbdeaffd1	-0.11474574
216	0x3e8dd073	0.27698097
217	0x3d8b62bb	0.06805941
218	0x3ec97094	0.39343703
219	0x3e075949	0.13217653
220	0xbdc6ce29	-0.09707291
221	0x3df5c31b	0.12000104
222	0x3c9b381c	0.018947653
223	0x3e8008fb	0.25006852
224	0xbdafc3dd	-0.0858228
225	0x3d1db2f6	0.03850075
226	0x3d8b218a	0.067935064
227	0x3df23a1b	0.11827489
228	0x3db704b2	0.089364424
229	0x3d9af8c4	0.075669795
230	0x3e2a59a2	0.16635755
231	0x3d8e5868	0.06950456
232	0x3d8728bf	0.065995686
233	0x3dba24b2	0.0908903
234	0x3df3376d	0.11875806
235	0x3dddf7d0	0.10838282
236	0x3e1f9b0c	0.1558649
237	0x3e0099c7	0.12558661
238	0x3e32068b	0.17385308
239	0x3df47169	0.11935694
240	0x3c4e6fe7	0.012599922
241	0xbd29a579	-0.041417573
242	0xbde8e0f1	-0.11371029
243	0xbd79f568	-0.061025053
244	0x3da15a7f	0.07878589
245	0xbd4d3d70	-0.05010742
246	0x3e231d2e	0.159291
247	0xbe16abca	-0.1471397
248	0xbe459ce6	-0.19298133
249	0xbcd62d14	-0.026144542
250	0x3e9f81b0	0.3115363
251	0x3e43b340	0.19111347
252	0x3df6b3dd	0.12046025
253	0x3e3b0f8d	0.18267651
254	0x3e1467b3	0.14492683
255	0xbd3eb8be	-0.046562903

hidden.weight_sigma f4 [128, 64]
0	0x3e015fb8	0.1263417
1	0x3e201da5	0.15636308
2	0x3e1b3721	0.15157749
3	0x3e035c70	0.12828231
4	0x3d065daf	0.032804187
5	0x3de13d98	0.10998076
6	0xbe5faaa1	-0.21842434
7	0x3dd6e943	0.1049371
8	0x3e79d271	0.24396683
9	0xbdab47b4	-0.08363286
10	0x3e138224	0.14405113
11	0x3e6d0bbb	0.23149006
12	0x3d31d790	0.043418467
13	0xbd20587d	-0.03914689
14	0x3e04b1d9	0.12958468
15	0x3d75823b	0.05993865
16	0x3e39eb52	0.18156174
17	0xbdd17656	-0.10227649
18	0xbdb6133f	-0.0889039
19	0x3df579e4	0.119861394
20	0x3e0f59c7	0.13999091
21	0x3d4e9211	0.05043227
22	0xbdeeb8ff	-0.11656379
23	0x3de143d9	0.10999269
24	0x3e631829	0.22177185
25	0xbb9789bd	-0.004624574
26	0xbd95b7cb	-0.07310446
27	0x3e101fd6	0.14074644
28	0x3d42a0fe	0.047516815
29	0x3d969ddd	0.07354329
30	0xbd49beb6	-0.04925414
31	0x3e61888a	0.22024742
32	0x3e493fe5	0.1965328
33	0xbb8d95a9	-0.0043208194
34	0xbc2d3d5e	-0.010573713
35	0x3d07f373	0.033191156
36	0xbd26e89e	-0.040749185
37	0x3cb92450	0.022600323
38	0xbd937fe7	-0.0720213
39	0x3dbfe180	0.093691826
40	0x3e0d4569	0.13796009
41	0xbdbbd7aa	-0.09171994
42	0x3dc565e4	0.09638575
43	0x3cfbf11e	0.030754622
44	0xbda21c5f	-0.079155676
45	0x3e0728ab	0.13199107
46	0x3dcec6d3	0.100965165
47	0x3e9be77a	0.3045004
48	0x3b003b27	0.0019566508
49	0x3d34c36c	0.04413168
50	0x3e258571	0.16164185
51	0x3b1a5f43	0.0023555316
52	0x3dd55919	0.10417385
53	0xbbda54ca	-0.0066629397
54	0x3d015ba6	0.031581543
55	0xbc5c973a	-0.01346379
56	0xbd7efddf	-0.06225383
57	0xbd45893e	-0.048226587
58	0xbe2f5996	-0.17124018
59	0x3e18568a	0.14876762
60	0x3e3e2df6	0.1857222
61	0x3e1cacdc	0.15300316
62	0x3df33078	0.11874479
63	0x3d576084	0.05258228
64	0x3da8108b	0.0820628
65	0x3d9789de	0.07399343
66	0x3d8fb62a	0.07017167
67	0x3dfeb88a	0.12437542
68	0x3d38385f	0.044975635
69	0x3dcc7626	0.099834725
70	0x3ddba52b	0.10724863
71	0x3d709ff2	0.058746286
72	0x3c50fd4e	0.012755705
73	0x3dac79bc	0.084216565
74	0xbc4daa5c	-0.012552824
75	0x3d5f060d	0.05444913
76	0x3de2e361	0.11078525
77	0x3b2421b3	0.00250445
78	0x3dc76d0c	0.09737596
79	0x3e10d239	0.14142694
80	0x3deb7070	0.11496055
81	0x3e1ed7e5	0.15512045
82	0x3e2bb3ad	0.1676776
83	0x3cbf9691	0.023387225
84	0xbc55e35c	-0.013054695
85	0x3df057ed	0.117355205
86	0x3d80dbb0	0.06291902
87	0x3db2d3e9	0.08731825
88	0x3d9759fb	0.07390209
89	0x3cf96aa6	0.030446362
90	0x3d82d300	0.06387901
91	0x3c78eafe	0.015192745
92	0xbcd1ab8f	-0.0255945
93	0x3dc161bd	0.0944247
94	0x3d873532	0.06601943
95	0xbd35bcee	-0.04436963
96	0x3ddea970	0.108721614
97	0x3c9f3dd9	0.019438671
98	0x3d5a2711	0.053259913
99	0x3df39782	0.11894132
100	0x3cc84930	0.024448961
101	0x3e065b51	0.13120772
102	0x3d6c3567	0.057668116
103	0x3e4ba81b	0.19888346
104	0xbc682fd2	-0.0141715575
105	0x3db730df	0.08944868
106	0x3da081cf	0.07837259
107	0x3dba59de	0.09099172
108	0x3da671a6	0.081271455
109	0x3d1fbe8b	0.039000075
110	0x3c5cbfbe	0.013473449
111	0x3dc6d911	0.09709371
112	0x3d84fd73	0.06493654
113	0xbc10b8f4	-0.008833159
114	0x3c96bbcf	0.018400101
115	0x3a935c3f	0.0011242701
116	0x3d327efe	0.04357814
117	0x3cf6b96e	0.030117717
118	0x3d3e3b80	0.046443462
119	0xbc146450	-0.0090571195
120	0x3d549b29	0.051905785
121	0x3dd920b2	0.10601939
122	0x3e0251ff	0.12726592
123	0x3d94a6bb	0.07258364
124	0x3b713a5b	0.0036808464
125	0x3d15ef63	0.03660525
126	0x3d1c8594	0.038213328
127	0x3dcb665d	0.099316336
128	0x3e148bfa	0.14506522
129	0x3cbfc6ba	0.02341019
130	0x3c3d71cc	0.011562776
131	0x3d43ff56	0.04785093
132	0x3da8eb3a	0.08247991
133	0x3d5c2deb	0.05375473
134	0xb994e4bb	-0.00028399177
135	0x3d432457	0.04764208
136	0x3dfe531b	0.12418195
137	0x3c5d3c08	0.013503082
138	0xbd608df0	-0.054822862
139	0x3d9e9b7a	0.077444986
140	0x3dadf696	0.08494298
141	0x3df392ff	0.11893272
142	0x3cc7b064	0.024376102
143	0x3d800000	0.0625
144	0x3bfce9c4	0.0077182967
145	0x3d430062	0.047607787
146	0x3d34dd92	0.04415662
147	0x3d8d8fcd	0.069121934
148	0x3d891288	0.06692988
149	0x3e0ebb1f	0.13938569
150	0x3d8af954	0.06785837
151	0x3e04b794	0.12960654
152	0xbcfd2d37	-0.03090535
153	0x3bd53815	0.0065069296
154	0x3d94073a	0.07227941
155	0xbd1198b8	-0.035546035
156	0x3dc09819	0.0940401
157	0x3c853695	0.016261378
158	0x3d801dbd	0.06255672
159	0x3cff3aa8	0.0311559
160	0x3d9d09b8	0.07667869
161	0xbd1f42f2	-0.038882203
162	0x3d70799e	0.058709733
163	0xbcb3b9ad	-0.021939123
164	0x3d8bbd90	0.068232656
165	0x3d3ddec9	0.046355043
166	0x3bf71e3c	0.007541446
167	0x3e00939f	0.12556313
168	0x3d9c3c52	0.07628693
169	0x3e090af0	0.13383079
170	0x3b72d336	0.003705216
171	0x3da7b294	0.08188358
172	0x3a977bfd	0.0011557337
173	0x3d3000ba	0.042969443
174	0x3d8119be	0.06303738
175	0x3d6b07d2	0.057380505
176	0xbb799209	-0.0038081429
177	0x3d579018	0.052627653
178	0x3db16d26	0.086633965
179	0xbbf3b836	-0.007437731
180	0x3dc0e200	0.09418106
181	0x3d7dd1d8	0.0619677
182	0x3db55689	0.08854396
183	0x3db169f7	0.08662789
184	0x3c3f5341	0.011677564
185	0x3db4b0b4	0.08822766
186	0x3de8beef	0.11364543
187	0x3dd6d24d	0.104893304
188	0x3d132189	0.035920653
189	0x3d92c093	0.07165637
190	0x3d270649	0.04077748
191	0x3d846492	0.06464495
192	0x3c9f2074	0.019424655
193	0x3e0f2739	0.13979806
194	0xbdadd9fd	-0.084888436
195	0xbc678f3c	-0.014133271
196	0x3df677d0	0.12034571
197	0x3c19c72f	0.009385868
198	0x3db105be	0.08643673
199	0xbce980e9	-0.028503852
200	0xbcbdf17b	-0.023186436
201	0x3e93c5b0	0.2886176
202	0xbdd1ee6c	-0.102505535
203	0x3c92d32b	0.017922958
204	0x3dc0dff0	0.09417713
205	0x3e271df8	0.16320026
206	0x3cf691f4	0.030098893
207	0x3dbd311b	0.09237882
208	0xbd87313d	-0.06601188
209	0x3e7bad95	0.24577935
210	0x3e9245e0	0.28568935
211	0x3cac74ec	0.021051846
212	0x3c60b27d	0.01371443
213	0x3e22442c	0.15846318
214	0x3e80bfe9	0.25146416
215	0x3d6c4493	0.057682585
216	0xbdeb0e85	-0.11477379
217	0x3dbb397a	0.09141822
218	0x3ebeb797	0.37249443
219	0xbbf6e180	-0.007534206
220	0x3d87ab56	0.066244766
221	0x3a1c7b7f	0.000596933
222	0x3e280f0c	0.1641199
223	0x3bba8f13	0.0056933253
224	0xbd9cd90d	-0.07658587
225	0x3da487d7	0.08033722
226	0x3e14be97	0.1452583
227	0x3e2338b0	0.15939593
228	0x3e318985	0.17337616
229	0x3d96a5b7	0.07355826
230	0x3e4f85c1	0.20265867
231	0x3d7262a2	0.059176095
232	0xbc726464	-0.014794443
233	0x3e6eaccb	0.23308103
234	0xbca88a28	-0.02057369
235	0x3dd706be	0.10499333
236	0x3e23d69f	0.1599984
237	0xbdfe69cc	-0.12422523
238	0xbcc1f586	-0.023676645
239	0xbe1a3313	-0.15058546
240	0x3d449e94	0.048002794
241	0x3d94b385	0.07260803
242	0xbd28ab34	-0.041178897
243	0x3de2ccc7	0.110742144
244	0x3caf58fb	0.021404734
245	0x3d8baf3a	0.06820531
246	0x3e67322e	0.22577736
247	0x3dcd2177	0.100161485
248	0x3e3aa74f	0.18227886
249	0x3e3a9260	0.182199
250	0x3e6f0aef	0.23344015
251	0xbdca6f1d	-0.098844744
252	0xbd2f4c1a	-0.042797185
253	0xbc0a75b6	-0.008450916
254	0x3d283c7f	0.04107332
255	0x3de66545	0.112497844

hidden.bias_mu f4 [128]
0	0x3ec324bb	0.3811396
1	0xbdb73348	-0.08945328
2	0xbe3b3158	-0.18280542
3	0x3ec6a364	0.38796532
4	0xbdc07f56	-0.093992874
5	0xbdc01dc4	-0.09380677
6	0xbd03904c	-0.032120034
7	0x3e9d7b4f	0.3075814
8	0x3ecab0e8	0.39588094
9	0x3e50f5c9	0.2040626
10	0xbe576a90	-0.21036744
11	0x3ec7f4d9	0.3905399
12	0x3df4d8a7	0.11955386
13	0xbd41107b	-0.047134858
14	0x3e1897ed	0.14901705
15	0x3e484e19	0.19561042
16	0xbe094a24	-0.13407189
17	0x3e266003	0.16247563
18	0x3dda6885	0.10664467
19	0xbe6a86c8	-0.22902977
20	0x3d36b21a	0.044603445
21	0x3e7008ac	0.23440808
22	0x3eced952	0.40400177
23	0xbdf7a62a	-0.1209224
24	0xbc99e79d	-0.0187872
25	0xba31c86c	-0.00067818793
26	0xbdd638a8	-0.10460025
27	0xbd373167	-0.044724848
28	0xbe0454dd	-0.12922998
29	0xbc1663e3	-0.009179088
30	0x3ebb51e8	0.36585927
31	0xbaa6540d	-0.0012689844
32	0x3a76d3e6	0.00094157306
33	0x3cdbcb7f	0.026830433
34	0x3d475109	0.048661266
35	0x3d8aa5a1	0.067698725
36	0xbc12cd76	-0.0089601185
37	0xbd84a314	-0.06476417
38	0xbcd850ce	-0.026405718
39	0xbd8d2aee	-0.06892954
40	0xbd53a235	-0.051668365
41	0x3ebd7484	0.37002957
42	0xbe2531b7	-0.16132246
43	0xbe1a8cbe	-0.15092751
44	0x3eb13fd7	0.34619018
45	0x3e86964b	0.2628654
46	0xbc18b7ab	-0.009321134
47	0xbe0323d8	-0.12806642
48	0x3e98ec4f	0.2986779
49	0xbdb39e21	-0.08770395
50	0xbe6c03e7	-0.23048364
51	0x3e922ba0	0.28548908
52	0x3de47673	0.11155405
53	0x3da1a6ee	0.078931674
54	0x3d1bd810	0.03804785
55	0xbd53a377	-0.051669564
56	0x3e992b05	0.29915634
57	0xbdd6b582	-0.104838386
58	0x3e0656fb	0.13119118
59	0x3c36aba0	0.011149317
60	0xbd8a7e33	-0.06762352
61	0x3eb5f357	0.35537216
62	0x3e08dc31	0.13365246
63	0xbd9d1587	-0.07670122
64	0x3e84bf39	0.2592714
65	0xbc99c2f0	-0.018769711
66	0x3e7d923f	0.2476282
67	0x3e9d2e48	0.30699372
68	0x3e0257c3	0.12728791
69	0x3ec77f91	0.38964513
70	0x3ce65759	0.028117822
71	0x3e4104ba	0.1884946
72	0xbe70faf6	-0.23533234
73	0xbd525180	-0.051347256
74	0x3e94572e	0.28972763
75	0x3e60d061	0.2195449
76	0xbe72b8c1	-0.2370329
77	0x3e2c3780	0.16818047
78	0x3ec7e2d0	0.39040232
79	0x3e4d3b50	0.20042157
80	0xbe4de363	-0.20106272
81	0xbd859c54	-0.06523958
82	0x3ea1f246	0.31630152
83	0xbe27f90b	-0.16403596
84	0x3e3045ea	0.1721417
85	0xbd2961fa	-0.041353203
86	0x3ea71114	0.32630217
87	0x3e2f77e4	0.17135578
88	0x3e684f96	0.2268661
89	0x3e893027	0.2679455
90	0x3d6ce1e9	0.057832632
91	0xbdb5a7bc	-0.088698834
92	0xbe22e159	-0.15906276
93	0x3e6225be	0.2208471
94	0x3e486bf1	0.19572426
95	0x3cc38dbe	0.023871299
96	0x3d80f0f0	0.06295955
97	0xbc2b9635	-0.010472824
98	0xbe4f438a	-0.20240608
99	0xbe5e9ab0	-0.21738696
100	0x3d5d3a0e	0.054010443
101	0x3e29c04b	0.1657726
102	0x3eac1783	0.33611688
103	0xbe0b991c	-0.13632625
104	0x3e64b6f1	0.22335412
105	0xbd729058	-0.05921969
106	0xbdd2004d	-0.102539636
107	0x3ea3ccc1	0.31992152
108	0x3e0bb472	0.13643053
109	0x3ebbcc2f	0.36679217
110	0x3cfec1f6	0.031098347
111	0x3ec7d352	0.39028412
112	0x3e6358a1	0.22201778
113	0x3e9a6a54	0.30159247
114	0xbe43efd6	-0.19134459
115	0xbc82c03a	-0.015960801
116	0xbdcc9e10	-0.099910855
117	0xbda08616	-0.07838075
118	0xbe0637f1	-0.13107277
119	0x3ebc23cb	0.36746058
120	0xbe0ed6f7	-0.1394919
121	0xbc174bde	-0.009234397
122	0xbdb987d6	-0.09059112
123	0x3e89fc72	0.26950413
124	0x3e87f448	0.2655356
125	0x3e89c633	0.26909027
126	0xbc1be3f1	-0.009514795
127	0xbe197000	-0.14984131

hidden.bias_sigma f4 [128]
0	0xbe35bbd1	-0.17747428
1	0x3d7bdda9	0.06149069
2	0xbc45c862	-0.012071701
3	0x3e80d122	0.25159556
4	0x3da6842b	0.08130678
5	0x3c81e986	0.015858423
6	0x3d5cef85	0.05393936
7	0x3ea34027	0.31884882
8	0xbe87d3f7	-0.26528904
9	0x3e95bc7c	0.29245365
10	0x3e12d519	0.14339103
11	0x3e942616	0.28935307
12	0x3e994658	0.2993648
13	0x3d63f97a	0.05565784
14	0x3e9f1e7b	0.31077942
15	0x3e339e20	0.17540789
16	0x3d9d833f	0.07691049
17	0xbd8288c9	-0.06373746
18	0x3dff230b	0.12457856
19	0x3db5ea2a	0.08882554
20	0x3e346285	0.17615707
21	0x3eae238e	0.340115
22	0x3ea051e0	0.31312466
23	0xbcc81ada	-0.024426866
24	0x3d2b997b	0.041894417
25	0x3d6e95cc	0.058248326
26	0x3d98f665	0.07468871
27	0x3d70b1e2	0.058763392
28	0x3d6bee03	0.057600033
29	0x3d6161ef	0.055025037
30	0x3e9448ed	0.28961888
31	0x3d4e6566	0.05038967
32	0x3d9e2c7b	0.07723328
33	0x3dba9580	0.09110546
34	0xbdaaf59f	-0.0834763
35	0xbd570288	-0.05249265
36	0x3d40eaef	0.04709905
37	0x3ce00a20	0.027348578
38	0xbc120f77	-0.00891482
39	0x3e1ec71d	0.15505643
40	0x3d9da012	0.076965466
41	0xbdf53c10	-0.11974347
42	0xbd96b5b3	-0.07358875
43	0x3d4fb70f	0.050711688
44	0x3eb291a9	0.34876755
45	0x3e630bcd	0.2217247
46	0xba29c6e1	-0.00064764736
47	0x3d33ee9b	0.043928724
48	0xbe79a6ba	-0.24380007
49	0xbd11342b	-0.035450142
50	0xbdbfb283	-0.0936022
51	0x3e836f72	0.25670964
52	0x3e8fd177	0.28089496
53	0xbe191dc3	-0.1495276
54	0xbc3a568f	-0.011373176
55	0x3d513bbe	0.051082365
56	0xbe4bd1a6	-0.19904193
57	0x3da9fbeb	0.08300003
58	0x3e8d9328	0.27651334
59	0x3c2f0363	0.01068196
60	0x3c076ca7	0.008265651
61	0xbe787a3d	-0.2426538
62	0x3eabaf99	0.33532408
63	0x3d409bd4	0.04702361
64	0xbe47089f	-0.19436882
65	0x3d3ece72	0.0465836
66	0x3e9f1959	0.31074026
67	0x3e4d2d57	0.20036827
68	0xbc0b6a09	-0.0085091675
69	0x3e5c23d4	0.21498042
70	0xbb0ce821	-0.0021500664
71	0x3e89f8f9	0.26947764
72	0xbd3743af	-0.044742282
73	0xbddbd6c5	-0.107343234
74	0x3eae41f6	0.340347
75	0xbe5b7ce0	-0.21434355
76	0xbe057981	-0.13034631
77	0x3e66e14f	0.22546886
78	0xbe1ba911	-0.15201212
79	0x3e1c498b	0.1526243
80	0xbdab4522	-0.083627954
81	0xbada8c6c	-0.0016673929
82	0xbe7b55d1	-0.24544455
83	0xbddb7b07	-0.10716825
84	0x3e79ee02	0.24407199
85	0xbbf80914	-0.0075694416
86	0xbe877fc7	-0.26464674
87	0x3db53862	0.08848645
88	0x3e6f54e0	0.23372221
89	0xbe6aa154	-0.22913104
90	0xbe293588	-0.16524327
91	0x3d98fd2c	0.07470164
92	0x3d21d57e	0.039510243
93	0x3ebfb969	0.37446144
94	0xbe4a4c19	-0.19755591
95	0x3d081c05	0.033229847
96	0xbde1700c	-0.11007699
97	0x3e126bf1	0.14298989
98	0x3e0707e7	0.13186608
99	0x3d8b68af	0.06807076
100	0x3dc66a49	0.09688241
101	0x3eb54a1e	0.3540811
102	0x3e68df8f	0.22741531
103	0xbdbc0d3d	-0.091822125
104	0xbe831471	-0.25601533
105	0x3db07d8c	0.08617696
106	0xbc328c2d	-0.010897678
107	0x3e99dfad	0.30053464
108	0x3e913ddf	0.28367516
109	0xbe74cf79	-0.2390727
110	0x3d7c8f40	0.06166005
111	0x3e90d145	0.2828466
112	0xbe4d6859	-0.20059337
113	0x3e82b1cf	0.25526282
114	0x3c00dd59	0.007865273
115	0x3ccb6ceb	0.02483221
116	0xbba688bf	-0.0050822194
117	0x3ddc0436	0.10742991
118	0x3e26fe6d	0.16307993
119	0xbe5be9d1	-0.21475913
120	0xbd4434cf	-0.047901925
121	0xbca382f5	-0.019959906
122	0x3c8d24cb	0.017229458
123	0x3e94c321	0.29055122
124	0x3e88b22a	0.26698428
125	0x3e9a17b2	0.30096203
126	0x3cfb31e0	0.03066343
127	0x3e417a01	0.18894197

hidden.weight_epsilon f4 [128, 64]
0	0x3f38750a	0.7205359
1	0x3ea043bb	0.31301674
2	0x3e8cb28f	0.2747998
3	0xbf1d2b62	-0.6139432
4	0xbf002a08	-0.50064135
5	0xbf3ad9d4	-0.7298863
6	0x3ee8cbcc	0.45467985
7	0xbec0f0f4	-0.37683833
8	0xbece68d7	-0.4031436
9	0xbee61d46	-0.4494421
10	0xbf310961	-0.69154936
11	0x3f00961c	0.5022905
12	0xbf12a75a	-0.5728661
13	0x3f0886fc	0.5333097
14	0xbf079ec9	-0.5297666
15	0x3edcb7e6	0.43109053
16	0xbe3f5895	-0.18686135
17	0xbf04c4ca	-0.51862776
18	0xbf3c4086	-0.73535955
19	0xbe3490d1	-0.17633368
20	0xbe8336a2	-0.2562762
21	0x3f007c3c	0.50189567
22	0xbe6b008d	-0.22949429
23	0x3f11cb28	0.56950617
24	0x3f159d60	0.5844326
25	0x3e42f894	0.19040138
26	0x3f1588cc	0.5841186
27	0x3e450337	0.19239508
28	0xbe9623b6	-0.2932412
29	0x3e5b2b7e	0.2140331
30	0x3f03dac9	0.51505715
31	0x3f12630b	0.5718238
32	0x3effc499	0.4995468
33	0x3f0dc207	0.5537419
34	0x3f046663	0.5171873
35	0xbeed3ad9	-0.4633396
36	0xbeedd842	-0.46454054
37	0x3f2f91d6	0.68581903
38	0xbf30612f	-0.6889829
39	0x3f1941d1	0.5986605
40	0x3ea0f48f	0.31436583
41	0x3ea1679a	0.31524354
42	0x3e01c887	0.12674151
43	0x3e9521fc	0.2912749
44	0xbf0c5831	-0.5482207
45	0x3ed6e1df	0.419692
46	0x3d7d4ae1	0.06183899
47	0x3e6e9cf8	0.23302066
48	0xbe08f1e9	-0.13373531
49	0xbe80f92a	-0.25190097
50	0x3eccd07d	0.40002814
51	0xbf089c5a	-0.53363574
52	0xbf2913d2	-0.6604587
53	0x3e9147af	0.28375003
54	0xbf2b92ac	-0.6702068
55	0x3e4507bd	0.19241233
56	0xbe980aa6	-0.29695624
57	0xbef7520e	-0.4830479
58	0xbe583e99	-0.21117629
59	0xbecf356d	-0.40470448
60	0x3f15b19b	0.5847413
61	0x3f0c68b0	0.5484724
62	0x3d3373d7	0.043811645
63	0x3f21111d	0.6291674
64	0xbf3fd3fa	-0.74932826
65	0xbea6ab2f	-0.32552478
66	0xbe9251d9	-0.2857807
67	0x3f23732d	0.6384762
68	0x3f05491c	0.5206468
69	0x3f425140	0.7590523
70	0xbef2193a	-0.4728487
71	0x3ec8a6ae	0.39189667
72	0x3ed6a858	0.4192531
73	0x3eef4f45	0.46740165
74	0x3f381c68	0.71918344
75	0xbf05b982	-0.5223619
76	0x3f188392	0.5957576
77	0xbf0dfb9d	-0.55462056
78	0x3f0d0a23	0.5509359
79	0xbee589c7	-0.44831678
80	0x3e46fdfd	0.19432826
81	0x3f0a12f8	0.53935194
82	0x3f43c647	0.7647442
83	0x3e3bc7f1	0.1833799
84	0x3e8874e7	0.2665169
85	0xbf059e98	-0.5219512
86	0x3e74648c	0.2386648
87	0xbf179e94	-0.59226346
88	0xbf1b97e2	-0.6077863
89	0xbe4ac311	-0.19800974
90	0xbf1b827c	-0.6074598
91	0xbe4ce297	-0.20008312
92	0x3e9c2397	0.30495903
93	0xbe63ed88	-0.2225858
94	0xbf091f9d	-0.53563863
95	0xbf183c89	-0.5946737
96	0xbf04fe82	-0.5195085
97	0xbf136c2a	-0.5758692
98	0xbf09b0cb	-0.5378539
99	0x3ef6b5a1	0.48185447
100	0x3ef75955	0.48310342
101	0xbf3695db	-0.7132241
102	0x3f376d7d	0.7165144
103	0xbf1f6197	-0.62258285
104	0xbea76314	-0.32692778
105	0xbea7dab8	-0.32784057
106	0xbe06f82b	-0.13180606
107	0xbe9b1790	-0.30291414
108	0x3f11f3df	0.5701274
109	0xbedf780c	-0.43646276
110	0xbd83b4fd	-0.06431005
111	0xbe7825e7	-0.24233209
112	0x3e0e6ad0	0.13907933
113	0x3e862085	0.26196685
114	0xbed4ffad	-0.41601315
115	0x3f0e11d6	0.55495965
116	0x3f2fd56d	0.68685037
117	0xbe9715da	-0.2950886
118	0x3f326dce	0.696988
119	0xbe4ce74b	-0.20010106
120	0x3e9e1dfc	0.3088225
121	0x3f009a08	0.50235033
122	0x3e60e2b5	0.21961482
123	0x3ed77d1a	0.42087632
124	0xbf1baced	-0.6081074
125	0xbf120507	-0.5703892
126	0xbd3a9f95	-0.045562346
127	0xbf2780c7	-0.65430874
128	0x3f2438b0	0.64149
129	0x3e8eaecf	0.27867743
130	0x3e7a8655	0.24465306
131	0xbf0bed63	-0.546591
132	0xbee43542	-0.44571882
133	0xbf265a40	-0.6498146
134	0x3ecf41e2	0.40479952
135	0xbeabc655	-0.33549753
136	0xbeb7c3f9	-0.35891703
137	0xbeccdeac	-0.40013635
138	0xbf1d9d6e	-0.61568344
139	0x3ee4f5b4	0.44718707
140	0xbf0290af	-0.5100202
141	0x3ef3196c	0.47480333
142	0xbef17bf7	-0.4716489
143	0x3ec4812d	0.38379803
144	0xbe2a5ac3	-0.16636185
145	0xbeec6825	-0.46173206
146	0xbf279998	-0.6546874
147	0xbe20c1c1	-0.15698911
148	0xbe69a331	-0.22816159
149	0x3ee4c7a0	0.44683552
150	0xbe5138ae	-0.20431778
151	0x3f01cca5	0.5070289
152	0x3f05338c	0.5203178
153	0x3e2d94f4	0.16951352
154	0x3f05213a	0.52003825
155	0x3e2f6641	0.1712885
156	0xbe85ab26	-0.26107138
157	0x3e432042	0.19055274
158	0x3eeac77a	0.45855314
159	0x3f0253de	0.5090922
160	0x3ee3b588	0.44474435
161	0x3efc69b6	0.492994
162	0x3eebc00d	0.4604496
163	0xbed33469	-0.41250923
164	0xbed3c08d	-0.41357842
165	0x3f1c4f15	0.6105817
166	0xbf1d07af	-0.6133985
167	0x3f0871b3	0.5329849
168	0x3e8f4c3d	0.27987853
169	0x3e8fb2aa	0.28065997
170	0x3de7174e	0.11283742
171	0x3e84c5b1	0.25932077
172	0xbef9e56d	-0.4880785
173	0x3ebf4f0d	0.37364998
174	0x3d618156	0.055054985
175	0x3e546faf	0.20745729
176	0xbdf3d7d0	-0.11906397
177	0xbe65a613	-0.22426634
178	0x3eb6586b	0.35614333
179	0xbef33f78	-0.4750936
180	0xbf168766	-0.5880035
181	0x3e815798	0.2526214
182	0xbf18c02a	-0.5966822
183	0x3e2f6a48	0.17130387
184	0xbe875caa	-0.26437885
185	0xbedc303a	-0.43005544
186	0xbe408585	-0.18800934
187	0xbeb87a1d	-0.36030665
188	0x3f054590	0.5205927
189	0x3efa02cd	0.48830262
190	0x3d1fc40b	0.03900532
191	0x3f0f65aa	0.560145
192	0xbf68367b	-0.9070813
193	0xbec9c1bc	-0.3940562
194	0xbeb11fb2	-0.34594494
195	0x3f45dc40	0.772892
196	0x3f21587d	0.6302565
197	0x3f6b39eb	0.9188525
198	0xbf128885	-0.5723956
199	0x3ef2e4b2	0.47440106
200	0x3f01ec9f	0.5075168
201	0x3f10d863	0.5658018
202	0x3f5edf01	0.87059027
203	0xbf21e08d	-0.6323326
204	0x3f389f42	0.7211801
205	0xbf2bdfbb	-0.6713826
206	0x3f2abb6a	0.6669222
207	0xbf0aee54	-0.5426991
208	0x3e70e29a	0.23523942
209	0x3f27246d	0.65289956
210	0x3f6cfd7a	0.92574275
211	0x3e635056	0.22198614
212	0x3ea52f30	0.32262564
213	0xbf21bff9	-0.6318355
214	0x3e93ec01	0.28890994
215	0xbf378a0e	-0.7169503
216	0xbf3c5988	-0.73574114
217	0xbe7572da	-0.23969594
218	0xbf3c3fa0	-0.73534584
219	0xbe7804cc	-0.2422058
220	0x3ebd02a6	0.36916083
221	0xbe89f4cf	-0.26944587
222	0xbf25fdd6	-0.6484045
223	0xbf384944	-0.71986794
224	0xbf20fe2f	-0.62887853
225	0xbf327573	-0.69710463
226	0xbf26ad95	-0.65108615
227	0x3f1552fa	0.5832974
228	0x3f15b60f	0.58480924
229	0xbf5d063b	-0.8633763
230	0x3f5e0b42	0.8673593
231	0xbf40ef62	-0.7536527
232	0xbecaa058	-0.39575458
233	0xbecb312c	-0.39685953
234	0xbe23624c	-0.15955466
235	0xbebbbe31	-0.36668542
236	0x3f30adef	0.690154
237	0xbf0741ea	-0.5283495
238	0xbd9f6f4b	-0.07784899
239	0xbe9631e1	-0.2933493
240	0x3e2c6657	0.16835915
241	0x3ea25d3f	0.31711766
242	0xbf00eb95	-0.5035947
243	0x3f2bfaa2	0.6717931
244	0x3f54d9ec	0.8314502
245	0xbeb6e48b	-0.3572124
246	0x3f57fe2c	0.8437221
247	0xbe780a7f	-0.24222754
248	0x3ebf67a6	0.37383765
249	0x3f1bacf9	0.6081081
250	0x3e881d6b	0.26584944
251	0x3f026d65	0.5094817
252	0xbf3c7300	-0.73612976
253	0xbf30c2b4	-0.69047093
254	0xbd61e995	-0.0551544
255	0xbf4ac44b	-0.7920577

hidden.bias_epsilon f4 [128]
0	0x3f142783	0.5787279
1	0xbf1a1315	-0.60185367
2	0x3f03e6b3	0.51523894
3	0xbf3a82e0	-0.7285595
4	0x3f69ee8a	0.91379607
5	0xbf2ef20b	-0.6833808
6	0xbcf7892d	-0.030216778
7	0x3fa401c2	1.2813036
8	0x3f90c9bf	1.1311568
9	0x3f5d6566	0.86482847
10	0x3f2b2204	0.6684878
11	0xbfa956a1	-1.3229562
12	0xbf82b5cf	-1.0211734
13	0xbfd0d96b	-1.6316351
14	0x3f95b72d	1.1696526
15	0x3f459898	0.77185965
16	0xbf6ebacf	-0.932538
17	0x3f89958a	1.0748761
18	0xbef7b2ba	-0.48378545
19	0xbf9041f2	-1.1270125
20	0xbeecf49d	-0.46280375
21	0xbf85c238	-1.0449896
22	0x3f4afadf	0.7928905
23	0x3f3de5b2	0.7417861
24	0x3f85845f	1.0431021
25	0xbf8779ca	-1.0584042
26	0x3f467c38	0.7753329
27	0xbf5cb205	-0.86209136
28	0x3ed902f5	0.4238507
29	0xbea5b48e	-0.32364315
30	0x3fe1b464	1.7633176
31	0xbecfbe19	-0.4057472
32	0xbf267358	-0.6501975
33	0x3f2f0de5	0.68380576
34	0x3f0ba51c	0.5454881
35	0xbfc26a7a	-1.5188744
36	0x3f5f32ff	0.8718719
37	0xbf18b83d	-0.59656125
38	0x3ec2f3ce	0.38076633
39	0x3f47a170	0.7798071
40	0x3e6f8e5d	0.23394151
41	0xbf7fd15f	-0.9992885
42	0x3f42fd53	0.7616779
43	0xbf5a3367	-0.85234684
44	0x3fb8e18d	1.4443833
45	0xbf59b34e	-0.8503922
46	0xbf67bc75	-0.9052194
47	0xbf3b9d06	-0.73286474
48	0xbf052a76	-0.52017915
49	0x3e734e78	0.23760402
50	0xbfa03dc1	-1.2518846
51	0x3f7008d4	0.9376347
52	0x3f920fcf	1.1411074
53	0xbe931463	-0.2872649
54	0xbf5f410e	-0.8720864
55	0x3f3eba07	0.74502605
56	0x3f3038d1	0.68836695
57	0xbed7f881	-0.4218178
58	0xbf612d89	-0.87960106
59	0xbfc5b63d	-1.544624
60	0xbf00972f	-0.5023069
61	0xbf3eb9a5	-0.7450202
62	0xbead5296	-0.3385207
63	0xbf291b74	-0.66057515
64	0x3f8efb53	1.1170448
65	0xbf2ba7c4	-0.67052865
66	0x3f8aa3b3	1.0831207
67	0x3f1b3a8d	0.60636216
68	0xbf87e960	-1.0618095
69	0x3e8e47b9	0.27789095
70	0x3f8ff783	1.124741
71	0x3f95f2f6	1.1714771
72	0x3e28d9b0	0.16489291
73	0x3f24f6bb	0.6443898
74	0xbef771af	-0.4832892
75	0x3f622b66	0.8834747
76	0x3fba9060	1.457531
77	0xbfa09c2c	-1.254766
78	0xbf3d03c4	-0.7383387
79	0xbfb86c83	-1.4408115
80	0x3f823217	1.0171536
81	0xbf59d60a	-0.8509222
82	0x3f130c62	0.5744077
83	0xbf67d33e	-0.90556705
84	0xbe7724f0	-0.24135184
85	0x3f90707d	1.1284329
86	0x3f09f0bb	0.5388295
87	0xbfa87712	-1.3161337
88	0x3f0e1880	0.55506134
89	0xbf1128ab	-0.5670268
90	0x3f65038b	0.8945853
91	0x3ec4c3da	0.38430673
92	0x3f78c3d1	0.9717379
93	0xbfa644fe	-1.2989805
94	0x3f6eb229	0.932406
95	0x3f9d8f51	1.2309362
96	0xbf319db4	-0.6938126
97	0xbf513c47	-0.817326
98	0xbf6bacd5	-0.92060596
99	0xbf31889d	-0.6934908
100	0xbf881561	-1.0631524
101	0x3f555a9f	0.833414
102	0x3e94b3a5	0.29043308
103	0xbf4963ef	-0.7866811
104	0x3e9863ca	0.29763633
105	0xbed469b1	-0.41486886
106	0x3f97b337	1.1851567
107	0xbf46cae0	-0.7765331
108	0x3f1023a7	0.563044
109	0xbf2ac2ca	-0.66703475
110	0x3f894c87	1.0726479
111	0xbfcd9716	-1.6061733
112	0xbf1b4186	-0.60646856
113	0x3f5baa52	0.85806763
114	0x3f13822e	0.57620513
115	0xbf1b44c7	-0.6065182
116	0x3fa51fe1	1.2900354
117	0x3f2026d5	0.6255925
118	0xbf1a2b12	-0.6022197
119	0xbf84db3c	-1.0379405
120	0xbf01b7f2	-0.50671303
121	0xbf84d69a	-1.0377991
122	0x3ee69c19	0.45040968
123	0xbf6b9b32	-0.92033684
124	0x3f5e7442	0.86896145
125	0xbf1f96d2	-0.6233951
126	0xbf211b4c	-0.62932277
127	0x3f9ca2e6	1.2237213

out.weight_mu f4 [3, 128]
0	0xbe297a47	-0.16550551
1	0x3d9c5877	0.07634061
2	0x3be9d0c8	0.0071354844
3	0xbe3f9a56	-0.18711218
4	0xbc4a3b7e	-0.012343286
5	0x3d256286	0.040377162
6	0xbe2a4f9d	-0.16631933
7	0xbe6566c6	-0.22402486
8	0xbe203039	-0.15643395
9	0xbe007371	-0.12544037
10	0x3e95eefc	0.29283893
11	0xbe682d25	-0.22673471
12	0xbde8090e	-0.11329852
13	0x3c85b91e	0.016323622
14	0xbe420b0d	-0.18949528
15	0xbddce4a0	-0.10785794
16	0x3de29f58	0.11065549
17	0xbde98b8a	-0.11403568
18	0xbe52060f	-0.20510124
19	0x3df74e91	0.12075532
20	0xbe5ac9f1	-0.21366097
21	0xbe246411	-0.16053797
22	0xbe18ec76	-0.14933953
23	0x3c9ffa84	0.019528635
24	0x3c2b706f	0.010463818
25	0xbc2f8599	-0.0107130045
26	0xbc1a080b	-0.009401332
27	0xbbc97544	-0.0061480124
28	0xbcfa7362	-0.030572597
29	0x3c889a19	0.016675042
30	0xbe1d7684	-0.15377241
31	0xbcabe98f	-0.020985393
32	0xbe08557c	-0.1331386
33	0xbd2feca1	-0.042950276
34	0xbe622785	-0.22085388
35	0xbec38a1d	-0.3819131
36	0x3ca5c547	0.02023567
37	0xbd64da6b	-0.055872362
38	0xbe25cc4b	-0.16191213
39	0xbd498bdf	-0.049205657
40	0x3dcfca71	0.101460345
41	0xbe4bde88	-0.19909108
42	0x3dcbbb0e	0.09947787
43	0x3c7644da	0.015031064
44	0xbe215edb	-0.1575884
45	0xbe26dd91	-0.16295458
46	0xbecafa6b	-0.3964418
47	0x3db0f6e1	0.086408384
48	0xbe4986e2	-0.1968036
49	0x3e0f69da	0.14005223
50	0x3e8710cc	0.26380002
51	0xbe2ce98c	-0.16885966
52	0xbdf23b7a	-0.118277505
53	0xbe56b09b	-0.20965807
54	0xbec4bc5e	-0.38424963
55	0x3e16416a	0.14673391
56	0xbe11e1a8	-0.14246237
57	0x3d1d23cf	0.038364228
58	0xbdf9c090	-0.121949315
59	0x3da6c4d6	0.08143012
60	0x3cc6f99a	0.024288941
61	0xbdea0102	-0.114259735
62	0xbe25e451	-0.16200377
63	0x3da6dbfe	0.08147429
64	0xbe185c30	-0.14878917
65	0xbc985757	-0.018596334
66	0xbdf8dd54	-0.1215159
67	0xbda55d20	-0.08074403
68	0xbe5512d8	-0.2080797
69	0xbe4ecc90	-0.20195222
70	0xbc7ce600	-0.015435696
71	0xbdfeaaed	-0.12434945
72	0x3e6b3c1f	0.22972153
73	0xbe4c5e3a	-0.1995782
74	0xbe261086	-0.1621724
75	0xbe873de0	-0.26414394
76	0x3ed31d39	0.41233233
77	0xbdc80fa2	-0.09768607
78	0xbe3efaa4	-0.186503
79	0xbe5e0ad1	-0.21683814
80	0x3dd1a1cf	0.10235941
81	0xbc4dbdb4	-0.012557436
82	0xbe40c1d0	-0.18823934
83	0x3e8a2b89	0.2698634
84	0xbe322582	-0.1739712
85	0xbe37134e	-0.17878458
86	0xbe42ce44	-0.19023997
87	0xbf0e803b	-0.55664414
88	0xbe3bbf0d	-0.18334599
89	0xbe1cad05	-0.15300377
90	0xbe7088bb	-0.23489659
91	0x3d23096d	0.03980391
92	0xbcaf9b64	-0.0214364
93	0xbe39121c	-0.18073314
94	0xbdff6740	-0.12470865
95	0xbdde840d	-0.108650304
96	0xbdeb8e12	-0.11501707
97	0x3d8841c3	0.06653168
98	0xbdaeafea	-0.08529647
99	0xbcf2228c	-0.029557489
100	0xbd3dfbff	-0.0463829
101	0xbe673403	-0.22578435
102	0xbe526274	-0.2054537
103	0x3f0d9144	0.5529978
104	0xbe0ef58e	-0.13960859
105	0xbd58873d	-0.05286335
106	0x3cdd8521	0.02704102
107	0xbddcb4b9	-0.107766576
108	0xbe33725e	-0.17524096
109	0xbe543425	-0.20723017
110	0x3d8bd3b9	0.06827492
111	0xbe405603	-0.18782811
112	0xbe571b29	-0.21006455
113	0xbe2b8ea8	-0.16753638
114	0xbb6a16b2	-0.0035719094
115	0xbe6334db	-0.22188132
116	0x3e80dd15	0.25168672
117	0x3c5879f6	0.0132126715
118	0x3e4f1054	0.20221072
119	0xbe227a22	-0.15866902
120	0x3dc7a83f	0.09748887
121	0x3be8cde1	0.007104621
122	0xbcd84fdc	-0.026405267
123	0xbe641fd7	-0.22277771
124	0xbdea49ac	-0.11439833
125	0xbe37ace8	-0.17937052
126	0x3cfe31f8	0.031029686
127	0x3ded6d3d	0.11593101
128	0xbe0a3b05	-0.13499077
129	0x3c9e0ef2	0.019294236
130	0xbc71d071	-0.014759169
131	0xbe489049	-0.1958629
132	0xbb090cb8	-0.0020912122
133	0x3da96c67	0.08272629
134	0xbe63d023	-0.22247367
135	0xbe576bfc	-0.21037287
136	0xbe4b62ce	-0.1986191
137	0xbe1e958d	-0.15486737
138	0x3ed66682	0.41875082
139	0xbe665ceb	-0.22496383
140	0xbe2700b8	-0.16308868
141	0xbdb4a93b	-0.08821341
142	0xbe6264a2	-0.22108701
143	0xbd75748c	-0.0599256
144	0xbd8c61b5	-0.06854574
145	0xbe0d00d1	-0.13769843
146	0xbcf3c666	-0.02975769
147	0x3e4c08a4	0.19925171
148	0xbe67abfb	-0.22624199
149	0xbd7b29c3	-0.061319124
150	0xbe2131b2	-0.15741614
151	0x3c3be31a	0.011467719
152	0x3b3359cd	0.0027366758
153	0xbc2a3dcf	-0.010390713
154	0xbd1e5811	-0.038658205
155	0x3d94a349	0.07257707
156	0xbda3cc29	-0.07997925
157	0xbd036c86	-0.032085918
158	0xbddb8351	-0.10718406
159	0x3c1ce43c	0.0095759
160	0xbe87f09e	-0.26550764
161	0xbbbdb50d	-0.005789405
162	0xbe8a5e3c	-0.2702502
163	0xbe9ceae2	-0.3064795
164	0x3da63ca3	0.08117034
165	0xbdf14479	-0.11780638
166	0xbe680c48	-0.22660935
167	0x3d9a9dbc	0.07549617
168	0x3dafdf46	0.08587508
169	0xbe3bc670	-0.18337417
170	0x3dc77adf	0.09740233
171	0x3c1359ff	0.008993625
172	0xbe3ea949	-0.18619265
173	0xbe3f3d73	-0.18675785
174	0xbe5781b1	-0.21045567
175	0xbceb9402	-0.028757099
176	0xbe565359	-0.20930232
177	0x3e052d4c	0.1300556
178	0x3ee4b680	0.44670486
179	0xbe3cdac6	-0.1844283
180	0xbe029346	-0.12751493
181	0xbe0d53ac	-0.1380145
182	0xbe8e255a	-0.27762872
183	0x3e0a068b	0.13479058
184	0xbe552e05	-0.20818336
185	0x3da0246a	0.078194454
186	0xbe2238a1	-0.15841915
187	0x3de7bfac	0.113158554
188	0x3d679292	0.056536265
189	0xbe465791	-0.19369341
190	0xbdfde57c	-0.12397286
191	0xbba9757d	-0.0051714764
192	0xbe2708a2	-0.16311887
193	0xbc5912ed	-0.013249141
194	0xbe4e56cb	-0.20150296
195	0xbe14d547	-0.14534484
196	0xbe2a43b6	-0.16627392
197	0xbe452aba	-0.1925458
198	0x3cb1aff9	0.021690356
199	0xbe2e63b3	-0.1703022
200	0x3e37bc2d	0.17942877
201	0xbe1d9a0d	-0.15390797
202	0xbe4f1fe0	-0.20227003
203	0xbe590bfb	-0.21195976
204	0x3f155b1e	0.5834216
205	0xbde464d2	-0.111520424
206	0xbe1f7353	-0.15571336
207	0xbe3bd205	-0.18341835
208	0xbcff18d1	-0.031139763
209	0x3d4c0fa7	0.049819615
210	0xbdc27e46	-0.09496741
211	0x3e95a0b0	0.29224157
212	0xbe283f2a	-0.16430345
213	0xbe685fef	-0.22692846
214	0xbe06b56e	-0.13155147
215	0xbeb17416	-0.3465888
216	0xbe24b9ff	-0.16086577
217	0xbe4dc220	-0.20093584
218	0xbe6dd13f	-0.23224352
219	0xbd9726bd	-0.073804356
220	0xbd658f4c	-0.05604486
221	0xbe520975	-0.2051142
222	0xbe51e2b4	-0.20496637
223	0xbe22bddc	-0.15892738
224	0xbe0a0d2c	-0.13481587
225	0xbd319ce8	-0.043362528
226	0x3d0ad77c	0.03389691
227	0x3d83eb72	0.06441392
228	0x3de459ac	0.11149916
229	0xbe5ba143	-0.21448235
230	0xbe1281fd	-0.14307399
231	0x3e916ce7	0.28403398
232	0xbe2eaa0c	-0.17057055
233	0xbde34942	-0.11097957
234	0x3c103c7c	0.008803483
235	0xbe481abd	-0.1954145
236	0xbd95a0bc	-0.07306048
237	0xbe30df6a	-0.17272726
238	0x3dba96b4	0.091107756
239	0xbe2652a5	-0.16242464
240	0xbe572a87	-0.21012317
241	0xbe39a3a8	-0.18128836
242	0xbd96d314	-0.07364479
243	0xbe9c60b0	-0.30542517
244	0x3e39a053	0.18127565
245	0xbb9f75e1	-0.004866347
246	0x3e60ad6e	0.21941158
247	0xbe3a0850	-0.18167233
248	0xbce9dfd5	-0.028549114
249	0x3d90174c	0.070356935
250	0x3d07d351	0.03316051
251	0xbe33412e	-0.17505333
252	0xbda9af09	-0.082853384
253	0xbddeec34	-0.10884896
254	0xbd9b4260	-0.075810194
255	0x3e259b9c	0.16172642
