save/checkpoint/ckpt/acrobot_dqn_noisy_hid_64_12820000_ckpt.tar (torch_old, 861409 bytes, 34 tensors)

feature.weight f4 [64, 6]
000000 11 79 71 3e 2b f6 38 bd 3a 26 9b 3e c6 76 3e 3f
       0.2358134 -0.04515664 0.30302602 0.74399984
000010 a7 13 d9 3d e8 72 3d 3d 11 3f 84 3c c4 ec 75 be
       0.105994515 0.04625216 0.016143354 -0.240161
000020 c5 02 dc 3e 84 6f 9d bd 58 62 9e bd 38 44 9c bd
       0.42970863 -0.076872855 -0.07733601 -0.07630199
000030 cb f0 9c be cc b4 0c 3f ab 16 04 bf 73 ca 23 be
       -0.3065246 0.54963374 -0.5159709 -0.15995197
000040 29 b1 5d 3b 21 b1 23 3c ce 93 89 3d 0f dd 19 3e
       0.003382752 0.009990961 0.06717645 0.15025733
000050 c8 4e ec be a5 de 22 bf 9c 0f cd 3d 7c a8 d9 3b
       -0.46153855 -0.6362098 0.10012743 0.0066423994
000060 11 98 53 3e 89 4f 19 bf 72 84 b0 bd 3b da c0 3d
       0.20663477 -0.59886986 -0.08619012 0.09416624
000070 8f 60 0e 3d 66 71 b1 3c ee 46 0a 3e 63 03 e7 3e
       0.034760054 0.021660518 0.1350362 0.4511977
000080 63 51 e5 3c e8 fa d1 3d c1 ad 10 bf c9 bc 73 be
       0.02799291 0.10252935 -0.5651513 -0.23802485
000090 ef 1d ac 3e 74 36 e6 3d 7a 1f ac 3d 16 fe 67 3e
       0.33616588 0.11240855 0.08404441 0.2265552
0000a0 27 24 95 bd ff f7 fe bd a6 23 32 bf bd 6a 91 be
       -0.07282286 -0.12449645 -0.69585645 -0.28401747
0000b0 1b ed a6 bd 16 b6 92 3e 90 f6 07 be 17 24 02 be
       -0.08150693 0.28654546 -0.1327765 -0.1270908
0000c0 50 da 1b bd e7 fb f6 be f4 c5 19 bf c5 0e 86 bb
       -0.038049996 -0.4823906 -0.6006768 -0.004091116
0000d0 2f 5a 87 3d 1e 79 43 be 7a 43 e6 3e 48 96 61 bd
       0.06608998 -0.19089171 0.44973356 -0.05507496
0000e0 eb ea b8 3e 83 4b e9 3e bb 6b e1 bd b4 eb e8 bd
       0.36116728 0.45565423 -0.11006876 -0.11373082
0000f0 ce 45 0b bd 90 a2 05 bf e2 19 a8 3d c6 f6 34 3f
       -0.034002118 -0.52201176 0.08208062 0.70689046
000100 0c 21 cf bd ff 45 3d be 09 df f8 bc a3 c4 4b be
       -0.10113725 -0.18483733 -0.030379789 -0.1989923
000110 7e 23 42 3b 08 6e 3f be ed b7 19 3d 54 eb 17 3d
       0.0029623206 -0.18694317 0.03752892 0.03708966
000120 95 38 ae 3e 02 6b 11 be 2b ff f0 3e b6 74 ea 3c
       0.34027544 -0.14200976 0.47069678 0.028620105
000130 8c f8 47 be 6f 2f 05 be 96 1a f7 be c1 85 82 3e
       -0.19528407 -0.13006376 -0.4826247 0.2549267
000140 34 eb fa be 1a 80 e8 3e d7 ac 7e 3e 0b 34 0e be
       -0.4900757 0.45410234 0.2487062 -0.1388704
000150 70 ba d3 bd 38 e0 e8 be ee 2a 95 3e 1b 23 16 3f
       -0.103382945 -0.45483565 0.29134315 0.58647317
000160 02 8e 3f bd 3f a2 eb bd 55 5b 8d 3c 79 4e 59 3c
       -0.04676629 -0.11505555 0.017255465 0.013263338
000170 c9 be fe 3e 3b a3 f0 be b8 08 8e bd 28 c8 17 bd
       0.49754933 -0.46999535 -0.06935257 -0.03705612
000180 d5 0a d5 bd 8f 71 f9 be 00 8b 40 3e 41 19 27 be
       -0.10402457 -0.4871945 0.18803024 -0.16318227
000190 6e 90 3d 3f ea 64 8a 3e 3d 5f 96 3e 8c 2a a6 be
       0.7404851 0.27030116 0.29369536 -0.32454336
0001a0 b5 16 f3 3c ad ab 22 3d 71 cc f9 bd 79 d5 d0 bd
       0.029673913 0.039714504 -0.12197197 -0.10196967
0001b0 30 cc 83 3d 15 12 68 be 98 7a 87 bd 07 7c 44 bc
       0.0643543 -0.22663148 -0.0661518 -0.011992461
0001c0 4b 0e d2 3d 44 4e 84 be 16 ea a7 3e 49 42 68 bb
       0.102566324 -0.25840962 0.3279578 -0.00354399
0001d0 83 24 ba 3e 5a 21 ff bd c7 2d 38 be 02 b0 1e be
       0.3635598 -0.12457533 -0.17986213 -0.15496829
0001e0 53 68 39 3e 2b 14 99 3e d9 30 05 3f 53 44 59 bd
       0.18106203 0.298982 0.5202766 -0.053043675
0001f0 aa ea b1 3d 90 ce df 3d ca 3e ad be 0a 8c ef be
       0.08687337 0.109280705 -0.33836967 -0.4678653
000200 bb 35 3b be 06 2b 09 3f 23 b1 c4 3c 67 2d 9b bd
       -0.18282215 0.53581274 0.024010247 -0.07577019
000210 06 d2 9a bc 52 4d 38 bf eb 5a 78 be 83 fd 92 be
       -0.018898975 -0.7199298 -0.24253432 -0.2870904
000220 1c a8 23 3e 95 fd 4d 3e 21 38 b1 3e f2 1a b0 be
       0.15982097 0.20116265 0.34613135 -0.34395558
000230 bd 82 a2 be 5e d5 1f 3f c2 da 41 bd 37 47 63 bc
       -0.3174037 0.6243495 -0.047327764 -0.013871959
000240 f3 6b 19 bf 9c 87 ad 3d da 7e 6f bf 53 30 5b bc
       -0.5993034 0.08473131 -0.93552935 -0.013378221
000250 8f 89 82 3b 4d d5 93 bc de 27 c3 3c 9c fb bf be
       0.0039836834 -0.018046046 0.023822721 -0.3749665
000260 ea 34 d5 3e 88 e5 ce 3e 10 c9 5b 3e 75 f6 e2 3c
       0.41641933 0.40409493 0.21463418 0.02770541
000270 e5 dc 8b bd 97 2c 81 bd e1 fa 95 be d3 b8 4b be
       -0.06829242 -0.06307333 -0.29292968 -0.19894724
000280 17 b0 46 be e4 6e 07 3e c1 44 32 be 12 e7 99 3e
       -0.1940311 0.13225895 -0.1740904 0.30059105
000290 b9 8b d7 3e 77 50 8a 3d 56 c0 21 3d d4 47 3d 3d
       0.42098787 0.06753629 0.039490066 0.04621108
0002a0 06 f4 f0 3e 4d 63 d7 be 98 c6 71 be c9 f2 a5 3d
       0.47061175 -0.42067948 -0.23610914 0.08102948
0002b0 10 0a 1d 3e c6 e9 80 3c 5c e4 14 3e 44 46 c7 bd
       0.1533587 0.015736472 0.14540237 -0.09730199
0002c0 41 3c f8 3d 3c 2d d2 3e 1d a7 40 be dc 99 b4 bd
       0.121208675 0.41050136 -0.18813749 -0.08818409
0002d0 f0 a8 77 3d a7 15 b9 be 6c 4a 06 be ad 18 c0 3d
       0.060463846 -0.36149332 -0.13114327 0.093797065
0002e0 cc f2 68 be ff c7 97 be 6f 0d f1 be 38 73 c3 3e
       -0.2274887 -0.29644772 -0.47080562 0.38173842
0002f0 49 1e 38 bd 3f 19 1c bf c1 08 3c be 77 50 fa 3d
       -0.044950757 -0.6097602 -0.18362714 0.12222379
000300 95 78 8d bc 3f 4a 17 be 49 00 6c 3a 26 fc 7d be
       -0.017269412 -0.14774416 0.0009002728 -0.24803218
000310 f2 f5 c2 be 65 12 03 be a5 a5 b5 3e 28 6d 33 be
       -0.38078266 -0.12799986 0.3547794 -0.17522109
000320 bf ad 0c be 62 81 77 bd c8 f4 27 bd 64 00 92 bd
       -0.13738154 -0.060426123 -0.041004926 -0.07128981
000330 05 7e 84 bd 30 34 e8 3e d8 53 a8 be cc cd 5f 3e
       -0.06469349 0.45352316 -0.32876468 0.21855849
000340 db c6 cc 3d 5d f9 a4 3e e5 ab c4 3d 1d 16 18 3f
       0.09998866 0.322215 0.09603099 0.5940874
000350 c2 79 0b 3e 5e 31 ce 3e 0e f7 c3 bc 0c e3 84 3c
       0.13620666 0.4027204 -0.023921516 0.016221546
000360 ad bf ad 3d af 19 0d bf a7 ed a2 3e 4d b7 5c 3e
       0.08483825 -0.55117315 0.3182194 0.21554299
000370 bf 10 62 3e 17 ac cb 3d f9 61 97 be cc 34 7f be
       0.220767 0.09944933 -0.29566935 -0.24922484
000380 ee bc 57 3e 2b 0e bd 3d 5d 21 d9 be 07 22 ab be
       0.21068165 0.09231218 -0.42408267 -0.33424398
000390 1f 02 86 3e b8 ff 1f 3f 36 2f 56 bf dd 39 32 3f
       0.26173493 0.6249957 -0.8366579 0.6961954
0003a0 2a c6 4e bd 72 3b 4f 3c 86 d8 50 3e 46 2a 1b 3f
       -0.050481953 0.01264845 0.20395097 0.6061138
0003b0 a7 07 63 3e 15 ac 01 3d ce 29 a7 bd ef 32 c4 3c
       0.22170888 0.03165825 -0.081622705 0.023950068
0003c0 14 8a 43 be 92 7c 16 bf 58 70 1c be e9 a1 16 3f
       -0.19095641 -0.5878383 -0.1527723 0.58840805
0003d0 54 64 c5 3d b5 40 50 be 5a 8e 11 3e ca 99 c7 bd
       0.09638277 -0.20337184 0.14214459 -0.0974613
0003e0 f8 1e 3b 3e 0a 4d 9f be 66 e9 8a bd 80 96 8e 3e
       0.18273532 -0.31113464 -0.067827985 0.27849197
0003f0 dd c3 79 3e b2 4d 03 3f 9e 1d cf 3c 1c 34 8d be
       0.24391122 0.5129043 0.025282677 -0.2757882

feature.bias f4 [64]
000000 0c 00 94 3d 5f 29 d7 3e f2 3e 8f 3e e6 55 23 bd
       0.072265714 0.4202375 0.2797771 -0.03987684
000010 94 5f c1 3e d1 bd ad be 4e 87 d6 3e 7f 7f 96 be
       0.37768233 -0.3393388 0.41900104 -0.29394147
000020 70 9a 1e bf 05 e9 70 3d 7b 56 23 3d e8 79 bf 3e
       -0.619544 0.058815975 0.039877396 0.37397695
000030 76 87 a5 3e 01 5b 4c bf 99 48 b2 3e 87 e2 0f be
       0.3232991 -0.7982636 0.34821013 -0.14051257
000040 55 c0 20 bf 59 4e 06 3f f5 97 3e be db 2b 1a 3f
       -0.62793475 0.524633 -0.18612655 0.6022317
000050 d1 bf e1 3e 80 22 bb 3e 16 50 73 be a5 87 c9 bd
       0.44091657 0.3654976 -0.23761019 -0.09840325
000060 6b 2a 1e 3f 6d 8a dd 3e 00 50 10 bf 3a 30 10 3f
       0.61783475 0.43269673 -0.5637207 0.5632359
000070 f3 8c 1a 3f 8e b8 0f 3f 8a 37 ad be e1 18 b9 be
       0.6037132 0.56140983 -0.33831435 -0.36151794
000080 6e cf 91 3e e2 dd 15 3d 05 13 7b be 24 33 93 3c
       0.2847857 0.036588557 -0.24518974 0.017968722
000090 fd 1b 02 bd 66 af a8 be 93 df 1a be df 6e c8 3e
       -0.031764973 -0.32946318 -0.1512435 0.39147088
0000a0 7c 01 81 be c5 00 15 bf 2a 4f 4c 3e 5e 65 50 bf
       -0.25196445 -0.582043 0.19952074 -0.81404674
0000b0 df e9 f6 3e 8c 25 06 3f 6a ca d7 3e fb ac 46 bf
       0.48225304 0.5240104 0.42146617 -0.776077
0000c0 9f fc d3 be 54 48 26 3f 25 67 eb 3e 4b 9c 7d be
       -0.41403672 0.64954114 0.4597713 -0.24766652
0000d0 b0 03 17 3e 3a ea 34 3f bf 7c 28 3f 93 de 22 3f
       0.147475 0.706699 0.6581535 0.6362087
0000e0 23 f8 c6 be 8d 72 3b bf 0b 14 47 3e d6 33 6b bd
       -0.38861188 -0.73221666 0.1944124 -0.05742248
0000f0 9a d7 2a 3f 27 01 ad 3e f6 93 9b be eb 8f 2b 3f
       0.6673523 0.33789942 -0.30386323 0.67016476

hidden.weight_mu f4 [128, 64]
000000 2b b8 3e 3e 08 18 89 be 50 4f 88 bc cc 9a a2 3e
       0.18624942 -0.26776147 -0.016639382 0.31758726
000010 ca e2 28 3e 4a 82 21 bf 71 f1 c3 3d ee 08 2b bf
       0.16492763 -0.6308943 0.09567536 -0.668105
000020 4b cb fa 3c 73 16 1a bd 3a 49 18 bf 13 c1 67 bc
       0.030614516 -0.037619065 -0.59486735 -0.014145154
000030 c1 d4 62 be 42 83 71 3e 03 6c 36 bf f3 12 a0 be
       -0.22151472 0.23585227 -0.7125856 -0.31264457
000040 2a f6 c4 bd 90 0c 88 3c 47 7f c3 bd 2c ed fa 3c
       -0.096172646 0.016607553 -0.095457606 0.03063067
000050 ab 50 55 be 91 51 c9 be 06 eb c3 3d 2c 88 46 3e
       -0.20831554 -0.39320043 0.095663115 0.19387883
000060 d7 0c 4b 3e eb f8 d6 bc 44 8e eb be 58 b0 d5 be
       0.19829117 -0.02624174 -0.46006978 -0.41736102
000070 59 6f 64 3e c9 11 24 bd 3f 54 b9 be c7 a9 1d bf
       0.22308101 -0.040056024 -0.36197087 -0.61587185
000080 76 a0 5a be 3d e4 bf 3e be 72 ee 3d f3 9c 0b bf
       -0.21350273 0.3747882 0.11642979 -0.5453636
000090 b0 29 86 be 81 8e 3d be e5 30 ca 3e b7 5d 07 bf
       -0.2620368 -0.18511392 0.3949043 -0.5287737
0000a0 d0 42 2f bf 06 ae 0e bf 0c 8c db be ac e2 b3 be
       -0.6846132 -0.5573429 -0.42880285 -0.35133874
0000b0 0a 73 bb 3d f1 e9 91 3d 17 bd 82 3e c1 64 96 be
       0.09152801 0.07124699 0.2553489 -0.29373744
0000c0 66 9e a5 3e 09 15 18 3d bb 9e 4e be b4 22 44 bd
       0.3234741 0.037129436 -0.20177738 -0.047884658
0000d0 bf 9f a9 3e 93 f1 3b 3e f7 30 4b be c5 20 90 3d
       0.3312969 0.18353872 -0.19842897 0.070375
0000e0 d6 7d c3 3e 51 a5 25 bf 27 47 05 3e 67 21 fe be
       0.38181943 -0.6470538 0.13015424 -0.4963486
0000f0 78 cf 03 3e 9a 44 37 be 08 0c 81 3d 5b 38 80 be
       0.12872112 -0.17897263 0.06301123 -0.25042996
000100 f4 e5 1b bf de cd a0 3e e9 1f c5 bd 9c 08 c8 3e
       -0.60897756 0.31407064 -0.09625227 0.39069068
000110 b9 ed 6f 3e 7c f1 af be 11 92 43 be 27 9f 83 3e
       0.23430528 -0.34363925 -0.19098689 0.2570736
000120 88 e5 2a 3e c9 5d d5 be a1 de 95 be 30 d3 60 3e
       0.16689122 -0.41673115 -0.29271415 0.21955562
000130 42 f4 85 3e 93 01 53 bd 87 39 65 be ed 95 98 bb
       0.26162916 -0.051515173 -0.22385226 -0.0046565444
000140 5b 6c 13 bf 39 6d ff 3d 02 fa 15 be e4 46 61 3d
       -0.5758721 0.124720044 -0.14646152 0.054999247
000150 9a e6 86 be 46 7d 5e bc bc c3 42 3d 5e 40 e7 be
       -0.2634781 -0.013579672 0.047549948 -0.45166296
000160 54 5e 08 3f 20 1f ed be 0a 7b 05 3e db f8 37 be
       0.53268933 -0.4631281 0.13035217 -0.17966025
000170 f9 b9 14 3d da 1a 76 be 85 82 81 be 90 b5 1d 3e
       0.03631017 -0.2403368 -0.2529489 0.15401292
000180 dd 8b 70 3e 3b 77 32 be 27 18 35 be 4b 70 b7 be
       0.23490854 -0.17428295 -0.17684995 -0.3582786
000190 96 59 20 bf f6 b2 82 3d 62 5b 2b bf df c3 47 bf
       -0.626367 0.0638179 -0.66936314 -0.7803325
0001a0 dc a5 5c bd 51 5d 30 3e 32 bd c3 be 14 a2 c2 be
       -0.053869113 0.17223097 -0.38230282 -0.3801428
0001b0 23 6f ae be 75 b8 ca bd 5d 61 e1 bd 52 ea a1 be
       -0.34069166 -0.09898464 -0.11004899 -0.31624085
0001c0 41 20 84 be c8 1a 8c 3c 41 1c f9 3d a5 36 35 be
       -0.25805858 0.017102614 0.12163592 -0.17696626
0001d0 e1 b3 08 3d 20 f1 c1 3d d0 3f 98 be ef eb a3 3e
       0.03337467 0.09469819 -0.29736185 0.3201594
0001e0 71 32 0d bf ef 34 d1 be 8e d2 93 be c6 92 0f bf
       -0.5515509 -0.40860698 -0.28871578 -0.56083333
0001f0 0a 4b 9f bc ea 43 bb be 10 3e 80 3e a8 43 57 be
       -0.019444961 -0.36575252 0.2504735 -0.21021903
000200 3b 30 97 3d 1f cd 80 3e 80 aa 46 3e f2 2b 46 3e
       0.07382246 0.25156495 0.19400978 0.19352701
000210 b7 4b 87 3e b1 6e 5e be ae 06 0d 3e 17 ed ac 3e
       0.26424953 -0.21721913 0.1377208 0.33774635
000220 be ee 32 be c1 99 9a 3e 3e c0 8b 3e 1d 23 7e 3e
       -0.17473885 0.3019543 0.27295107 0.24818082
000230 c4 ef ce 3d 7d 08 97 be 07 57 b4 3e 6e 6c 19 3e
       0.101043254 -0.29498664 0.35222647 0.14982769
000240 f8 3b a4 be 5c f0 8a 3e 23 07 74 be 92 18 bf 3e
       -0.32077003 0.27136505 -0.23830847 0.37323433
000250 ee 5f b5 3e 87 45 84 3e c5 0b 8f bd a7 d5 5d 3e
       0.3542475 0.25834295 -0.06984667 0.21663533
000260 6c ba d0 3e 58 7e 56 3e d0 ed b7 be f2 42 8b 3e
       0.4076723 0.20946634 -0.35923624 0.27199513
000270 9e 1f 9f 3e 69 cb 5a 3e 9c 9c 4b be 56 09 56 bd
       0.3107881 0.21366657 -0.1988396 -0.052254997
000280 2e 78 18 3e 2c 70 48 bb f5 86 8b be b3 75 33 3e
       0.14889595 -0.0030584438 -0.27251402 0.17525367
000290 4c 9c 7c 3e 71 2b c4 be d5 b1 56 3e 67 d8 98 3e
       0.24668998 -0.38314393 0.20966275 0.29852602
0002a0 38 c1 e6 bd db b9 e1 bd 48 69 fe 3d 0f 44 32 be
       -0.11267322 -0.11021777 0.124224246 -0.17408775
0002b0 85 01 54 3e 98 79 67 3e cc 50 90 3e 53 3e c3 be
       0.20703705 0.22604978 0.28186643 -0.38133487
0002c0 48 ca 4f be d8 eb 25 3e 70 30 c6 3e c0 63 a2 bd
       -0.20292008 0.16203249 0.3870883 -0.07929182
0002d0 0c 14 4f 3e 5f b0 cc 3e 52 83 b7 3e 25 e0 9f 3e
       0.20222491 0.3997831 0.35842377 0.31225696
0002e0 5f 74 29 be 2a 51 d5 be d4 3a 6b 3e 77 ea 99 3e
       -0.16548298 -0.41663486 0.2297166 0.30061695
0002f0 f7 ff ce 3e 48 75 ac 3e d4 80 19 3e 01 8c 24 3e
       0.4042966 0.33683228 0.1499055 0.16069032
000300 31 4a 17 bc 0b 41 49 be 65 ae b8 bc a7 41 2c be
       -0.009233997 -0.19653718 -0.022544095 -0.1682192
000310 dc c1 20 be e4 b3 f1 bc 84 f6 6f 3c 38 ec 35 bc
       -0.15698951 -0.029504724 0.014646176 -0.011103682
000320 96 45 10 be 9c e5 94 3d 15 86 75 be 73 81 9a bd
       -0.14089045 0.07270357 -0.2397693 -0.07544222
000330 b0 f6 2d be 70 15 18 bb c5 47 6a bd a3 d4 fd bd
       -0.16988635 -0.0023206137 -0.05719735 -0.12394073
000340 53 1b 74 bd 3c 8f a1 bd 04 ae 12 3e 2b b3 6c 3d
       -0.05959637 -0.07888648 0.14324194 0.057788055
000350 43 f1 25 be b5 6d 65 be 9a 1c f8 bc 4e ae 93 bd
       -0.16205315 -0.22405131 -0.030287076 -0.0721098
000360 22 bf 37 be 94 13 0b 3d c7 25 0e be 07 56 62 bc
       -0.17944005 0.033954218 -0.13881598 -0.013814456
000370 cf f1 8e 3c d4 5e 87 bd d7 2b ae 3c a5 09 7b 3c
       0.017449288 -0.06609884 0.021261139 0.015322124
000380 83 48 fd bd 72 ad 16 3c 91 40 1c 3e 7e 31 75 3e
       -0.12367346 0.009196626 0.15259005 0.23944661
000390 57 bb b9 3d bc 04 45 bd 49 3e c1 3c 5a 68 87 3d
       0.09068935 -0.04810022 0.02358927 0.066117
0003a0 af 7d 16 be e7 39 92 3c f2 2f f7 bc e1 0d 22 bc
       -0.14696382 0.017849876 -0.03017423 -0.009891004
0003b0 55 53 1e be 2a 2b 50 be 82 d5 9c 3d 02 02 37 3e
       -0.15461476 -0.20328966 0.07657911 0.1787186
0003c0 00 97 0c 3e 35 f7 ad bd 10 8b 2a be 41 1d 7f 3d
       0.13729477 -0.084944166 -0.1665461 0.062283758
0003d0 c2 fb ed 3b 19 a0 dc bc df ff 14 3e 81 8d 7a be
       0.007262678 -0.02693181 0.14550732 -0.24468042
0003e0 fc d9 99 3d 03 bc 5c bc 71 2f fb bd 77 23 71 3c
       0.0751228 -0.01347256 -0.12264908 0.014717928
0003f0 1c a1 4c bd 6d 49 17 bd 86 6f 88 bd 6b 0d 9b 3d
       -0.049958333 -0.03693526 -0.066618964 0.07570919

hidden.weight_sigma f4 [128, 64]
000000 c6 c7 9f 3b 12 ce b3 3d f0 63 8e bc 5b 22 ac 3c
       0.00487611 0.08779539 -0.017381638 0.021012476
000010 c9 da a5 bb c7 a5 b5 3b fe 93 84 bd 6a 8c 52 bd
       -0.0050614816 0.005543444 -0.0647354 -0.05140344
000020 db 01 ac 3c 38 57 22 3e 8d 2a 25 bc 60 bd 4f 3c
       0.020996979 0.15853584 -0.010080946 0.012679428
000030 e2 cc 3f bd f7 69 d5 3d 76 38 36 bd a4 12 c4 bd
       -0.04682625 0.10420602 -0.04448744 -0.09573868
000040 f6 b5 d7 3c 3d 0a 72 3d 8f e2 53 3d 34 2c 26 3d
       0.026331883 0.059091795 0.051729735 0.0405695
000050 7e f1 8f bd 93 94 0f bd 87 0b d7 bd 01 27 22 bd
       -0.07028483 -0.0350538 -0.105002455 -0.03958798
000060 67 ae 17 3d 15 31 91 3d 36 48 11 bd ff e5 94 3d
       0.037031557 0.0708944 -0.035469256 0.07270431
000070 e9 f6 77 bd 38 44 09 3c 4a ea c3 3d 35 59 f6 bc
       -0.060538206 0.008378081 0.095661715 -0.030071834
000080 93 3b 85 bc 5c 3c b5 bd 9c fd b6 bd 57 73 d5 bd
       -0.016263759 -0.08849403 -0.08935091 -0.1042239
000090 ae 55 8c be 48 8c 5b 3e b7 63 9f 3b 4a 0f 82 bd
       -0.27409118 0.21440232 0.004864182 -0.063505724
0000a0 39 53 1b 3d cb 9d a9 3d c2 02 41 3e 62 91 b9 bd
       0.037921164 0.0828205 0.18848708 -0.09060933
0000b0 ad 50 af bd 93 67 36 bc c0 c7 f1 3d b7 18 49 bd
       -0.085603096 -0.011133092 0.118056774 -0.049095836
0000c0 28 9f 10 3e 34 f5 54 3b 3d be 67 3d ff d5 f5 3c
       0.14123213 0.0032494785 0.05657791 0.030009268
0000d0 98 81 d8 bc f2 d8 13 3d 2c 69 a9 bc 08 30 5e 3d
       -0.026428983 0.036095567 -0.020680033 0.054245025
0000e0 1b 08 b4 bd 7b 05 be 3c 76 29 43 bd 09 a3 0d 3d
       -0.087906085 0.023195973 -0.047646962 0.03457931
0000f0 a3 5f 7e 3c 3e 66 51 bd 6e 0e 9d bd 51 73 54 3d
       0.015525731 -0.051122896 -0.07668768 0.051867787
000100 21 a8 bc bc ba 34 3f 3e 46 30 83 3d a5 d8 9c 3d
       -0.023029389 0.18672457 0.06405692 0.07658509
000110 a5 de 69 bd 84 5b e1 3d eb e6 bb 3d eb fa f5 bd
       -0.057097096 0.11003783 0.091749035 -0.120107494
000120 f9 cb 79 3d a5 6c bc 3d 36 e2 93 39 8f 00 61 3d
       0.06098554 0.0920041 0.00028206565 0.054932173
000130 c5 f4 f6 3c d6 57 0d 3d 81 bf f8 bd 5d f8 b2 bc
       0.030146012 0.034507595 -0.121459015 -0.021846944
000140 a1 ae 7e bd 1f d7 04 3e 6e 27 4a 3c cb 86 76 3d
       -0.062178258 0.12972687 0.012338502 0.060187142
000150 18 6c fc 3c 3f 4e 74 3d 6a 6c 66 bc b8 97 a2 3d
       0.030813262 0.059644934 -0.014063934 0.07939094
000160 76 ac 05 bb 57 86 56 bc c9 b6 38 bd 11 49 d9 bd
       -0.0020396984 -0.013093553 -0.045096193 -0.106096394
000170 ed 5f 72 3d 35 42 14 bd 27 1c 9c bd c0 e4 f5 bc
       0.059173513 -0.036195952 -0.07622557 -0.030016303
000180 12 9f 1d 3d 11 74 20 3b 9f 53 1f 3d 1d 7b 36 3d
       0.03848178 0.0024483243 0.038898107 0.044551004
000190 0e 09 3d 3d 56 cf 74 bc 61 d2 51 3e 23 e3 53 bc
       0.046151213 -0.014942011 0.2049041 -0.012932572
0001a0 2d 9e c7 3d 8a e6 b5 bc b4 29 fc bd e5 fb d6 3c
       0.097469665 -0.022204656 -0.12312642 0.02624316
0001b0 1b 46 46 bd 58 ab 75 3b 47 c4 34 3d 1e 9a d9 3d
       -0.0484067 0.0037486162 0.044132497 0.10625099
0001c0 78 eb 6c bc 72 d3 36 bd 2f 4f a0 3c ba 9f bb bd
       -0.014460437 -0.044635244 0.019569008 -0.09161325
0001d0 7f ca 35 3c 9d 96 c0 3b 0f c2 1f 3d c7 9a 57 bc
       0.011095642 0.0058773295 0.039003428 -0.01315946
0001e0 e5 71 51 bd b7 d8 07 3e 5c 00 50 bd 44 d0 83 3d
       -0.05113401 0.13266264 -0.050781593 0.06436208
0001f0 95 a4 96 bd d0 2e 9a 3d ac af 83 3b 93 07 fd 3d
       -0.0735561 0.0752846 0.0040187445 0.1235496
000200 88 14 0d bd 06 03 21 bd 6e 36 c6 bc 18 e8 2b ba
       -0.03444341 -0.039309524 -0.024195876 -0.0006557717
000210 db 01 98 3c 8b 59 24 3b 23 47 a8 3b 7b 8b 20 bd
       0.018555572 0.0025077786 0.0051354333 -0.03919552
000220 0d 09 23 3c 55 34 8b 3c d2 ca 3f 3c b7 de 82 3d
       0.009950888 0.016992727 0.011706071 0.06390136
000230 fb 02 d1 3a 20 12 d0 3b a3 37 82 bb 57 34 2c 3d
       0.0015946323 0.006349817 -0.0039739176 0.042042103
000240 72 a4 21 3d 5c ee de bb af ee 78 3c 0c 45 8f 3c
       0.039463468 -0.006803317 0.015193625 0.017488979
000250 21 e5 0f bd 51 6c 86 3b bd 38 85 bc 29 f0 51 3d
       -0.035130624 0.004102268 -0.016262406 0.051254425
000260 25 d2 1d 3d 70 b9 3f 3d 44 f8 58 3d 48 15 79 bc
       0.038530488 0.046807706 0.05297114 -0.015202828
000270 2d fd 0d 3b df 5f 83 bb 90 5c 40 3c 4b bc 58 bc
       0.0021665797 -0.0040092315 0.011740819 -0.013228486
000280 42 13 18 3d 2d 4f 2b bb d1 17 ad bd 59 8e 33 bc
       0.03712774 -0.0026139722 -0.08451808 -0.010959231
000290 a5 c1 46 bd 96 a0 51 3c 67 b4 b0 bc 91 25 55 3d
       -0.048524518 0.012794634 -0.021570398 0.05203778
0002a0 52 da 74 3c 13 b2 69 3d 3e b0 27 3c cc 34 b7 bc
       0.01494463 0.05705459 0.0102348905 -0.022364043
0002b0 45 a4 86 3c 11 70 6b bc 2e d8 01 bd 91 f3 8f bd
       0.016435752 -0.01436998 -0.031700306 -0.070288785
0002c0 db 25 d7 3d 43 e4 ff bb 95 04 19 3c 0e 4b b7 bc
       0.10505267 -0.0078091933 0.009339471 -0.022374656
0002d0 69 73 64 3c a5 68 63 bc 12 a9 0c 3d 33 1b 7a 3d
       0.013943532 -0.01387993 0.034340926 0.061061095
0002e0 26 21 8a 3b 52 a3 87 bb 9b cc 91 3c 2b 30 2e 3d
       0.0042153774 -0.0041393423 0.017797759 0.042526405
0002f0 f9 a1 cb 3a 39 b3 c4 3c a8 58 1b 3e 65 5b 44 bd
       0.0015535943 0.024011241 0.15170538 -0.047938723
000300 bd ad 37 bc ab 63 20 3d ba 91 30 3e 94 a8 1d be
       -0.011210856 0.03915755 0.1724309 -0.15396339
000310 1b 12 8f bb 77 59 60 3d c8 47 f9 bd 65 64 fe 3d
       -0.004366172 0.05477282 -0.12171894 0.124214925
000320 7f bb 44 3d da 8b 2d bd 34 54 90 3e 94 06 07 3e
       0.048030373 -0.0423697 0.28189242 0.13186103
000330 47 82 31 3d 73 36 93 bd 49 ed e2 3d b7 36 09 3e
       0.043337133 -0.0718812 0.11080415 0.13399778
000340 b9 11 85 3d d0 0d 33 bd 1d 75 54 3e c2 fc 73 3c
       0.06497521 -0.043714345 0.207478 0.014891805
000350 e9 d4 04 3e 7b 2f 90 3d 8e 74 51 bd 39 db 7d bd
       0.12971844 0.07040306 -0.051136546 -0.061976645
000360 da 2d 77 3d 66 a4 6c 3e 30 3e 28 bd 89 99 60 be
       0.06034646 0.23109588 -0.04107493 -0.21933569
000370 a5 84 11 3d 25 95 82 3c d8 bb 83 3d 99 73 1a 3e
       0.03552689 0.015940258 0.06432313 0.1508316
000380 1b 02 65 3e 85 5c 38 bc 66 63 ae 3c da 5e c3 3d
       0.22364084 -0.011252527 0.021287631 0.09539576
000390 d2 e7 eb 3d 14 a1 c9 3d b0 06 70 3e eb a2 0b 3e
       0.115188256 0.09845176 0.23440051 0.13636367
0003a0 59 fa 1e 3e ed 60 9f 3e e5 60 be 3e 2d de 11 3e
       0.15525188 0.31128636 0.371833 0.1424491
0003b0 bc b9 31 bd d5 3a 8a b9 20 1f 23 be ae b6 e7 bd
       -0.04339002 -0.00026365244 -0.15929842 -0.1131414
0003c0 c3 61 8b 3e d9 e6 54 3e ed 4b 95 3d b9 2b b9 3e
       0.27223024 0.20791186 0.07289872 0.3616617
0003d0 22 01 e0 3c a2 74 cc bd 7e 40 19 3e 77 bb c4 3d
       0.02734429 -0.099831834 0.14966008 0.096060686
0003e0 f0 ee 08 be 9c 27 2f 3e 86 bb 21 3d 8c b5 69 3d
       -0.13372397 0.17104954 0.039485477 0.057057902
0003f0 73 17 ae 3d a2 a7 21 3e 76 45 a9 3d bc cd c1 bd
       0.08500566 0.15786603 0.08265202 -0.09463069

hidden.bias_mu f4 [128]
000000 c1 a6 c9 bc 13 53 c1 3c c3 b0 f7 3e e7 67 6d be
       -0.024615647 0.023599183 0.48377046 -0.23184167
000010 ac 66 34 be 33 60 9f be c1 b4 24 be f5 84 d3 bd
       -0.17617291 -0.31128082 -0.16084577 -0.10328094
000020 4e 6a 3a 3e 9a f3 75 bd 2a 45 65 be 48 e8 3e be
       0.18204615 -0.06004677 -0.22389665 -0.18643296
000030 b4 6f 48 3e f1 6b c1 3e 44 f8 3f be e6 b9 c2 3e
       0.19573861 0.37777665 -0.1874705 0.38032454
000040 aa 17 55 3d 52 f2 3c be 8a 71 cc 3e 79 11 9e 3e
       0.05202452 -0.18451813 0.39930373 0.30872706
000050 ef db 95 be fc 6a 27 be 8c d2 50 be 38 05 c2 bb
       -0.2926936 -0.16349405 -0.20392817 -0.0059210323
000060 f6 82 b8 bd 92 82 14 be 1f 9a 46 be 98 c9 27 3d
       -0.09009354 -0.14502934 -0.1939473 0.04096374
000070 87 65 16 3e 36 5a 81 3e fb c4 92 3e 9a 1c 6d be
       0.14687167 0.25264138 0.2866591 -0.23155442
000080 c2 98 de bc ac 7d c4 3e 62 70 e5 3e 78 b5 22 be
       -0.02717245 0.3837713 0.44812304 -0.15889537
000090 14 3c ee 3d 79 7e 0a bd 71 f2 34 3e 27 18 a7 3e
       0.11632553 -0.03381202 0.17670609 0.32635614
0000a0 f0 28 ea 3e d6 37 ae bd 06 68 25 be 1b 9d e2 bd
       0.45734358 -0.085067436 -0.16152963 -0.11065122
0000b0 43 80 bb 3d d9 42 9c 3e 09 f4 02 bd 52 2d 7f bc
       0.09155323 0.3051975 -0.03197101 -0.01557477
0000c0 4f d8 19 3e fb a8 c3 3e 5f 96 94 3e 4b 79 b4 3d
       0.15023921 0.3821486 0.29020974 0.08812197
0000d0 cd 6d 6f 3e fc af ea 3a 7b d5 c9 bd 89 ed dc 3e
       0.2338173 0.0017905231 -0.09855171 0.43149975
0000e0 00 cf 89 be 18 6c bf 3e 48 e1 4e 3e bf 98 f3 3e
       -0.2691574 0.37387156 0.20203125 0.47577474
0000f0 76 16 4d be 92 f8 ac 3e 65 f2 36 3e 99 a1 c7 bd
       -0.200281 0.33783394 0.17865904 -0.09747619
000100 f6 63 e3 3e 9b 92 1f bd f1 e0 15 3e e3 af 45 be
       0.44412202 -0.038958173 0.1463659 -0.19305377
000110 79 79 bd 3e 59 54 40 3e a1 99 84 3e e2 5e 29 be
       0.3700674 0.18782176 0.2589846 -0.16540101
000120 06 40 24 be 7c 6d f0 3d f2 94 37 be 5d 5f b5 3d
       -0.16040048 0.117396325 -0.17927912 0.0885608
000130 a1 8d f9 3c c9 92 38 be d9 40 27 be 33 ea d6 bd
       0.030463042 -0.18024744 -0.16333331 -0.10493889
000140 78 60 d8 bd 0c 77 93 3e f2 23 8b 3e 16 e7 d3 3e
       -0.10565275 0.28801763 0.27175862 0.41387242
000150 b6 bb fe 3c 3a cf e4 3e f6 79 13 be ff 2e 85 be
       0.031095367 0.4468935 -0.14401993 -0.26012418
000160 d5 36 df bd ed 3d 18 be c1 a6 79 be 00 19 1d 3e
       -0.1089913 -0.14867373 -0.24380018 0.15341568
000170 32 5b dd 3e e2 79 4c be 03 f1 ae bd 2b c6 c6 3e
       0.4323364 -0.1996837 -0.08542063 0.38823065
000180 30 25 86 bd ed 62 22 3e 1a d9 00 3f 31 e0 38 be
       -0.06550062 0.1585805 0.5033127 -0.18054272
000190 4d 54 9b 3e 94 d0 3c 3e e4 c4 54 be 20 b3 54 be
       0.30337754 0.18438941 -0.20778233 -0.20771456
0001a0 6a 99 37 3e 3c 38 e0 3e 4b 02 f6 3e 6f d9 81 3d
       0.17929617 0.43792903 0.48048624 0.063403
0001b0 10 24 17 be f7 a8 d8 bd 83 c6 fd 3e cf a0 8b be
       -0.1475985 -0.105791025 0.49565515 -0.27271125
0001c0 8e 0c 4c be 27 c5 d5 3e 68 9a cb 3e 17 ce 33 bd
       -0.19926664 0.41751978 0.3976624 -0.043897714
0001d0 ef 91 ae bc 8e 40 5e be 78 d9 39 3e c0 3c 28 be
       -0.021309821 -0.21704313 0.18149364 -0.16429424
0001e0 86 8d 95 be df a7 bf 3e 59 e3 d2 3e 74 c3 3d bc
       -0.29209536 0.37432763 0.41189077 -0.011582244
0001f0 8c 71 bd 3d 7a cf ee 3e d7 75 76 3e d4 d2 ec 3e
       0.09250173 0.46642667 0.2406839 0.462546

hidden.bias_sigma f4 [128]
000000 33 b1 16 3c a4 63 0c bd c3 f9 8d 39 bb 93 48 bd
       0.009197521 -0.034274712 0.00027079703 -0.04896901
000010 c0 32 b5 3c 72 b5 c1 bc 41 fe 03 3c 68 d1 66 3d
       0.022118926 -0.02364609 0.008056224 0.05635205
000020 42 a2 09 3d 60 95 25 3d 9c b0 dc 3c e9 78 32 3d
       0.033602007 0.04042566 0.026939683 0.04357234
000030 95 e8 76 bd a7 6a e9 3c 5a 92 a4 38 41 77 94 3c
       -0.0602804 0.028493239 7.8473895e-05 0.018123271
000040 45 f9 13 3d ae a6 d3 3d 4c 38 34 3d 8e 08 83 bd
       0.036126394 0.10334526 0.043999 -0.06398116
000050 b2 46 45 bd 55 9b 4f bd ae d2 c4 3c dd 4d 96 bc
       -0.048163123 -0.050685246 0.024026241 -0.018347675
000060 98 66 af bd 92 34 ab 3d db 1b 44 3d 1f 19 1e 3d
       -0.0856449 0.08359636 0.047878128 0.038598176
000070 81 72 cf 3c 77 5b 96 bc a2 ef 95 bc 17 c5 20 3d
       0.025323154 -0.01835416 -0.018302742 0.03925046
000080 b4 2b 29 bd e7 3f fd bc e8 22 10 3d 8b e9 bb 3c
       -0.041301444 -0.03091426 0.03518954 0.02293851
000090 a9 42 2b 3c 2e 7c a4 bc 98 85 a8 3d 92 c7 16 bc
       0.010452905 -0.020078745 0.08228606 -0.009202855
0000a0 82 94 49 bd 0b ba e6 bc 3b 83 2b 3d c8 fc f9 3d
       -0.049213894 -0.028164884 0.041873198 0.12206417
0000b0 13 51 75 bd df f1 e6 3c b1 f7 d7 3b 87 c2 ba bc
       -0.05989177 0.028191505 0.0065908064 -0.022797836
0000c0 88 34 1a bd 00 d1 bb 3c 06 f7 b2 bc 7a ce 4a 3d
       -0.037647754 0.022926807 -0.021846306 0.049513318
0000d0 71 89 1c bd 23 3b 85 3d a8 09 83 3d 17 85 62 bc
       -0.03821701 0.0650542 0.06398326 -0.013825676
0000e0 ee 32 2a 39 bc 5d 69 bd 1d 96 fe bb db 54 5d bc
       0.00016231436 -0.056974158 -0.0077693597 -0.013509001
0000f0 36 19 88 bc 24 91 40 3d 7b ef 3f 3c a6 5d d4 3d
       -0.016613584 0.047013417 0.011714811 0.103694245
000100 32 81 8f 3c b8 66 a9 bd 13 83 d2 bd ef 6f 1b bd
       0.01751766 -0.08271545 -0.10278907 -0.037948545
000110 05 f8 03 3d de ba b7 bc 98 42 84 3a 25 d3 b2 bd
       0.03221895 -0.022427972 0.0010090647 -0.08731679
000120 66 4f ed 3a 76 48 d1 3b 63 b4 c9 3a 12 a8 d0 3c
       0.0018105328 0.006386812 0.0015388842 0.025470767
000130 96 84 e3 3c f4 94 df bd 7d 33 45 bc 14 24 3f 3c
       0.027773183 -0.109170824 -0.012036202 0.011666317
000140 2e 08 58 bd 3f 16 4f bc 84 9f 03 3d a2 bb 84 b9
       -0.052742176 -0.012639581 0.032134548 -0.000253168
000150 27 95 5d 3c 3c 67 3b bd 79 ac 3e bc 93 52 0c 3d
       0.01352433 -0.04575275 -0.0116378 0.034258436
000160 97 e4 62 bc 45 5f 9f 3d e0 df 8d 3d c2 f0 57 3d
       -0.013848445 0.07781843 0.069274664 0.05271984
000170 38 46 0e bd a6 92 02 bb 2f 93 8a bc 73 f8 f3 3c
       -0.034734935 -0.0019923835 -0.016915886 0.029781556
000180 74 23 80 3b 7c e5 b9 3c 91 b7 9a bc 17 84 df 3c
       0.0039104763 0.022692434 -0.01888636 0.027284665
000190 6b be e2 bc 29 b4 c0 3a ea 2d f5 bd 3a 56 67 bd
       -0.027678689 0.0014702129 -0.11971648 -0.056478716
0001a0 b0 b1 70 3d 16 6f 19 3d a1 bb 0e 3b 1a a8 5f 3d
       0.058763206 0.037459455 0.0021779316 0.054603674
0001b0 e0 da c2 bd 81 70 bc ba a3 c7 43 bd 23 6a eb bd
       -0.09514403 -0.001437679 -0.04779781 -0.11494853
0001c0 30 a6 6f 3c b1 3d a0 3c 7c 97 5a bc 47 25 e0 3c
       0.0146270245 0.019560667 -0.013341781 0.027361525
0001d0 8d 81 64 bd aa f4 9f 3c c2 17 36 bd f5 b5 68 bb
       -0.05578761 0.019525845 -0.04445625 -0.0035508845
0001e0 84 46 5d bc a1 55 45 bd 0b 50 19 bd f7 3c b0 3c
       -0.013505582 -0.048177365 -0.03742985 0.021513445
0001f0 65 32 e5 bc e6 35 a0 bc d3 6a 8c 3d 54 c9 3b bc
       -0.027978132 -0.01955695 0.068563126 -0.011461575

hidden.weight_epsilon f4 [128, 64]
000000 cf dc 44 3f 2f 3d db be 1a 05 ae 3e 51 99 d6 3e
       0.7689943 -0.42820117 0.33988267 0.41913846
000010 5e 60 07 bf 6e 59 29 bf 18 35 c4 3e 97 59 5e bf
       -0.5288142 -0.66152084 0.38321757 -0.86855453
000020 04 fb 2c bf 7f c1 9e be e8 d4 85 be b8 30 d9 3c
       -0.6757052 -0.31007 -0.26138997 0.026512489
000030 f6 81 37 3f 1a 49 1c bf 1a ba c6 3e f3 63 0a bf
       0.7168268 -0.61049044 0.3881386 -0.5405876
000040 5c f9 3d 3f bd 21 b2 be 55 e1 76 be 46 55 b4 be
       0.7420862 -0.34791365 -0.24109395 -0.35221308
000050 38 21 c7 3e 69 b3 0f bf 3e 15 39 3f b1 4b 4e be
       0.3889253 -0.56133133 0.7229804 -0.20146061
000060 55 25 be 3e 7c 6d 10 3f e2 59 37 3f cf ca 1b bf
       0.37137857 0.5641706 0.71621525 -0.60856336
000070 9d 77 29 bf db 45 86 3e 7a 4b d5 3e c7 4b d6 be
       -0.6619814 0.2622517 0.41659147 -0.4185469
000080 f4 4c 0a 3f 18 b2 a4 be a6 de 24 3f 9e ef ed 3e
       0.5402367 -0.32167125 0.64402235 0.46471876
000090 99 61 ac be f0 33 eb be 35 1b ff be ee 67 66 3f
       -0.3366821 -0.45938063 -0.49825445 0.90002334
0000a0 c7 30 2f bf 63 90 28 bf b6 fb e2 3e b6 34 27 3f
       -0.68433803 -0.65845317 0.44332665 0.65314806
0000b0 22 ae 0c bf 3d b1 ae 3e a2 14 02 3f 3a 98 98 3e
       -0.54953206 0.34119597 0.50812733 0.2980364
0000c0 2d 5d 88 be 57 19 39 bf 95 ec 83 be cb 4e 97 be
       -0.26633587 -0.7230429 -0.25766435 -0.29552302
0000d0 fe b2 85 be f8 c4 e4 be b3 20 e3 3e ff 99 4a 3f
       -0.26113123 -0.44681525 0.44360885 0.7914123
0000e0 09 61 2c bf dd ce 69 be 74 d8 e3 be 33 4f 22 3f
       -0.67335564 -0.22832818 -0.44501078 0.634021
0000f0 0b d5 1c 3f 38 ce d2 3e 0c 8e 3f bf 60 99 b8 be
       0.6126258 0.41172957 -0.7482612 -0.36054516
000100 03 e7 9c bf 9d bc 2e 3f 4d b2 0a bf dd 09 2b bf
       -1.2257999 0.6825655 -0.54178315 -0.66811925
000110 4a cb 57 3f 55 f9 86 3f 57 61 1c bf 5c 37 b1 3f
       0.8429457 1.054484 -0.6108603 1.3845019
000120 39 de 89 3f c3 0f fd 3e e8 54 d5 3e 9b 1a 2d bd
       1.0770942 0.49426088 0.4166634 -0.0422617
000130 23 42 92 bf b5 1f 79 3f 6c 63 1e bf 36 99 5c 3f
       -1.1426433 0.97314006 -0.61870456 0.8617128
000140 84 69 97 bf 45 f9 0d 3f 68 c4 c4 3e 6a ba 0f 3f
       -1.1829076 0.5545848 0.38431096 0.5614382
000150 9b b5 1e bf 3c 10 65 3f 8f 83 93 bf b5 6b a4 3e
       -0.6199586 0.89477897 -1.1524523 0.32113424
000160 90 8c 17 bf d8 38 66 bf 32 22 92 bf 64 56 78 3f
       -0.59198856 -0.89930487 -1.1416686 0.9700682
000170 63 11 87 3f f5 08 d6 be c9 ff 29 bf 10 cc 2a 3f
       1.0552181 -0.4180371 -0.6640592 0.66717625
000180 8d 74 5c bf d2 43 03 3f 54 67 83 bf 79 a3 3d bf
       -0.8611534 0.5127536 -1.0265908 -0.74077564
000190 f3 63 09 3f d1 75 3b 3f d2 52 4b 3f 13 a3 b7 bf
       0.53668135 0.7322665 0.7942325 -1.4346641
0001a0 26 a1 8b 3f 19 59 86 3f b7 e8 34 bf ff 43 85 bf
       1.0908554 1.049594 -0.70667595 -1.0411376
0001b0 9a 3f 60 3f 7f 3b 0b bf 34 5a 4f bf 8b 3d f3 be
       0.8759705 -0.5438766 -0.80997014 -0.4750789
0001c0 45 5e d9 3e d3 86 93 3f 82 4a d2 3e 6c 30 f1 3e
       0.42454734 1.152552 0.4107247 0.47107255
0001d0 da 1e d5 3e 28 55 36 3f 32 06 35 bf fa 79 a1 bf
       0.416251 0.7122369 -0.7071258 -1.2615349
0001e0 80 63 89 3f 39 59 ba 3e a6 98 35 3f ed 5c 81 bf
       1.073349 0.36396196 0.7093605 -1.0106484
0001f0 c7 fe 79 bf e2 03 28 bf 0f ac 98 3f d6 20 13 3f
       -0.97654384 -0.65630925 1.1927508 0.5747198
000200 e9 bb 7a 3f ee 9d 0b bf fb a3 dd 3e 77 a9 08 3f
       0.9794298 -0.54537857 0.4328917 0.5338358
000210 18 6c 2c bf 1c b1 57 bf 4d e6 f9 3e 1a 99 8d bf
       -0.6735244 -0.8425462 0.48808518 -1.1062348
000220 13 51 5c bf 0e 33 ca be 6a 74 aa be f0 4f 0a 3d
       -0.8606121 -0.39492077 -0.33291942 0.03376764
000230 7f b9 69 3f 9c 0d 47 bf d1 1b fd 3e d1 42 30 bf
       0.9129867 -0.7775514 0.49435285 -0.68851954
000240 e5 f5 71 3f ac e0 e2 be 33 38 9d be 6b ae e5 be
       0.9451583 -0.44312036 -0.3070694 -0.44859633
000250 27 9f fd 3e 4c 06 37 bf 22 bb 6b 3f d1 5f 83 be
       0.49535486 -0.71493983 0.92082417 -0.2565904
000260 e6 2d f2 3e 4b f3 37 3f 73 86 69 3f c1 6c 46 bf
       0.47300643 0.7185561 0.9122078 -0.77509695
000270 8d d7 57 bf 46 04 ab 3e de d4 07 3f 16 78 08 bf
       -0.8431328 0.33401698 0.53059185 -0.53308237
000280 87 25 30 3f c4 c3 d1 be 82 fc 51 3f 0d 86 17 3f
       0.6880726 -0.4096967 0.8202592 0.5918892
000290 ad 8d db be 7a c8 15 bf 46 75 22 bf 74 ba 92 3f
       -0.42881528 -0.5850903 -0.63460195 1.1463151
0002a0 a9 21 5f bf 0d b1 56 bf 74 8c 10 3f 3c f6 54 3f
       -0.87160736 -0.8386391 0.56464314 0.83188224
0002b0 69 2d 33 bf 38 7f de 3e 5c ad 25 3f 2a 5a c2 3e
       -0.69991165 0.43456435 0.6471765 0.37959415
0002c0 15 ae ad be 5b c0 6b bf 76 06 a8 be 95 b6 c0 be
       -0.33921877 -0.92090386 -0.3281743 -0.376393
0002d0 39 49 aa be a6 af 11 bf 02 a4 10 3f 93 05 81 3f
       -0.3325899 -0.56908643 0.56500256 1.0079826
0002e0 f6 8c 5b bf 15 e5 94 be 07 19 11 bf b3 b9 4e 3f
       -0.85761964 -0.29081026 -0.56678814 0.80752105
0002f0 d7 bf 47 3f 0c 3f 06 3f 53 f9 73 bf 5f 1d eb be
       0.780271 0.5243995 -0.95302314 -0.45920846
000300 b4 b7 b0 3f e5 cd 44 bf 65 36 1c 3f 95 a3 40 3f
       1.3806062 -0.7687667 0.610205 0.75249606
000310 f7 0b 73 bf 13 05 98 bf 26 21 30 3f ce 98 c7 bf
       -0.9494013 -1.1876549 0.6880058 -1.5593507
000320 89 47 9b bf a7 82 0e bf f9 45 f0 be 19 f7 42 3d
       -1.2131206 -0.5566811 -0.46928385 0.047598932
000330 b5 ba a4 3f f9 4a 8c bf 28 64 32 3f 37 75 78 bf
       1.2869478 -1.096038 0.69684076 -0.97053856
000340 b6 88 aa 3f 50 e7 1f bf f1 9d dd be 2f e1 21 bf
       1.3322971 -0.6246233 -0.43284562 -0.6323423
000350 b8 c0 32 3f f5 fe 80 bf b8 24 a6 3f 79 2f b9 be
       0.69825315 -1.0077807 1.2979956 -0.3616903
000360 2e b0 2a 3f fd a5 81 3f ba 96 a4 3f 9a d9 8b bf
       0.6667508 1.0128781 1.2858498 -1.0925782
000370 2b 20 98 bf c3 10 f1 3e e7 77 3f 3f fa 5d 40 bf
       -1.1884817 0.470831 0.7479233 -0.75143397
000380 ed 4b 78 3f a6 d7 13 bf a4 ff 93 3f 88 96 55 3f
       0.96990854 -0.5775093 1.156239 0.8343282
000390 d1 bd 1a bf 73 22 53 bf 53 00 65 bf 1b d4 ce 3f
       -0.60445887 -0.8247444 -0.8945362 1.615848
0003a0 67 43 9d bf 9a 50 97 bf 8c c1 4b 3f 81 18 96 3f
       -1.2286195 -1.1821473 0.79592204 1.1726228
0003b0 9d 91 7c bf ea d0 1c 3f f5 89 69 3f c9 fa 08 3f
       -0.9865969 0.6125628 0.9122613 0.5350767
0003c0 d7 d1 f4 be 66 28 a6 bf 45 d9 ec be 10 d3 07 bf
       -0.47816345 -1.2981079 -0.46259513 -0.5305643
0003d0 17 09 f0 be 04 5c 4d bf c1 e2 4b 3f 8d de b5 3f
       -0.46881935 -0.8021853 0.79642874 1.4208542
0003e0 50 bd 9a bf ea e1 d1 be b4 87 4c bf 44 b3 91 3f
       -1.2089024 -0.4099267 -0.79894567 1.1382833
0003f0 98 c8 8c 3f db 3b 3d 3f fc f3 ab bf 87 b5 25 bf
       1.0998716 0.7391946 -1.3433833 -0.64730114

hidden.bias_epsilon f4 [128]
000000 1a 71 1e bf 9c 8f 7c 3f a9 cc 49 bf 7c 3a 8e bf
       -0.6189133 0.9865663 -0.7882791 -1.1111598
000010 15 3f 09 bf b2 f0 9a 3f 54 36 99 bf bb 4c 0c 3f
       -0.5361188 1.2104704 -1.1969705 0.5480458
000020 cd 10 88 3f aa 2c ce be 79 e7 d2 be 21 f6 d5 3e
       1.0630127 -0.4026845 -0.41192225 0.41789344
000030 df 4d 33 3f 29 c6 13 3f 4c cf 1c 3f b9 c9 1b 3f
       0.70040697 0.57724243 0.6125381 0.6085468
000040 72 29 09 3e e3 41 f3 be 72 ad c2 bf 21 17 54 3f
       0.13394716 -0.47511205 -1.5209181 0.8284779
000050 13 1a 4b 3f f9 84 b5 3f fa a5 1b 3f 43 c3 a1 bf
       0.7933666 1.4181205 0.60800135 -1.2637714
000060 84 08 b6 3e 91 7c bc 3e 9a 33 96 3f 01 41 57 3e
       0.35553372 0.36813787 1.1734498 0.21020891
000070 41 ba cb be c5 48 9b 3f 2a eb 25 3f d6 b8 25 3e
       -0.39790538 1.2131582 0.64811957 0.1618379
000080 8a e9 72 3f ef af 26 bf 08 37 56 3f a2 29 a0 bf
       0.948876 -0.65112203 0.8367772 -1.2512705
000090 d9 26 79 3f c3 a4 c9 3f fd 81 5d bf fd 30 5f bf
       0.973249 1.5753406 -0.8652647 -0.87184125
0000a0 30 64 73 bf 9a 62 18 bf 00 89 4a 3f 89 e9 4c bf
       -0.9507475 -0.59525454 0.79115295 -0.80043846
0000b0 9c 91 7e 3f 85 6b 4f be 73 82 35 3f bd 06 d4 be
       0.9944093 -0.20255859 0.70902175 -0.4141139
0000c0 89 46 89 bf 60 57 36 3f 03 aa 76 bf a5 f7 b3 3e
       -1.0724651 0.71227074 -0.9635317 0.35149875
0000d0 2d 9d 63 bf 24 57 20 3f e6 88 e5 3e 1b 94 51 3f
       -0.88911706 0.62632966 0.44831008 0.81866616
0000e0 cb 66 af 3f a0 bf 43 bf 8f b1 9b bf d8 37 90 be
       1.3703245 -0.7646427 -1.2163562 -0.28167605
0000f0 0f 43 d5 be 35 9b 78 bf bc b6 74 bf 01 90 3d bf
       -0.41652724 -0.9711183 -0.9559133 -0.7404786
000100 56 13 7a bf b1 78 52 bf cf 67 f4 be ba 9b 60 bf
       -0.97685754 -0.8221541 -0.4773545 -0.8773762
000110 f3 67 6e 3f 34 46 66 bf ad c2 4d bf ae 16 5a bf
       0.93127364 -0.8995087 -0.80375177 -0.85190856
000120 93 d4 f4 3e 1f b2 e2 3f 02 b3 96 3f b1 6d cc 3d
       0.4781843 1.7710608 1.1773379 0.099818595
000130 cb 10 8c 3f f5 f1 45 bf d4 7b a9 3f a3 bc ba 3f
       1.0942625 -0.7732232 1.3240914 1.4588817
000140 14 58 82 bf 54 3b c3 be f7 73 11 3f d2 62 d3 3e
       -1.0183129 -0.381312 0.56817573 0.4128633
000150 90 a8 b4 bf ee 98 ea 3e 63 91 7f bf 55 53 a9 be
       -1.4113941 0.458198 -0.9983122 -0.3307139
000160 fe 88 34 bf 7d bf da be f3 44 8b 3e 72 87 7f 3e
       -0.70521533 -0.4272422 0.27201042 0.24954012
000170 bc 83 7c bf bf 7f 2f bf c6 ae df be 72 63 15 3f
       -0.9863851 -0.685543 -0.4368803 0.58354867
000180 da ee 3e 3f b2 57 77 bf 1f 3a 3f 3f f5 5e 83 3f
       0.7458321 -0.9661819 0.7469806 1.0263354
000190 c3 8d 2c be 1b f2 81 bf 97 be 1b 3f 70 2b 48 3f
       -0.16850953 -1.015201 0.6083769 0.7819128
0001a0 3a 68 f1 be c0 7f 9d 3f f4 dc a7 3e 72 6c 15 3f
       -0.4714983 1.2304611 0.3278576 0.583686
0001b0 06 70 7d 3f 30 f5 2b 3f c8 82 a3 3f bd f2 1e bf
       0.9899906 0.67171 1.2774286 -0.6208914
0001c0 28 ec 8e 3f e9 c5 81 3f 30 c7 81 3f 85 f1 a1 3f
       1.1165819 1.0138522 1.0138912 1.2651831
0001d0 c6 62 40 bf 20 b5 3e bf 68 21 32 3f ab 37 42 bf
       -0.75150716 -0.74495125 0.69582224 -0.7586619
0001e0 ff 14 80 bf 29 56 e3 be 68 e9 be be bd 0c 8b be
       -1.0006407 -0.44401672 -0.3728745 -0.27158156
0001f0 c5 d3 9b 3f a8 f7 60 3f 6c fe 8e 3f ec 5a 9c 3f
       1.2174002 0.87877893 1.1171393 1.2215247

out.weight_mu f4 [3, 128]
000000 3a c7 02 bf 0e 3f 0a 3f 6a 49 94 be 4e 7b 02 bd
       -0.51085246 0.54002464 -0.2896226 -0.031855874
000010 3d a1 01 3f 2b 6f 79 3f 74 69 43 3d 24 75 4f 3c
       0.50636655 0.97435254 0.04770799 0.012662206
000020 c3 91 42 be 14 e2 8e be 37 7d 9b 3d 33 51 22 bf
       -0.19000916 -0.2790686 0.07592242 -0.6340515
000030 40 fc 81 bd e0 f9 60 be 80 9e 71 3e 32 c6 1e be
       -0.06346941 -0.2197032 0.23595619 -0.15505293
000040 73 57 bd be 7f 03 ed 3b 00 fd 8d be d6 b1 51 be
       -0.3698078 0.007233083 -0.27732086 -0.20477995
000050 66 14 7a 3f 23 ba 8a bd 85 cb 88 be e4 e8 af be
       0.97687376 -0.06773784 -0.26717773 -0.3435737
000060 2d 42 d7 be eb ed 0a 3d 28 12 37 3e fb b6 08 bf
       -0.42042676 0.033918303 0.1787802 -0.53404206
000070 36 4c 19 bf 31 6e 12 be 05 0b 8b be 60 62 46 3f
       -0.59881914 -0.14299847 -0.27156845 0.7749386
000080 8b 67 12 3f 71 51 91 be 8a 6e 80 be fd 10 a5 3b
       0.57189244 -0.28382447 -0.25084335 0.0050374256
000090 e9 be 32 3d 30 00 ca 3d db 52 d0 bd c6 30 0b be
       0.043639097 0.09863317 -0.101720534 -0.13592824
0000a0 aa e3 92 be b5 dc e1 3c 89 79 db 3d 03 34 bc 3d
       -0.2868932 0.027571062 0.1071654 0.09189608
0000b0 bf c8 99 bd a8 4c 4a be 72 53 79 bd df 57 e4 be
       -0.075089924 -0.19755805 -0.060870595 -0.4459829
0000c0 d4 d7 b4 be 10 46 81 be 95 9a 8c be 22 d5 56 be
       -0.35320914 -0.25248766 -0.27461687 -0.20979741
0000d0 d9 3e 04 bf 8c 45 18 bd 2e b4 2a 3d 0c b9 89 be
       -0.516584 -0.0371757 0.04167574 -0.26898992
0000e0 07 c3 2d 3e e9 3b 9c be aa bc 60 be 78 05 7f be
       0.16968928 -0.30514458 -0.2194697 -0.2490443
0000f0 82 14 0f 3d 5e c3 2a be 81 5c 6c be 11 f7 f6 3e
       0.034931667 -0.16676089 -0.23082162 0.48235372
000100 4c 90 4f be 90 f6 ed bc b6 df ac 3d 89 e7 75 3d
       -0.20269889 -0.029048234 0.08441107 0.060035262
000110 39 22 86 be 4c db 9e bd 92 df 8c be 43 00 13 3d
       -0.26197985 -0.07756671 -0.2751432 0.03588892
000120 ff e6 ac bc db 2e e9 be 08 59 cc 3e 2d c5 9d 3c
       -0.021106241 -0.4554356 0.39911675 0.01925906
000130 8e c4 e3 bc d8 23 91 bc 1a 59 d1 bd a3 bb 7c be
       -0.027803686 -0.017717287 -0.10222073 -0.24680953
000140 1f 69 66 3c c9 7c 55 be b8 f7 5d be 4c e0 61 be
       0.014063149 -0.20848383 -0.21676528 -0.22058219
000150 2c 49 f3 be a7 a8 59 be ec 06 a2 be 21 28 cd 3c
       -0.47516763 -0.21255742 -0.31645906 0.025043549
000160 3b 5b a6 bc 4f 64 42 3c eb bf c2 3e 7f 7d 96 3a
       -0.020307174 0.011864736 0.38037047 0.0011481493
000170 ec c2 6c be bb 13 07 3d ed d3 61 bd 06 56 8b be
       -0.23121232 0.0329778 -0.05513375 -0.27214068
000180 d0 d0 47 bc da f1 af bd 4f 80 ae be 44 bd 51 3d
       -0.012195781 -0.085910514 -0.34082267 0.05120589
000190 d6 2f 86 be db 98 3a be ab f7 99 bb 94 f5 13 3d
       -0.2620837 -0.18222372 -0.004698714 0.036122873
0001a0 e4 90 06 be 02 91 8a be 26 a4 88 be f5 3d fd be
       -0.13141209 -0.27063757 -0.26687735 -0.49461332
0001b0 a5 95 14 bf bc 1f 53 3d 20 4c 9f be 9d 5d 32 3f
       -0.5804084 0.051543936 -0.31112766 0.6967409
0001c0 fd f7 0e bd 55 50 31 be 39 c9 1c be 34 1e 14 bf
       -0.03490447 -0.173158 -0.15311135 -0.57858586
0001d0 2c 6d 11 bf f1 23 50 3f 3d 0f eb bd ee e3 db bd
       -0.5680721 0.8130484 -0.11477516 -0.107368335
0001e0 38 ac 68 3f e8 19 86 be 00 e5 8d be 06 56 01 3e
       0.90887785 -0.2619164 -0.27713776 0.12630472
0001f0 56 6a 3a bf 76 69 79 be d9 9e 84 be 17 47 76 be
       -0.72818506 -0.24356636 -0.2590244 -0.24050556
000200 a6 8a b5 bd a4 08 be 3e a2 ca 75 be 5d 02 fb bd
       -0.08864336 0.37115967 -0.2400308 -0.1225631
000210 24 2f 93 3e 36 de 1e 3f 46 3e 7a bd 8f 97 2d 3e
       0.28746903 0.62057817 -0.061094545 0.16952346
000220 3e 0f 44 be d7 dd 27 be c1 a3 50 3d de e9 8b be
       -0.1914644 -0.16393219 0.050937418 -0.27326864
000230 56 ab 66 bd ab c8 8d be 86 ce 00 3f c8 fb fe bd
       -0.056315742 -0.2769216 0.5031513 -0.12450367
000240 23 d3 da be b2 e1 ba 3b b4 46 94 be 43 d3 8b be
       -0.4273921 0.0057031745 -0.28960192 -0.27309617
000250 a4 22 0e 3f 14 e7 34 bd ef 8d 9b be 6c 10 1c be
       0.5552161 -0.044165686 -0.30381724 -0.1524064
000260 ad e6 5e bd 24 e0 8b bd 20 af a2 3d a2 b3 bb be
       -0.05441921 -0.06829861 0.07943559 -0.36660486
000270 3d a1 be be 07 5c 51 be b1 ac 88 be ed 23 35 3f
       -0.3723239 -0.20445262 -0.26694253 0.70757943
000280 1b e1 f1 3e 2a 28 7e be 5b 3e 45 be 0a 99 99 3c
       0.47242054 -0.24820009 -0.19262068 0.018749733
000290 22 78 1a 3d 81 69 82 bb 7a 7e 35 bd 11 9e 0e be
       0.037712224 -0.003979862 -0.04431007 -0.13927485
0002a0 68 c7 86 be f8 c2 26 3d 36 e7 47 bb e4 99 31 3c
       -0.2632401 0.04071328 -0.0030502803 0.010839913
0002b0 41 f3 95 bd 90 f9 47 be 2e 7f 7e be 77 75 0d bf
       -0.073217876 -0.19528794 -0.24853203 -0.5525736
0002c0 aa ae a1 be a5 70 27 be ab f6 46 be ce 05 7d 3e
       -0.3157857 -0.16351564 -0.19430034 0.24709246
0002d0 ec 66 e4 be e7 14 dc bd b2 d3 85 bd 34 ba 59 be
       -0.44609773 -0.10746174 -0.06534518 -0.21262437
0002e0 a0 0a f7 3e ed de 8d be 8a 98 3d be c9 37 8c be
       0.48250294 -0.2770914 -0.1851522 -0.2738631
0002f0 84 02 45 bd 66 f7 79 be d2 0c 39 be 43 3e 31 3f
       -0.048098102 -0.24410781 -0.18071297 0.6923563
000300 5b 7a 8b be 59 f1 88 3d f3 d7 0c be ee e9 68 bc
       -0.27241787 0.066866584 -0.13754253 -0.014215929
000310 56 55 71 be e5 22 27 be 73 f6 8c be 94 ff 11 3d
       -0.2356771 -0.16321905 -0.27531776 0.03564413
000320 4f 09 67 bd b0 1f db bd ee a6 af 3e 86 25 6c be
       -0.05640536 -0.10699403 0.34307045 -0.23061189
000330 bc 24 7b bb fb bb 1a 3d 9f 67 59 3e 2f 9e 03 be
       -0.0038321456 0.03777693 0.21230935 -0.12853311
000340 2c f8 47 bb 6e 01 26 be f1 7c 5d be 09 98 86 be
       -0.0030512912 -0.16211483 -0.21629693 -0.2628787
000350 0a 3d 99 be e6 31 72 be db 0b b4 be b2 98 ab 3d
       -0.29929382 -0.23651847 -0.35165295 0.08378734
000360 b8 1d 54 3d 44 d5 13 3d 24 69 f2 3e 44 7c 12 bf
       0.051786155 0.036092058 0.4734584 -0.57220864
000370 a2 e8 9a be c3 55 9a bd f4 4b 57 bd 7e 61 3a be
       -0.3025561 -0.07535889 -0.05256267 -0.18201253
000380 b7 39 0b bd df a9 3c be 45 91 a0 be 02 6d 38 bc
       -0.033990588 -0.18424176 -0.31360832 -0.011256458
000390 32 26 92 be 3d cb 18 be 51 d6 e8 3d 4b b7 a4 bd
       -0.28544766 -0.14921279 0.113690026 -0.08042773
0003a0 90 1a f5 bd 11 ed 91 be d4 3b 7a be b2 22 2a bf
       -0.11967957 -0.2850118 -0.24436885 -0.6645919
0003b0 a3 47 2a be f1 bc 1a 3f 7f 3a 9c be ac a7 80 3e
       -0.1662889 0.6044455 -0.3051338 0.25127923
0003c0 14 10 84 bd 5d 38 6f be 24 29 68 be f9 b1 73 be
       -0.06448379 -0.23361345 -0.22671944 -0.2379836
0003d0 fb d8 dc be c3 85 a9 3e 5c f1 be bd ae 7f 88 3e
       -0.43134293 0.33109865 -0.093233794 0.26659912
0003e0 fa 6a 69 3f d9 54 9b be c3 c4 46 be 9d be ae bd
       0.9117886 -0.3033817 -0.19410996 -0.0853245
0003f0 83 45 0c bf 8d 5d 6c be 55 1b 39 be 7f e4 88 be
       -0.54793566 -0.23082562 -0.18076833 -0.2673683
