save/checkpoint/ckpt/cartpole_dqn_dueling_hid_64_6420000_ckpt.tar (torch_old, 808582 bytes, 27 tensors)

feature.0.weight f4 [64, 4]
00000000: b5a7 843e 1872 91be 0aee 12bf dc52 483e
00000010: a1b4 a5be 86de 833e 552a de3e d411 c73d
00000020: 720c 6b3e 8582 f03c 165a 14bf 5e67 8b3d
00000030: e320 7fbe 4ebc 8fbe 8e5f cabd 10c9 73be
00000040: f3d6 7a3e 62a1 023f 6190 a7be 3738 a53e
00000050: 3684 2fbe e869 1cbe d82b dfbf 2555 07bf
00000060: 94d9 37bf 7986 9e3e 9b7d 413f a757 f33e
00000070: bb54 d7ba cd0e 203f 54c3 b03f 139a 053f
00000080: df27 e2be 0045 873e 62b4 773f 2a69 b83e
00000090: 7b1e b53d f370 163e 6ff3 ca3e 5f25 90bd
000000a0: e39c 85be 0f88 25be 5e34 eebe 0d3c 333e
000000b0: 70a0 973e 6e1b e9bd 6731 e5be 35b9 6abe
000000c0: ad00 88be b2f7 233e 089e 95be 3371 c7bd
000000d0: ad07 1bbf 2b07 6bbe 3370 dfbe bcd5 3cbe
000000e0: 0209 d8be e2c7 a9be a470 8d3e df2e febd
000000f0: 3673 ac3e df97 dbbe 35e4 21bf 9cc3 a2bd
00000100: 7b84 14be 5a02 833e 8bc0 743e b5b5 ecbd
00000110: 0e06 d03e 86ca 78be 2e58 71bf 8ccf 49be
00000120: 7c40 313f 8620 dabd 121f 8c3e b47b 48bd
00000130: 75a8 0c3e 178b 8a3e 6e41 873f 7fe7 a63b
00000140: da55 f83c 8bf9 82bc 5fd0 613e f5d1 2f3e
00000150: 2c0b 6bbe 1d9a ab3d 32ba d33e 446c 3c3e
00000160: 4123 3fbf 1ddf f4be da4c c6bd 0c75 8ebe
00000170: ad22 28bf a1f4 07bf 0706 8dbf 8961 cebe
00000180: 7889 3c3e 02a6 1abe a27f ea3e 6a80 1a3e
00000190: 91c7 33be fafe 463d 6457 66be c5ba 4abe
000001a0: cf2b d1be 1dd7 cd3e b39b 9fbd f635 543e
000001b0: 4dc7 023f 590d c43e dc38 473f 1187 b93e
000001c0: 2236 18be 0dcf c6be 3994 293f 93ad bcbd
000001d0: 088c 04be b0dd 7f3d 00ea ef3b 303f 833d
000001e0: 9222 bbbe 5491 633e 61d1 bf3d 4f95 c5bd
000001f0: ee37 273f fb07 9e3e 030e 0cbe 840f 453e
00000200: cb50 e63e 37fc 363e 1934 5e3f 6a4f 633e
00000210: 4f4a c73e e3f2 96be f33d b2be 262c edbd
00000220: ac30 c13e 612e 18be d77e b9bd 0252 41be
00000230: e31f 2cbf f999 c13d 9b55 723c e4a9 2f3e
00000240: de28 0f3f f6f9 ed3e dfba 013f e47f 773e
00000250: e3da b0be 468a 64be d064 0d3f 9fb8 3ebe
00000260: d6b7 a3bd fb30 c5be a5d9 aebf d773 d3be
00000270: 8074 15be 0224 8b3e 9f72 833e bf54 243e
00000280: 08fc 073e 06c3 d5be 97bc f6be 2753 1a3d
00000290: c562 a3bd 23d5 f3bd 8be8 46bf 162b eabe
000002a0: 767e 35be 57dc ab3e 3934 c23e 736f 333e
000002b0: 0bc5 863e 4747 9bbe c6c6 c7be 40a2 bd3d
000002c0: cf97 aa3e 7bba 233e 8406 833f 7315 433e
000002d0: 99f3 46be 4815 8abe db4b 25be 7ac8 b73d
000002e0: 3213 633e e26b c0be f4fb 953e f5e5 5cbe
000002f0: 9c2a cabe 6113 a4be c6c9 e5be e8d1 09be
00000300: 7b09 7bbe c9a1 6e3e e66e c8bd b63c 903e
00000310: 38c9 50be 7806 0c3e 9c96 303e 4035 4b3e
00000320: 2291 0ebf bd13 c5be ea22 203e 67f2 a83a
00000330: 7da3 793e 7154 d0bd 07ba 90be 6efe 36bd
00000340: 06c8 5d3e a695 81bb 3c3c de3d f416 313e
00000350: 1073 7bbe 5791 70be aad4 abbf d87d cfbe
00000360: 1365 1f3e 8be9 8abe f2d4 cbbf 6376 e0be
00000370: 4868 fe3e 16d8 b1be 86eb a7be 68b4 6ebe
00000380: c976 983d 65d4 7d3e 02ec 72be 8153 bcbe
00000390: 0ca3 143f 035b 66be 45ad 68be 7ca8 78be
000003a0: b9dd 7d3e 9c1e 48be 7869 e1be da34 60be
000003b0: 82a2 2e3f 05fd abbe b145 83bf 1eaa 97be
000003c0: 3f45 07be 8655 66be d655 00bf b5a9 5cbe
000003d0: e300 e03e f8d0 b83a b24b c73e 7317 5bbe
000003e0: 737b 2f3f 4b43 abbe 82a2 15be 2664 93be
000003f0: d4bb 7d3e ac18 013f a4fa e13e 8862 953e
0.259092 -0.2840736 -0.5739447 0.19562858 -0.3236437 0.2575571 0.43391672 0.09720197
0.22953966 0.029359112 -0.5794996 0.06806825 -0.24914889 -0.28073353 -0.09881507 -0.23807168
0.24496059 0.510275 -0.3272734 0.3226945 -0.17140278 -0.15274775 -1.7435255 -0.52864295
-0.7181637 0.3096197 0.75582284 0.4752781 -0.001642845 0.62522584 1.380961 0.52188224
-0.44171044 0.2641983 0.9675962 0.36017734 0.08843704 0.14691524 0.3963885 -0.07038378
-0.26096258 -0.16165183 -0.46524328 0.17503376 0.29614592 -0.11382185 -0.44764253 -0.22922213
-0.26563016 0.16012457 -0.2922213 -0.09738388 -0.6055859 -0.22951953 -0.4364029 -0.18440908
-0.42194372 -0.3316031 0.27625 -0.12411284 0.3368165 -0.42889306 -0.6323884 -0.07947466
-0.14503662 0.25587732 0.23901574 -0.11558095 0.4062962 -0.24296007 -0.94275177 -0.19708079
0.6923902 -0.106507346 0.27367455 -0.048946097 0.13736136 0.27059242 1.0566843 0.0050935145
0.030314375 -0.015988132 0.22052144 0.17169936 -0.2295348 0.08379004 0.41352993 0.18400675
-0.7466317 -0.47826472 -0.09682627 -0.27823675 -0.6567791 -0.5310765 -1.1017464 -0.40308788
0.18411815 -0.1510239 0.458005 0.15088049 -0.17556597 0.04858301 -0.22494274 -0.1979781
-0.40853736 0.4020318 -0.07793369 0.2072371 0.5108536 0.38291433 0.77821136 0.3623586
-0.148644 -0.38829842 0.66241795 -0.09212794 -0.12944043 0.062467277 0.007321596 0.064085364
-0.36549813 0.22223407 0.09366108 -0.09647619 0.65319717 0.30865464 -0.1367722 0.192442
0.44983515 0.1786965 0.86798245 0.22198263 0.3892388 -0.29482183 -0.34812889 -0.11580686
0.37732446 -0.14861442 -0.09057396 -0.1887894 -0.67236155 0.09453196 0.014790918 0.17154652
0.55921733 0.46479768 0.5067577 0.2416988 -0.34541997 -0.22318372 0.5523195 -0.18625115
-0.07994048 -0.38513932 -1.366017 -0.41299316 -0.14595222 0.2717591 0.25673386 0.16047953
0.13279736 -0.41750354 -0.48190758 0.037676957 -0.07977823 -0.11905887 -0.7769858 -0.45735997
-0.17724022 0.33566543 0.37930468 0.17522983 0.26322207 -0.30327818 -0.3901884 0.09259462
0.33318946 0.15989105 1.0236363 0.19051151 -0.19428863 -0.2696936 -0.16142218 0.08973785
0.22175291 -0.37582308 0.29293787 -0.21572097 -0.39485633 -0.32046035 -0.44880503 -0.13458979
-0.24515335 0.23303904 -0.09786777 0.2817132 -0.20389259 0.13674343 0.17244953 0.19844532
-0.55690205 -0.38491622 0.15638319 0.0012889624 0.24378772 -0.10172356 -0.28266928 -0.044676237
0.21658334 -0.003954607 0.108513325 0.17293912 -0.24555612 -0.23492943 -1.3424275 -0.405257
0.155659 -0.27131304 -1.5924361 -0.43840322 0.49688935 -0.34735173 -0.32796878 -0.23311007
0.074445315 0.24788053 -0.23722842 -0.36782458 0.5806129 -0.22495656 -0.22722347 -0.24283022
0.24791612 -0.19542927 -0.4402578 -0.21895161 0.6821672 -0.33591476 -1.0255643 -0.29621977
-0.13210009 -0.22493562 -0.50130975 -0.21549113 0.43750677 0.0014100363 0.38924938 -0.21395664
0.68547744 -0.33449778 -0.14612773 -0.28787345 0.24778682 0.5042827 0.44136536 0.29176736

feature.0.bias f4 [64]
00000000: 42b9 b53c 9c2f 573f a636 503f c45b d9be
00000010: 4d11 f43e 215a babe 5561 0dbf fe79 97be
00000020: e65e c3be cdcb 573f ce4c 633f 3227 403f
00000030: 4da3 343f 83a0 d7be ebee 21bf 6205 a73e
00000040: 525a 553f 6a1a bcbd b2bc e4be 0286 f7be
00000050: 3a5d 473f 48aa 153f d8e5 13bf fb81 acbe
00000060: 8172 03bf 87ee 5c3f c95a 93be 9bb0 03be
00000070: 671b 2e3f 5c5e 67be 2c3d 413f d241 c4be
00000080: 5a3a 1bbf 8760 e4be 55ae 4a3f a351 a2be
00000090: f504 a6be b859 383f 509b a6be fbe9 d93e
000000a0: 4e98 2f3f 42b5 10bf 0d24 0c3f 4d35 343f
000000b0: 9b86 1abf 7583 103f d32a 5b3f 5f67 e4bd
000000c0: cbea ef3e bcce e8be 6360 22bf ec5b bdbe
000000d0: b9b9 193f 93eb 6dbe 6a53 f0be 703a fcbe
000000e0: c85d 56bf 2196 89be 7ecb 473f 7cac ddbe
000000f0: 2e42 5e3f 21ae 633f 432e b0be 8f50 293f
0.022183064 0.8405702 0.81333387 -0.42452824 0.4766945 -0.36396888 -0.5522664 -0.2958526
-0.3815834 0.8429535 0.8878907 0.7505981 0.7056168 -0.42114648 -0.63255185 0.32621294
0.8334094 -0.091847256 -0.44675213 -0.48344427 0.7787663 0.58462954 -0.5777259 -0.33692917
-0.51346594 0.86301464 -0.287802 -0.12860338 0.6801056 -0.22594589 0.75483966 -0.38331467
-0.6063591 -0.44604895 0.7917226 -0.3170291 -0.32425657 0.720119 -0.3254037 0.42561325
0.68591774 -0.5652658 0.5474251 0.7039383 -0.6036164 0.5645059 0.8561222 -0.11152529
0.4685882 -0.45470226 -0.63428324 -0.36984193 0.60049015 -0.23234396 -0.4693864 -0.49263334
-0.8373685 -0.26872352 0.7804488 -0.43295658 0.8681973 0.88937575 -0.34410295 0.6613855

adv_hidden_layer.weight f4 [64, 64]
00000000: a6be b73d 8d07 0fbe bb81 f7bd 914a 6bbd
00000010: 9a52 163d 18c8 56bd 9649 61bd e5ee f43c
00000020: fd0d 35bd 6868 b2bb 378d 863c a124 d3bc
00000030: bef2 14be b1c0 b53d e4c0 8ebd 780c 313d
00000040: 5ad9 fabd 5c33 dcbd 5e0e d93d a80a b43c
00000050: d300 6e3c 9645 a6bd c38c 183c 6387 873d
00000060: 063e e93d 0122 613c 0043 a7bb 0bba c63c
00000070: 2318 c4bd 309f 963d 514c 0bbe 90a7 3abd
00000080: eeaf f4bd 9685 f53d b52a c7bd 881c 6ebd
00000090: 4a12 af3d a798 dabd a72b bb3d d858 76bc
000000a0: 4d50 39bd 9853 8a3c 146b 21be 9ff9 933d
000000b0: 0cb6 f4bd 3660 2dbe a9a0 5dbd 7f22 1e3d
000000c0: 348c 21be 9e0d a53d 6e5d 853c 2e6a c9bd
000000d0: 277a 323c 010d 243d 6252 b23d 18b3 763d
000000e0: 5eef 8b3d 1825 af3d e656 d0bd 08dc 3f3d
000000f0: 6231 8b3d 4f71 edbd b813 8bbd 6bf8 4abd
00000100: 12f7 acbd 3876 19bd 542b 7b3d de4d 9d3d
00000110: 9852 ccbd 0a3e ffbd f0ac a63c 601e 3abc
00000120: 7c34 83bd 7c97 283d 78bb ccbd 5827 75bd
00000130: 1483 6bbd 409f 383c 8cda 85bd b093 a83c
00000140: 2838 4fbd cc74 70bd 6c07 00bd b6dc b0bd
00000150: 0023 6cbd 96dd d9bd c655 8d3d 3079 df3c
00000160: 00fd 4a3d 3825 773d e863 433d a0da b4bd
00000170: 4888 91bc 0039 f23c d830 efbc 3810 9d3d
00000180: d8d5 7a3d 00d5 e73d ee6e 813d c88d 1e3d
00000190: 428c da3d 54da 7bbd 1803 953d e4ce c13d
000001a0: e048 c0bb 60a3 cdbc 18da cbbc c486 fabd
000001b0: 60af ddbc b4cb 3f3d 4299 ec3d 5892 5ebd
000001c0: 9ce4 71bd 2088 903c 3eae f3bd a02c bd3b
000001d0: 3834 c1bd 7632 f23d 0207 f9bd ca74 963d
000001e0: 8007 f1ba 686e dc3c bc0a 60bd 3455 6fbd
000001f0: 0067 a63b 8099 6cbd f0d2 243d f670 913d
00000200: e358 07be 2302 f83c 576a 0cbe 08dc bdbd
00000210: c444 07bd 9ce8 a73c 38a9 a0bd f060 97bd
00000220: aff0 74bc 9daf 7c39 4e4e 39bb ab40 9bbd
00000230: 4951 6abd 9ba7 5fbd 2d92 e9bd f0d3 fbbd
00000240: 66fc 07bd d418 98bd d622 c1bd 8dd8 9cbd
00000250: 62b8 a63d e491 8bbc c836 903d ced9 64bd
00000260: eefd 8d3d 498d a73c 40fb eabb a9d9 dabc
00000270: fc63 e8bc 20fd 5fbd 62b5 773b 9a77 ce3d
00000280: 7aa2 f6bd 8253 b53d 8b48 0abe 29ce 1fbc
00000290: 7006 973d 829a 10be a367 cebd 7b79 763c
000002a0: 8ac1 4dbb 406c 44bc d84d 8bbd 9442 913c
000002b0: 2a94 b83d b07e 8bbd 1116 9dbd 9db8 bb3d
000002c0: bafb 0cbd 0ee5 ac3d 4e80 a93b 3463 8fbd
000002d0: 0782 ed3c ce8f b03d fb83 ffbd d024 973d
000002e0: e855 d4bc 8157 99bd d008 bd3d 9c9e fbbc
000002f0: ea0a a13c f36a a63c 333d 2a3d 57fa 96bd
00000300: 6252 b43d 21c9 e6bc 3627 283d e868 7cbc
00000310: fc5b 2dbd 2d54 bbb8 257e 39bc 0094 b53b
00000320: 7626 aa3d c7f3 03bc 5601 a5bc 5963 bebd
00000330: 1850 413c afd5 df3d a063 54bc 697d 04be
00000340: 4918 b9bd e936 443d dbf8 043d 44b9 c03d
00000350: 723b efbd 91f4 783d 38bb e43d 2063 acbd
00000360: e419 7abd 086b 513d a653 883d d2f2 99bd
00000370: 6c77 26bb 8068 793c 50ad 01be f9f1 d53d
00000380: b01c cdbd 8081 2ebb 2a6e 25bd 37aa 7839
00000390: 0527 07bd 33a2 2a3d 94dc bb3d daf2 d3bd
000003a0: ee36 05bd 96f4 38bd 70b3 00be 8ceb 3ebb
000003b0: 24e8 c03d 1042 4dbd 8300 a9bd be4c 80bd
000003c0: 0c00 1ebe 8eae ddbd a826 0fbd 2ecd c43d
000003d0: 14db 9fbd a352 713d 20b5 c03d b01f 31bc
000003e0: 066d 963d ce5f 753d 5302 cebd be86 b6bd
000003f0: c10c 333d 4871 41bd c061 f7ba f5de 59bc
0.0897191 -0.13967724 -0.12085291 -0.05744416 0.03669987 -0.052436918 -0.055001818 0.02989907
-0.044202793 -0.005444575 0.016424758 -0.025774302 -0.14545724 0.088746436 -0.06970385 0.04322478
-0.12248488 -0.107519835 0.105984434 0.021977738 0.014526564 -0.08118741 0.009310904 0.0661762
0.11388783 0.013741017 -0.0051044226 0.024258634 -0.09574916 0.07354581 -0.13603331 -0.045569956
-0.119476184 0.1198837 -0.097249426 -0.05813268 0.0854841 -0.106736474 0.091391854 -0.01503583
-0.045242596 0.016885564 -0.15763503 0.07225346 -0.11948785 -0.16931233 -0.054108296 0.038607117
-0.1577614 0.08059238 0.016279902 -0.09834705 0.010893381 0.040051464 0.087071195 0.06022939
0.06832765 0.08551997 -0.101728246 0.046840698 0.067965284 -0.115938775 -0.067908704 -0.049553316
-0.084455624 -0.037466258 0.061320618 0.076808676 -0.09976691 -0.12463005 0.020346135 -0.011359781
-0.06406495 0.04116009 -0.09996694 -0.059851974 -0.057498053 0.011268437 -0.06535825 0.020578235
-0.050590664 -0.058705136 -0.031257078 -0.08635847 -0.057650566 -0.10637967 0.069011256 0.027279466
0.049557686 0.06033823 0.0477027 -0.08830762 -0.01776518 0.029568195 -0.029198095 0.07669109
0.061239094 0.113199234 0.06319986 0.038709432 0.10671283 -0.06148751 0.07275981 0.094632894
-0.0058680624 -0.025102317 -0.024884269 -0.12232736 -0.027061164 0.046825126 0.11552669 -0.054338783
-0.05905591 0.017643034 -0.118984684 0.005773142 -0.09433788 0.11826031 -0.1215954 0.073464945
-0.0018389076 0.026908115 -0.054697737 -0.058430865 0.0050781965 -0.057763577 0.04024023 0.07101624
-0.13217501 0.030274456 -0.1371244 -0.09270483 -0.033024564 0.020496659 -0.07844776 -0.07391536
-0.014949962 0.00024098014 -0.0028275433 -0.07580694 -0.057206426 -0.0546032 -0.11404834 -0.12296283
-0.03319969 -0.074266106 -0.094304726 -0.07658491 0.08140637 -0.01703734 0.07041699 -0.055871777
0.06933199 0.020453112 -0.0071710646 -0.026715117 -0.028367989 -0.05468476 0.0037797322 0.10081406
-0.12042709 0.088538185 -0.13504235 -0.009753742 0.07374275 -0.1412144 -0.10078361 0.015043612
-0.0031395876 -0.011988699 -0.06801957 0.017731942 0.09012635 -0.06811273 -0.076702245 0.091660716
-0.034419753 0.08442126 0.005172766 -0.07001343 0.028992666 0.086211786 -0.12476345 0.07380068
-0.02591987 -0.07487393 0.092301965 -0.03071528 0.019658525 0.02031467 0.04156227 -0.07371967
0.08804776 -0.028172078 0.04105302 -0.015405871 -0.04232405 -8.932534e-05 -0.011321579 0.0055413246
0.08308117 -0.0080537265 -0.020142239 -0.09296293 0.011798881 0.10929429 -0.012963206 -0.12938465
-0.09037835 0.04790393 0.03246389 0.094103366 -0.1168126 0.06078011 0.11168522 -0.08417344
-0.061059847 0.051127464 0.0665658 -0.075170174 -0.002540077 0.015222669 -0.1266377 0.10446543
-0.10015237 -0.002662748 -0.040388264 0.00023714533 -0.032996196 0.04165859 0.09172931 -0.10349055
-0.03252309 -0.04515513 -0.1256845 -0.0029132096 0.09419277 -0.05011183 -0.08252051 -0.062646374
-0.15429705 -0.10824309 -0.034948975 0.096094474 -0.07805458 0.0589167 0.09409547 -0.010810778
0.07345013 0.05990582 -0.10059037 -0.08912419 0.043713335 -0.047227174 -0.0018873736 -0.013297786

adv_hidden_layer.bias f4 [64]
00000000: 1df8 86bc 1c64 adbd 3b58 d5bd 5588 13be
00000010: dccb 2e3c fbfd 373c 5446 43bd 2d2d b33c
00000020: 4b70 ac3d b91d 23bd 9bca c2bc eeaf 62bc
00000030: 4eba dfbd 5d34 aebd f2c0 0a3e ac54 6b3d
00000040: 160b d03d 60e0 c0bc c724 d5bd 25d4 0f3e
00000050: 9489 333d 20c1 35bd f3e7 c6bb e57e 35bd
00000060: 2cc9 7cbd e3c1 273e 4c94 573e 3a8b b03c
00000070: 8551 d73b e850 9abd b9e4 a8bd ba3c 88bd
00000080: 3aa1 2c3e 939b 1cbe fbb1 8f3c b11c a0bd
00000090: af1d 65be fb3d 843d 1fd4 223d aa57 d53d
000000a0: 380e f9bd 5e68 693d 9fb3 07be 3ce0 36bd
000000b0: d85b 333e 0017 173e f261 e7bd 696f 533d
000000c0: 819a 333b 1adc 8cbd ce0b dd3d 3fd1 2e3e
000000d0: cbf8 39bd 6a9f 91bc a0f4 af3c a320 05be
000000e0: e178 0abe 2993 5f3d e85f 09be 2157 263d
000000f0: 9649 aabd 7a18 41be ae22 dcbd e78d 2d3e
-0.016475732 -0.0846636 -0.10417219 -0.14407475 0.010668721 0.011229987 -0.047674492 0.021872127
0.08419856 -0.039823268 -0.02377825 -0.01383589 -0.10924207 -0.08506081 0.13550165 0.057453796
0.101583645 -0.02354449 -0.10407405 0.1404577 0.043832377 -0.04437363 -0.006070131 -0.04431047
-0.06171529 0.16382556 0.21052665 0.021550763 0.006570997 -0.07534963 -0.082467504 -0.06652208
0.16858378 -0.15293722 0.017540922 -0.078179725 -0.22374605 0.06457134 0.039753076 0.10417111
-0.12160915 0.056984298 -0.13252114 -0.04464744 0.17515504 0.14754868 -0.112979785 0.05161992
0.0027405324 -0.068779185 0.10793267 0.17072009 -0.045403283 -0.01777621 0.021478951 -0.13000731
-0.13522674 0.054583702 -0.13415492 0.040610436 -0.08314817 -0.18856993 -0.10748802 0.16948663

adv_layer.weight f4 [2, 64]
00000000: 2ad7 923d 9ccc afbd 163f 813d a70c 1d3c
00000010: 7cc6 0c3d 0a60 ca3d 8a0a 273f b729 95bd
00000020: 5910 eb3d 23d3 b5bd 4d41 46bd b125 263d
00000030: d700 f3bc 7ce8 66bd 4878 463e cbd8 74be
00000040: 6281 d5bd 128f f73d 60d4 cf3d 35c3 a4bd
00000050: 008d 723c 54b5 98bd afb2 a53e ce7e 6ebd
00000060: 3ec8 43be 47a4 323e bdd6 45be 2323 d7bd
00000070: da7c aa3d 4a25 91bd 87dc c93d a0bf 093e
00000080: 3b09 3bbe 04f2 1cbd 1fc5 883d c466 b53d
00000090: 7573 0d3e 089b 7e3e aeb4 b03c 5efc d33d
000000a0: b42a a3bd 9c26 573d 093a 1ebe c034 b6bb
000000b0: acb5 1d3e d9c2 13be 7350 57bd 3390 c23d
000000c0: 76fc 7abd 64c8 283d cafe 033d 2f76 6b3e
000000d0: 8f5c dfbd 4b0c 60be c76c ad3d ab28 b73d
000000e0: a175 033d b873 603c fef4 cb3d b76c 263d
000000f0: 8c7d 89bd 1c4b 663e ec21 a23d 2ead dcbd
00000100: cda7 18bd 2cc1 4cbd 8115 813d b3ee 02bd
00000110: c0c8 7cbd a40e 8c3d 6f31 40bf ddef a53d
00000120: e798 013d ce3f 52bd f3b1 8f3d cc94 c53d
00000130: 1a41 a8bd 8224 843d 137b 95be 75b7 4c3e
00000140: b282 8d3e 50a2 01bd c1bc 0d3d 3d1a c93d
00000150: 1149 c9bc aab8 aebd 9cc8 6abe b08c a9bd
00000160: 25f1 883e 4229 b4be 958d 9b3e a3b0 b0bd
00000170: 1704 1cbd 3225 ae3d 3e2d b8bc 62ac 5bbe
00000180: d112 683e 39f3 cdbb feab c03d e8da 593c
00000190: 801b 33bc c270 7abe 9390 903d 2a14 87bd
000001a0: 6007 31bd 4537 08bd 5ea6 ef3c e0ca 3dbd
000001b0: fabb 68be 29ee 113d 9859 ecbc 0371 eabc
000001c0: 524d 84bd 34f7 843d e9b7 cdbd 7ccf 7fbe
000001d0: 2e83 4c3d 8a8c a93e 0970 44be 496b c23d
000001e0: 5e03 a2bd 38dc 48bc 9d11 efbc 8028 893d
000001f0: 7805 783d 6beb 4ebe 06ea f03d 4c78 093e
0.071699455 -0.08583948 0.06310861 0.009585536 0.034368977 0.09881599 0.65250456 -0.07283347
0.114777274 -0.08878162 -0.04840212 0.04056329 -0.029663486 -0.056374058 0.19381821 -0.23910825
-0.104250684 0.12087835 0.10147929 -0.08045045 0.014804125 -0.074564606 0.32362887 -0.0582264
-0.19119355 0.1744548 -0.19320197 -0.10504749 0.08324595 -0.070871904 0.098565154 0.13452005
-0.1826524 -0.03831674 0.06678223 0.088574916 0.13813575 0.24863827 0.02157053 0.103508696
-0.07967129 0.052527055 -0.15451826 -0.0055604875 0.15401334 -0.14429797 -0.052566957 0.0950016
-0.06127592 0.041206732 0.032225408 0.22994302 -0.10906326 -0.2187969 0.08468013 0.08943304
0.0320946 0.0136994645 0.09958838 0.040631022 -0.06713399 0.2248959 0.07916626 -0.10775219
-0.037269402 -0.04998891 0.0630293 -0.031965923 -0.061714888 0.0683873 -0.7507543 0.08102391
0.03163996 -0.05133038 0.07016363 0.096475214 -0.08215542 0.06452276 -0.2919546 0.19991858
0.27638775 -0.031648934 0.034603838 0.09819458 -0.024570974 -0.085313156 -0.22928089 -0.08278787
0.2674648 -0.35187727 0.30381456 -0.08627441 -0.038089838 0.08503188 -0.02248251 -0.21452478
0.22663428 -0.006285098 0.09407805 0.01329682 -0.0109318495 -0.24457076 0.07058825 -0.06595643
-0.043219924 -0.033255834 0.029254135 -0.046336055 -0.22727957 0.035627518 -0.028851315 -0.028618341
-0.0646006 0.06492463 -0.10044844 -0.24981493 0.04992979 0.33115035 -0.19183363 0.09493119
-0.079107985 -0.0122595355 -0.029183203 0.06697178 0.06055209 -0.20206992 0.117633864 0.13424796

adv_layer.bias f4 [2]
00000000: 7705 8bbd 9d06 02be
-0.06788152 -0.12697835

val_hidden_layer.weight f4 [64, 64]
00000000: 505d 253c 80f7 3d3c 6ac6 f6bd 6c56 debd
00000010: 4ec7 d2bd c86e 133d e01a a33d a073 a6bd
00000020: 1847 c5bd fe2a a13d 6c0c af3d 08d2 ee3d
00000030: 3852 26bd 5ce7 fbbd dacb a23d e0bd 43bc
00000040: e00f b7bc 5ec2 bb3d 1023 c9bd 2038 19bd
00000050: 08ab 80bc 1864 f6bc 306a f3bd f8a2 913c
00000060: f052 413d c8e7 f83c 5497 34bd 50ef cfbc
00000070: 7677 9a3d 2ca8 943d c036 053b 62f8 93bd
00000080: 9418 293d c873 53bd 28c0 dcbc 50c2 2abd
00000090: 0c64 b7bd ece6 3f3d 40b8 53bd e809 ae3d
000000a0: e037 363c 0437 82bd 9031 273c cc46 dcbd
000000b0: a0e9 b7bb 18e1 fcbd 0689 f8bd 5004 5abd
000000c0: bc74 d6bd 40f3 4a3b 524a b83d a03f 78bd
000000d0: 46c1 86bd fe19 e8bd 58b3 17bd faab c33d
000000e0: 6892 90bc 4441 6ebd 1c66 7dbd d4dd 123d
000000f0: a4dd 0ebd 146a 793d 30d1 173d a084 a9bc
00000100: 05d7 043d 8313 da3e 638f e63e 1fc0 52bf
00000110: 23da 383e 2e7f 11bd 78cf 21bf 9785 02bf
00000120: 5ef7 e2be 1eac e93e d709 7c3e 8d6c 933e
00000130: 7de5 953e 6059 adbe 0122 31bf 7819 893e
00000140: 428f b63e a93f e3bb 7939 c7be 5174 05bf
00000150: 9b94 9a3e c997 d83e c944 bcbe be66 04bf
00000160: fb58 33be a846 f63e fca7 753e 64f6 30be
00000170: d0fe ca3e 2e37 91bd 32cc 953e a4c6 babe
00000180: 93f1 5fbe 1c82 163c 59c9 ea3e 9fb4 f9be
00000190: 3c63 2abe 85f1 873e a253 7fbf 17ef b53e
000001a0: d5cf ad3e 422f 8abf b169 c63e 0e95 9a3e
000001b0: cc61 75bf 8f33 b23e 1862 e83e 6068 97be
000001c0: f4dd ad3e c8e1 aa3d 4bc6 acbe d15f 943d
000001d0: 0af2 d93e 4359 c6be 0f91 78bf 363f fabd
000001e0: 49ac aebe ea60 3dbd 2b8a b83e ecbe 21bf
000001f0: 7e4d 723e 433a cb3e 53cc b9be 719e c93e
00000200: 4218 a33c c0c4 a23e 2392 fe3e d868 39bf
00000210: 80b5 9b3e e3ad 7cbc f160 53bf 4aec 31bf
00000220: b575 fdbe 9928 bc3e e225 a13e 1107 d63e
00000230: af7a d93e dd1e a9be 466b 7dbf 6c61 193e
00000240: b58e ad3e c5fa e3bd 59f7 0cbf 892f e5be
00000250: 8f5f da3e 5982 c03e da45 dcbe 8e6c f4be
00000260: f476 8cbe 1e21 d93e 1750 2a3e d528 99be
00000270: 001b 9c3e 88f1 61bd 3f68 d33e 2bf9 78be
00000280: 4c6b a4be 435a cdbd 4bf9 af3e 5049 12bf
00000290: 6965 8ebe a23a 663e 8949 75bf 39b7 c93e
000002a0: a6c4 a43e e4fc 87bf 0f99 b13e 0428 883e
000002b0: 26a8 9fbf d172 8e3e 2eb0 9f3e 8330 3ebe
000002c0: d117 a13e 60f0 193c 9dd8 e5be e6a3 4cbd
000002d0: 4d4b b03e d73c c9be c9b1 86bf e8ad 24bd
000002e0: f0b0 7ebe 1830 30bd 378b 923e b80b 2fbf
000002f0: 0da9 e33e f789 8c3e dcaf b5be b859 ae3e
00000300: b829 96bd ff91 14bd 5207 bd3d 166c ea3d
00000310: a156 29bc 7626 aebd 3074 e33d b010 50bd
00000320: a435 aa3d eeb0 863d cc20 fc3c ae8b 363d
00000330: 9561 2abd a631 c93d 0cbd 94bd 994b 10ba
00000340: 85f2 6bbb 4c5b 3e3d 228e c4bc 9763 d83c
00000350: 4bc1 853c ba7a c73c 16a4 85bd 0e93 953d
00000360: c866 2fbd 08e5 debd e678 dfbd af66 dfbd
00000370: e3f9 b33d 00ec eeb9 1b92 2b3d c002 8dbd
00000380: f8f7 f2bd 56be aebd a486 933d 4039 0d3b
00000390: 9064 173b 8d3c 04be 0e73 d03d 3352 cabd
000003a0: 6b15 a3bd 2c9f 9b3d bfca 05be 4892 0cbe
000003b0: e27e 81bd 1e3d c4bd 724d 053c 04c5 613d
000003c0: c4dd f3bd 4c75 f33d 106f 8ebc 7c62 f2bd
000003d0: 1d5c 33bd fac2 813d 8139 0e3d 9aa6 b73d
000003e0: 6ec0 293d 7a9a ddbd e426 d23d 4d1e 783d
000003f0: a802 e2bb b424 02be 98c3 333d a103 7c3d
0.010093048 0.011594653 -0.12049563 -0.108563274 -0.102919206 0.03599432 0.079641104 -0.081275225
-0.09632701 0.07869528 0.08547291 0.11661154 -0.040605754 -0.12299988 0.07949038 -0.011947125
-0.022346437 0.09167932 -0.09821141 -0.03740704 -0.015706554 -0.030077025 -0.11885488 0.017777905
0.047198236 0.03038396 -0.04408963 -0.025382668 0.075423166 0.07258639 0.0020326823 -0.0722511
0.041283205 -0.05162409 -0.026947096 -0.041689217 -0.08954629 0.046851084 -0.051689386 0.08497983
0.01112172 -0.0635815 0.010204688 -0.10755691 -0.005612567 -0.12347621 -0.1213551 -0.05322677
-0.10471484 0.0030967742 0.089985505 -0.060607553 -0.06579833 -0.113330826 -0.03703627 0.09554286
-0.017647937 -0.05816771 -0.061864957 0.035856083 -0.03487934 0.06089218 0.03706473 -0.020693123
0.03243162 0.4259301 0.4503127 -0.82324404 0.18051963 -0.03552168 -0.632072 -0.5098509
-0.4432935 0.45639127 0.24613129 0.28793755 0.29276648 -0.3385725 -0.6919251 0.26777244
0.35656172 -0.006935079 -0.38911036 -0.5213061 0.30191502 0.42303303 -0.3677123 -0.5171927
-0.17514412 0.4810078 0.23989862 -0.1728149 0.39647532 -0.07090603 0.2925735 -0.36479676
-0.21869497 0.009186294 0.4585674 -0.48770615 -0.16639417 0.26551452 -0.9973699 0.35533974
0.33947626 -1.0795672 0.3875251 0.30191845 -0.9585235 0.3480496 0.4538734 -0.2957182
0.339584 0.083438456 -0.33745036 0.07244838 0.42567474 -0.38739976 -0.9709634 -0.12219088
-0.34115818 -0.046235003 0.36042914 -0.6318195 0.23662373 0.39692888 -0.362887 0.39378694
0.019909028 0.31790733 0.49720868 -0.72425604 0.3041191 -0.015422317 -0.82569796 -0.69501173
-0.49503866 0.36749724 0.31474215 0.41802266 0.42476413 -0.3303136 -0.9899181 0.1497857
0.3389794 -0.11131815 -0.5506492 -0.4476283 0.4265103 0.37599447 -0.43022043 -0.4773907
-0.27434504 0.4240808 0.16632114 -0.29913965 0.3048935 -0.055161983 0.4129047 -0.243138
-0.3211311 -0.10026982 0.34369883 -0.57143116 -0.27811745 0.22483304 -0.9581533 0.393976
0.3218128 -1.0624051 0.34687087 0.2659303 -1.247319 0.27821973 0.31189102 -0.18573193
0.31463483 0.009395689 -0.44891825 -0.049960993 0.3443245 -0.3930423 -1.0523006 -0.040204912
-0.24872184 -0.043014616 0.28621837 -0.68377256 0.44464913 0.2744901 -0.35485733 0.34052825
-0.07332176 -0.036272045 0.09229912 0.11446397 -0.010335595 -0.085034296 0.111061454 -0.050797164
0.083110124 0.065767154 0.030777358 0.044566803 -0.041596968 0.09823923 -0.0726262 -0.0005504429
-0.0036002707 0.046473786 -0.023993555 0.026414676 0.01632752 0.024350513 -0.065254375 0.07303439
-0.04282263 -0.10883528 -0.109117314 -0.10908257 0.087878965 -0.0004557073 0.041887384 -0.0688529
-0.118637025 -0.085323974 0.07203415 0.0021549016 0.0023100711 -0.12913723 0.10178195 -0.098789595
-0.079630695 0.07598719 -0.13065623 -0.13727677 -0.06323029 -0.0958197 0.00813614 0.05511953
-0.11907533 0.11887607 -0.017386943 -0.11835191 -0.043789018 0.06336017 0.03472281 0.089673236
0.04144328 -0.1082048 0.10261324 0.060575772 -0.0068972893 -0.12709314 0.043887705 0.0615269

val_hidden_layer.bias f4 [64]
00000000: e02e 19bc ae14 863e 9411 eb3e 28a9 dfbc
00000010: 6187 e93e 381d 7bbd dbca b43e bbd7 9e3e
00000020: 0dfd 2abe ed28 853d 4a59 08be df17 233c
00000030: 43fd 0ebe ede0 8f3c b3e4 0abe 72f8 83bd
00000040: bf5b b53e 6fc1 7ebd 41c7 863e af9c 98bd
00000050: 57ee d23e 8f09 ec3e 0a61 a13d c8d5 f33e
00000060: 658c c13d e66c ee3e c131 e13e 676f e53e
00000070: 4538 cd3e 400a b33e bfbe 5b3d 5c86 a03d
00000080: 703a 23be a4a8 063f 80c6 223c 1c2b 22be
00000090: 28e0 8cbd 69dd c3bc a098 dcbd f711 723d
000000a0: 1200 fd3e 2413 d53e 0783 febd 29cf 9bbd
000000b0: 07c4 1bbd 4abb bd3d 2cb4 1ebe 48b8 f33c
000000c0: 95b3 c13e cee4 cbbd 99b8 debd f5b5 bc3e
000000d0: 3244 a53e ea4a bc3e c2fe 903d ee8a abbc
000000e0: d225 983d 119d c0bd e56d 0fbe 0260 a9bd
000000f0: 4102 b93e a29a a23e ae7b f3bd 61ef b53d
-0.009349555 0.26187652 0.4591185 -0.02730234 0.45611098 -0.061307162 0.35311016 0.31023964
-0.16698094 0.065019466 -0.13315311 0.009954422 -0.13963799 0.017563308 -0.13563804 -0.064438716
0.3542156 -0.06219619 0.26323894 -0.0745176 0.41197464 0.46101043 0.07879837 0.4762404
0.09450606 0.46567458 0.43983272 0.44811556 0.40081993 0.34968758 0.053648707 0.07838127
-0.15940261 0.52601075 0.009935021 -0.15836757 -0.06878692 -0.023909288 -0.107712984 0.059099164
0.49414116 0.41616166 -0.12427335 -0.07607872 -0.038028743 0.09264238 -0.15498418 0.029750958
0.37832323 -0.099557504 -0.10875053 0.36857572 0.3227859 0.36775905 0.07079841 -0.02094027
0.07429089 -0.09404958 -0.14006765 -0.08270265 0.36134532 0.317586 -0.118888244 0.088835485

val_layer.weight f4 [1, 64]
00000000: 944c 393d 0a84 0b3f d3d1 fd3e ea83 b7bd
00000010: bd4b 093f b8a2 7ebd dc25 033f 6405 093f
00000020: 867e 2bbf c4c9 9cbd d2b0 67bf 445c 323b
00000030: d99f 45bc 8dba 80bc aad3 5fbd c833 babf
00000040: 0733 013f 68ac d2bd 6f4d ff3e e889 65bc
00000050: 0246 0a3f 1762 ec3e 62d4 bbbd 627b ed3e
00000060: 27e8 83bb 93ba f33e 6645 103f 1cf9 063f
00000070: e5a2 f43e 8db1 f93e 779d a4bd d86a aebd
00000080: dcb0 10bf 142b e33e b81c a0bc 6611 2cbf
00000090: 4456 03bd 7697 02bd 3895 a33c 586d a7bd
000000a0: 4034 043f 12c6 0b3f cfd3 64bd b335 81bd
000000b0: 8d40 96bd 5c21 ffbc e543 e8bf 144a 2dbd
000000c0: 4d90 f03e d7a2 c1bc 60e2 68bd 1746 ea3e
000000d0: b2bd ea3e ceb9 e43e 366a 223d 703a b1bd
000000e0: 6c49 7dbd fe3e b8bf a55e 8abd 7c89 263d
000000f0: 1076 f03e 45f0 013f 4ea9 6dbd 7f6e 25bd
0.045239046 0.5449835 0.49574146 -0.089607075 0.5363119 -0.0621669 0.51229644 0.5352385
-0.66989934 -0.07655671 -0.9050418 0.002721564 -0.012062036 -0.015713954 -0.054645218 -1.4547052
0.50468487 -0.1028679 0.49863765 -0.01400993 0.54013073 0.46168587 -0.09171368 0.46383196
-0.0040254775 0.47603282 0.56355894 0.5272386 0.4778053 0.48768273 -0.080378465 -0.085164726
-0.56519866 0.44368804 -0.019544944 -0.6721405 -0.03206469 -0.031882726 0.019968614 -0.081751525
0.5164223 0.54599106 -0.05586606 -0.063090704 -0.07336531 -0.031143837 -1.814572 -0.042306975
0.46985093 -0.023637218 -0.056856513 0.457566 0.4584785 0.44673008 0.039652072 -0.08653724
-0.0618376 -1.4394224 -0.06756333 0.04065846 0.46965075 0.5075725 -0.05802279 -0.04038858

exp_avg f4 [64, 4]
00000000: 15f7 8739 3663 8eb7 35b3 3e37 4d8c 7839
00000010: f8d6 a33c 69b7 8d3b 4ea7 253a a268 3d3c
00000020: 766f a03c c745 893b a75a 273a b757 3c3c
00000030: 0400 0000 0400 0000 0400 0000 0400 0000
00000040: b5cf 8c3c f922 803b 02ff 0c3a 0af1 1d3c
00000050: ca6a b137 7800 8338 74c9 94b6 7fcf 9db8
00000060: 0400 0000 0400 0000 0400 0000 0400 0000
00000070: 6d56 8bbc c55b 2ebc dba1 85ba dfa2 06bb
00000080: 0400 0080 0400 0080 0400 0000 0400 0000
00000090: 71e1 a63c 5c45 8e3b 9b70 2f3a e675 443c
000000a0: d6ee 843c 3b2f 6c3b adb5 053a bf3c 173c
000000b0: d584 883c 9b59 5e3b e107 103a c5f9 243c
000000c0: 8113 8c3c 5d01 6c3b 96d8 0d3a 667e 243c
000000d0: 0400 0000 0400 0000 0400 0000 0400 0000
000000e0: 0400 0000 0400 0000 0400 0000 0400 0000
000000f0: b25b ee3b 2fee b53a 9af8 a239 d69a 993b
00000100: 5965 943c 7dd3 793b fec0 1a3a a7cc 2f3c
00000110: dd05 d3b9 be61 7ab9 440f 52b7 0586 89b8
00000120: 330e 47bc ed84 2abc a4ea 64ba 3918 203b
00000130: 1e3e 503b 18d1 3338 f9e0 abb9 ecdf ac39
00000140: b768 a03c d2b4 8b3b 1392 263a 6bdc 393c
00000150: 8c5c a03c 5941 883b e9f4 203a b35f 3a3c
00000160: 0400 0000 0400 0000 0400 0000 0400 0000
00000170: 0400 0000 0400 0000 0400 0000 0400 0000
00000180: 0400 0080 0400 0080 0400 0000 0400 0000
00000190: 07eb 923c c806 7d3b 886a 173a 8888 2b3c
000001a0: f3d7 ad04 ff6d a006 e0ab d804 1015 9286
000001b0: d5d6 0bbc 93a1 38bb 1d74 e2b9 cbc2 69bb
000001c0: 4625 2e3c 0900 abb9 25d6 42b7 8f5e 083c
000001d0: 0000 0000 0000 0000 0000 0000 0000 0000
000001e0: ba60 943c 72fa 7f3b 1d60 173a e234 2c3c
000001f0: 3bcf 4bbc 3ea4 0abc 917a 8eba c472 3bba
00000200: 5e81 00ba 7f8c f4ba 872a dbb9 6feb 8539
00000210: 0400 0000 0400 0000 0400 0000 0400 0000
00000220: 0542 823c 422d 533b dc62 0c3a b08a 1e3c
00000230: 0400 0000 0400 0000 0400 0000 0400 0000
00000240: 90ab 00bc 915c 97bb d61f 1aba 8ce4 d0ba
00000250: 7b0c 693c 04d4 103b c6fc 0739 a616 023c
00000260: 0400 0000 0400 0000 0400 0000 0400 0000
00000270: f6c3 ba3c bbe9 9b3b ebb4 393a e872 5a3c
00000280: 8500 893c 8519 5b3b 60d1 0d3a a7fb 243c
00000290: dd34 b605 0ace 8e07 dbfd 3e05 5682 8f87
000002a0: 837f b53c dfa2 9b3b f8b0 383a 9016 533c
000002b0: f29d 953c fbf8 813b b202 1b3a 2ae1 2d3c
000002c0: 0a48 f73c fe2f 223c 8794 3939 dc7a 0c3c
000002d0: fc2c 673c 6200 0e3b b38c 2d39 39f2 033c
000002e0: 72ec 8c3c f145 6f3b 43da 0d3a 4b49 243c
000002f0: f674 9235 74dc b8b6 f300 7e35 7b82 7637
00000300: e914 8d3c 10af 7d3b 6d28 113a ca73 203c
00000310: 0000 0000 0000 0000 0000 0000 0000 0000
00000320: 0400 0000 0400 0000 0400 0000 0400 0000
00000330: 0400 0000 0400 0000 0400 0000 0400 0000
00000340: 124f 8b3c b43f 7e3b 889f 0d3a 23c3 1c3c
00000350: 340c 3d34 122a 8a34 be03 88b5 4aae d8b6
00000360: 0400 0000 0400 0000 0400 0080 0400 0080
00000370: 0000 0000 0000 0000 0000 0000 0000 0000
00000380: e989 c3b7 53f1 a5b9 7ddc 93b7 9125 a339
00000390: de47 13bb 257d fdba 1e32 67b9 3531 2a39
000003a0: b2cf 853c aca7 623b 3d56 0c3a 6464 1e3c
000003b0: f029 c13b f0e0 823a b13c 83b9 7a4b 043b
000003c0: f9f0 8c3c 184b 6c3b 2566 173a 60f5 283c
000003d0: bbba 8c3c 2325 7c3b 0349 0a3a 7d41 1e3c
000003e0: 5e54 0ebc 9b03 e8bb 9c35 2fba f04d 6c3a
000003f0: 41d7 863c dc82 703b fb54 003a eea2 163c
0.00025933297 -1.6973918e-05 1.1366607e-05 0.00023703389 0.019999966 0.0043248427 0.0006319181 0.011560591
0.019584399 0.0041892263 0.00063840527 0.011495522 6e-45 6e-45 6e-45 6e-45
0.017188886 0.003910419 0.00053785753 0.009639988 2.1149772e-05 6.246654e-05 -4.434196e-06 -7.5249925e-05
6e-45 6e-45 6e-45 6e-45 -0.017008984 -0.010641997 -0.0010195331 -0.0020543856
-6e-45 -6e-45 6e-45 6e-45 0.02037117 0.0043417644 0.00066925 0.011991
0.016227167 0.0036038894 0.0005100619 0.009230792 0.016664902 0.003392792 0.0005494338 0.010069315
0.017099144 0.0036011555 0.0005410997 0.010039901 6e-45 6e-45 6e-45 6e-45
6e-45 6e-45 6e-45 6e-45 0.0072741145 0.0013880188 0.0003108427 0.0046876473
0.018114733 0.0038120442 0.0005903392 0.010729945 -0.00040249425 -0.0002387827 -1.252053e-05 -6.557632e-05
-0.012149381 -0.010407669 -0.0008732474 0.00244285 0.0031775306 4.287166e-05 -0.0003278328 0.0003297323
0.019581182 0.004263499 0.0006354164 0.011344056 0.01957538 0.0041581807 0.000614001 0.0113753555
6e-45 6e-45 6e-45 6e-45 6e-45 6e-45 6e-45 6e-45
-6e-45 -6e-45 6e-45 6e-45 0.017934335 0.0038608778 0.0005776067 0.010469563
4.0870423e-36 6.0346935e-35 5.09392e-36 -5.4950045e-35 -0.008535107 -0.0028172478 -0.0004319259 -0.0035669084
0.010629004 -0.00032615688 -1.16131605e-05 0.008323326 0.0 0.0 0.0 0.0
0.01811253 0.003905919 0.0005774515 0.010510655 -0.012439544 -0.00846201 -0.0010870268 -0.00071505853
-0.000490209 -0.0018657594 -0.0004180262 0.00025543149 6e-45 6e-45 6e-45 6e-45
0.015900621 0.003222302 0.00053553074 0.00967662 6e-45 6e-45 6e-45 6e-45
-0.007853404 -0.004619189 -0.0005879378 -0.0015937253 0.014224167 0.0022099027 0.00012968769 0.00793997
6e-45 6e-45 6e-45 6e-45 0.02279852 0.0047580875 0.0007084149 0.01333306
0.01672388 0.003343196 0.00054099225 0.010069764 1.7134617e-35 2.1486884e-34 8.980383e-36 -2.1592853e-34
0.022155529 0.0047496404 0.00070454134 0.012883797 0.01826379 0.0039664484 0.00059131824 0.010612765
0.030185718 0.009899138 0.00017698306 0.008574214 0.014109846 0.0021667709 0.0001655098 0.008053356
0.01720259 0.0036510194 0.00054112467 0.01002724 1.0911888e-06 -5.5092914e-06 9.4623755e-07 1.46931225e-05
0.017221885 0.0038709082 0.0005537335 0.009793231 0.0 0.0 0.0 0.0
6e-45 6e-45 6e-45 6e-45 6e-45 6e-45 6e-45 6e-45
0.017005477 0.0038795294 0.0005402495 0.009568009 1.7606436e-07 2.5735113e-07 -1.0133879e-06 -6.4575916e-06
6e-45 6e-45 -6e-45 -6e-45 0.0 0.0 0.0 0.0
-2.331003e-05 -0.00031651053 -1.7626438e-05 0.00031117772 -0.0022473256 -0.0019339664 -0.00022048547 0.00016230794
0.016334388 0.0034584804 0.00053534267 0.00966749 0.005894892 0.000998525 -0.00025031486 0.002018659
0.017204748 0.0036055502 0.00057754136 0.010312408 0.017178884 0.0038474284 0.0005275162 0.009659168
-0.008687107 -0.007080508 -0.00066837086 0.0009014299 0.016460063 0.0036699092 0.00048954756 0.009194119

exp_avg_sq f4 [64, 4]
00000000: cca9 a837 1dcc 2437 2b04 fe33 ec47 ca35
00000010: 659f 003d 6caa 863c b26d 0b39 2b8c f73a
00000020: 2d53 113d 09b1 973c c8fd 2039 cbe0 043b
00000030: fca2 c939 bd5e d438 ff38 cd35 c0e8 9737
00000040: 8a37 b23c 646c 3f3c ab35 bf38 b7b1 ac3a
00000050: 0f8f b437 43a7 8437 cb06 1c34 30b8 3c37
00000060: 18a6 b339 1df6 ef38 4808 db35 3190 2437
00000070: 2b0b 7e3d 99c4 f13c b1ce a139 2980 c23a
00000080: 054c 9336 80a3 8b36 a5b7 3633 dd32 c635
00000090: f557 163d eacc 9b3c 5094 2639 27c9 0b3b
000000a0: efc3 a13c 579f 293c 8a2d ae38 fff3 9c3a
000000b0: ef77 f33c 86e6 7b3c f165 0939 1d5f d73a
000000c0: e4cf ce3c 42ef 573c dd2c e338 d673 c13a
000000d0: 0f91 5639 a119 6e38 e0e0 3a35 9f47 1b37
000000e0: 0129 fa39 f172 0839 0a5d f135 bbe9 b837
000000f0: 3ad8 dd3b 13de 583b 8aa7 0138 3d53 b139
00000100: 0613 f23c 2ed3 7b3c 18c1 0539 c287 de3a
00000110: 58b6 e538 120a 3538 62c8 1b35 9cc4 cb36
00000120: 70ca 2b3d a6ca 973c 0ed8 4e39 11c1 733a
00000130: 1fff 813c b9a0 013c 2a89 d538 e7a6 dc39
00000140: 5321 f23c 6792 7b3c e743 0439 4525 ea3a
00000150: 892e e63c dd4c 6e3c d310 f938 d6b4 e53a
00000160: 2726 e538 fb22 0638 4ab1 b534 ab23 9d36
00000170: b71e a839 63d8 d438 0cb2 8935 6b4d 4f37
00000180: 9349 272f 880a a32e 1a31 692b d063 1e2f
00000190: 3839 eb3c cd6f 763c abd8 0139 14d2 d73a
000001a0: 5147 f135 924f 1737 372e 3133 8364 0937
000001b0: 4e6a 2d3c 99a1 a73b 35be 4438 05ad cc39
000001c0: ab76 453c fa67 d93b 830b 2238 9ed9 733a
000001d0: 0000 0000 0000 0000 0000 0000 0000 0000
000001e0: 76d2 da3c 94ed 633c fc12 ef38 7038 d03a
000001f0: 8bd4 c13c 819e 323c c9fb d838 adae 0b3a
00000200: 2808 473c 00ab c83b b41c 8838 478f 2f39
00000210: 8c26 ea27 ca72 6a27 3e93 0624 657e a525
00000220: caf3 d83c 1bcd 5e3c a0d0 f438 cd49 c13a
00000230: fda1 8939 b840 9338 9a33 7c35 8a67 5d37
00000240: 52ac 2e3c 54ff a93b 05b0 4638 b727 9f39
00000250: 87d0 003c f109 9e3b 68b9 cc37 03e5 413a
00000260: e013 523a 2ede 6d39 3da3 4736 505c 4d38
00000270: 4298 1c3d d33c a23c cf17 2939 bc49 1d3b
00000280: d7fa c83c 9fbb 4f3c 65fb de38 c70c b23a
00000290: df33 4135 1020 7d38 4994 1834 340e 9038
000002a0: ca84 1a3d b96e a13c 4b26 2739 c21c 163b
000002b0: c9f5 f03c 8353 7c3c 2e22 0539 365f de3a
000002c0: bd2d 173e 7c1b 8d3d 06f4 5c3a 4b46 883b
000002d0: ca00 073c bb7d 953b d8f1 d737 b1c2 5b3a
000002e0: ecff c23c 2fb0 4b3c 369a d538 ab29 bb3a
000002f0: 7c54 0438 658a 5137 af56 f233 7bbd da36
00000300: e731 af3c dfeb 373c 75c3 bc38 1348 aa3a
00000310: 0000 0000 0000 0000 0000 0000 0000 0000
00000320: dd85 4f39 0d1d 6738 288d 3a35 f640 1037
00000330: e2bb 1d29 a37a 5c28 3a36 c423 5958 4028
00000340: ef80 bb3c b287 483c c935 c938 ab94 b13a
00000350: d36a 0d39 919b 3538 5807 e534 be4b f236
00000360: c061 8f37 8146 e737 41ce 4834 bcdf b737
00000370: 0000 0000 0000 0000 0000 0000 0000 0000
00000380: 86ba 4435 6f20 c737 cbca af33 3637 bd37
00000390: 3661 d33a d03e 343a 1d99 e536 176a 1538
000003a0: 2502 e03c 92d2 693c cb4e fb38 15a7 c63a
000003b0: cadf 9b3c f729 0a3c b356 b938 659c ea39
000003c0: 2730 013d fd8c 853c df38 1239 5082 e13a
000003d0: e744 a83c 261c 343c 35d2 b238 cb88 a73a
000003e0: 7ed5 de3c 6555 383c f052 0239 4ef4 433a
000003f0: 700d 8e3c 3c45 193c 5e53 9438 5bc4 923a
2.0106228e-05 9.822686e-06 1.1828555e-07 1.5071105e-06 0.03140201 0.016438685 0.00013296938 0.0018886378
0.035479713 0.018517034 0.0001535333 0.0020275589 0.0003845914 0.00010126594 1.5290278e-06 1.8108985e-05
0.021754999 0.011683557 9.117586e-05 0.0013175522 2.1524289e-05 1.5813514e-05 1.4531103e-07 1.1248558e-05
0.0003426529 0.0001144225 1.6319182e-06 9.808734e-06 0.06202237 0.02951269 0.0003086231 0.001483922
4.3897912e-06 4.1615567e-06 4.25422e-08 1.4766953e-06 0.036704976 0.01901861 0.00015886244 0.0021329613
0.019746749 0.010352931 8.305449e-05 0.0011974572 0.029720275 0.015374785 0.00013103314 0.0016431544
0.025245614 0.013179602 0.0001083256 0.0014759253 0.00020462669 5.676749e-05 6.9617636e-07 9.2553955e-06
0.00047714266 0.0001301279 1.7982977e-06 2.2043349e-05 0.006770161 0.003309135 3.091203e-05 0.00033822088
0.029550087 0.015370173 0.00012755801 0.0016977715 0.00010953535 4.316314e-05 5.8033595e-07 6.07276e-06
0.041941106 0.018529247 0.00019726178 0.00092984835 0.015868722 0.007911854 0.0001018218 0.00042086022
0.029556906 0.015354729 0.00012613797 0.001786389 0.028098362 0.014544693 0.00011876379 0.0017525207
0.00010926677 3.1980668e-05 3.3842872e-07 4.683117e-06 0.0003206634 0.00010149253 1.0259114e-06 1.2356187e-05
1.52147e-10 7.4142525e-11 8.284637e-13 1.4405477e-10 0.028713807 0.015041304 0.00012383114 0.0016465806
1.7976655e-06 9.018828e-06 4.1253056e-08 8.1892385e-06 0.010584427 0.0051156995 4.6907186e-05 0.00039038822
0.012052218 0.0066347094 3.863453e-05 0.0009302142 0.0 0.0 0.0 0.0
0.026711684 0.0139116235 0.00011399944 0.001588596 0.023660919 0.010902048 0.00010346581 0.0005328458
0.012147941 0.0061239004 6.490332e-05 0.00016742676 6.498984e-15 3.253625e-15 2.9181337e-17 2.8708586e-16
0.026483435 0.013598706 0.00011673686 0.0014746726 0.00026251367 7.021561e-05 9.3952406e-07 1.3196734e-05
0.010661202 0.005187908 4.737081e-05 0.00030356433 0.007862217 0.0048229625 2.4405032e-05 0.0007396491
0.0008013826 0.0002268485 2.9748328e-06 4.896178e-05 0.038231142 0.019804394 0.00016125965 0.0024000248
0.024533672 0.01267901 0.00010632611 0.001358413 7.1973585e-07 6.034976e-05 1.4210049e-07 6.8691006e-05
0.037724294 0.019706117 0.00015940626 0.0022905325 0.029414074 0.01540077 0.00012696601 0.0016965631
0.14763542 0.06890008 0.00084286963 0.00415877 0.008239934 0.0045621074 2.5742615e-05 0.00083831983
0.023803674 0.012432142 0.000101853555 0.0014279386 3.1549935e-05 1.2489593e-05 1.1284771e-07 6.5189647e-06
0.0213861 0.01122567 9.000945e-05 0.001299145 0.0 0.0 0.0 0.0
0.00019790926 5.5101747e-05 6.949581e-07 8.598194e-06 3.5023965e-14 1.2239046e-14 2.1273328e-17 1.0677298e-14
0.022888629 0.0122393835 9.594445e-05 0.0013548335 0.00013486603 4.3298645e-05 4.2659917e-07 7.2209796e-06
1.7092447e-05 2.7570177e-05 1.8701486e-07 2.1919484e-05 0.0 0.0 0.0 0.0
7.328712e-07 2.3737752e-05 8.18596e-08 2.2556265e-05 0.0016126994 0.0006875815 6.8425566e-06 3.5623172e-05
0.027344773 0.014271395 0.00011983289 0.0015155995 0.01902761 0.008432857 8.8376364e-05 0.0004474848
0.031540062 0.01630258 0.00013944831 0.0017204974 0.020540668 0.010993039 8.5268555e-05 0.0012781856
0.02720141 0.011250828 0.00012428663 0.0007475064 0.017340392 0.009354886 7.072718e-05 0.0011197435

exp_avg f4 [64]
00000000: 78d2 1b3a 8cdb f03c e8e8 eb3c 0400 0080
00000010: 3b64 c73c a685 ad38 0400 0080 a7c5 bbbc
00000020: 0400 0000 6644 fa3c 86e9 bf3c d29d cc3c
00000030: 3dc5 ce3c 0400 0080 0400 0080 648d 483c
00000040: f86f dd3c 7c5b 6939 5ca2 7abc ec1e 633b
00000050: 9480 f03c e9b5 f23c 0400 0080 0400 0080
00000060: 0400 0000 cdd9 d53c b1e0 6506 0916 60bc
00000070: df82 9c3c 0000 0000 dab3 da3c 480c 99bc
00000080: 0fa1 8b3a 0400 0000 3eb0 c73c 0400 0080
00000090: 547b 40bc 88c6 a53c 0400 0080 a1ad 0e3d
000000a0: 7164 c73c b3fe 2107 9b97 073d 7c6c da3c
000000b0: 8921 c73c 9b80 b73c b4cf d13c 5258 8ab7
000000c0: f5ee cd3c 0000 0000 0400 0080 0400 0000
000000d0: cafd c23c ad26 8437 0400 0000 0000 0000
000000e0: 8aef 48b9 521f 23bb 72db c23c d82c 823b
000000f0: 0d99 cf3c 9d00 ca3c a7a2 46bc 564c c13c
0.0005944143 0.029401563 0.028797582 -6e-45 0.024339786 8.274177e-05 -6e-45 -0.022921396
6e-45 0.030550193 0.023426782 0.024977598 0.025240535 -6e-45 -6e-45 0.012240741
0.02703093 0.00022254692 -0.015297499 0.0034655882 0.029358186 0.029627757 -6e-45 -6e-45
6e-45 0.026104832 4.323519e-35 -0.013677129 0.019105373 0.0 0.026697088 -0.018682614
0.0010652858 6e-45 0.024376031 -6e-45 -0.011748154 0.020236269 -6e-45 0.034833554
0.024339886 1.2187143e-34 0.033103567 0.026663058 0.024307983 0.022400191 0.025611736 -1.649201e-05
0.025138358 0.0 -6e-45 6e-45 0.023802657 1.5753636e-05 6e-45 0.0
-0.00019162722 -0.0024890495 0.02378628 0.003972631 0.025341535 0.024658496 -0.01212374 0.02359597

exp_avg_sq f4 [64]
00000000: 7313 7a37 e1ca 763d 19ed 813d 62d7 6439
00000010: f403 313d 1cf8 8737 da2e 4339 0348 0e3d
00000020: 0fad 0936 abfd 873d 853e 1d3d fc9a 4d3d
00000030: a8ce 3e3d fff0 0d39 95b8 9039 021d 273c
00000040: c028 5a3d 5b4c 6b38 553b b23c 5c44 ab3b
00000050: 7539 673d 9adc 623d 46f1 a738 842a 8039
00000060: 7093 b72e 2fcd 543d ee63 a736 49f7 3c3c
00000070: cdb9 083d 0000 0000 9f80 4d3d efe1 883c
00000080: 74af a83b 26aa be26 1c93 373d f6c5 3039
00000090: d61e 083c 7c10 e43c c1f9 fb39 408f 9b3d
000000a0: c89b 333d dcbe a337 f2d1 953d 35e7 5a3d
000000b0: ee1a 613d 4207 f93c f930 393d 43a6 0e38
000000c0: 098b 2b3d 0000 0000 4a24 fe38 39af 5a28
000000d0: 0ff1 343d 3767 c338 3deb 0637 0000 0000
000000e0: e857 1337 bad4 713a a315 403d dc57 053c
000000f0: 0658 573d 4b58 2c3d 6ab6 6b3c bb03 193d
1.490569e-05 0.060252074 0.06344051 0.00021824011 0.04321666 1.6208789e-05 0.00018614103 0.034736644
2.0515324e-06 0.0664018 0.0383897 0.050196633 0.0465838 0.00013536586 0.00027603345 0.010199787
0.05326152 5.6099478e-05 0.021756807 0.005226655 0.05645128 0.055386163 8.008121e-05 0.0002444574
8.348067e-11 0.05195349 4.988621e-06 0.011533567 0.03338032 0.0 0.05017149 0.016709296
0.005147869 1.3230017e-15 0.04481803 0.00016858414 0.008308133 0.027839892 0.00048060532 0.07595682
0.043849736 1.951999e-05 0.073154345 0.053443152 0.054957323 0.030398969 0.04521272 3.401028e-05
0.04188064 0.0 0.00012118423 1.2139426e-14 0.044175204 9.31755e-05 8.041793e-06 0.0
8.78235e-06 0.0009225119 0.046895634 0.008138623 0.05257418 0.04207639 0.014386753 0.037357073

exp_avg f4 [64, 64]
00000000: 0400 0000 0400 0000 0400 0000 0400 0000
00000010: 0400 0000 0000 0000 0400 0000 0400 0000
00000020: 0400 0000 0400 0000 0400 0000 0400 0000
00000030: 0400 0000 0400 0000 0400 0000 0400 0000
00000040: 0400 0000 0400 0000 0000 0000 0000 0000
00000050: 0400 0000 0400 0000 0400 0000 0400 0000
00000060: 0400 0000 0400 0000 0000 0000 0400 0000
00000070: 0400 0000 0000 0000 0400 0000 0000 0000
00000080: 0000 0000 0000 0000 0400 0000 0400 0000
00000090: 0000 0000 0400 0000 0400 0000 0400 0000
000000a0: 0400 0000 0000 0000 0400 0000 0400 0000
000000b0: 0400 0000 0400 0000 0400 0000 0400 0000
000000c0: 0400 0000 0000 0000 0400 0000 0000 0000
000000d0: 0400 0000 0400 0000 0000 0000 0000 0000
000000e0: 0000 0000 0000 0000 0400 0000 0000 0000
000000f0: 0400 0000 0400 0000 0000 0000 0400 0000
00000100: 0000 0000 0000 0000 0000 0000 0000 0000
00000110: 0000 0000 0000 0000 0000 0000 0000 0000
00000120: 0000 0000 0000 0000 0000 0000 0000 0000
00000130: 0000 0000 0000 0000 0000 0000 0000 0000
00000140: 0000 0000 0000 0000 0000 0000 0000 0000
00000150: 0000 0000 0000 0000 0000 0000 0000 0000
00000160: 0000 0000 0000 0000 0000 0000 0000 0000
00000170: 0000 0000 0000 0000 0000 0000 0000 0000
00000180: 0000 0000 0000 0000 0000 0000 0000 0000
00000190: 0000 0000 0000 0000 0000 0000 0000 0000
000001a0: 0000 0000 0000 0000 0000 0000 0000 0000
000001b0: 0000 0000 0000 0000 0000 0000 0000 0000
000001c0: 0000 0000 0000 0000 0000 0000 0000 0000
000001d0: 0000 0000 0000 0000 0000 0000 0000 0000
000001e0: 0000 0000 0000 0000 0000 0000 0000 0000
000001f0: 0000 0000 0000 0000 0000 0000 0000 0000
00000200: 0400 0000 0400 0000 0400 0000 0000 0000
00000210: 0400 0000 0400 0000 0400 0080 0400 0080
00000220: 0400 0080 0400 0000 0400 0000 0400 0000
00000230: 0400 0000 0400 0000 0400 0000 0400 0000
00000240: 0400 0000 0400 0000 0000 0000 0400 0000
00000250: 0400 0000 0400 0000 0400 0000 0400 0000
00000260: 0400 0000 0400 0000 0000 0000 0400 0000
00000270: 0400 0000 0000 0000 0400 0000 0000 0000
00000280: 0000 0000 0000 0000 0400 0000 0400 0000
00000290: 0000 0000 0400 0000 0400 0000 0400 0000
000002a0: 0400 0000 0000 0000 0400 0000 0400 0000
000002b0: 0000 0000 0400 0000 0400 0000 0400 0000
000002c0: 0400 0000 0000 0000 0400 0000 0000 0000
000002d0: 0400 0000 0400 0000 0400 0000 0000 0000
000002e0: 0000 0000 0400 0000 0400 0000 0400 0000
000002f0: 0400 0000 0400 0000 0400 0000 0400 0000
00000300: 0000 0000 0400 0000 0400 0000 0400 0000
00000310: 0400 0000 0400 0000 0400 0080 0000 0000
00000320: 0000 0000 0400 0000 0400 0000 0400 0000
00000330: 0400 0000 0400 0000 0400 0000 0400 0000
00000340: 0400 0000 0400 0000 0400 0000 0400 0000
00000350: 0400 0000 0400 0000 0400 0000 0400 0000
00000360: 0000 0000 0400 0000 0000 0000 0000 0000
00000370: 0400 0000 0000 0000 0400 0000 0400 0000
00000380: 0000 0000 0000 0000 0400 0000 0400 0000
00000390: 0400 0000 0400 0000 0400 0000 0400 0000
000003a0: 0400 0000 0400 0000 0400 0000 0400 0000
000003b0: 0000 0000 0400 0000 0400 0000 0400 0000
000003c0: 0400 0000 0000 0000 0400 0000 0000 0000
000003d0: 0400 0000 0400 0000 0400 0080 0000 0000
000003e0: 0400 0000 0400 0000 0400 0000 0400 0000
000003f0: 0400 0000 0400 0000 0400 0000 0400 0000
6e-45 6e-45 6e-45 6e-45 6e-45 0.0 6e-45 6e-45
6e-45 6e-45 6e-45 6e-45 6e-45 6e-45 6e-45 6e-45
6e-45 6e-45 0.0 0.0 6e-45 6e-45 6e-45 6e-45
6e-45 6e-45 0.0 6e-45 6e-45 0.0 6e-45 0.0
0.0 0.0 6e-45 6e-45 0.0 6e-45 6e-45 6e-45
6e-45 0.0 6e-45 6e-45 6e-45 6e-45 6e-45 6e-45
6e-45 0.0 6e-45 0.0 6e-45 6e-45 0.0 0.0
0.0 0.0 6e-45 0.0 6e-45 6e-45 0.0 6e-45
0.0 0.0 0.0 0.0 0.0 0.0 0.0 0.0
0.0 0.0 0.0 0.0 0.0 0.0 0.0 0.0
0.0 0.0 0.0 0.0 0.0 0.0 0.0 0.0
0.0 0.0 0.0 0.0 0.0 0.0 0.0 0.0
0.0 0.0 0.0 0.0 0.0 0.0 0.0 0.0
0.0 0.0 0.0 0.0 0.0 0.0 0.0 0.0
0.0 0.0 0.0 0.0 0.0 0.0 0.0 0.0
0.0 0.0 0.0 0.0 0.0 0.0 0.0 0.0
6e-45 6e-45 6e-45 0.0 6e-45 6e-45 -6e-45 -6e-45
-6e-45 6e-45 6e-45 6e-45 6e-45 6e-45 6e-45 6e-45
6e-45 6e-45 0.0 6e-45 6e-45 6e-45 6e-45 6e-45
6e-45 6e-45 0.0 6e-45 6e-45 0.0 6e-45 0.0
0.0 0.0 6e-45 6e-45 0.0 6e-45 6e-45 6e-45
6e-45 0.0 6e-45 6e-45 0.0 6e-45 6e-45 6e-45
6e-45 0.0 6e-45 0.0 6e-45 6e-45 6e-45 0.0
0.0 6e-45 6e-45 6e-45 6e-45 6e-45 6e-45 6e-45
0.0 6e-45 6e-45 6e-45 6e-45 6e-45 -6e-45 0.0
0.0 6e-45 6e-45 6e-45 6e-45 6e-45 6e-45 6e-45
6e-45 6e-45 6e-45 6e-45 6e-45 6e-45 6e-45 6e-45
0.0 6e-45 0.0 0.0 6e-45 0.0 6e-45 6e-45
0.0 0.0 6e-45 6e-45 6e-45 6e-45 6e-45 6e-45
6e-45 6e-45 6e-45 6e-45 0.0 6e-45 6e-45 6e-45
6e-45 0.0 6e-45 0.0 6e-45 6e-45 -6e-45 0.0
6e-45 6e-45 6e-45 6e-45 6e-45 6e-45 6e-45 6e-45
