save/model/acrobot_dqn_hid_64_64.pth (torch_old, 21096 bytes, 6 tensors)

weight f4 [64, 6]
-0.56053144 0.2891339 0.086166 -0.81818235 0.10837136 0.08614406 0.48644584 0.026564473
0.4743018 -0.18362759 -0.15556526 -0.07003748 -0.4568957 -1.1591858 0.2783205 0.75023764
0.24488896 -0.00941395 0.3888272 0.74251276 0.6451913 -0.60928565 -0.08378751 0.032555312
0.51740474 0.6869798 0.5597746 -0.21289733 -0.2690972 -0.014007601 0.1541719 0.67331177
0.4727318 0.023889072 0.024279084 0.09036137 0.6334432 0.19747907 0.13555285 -0.32269263
-0.217442 -0.04152101 0.6152891 0.8109886 -0.39555436 -0.45921826 0.059691932 -0.10875176
0.009300813 0.52473724 0.5371738 -0.6729961 0.17315653 0.18970889 -0.16547702 -0.23168835
-0.20745371 0.74661833 0.23765807 0.093396515 0.2222753 0.42277047 0.16264486 -0.36072388
0.73274255 0.18332082 0.44552064 -0.52753615 0.009770889 0.12839113 0.005647943 -0.043124683
-0.57226205 -0.8365901 -0.3846056 0.48523408 0.07966405 -0.106258444 0.19905673 0.38845178
0.1419059 -1.1075753 0.08700709 0.085840754 0.5623379 -1.2675064 0.42547077 0.4801647
0.31124863 0.12410792 -0.46223086 -1.079883 0.38267848 0.54510015 0.37818456 0.10897246
0.32470047 0.48020262 0.11805647 0.52162486 0.019539177 -0.018855948 0.045290682 -0.43611166
0.3858461 0.7927952 -0.030521838 -0.44438636 -0.131338 0.034886215 0.37060812 -0.14377376
0.04786669 -0.021496767 -1.3663441 -0.23197675 0.17255895 -0.039104465 0.009524534 -0.2187669
-0.45386797 -0.48695347 0.21970296 0.7127448 0.5450965 -0.15013029 -0.29157785 0.47679022
0.22426282 0.5276314 -0.006761282 -0.006663902 -0.5903602 0.012853311 -0.5397834 -0.22677805
-0.3900699 0.109347075 -0.13995022 -0.60963047 0.3993652 -0.51317936 -0.0865745 0.3108561
-0.44474396 0.40948677 0.4378584 0.14718348 -0.5761352 -0.3087561 -0.1082966 0.004659944
0.7053301 -0.14373967 0.20655909 0.06027778 -0.21147163 0.33819577 0.5422771 0.33418012
-0.1707376 0.596413 0.41600004 -0.44013238 0.19834581 0.39584425 -0.32755703 -0.15326448
0.3282245 0.040608507 0.58570653 0.02229462 0.13282056 0.10503812 0.53985524 -0.2416575
0.279826 0.1336785 0.12182125 -0.040155157 0.31508034 -0.5502175 -0.039816912 -0.27988085
0.12514341 0.14591217 -0.49661186 0.14839962 0.4789167 -0.32376772 -0.53466666 -0.3141881
0.29339933 1.0115362 0.47591826 0.23585051 -0.10700439 -0.069038376 -0.34935528 0.32520702
0.0051860358 0.6095958 -0.18092604 -0.11958884 0.5468682 0.0794728 -0.26200387 -0.16035914
-0.009534914 -0.04864237 -0.5722947 0.7289391 -0.82329285 -0.05479418 -0.16416055 -0.055478495
0.19905423 -0.26783234 -0.389094 -0.08837055 0.08116165 0.11537973 -0.3457937 -0.17982446
-0.6019484 0.6322673 0.047115773 0.0073615205 -0.17917699 0.3579385 -0.9428377 -0.13320643
0.0035638607 -0.018524373 -0.78086084 0.70723116 0.22532442 -0.20931235 0.10554267 -0.21928552
-0.19980107 1.1908443 -0.3948474 -0.40654683 -0.011275057 0.24322443 -0.35843 0.2916121
-0.3470609 0.59310377 -0.012881113 -0.07367837 0.5571386 0.66456753 -0.040390063 -0.24843703
00000000: fd7e 0fbf 5c09 943e cd77 b03d 6674 51bf
00000010: cef1 dd3d 4c6c b03d 6e0f f93e bd9d d93c
00000020: afd7 f23e df08 3cbe 804c 1fbe cf6f 8fbd
00000030: 3cee e9be 3360 94bf 0680 8e3e 930f 403f
00000040: 2cc4 7a3e f83c 1abc 5c14 c73e 5115 3e3f
00000050: 422b 253f 25fa 1bbf c998 abbd b858 053d
00000060: a374 043f e8dd 2f3f 634d 0f3f c201 5abe
00000070: 1cc7 89be 2380 65bc 3ddf 1d3e 295e 2c3f
00000080: e709 f23e 04b3 c33c eee4 c63c 620f b93d
00000090: 5529 223f f437 4a3e 5ece 0a3e f837 a5be
000000a0: 1ea9 5ebe ef11 2abd 9683 1d3f f39c 4f3f
000000b0: 1a86 cabe a81e ebbe 877f 743d 3eb9 debd
000000c0: 7062 183c 2e55 063f 3984 093f 7949 2cbf
000000d0: f24f 313e 0c43 423e cf72 29be b63f 6dbe
000000e0: bf6e 54be 6122 3f3f a35c 733e ac46 bf3d
000000f0: 239c 633e 5f75 d83e 608c 263e cdb0 b8be
00000100: 0495 3b3f 74b8 3b3e 481b e43e 9c0c 07bf
00000110: 1416 203c f778 033e 6112 b93b 82a3 30bd
00000120: c47f 12bf c52a 56bf 06eb c4be 9a70 f83e
00000130: e826 a33d 079e d9bd 87d5 4b3e 27e3 c63e
00000140: c84f 113e 07c5 8dbf c630 b23d 47cd af3d
00000150: 60f5 0f3f a63d a2bf 4ed7 d93e 26d8 f53e
00000160: fb5b 9f3e 4b2c fe3d 86a9 ecbe 9b39 8abf
00000170: 6fee c33e af8b 0b3f 68a1 c13e f42c df3d
00000180: 243f a63e 1edd f53e 97c7 f13d 3589 053f
00000190: a010 a03c ca77 9abc b982 393d 074a dfbe
000001a0: 9f8d c53e a0f4 4a3f ef08 fabc 9c86 e3be
000001b0: 787d 06be d9e4 0e3d 59c0 bd3e 6e39 13be
000001c0: dd0f 443d fd19 b0bc 5de4 aebf 508b 6dbe
000001d0: 4bb3 303e 012c 20bd cb0c 1c3c 6e04 60be
000001e0: 6261 e8be f751 f9be d0f9 603e 7176 363f
000001f0: 728b 0b3f c1bb 19be b149 95be d91d f43e
00000200: 27a5 653e da12 073f bf8d ddbb dd5c dabb
00000210: d921 17bf b296 523c 3f2f 0abf 8138 68be
00000220: 3eb7 c7be 5cf1 df3d 1c4f 0fbe be10 1cbf
00000230: 9879 cc3e b95f 03bf f94d b1bd 8828 9f3e
00000240: 7bb5 e3be 40a8 d13e fa2e e03e 44b7 163e
00000250: 997d 13bf 4815 9ebe 9cca ddbd 72b2 983b
00000260: 8390 343f 7e30 13be 3a84 533e d5e5 763d
00000270: 058c 58be ff27 ad3e acd2 0a3f a819 ab3e
00000280: d6d5 2ebe 86ae 183f f5fd d43e 0859 e1be
00000290: 2a1b 4b3e 19ac ca3e 8eb5 a7be 5df1 1cbe
000002a0: 0b0d a83e 1b55 263d ddf0 153f 35a3 b63c
000002b0: 1d02 083e 3a1e d73d f433 0a3f 1075 77be
000002c0: 5a45 8f3e 04e3 083e 6b7d f93d bc79 24bd
000002d0: 3652 a13e 0edb 0cbf 0f17 23bd 8b4c 8fbe
000002e0: 9825 003e 006a 153e e943 febe 12f6 173e
000002f0: 9234 f53e e2c4 a5be eadf 08bf 43dd a0be
00000300: 7038 963e 057a 813f 8fab f33e cc82 713e
00000310: 1e25 dbbd fe63 8dbd b2de b2be 8981 a63e
00000320: 9fef a93b 780e 1c3f ad44 39be feea f4bd
00000330: 8eff 0b3f a3c2 a23d 5f25 86be 3035 24be
00000340: 5438 1cbc 393d 47bd e881 12bf c19b 3a3f
00000350: 52c3 52bf dd6f 60bd b419 28be 6b3d 63bd
00000360: dfd4 4b3e 5221 89be 5437 c7be 9efb b4bd
00000370: 1438 a63d 354c ec3d df0b b1be e723 38be
00000380: 4a19 1abf 45dc 213f 78fc 403d e938 f13b
00000390: 2c7a 37be b743 b73e d05d 71bf 4467 08be
000003a0: a98f 693b 6dc0 97bc 7fe6 47bf 1a0d 353f
000003b0: 72bb 663e fa55 56be c126 d83d 628c 60be
000003c0: a798 4cbe 966d 983f 7029 cabe e826 d0be
000003d0: 04bb 38bc d30f 793e 2384 b7be 2e4e 953e
000003e0: f7b1 b1be a6d5 173f 4e0b 53bc afe4 96bd
000003f0: a3a0 0e3f 1921 2a3f 0d70 25bd 4766 7ebe

bias f4 [64]
0.5318714 0.7063104 0.046532128 0.41501057 0.60770184 0.60710675 0.67128134 0.6232281
0.5228586 -0.16007207 -0.29402643 0.65792286 0.39146158 0.15119576 0.37549633 0.40501568
0.4720049 0.53171647 0.8817431 0.08074457 -0.4042562 0.5254072 -1.1627647 -1.0911226
-0.17298695 0.75990725 -0.33178335 0.71520686 0.56045663 0.7194621 0.8946782 -0.68875414
0.028823253 0.28379965 0.681191 -0.08274701 0.5865484 0.20606196 0.5801177 -0.14200765
-0.19886382 0.49508923 0.5063621 0.4966582 -0.71543306 0.029417092 0.029588114 -0.81597143
0.6072619 0.5714771 0.70146596 0.6667039 0.71982044 0.746606 0.20185652 0.62742764
0.5546664 0.40556628 0.5063969 -0.58576846 0.5332731 0.15862097 -0.078645796 -0.8644201
00000000: b928 083f c2d0 343f 7998 3e3d 447c d43e
00000010: 5992 1b3f 596b 1b3f 18d9 2b3f e08b 1f3f
00000020: 10da 053f efe9 23be a28a 96be a26d 283f
00000030: a76d c83e 10d3 1a3e 0e41 c03e 375e cf3e
00000040: a0aa f13e 921e 083f eab9 613f 695d a53d
00000050: abfa cebe 1681 063f 79d5 94bf e8a9 8bbf
00000060: 7e23 31be 4889 423f 82df a9be cc17 373f
00000070: 167a 0f3f ab2e 383f a109 653f 3152 30bf
00000080: be1e ec3c 304e 913e 8962 2e3f 4477 a9bd
00000090: 0928 163f e801 533e 9882 143f 746a 11be
000000a0: f5a2 4bbe 567c fd3e f2a0 013f fc49 fe3e
000000b0: 9f26 37bf 1dfc f03c c662 f23c 81e3 50bf
000000c0: 8475 1b3f 534c 123f 4693 333f 1bad 2a3f
000000d0: 2746 383f 9221 3f3f 7ab3 4e3e 199f 203f
000000e0: 9efe 0d3f 62a6 cf3e 3aa3 013f ecf4 15bf
000000f0: 9684 083f 896d 223e 0c11 a1bd a34a 5dbf

weight f4 [64, 64]
0.027150547 0.0119633535 -0.10988705 0.04142639 0.05725966 -0.14123091 -0.06950055 -0.18462877
-0.17946514 0.0064401855 -0.04134922 -0.08750547 -0.079285055 0.04165188 -0.117883086 -0.13259265
-0.11000018 0.0319353 0.03636543 0.010738212 -0.06897079 -0.06762964 0.008615122 -0.07965791
-0.054991435 -0.05499387 0.03967632 -0.14317556 -0.11259036 -0.07402005 -0.06617737 -0.13905999
0.020477597 -0.021852061 -0.10117348 -0.0839396 -0.01659578 0.008338804 0.07351365 0.060763754
-0.068572335 -0.13777679 -0.07948157 -0.09841712 0.0809793 -0.05715032 0.13514568 -0.10028255
-0.0766348 0.0050270366 0.09058695 -0.09510492 -0.11135732 -0.15456606 0.107225016 -0.06783911
-0.013199157 0.08242197 0.027756616 0.0046898997 0.049880493 -0.056235712 -0.023113081 0.085784696
0.19550897 0.3762875 0.35363927 0.27097896 0.17586452 0.1701003 0.33459678 0.23517537
0.29479682 0.13410728 -0.42039442 0.20287418 0.24287285 0.27572793 0.25065106 0.17856082
0.15429497 0.10616024 0.19963467 0.1430574 -0.24418145 0.2579347 -0.85493 -0.26359785
-0.5529481 0.24774067 -0.3703647 0.15528595 0.26742634 0.18991886 0.15177909 -0.5913372
0.06660168 0.21257378 0.11342945 0.35318178 0.20866144 0.19941776 0.18976788 -0.012272983
-0.32897356 0.08520638 0.1616052 0.23161814 -0.19714394 0.2540405 0.19541393 -0.11775484
0.034315884 0.16677982 0.2575962 0.3635393 0.16560268 0.22407445 -0.08888329 0.31608117
0.21539007 0.017277392 -0.29065397 -0.3211738 0.15151463 0.37140623 0.14643201 -0.26113135
-0.008855367 -0.06824953 0.09163945 -0.0012966857 -0.15824501 0.054037448 -0.13700257 -0.07608343
-0.007855746 -0.014813086 -0.11038358 -0.08632829 0.023560423 -0.11402852 -0.036212873 -0.124588676
0.065278955 -0.13485119 0.0017042052 0.0650681 0.13728443 0.07458055 0.019147972 -0.10355149
0.05831912 0.029283669 -0.0069872276 -0.13179809 -0.17092033 0.03436549 -0.059106845 -0.13132706
-0.0050530457 -0.03686689 -0.06063626 0.023461925 -0.14962788 -0.043074958 -0.035415888 0.13326742
0.064501286 0.034801736 -0.006002348 -0.0674107 0.08516957 -0.09956904 -0.08470714 0.11775903
0.005187711 0.057312954 -0.15454261 -0.03656747 0.016675916 0.011866985 -0.056391537 -0.03155997
-0.009089883 -0.10321882 -0.084931634 0.036490876 -0.18616162 -0.186426 -0.10404984 0.074139915
0.20049953 0.26452482 0.19775471 0.30571833 0.16793789 0.1551822 0.21340568 0.3923762
0.31119734 0.081660695 -0.37982422 0.29071793 0.3204336 0.16245888 0.1370271 0.06817798
0.028163152 0.10787086 0.41453964 0.058792796 -0.16529286 0.15797569 -0.8506854 -0.16254005
-0.35423872 0.21855249 -0.37444612 0.1551179 0.2811236 0.37859768 0.31042588 -0.421489
0.22506252 0.13481797 0.2512887 0.38302487 0.20284975 0.09551145 0.3133745 -0.0773632
-0.36404356 0.19375989 0.04318581 0.049779184 -0.26302588 0.24723512 0.27634466 -0.13074106
-0.27477404 0.19130556 0.110914126 0.35888666 0.26042262 0.20036203 -0.15887633 0.29293638
0.116316915 0.04849762 -0.040152572 -0.2826376 0.110470496 0.31174758 0.015634496 -0.23151383
00000000: d36a de3c f101 443c 760c e1bd b8ae 293d
00000010: 1b89 6a3d d69e 10be 4e56 8ebd 530f 3dbe
00000020: b6c5 37be 3108 d33b cd5d 29bd 1136 b3bd
00000030: 3460 a2bd 299b 2a3d b06c f1bd 5ec6 07be
00000040: c647 e1bd 97ce 023d ebf3 143d 53ef 2f3c
00000050: 8f40 8dbd 6981 8abd 7126 0d3c b023 a3bd
00000060: b33e 61bd 4141 61bd a383 223d 9d9c 12be
00000070: c695 e6bd d397 97bd 0088 87bd be65 0ebe
00000080: a2c0 a73c 1803 b3bc 0b34 cfbd 86e8 abbd
00000090: e0f3 87bc 7b9f 083c 538e 963d 6ae3 783d
000000a0: a76f 8cbd 5c15 0dbe 3cc7 a2bd ea8e c9bd
000000b0: 7ad8 a53d 7416 6abd a163 0a3e f060 cdbd
000000c0: b5f2 9cbd d7b9 a43b a785 b93d 5ec6 c2bd
000000d0: 4e0f e4bd 9146 1ebe ca98 db3d 3bef 8abd
000000e0: 4741 58bc dacc a83d d861 e33c bbad 993b
000000f0: 7d4f 4c3d 6b57 66bd a557 bdbc e3af af3d
00000100: 8133 483e c1a8 c03e 3510 b53e c1bd 8a3e
00000110: d415 343e c62e 2e3e 4550 ab3e d0d1 703e
00000120: 9cef 963e 6b53 093e f03d d7be 40be 4f3e
00000130: a9b3 783e 362c 8d3e 5655 803e a6d8 363e
00000140: 80ff 1d3e 8a6a d93d 086d 4c3e a47d 123e
00000150: b40a 7abe 0410 843e b1dc 5abf 4cf6 86be
00000160: 028e 0dbf bbaf 7d3e 71a0 bdbe 4803 1f3e
00000170: 1bec 883e 177a 423e fa6b 1b3e e061 17bf
00000180: 7666 883d f1ac 593e b34d e83d 3ed4 b43e
00000190: 58ab 553e 2b34 4c3e 8352 423e 9f14 49bc
000001a0: 396f a8be af80 ae3d d57b 253e 4e2d 6d3e
000001b0: 1ae0 49be 9911 823e 971a 483e 7329 f1bd
000001c0: d08e 0c3d 54c8 2a3e a6e3 833e d321 ba3e
000001d0: c093 293e c673 653e 7108 b6bd 64d5 a13e
000001e0: 378f 5c3e 5189 8d3c 99d0 94be e470 a4be
000001f0: a726 1b3e f528 be3e 46f2 153e 02b3 85be
00000200: 1a16 11bc 69c6 8bbd 77ad bb3d 8df5 a9ba
00000210: fb0a 22be 5f56 5d3d 674a 0cbe a1d1 9bbd
00000220: 63b5 00bc 96b2 72bc c910 e2bd e3cc b0bd
00000230: ca01 c13c c987 e9bd f353 14bd 5928 ffbd
00000240: f9b0 853d 6e16 0abe a35f df3a 6d42 853d
00000250: 4a94 0c3e b0bd 983d 35dc 9c3c ce12 d4bd
00000260: 08e0 6e3d 4ee4 ef3c 1df5 e4bb 14f6 06be
00000270: bd05 2fbe d4c2 0c3d 051a 72bd 9a7a 06be
00000280: 0594 a5bb bc01 17bd ba5d 78bd 3933 c03c
00000290: 0d38 19be 5e6f 30bd 4010 11bd 4177 083e
000002a0: 4019 843d 448c 0e3d 58af c4bb 9f0e 8abd
000002b0: 626d ae3d daea cbbd f07a adbd a52b f13d
000002c0: adfd a93b fdc0 6a3d 6b40 1ebe c5c7 15bd
000002d0: ee9b 883c be6d 423c d0fa 66bd 0745 01bd
000002e0: bced 14bc 6464 d3bd a3f0 adbd 7577 153d
000002f0: 27a1 3ebe 75e6 3ebe 1518 d5bd abd6 973d
00000300: c04f 4d3e cc6f 873e 3680 4a3e 1d87 9c3e
00000310: e9f7 2b3e 15e8 1e3e 0587 5a3e 89e5 c83e
00000320: 4255 9f3e b93d a73d 5278 c2be fbd8 943e
00000330: df0f a43e 9f5b 263e d550 0c3e e6a0 8b3d
00000340: 69b6 e63c 66eb dc3d 8a3e d43e b7d0 703d
00000350: 8842 29be 61c4 213e 85c6 59bf e670 26be
00000360: c75e b5be 39cc 5f3e 67b7 bfbe 3ad7 1e3e
00000370: 6fef 8f3e 8ed7 c13e 24f0 9e3e 68cd d7be
00000380: ca76 663e b90d 0a3e eaa8 803e d61b c43e
00000390: d8b7 4f3e 829b c33d 9f72 a03e 9970 9ebd
000003a0: eb63 babe fe68 463e 9be3 303d 42e5 4b3d
000003b0: 54ab 86be 342b 7d3e 0c7d 8d3e fce0 05be
000003c0: 2faf 8cbe 9be5 433e f226 e33d febf b73e
000003d0: 1d56 853e b42b 4d3e 7ab0 22be c2fb 953e
000003e0: 9037 ee3d 71a5 463d 0677 24bd e0b5 90be
000003f0: 5b3e e23d 619d 9f3e ea13 803c f611 6dbe

bias f4 [64]
-0.0153903365 0.5501861 -0.17772938 0.3501452 0.4100399 0.4382773 0.37445986 0.065389484
-0.06313614 0.44541463 0.37266356 0.5023099 0.3914259 -0.048823003 0.37979808 -0.352105
-0.1480499 0.20659932 -0.18551776 -0.19357942 -0.16456574 -0.050031036 -0.14243715 0.5075869
0.44435102 0.35846782 0.1104672 0.42644906 -0.04858722 -0.055577733 -0.2639104 0.45874384
0.48989218 -0.008135404 -0.048052534 0.5449463 0.15322873 0.0776088 0.50176084 0.44979936
-0.18642208 -0.21147224 0.51729375 0.08114473 -0.44188854 0.0934151 0.44762316 0.3458923
-0.05164766 0.024812665 -0.11281823 0.5206925 0.08612902 0.008537749 0.41557544 -0.015976202
-0.22729006 0.3224892 0.03641366 0.3866753 0.37033662 0.431652 0.41268033 -0.015679412
00000000: c027 7cbc ffd8 0c3f b1fe 35be 3b46 b33e
00000010: c0f0 d13e e265 e03e 34b9 bf3e ecea 853d
00000020: 854d 81bd 630d e43e c2cd be3e 6297 003f
00000030: fa68 c83e a1fa 47bd e574 c23e 1b47 b4be
00000040: 659a 17be c68e 533e 5ef8 3dbe af39 46be
00000050: ec83 28be 58ed 4cbd 0bdb 11be 37f1 013f
00000060: fa81 e33e 1889 b73e a13c e23d 8857 da3e
00000070: 6503 47bd 7aa5 63bd 441f 87be 79e0 ea3e
00000080: 26d3 fa3e 5c4a 05bc bcd2 44bd 9a81 0b3f
00000090: fee7 1c3e 5df1 9e3d 6673 003f 1a4c e63e
000000a0: 6ee5 3ebe 2e8c 58be 5d6d 043f 352f a63d
000000b0: 373f e2be 6a50 bf3d dd2e e53e cc18 b13e
000000c0: 7f8c 53bd ee43 cb3c 3f0d e7bd 1b4c 053f
000000d0: 6964 b03d eae1 0b3c 4ec6 d43e 86e0 82bc
000000e0: babe 68be 4e1d a53e 7d26 153d 4efa c53e
000000f0: c39c bd3e 7e01 dd3e d64a d33e 1c72 80bc

weight f4 [3, 64]
-0.16751948 -0.24238579 0.04464896 -0.19029652 -0.40793237 -0.12663168 -0.3005059 -0.66983855
-0.07287041 -0.35804945 -0.15686974 -0.29828373 -0.4118209 -0.08179781 -0.2807882 1.4682071
0.010391648 -0.71080893 0.88957804 1.3053398 -0.012227105 -0.07239539 0.09178196 -0.29519013
-0.3309223 -0.341328 -0.27723438 -0.272985 0.017681729 -0.6378002 0.74922246 -0.32104942
-0.1656392 -0.8324617 -0.060898945 -0.2759018 -0.41701406 -0.0019065711 -0.17290552 -0.21952242
1.1382394 0.21553269 -0.16133621 0.04667999 1.2634789 0.0597736 -0.23134527 -0.26200154
-0.04397991 0.050357066 0.031130055 -0.30348974 -0.9863964 0.03491319 -0.11895621 0.08798911
0.57349724 -0.3427114 -1.3178185 -0.37856004 -0.20533489 -0.3300226 -0.32772177 0.084881455
0.075559475 -0.24540332 0.007440793 -0.31564125 -0.33351693 -0.33310494 -0.30886877 -0.75960046
0.036678974 -0.3283136 -0.27235952 -0.2414268 -0.27529266 0.0992407 -0.28012612 1.0487193
0.026087796 -0.64071006 0.81388015 1.2096505 0.072298706 0.044528157 -0.000301525 -0.34188315
-0.3011784 -0.32480234 -0.16009456 -0.17484735 0.07204714 -0.71836734 1.0129477 -0.26217896
-0.23905022 -1.0719727 0.09265482 -0.26771405 -0.44359553 0.09761821 -0.2299031 -0.31945753
1.145354 0.26052952 -0.3531343 -0.027515277 0.7990333 0.04350682 -0.31767026 -0.3068977
0.061562933 0.061539665 -0.036115944 -0.19518457 -0.37822628 -0.02530741 -0.22540528 0.10383025
0.8042119 -0.19817816 -1.0376092 -0.30818796 -0.22213262 -0.25247517 -0.13470103 -0.048322085
0.041197523 -0.2304498 0.07590247 -0.26075488 -0.2556547 -0.2884 -0.21066718 -0.7682115
0.090233475 -0.29059023 -0.25103584 -0.31313974 -0.16089883 -0.049087808 -0.20512663 0.8603864
0.04984509 -0.35687143 0.7587181 1.3811272 -0.0031742037 0.05067967 0.05271381 -0.21174788
-0.22233212 -0.21087627 -0.96177757 -0.32155398 -0.078065544 -1.1356694 1.7462723 -0.30800942
-0.34180334 -1.1168667 0.087578356 -0.24548401 -0.9630882 -0.06321859 -0.43230566 -0.35133162
0.9251381 0.2297504 -0.3594364 -0.0038149292 0.84050363 -0.054476198 -0.25709754 -0.27209347
0.010526072 0.088604406 -0.08897118 -0.2861576 0.3344759 0.02167612 -0.33542418 0.11331919
0.86212695 -0.24804991 -0.8885628 -0.20879582 -0.27364433 -0.20179184 -0.3139054 -0.09027683
00000000: 3a8a 2bbe fb33 78be d4e1 363d 17dd 42be
00000010: 83dc d0be bcab 01be e9db 99be 8a7a 2bbf
00000020: 153d 95bd 4252 b7be 76a2 20be a5b8 98be
00000030: 30da d2be 9c85 a7bd 79c3 8fbe 36ee bb3f
00000040: bb41 2a3c 93f7 35bf 63bb 633f 6015 a73f
00000050: 3254 48bc 0944 94bd 2ef8 bb3d 2923 97be
00000060: a66e a9be 8bc2 aebe aaf1 8dbe b1c4 8bbe
00000070: 46d9 903c e046 23bf 0bcd 3f3f 9760 a4be
00000080: 539d 29be 361c 55bf 2c71 79bd 0043 8dbe
00000090: de82 d5be e9e5 f9ba 250e 31be 7cca 60be
000000a0: d4b1 913f 9ab4 5c3e 5235 25be 8433 3f3d
000000b0: adb9 a13f 2ad5 743d c6e5 6cbe 1125 86be
000000c0: 4724 34bd 3643 4e3d 7504 ff3c 0263 9bbe
000000d0: 7984 7cbf 2201 0f3d 509f f3bd a233 b43d
000000e0: b7d0 123f de77 afbe 47ae a8bf 9fd2 c1be
000000f0: 4f43 52be b9f8 a8be 26cb a7be 54d6 ad3d
00000100: edbe 9a3d 024b 7bbe e5d1 f33b bb9b a1be
00000110: bbc2 aabe bb8c aabe 0c24 9ebe 2d75 42bf
00000120: b13c 163d b818 a8be b572 8bbe 9638 77be
00000130: 29f3 8cbe b53e cb3d b16c 8fbe 6f3c 863f
00000140: 13b6 d53c 9305 24bf 735a 503f d4d5 9a3f
00000150: 5811 943d 2863 363d 0016 9eb9 4f0b afbe
00000160: 0e34 9abe 7e4c a6be d4ef 23be 2f0b 33be
00000170: 738d 933d ece6 37bf 45a8 813f 523c 86be
00000180: 95c9 74be 6736 89bf cfc1 bd3d d111 89be
00000190: f41e e3be 0eec c73d b86b 6bbe f08f a3be
000001a0: f69a 923f 2064 853e 05ce b4be b867 e1bc
000001b0: 728d 4c3f 3534 323d ada5 a2be b221 9dbe
000001c0: 6a29 7c3d 0411 7c3d 50ee 13bd 77de 47be
000001d0: e0a6 c1be 7c51 cfbc a4d0 66be f4a4 d43d
000001e0: d5e0 4d3f 37ef 4abe 61d0 84bf d0ca 9dbe
000001f0: bc76 63be 6d44 81be 11ef 09be 61ed 45bd
00000200: bcbe 283d 08fb 6bbe c172 9b3d aa81 85be
00000210: 2ce5 82be 2aa9 93be 23b9 57be 82a9 44bf
00000220: 54cc b83d 3ec8 94be c587 80be da53 a0be
00000230: aac2 24be 4c10 49bd b70c 52be 4842 5c3f
00000240: 5d2a 4c3d dab7 b6be 593b 423f c7c8 b03f
00000250: 4d06 50bb 7c95 4f3d 70ea 573d 70d4 58be
00000260: 08ab 63be f3ef 57be 0e37 76bf b9a2 a4be
00000270: d4e0 9fbd 9d5d 91bf da85 df3f 69b3 9dbe
00000280: d900 afbe 7df5 8ebf 485c b33d 2960 7bbe
00000290: f38c 76bf c078 81bd 2b57 ddbe bde1 b3be
000002a0: dad5 6c3f b043 6b3e 0c08 b8be e403 7abb
000002b0: 3f2b 573f 6f22 5fbd 4aa2 83be d64f 8bbe
000002c0: 8c75 2c3c 3a76 b53d 8636 b6bd 4083 92be
000002d0: 6d40 ab3e 1e92 b13c b8bc abbe e413 e83d
000002e0: 5ab4 5c3f cc00 7ebe da78 63bf 92ce 55be
000002f0: 1c1b 8cbe 85a2 4ebe 35b8 a0be 0fe3 b8bd

bias f4 [3]
-0.41225806 -0.4045565 -0.33584917
00000000: 7d13 d3be 0822 cfbe 6cf4 abbe
