save/model/acrobot_dqn_noisy_hid_128_128.pth (torch_old, 211287 bytes, 18 tensors)

weight f4 [128, 6]
-0.35162655 0.035380088 0.45100364 0.1544509 0.4655828 0.035022873 -0.09771939 -0.57010156
-0.04514305 -0.65511864 -0.105782464 -0.17228177 0.5487899 0.11636735 0.14928474 0.09936704
-0.014503326 0.024129445 -0.35076046 -0.6323614 -0.51160294 -0.31594202 0.031698473 0.02034764
-0.7646025 0.10467436 -0.054092027 -0.32331422 0.38078013 0.1205009 0.070198685 0.3478094
-0.006022705 0.1842376 -0.034464963 -0.07948439 -0.21659096 -0.019265264 0.04749054 0.5391254
-0.04424873 -0.09359713 0.020378228 0.12743866 -0.940231 -0.022831881 0.014194103 0.01598913
-0.32657984 -0.58482313 -0.15306084 0.50076824 -0.011346847 -0.118034706 -0.048776466 -0.039835192
-0.3841564 -0.63338846 0.073224045 -0.08522088 0.52169985 -0.12528536 0.28500783 -0.24688452
0.19687499 0.0788598 0.13989058 -0.46340042 -0.7664716 0.19902028 -0.16392884 0.06578141
0.14289422 0.48044533 0.5217245 -0.33176026 -0.030827466 0.03813723 -0.29151148 0.0025657825
-0.7565559 0.0023675235 -0.086974695 -0.06593895 0.13061792 0.13451402 0.072157234 0.17453058
-0.69133246 -0.15632725 -0.4428514 0.58062685 0.19248159 -0.33883533 -0.13851826 -0.15988001
-0.3188435 0.61358356 0.41792566 0.39286163 -0.43385488 -0.24696474 -1.1321384 0.6132672
0.51798946 0.5116147 -0.35067517 -0.002301174 -0.32038447 -0.64569616 -0.40408814 -0.40099603
-0.062170085 -0.13034075 0.23975849 -0.21017493 0.46238524 -0.41951424 0.012653421 0.016961683
-0.6553681 -0.4476437 0.04606256 -0.10281712 -0.15509695 0.054228082 -0.7714321 -0.81430113
0.6722645 -0.48576072 0.03793196 0.018661316 0.5157771 -0.38525882 0.13796982 0.13128428
-0.16045728 -0.17497027 -0.115968056 0.5171155 -0.75079995 -0.37764543 0.049865685 -0.07417552
0.43573174 0.63806415 0.43702316 -0.50491756 0.09045817 0.19221963 0.011116827 -0.01729339
0.12439997 -0.09784126 0.31631848 -0.18243702 -0.25883704 -0.092663534 0.36180985 0.24268322
-0.6175076 -0.40826997 0.57598144 0.11905264 0.13034701 0.13327695 -0.12952721 -0.06528463
0.5329377 0.05176002 0.100157686 -0.098438464 0.015320367 0.00031852254 0.029988257 -0.08008414
-0.6459219 0.3224981 -0.20229647 -0.26285222 0.023603637 -0.29302657 0.03237299 -0.45488593
-0.0632311 0.13188264 0.38774818 0.35672447 0.030412849 0.15189938 -0.14406118 0.018968621
0.46949172 -0.0052813645 -0.45440546 0.0059809973 0.011708468 0.06589759 -0.7365733 0.4266894
0.30031157 0.25580373 0.18170922 -0.07253207 -0.03010866 0.17336674 0.5638634 -0.010190816
0.2974362 0.28793916 0.11482035 0.4806125 0.10639696 -0.66126835 0.13503315 0.23572554
-0.27056757 -0.36372554 0.6365149 -0.07191022 0.14771265 0.040420424 0.5500571 0.38084713
0.13936126 0.22391784 -0.23657508 -0.05360416 -0.43427455 0.5654758 0.3801046 -0.20984583
0.016689712 -0.114696376 0.34697175 -0.21935995 0.37459922 0.6763131 0.022066493 0.017310739
-0.22122703 -0.2705121 0.32230288 -0.19412927 0.68503237 0.11979959 0.14162812 -0.37891862
0.1371508 0.12553905 0.108776875 -0.022096341 0.25201976 0.2514965 0.3911962 -0.07440869
00000000: 6508 b4be b6ea 103d f3e9 e63e 6028 1e3e
00000010: de60 ee3e 2574 0f3d 1b21 c8bd 2df2 11bf
00000020: ebe7 38bd dbb5 27bf 7aa4 d8bd a26a 30be
00000030: 7f7d 0c3f 0152 ee3d 19de 183e f280 cb3d
00000040: 5c9f 6dbc 1dab c53c e096 b3be 70e2 21bf
00000050: 69f8 02bf 27c3 a1be 42d6 013d 18b0 a63c
00000060: fdbc 43bf 835f d63d 9a8f 5dbd 7189 a5be
00000070: 9df5 c23e 2dc9 f63d 54c4 8f3d 1314 b23e
00000080: 1d5a c5bb c8a8 3c3e 222b 0dbd b6c8 a2bd
00000090: 05ca 5dbe 30d2 9dbc 7185 423d 1f04 0a3f
000000a0: 283e 35bd daaf bfbd 3ef0 a63c 487f 023e
000000b0: fbb2 70bf ed09 bbbc 628e 683c a3fb 823c
000000c0: 7935 a7be f8b6 15bf fbbb 1cbe 5932 003f
000000d0: 20e8 39bc 2ebc f1bd d5c9 47bd 3a2a 23bd
000000e0: 26b0 c4be bf25 22bf 7df6 953d 4988 aebd
000000f0: 1f8e 053f ce4a 00be 8cec 913e 4ccf 7cbe
00000100: 9999 493e 3f81 a13d 7a3f 0f3e d242 edbe
00000110: 7c37 44bf f9cb 4b3e f6dc 27be 67b8 863d
00000120: dd52 123e eefc f53e bd8f 053f 7bdc a9be
00000130: e289 fcbc c935 1c3d fe40 95be b026 283b
00000140: a6ad 41bf 7428 1b3b ca1f b2bd 000b 87bd
00000150: b4c0 053e 0bbe 093e 2cc7 933d 25b8 323e
00000160: 2afb 30bf 4014 20be 6bbd e2be f6a3 143f
00000170: e519 453e d37b adbe bbd7 0dbe 96b7 23be
00000180: 753f a3be d013 1d3f 5afa d53e 2925 c93e
00000190: 3a22 debe 53e4 7cbe e9e9 90bf 14ff 1c3f
000001a0: f59a 043f 2ef9 023f b28b b3be 4bcf 16bb
000001b0: 6f09 a4be 584c 25bf a4e4 cebe 5a4f cdbe
000001c0: 0fa6 7ebd 0c78 05be 4083 753e 1938 57be
000001d0: c2bd ec3e 92ca d6be 4b50 4f3c 3af3 8a3c
000001e0: 34c6 27bf 8e31 e5be 18ac 3c3d c891 d2bd
000001f0: bcd1 1ebe 441e 5e3d 937c 45bf 0a76 50bf
00000200: 8719 2c3f a1b5 f8be 8b5e 1b3d 9edf 983c
00000210: f809 043f a540 c5be f647 0d3e 636f 063e
00000220: ea4e 24be 682b 33be a980 edbd ae61 043f
00000230: 6d34 40bf be5a c1be f63f 4c3d 56e9 97bd
00000240: 3b18 df3e 2c58 233f 80c1 df3e 4742 01bf
00000250: 2242 b93d 39d5 443e 5a23 363c deaa 8dbc
00000260: 69c5 fe3d 0061 c8bd 7ff4 a13e c5d0 3abe
00000270: 4a86 84be 61c6 bdbd 243f b93e f381 783e
00000280: fa14 1ebf c308 d1be 8573 133f dfd1 f33d
00000290: b079 053e c179 083e c8a2 04be f3b3 85bd
000002a0: 9b6e 083f 5102 543d 791f cd3d 1b9a c9bd
000002b0: 4702 7b3c 5fff a639 efa9 f53c 2703 a4bd
000002c0: 235b 25bf 791e a53e ce26 4fbe 9194 86be
000002d0: 6a5c c13c 9407 96be 8a99 043d cfe6 e8be
000002e0: 4f7f 81bd 3e0c 073e ee86 c63e 97a4 b63e
000002f0: 5e24 f93c 838b 1b3e c684 13be 1564 9b3c
00000300: 3861 f03e 4c0f adbb d5a7 e8be 3efc c33b
00000310: e0d4 3f3c 51f5 863d 1190 3cbf 0877 da3e
00000320: 70c2 993e b5f8 823e fb11 3a3e b28b 94bd
00000330: 70a6 f6bc 0d87 313e 5a59 103f 61f7 26bc
00000340: 8f49 983e c36c 933e ef26 eb3d d712 f63e
00000350: a6e6 d93d e248 29bf 2146 0a3e 0962 713e
00000360: d587 8abe 3c3a babe a4f2 223f aa45 93bd
00000370: fc41 173e e38f 253d 8bd0 0c3f 65fe c23e
00000380: b8b4 0e3e b84a 653e bd40 72be 0990 5bbd
00000390: 3c59 debe 06c3 103f 129d c23e d3e1 56be
000003a0: ddb8 883c efe5 eabd 48a6 b13e e59f 60be
000003b0: 78cb bf3e db22 2d3f cac4 b43c 40cf 8d3c
000003c0: 5789 62be 9080 8abe e204 a53e d3c9 46be
000003d0: 485e 2f3f 7d59 f53d f606 113e 9f01 c2be
000003e0: 4271 0c3e 4f8d 003e 69c6 de3d 6303 b5bc
000003f0: bc08 813e 26c4 803e de4a c83e 9563 98bd

bias f4 [128]
-0.57511497 -0.18591344 0.31724048 -0.03454223 -0.5606344 -0.0052701714 0.4420112 -0.14624774
0.07001011 -0.0041547026 0.20064737 -0.23164253 0.3631497 -0.31152502 -0.2221311 -0.43436268
-0.35565192 -0.513988 0.19548781 -0.14843293 -0.5786014 -0.32821524 0.25247017 0.031964637
0.1013879 -0.43095803 -0.48670217 0.058043297 0.31225392 -0.84627986 -0.71817964 0.42245096
0.2671629 -0.65127385 -0.457997 0.19590959 0.29728562 0.2854155 -0.67797834 0.0031794277
-0.37902072 0.24674499 0.371961 -0.3653707 0.45699653 -0.41627747 0.007021155 0.23516086
-0.14037457 0.371288 -0.773014 -0.42560956 0.53337526 0.20658709 0.033664808 -0.010004162
-0.6820283 0.06232887 0.10410197 -0.0020182976 0.23480114 0.018353887 0.36166474 0.0875958
0.41165066 -0.19808334 0.020920936 0.3805062 -0.77150023 -0.5105343 -0.06835524 -0.7299904
0.15133661 -0.4820401 -0.49356833 0.34269845 -0.085316144 0.2181045 -0.5429889 -0.21548663
-0.895906 -0.052663248 0.13428654 0.26729932 -0.60145146 0.3650607 -0.3232838 -0.7224747
-0.99545175 -0.2316278 -0.5637662 0.38004252 -0.23444971 0.13376424 0.10131238 -0.540003
0.011933211 -0.5276176 -0.15352367 0.32507944 -0.47914368 -0.49470997 -0.26833415 0.23805743
0.04639392 0.018509863 -1.0077184 -0.13548705 -0.39762154 0.16827878 0.23811194 0.17681926
0.4774209 0.11897017 0.40498394 -0.026620133 -0.057413444 0.60716695 -0.34763888 -0.37020057
0.5115348 -0.013782433 0.60060906 0.19245538 0.055375572 -0.35654104 -0.65797174 0.28462073
00000000: bc3a 13bf 1860 3ebe 586d a23e 277c 0dbd
00000010: bc85 0fbf 67b1 acbb 4b4f e23e f8c1 15be
00000020: 7661 8f3d 2c24 88bb 8176 4d3e b333 6dbe
00000030: c2ee b93e 3580 9fbe 5676 63be c964 debe
00000040: 0218 b6be b894 03bf f52d 483e cdfe 17be
00000050: 391f 14bf d40b a8be c543 813e 5aed 023d
00000060: 76a4 cf3d 88a6 dcbe 0731 f9be cfbe 6d3d
00000070: bfdf 9f3e cca5 58bf 9fda 37bf 7e4b d83e
00000080: 93c9 883e e2b9 26bf 957e eabe 869c 483e
00000090: d235 983e fb21 923e fd8f 2dbf f25d 503b
000000a0: 010f c2be b8aa 7c3e ac71 be3e de11 bbbe
000000b0: 73fb e93e 5222 d5be b811 e63b 02ce 703e
000000c0: 5abe 0fbe 7619 be3e 3fe4 45bf 7fe9 d9be
000000d0: 488b 083f 918b 533e 1ce4 093d 7fe8 23bc
000000e0: 6899 2ebf 8f4c 7f3d 6a33 d53d 6a45 04bb
000000f0: b66f 703e e45a 963c 1f2c b93e 6d65 b33d
00000100: e0c3 d23e 5cd6 4abe 6262 ab3c b5d1 c23e
00000110: 0a81 45bf 60b2 02bf d5fd 8bbd a7e0 3abf
00000120: fcf7 1a3e f6cd f6be fdb4 fcbe 2c76 af3e
00000130: 3bba aebd c956 5f3e 5201 0bbf 87a8 5cbe
00000140: 185a 65bf 6bb5 57bd 6982 093e 75db 883e
00000150: b9f8 19bf 3ce9 ba3e 7485 a5be 1af4 38bf
00000160: edd5 7ebf d72f 6dbe fb52 10bf ef94 c23e
00000170: 9613 70be 7ef9 083e dd7c cf3d a33d 0abf
00000180: 8483 433c f211 07bf 4f35 1dbe d070 a63e
00000190: 5252 f5be a04a fdbe 1863 89be 54c5 733e
000001a0: 8d07 3e3d ffa1 973c ebfc 80bf 1ebd 0abe
000001b0: 0d95 cbbe 4651 2c3e 9ed3 733e 1c10 353e
000001c0: 8370 f43e a2a6 f33d 0e5a cf3e 7712 dabc
000001d0: 5c2a 6bbd 4b6f 1b3f b9fd b1be ee8a bdbe
000001e0: f2f3 023f b7cf 61bc 84c1 193f 0613 453e
000001f0: 7fd1 623d 8c8c b6be d670 28bf cfb9 913e

weight_mu f4 [128, 128]
-0.2728709 0.08713459 0.25500134 0.19474815 0.22069182 0.114930555 0.13341996 0.22101195
0.22751051 0.021971222 0.2632824 0.06650847 0.22277282 0.09080605 -0.40237314 0.16794604
-0.5035741 -0.036705557 0.11896868 0.22208792 0.48263243 -0.19494778 0.19759776 0.19465004
0.27316195 -0.3560814 -0.5110114 0.18414955 0.1731958 -0.2723124 -0.23978013 0.23170073
0.24985327 0.30935895 -0.08029228 0.26275253 0.17359658 0.30189902 0.23402625 0.30215812
-0.2827762 0.12505142 0.3400069 0.26015377 0.18497847 -0.10177957 -0.11006648 0.20475583
0.35861877 0.25261533 -0.2906579 -0.2526204 0.16174266 0.24880746 0.133912 0.11436636
0.011758029 0.06894865 0.2902388 0.16195165 0.17592919 0.14725357 0.15637967 0.2056033
0.2781595 0.20716046 0.03027747 0.35165635 -0.551011 0.19094989 0.14698076 -0.30524954
0.1317912 -0.4249505 -0.12558544 0.27390936 0.19801758 0.25371963 0.061368816 0.2694643
-0.2754372 0.3418317 0.17484847 0.31594765 -0.42593247 0.23862407 -0.20349993 0.39695358
-0.4573758 -0.08325404 -0.38113827 0.25678185 -0.046037566 0.21839279 0.15382637 0.0071135927
0.28699195 0.058406256 0.14251426 0.19360103 -0.52808523 -0.35365131 -0.101609424 0.35331833
0.21685363 0.11888016 -0.17920516 0.23490728 0.10311436 0.20132509 0.2657405 0.25026453
0.18479127 0.12622046 0.2937815 0.19615564 0.15103267 0.21506049 0.050012596 0.2835898
0.3001354 0.21246113 0.29539242 0.26759318 0.17660752 -0.23325388 -0.26803082 0.2683497
-0.022268124 0.018733677 -0.081938446 0.030122783 -0.042844538 -0.08822854 -0.12972336 -0.0438253
0.016337559 -0.10214106 -0.06063487 -0.07337982 -0.122343875 -0.050649334 0.030329155 -0.0029844013
0.008918496 -0.045159362 -0.083590455 0.049530763 0.008727068 -0.10580869 -0.03406669 0.015845697
0.02403076 -0.09670701 -0.006442744 -0.024893396 -0.026697326 -0.0321491 -0.04467713 -0.070839085
-0.08044648 -0.08197288 0.04406938 -0.00035120948 0.024079368 -0.07345707 -0.11130643 0.035740405
-0.0016362281 -0.01481792 -0.005706239 -0.14726886 -0.099876784 0.0046392633 0.019307148 -0.06713146
-0.13825499 -0.011088614 -0.08405663 -0.068683065 -0.0028233994 -0.0012820433 0.005248461 -0.0125947185
-0.077426545 -0.061176095 -0.019801712 -0.069374174 -0.03304737 -0.054357626 -0.030121384 -0.014318206
-0.04686635 -0.022892438 0.032062758 -0.09150106 -0.1313787 -0.09288739 -0.07789807 0.029201878
-0.10447089 -0.06294667 -0.03195879 0.022327717 -0.05345482 -0.056253243 -0.057294957 -0.061728694
-0.10443329 -0.05086277 -0.036785454 0.024690174 0.03167794 -0.06893352 -0.05947587 -0.0480944
0.007835155 -0.08983318 -0.02251379 0.007707332 -0.13773781 -0.114555046 -0.13240513 -0.04455765
0.01883171 0.010155409 -0.03382448 0.031220937 0.012405323 -0.061883263 -0.10437804 -0.12355814
-0.027130708 0.035329856 -0.10976782 0.019998813 -0.008475566 -0.039234165 -0.041305985 -0.0978346
-0.10244644 -0.035182115 -0.09224708 -0.10816207 -0.058065474 -0.06937113 -0.046520684 -0.07220308
-0.12591715 -0.08926597 -0.08986963 -0.053556364 -0.11262392 0.01039942 0.020617923 0.040388923
00000000: bcb5 8bbe 9f73 b23d 898f 823e 0f6c 473e
00000010: 09fd 613e b660 eb3d 3e9f 083e f550 623e
00000020: 84f8 683e fefc b33c f3cc 863e 9835 883d
00000030: 8f1e 643e 86f8 b93d da03 cebe 0cfa 2b3e
00000040: 3bea 00bf 9158 16bd daa5 f33d 046b 633e
00000050: 991b f73e 64a0 47be 1157 4a3e 5752 473e
00000060: e2db 8b3e 4d50 b6be a5d1 02bf b391 3c3e
00000070: 3d5a 313e 886c 8bbe ec88 75be f542 6d3e
00000080: 89d9 7f3e 4c64 9e3e 4770 a4bd 8087 863e
00000090: 4dc3 313e 8292 9a3e 94a4 6f3e 78b4 9a3e
000000a0: 0bc8 90be 7b0d 003e 6215 ae3e e032 853e
000000b0: ff6a 3d3e cf71 d0bd 896a e1bd 83ab 513e
000000c0: e19c b73e cc56 813e 1dd1 94be 7657 81be
000000d0: de9f 253e 62c7 7e3e 3a20 093e e938 ea3d
000000e0: c0a4 403c f334 8d3d 2e9a 943e a7d6 253e
000000f0: c826 343e a4c9 163e fe21 203e ac89 523e
00000100: ec6a 8e3e df21 543e 7508 f83c 4d0c b43e
00000110: 0f0f 0dbf 5e88 433e 2082 163e ab49 9cbe
00000120: 46f4 063e 1d93 d9be 7899 00be d93d 8c3e
00000130: 1fc5 4a3e 8ae7 813e de5d 7b3d 3af7 893e
00000140: 1b06 8dbe 9104 af3e 7a0b 333e e4c3 a13e
00000150: d213 dabe de59 743e 4962 50be 803d cb3e
00000160: 292d eabe 1881 aabd 8e24 c3be e978 833e
00000170: e391 3cbd 5ca2 5f3e a984 1d3e 2419 e93b
00000180: 9cf0 923e 663b 6f3d 42ef 113e 593f 463e
00000190: 9830 07bf c911 b5be 9a18 d0bd 24e6 b43e
000001a0: e10e 5e3e 7177 f33d 8f81 37be 898b 703e
000001b0: 9f2d d33d 2a28 4e3e 240f 883e ac22 803e
000001c0: ec39 3d3e f03f 013e 876a 963e 06dd 483e
000001d0: 4fa8 1a3e d138 5c3e 02da 4c3d af32 913e
000001e0: 59ab 993e 698f 593e ad3d 973e f901 893e
000001f0: 9ad8 343e 1bda 6ebe 563b 89be 2265 893e
00000200: a46b b6bc 5e77 993c 58cf a7bd 0ec4 f63c
00000210: c17d 2fbd 2ab1 b4bd 33d6 04be 2882 33bd
00000220: 58d6 853c 552f d1bd 455c 78bd 2948 96bd
00000230: 6d8f fabd ad75 4fbd d974 f83c f295 43bb
00000240: e21e 123c 06f9 38bd 7931 abbd c5e0 4a3d
00000250: fafb 0e3c 3ab2 d8bd 8389 0bbd d6ce 813c
00000260: 28dc c43c 530e c6bd a71d d3bb 3ced cbbc
00000270: 5ab4 dabc c6ae 03bd 5eff 36bd 1514 91bd
00000280: 20c1 a4bd 66e1 a7bd 1882 343d 8a22 b8b9
00000290: 1842 c53c a970 96bd a0f4 e3bd 8864 123d
000002a0: b476 d6ba dcc6 72bc 67fb babb a6cd 16be
000002b0: 338c ccbd f604 983b 062a 9e3c 387c 89bd
000002c0: b792 0dbe 05ad 35bc e225 acbd b5a9 8cbd
000002d0: c808 39bb 3c0a a8ba 48fb ab3b 145a 4ebc
000002e0: cf91 9ebd c993 7abd 3337 a2bc 0c14 8ebd
000002f0: ae5c 07bd 1aa6 5ebd 1fc1 f6bc e996 6abc
00000300: eef6 3fbd ec88 bbbc 3d54 033d e864 bbbd
00000310: 2388 06be be3b bebd 0689 9fbd c738 ef3c
00000320: d5f4 d5bd 2fea 80bd 38e7 02bd 9ee8 b63c
00000330: 71f3 5abd cd69 66bd 1eae 6abd 3ad7 7cbd
00000340: 1fe1 d5bd 7b55 50bd 58ac 16bd 0c43 ca3c
00000350: bac0 013d 042d 8dbd f89c 73bd a2fe 44bd
00000360: 065f 003c 75fa b7bd d76e b8bc c98d fc3b
00000370: 240b 0dbe d69b eabd 3695 07be 1582 36bd
00000380: f544 9a3c df62 263c 8a8b 0abd 0dc3 ff3c
00000390: b23f 4b3c 4e79 7dbd 27c4 d5bd 0d0c fdbd
000003a0: 3841 debc 0ab6 103d f3cd e0bd 8dd4 a33c
000003b0: 1add 0abc 01b4 20bd 7730 29bd 825d c8bd
000003c0: 70cf d1bd 1f1b 10bd 09ec bcbd 1384 ddbd
000003d0: 10d6 6dbd 7312 8ebd 798c 3ebd 35df 93bd
000003e0: 6df0 00be 14d1 b6bd 920d b8bd eb5d 5bbd
000003f0: 5fa7 e6bd 5462 2a3c ebe6 a83c db6e 253d

weight_sigma f4 [128, 128]
-0.00041664674 -0.004024094 -0.0394818 -0.04561712 -0.011753254 0.019748764 -0.014301219 -0.08582648
-0.06968724 -0.059978656 -0.022358991 0.068536356 -0.0066932705 -0.028884854 0.038842157 -0.0007284187
0.049249403 -0.043889627 0.06636293 0.014948036 0.08653375 0.047423493 -0.06825136 -0.017475195
0.044662096 0.010275648 -0.022928515 -0.06790971 -0.066242 -0.034644432 0.04359055 0.0022373716
-0.0467716 -0.1733835 0.0046963706 -0.016067514 0.047713466 -0.01559946 -0.01882962 0.06598593
-0.036376014 -0.038915087 -0.0352479 0.044576194 -0.028806385 -0.037142556 -0.0712287 0.030040042
-0.006967169 0.010636562 -0.018104825 -0.033159584 -0.043850027 0.04474433 0.035907403 -0.008935378
-0.0020129953 -0.0070541264 -0.009383272 0.02970936 0.032925773 0.08706917 -0.08797326 -0.012847228
-0.02936114 -0.0072196983 0.0059057097 0.044681624 -0.06391072 -0.019306257 -0.11768761 0.047535423
-0.028860282 -0.023607519 -0.020751907 0.031221345 -0.040524956 0.054041144 -0.11200772 -0.0319222
-0.038089253 -0.053691193 0.03875459 0.012882579 -0.07919721 0.048625764 -0.004468224 0.023565704
0.10430591 0.027155522 -0.022248631 -0.018986424 0.044118684 0.039533153 0.024337891 -0.091354586
0.017385356 -0.068910524 -0.067639574 -0.001980896 0.03544192 0.0049871625 0.07871342 -0.0018919166
-0.016364304 0.0016585367 0.12558104 -0.031027928 0.02547026 -0.031867545 0.026393289 -0.004038085
0.00096804864 0.011641132 -0.006235916 0.075932495 0.0007189686 -0.035973348 -0.10744863 0.015239995
-0.058409188 -0.026321849 -0.041733414 -0.044338126 -0.015845899 0.05048329 -0.037662048 -0.0031257456
0.044591684 0.0041087023 0.023554271 0.06343553 0.043621935 -0.033177588 0.07597584 0.025858931
0.05476666 0.048037417 0.032636184 0.013982416 0.060338967 0.07679013 0.007804742 0.03435675
0.06575208 0.0074165366 0.052131817 0.038197104 0.049510375 -0.008221235 0.061757278 0.052662812
0.0448355 0.055825345 0.01883974 0.061689753 0.03951579 0.089111894 0.029474564 0.025427833
0.039530642 0.01342271 -0.012070852 0.04156269 0.052970316 0.04901297 0.06422113 0.041340686
0.053147733 0.075577684 0.017943587 0.042500064 0.0068617943 0.07227863 0.041194823 0.035368975
0.04369671 0.07435645 -0.00028540718 0.003000731 0.037546776 0.022481367 0.026369303 0.027943907
0.04931867 0.011211384 0.012382671 -0.0063976166 0.032975346 0.03505828 0.015852567 0.025895283
-0.013067353 0.015848648 -0.012318275 0.029992377 0.014524207 -0.04738379 0.02920966 0.037676513
0.028968528 0.07482681 -0.009283066 0.017489618 0.05534084 0.053088747 -0.018286243 0.03572882
0.050756168 0.025314508 0.002417373 0.017391274 0.06740846 0.015016976 0.075475745 0.0708003
0.13743165 0.044594776 0.020992862 0.022219429 0.07012809 0.029298188 0.016771574 0.040780623
0.05735946 0.06492296 0.03419731 0.06304991 0.015082715 0.07634429 0.090317614 0.06775907
0.049480394 -0.010817217 0.052114937 0.038568784 0.0051201507 0.07247559 0.06563691 -0.005220215
0.01445576 0.0466736 0.032730855 0.05953893 0.003982805 0.0006328105 0.058811728 0.089818604
0.031232292 0.07844788 0.009924026 0.047495887 0.06942539 0.062832095 0.05217749 0.032132935
00000000: 6171 dab9 8cdc 83bb abb7 21bd 04d9 3abd
00000010: b890 40bc 29c8 a13c a94f 6abc cbc5 afbd
00000020: 2fb8 8ebd 2eac 75bd 342a b7bc ca5c 8c3d
00000030: 3953 dbbb ee9f ecbc f418 1f3d 5af3 3eba
00000040: beb9 493d 9cc5 33bd 4ae9 873d 9be8 743c
00000050: 9b38 b13d 233f 423d 5ec7 8bbd 2428 8fbc
00000060: 9aef 363d 315b 283c 95d4 bbbc 3f14 8bbd
00000070: e3a9 87bd 52e7 0dbd 018c 323d dea0 123b
00000080: 9493 3fbd 728b 31be 03e4 993b 05a0 83bc
00000090: 326f 433d e194 7fbc 9340 9abc a223 873d
000000a0: 04ff 14bd 6d65 1fbd 1a60 10bd 8795 363d
000000b0: 5efb ebbc cb22 18bd 5ae0 91bd 8916 f63c
000000c0: da4c e4bb f944 2e3c 9250 94bc 58d2 07bd
000000d0: 169c 33bd d545 373d a413 133d b165 12bc
000000e0: 75ec 03bb 4d26 e7bb 4cbc 19bc 0b61 f33c
000000f0: 2ddd 063d 5251 b23d 532b b4bd 2e7d 52bc
00000100: c686 f0bc 3893 ecbb af84 c13b 1404 373d
00000110: a0e3 82bd 2828 9ebc 3406 f1bd 81b4 423d
00000120: 666c ecbc 8e64 c1bc e7ff a9bc e8c3 ff3c
00000130: 7ffd 25bd 3f5a 5d3d 4e64 e5bd dac0 02bd
00000140: 7a03 1cbd 4ceb 5bbd 22bd 1e3d 7411 533c
00000150: 2632 a2bd cf2b 473d 2e6a 92bb dd0c c13c
00000160: 569e d53d 4275 de3c c342 b6bc 6b89 9bbc
00000170: cbb5 343d 84ed 213d 4260 c73c 1d18 bbbd
00000180: bc6b 8e3c f620 8dbd 9e86 8abd ecd1 01bb
00000190: 8c2b 113d 5a6b a33b 8034 a13d 30fa f7ba
000001a0: 6f0e 86bc 4263 d93a 5198 003e 482e febc
000001b0: 02a7 d03c 8b87 02bd bd36 d83c ea51 84bb
000001c0: a5c4 7d3a 72ba 3e3c a856 ccbb 7f82 9b3d
000001d0: 2a79 3c3a ca58 13bd 070e dcbd 2cb1 793c
000001e0: 793e 6fbd eba0 d7bc a8f0 2abd e59b 35bd
000001f0: 42cf 81bc 91c7 4e3d 8543 1abd 4fd9 4cbb
00000200: c5a5 363d 4ba2 863b e3f4 c03c 7dea 813d
00000210: eaac 323d 39e5 07bd 3999 9b3d 1cd6 d33c
00000220: 0153 603d e2c2 443d 85ad 053d 8116 653c
00000230: fe25 773d 2544 9d3d ecbe ff3b aab9 0c3d
00000240: 07a9 863d 6b06 f33b 2c88 553d 9174 1c3d
00000250: 64cb 4a3d 5cb2 06bc 33f5 7c3d f6b4 573d
00000260: 6ea5 373d 1ea9 643d cc55 9a3c 65ae 7c3d
00000270: 4fdb 213d 4c80 b63d a474 f13c 084e d03c
00000280: e2ea 213d edea 5b3c d3c4 45bc a43d 2a3d
00000290: 67f7 583d d3c1 483d 5e86 833d da54 293d
000002a0: 70b1 593d 79c8 9a3d 6efe 923c 8c14 2e3d
000002b0: e7d8 e03b d206 943d e7bb 283d 0fdf 103d
000002c0: 52fb 323d 3248 983d b4a2 95b9 eaa7 443b
000002d0: a6ca 193d d82a b83c 7004 d83c 9fea e43c
000002e0: 6002 4a3d f4af 373c b0e0 4a3c 19a3 d1bb
000002f0: 2811 073d 4599 0f3d 3edd 813c 5822 d43c
00000300: 7318 56bc 06d5 813c 97d2 49bc 93b2 f53c
00000310: f1f6 6d3c 8115 42bd 1949 ef3c b052 1a3d
00000320: 684f ed3c cc3e 993d 0018 18bc 6346 8f3c
00000330: 14ad 623d 9673 593d 08cd 95bc 6258 123d
00000340: b3e5 4f3d 5f60 cf3c ca6c 1e3b 2578 8e3c
00000350: 720d 8a3d c309 763c 0793 9a3d bfff 903d
00000360: e2ba 0c3e 03a9 363d 39f9 ab3c 8505 b63c
00000370: 519f 8f3d c102 f03c 8a64 893c 9509 273d
00000380: c1f1 6a3d 54f6 843d 7b12 0c3d 5020 813d
00000390: 7e1d 773c 655a 9c3d 71f8 b83d 44c5 8a3d
000003a0: f4ab 4a3d b23a 31bc 7976 553d 4dfa 1d3d
000003b0: f0c6 a73b 156e 943d a56c 863d 560e abbb
000003c0: dad7 6c3c d12c 3f3d ca10 063d 18df 733d
000003d0: 3182 823b 32e3 253a 91e4 703d d1f2 b73d
000003e0: ddda ff3c 48a9 a03d 6298 223c 0c8b 423d
000003f0: e62e 8e3d 1dae 803d 10b8 553d d39d 033d

bias_mu f4 [128]
0.38433146 -0.026087953 0.37542167 -0.01834177 -0.2061427 -0.13141769 -0.22168511 -0.16957295
-0.15723577 -0.058626346 -0.21746616 0.028781304 0.2963802 0.015714247 -0.004582123 -0.027995942
-0.10669618 -0.19839852 0.17732444 -0.06547992 -0.07258941 -0.01911943 0.33576187 -0.088984385
-0.24738276 -0.10547362 -0.036249876 0.21937391 -0.022153072 -0.12615716 0.35990492 -0.104126126
-0.18218681 -0.097485915 0.31816435 0.21522275 0.31035832 -0.18610325 0.18546534 -0.09677318
-0.18073891 -0.10213465 -0.1233877 -0.03918007 -0.09948972 -0.03016228 0.17148405 0.055274896
0.012724702 0.20612316 0.31748128 0.2966072 -0.13909104 -0.10966479 0.22302961 -0.21633291
0.1364186 0.3484964 -0.32315564 0.006565333 -0.20896916 -0.17317347 -0.06781336 0.38524264
0.40746605 -0.24334772 -0.08547498 0.4314738 0.29740542 -0.17461973 0.114867136 0.25672752
-0.07832725 -0.14743975 -0.0060769003 0.025652079 -0.2010171 0.051803686 0.3807423 0.3892936
-0.24760978 -0.10476705 -0.35419568 0.4409335 0.24608307 -0.06373626 -0.17970692 -0.12180908
-0.004892361 -0.030332359 -0.073010266 0.014705246 -0.060271222 0.35798228 -0.2519005 -0.021531286
-0.021891547 0.33613586 0.4647126 0.094740845 0.28531918 0.35452586 0.0064173588 -0.04017623
-0.16860023 0.30795476 0.3205982 -0.18405344 0.16220394 0.29742944 -0.106222056 0.23194848
0.02104892 0.25511608 -0.10481743 -0.44537944 0.23821957 -0.17390886 -0.18695109 -0.109818585
-0.09918866 -0.14145236 0.25396284 -0.033923164 0.32468605 -0.14391223 -0.077253364 -0.15359701
00000000: 18c7 c43e 67b6 d5bc 4537 c03e 7b41 96bc
00000010: 1217 53be 5c92 06be 6c01 63be 88a4 2dbe
00000020: 6a02 21be 2e22 70bd 73af 5ebe c5c6 eb3c
00000030: 25bf 973e 2abb 803c a225 96bb bf57 e5bc
00000040: 8783 dabd fb28 4bbe 8a94 353e 561a 86bd
00000050: c2a9 94bd 5aa0 9cbc fbe8 ab3e 723d b6bd
00000060: e851 7dbe 8e02 d8bd c07a 14bd 8ea3 603e
00000070: 5c7a b5bc 582f 01be 7545 b83e 1440 d5bd
00000080: 2e8f 3abe b2a6 c7bd 70e6 a23e 5a63 5c3e
00000090: 49e7 9e3e da91 3ebe a0ea 3d3e 0431 c6bd
000000a0: 9f13 39be f92b d1bd b1b2 fcbd 487b 20bd
000000b0: 44c1 cbbd e316 f7bc 8499 2f3e ee67 623d
000000c0: 457b 503c f311 533e e88c a23e e6dc 973e
000000d0: e26d 0ebe ef97 e0bd e061 643e 6086 5dbe
000000e0: 51b1 0b3e 1f6e b23e a874 a5be 0122 d73b
000000f0: 03fc 55be 6354 31be bbe1 8abd 863e c53e
00000100: 649f d03e 2530 79be 820d afbd 22ea dc3e
00000110: 8645 983e 84cf 32be 763f eb3d ca71 833e
00000120: 0a6a a0bd 72fa 16be bc20 c7bb 4f24 d23c
00000130: 6dd7 4dbe 1a30 543d a8f0 c23e 7e51 c73e
00000140: 6b8d 7dbe 1b90 d6bd 2359 b5be 09c2 e13e
00000150: 33fd 7b3e 2888 82bd 1705 38be 0a77 f9bd
00000160: 1950 a0bb 917b f8bc 6886 95bd 46ee 703c
00000170: f5de 76bd 7449 b73e 1af9 80be 6162 b0bc
00000180: e755 b3bc 001a ac3e cfee ed3e 7d07 c23d
00000190: 5b15 923e 6a84 b53e b548 d23b d58f 24bd
000001a0: 8aa5 2cbe 3fac 9d3e 7325 a43e 8178 3cbe
000001b0: ca18 263e ac48 983e f38a d9bd e783 6d3e
000001c0: c96e ac3c 939e 823e 85aa d6bd c608 e4be
000001d0: d5ef 733e 2a15 32be 1b70 3fbe 91e8 e0bd
000001e0: 6d23 cbbd e3d8 10be 6b07 823e 04f3 0abd
000001f0: 403d a63e ba5d 13be 0337 9ebd 8948 1dbe

bias_sigma f4 [128]
0.020177802 0.006639177 0.049489304 0.0065634837 -0.0305301 -0.014193406 0.07332398 0.010904267
0.040650222 0.019481359 0.047516514 0.0015804179 0.008029793 -0.08527506 -0.08407361 0.00016278848
0.015283214 0.07896452 0.021975039 0.015757425 -0.07028547 0.015646566 -0.012129137 -0.0034393384
0.018598976 -0.07680586 0.1051408 0.012010008 -0.056439698 0.07419054 -0.03080378 -0.018946469
-0.005349355 -0.023115702 0.013722172 -0.0809768 -0.035339896 0.04218511 -0.025218334 0.012819344
-0.019021785 0.013169456 0.11072586 0.020176213 -0.06531189 0.027929438 -0.011696644 -0.065307245
-0.0036470322 0.035005193 -0.0329259 -0.0069547687 0.042727005 0.007666262 -0.06897655 -0.12834807
0.027210277 -0.004131476 0.05124652 0.015303227 -0.018635245 -0.10122601 0.06606154 -0.023972392
-0.04762759 0.015289229 0.029307686 0.002263229 -0.003334899 0.019136215 -0.0037643497 0.0077340687
0.010139622 -0.01428347 -0.009238073 0.030253349 -0.018797757 -0.060005195 -0.013964388 0.016212976
0.02707526 0.09295862 0.029597363 -0.10425548 0.017145952 -0.03544227 0.12446233 0.02565885
0.00073486986 -0.08935341 0.017332405 0.012753739 0.009647179 -0.06653793 0.052815143 -0.036842737
0.030185543 0.017014828 0.02912644 0.01876714 -0.00484407 0.0076700514 -0.033253428 0.05101729
-0.039454002 0.010850863 -0.011620531 0.07993896 0.059969626 0.012349068 -0.18002984 -0.031816166
0.008127687 0.0492873 -0.01993844 0.05068335 0.030073604 0.028297026 -0.03235889 0.043834463
0.013662208 0.018667212 0.023699936 0.020978369 0.0024472703 0.30637366 0.030795725 -0.02464018
00000000: eb4b a53c 748d d93b 4cb5 4a3d 7e12 d73b
00000010: 431a fabc 768b 68bc e22a 963d d0a7 323c
00000020: d980 263d 5f97 9f3c ada0 423d 0626 cf3a
00000030: 658f 033c b1a4 aebd c92e acbd 33b2 2a39
00000040: 7266 7a3c 26b8 a13d ff04 b43c b715 813c
00000050: d4f1 8fbd 3a2d 803c 4ab9 46bc 8666 61bb
00000060: e15c 983c 644c 9dbd 0f54 d73d a0c5 443c
00000070: 502d 67bd 36f1 973d 3558 fcbc a035 9bbc
00000080: a449 afbb 245d bdbc f6d2 603c 2ad7 a5bd
00000090: 91c0 10bd 4bca 2c3d ae96 cebc 3a08 523c
000000a0: 93d3 9bbc b4c4 573c 3dc4 e23d 9648 a53c
000000b0: 3dc2 85bd 47cc e43c 48a3 3fbc cebf 85bd
000000c0: 0c03 6fbb 9b61 0f3d 4fdd 06bd d4e4 e3bb
000000d0: 8302 2f3d 4435 fb3b 9443 8dbd ad6d 03be
000000e0: 16e8 de3c 5561 87bb dfe7 513d 63ba 7a3c
000000f0: f1a8 98bc 954f cfbd 464b 873d c061 c4bc
00000100: 2615 43bd ad7f 7a3c ac16 f03c af52 143b
00000110: 528e 5abb 8dc3 9c3c 4fb3 76bb 126e fd3b
00000120: a820 263c 3705 6abc 495b 17bc dfd5 f73c
00000130: c1fd 99bc 02c8 75bd e3ca 64bc 13d1 843c
00000140: f0cc dd3c 1761 be3d 2b76 f23c e683 d5bd
00000150: ab75 8c3c ea2b 11bd 1be6 fe3d 8232 d23c
00000160: 48a4 403a ecfe b6bd b0fc 8d3c 0ff5 503c
00000170: 340f 1e3c 0a45 88bd b154 583d 69e8 16bd
00000180: ac47 f73c ae62 8b3c 929a ee3c 8cbd 993c
00000190: 01bb 9ebb 0e55 fb3b bf34 08bd 82f7 503d
000001a0: 859a 21bd d1c7 313c 0a64 3ebc 0ab7 a33d
000001b0: b6a2 753d bf53 4a3c be59 38be ab51 02bd
000001c0: fd29 053c 7be1 493d f055 a3bc 5899 4f3d
000001d0: eb5c f63c 2acf e73c c18a 04bd c48b 333d
000001e0: 74d7 5f3c fbeb 983c 5e26 c23c d4da ab3c
000001f0: 6262 203b 02dd 9c3e 5147 fc3c 34da c9bc

weight_epsilon f4 [128, 128]
0.5226471 0.95262635 0.57638097 0.8632155 0.33356965 0.32848078 1.2330208 -0.5058747
1.0872833 -0.5086881 -0.98748535 -0.4251929 1.3248273 -0.5066798 1.027744 1.2036978
-0.55674744 -0.96813506 -0.90006596 -1.2653834 0.8700685 -0.7595277 -0.94584256 0.7909915
0.6224494 0.42198345 0.78632146 -0.45525107 0.90719634 -1.1067432 -1.3665601 0.777309
-1.3151926 -0.9008524 0.9221745 -0.31811768 0.93928134 0.6030188 0.54492325 1.1143118
-1.264699 -0.5974924 -0.18986861 -0.86052674 -0.20325382 -0.6882749 0.5489323 -0.5174576
-0.9816861 -0.5117181 -0.22584097 0.697605 0.932314 -0.7564434 0.26728213 0.6178923
0.5187399 -0.6490631 -0.37519306 -0.7851746 0.53184277 0.47114536 -0.2637815 -0.5036384
0.407109 -0.8214076 -0.64893675 -0.43788752 -0.84808654 -1.3876392 0.78770536 1.20178
-0.77640116 0.5802185 0.62197214 -0.79767 -1.1923926 -0.61504567 0.61553186 1.0463536
0.52777594 0.42967302 0.791442 -0.4858474 0.9360449 -0.95844823 0.34164497 -0.9520642
0.14497453 0.6527994 -0.87614095 -0.9819488 -0.81662685 -0.44827265 1.1137543 -1.4753851
-0.82858175 -0.8075959 -0.86455256 -0.61981225 0.65328485 -0.869197 0.91698503 -0.9476872
-0.9587848 1.1577313 -0.5359008 -1.0123469 -1.0284784 1.00702 -1.2707223 0.5575557
0.60082775 0.2162962 0.33227435 -0.85577583 -0.75737953 1.0871559 0.89610636 -1.0472658
1.2264899 -0.6282757 0.87972367 -0.8716546 1.0312245 -0.273754 0.5782654 0.9934087
0.13640453 0.24862388 0.15042841 0.22528875 0.08705762 0.08572949 0.32180342 -0.13202713
0.2837677 -0.13276139 -0.25772166 -0.11097017 0.3457638 -0.13223726 0.2682287 0.31415045
-0.1453043 -0.25267148 -0.23490627 -0.33024967 0.22707729 -0.19822748 -0.2468534 0.20643914
0.16245171 0.110132545 0.20522033 -0.11881499 0.2367672 -0.28884652 -0.35665557 0.2028682
-0.34324926 -0.2351115 0.24067633 -0.083024845 0.245141 0.15738057 0.14221832 0.29082182
-0.33007106 -0.15593825 -0.049553398 -0.224587 -0.053046774 -0.17963138 0.14326465 -0.13505013
-0.25620812 -0.1335522 -0.058941744 0.18206641 0.24332261 -0.19742252 0.06975738 0.16126238
0.13538478 -0.16939756 -0.09792083 -0.20492102 0.1388045 0.122963205 -0.06884376 -0.13144349
0.106250495 -0.21437739 -0.1693646 -0.114283316 -0.22134027 -0.36215693 0.20558152 0.31364995
-0.20263125 0.15142997 0.16232716 -0.20818217 -0.31119996 -0.16051944 0.16064633 0.27308553
0.13774309 0.112139426 0.20655672 -0.12680027 0.24429633 -0.25014332 0.08916518 -0.24847718
0.037836585 0.1703727 -0.22866213 -0.2562767 -0.21312967 -0.1169937 0.2906763 -0.38505757
-0.21624975 -0.21077271 -0.22563769 -0.16176346 0.1704994 -0.22684984 0.23932193 -0.24733482
-0.25023118 0.30215377 -0.13986358 -0.2642102 -0.26842034 0.26281995 -0.33164304 0.14551525
0.15680873 0.056450672 0.08671956 -0.22334707 -0.19766684 0.28373444 0.23387285 -0.2733236
0.32009894 -0.1639723 0.22959718 -0.22749124 0.26913705 -0.07144646 0.15092024 0.25926757
00000000: 33cc 053f 52df 733f b48d 133f b1fb 5c3f
00000010: a4c9 aa3e a22e a83e a0d3 9d3f 0181 01bf
00000020: 192c 8b3f 6239 02bf d7cb 7cbf e2b2 d9be
00000030: f193 a93f c4b5 01bf 1e8d 833f c512 9a3f
00000040: 0087 0ebf b3d7 77bf b96a 66bf 15f8 a1bf
00000050: cfbc 5e3f 6870 42bf bd22 72bf 6b7e 4a3f
00000060: d858 1f3f 370e d83e 5d4c 493f ab16 e9be
00000070: 053e 683f c3a9 8dbf 71eb aebf b9fd 463f
00000080: 3b58 a8bf 439e 66bf a113 6c3f 52e0 a2be
00000090: be74 703f 715f 1a3f 1780 0b3f c5a1 8e3f
000000a0: a8e1 a1bf 43f5 18bf eb6c 42be 7b4b 5cbf
000000b0: c521 50be c932 30bf d486 0c3f 1a78 04bf
000000c0: c84f 7bbf f5ff 02bf db42 67be 3e96 323f
000000d0: 21ac 6e3f 46a6 41bf 34d9 883e 312e 1e3f
000000e0: 23cc 043f 0029 26bf 4e19 c0be 3401 49bf
000000f0: d926 083f f739 f13e 5e0e 87be 72ee 00bf
00000100: 9770 d03e c547 52bf b820 26bf cb32 e0be
00000110: 331c 59bf 299e b1bf 0fa7 493f edd3 993f
00000120: 3ac2 46bf 3389 143f 9139 1f3f 1a34 4cbf
00000130: 52a0 98bf a273 1dbf 7f93 1d3f eaee 853f
00000140: 531c 073f 1afe db3e f19b 4a3f fec0 f8be
00000150: a3a0 6f3f dd5c 75bf 17ec ae3e 7bba 73bf
00000160: 3474 143e dd1d 273f c64a 60bf ff60 7bbf
00000170: 750e 51bf fe83 e5be 808f 8e3f 6bd9 bcbf
00000180: ef1d 54bf 9bbe 4ebf 5153 5dbf 04ac 1ebf
00000190: ad3d 273f b283 5ebf 88bf 6a3f a19b 72bf
000001a0: ec72 75bf 8a30 943f cb30 09bf 9594 81bf
000001b0: 2ea5 83bf 08e6 803f 07a7 a2bf f8bb 0e3f
000001c0: d9cf 193f c07c 5d3e dd1f aa3e 2014 5bbf
000001d0: a0e3 41bf ed27 8b3f 3a67 653f ce0c 86bf
000001e0: 9ffd 9c3f add6 20bf 9235 613f c224 5fbf
000001f0: 2aff 833f 7c29 8cbe 3409 143f 0850 7e3f
00000200: a1ad 0b3e 4297 7e3e e809 1a3e 18b2 663e
00000210: 444b b23d f192 af3d 6bc3 a43e 1f32 07be
00000220: 004a 913e 9af2 07be 18f4 83be 5444 e3bd
00000230: f407 b13e 3469 07be 4655 893e 54d8 a03e
00000240: a7ca 14be 285e 81be 458b 70be 7c16 a9be
00000250: f386 683e 25fc 4abe 23c7 7cbe c864 533e
00000260: be59 263e 2c8d e13d 4725 523e 4655 f3bd
00000270: 1a73 723e b1e3 93be 8f9b b6be aebc 4f3e
00000280: 5ebe afbe 12c1 70be db73 763e ee08 aabd
00000290: 3e06 7b3e 5f28 213e aea1 113e 99e6 943e
000002a0: 13ff a8be 47ae 1fbe 81f8 4abd 22fa 65be
000002b0: 9347 59bd 4af1 37be f8b3 123e 954a 0abe
000002c0: b62d 83be e8c1 08be e66c 71bd 9e6f 3a3e
000002d0: 9029 793e 2129 4abe f5dc 8e3d f721 253e
000002e0: 4fa2 0a3e 8e76 2dbe b78a c8bd d1d6 51be
000002f0: c422 0e3e 22d4 fb3d f5fd 8cbd 1f99 06be
00000300: dc99 d93d bf85 5bbe ea6d 2dbe 5f0d eabd
00000310: 06a7 62be a26c b9be f683 523e ba96 a03e
00000320: 917e 4fbe 7510 1b3e 1739 263e b52d 55be
00000330: 9a55 9fbe 355f 24be 7980 243e ded1 8b3e
00000340: 860c 0d3e 5ba9 e53d 9b83 533e eed7 01be
00000350: d128 7a3e c912 80be 3c9c b63d cd70 7ebe
00000360: 89fa 1a3d 2e76 2e3e 6826 6abe b336 83be
00000370: aa3e 5abe 659a efbd 86d3 943e 4426 c5be
00000380: 9370 5dbe cdd4 57be 910d 67be 52a5 25be
00000390: 6597 2e3e 534b 68be cf10 753e 5745 7dbe
000003a0: 4d1e 80be e6b3 9a3e 6638 0fbe 8f46 87be
000003b0: 646e 89be 5690 863e 1ecd a9be f301 153e
000003c0: 7892 203e d238 673d 069a b13d 18b5 64be
000003d0: 2d69 4abe a445 913e 5d7c 6f3e 12f1 8bbe
000003e0: 02e4 a33e 5be8 27be 861b 6b3e 77f3 68be
000003f0: 55cc 893e 8652 92bd d68a 1a3e b8be 843e

bias_epsilon f4 [128]
0.91313744 0.23831776 1.0732685 -0.2698424 -1.2830111 -1.4713384 0.73910004 0.32787755
-1.0135909 0.7266969 -0.67193186 -1.1311837 -1.0945292 1.1794549 -0.9427375 -1.2985852
0.8514662 0.5189963 -1.1255068 -1.3646911 0.75603044 -0.623635 1.2805421 -0.79411685
1.0153497 -1.2748688 0.4059231 -0.24073096 1.138596 -0.5848253 1.4958415 0.7828886
1.1627533 -1.1393666 0.6686387 -1.1212506 -0.8287397 0.15022187 -0.7153789 -0.62033904
0.42249876 0.21949604 0.99937725 -0.88078886 1.0797776 1.4419919 0.35790887 0.6847648
-1.323763 1.2241645 -0.92554694 -0.5579656 0.6812504 0.7880672 0.6400696 -0.99403995
-0.9163234 -0.5702141 -1.1740233 -0.75632966 1.0185035 -1.0396361 -0.5588348 1.2072507
-0.6364743 0.6942314 0.944767 -1.5539314 1.134024 0.5473608 -1.1054153 0.72781456
-0.38046074 0.53728586 -1.7971908 1.0732088 -1.2753463 1.3161411 1.1979686 1.0682285
-0.63376075 1.0583733 -0.6488281 0.47930062 0.33441833 -0.66683954 -0.927185 1.2355205
-1.0117764 0.80527115 -1.0062903 -0.75181395 0.5292608 -0.9924417 1.2041433 0.29659727
-0.42018396 0.361333 -0.6197509 1.2248156 0.4265118 1.2937713 0.4722495 1.011277
-0.8703293 -0.72026217 0.36542103 -1.3121601 -0.4102084 1.2261935 1.1163796 -0.949087
-0.38064656 0.38943455 -1.127689 -0.8982807 -1.0748076 -0.34673342 -0.97530675 -0.2423895
1.3303744 -0.6983927 0.95473754 -1.4825966 -0.3107037 -0.42421868 0.2188654 -1.2913269
00000000: 60c3 693f 9209 743e dd60 893f c828 8abe
00000010: b539 a4bf d154 bcbf a935 3d3f 91df a73e
00000020: 59bd 81bf cf08 3a3f ba03 2cbf a1ca 90bf
00000030: 8819 8cbf 61f8 963f 3f57 71bf 0a38 a6bf
00000040: b0f9 593f f1dc 043f 9b10 90bf 33ae aebf
00000050: 368b 413f 8ba6 1fbf cee8 a33f 3e4b 4bbf
00000060: fbf6 813f e72e a3bf 27d5 cf3e 2d82 76be
00000070: 84bd 913f 1cb7 15bf bc77 bf3f 636b 483f
00000080: 1ad5 943f c4d6 91bf e82b 2b3f 2485 8fbf
00000090: 4928 54bf c3d3 193e 1223 37bf 8ace 1ebf
000000a0: c251 d83e 92c3 603e 30d7 7f3f 617b 61bf
000000b0: 2736 8a3f 3193 b83f d53f b73e bf4c 2f3f
000000c0: 1171 a9bf 6cb1 9c3f a5f0 6cbf d5d6 0ebf
000000d0: 6d66 2e3f c6be 493f 9adb 233f 6779 7ebf
000000e0: 2c94 6abf 8df9 11bf 6546 96bf d29e 41bf
000000f0: 535e 823f cc12 85bf cc0f 0fbf 3187 9a3f
00000100: fbef 22bf 26b9 313f 40dc 713f 39e7 c6bf
00000110: b327 913f d61f 0c3f 407e 8dbf 0e52 3a3f
00000120: c0cb c2be 918b 093f 590a e6bf e85e 893f
00000130: 8c3e a3bf 5077 a83f 0957 993f b6bb 883f
00000140: 253e 22bf c778 873f 9919 26bf e466 f53e
00000150: e138 ab3e ffb5 2abf ff5b 6dbf 8925 9e3f
00000160: e481 81bf 4026 4e3f 1fce 80bf e176 40bf
00000170: a37d 073f a910 7ebf 5e21 9a3f 99db 973e
00000180: 5a22 d7be a400 b93e ffa7 1ebf c2c6 9c3f
00000190: c15f da3e 4c9a a53f b0ca f13e 8671 813f
000001a0: e7cd 5ebf 1a63 38bf 7718 bb3e ddf4 a7bf
000001b0: d606 d2be e9f3 9c3f 87e5 8e3f 5ef7 72bf
000001c0: 1be4 c2be f763 c73e 1d58 90bf b9f5 65bf
000001d0: 4c93 89bf 0b87 b1be b4ad 79bf f434 78be
000001e0: b549 aa3f ddc9 32bf ae69 743f bac5 bdbf
000001f0: 8e14 9fbe 3133 d9be 401e 603e 334a a5bf

epsilon_in f4 [128]
0.5723641 1.0432453 0.63120943 0.94532925 0.3653006 0.35972765 1.3503124 -0.5539962
1.1907115 -0.5570772 -1.0814203 -0.46563953 1.450852 -0.5548779 1.1255087 1.3182
-0.60970825 -1.0602293 -0.9856851 -1.3857535 0.9528341 -0.83177805 -1.0358162 0.86623484
0.6816601 0.4621248 0.8611206 -0.498557 0.99349374 -1.2120227 -1.4965547 0.8512508
-1.4403008 -0.98654634 1.0098968 -0.34837875 1.0286309 0.6603812 0.59675926 1.2203112
-1.385004 -0.6543291 -0.20792994 -0.94238466 -0.22258842 -0.75374734 0.60114974 -0.56668097
-1.0750694 -0.5603955 -0.24732418 0.76396495 1.0210007 -0.8284004 0.29270744 0.6766696
0.5680852 -0.7108055 -0.41088346 -0.85986465 0.58243454 0.51596326 -0.28887382 -0.55154717
0.4458354 -0.89954436 -0.71066713 -0.47954175 -0.9287611 -1.5196389 0.86263615 1.3160998
-0.8502566 0.63541204 0.6811375 -0.8735487 -1.3058194 -0.67355216 0.6740846 1.1458883
0.5779808 0.47054583 0.8667282 -0.53206384 1.0250865 -1.049621 0.37414408 -1.0426297
0.15876529 0.7148972 -0.9594842 -1.0753571 -0.8943088 -0.49091476 1.2197006 -1.6157317
-0.9074009 -0.8844188 -0.94679344 -0.67877215 0.7154288 -0.95187974 1.0042136 -1.0378363
-1.0499896 1.2678609 -0.58687854 -1.1086468 -1.1263129 1.1028131 -1.3916003 0.6105934
0.65798175 0.23687145 0.36388206 -0.93718183 -0.8294256 1.190572 0.9813488 -1.1468873
1.3431603 -0.6880407 0.96340775 -0.9545711 1.1293201 -0.29979497 0.6332732 1.0879071
00000000: 7486 123f 1089 853f f196 213f 1901 723f
00000010: ae08 bb3e 392e b83e 09d7 ac3f b2d2 0dbf
00000020: 3c69 983f 9d9c 0ebf fb6b 8abf 4e68 eebe
00000030: 85b5 b93f 7a0c 0ebf ab10 903f c7ba a83f
00000040: d715 1cbf 98b5 87bf dc55 7cbf 5f60 b1bf
00000050: f0ec 733f 68ef 54bf a095 84bf 91c1 5d3f
00000060: 4781 2e3f 9f9b ec3e 6672 5c3f dd42 ffbe
00000070: 9b55 7e3f 8f23 9bbf 1b8f bfbf 93eb 593f
00000080: c75b b8bf 4d8e 7cbf 4c44 813f b35e b2be
00000090: 2daa 833f be0e 293f 37c5 183f 2833 9c3f
000000a0: d047 b1bf 1d82 27bf 96eb 54be 1f40 71bf
000000b0: 38ee 63be 96f5 40bf f3e4 193f 0112 11bf
000000c0: e09b 89bf 1476 0fbf 8d42 7dbe 3593 433f
000000d0: 27b0 823f 0c12 54bf c0dd 953e 383a 2d3f
000000e0: 086e 113f 59f7 35bf 515f d2be 1720 5cbf
000000f0: 6e1a 153f 2b16 043f 45e7 93be 3232 0dbf
00000100: 8a44 e43e 8a48 66bf 48ee 35bf 7f86 f5be
00000110: 4ac3 6dbf 8783 c2bf b9d5 5c3f f575 a83f
00000120: 6baa 59bf 5daa 223f 075f 2e3f e3a0 5fbf
00000130: 1725 a7bf ea6d 2cbf cf90 2c3f 78ac 923f
00000140: 8df6 133f 62eb f03e e6e1 5d3f 5635 08bf
00000150: 0936 833f fb59 86bf d08f bf3e e474 85bf
00000160: 5e93 223e 8103 373f c2a0 75bf 4da5 89bf
00000170: 6cf1 64bf 2e59 fbbe 261f 9c3f 4cd0 cebf
00000180: 6d4b 68bf 4569 62bf 0e61 72bf 03c4 2dbf
00000190: 5826 373f 64ae 73bf 128a 803f d2d7 84bf
000001a0: 0f66 86bf 4449 a23f ac3d 16bf 23e8 8dbf
000001b0: 052b 90bf fb28 8d3f f51f b2bf d94f 1c3f
000001c0: 7e71 283f 6e8e 723e c04e ba3e 26eb 6fbf
000001d0: 3c55 54bf aa64 983f ad39 7b3f 34cd 92bf
000001e0: adec ab3f 6f23 30bf e4a1 763f c65e 74bf
000001f0: 908d 903f ba7e 99be 311e 223f 8a40 8b3f

epsilon_out f4 [128]
0.91313744 0.23831776 1.0732685 -0.2698424 -1.2830111 -1.4713384 0.73910004 0.32787755
-1.0135909 0.7266969 -0.67193186 -1.1311837 -1.0945292 1.1794549 -0.9427375 -1.2985852
0.8514662 0.5189963 -1.1255068 -1.3646911 0.75603044 -0.623635 1.2805421 -0.79411685
1.0153497 -1.2748688 0.4059231 -0.24073096 1.138596 -0.5848253 1.4958415 0.7828886
1.1627533 -1.1393666 0.6686387 -1.1212506 -0.8287397 0.15022187 -0.7153789 -0.62033904
0.42249876 0.21949604 0.99937725 -0.88078886 1.0797776 1.4419919 0.35790887 0.6847648
-1.323763 1.2241645 -0.92554694 -0.5579656 0.6812504 0.7880672 0.6400696 -0.99403995
-0.9163234 -0.5702141 -1.1740233 -0.75632966 1.0185035 -1.0396361 -0.5588348 1.2072507
-0.6364743 0.6942314 0.944767 -1.5539314 1.134024 0.5473608 -1.1054153 0.72781456
-0.38046074 0.53728586 -1.7971908 1.0732088 -1.2753463 1.3161411 1.1979686 1.0682285
-0.63376075 1.0583733 -0.6488281 0.47930062 0.33441833 -0.66683954 -0.927185 1.2355205
-1.0117764 0.80527115 -1.0062903 -0.75181395 0.5292608 -0.9924417 1.2041433 0.29659727
-0.42018396 0.361333 -0.6197509 1.2248156 0.4265118 1.2937713 0.4722495 1.011277
-0.8703293 -0.72026217 0.36542103 -1.3121601 -0.4102084 1.2261935 1.1163796 -0.949087
-0.38064656 0.38943455 -1.127689 -0.8982807 -1.0748076 -0.34673342 -0.97530675 -0.2423895
1.3303744 -0.6983927 0.95473754 -1.4825966 -0.3107037 -0.42421868 0.2188654 -1.2913269
00000000: 60c3 693f 9209 743e dd60 893f c828 8abe
00000010: b539 a4bf d154 bcbf a935 3d3f 91df a73e
00000020: 59bd 81bf cf08 3a3f ba03 2cbf a1ca 90bf
00000030: 8819 8cbf 61f8 963f 3f57 71bf 0a38 a6bf
00000040: b0f9 593f f1dc 043f 9b10 90bf 33ae aebf
00000050: 368b 413f 8ba6 1fbf cee8 a33f 3e4b 4bbf
00000060: fbf6 813f e72e a3bf 27d5 cf3e 2d82 76be
00000070: 84bd 913f 1cb7 15bf bc77 bf3f 636b 483f
00000080: 1ad5 943f c4d6 91bf e82b 2b3f 2485 8fbf
00000090: 4928 54bf c3d3 193e 1223 37bf 8ace 1ebf
000000a0: c251 d83e 92c3 603e 30d7 7f3f 617b 61bf
000000b0: 2736 8a3f 3193 b83f d53f b73e bf4c 2f3f
000000c0: 1171 a9bf 6cb1 9c3f a5f0 6cbf d5d6 0ebf
000000d0: 6d66 2e3f c6be 493f 9adb 233f 6779 7ebf
000000e0: 2c94 6abf 8df9 11bf 6546 96bf d29e 41bf
000000f0: 535e 823f cc12 85bf cc0f 0fbf 3187 9a3f
00000100: fbef 22bf 26b9 313f 40dc 713f 39e7 c6bf
00000110: b327 913f d61f 0c3f 407e 8dbf 0e52 3a3f
00000120: c0cb c2be 918b 093f 590a e6bf e85e 893f
00000130: 8c3e a3bf 5077 a83f 0957 993f b6bb 883f
00000140: 253e 22bf c778 873f 9919 26bf e466 f53e
00000150: e138 ab3e ffb5 2abf ff5b 6dbf 8925 9e3f
00000160: e481 81bf 4026 4e3f 1fce 80bf e176 40bf
00000170: a37d 073f a910 7ebf 5e21 9a3f 99db 973e
00000180: 5a22 d7be a400 b93e ffa7 1ebf c2c6 9c3f
00000190: c15f da3e 4c9a a53f b0ca f13e 8671 813f
000001a0: e7cd 5ebf 1a63 38bf 7718 bb3e ddf4 a7bf
000001b0: d606 d2be e9f3 9c3f 87e5 8e3f 5ef7 72bf
000001c0: 1be4 c2be f763 c73e 1d58 90bf b9f5 65bf
000001d0: 4c93 89bf 0b87 b1be b4ad 79bf f434 78be
000001e0: b549 aa3f ddc9 32bf ae69 743f bac5 bdbf
000001f0: 8e14 9fbe 3133 d9be 401e 603e 334a a5bf

weight_mu f4 [3, 128]
-0.25758764 -0.011454669 -0.2533734 0.04041118 -0.0077769905 0.050160177 -0.004682479 -0.28864515
-0.066531755 0.0058472888 0.027480181 -0.49369562 -0.011534665 0.09694555 -0.6099393 -0.048030097
-0.044539757 -0.05155175 -0.075802065 0.028750014 0.025866102 -0.046175994 -0.18599153 -0.806865
-0.6722259 0.038563386 -0.019349009 -0.19746943 -0.058712017 -0.34515437 -0.22373514 0.33514893
0.6609716 -0.041790266 -0.22364007 -0.0661824 -0.16784835 -0.052835744 -0.22045028 0.02385839
1.0771098 0.06501878 -0.0006018377 0.0025777135 -0.43726635 0.057387255 -0.21521743 -0.49003634
0.043640845 -0.100572094 -0.15705398 -0.16640083 0.03764738 -0.05348781 -0.15506944 -0.06459409
0.87300384 -0.10747091 0.19957411 0.017593535 0.06018848 -0.43234542 0.013584101 -0.2800036
-0.14283578 0.11420008 -0.34661904 -0.25052452 -0.13173118 -0.0033404827 -0.19971403 -0.17486043
0.40608388 0.2904851 -0.021950705 0.6480403 -0.59368366 -0.7420998 -0.178578 -0.22665085
1.1474512 -0.0075976327 1.2716093 -0.25897044 -0.29467148 0.0044326824 0.05385567 -0.04266247
0.05390881 0.27963132 0.35312593 -0.3787202 0.89924073 -0.20207083 -0.94591343 -0.07394107
0.0005180585 -0.25932175 -0.27089635 0.25829428 -0.19770527 -0.18052143 0.077565715 -0.0029095325
-0.07458109 -0.14994213 -0.2353335 -0.063037686 0.5014122 -0.15470392 0.089678966 -0.17082208
-1.150166 -0.18018842 0.027243588 0.7122284 -0.09619946 -0.01271152 0.82226133 0.09891162
-0.041069906 -0.7293577 -0.23156773 0.025065951 -0.1553646 -0.010501882 -0.03522481 -0.026325101
-0.23317862 0.00796176 -0.20112188 0.012437927 -0.024160748 -0.06979101 0.04370406 -0.70048815
0.04545565 -0.018069666 0.003507334 -0.20117751 -0.14810975 1.1910375 -0.8364584 0.05546614
0.039338145 0.10106138 -0.09374233 0.018811323 -0.10927716 -0.032427955 -0.12422812 -0.81498
-0.79907143 0.03500841 -0.027926477 -0.1388657 0.020911792 0.06744985 -0.20427293 0.2173361
0.5940149 -0.05124685 -0.23682736 0.020273663 -0.21112879 -0.15517622 -0.12860616 0.0026618226
1.3775105 0.057969507 0.02079002 0.06075362 -1.0278884 -0.007628734 -0.13693552 -0.20754743
0.012969051 -0.09445902 -0.20552927 -0.1819525 -0.10747658 0.038266122 -0.1353029 -0.013800808
0.8010721 -0.1589893 0.6152345 -0.023693612 0.06822349 0.2587315 -0.03463315 -0.26231354
-0.23252834 0.4023864 0.664307 -0.20139825 -0.14925022 1.0639755 -0.02730733 -0.2239576
0.25611088 0.30626783 0.016778888 0.61275727 -0.5507304 -0.8363068 -0.19246674 -0.27275506
1.0107847 -0.05239877 0.829415 -0.24514616 -0.19093569 -0.082772635 -0.08843276 -0.007490416
-0.054538243 -0.4425541 0.015913444 -0.85556364 0.77554995 -0.13518712 0.393574 0.064605676
0.06636778 -0.22866413 -0.25329348 -0.35045958 -0.18643177 -0.22847934 1.4037614 -0.020501852
0.032210216 -0.1947679 -0.2553292 0.031280734 -0.2412045 -0.24422202 0.12768987 -0.10275166
-0.12433468 -0.14778285 0.013965016 0.7693171 -0.13680133 -0.0017495079 -0.25830588 0.1630088
0.017243413 -0.79618233 -0.18380147 0.03722262 -0.20572075 -0.17219123 -0.5308386 -0.020821625
00000000: 87e2 83be 5dac 3bbc 29ba 81be 3286 253d
00000010: 20d6 febb c274 4d3d 7b6f 99bb 4cc9 93be
00000020: cd41 88bd 9d9a bf3b 1e1e e13c acc5 fcbe
00000030: e4fb 3cbc 638b c63d fb24 1cbf 35bb 44bd
00000040: 526f 36bd ee27 53bd 1d3e 9bbd 2685 eb3c
00000050: 26e5 d33c 0a23 3dbd 9074 3ebe b48e 4ebf
00000060: ff16 2cbf a4f4 1d3d d081 9ebc 6d35 4abe
00000070: 037c 70bd 13b8 b0be d31a 65be a498 ab3e
00000080: 6f35 293f 452c 2bbd e701 65be a38a 87bd
00000090: 70e0 2bbe 4b6a 58bd b8bd 61be ac72 c33c
000000a0: bcde 893f 9128 853d a5c4 1dba dbee 283b
000000b0: 60e1 dfbe e60e 6b3d f561 5cbe 0be6 fabe
000000c0: bec0 323d bef8 cdbd c2d2 20be fb64 2abe
000000d0: 2434 1a3d 0916 5bbd 86ca 1ebe e849 84bd
000000e0: 2e7d 5f3f b519 dcbd 285d 4c3e 5120 903c
000000f0: 3288 763d 615c ddbe d98f 5e3c a25c 8fbe
00000100: 8b43 12be bbe1 e93d 0d78 b1be c044 80be
00000110: 8ae4 06be 00ec 5abb d681 4cbe 9d0e 33be
00000120: 3aea cf3e 77ba 943e f7d1 b3bc f8e5 253f
00000130: a7fb 17bf 41fa 3dbf 27dd 36be 2917 68be
00000140: aedf 923f 90f5 f8bb 18c4 a23f c697 84be
00000150: 2edf 96be 0940 913b c397 5c3d d8be 2ebd
00000160: 7ccf 5c3d d62b 8f3e eccc b43e 9de7 c1be
00000170: a434 663f a8eb 4ebe 6227 72bf 6a6e 97bd
00000180: 51ce 073a d2c5 84be edb2 8abe 263f 843e
00000190: 4073 4abe 9cda 38be c6da 9e3d dbad 3ebb
000001a0: f8bd 98bd 6e8a 19be 44fb 70be e719 81bd
000001b0: 8d5c 003f b46a 1ebe 9ba9 b73d fceb 2ebe
000001c0: a438 93bf 5083 38be f22d df3c 9a54 363f
000001d0: 3904 c5bd fb43 50bc b87f 523f 2d92 ca3d
000001e0: eb38 28bd 30b7 3abf 1720 6dbe 1c57 cd3c
000001f0: e617 1fbe 1610 2cbc e447 10bd bda7 d7bc
00000200: 60c6 6ebe 0b72 023c e5f2 4dbe 72c8 4b3c
00000210: c3ec c5bc 97ee 8ebd 0703 333d 3153 33bf
00000220: b42f 3a3d d606 94bc 4ddb 653b 7a01 4ebe
00000230: 15aa 17be eb73 983f 2322 56bf 7730 633d
00000240: 0921 213d 45f9 ce3d fbfb bfbd 341a 9a3c
00000250: b4cc dfbd 2dd3 04bd 506b febd 87a2 50bf
00000260: f28f 4cbf fb64 0f3d 11c6 e4bc cf32 0ebe
00000270: 354f ab3c 2623 8a3d ec2c 51be 5b8d 5e3e
00000280: 5c11 183f 38e8 51bd df82 72be f414 a63c
00000290: 2532 58be 84e6 1ebe 55b1 03be f971 2e3b
000002a0: 4452 b03f 6f71 6d3d d54f aa3c cad8 783d
000002b0: d991 83bf 76fa f9bb d338 0cbe 5087 54be
000002c0: 247c 543c bb73 c1bd 4476 52be c251 3abe
000002d0: ae1c dcbd f0bc 1c3d d88c 0abe c91c 62bc
000002e0: 1013 4d3f 17ce 22be 0280 1d3f 1b19 c2bc
000002f0: c2b8 8b3d 7578 843e 7ddb 0dbd f64d 86be
00000300: e91b 6ebe 9705 ce3e 0610 2a3f 583b 4ebe
00000310: 0dd5 18be 5930 883f 9fb3 dfbc 2455 65be
00000320: f720 833e 23cf 9c3e e173 893c a9dd 1c3f
00000330: abfc 0cbf 3418 56bf 0016 45be 8da6 8bbe
00000340: 6561 813f 18a0 56bd 8b54 543f 9807 7bbe
00000350: a584 43be b384 a9bd 3c1c b5bd 2a72 f5bb
00000360: 7e63 5fbd 7396 e2be e95c 823c 3806 5bbf
00000370: 718a 463f 7e6e 0abe 8882 c93e fb4f 843d
00000380: d5eb 873d ee26 6abe afaf 81be 706f b3be
00000390: f8e7 3ebe 7df6 69be 74ae b33f 80f3 a7bc
000003a0: dcee 033d 3d71 47be 82ba 82be 3a20 003d
000003b0: 50fe 76be 5615 7abe 22c1 023e 766f d2bd
000003c0: 2ea3 febd 6354 17be 86cd 643c f7f1 443f
000003d0: a615 0cbe be4f e5ba ab40 84be c7eb 263e
000003e0: 0f42 8d3c 9bd2 4bbf 7436 3cbe bf76 183d
000003f0: 76a8 52be e652 30be 0ae5 07bf 1d92 aabc
