save/model/acrobot_dqn_noisy_mod_hid_128_128.pth (torch_old, 211287 bytes, 18 tensors)

weight f4 [128, 6]
00000000: 36fb cdbe aa1b c9be 7288 fc3d 249f fbbe
00000010: c5ec 573e 99ac 903e 9a99 123f 54a3 c9bd
00000020: fb62 acbd b6da 933e 2ac5 073e cc58 483d
00000030: 7c14 9d3e 7802 253e 2a6c 633e d58d a1be
00000040: 6cfb 323e ce4f b23d 5260 9bbe 8d55 e9be
00000050: 48fa f6bc ec2b 9a3e bb80 a1be 9adf 38be
00000060: 4ef3 edbe 43e9 233f 6fbb 33bf b700 f23d
00000070: 841e 003e c36e 1b3e 94b3 adbe 1353 31bf
00000080: d7cd 07bf 19bc 243f 562a fcbd d33d 21be
00000090: 796e a9bd 73bd db3d add8 afbe 56fe fb3e
000000a0: b28d e9bd ae89 53be d8fa 3ebf fdf9 ab3e
000000b0: 8fc1 8ebe 714c 6ebb bb48 9bbc 85d0 13be
000000c0: 67bc 50bd 5b51 343f 2a39 3dbd c153 9c3e
000000d0: 5f1c 1ebd 1615 8a3d b8f6 613d c2d7 c4be
000000e0: cc0b 31bf f457 1d3d a81a 35be e5fe 10be
000000f0: b4f0 74be 9615 f23d 2090 7cbe ef17 323f
00000100: ac2c 843e 7d17 0f3e 0d84 0c3f c84c a0be
00000110: fcea 903e af26 e63d b7a1 af3c 146c 32bd
00000120: 41eb 9d3e 179c 29bf b458 173e 6069 093f
00000130: 4115 303e d334 9f3d f81d c83c d390 2e3f
00000140: 43d5 163f b5ab 92be cd4d 7abd f372 c73d
00000150: 9c04 17bd 0578 833e 46cf 123f d875 fbbe
00000160: 140f 213f a0ab 863d ccaf c6be 7db2 653f
00000170: dba4 0a3d 0ba5 cf3e 480d 973d 5ef3 5b3e
00000180: 9f0a 41be 06a5 31be 8e89 2ebf 1625 56be
00000190: c72a 083e 2de5 28be a5ae 963e c464 a6be
000001a0: 9306 34be 5ed4 0f3f ded7 06be 2b26 f0bd
000001b0: dca7 e03e 1c75 de3d ecbe e0be fa08 343e
000001c0: cc34 9a3c 5691 fb3d f477 51be de20 39bb
000001d0: f2e3 92be 0813 7a3e 07b0 dabd ed3e 133e
000001e0: c7bf 1c3f c7c0 a53d 7df5 933e a5cf 163e
000001f0: e8ef 5abe 94c3 f3bd 8f96 9dbf 68d7 59bc
00000200: 9056 bebe 1010 853e 09e2 9d3d 2ad8 db3d
00000210: dfb9 17be 7dc2 9b3e eaff 07be 082d 523d
00000220: b7ac 0b3f 2e83 1b3e 53ea cabc 4ed8 423d
00000230: 8cec 84be 470b 9cbd eeb2 c33d ef16 443e
00000240: d25d 01bf 0317 263e 96c3 06bf 1a3a f3bc
00000250: 1bea 02be 8a0d 2f3d 44b0 1e3f 225d dd3e
00000260: 53f8 903e fd81 5ebe 135d 3ebe f4de 7fbd
00000270: f132 5ebe a81f 023f f515 79be 7a0b 2d3e
00000280: 9ff4 76bc 7839 a03d 1d12 e63c 832b 523f
00000290: e4eb bdbd 912e dbbe 9efe 833e d008 b03e
000002a0: b34f 0a3f ce0f 4ebe 98ae 343e 40c2 733d
000002b0: 8bc8 83bd 99ac 0ebd 21c3 19bf fa69 29bf
000002c0: ca01 69be 4d4e 063f 693f 263e ec78 1bbe
000002d0: eedb 28be e1a5 c83e e738 9dbd 3bb1 fbbe
000002e0: 9d82 98bd cd37 32bd d8ee 053d c779 cdbd
000002f0: a862 0d3e d647 d23e 6496 403e 7e21 56be
00000300: f4a6 59be 1c9e 273e 0f7d 4b3e f278 8a3e
00000310: d23f db3e fc37 8d3e 3aa3 8bbe 72ea 243f
00000320: 09dd 1abf c678 acbe 23cc bdbd 67fe 1ebd
00000330: 2e47 02bd c8bc 253e dc76 223e dbfc 7dbe
00000340: 2ad9 c5be 89a3 37be d93f 2c3e 8cb2 95be
00000350: a195 be3e e84d 283e 42e8 8c3e 7c09 b63d
00000360: f68a 3fbf aedb 2c3f eeb3 a4be 2704 22bf
00000370: ec22 41be cc03 423e 1321 a33e 5ecc 2fbe
00000380: 0c2e f23d 483f 15be 4910 4ebc 8149 fdbc
00000390: 98a6 edbd eb69 293f dd0c 9a3e 8c69 cbbe
000003a0: 8259 54bc 8e1f de3d a3db 44be b746 0fbd
000003b0: 8a0c c6bd d3d3 7a3e d4fb b83e 22f2 cdbc
000003c0: 3ec5 b5bc aa41 e93e 27b8 0d3f 7426 91be
000003d0: 4ee5 903c 3208 0f3e 8848 1fbf 4841 fc3e
000003e0: 42c0 3bbe 8144 f93d 4e86 1ebd f42e 383e
000003f0: ded9 e0bc 2502 1b3e 25f1 a7be cb4e 123e
-0.4023072 -0.39278919 0.123307124 -0.49144852 0.21086414 0.28256682 0.5726563 -0.098456055
-0.084173165 0.288778 0.13258806 0.04891281 0.3067969 0.16114223 0.2220923 -0.31553522
0.17478722 0.08706628 -0.30346924 -0.45573083 -0.03014864 0.30111635 -0.31543526 -0.18054047
-0.4647469 0.64027804 -0.70207876 0.118165426 0.12511641 0.15178971 -0.3392607 -0.69267386
-0.5304846 0.64349514 -0.123127624 -0.1574624 -0.08273024 0.10729494 -0.34344998 0.4921748
-0.11403979 -0.2065799 -0.7460151 0.33589163 -0.27882048 -0.003636148 -0.018955579 -0.14435013
-0.050960924 0.7043664 -0.046197094 0.3053265 -0.038601276 0.06742303 0.05516693 -0.3844586
-0.69158626 0.038413957 -0.1768595 -0.14159735 -0.23919946 0.118205234 -0.24664354 0.6956777
0.25815332 0.13973804 0.54888994 -0.3130858 0.2830428 0.11237847 0.021439416 -0.043560103
0.30843547 -0.662538 0.14779931 0.53676414 0.17195608 0.07773747 0.024428353 0.68189734
0.5891916 -0.28646627 -0.061109353 0.09738722 -0.03686963 0.25677505 0.57347524 -0.49113345
0.6291363 0.065757036 -0.38805997 0.89725477 0.033848625 0.40555605 0.0737558 0.21479556
-0.18851708 -0.17348108 -0.6817864 -0.20912585 0.13297568 -0.16493674 0.29430118 -0.32498753
-0.17580633 0.5618342 -0.13168284 -0.1172603 0.43878067 0.108621806 -0.43895662 0.1758155
0.018824004 0.1228358 -0.20455915 -0.002824835 -0.28689533 0.24421322 -0.10678106 0.14379473
0.6123013 0.0809341 0.2889823 0.14727648 -0.2138058 -0.11902538 -1.2311572 -0.013295986
-0.37175417 0.25988817 0.077091284 0.107345894 -0.14816998 0.3042182 -0.13281217 0.051312476
0.54560417 0.1518676 -0.024769938 0.047569565 -0.2596172 -0.076193385 0.095556125 0.19149373
-0.50533783 0.16219716 -0.5264219 -0.02969079 -0.12784617 0.04273752 0.6198771 0.43235117
0.28314456 -0.21729274 -0.18590192 -0.062468484 -0.2169912 0.50829554 -0.24324782 0.16898909
-0.015072971 0.07823461 0.028084809 0.82097644 -0.09273508 -0.42808965 0.25780195 0.34381723
0.5402786 -0.20123217 0.17644727 0.059511423 -0.06434735 -0.03483257 -0.6006337 -0.6617733
-0.22754589 0.5246323 0.16235127 -0.15182847 -0.16490147 0.39189056 -0.07676869 -0.49158654
-0.074467875 -0.043510247 0.032698482 -0.10032993 0.13807166 0.4107043 0.1880737 -0.20911214
-0.21255094 0.16368908 0.19871925 0.270454 0.4282213 0.27581775 -0.2727297 0.64420235
-0.6049352 -0.33685893 -0.092674516 -0.038816836 -0.031806163 0.16185296 0.15865654 -0.24803488
-0.38642246 -0.17933477 0.16821231 -0.29237783 0.37223533 0.16435969 0.2752095 0.08888528
-0.7482141 0.67522705 -0.32168525 -0.63287586 -0.18860978 0.18946761 0.3186117 -0.17167804
0.11825189 -0.14574921 -0.012577125 -0.030918838 -0.11604041 0.66177243 0.3008794 -0.39728963
-0.012960793 0.10845862 -0.1922441 -0.03497955 -0.096703604 0.24494867 0.3612963 -0.025139872
-0.022188779 0.4555791 0.5535912 -0.2834965 0.017687466 0.1396797 -0.6222005 0.49268556
-0.1833506 0.12171269 -0.0387023 0.17986661 -0.027447637 0.15137537 -0.32801166 0.1428787

bias f4 [128]
00000000: e439 e7be c4db 153f cc69 143f 1689 38bf
00000010: b833 43bf cd37 0bbe 1049 19bf ab0a 723d
00000020: 3e75 483e be64 efbe 98f8 28bf e1c1 bf3e
00000030: d976 9c3e 37bc 46bf 68e1 01bf 2996 32bf
00000040: a28c 91bf 6770 583e 4a6d a83c 2af2 553c
00000050: 44d1 9d3e 7986 8abe 7af3 22bf cde1 e23e
00000060: feb4 8c3d d6d4 a53e 3b8c f93e 6049 93bd
00000070: 0153 aa3e ef5b f1be bf93 d73e cf47 f1be
00000080: 63ef d9be 8c45 8fbe bd0f 52bf 157c fa3e
00000090: 563e ecbe 85aa 8f3e 0a11 2c3e 75c9 22bf
000000a0: b400 353e c8cc 4fbf 71f9 25bf 9e76 f83b
000000b0: 83d5 f2be 1b68 9ebd b496 103e d129 1ebf
000000c0: 7eee 80bf 7467 1d3f 8991 62bf 82ba 44bf
000000d0: 12a3 d0bd ed96 a23e fcfb f5bd bc38 e3be
000000e0: 4044 8d3e 339d 4dbf 99f9 143f 792a 213e
000000f0: 943a 6dbe 65e5 0d3d 9b6a 183d 4643 54bf
00000100: a5fd a5be d9ff d8be f444 f53d f529 5cbf
00000110: ffd2 fdbe 6937 e73e 4d44 2bbf e90b 43bd
00000120: 8342 8fbf e62a 81be 2fdf c53e 140e ff3b
00000130: cb94 7bbf d16e b8bd 35f4 a2be feb6 083f
00000140: 4841 f2be 1920 53bf 2e71 283d 2104 f7be
00000150: 410f 30bf 6942 2abf e0ef d7bd 3e9b fe3d
00000160: 9522 c53e 9f88 ff3e 6892 3bbf 8389 0f3f
00000170: c01a 65be b5d4 b3be 8585 77bf 9509 d03e
00000180: bc9d 19bf e6af d23e 5506 67bf f80e 48bf
00000190: e4d7 f83e e3f9 a2be 9695 a93d cfae 38bf
000001a0: 71b5 b43d 71ed 023f 399f 1cbf 0d4f 043f
000001b0: 50e4 0bbf 178b 813e 09cf 70bf 282f cbbe
000001c0: 8f6f 00bf 80a7 903e 9eda b4be fd09 61be
000001d0: 0e78 d63e 3d6e ebbe 8881 a33e 21bf 723e
000001e0: a639 73bd 065c f03e 30fd 933b 2cb1 8c3d
000001f0: 7904 aabe 31ba 91be 498e 42bf f239 ecbe
-0.45161355 0.5853846 0.57973933 -0.72084177 -0.7625079 -0.13595505 -0.5987711 0.059092205
0.19575974 -0.46756548 -0.66004324 0.37452605 0.30559424 -0.77630943 -0.5073457 -0.69760376
-1.1371043 0.21136628 0.020559926 0.013058225 0.3082372 -0.2705572 -0.63652766 0.44312897
0.06870459 0.32388943 0.487398 -0.071917295 0.33266452 -0.47140452 0.4210491 -0.47125098
-0.4256545 -0.27982748 -0.82055265 0.48922792 -0.4614131 0.28059784 0.16803375 -0.6358865
0.1767605 -0.81171846 -0.6483374 0.0075824996 -0.47428522 -0.077347 0.14119989 -0.61782557
-1.0072782 0.6148598 -0.8850332 -0.7684709 -0.10187353 0.31755772 -0.12010953 -0.44379222
0.27591133 -0.8031799 0.58193356 0.15738858 -0.23166877 0.034642596 0.037211042 -0.8291515
-0.32420078 -0.42382696 0.119760424 -0.8600152 -0.4957504 0.45159462 -0.66901094 -0.04761878
-1.1192173 -0.2522804 0.38646838 0.0077836607 -0.98273915 -0.090055116 -0.3182694 0.53404224
-0.4731543 -0.8247085 0.04112356 -0.48245338 -0.68773276 -0.66507584 -0.105437994 0.12431954
0.38502946 0.4990892 -0.73270273 0.560692 -0.22373486 -0.3512322 -0.9668811 0.4063231
-0.6000631 0.41149825 -0.90244037 -0.7814784 0.4860221 -0.31831273 0.082804844 -0.72141737
0.0882367 0.51143557 -0.61180454 0.5168312 -0.5464525 0.2530143 -0.9406591 -0.39684415
-0.50170225 0.28252792 -0.35323042 -0.21976466 0.4188847 -0.45982543 0.31934762 0.23705722
-0.05938115 0.46945208 0.0045162663 0.0686973 -0.33206537 -0.28462365 -0.7599836 -0.4613796

weight_mu f4 [128, 128]
00000000: ca47 bf3e cbb2 a0be 1606 40bd 4e13 f8bb
00000010: ff8a 57bf 0d0e 18bf af57 863e f827 e63e
00000020: dc2c 303f b8ec a0be 33b6 fd3e 00e1 2fbe
00000030: 9e8a 0cbd 576d 3c3e edd4 6dbd 93c9 a13e
00000040: 6aab 523f f27d bdbd b954 143f 141d 173d
00000050: a568 eebe 8f78 92bf a874 c2be b70b 943d
00000060: 93b5 32bf 6005 d4be 132a cd3e dc6a 91bd
00000070: 9bf7 a1be b9aa 8e3e 8f58 f7bd 70f8 983e
00000080: b762 b23f d633 64bf ad5c 23bf 068f 0a3d
00000090: ef19 e53a b0c0 39be 3da0 a33e b508 5c3f
000000a0: 3aae 523e 6bda 1ebf a3bf fb3e 6927 5fbf
000000b0: 905b 013f 61d4 68bf 3196 59be c764 a7be
000000c0: 538a 843f 2680 3fbf 9296 35be c6c1 553f
000000d0: 88d9 0cbe 4489 573e b065 a93d 4b49 06bf
000000e0: 419b cfbe 881c 973d e025 90be e99f f8bd
000000f0: 178b 133f d1f9 e6be 1b17 cebe 39be 323e
00000100: 7e5a 333d ee17 01bf f789 823e 8074 0f3f
00000110: 5f57 623f 0576 7dbb af36 9fbe 021f 293e
00000120: 4c98 8fbd 87c8 07be fdf1 b03e c290 8d3e
00000130: 4aa0 3bbf a312 bd3d 2134 3fbe a8bd 8bbb
00000140: 0728 2a3e ff5a 7e3d 3a44 7c3e e8c1 c6be
00000150: 1fed 073f cc11 bbbd 2a69 9d3e 3b39 04bf
00000160: fb83 cf3d ffce 97be bd36 1a3d 5655 27be
00000170: a33e 29be 8b37 d73e 4b50 adbd fa66 2dbf
00000180: 2e57 1cbf 6689 213e bb6b 15be 5294 80bf
00000190: 9fec 65bf 2afe 3bbd 6788 11bf dac4 17bf
000001a0: 13a6 4abf 0963 90be c0c9 04bc d3ff d03d
000001b0: e48f 853e b658 143e bfc1 dcbe 2bc5 e43e
000001c0: 7118 ed3d 8079 5dbf 9d74 2f3f 730e d63e
000001d0: 7cec 193e c693 b83e d403 09be fc54 2abf
000001e0: deb1 9cbe acb8 00be 2ec4 95be 7829 36bd
000001f0: c8d7 01bf 334a 97be a766 4f3e 2e48 273f
00000200: dd74 29bd 77ad 2dbc b5fa 16be 1072 ecbd
00000210: fc37 72bd d522 92bc b4ff 7dbc a4d5 37be
00000220: 908a d5bd c634 1abe 1b7b 50be d596 8fbd
00000230: 2f8f c9bc 578b 8a3d b1b6 febd a1a7 59bd
00000240: af9d babd b615 dbbd cdca 85bd cfbb 09be
00000250: 697a b4bd afad aebd b248 04bd 2abb 6dbd
00000260: 344c 5ebd 99a6 08be e533 2cbd 7a8c 853d
00000270: e12c 08bc 925a 32bd d563 35bd 9645 28be
00000280: 9a80 f5bd 1764 d4bd c622 6f3d c836 0fbd
00000290: 1fdb 2e3d 4bc8 78bc b9a7 10be c2f9 83bc
000002a0: 444d a3bd ce6e 1fbd 8d52 abbc 9a09 b2bd
000002b0: 9540 883c df11 9f3b 3979 f6bd 83ca 6bbd
000002c0: 580f 8bbd 4e15 05be 9aab da3d b89f e6bd
000002d0: b801 ddbc 7cba 68bd 6dd8 f03b 5af8 82bd
000002e0: 45b0 5f3b 5559 98ba 1e7e febd 87ab 57bd
000002f0: 97fe 763c e1c4 0fbc 3820 6cbd 4a77 33be
00000300: f7b7 8e3c 461c b53d 7026 6abd c9f5 90bd
00000310: 6c2a b2bd 21c2 04be 2366 a1bc 1667 cb3c
00000320: 7f38 6fbd 8958 18bd 28c4 aabd f054 92bd
00000330: 4b8e 64bc ddbb 3abd c3b8 bfbd caa0 73bd
00000340: 789b 82b9 ae13 debd b40f 46be 0135 94bd
00000350: d78c c9bc 6b8c a03b a348 d4bd 0337 b8bc
00000360: 56e9 d8bd d305 dcbd 98fb 463d ca8c d4bd
00000370: 08cd bfbd 53ec c5bd 2423 023c 0851 67bc
00000380: 7f50 a2bc 881c fcbd aea0 663d 2a8a 623c
00000390: a2d2 293c f737 8abd da66 23bd c8da b33d
000003a0: 4819 d3bd 98d6 02be e525 1cbd 283d 17be
000003b0: d767 373c 2f4f 0cbe c692 893c 4674 06be
000003c0: 88ed d9bd 8e5e b1bd b784 f6bd bd3b a4bd
000003d0: 238b 6dbd d2bd 39bc 1d02 c0bd a982 8bbd
000003e0: 6ae6 9bbd d9fa f6bd 724e 86bd 196a 0fbd
000003f0: c5ba 27bd 5044 093c 77d7 463c 3fdb 90bc
0.37359458 -0.31386408 -0.046880804 -0.0075706607 -0.84196466 -0.5939644 0.26238772 0.4495237
0.6881845 -0.31430602 0.4955307 -0.17175674 -0.034311883 0.18401085 -0.05806439 0.315991
0.8229281 -0.09252538 0.57941777 0.036892965 -0.46564212 -1.1443042 -0.37979627 0.07228797
-0.6980831 -0.4141035 0.40071163 -0.0710046 -0.3163422 0.27864626 -0.12077438 0.29877043
1.3936375 -0.89141595 -0.63813287 0.033827804 0.0017479042 -0.1813991 0.3195819 0.85950786
0.20574275 -0.6205203 0.49169645 -0.8716951 0.5053034 -0.90949064 -0.212487 -0.32694075
1.0354713 -0.74804914 -0.1773322 0.834988 -0.13754857 0.21048456 0.082713485 -0.52455586
-0.40548137 0.07378489 -0.28153896 -0.121398754 0.5763411 -0.4511247 -0.40252003 0.17455377
0.043787472 -0.5042714 0.25495884 0.5603714 0.8841457 -0.0038675081 -0.31096408 0.16515735
-0.0701147 -0.13260089 0.34559622 0.27649504 -0.73291457 0.0923207 -0.1867223 -0.004264552
0.16616832 0.0620985 0.24635401 -0.38819814 0.53096193 -0.09134254 0.30744296 -0.51649827
0.10132595 -0.29650113 0.03764986 -0.16341147 -0.165278 0.42034563 -0.0846258 -0.67735255
-0.61070526 0.1577507 -0.14591877 -1.0045264 -0.8981418 -0.045896687 -0.5684876 -0.59284747
-0.7915966 -0.28200558 -0.008104742 0.102050446 0.26086342 0.14486966 -0.43116567 0.44681677
0.115769275 -0.8651352 0.6853731 0.418079 0.15031618 0.36050242 -0.13380367 -0.66535926
-0.30604452 -0.12570447 -0.29251236 -0.04447314 -0.5071988 -0.29548797 0.20254003 0.6534451
-0.041371215 -0.010600439 -0.14744075 -0.11545193 -0.059135422 -0.017838875 -0.015502859 -0.17952591
-0.10426819 -0.15059194 -0.20359461 -0.07011191 -0.024604408 0.06764858 -0.12437189 -0.05313838
-0.09112107 -0.106975004 -0.06532822 -0.1345055 -0.088124104 -0.08529221 -0.03229589 -0.05803982
-0.05427189 -0.13344802 -0.042041678 0.065209344 -0.008311481 -0.043543406 -0.04428466 -0.16432795
-0.119874194 -0.10370653 0.058382772 -0.034964353 0.04268944 -0.015184472 -0.14126481 -0.016110305
-0.079737216 -0.03892403 -0.020913387 -0.086932376 0.016632358 0.0048544253 -0.1203484 -0.057566177
-0.06790036 -0.12996408 0.10677262 -0.11260933 -0.026978359 -0.05681847 0.0073500187 -0.063950256
0.0034132164 -0.0011623303 -0.12426399 -0.052653816 0.015075347 -0.008774967 -0.057647914 -0.17525974
0.017421706 0.08843283 -0.057165563 -0.0707813 -0.086994976 -0.1296468 -0.019702023 0.024829429
-0.05840349 -0.03719381 -0.08338195 -0.07145107 -0.013949941 -0.045589317 -0.093614124 -0.059479512
-0.00024911365 -0.10843597 -0.19341928 -0.07236672 -0.02460329 0.0048995516 -0.10365417 -0.02248717
-0.1059138 -0.107432984 0.048579782 -0.10378416 -0.093652785 -0.09664216 0.0079429485 -0.01411844
-0.019813774 -0.123101294 0.05630558 0.013826886 0.01036516 -0.06748956 -0.03989301 0.087819636
-0.103075564 -0.12777174 -0.038122077 -0.14769423 0.011194191 -0.13702081 0.01679362 -0.13130292
-0.106410086 -0.08660613 -0.12037032 -0.08019207 -0.05799402 -0.011336761 -0.09375403 -0.06812031
-0.07612307 -0.12059564 -0.06557931 -0.035013292 -0.0409496 0.008378103 0.012136332 -0.01768267

weight_sigma f4 [128, 128]
00000000: fb0b 023d aa31 ae3c c190 303d a14d 35be
00000010: 8ecb d7bd 8a1c 3dbc 54d5 8ebd a05a 0f3d
00000020: dcb8 17be 02c9 1cbd 3bd2 26bb 4ab1 f1bc
00000030: 7243 113d e344 1fbe 8220 d53c 2dd0 fabd
00000040: 94d5 903d 479a 8abd 398d 493d 465a d53c
00000050: df4c 08bd 3745 343e 36a2 23bc 33ab ebbc
00000060: 5abe 313d 6a43 92bc 0fa2 d3bb 53dc 11bc
00000070: 67d4 2abd 74fb 45bc 5f1f 94bc a408 2abd
00000080: a2fc 773d 80b4 443c 55fd 623e ce83 fb3c
00000090: 27ec 6f3d 8552 323d ec34 94bd 4a54 23bd
000000a0: 6b9b e7bd 0ad9 a73e e8b5 36bb b342 eabc
000000b0: 45f2 9ebd ff88 c13c 6403 a23c 26ce a6bd
000000c0: 783e 2abe af3e 4c3d 30ca 2e3c 512b d53d
000000d0: ce9c 98bd e7d4 0dbd a114 853d 86d0 673c
000000e0: 0309 bdbd c17c 2fbd 5b9a 0fbd 69d0 523d
000000f0: aa9e 183e ba14 3e3d 23cc 813c ca99 2e3e
00000100: 8e69 25bd 479a b93b 6684 5a3d 2db1 fb3b
00000110: 7eaf 153a 4d50 663d 9892 153d 2cd5 803d
00000120: 7e88 b63d f2b7 abbc 07d1 043d 8e78 10bc
00000130: 1a83 033e 3267 93bd e0c3 1c3c 266d 59bc
00000140: 6977 1e3e 0da1 e4bd 05ae 37bc fd0b 543d
00000150: 68fc b6bd 4d40 ea3d 2942 18bd 643a fdbc
00000160: 0d53 de3c 358a ef3c b8fe 9cbd fe6a 373c
00000170: 5879 0fbd 06c3 183c 0467 c63d 7fda 9c3b
00000180: f817 613d 9636 553d cdce 5e3c 3d85 87bb
00000190: ed1c 673d 0544 12bd 30d1 3f3d f167 323e
000001a0: c318 d53b f482 5b3d c3df abbc 7740 fc3c
000001b0: 5db7 90bc 9ffa e73a 608b 1abe 24aa 1f3d
000001c0: c249 b1bc 8a67 8ebd 2078 cd3c 4ac6 173c
000001d0: f58d 01bd f3b8 89bc bc59 a2bc d6f9 c73d
000001e0: d6e0 3b3d 2628 1dbe 8a19 9b3e 4fe3 4f3d
000001f0: 0b9f 9bbc 551b 033e 310a 983d 1e8e 1bbd
00000200: fb11 0a3c 8c1b 2c3d 2bc6 e83d 7b80 8e3d
00000210: 9a55 c33d e948 e13c 66b8 db3d c2f5 033c
00000220: 616e edbc da6a ee3c 444b 963d 2b6b 9a3d
00000230: aa3b ccbd bc32 993b 386c 8a3c 8b73 bd3d
00000240: 7c0c c33c 0a47 f93c 92c1 303d f003 4d3d
00000250: a26d 283d 8ff1 90bc 79e3 263d 2a2e 8a3d
00000260: c2ed c43c 6d68 3ebc ec51 013e 461b c93d
00000270: fb47 563d 1259 173d b3cc 05bc 3eed d03d
00000280: 3efb e53c 8163 c13c 3fbc ab3d ae40 193d
00000290: 1ba8 0b3d 8013 623d 5ef8 863d e6f4 943d
000002a0: 4fe0 c83d b36d 8d3d bf69 563d 5595 523d
000002b0: cbc8 303b fb6d 093c a32f 553d 711d 463e
000002c0: 7ec0 883c 448c 8b3d f828 c53c f90a 2bbd
000002d0: d897 3e3d 7257 933d 9308 013d 2ca3 b53d
000002e0: 02bb f13c 5825 3b3d 6bf8 2ebd 483e f3bc
000002f0: 3de0 093e 48a5 083e 3404 cdbb 0382 74bd
00000300: c6f2 073e d77f 033d 92c7 483d 6a82 6e3c
00000310: 507f 2dbd 01aa 233e 9cf3 2ebd 7826 ac3d
00000320: e3bf 8f3d 8a84 1ebc c37a 453d 5726 853a
00000330: 8049 e83d 07ba 4d3d f9ef bdbb 01a2 ed3c
00000340: 8426 25bd e909 8f3d 0190 8f3c a07c fe3d
00000350: d47a 25bd 7a5c ba3d 796c c63a eb92 c5bb
00000360: 81d5 d33c caf6 633d ad5c 8e3d 8d6f 473d
00000370: 4caa b8bc 19fd 093d da8c 3d3d d17f c83c
00000380: de6d 253d 4f70 6aba 8a4e ad3d 48c0 593d
00000390: a53d 403d a24e 003c 1d43 11bd 4285 953d
000003a0: e8e4 053d 1851 ae3d b341 cabd bea9 273c
000003b0: 7f52 973d 5fd4 0d3e b707 273d c85c 5bbd
000003c0: 1578 263d 0298 993c 6d72 c63c 2b0e 353d
000003d0: 9afe 0c3c 1e42 1b3e 4c61 1d3d 19ba 333d
000003e0: e590 223c 84eb 173d 0b12 743d cac5 043e
000003f0: 56ba 423d 7ddf d23c 45ef 513c 9cc9 953d
0.031749707 0.021263916 0.043106798 -0.17705394 -0.10536872 -0.011542449 -0.06974283 0.034998536
-0.14816612 -0.038277633 -0.0025454897 -0.029503483 0.03546471 -0.15553622 0.026016477 -0.12246738
0.07071987 -0.06767707 0.049206946 0.026044022 -0.033276435 0.17604528 -0.009987405 -0.028768158
0.043394424 -0.017854411 -0.006458528 -0.008902627 -0.04170647 -0.012083877 -0.018081365 -0.041512147
0.060543664 0.012005925 0.22166951 0.030702498 0.05857482 0.043535728 -0.072366565 -0.039875306
-0.113089405 0.32782775 -0.002787942 -0.028596258 -0.07761053 0.023624895 0.019777007 -0.081447884
-0.16625392 0.049864467 0.010668322 0.104086526 -0.07451783 -0.034626868 0.06498075 0.014148837
-0.092302345 -0.042843584 -0.035059314 0.051468287 0.14904276 0.046406485 0.01584441 0.17050853
-0.040383868 0.0056641432 0.05334892 0.007681033 0.00057100493 0.056228925 0.036516756 0.06290659
0.089127526 -0.020961735 0.032425907 -0.008817805 0.1284298 -0.07197417 0.009568185 -0.013270652
0.15475239 -0.111635305 -0.011210923 0.051769245 -0.089348614 0.11438046 -0.03717247 -0.030911632
0.027139211 0.029240707 -0.07665771 0.0111949425 -0.03502783 0.009323841 0.096876174 0.004786789
0.0549545 0.05205401 0.01359911 -0.0041357563 0.05642407 -0.0357094 0.046830356 0.17422463
0.006503196 0.053591684 -0.020980721 0.030792458 -0.01766556 0.0017698592 -0.1509223 0.038980618
-0.021641616 -0.06953342 0.025081694 0.009263584 -0.03162952 -0.016811823 -0.01981818 0.09764449
0.045868717 -0.15347347 0.30292922 0.050753888 -0.018996736 0.12803395 0.07423819 -0.03797733
0.008427138 0.04201846 0.113659225 0.069580995 0.095378116 0.027500587 0.107285306 0.008054199
-0.028983297 0.029103685 0.073385745 0.07539972 -0.099723175 0.0046752375 0.016897306 0.09250554
0.023809664 0.030429382 0.043153353 0.050052583 0.04112018 -0.01769331 0.04074428 0.06747086
0.024039153 -0.011621577 0.12628907 0.09819655 0.05231474 0.03695018 -0.00816648 0.102015
0.028073903 0.023607017 0.083855145 0.0374152 0.034095865 0.055194378 0.06590341 0.07273273
0.098084085 0.06905689 0.05234694 0.051411945 0.002697515 0.008388038 0.052047383 0.19347169
0.01669335 0.06813863 0.024067387 -0.04175851 0.04653153 0.07194413 0.031502318 0.08869013
0.029508118 0.04568991 -0.04271738 -0.029692784 0.13464446 0.133443 -0.0062566046 -0.0596943
0.13276204 0.03210434 0.04901845 0.01455746 -0.042357743 0.1598282 -0.042712793 0.08405775
0.07019021 -0.009675154 0.048212778 0.0010158521 0.11342144 0.050226238 -0.0057964292 0.029007914
-0.040319934 0.06984312 0.017524721 0.12426114 -0.04040034 0.0909967 0.0015138529 -0.006029477
0.025858643 0.05565528 0.0695127 0.048690367 -0.022542141 0.03368864 0.046276905 0.02447501
0.04038798 -0.0008943127 0.08462246 0.05316189 0.04693379 0.0078312475 -0.035464395 0.073008075
0.032689005 0.08511561 -0.098758124 0.010233341 0.07388782 0.13850544 0.04077884 -0.05355528
0.040641863 0.01874924 0.024224484 0.044202965 0.008605624 0.1516194 0.038422868 0.04387865
0.009922241 0.03708984 0.05958752 0.12966076 0.047540985 0.025741333 0.012813394 0.073138446

bias_mu f4 [128]
00000000: d170 71bd 1418 23be 809a 32be 0c93 4cbd
00000010: 0c5c 5cbd c74b f2bd 5c5d b23e a812 dabd
00000020: 7a4d d63e 08f7 01be d589 22be 7896 d33e
00000030: af54 febd cacf 21be 976f 0fbe a13b 08be
00000040: 062b b5bd f496 21be a69e 893e de2e ba3e
00000050: 95f3 823e 33af 1ebe f81a d53d 1536 52bc
00000060: 17a4 a23e 8005 dbbd d4d1 57be 478c 25be
00000070: 3fd5 12be 73bb 08be ba03 9b3e 01f1 c43e
00000080: f94b 29be 7b72 1dbe 0781 b43e e6a7 c7bd
00000090: 7402 74be ca9d 64bd 1df9 d63e 3da8 f2bd
000000a0: 3c07 fdbd c67f 23be 5ace 0ebd 3d41 95bd
000000b0: 03f1 d53e d1b8 91bd 5db8 06bd 615c dd3e
000000c0: 2907 8fbe 933f bf3e 06d8 393d 975b f3bd
000000d0: a27d 993e 3f01 3dbe 9ccc 933e 2038 5abe
000000e0: 18d6 2ebe 14e4 07bd 9d6f 14be faee 803e
000000f0: db54 08be 6340 b23e e6f1 aabb fa47 a63e
00000100: 51f3 99bd ef4d 3bbd 8311 28bd eef2 01be
00000110: 48be 943c e0f6 87bb ad55 e2bd dea2 e23d
00000120: b34f 00be a98c 36bd fd16 c1bd 2142 9abd
00000130: e690 5cbc 2d31 bd3e 8902 2bbd 5e1c 08be
00000140: 88d0 cabd 9104 d03e 0fa3 3dbe 5b61 1dbd
00000150: eaed ecbd 7c67 c33e f9fc 32be f893 843e
00000160: bd07 d23e 0bf7 dd3e 002a 00be 737e 06bd
00000170: e325 22be 2470 8ebc d833 f03e 0352 943e
00000180: 2b51 39be 9009 06bd fbf6 9d3e 04d2 1ebe
00000190: 6de0 ee3c c2fe f9bc 16b5 be3e 510e 59be
000001a0: d59d a13e e7cf 5fbe 2f91 25be 2470 08be
000001b0: 5535 4fbe f5a2 f23d abd0 e53e a8d6 4cbe
000001c0: ba19 dfbd 979c 8e3e 583f 3dbe ee68 59bd
000001d0: d272 0abd f984 88be 0b54 7e3e 47a6 f0bd
000001e0: ba61 ab3e 6f5e b73e d4fe d8bc 27db 1ebd
000001f0: 8274 40be 9417 b0bc 9739 c5bd 73ab c93e
-0.05894548 -0.15927154 -0.1744175 -0.049944922 -0.05379872 -0.1183086 0.34836853 -0.1064809
0.41855985 -0.12691891 -0.15872891 0.41325736 -0.12418496 -0.15801921 -0.14007412 -0.13303997
-0.08846097 -0.1578024 0.26878852 0.36363882 0.25576463 -0.1549652 0.104055345 -0.012830277
0.31765816 -0.106944084 -0.21076137 -0.16166793 -0.1433916 -0.13352756 0.3027628 0.3846512
-0.16532888 -0.15375702 0.3525469 -0.09748821 -0.23829061 -0.055814542 0.41986933 -0.11848495
-0.123548955 -0.1596671 -0.03486476 -0.07287834 0.4178544 -0.07115329 -0.032890666 0.43234542
-0.2793515 0.3735319 0.04537203 -0.11882704 0.29978663 -0.18457507 0.28867042 -0.21310472
-0.17073858 -0.033176497 -0.14495702 0.25182325 -0.1331362 0.34814748 -0.005216825 0.3247679
-0.07517112 -0.04572862 -0.041032325 -0.12690327 0.01815714 -0.004149303 -0.110514976 0.11066221
-0.12530403 -0.044567738 -0.09428213 -0.07532144 -0.013462281 0.3695158 -0.041750465 -0.13292071
-0.099030554 0.40628484 -0.18519233 -0.038422924 -0.11568816 0.3816489 -0.17479314 0.2589414
0.4102153 0.4335254 -0.12516022 -0.032835435 -0.15834765 -0.017387457 0.46914554 0.2896882
-0.1809737 -0.032723963 0.30852494 -0.15509802 0.029159749 -0.030516986 0.37247533 -0.21196868
0.3156573 -0.21856652 -0.16168664 -0.13324028 -0.20235188 0.11847488 0.44885764 -0.2000376
-0.10893579 0.27853844 -0.18481195 -0.053078584 -0.033800907 -0.2666395 0.24836747 -0.11750465
0.33472997 0.35814235 -0.026488699 -0.03878322 -0.18794444 -0.021495618 -0.09630125 0.39388618

bias_sigma f4 [128]
00000000: 955b b6bc 6b2c 033e d687 833d a28f 953c
00000010: aa4b 013d ddd5 873d 7392 e43c d5b5 f63d
00000020: 0d7a 8a3c 06b0 253c 0e2d d5bc 5b03 a13c
00000030: 20bc 933d a095 ebbc a6f3 873c 13e3 103e
00000040: 50d0 99bd 7a35 033d 926e 1f3c a409 5c3d
00000050: b31d f5bc 3f17 2ebe e9bb 0e3c 35fc f83c
00000060: 8cc9 31bc 652f 333d f1de 34be f1ce 05bc
00000070: dfc0 e73c 0dc2 313d c312 173d 0cf4 8fbc
00000080: b23b 9d3d 421c 383d 6481 82bd ac27 4cbd
00000090: 2c29 8e3d ce44 a63c 8187 d73c 56e6 963c
000000a0: 404b 3dbd 3f34 44bd 497c e6bc 2e84 3e3d
000000b0: adad f33b 8f5b 0dbc dcab a83d 1139 11bd
000000c0: c9c9 ed3b ca52 00bd 08dc 083d 0411 eb3c
000000d0: 6a0d 10bd 6c60 1fbd 859c 163d b3b1 78bc
000000e0: 27fb f9bc 6411 07bd 2b8d d03d 2fd8 c93d
000000f0: 8926 c63d 4867 d2bc 0b23 b43b 74b9 493b
00000100: 63bb 903d 5fcd 9f3b 7f48 a6bd 7bb6 bc3d
00000110: 2cf6 79bc d418 0d3c d780 303d 145c 21bd
00000120: 008e af3c 9a6a 483d 594e bb3c 3b12 ac3d
00000130: e5a7 363d b9cd 133d 655d 273d 0264 073d
00000140: 51a7 8d3d 338e fc3c 9298 ff3b eedc 443a
00000150: cfc9 e0bc cff0 3bbd 15a9 fa3b 164d bdbc
00000160: cd7c 703d c5fa 1a3d 63be d63d b99a 533c
00000170: 6b71 0fbd dc9e 873c 7407 883c 669b 5fbc
00000180: 5291 cf3d 68be afbc 710e 83bc 9bce 7cbd
00000190: 125e be3d 7ec9 e53b 8a6f 30bd caa0 803d
000001a0: 1a58 b73b 1a51 a43c 5fb9 233c 2738 77b9
000001b0: 2240 0d3d 022d 463c 7785 2f3d 0d0c 80bd
000001c0: 6458 3b3c c5f4 6c3c 51f7 f2bb ae60 5b3d
000001d0: ef92 013c c1fc 4ebe ec2b 133c b961 803d
000001e0: feba 7f3c 33ba aa3c 5b68 9abc 31f2 0d3d
000001f0: 5de9 91bc 8ef1 05bd e5d0 973d 6ef7 a13d
-0.022260467 0.12809913 0.06422393 0.018256966 0.0315663 0.06632588 0.027901864 0.120464005
0.016903901 0.010112768 -0.02602246 0.01965492 0.07213616 -0.02875787 0.016595673 0.14149122
-0.075104356 0.03203342 0.009730952 0.05372013 -0.029921388 -0.17001055 0.008711793 0.0303937
-0.010851275 0.04374637 -0.1766317 -0.008167014 0.02829021 0.043397952 0.036883127 -0.017572425
0.076774016 0.044948824 -0.063723356 -0.04984252 0.06941447 0.02029648 0.02630973 0.01842038
-0.046214342 -0.04790139 -0.028135436 0.046512775 0.0074364753 -0.008627786 0.082359046 -0.035454813
0.0072567207 -0.031328954 0.033412963 0.028694637 -0.035169043 -0.038910314 0.036770362 -0.015179086
-0.030515267 -0.03297557 0.10183176 0.09855687 0.09675319 -0.025684014 0.0054973415 0.0030780705
0.07066991 0.004876777 -0.08119296 0.09214493 -0.015256446 0.0086118765 0.04309162 -0.039394453
0.021430016 0.04892979 0.022864508 0.08401915 0.04459371 0.036084864 0.040860552 0.03305436
0.06916679 0.030829525 0.00780017 0.0007509728 -0.02743998 -0.04588395 0.0076495507 -0.023108047
0.05871277 0.03783681 0.10485532 0.012915307 -0.035020273 0.016555242 0.016605116 -0.01364789
0.101351395 -0.021453097 -0.015998097 -0.06172047 0.09295286 0.007012545 -0.043075122 0.06280668
0.0055952193 0.020058203 0.009992926 -0.00023576674 0.03448499 0.012095692 0.04285189 -0.062522985
0.011434648 0.0144626545 -0.0074147363 0.053558998 0.007908567 -0.20213605 0.00898264 0.06268639
0.015608547 0.02084074 -0.018848589 0.0346548 -0.017811472 -0.032701068 0.0741289 0.079085216

weight_epsilon f4 [128, 128]
00000000: 9517 813f fdbe 293f ff62 3f3f b1d6 64bf
00000010: db07 b2be 9cd3 3c3f 62cc 923f 2187 8b3f
00000020: 69fd 23bf 55ed aebf a89f 7fbf 6182 44bf
00000030: 2168 083f e7b3 763f f996 90bf d96c b6bf
00000040: fb48 293f 85e6 a4be 3323 bcbe 3202 f53e
00000050: d34e 4fbf 3032 43bf 9bf0 903f 4173 993f
00000060: bb37 8c3f 010b 2e3f 8360 dfbf 1467 b03f
00000070: f494 24bf f7e4 49bf 5ab5 8cbe bc47 99bf
00000080: ea1f 5fbf 0e91 983e 420a d53e fceb 8cbf
00000090: f6ee 723f 2c6b 093f c82d 7ebf 25fc 45bf
000000a0: c7a5 b53e 5f44 213f c340 7cbf 1c94 9ebf
000000b0: 0b29 e9be 4692 73bf ab15 1abf cfd2 ef3e
000000c0: 47a8 583f b1aa ac3f dedd 7a3f 4789 6ebf
000000d0: 708e 5d3f 897e 2a3e 7ebb 7c3f 8a19 28bf
000000e0: 88df 7ebf 177a 2cbf 3020 86be 9df6 52bf
000000f0: 4741 953f 586a 993f 1975 a9bf 16a1 143f
00000100: 5b74 b3bf 5f4a 11bf 43e8 06bf 10f7 a6bf
00000110: 5f8c 893f c487 bdbf 822e 10bf 0513 22bf
00000120: d487 11bf 161b 333f 6bfe 4bbf 74ac 9a3f
00000130: f7a0 4d3f 5891 633f 7615 25be 9511 ac3e
00000140: 9bbe 58bf 82cf f83e 9a73 95be d4a5 ef3e
00000150: db39 173f 196a 05bf c505 093f cecb c03f
00000160: e888 903f c421 78bf deb3 933f a8ab 9ebf
00000170: d34a 8a3f c5f9 c5be aef9 313f cbbf 1bbf
00000180: 2d43 70bf ae7e 483f 3b06 2cbf 9c3e b3bf
00000190: 4de8 983e ace7 dabf d685 883f dfc2 0d3f
000001a0: 379e bb3e 19a1 cdbe 068a 2dbf a139 a9bf
000001b0: c880 7ebf 20bc 12bf f464 923f 2b70 f13e
000001c0: a0a7 afbf 2b79 67bf 8675 8ebf 87b5 2f3f
000001d0: 41a8 233f 73d9 ba3e a3a4 a0bf e572 8fbf
000001e0: a1a3 11be 2656 213f fd48 0cbf 80ac 83bf
000001f0: f87b 16bf 706c 8dbf 6421 a9bf 5236 68bf
00000200: 39fd dc3d af4a 913d 93d0 a33d 07df c3bd
00000210: 0262 18bd 9b9f a13d cc4c fb3d 92da ee3d
00000220: 655d 8cbd f3b9 15be 26cc dabd 0933 a8bd
00000230: c882 693d 6729 d33d e384 f7bd ee24 1cbe
00000240: ade5 903d ec24 0dbd 9c08 21bd 2db6 513d
00000250: 3971 b1bd 4713 a7bd 531e f83d f357 033e
00000260: e308 f03d 3af8 943d 4632 3fbe 47fd 163e
00000270: 1bdf 8cbd 04cf acbd eedf f0bc b232 03be
00000280: fcfa bebd 5696 023d 4159 363d 763d f1bd
00000290: 79ef cf3d 3b3e 6b3d 908f d9bd 6176 a9bd
000002a0: 8a7a 1b3d c608 8a3d 91e9 d7bd abbb 07be
000002b0: fe91 47bd 427b d0bd f6e2 83bd 0546 4d3d
000002c0: dd71 b93d abca 133e cdb9 d63d f72b ccbd
000002d0: 58a3 bd3d a2ee 913c 9e52 d83d f3e1 8fbd
000002e0: b427 dabd 12a1 93bd 269b e5bc 3392 b4bd
000002f0: 6281 ff3d 5250 033e 700b 11be 286f 7e3d
00000300: ff99 19be feb7 78bd a6f1 66bd 52e9 0ebe
00000310: 1077 eb3d cf39 22be 0ed2 76bd a7b9 8abd
00000320: 3321 79bd 974d 993d 0b9b aebd 0664 043e
00000330: 4a01 b03d 8dc8 c23d 194d 8dbc 9e47 133d
00000340: fa84 b9bd 45f7 543d 88d7 ffbc 851f 4d3d
00000350: 9470 813d 6f63 64bd a590 6a3d 6805 253e
00000360: cf6c f73d 8f62 d4bd 11d9 fc3d d2cf 07be
00000370: 19bd ec3d 5974 29bd e055 983d b34f 85bd
00000380: 33a6 cdbd 599c ab3d e73d 93bd ff6b 19be
00000390: 03e1 023d 5d5e 3bbe a3b5 e93d 51ad 723d
000003a0: c996 203d 6801 30bd d489 94bd 89d8 10be
000003b0: 9ad6 d9bd f730 7bbd bd9b fa3d d4a7 4e3d
000003c0: 6759 16be 5620 c6bd 26df f3bd 4d65 963d
000003d0: 8214 8c3d 5eee 1f3d 0d80 09be e390 f5bd
000003e0: cb50 79bc fe17 8a3d 6f26 70bd a168 e1bd
000003f0: 0cce 80bd 5b19 f2bd cac3 10be 3dc2 c6bd
1.0085322 0.6630705 0.7476043 -0.89390093 -0.34771618 0.7376039 1.1468623 1.0900613
-0.6405855 -1.3666178 -0.9985299 -0.7676144 0.5328389 0.9636826 -1.1296073 -1.4251968
0.66126984 -0.32207122 -0.36745605 0.47853237 -0.8097965 -0.76248455 1.1323427 1.1988298
1.0954508 0.6798554 -1.7451328 1.3781457 -0.64289784 -0.78865 -0.2748211 -1.1975017
-0.8715807 0.29798168 0.4160939 -1.1009517 0.94895875 0.53679156 -0.99288607 -0.7733787
0.3547804 0.6299495 -0.9853632 -1.2388949 -0.45539126 -0.9514507 -0.6018931 0.46840522
0.8463177 1.3489591 0.9799479 -0.9317822 0.8654547 0.16649832 0.9872359 -0.6566397
-0.9955983 -0.67373794 -0.26196432 -0.8240755 1.1660546 1.1985579 -1.323886 0.580583
-1.4019884 -0.56754106 -0.52698153 -1.3044147 1.0745963 -1.4807057 -0.56320965 -0.6331027
-0.5684788 0.69963205 -0.79685086 1.2083879 0.8032374 0.8889365 -0.16121468 0.33607164
-0.8466584 0.48595816 -0.2918976 0.46806204 0.59072655 -0.5211502 0.5352443 1.5062196
1.129178 -0.9692652 1.1539266 -1.2396135 1.0804085 -0.38667122 0.69521606 -0.6083953
-0.938525 0.783183 -0.67197007 -1.4003482 0.2986473 -1.7101951 1.0665843 0.55375475
0.36644146 -0.4016197 -0.6778873 -1.3220712 -0.99415255 -0.57318306 1.1437058 0.4715589
-1.372303 -0.9041926 -1.1129615 0.68636364 0.6392861 0.36494026 -1.2550243 -1.1206938
-0.14222576 0.6302208 -0.5479887 -1.0287018 -0.5878291 -1.1048717 -1.3213315 -0.90707886
0.10790486 0.07094323 0.07998767 -0.095640235 -0.037202843 0.078917705 0.12270507 0.11662783
-0.06853751 -0.14621715 -0.106834695 -0.08212859 0.05700949 0.10310631 -0.12085893 -0.15248463
0.07075057 -0.03445904 -0.03931485 0.051199127 -0.08664174 -0.08157974 0.12115159 0.12826519
0.11720445 0.07273908 -0.18671522 0.14745055 -0.068784915 -0.084379226 -0.029403653 -0.12812307
-0.09325215 0.031881653 0.044518713 -0.11779301 0.10153098 0.057432394 -0.106230855 -0.08274532
0.03795866 0.06739955 -0.10542596 -0.13255183 -0.048723213 -0.101797596 -0.06439774 0.050115604
0.09054921 0.1443278 0.104846574 -0.09969323 0.09259671 0.017813984 0.10562633 -0.07025518
-0.10652104 -0.07208456 -0.028028082 -0.08816948 0.1247585 0.12823609 -0.1416452 0.062117726
-0.15000151 -0.060722344 -0.056382798 -0.13956192 0.11497319 -0.15842365 -0.060258918 -0.067736916
-0.060822677 0.07485502 -0.08525666 0.12928781 0.08593996 0.09510908 -0.017248677 0.03595697
-0.090585664 0.051993627 -0.031230703 0.050078887 0.06320301 -0.05575889 0.05726685 0.16115344
0.120813005 -0.10370361 0.1234609 -0.13262871 0.11559505 -0.041370723 0.07438254 -0.06509342
-0.100414656 0.0837943 -0.07189541 -0.14982603 0.03195287 -0.18297715 0.114115976 0.05924732
0.0392063 -0.04297009 -0.07252851 -0.14145102 -0.10636635 -0.061325993 0.12236736 0.050453022
-0.14682542 -0.09674136 -0.119077966 0.0734354 0.06839849 0.039045684 -0.13427754 -0.119905256
-0.015217016 0.067428574 -0.058630403 -0.110062845 -0.062893 -0.118212424 -0.14137188 -0.09705017

bias_epsilon f4 [128]
00000000: c2d1 76bf f542 d3bd b911 283f 8869 a1bf
00000010: 4164 67bf a815 1abf 3924 bfbe 80a1 24bf
00000020: 070a 7abf a599 f7be 61e1 08bf cc35 19bf
00000030: 609b 6d3f eabc 86bf 6648 4b3f 4235 37bf
00000040: 0838 ac3f 4d49 82bf cd76 15bf c779 8abf
00000050: 1655 94bf 8ab7 acbf 325a e0be 6c89 9b3f
00000060: b910 ffbe dcdd 9bbf e81e bfbf b30f 5d3f
00000070: 1968 c63f 0ccd c43f 9240 13bf 1276 a83f
00000080: 42a1 39bf 785f b7be ccf8 b23f d38a 87bd
00000090: 790a d83e e069 6cbf f3ba 28bf eb4c 8ebf
000000a0: f999 ebbe c1e3 9dbe 6666 b83f 510a 4e3f
000000b0: ca65 823f 4d22 2ebf 05e4 18bf bc2d 653f
000000c0: 7934 86be df44 fdbe d69a 5b3f 030d 6a3f
000000d0: 895c 97be 9da4 fbbe ed3c 523f f4c7 92bf
000000e0: 5c73 4e3f c87b ba3f 0b66 563f 12bc 92bf
000000f0: 25ff 21bf 1eed 48bf e8af 43be 8e6f 7fbf
00000100: 70e0 3bbf a0e6 98bf 5d1d c1bd f3a5 613f
00000110: 3e25 023f 5fc4 953f 29d3 54be 8aef 7ebf
00000120: 0491 a33f 1096 2abf 0385 9bbf 2016 813f
00000130: 4f95 b63f 4dec 5d3f c7cc 9f3f 97cc 933e
00000140: e3da 523f 8916 b3bf 6f28 9b3f 6986 9c3f
00000150: 38b5 ae3f 05df 653f d6f3 fbbe a14f 58bf
00000160: 30c3 8abf 4d11 783f 5fa1 1dbe da9c 84bf
00000170: 3b89 6bbf 334a 4cbf 44ff b43f bb9f 0d3f
00000180: 8d14 87bf c626 4a3f 1de4 48bf 8ab4 5d3e
00000190: afe1 3f3f 2cb5 a43f f04d 2abf 0c7b 89bf
000001a0: 58d7 9ebf 3023 9abf 5afe 083f 56fe 9cbf
000001b0: b86d b0be 1645 a63f 03b3 58bf 0c1b 89bf
000001c0: 91d7 a2bf cb3e 19bf a871 ddbe c24e 0d3f
000001d0: a212 10bf 437e d7be 1c35 5fbf 60fe d73e
000001e0: 3193 393f 44dd c43f df69 44bf d55f ec3e
000001f0: 5645 93bf 030f 093e 6f87 8bbf 5448 0abf
-0.96413815 -0.103155054 0.6565204 -1.261033 -0.9038735 -0.60189295 -0.37332323 -0.6430893
-0.9767155 -0.4835941 -0.534689 -0.5984771 0.9281521 -1.0526402 0.79407346 -0.7156564
1.3454599 -1.017862 -0.583844 -1.0818413 -1.1588466 -1.3493512 -0.43818814 1.2151313
-0.49817446 -1.2177081 -1.4931307 0.8635208 1.5500518 1.5375075 -0.575204 1.3161032
-0.72511685 -0.35815024 1.3982177 -0.066182755 0.4219549 -0.9234905 -0.6591026 -1.1117224
-0.4601591 -0.30837825 1.440625 0.8048449 1.0187314 -0.6802109 -0.5972293 0.8952291
-0.26211908 -0.49466607 0.85783136 0.91426104 -0.29562786 -0.49149027 0.82124215 -1.1467271
0.80644774 1.4569025 0.83749455 -1.1463645 -0.63279945 -0.7848681 -0.19110072 -0.99779594
-0.7338934 -1.1945381 -0.09429429 0.88143843 0.5083808 1.1700553 -0.20783676 -0.9958426
1.277863 -0.6663523 -1.2149967 1.0084877 1.4264315 0.8668869 1.2484368 0.28867027
0.82365245 -1.3991252 1.2121714 1.2228519 1.3649054 0.89793426 -0.4920947 -0.84496504
-1.0840816 0.969014 -0.1539359 -1.0360367 -0.9200627 -0.7980072 1.4140401 0.55321854
-1.0553147 0.78965414 -0.78473073 0.21650901 0.7495374 1.2867789 -0.66525173 -1.0740676
-1.2409468 -1.2041988 0.5351311 -1.2265117 -0.3445871 1.2989833 -0.8464815 -1.0711379
-1.2722036 -0.5986144 -0.43250775 0.551983 -0.5627843 -0.42088518 -0.87190413 0.4218626
0.7249022 1.5380025 -0.76724046 0.46166864 -1.1505535 0.13384633 -1.0900706 -0.54016614

epsilon_in f4 [128]
00000000: d0e4 85bf 540f 30bf 6781 46bf b859 6d3f
00000010: 15a7 b83e a3d9 43bf 3742 98bf bbb7 90bf
00000020: f116 2a3f 026f b53f de90 843f 90d1 4b3f
00000030: 027b 0dbf 09e1 7fbf c6f7 953f ec35 bd3f
00000040: ef94 2fbf b808 ab3e aa22 c33e 321f febe
00000050: d504 573f de74 4a3f bd54 96bf 6d28 9fbf
00000060: e66e 91bf 4384 34bf 88af e73f cef6 b6bf
00000070: 1fb4 2a3f 6d67 513f 31f1 913e 49fb 9e3f
00000080: 886c 673f d03d 9ebe daf6 dcbe dc29 923f
00000090: 33f8 7bbf b087 0ebf 0dd1 833f 6159 4d3f
000000a0: 7267 bcbe f943 27bf 5fd1 823f 1d7a a43f
000000b0: 39d5 f13e 96a1 7c3f e1d0 1f3f 6fbe f8be
000000c0: 50b7 60bf d816 b3bf 5319 82bf a668 773f
000000d0: 1fcc 65bf 00d6 30be 0511 83bf 345a 2e3f
000000e0: 3b2d 843f 6fe4 323f 591d 8b3e 6ecf 5a3f
000000f0: 80ce 9abf 2f1f 9fbf b1c2 af3f 5a28 1abf
00000100: 2421 ba3f d8b1 163f ddec 0b3f ec2c ad3f
00000110: 1faa 8ebf 7f94 c43f 6c8b 153f 4f1a 283f
00000120: 96f1 163f 8dc4 39bf df94 533f 466d a0bf
00000130: fc46 55bf 4508 6cbf 6839 2b3e 0a78 b2be
00000140: 79ce 603f 5b08 01bf b202 9b3e c88f f8be
00000150: d9d9 1cbf 7c60 0a3f 841e 0ebf a2f7 c7bf
00000160: 2fe9 95bf 41ae 803f 4f32 99bf 8992 a43f
00000170: a96f 8fbf eb56 cd3e 6198 38bf db8a 213f
00000180: fb32 793f d1f3 4fbf 446c 323f 66e9 b93f
00000190: 4e98 9ebe 1c0c e33f d299 8dbf bd08 13bf
000001a0: bc98 c2be 2047 d53e 7cfe 333f 0285 af3f
000001b0: 18fc 833f 5a31 183f f0d6 97bf 2b6b fabe
000001c0: 3b30 b63f 4915 703f 09c2 933f a63e 36bf
000001d0: 9ebe 29bf a7cc c1be 4c9e a63f d5c8 943f
000001e0: 6c0e 173e 6a56 27bf cd80 113f 5092 883f
000001f0: e614 1c3f 17af 923f df6b af3f 79d9 703f
-1.0460453 -0.6877339 -0.775412 0.92715025 0.36064973 -0.7650396 -1.1895207 -1.130607
0.66441256 1.4174502 1.035671 0.7961664 -0.5526582 -0.9995275 1.171624 1.4782081
-0.6858663 0.3340509 0.38112384 -0.49633175 0.8399175 0.79084575 -1.174461 -1.2434212
-1.1361969 -0.70514315 1.8100443 -1.4294069 0.6668109 0.8179844 0.28504327 1.2420436
0.9039998 -0.30906534 -0.43157083 1.1419024 -0.98425597 -0.5567579 1.0298172 0.80214506
-0.36797673 -0.65338093 1.0220145 1.2849766 0.47232988 0.9868406 0.624281 -0.4858279
-0.8777971 -1.3991346 -1.0163978 0.96644056 -0.8976459 -0.17269135 -1.0239569 0.6810639
1.0326303 0.6987981 0.27170828 0.8547276 -1.2094269 -1.2431391 1.373129 -0.6021782
1.4541364 0.5886512 0.546583 1.3529334 -1.1145667 1.5357817 0.58415866 0.65665144
0.5896238 -0.7256554 0.82649034 -1.2533348 -0.8331144 -0.9220012 0.16721117 -0.34857208
0.8781505 -0.50403374 0.30275494 -0.48547196 -0.6126991 0.54053473 -0.55515313 -1.5622447
-1.1711787 1.0053178 -1.1968478 1.2857219 -1.1205951 0.40105376 -0.7210751 0.631025
0.97343415 -0.8123141 0.6969645 1.4524353 -0.30975574 1.773807 -1.1062567 -0.5743521
-0.38007152 0.41655827 0.7031019 1.3712466 1.0311308 0.59450305 -1.1862469 -0.48909888
1.4233469 0.9378248 1.154359 -0.71189344 -0.66306484 -0.3785145 1.3017058 1.1623789
0.14751595 -0.6536623 0.5683716 1.0669651 0.6096939 1.1459683 1.3704795 0.94081837

epsilon_out f4 [128]
00000000: c2d1 76bf f542 d3bd b911 283f 8869 a1bf
00000010: 4164 67bf a815 1abf 3924 bfbe 80a1 24bf
00000020: 070a 7abf a599 f7be 61e1 08bf cc35 19bf
00000030: 609b 6d3f eabc 86bf 6648 4b3f 4235 37bf
00000040: 0838 ac3f 4d49 82bf cd76 15bf c779 8abf
00000050: 1655 94bf 8ab7 acbf 325a e0be 6c89 9b3f
00000060: b910 ffbe dcdd 9bbf e81e bfbf b30f 5d3f
00000070: 1968 c63f 0ccd c43f 9240 13bf 1276 a83f
00000080: 42a1 39bf 785f b7be ccf8 b23f d38a 87bd
00000090: 790a d83e e069 6cbf f3ba 28bf eb4c 8ebf
000000a0: f999 ebbe c1e3 9dbe 6666 b83f 510a 4e3f
000000b0: ca65 823f 4d22 2ebf 05e4 18bf bc2d 653f
000000c0: 7934 86be df44 fdbe d69a 5b3f 030d 6a3f
000000d0: 895c 97be 9da4 fbbe ed3c 523f f4c7 92bf
000000e0: 5c73 4e3f c87b ba3f 0b66 563f 12bc 92bf
000000f0: 25ff 21bf 1eed 48bf e8af 43be 8e6f 7fbf
00000100: 70e0 3bbf a0e6 98bf 5d1d c1bd f3a5 613f
00000110: 3e25 023f 5fc4 953f 29d3 54be 8aef 7ebf
00000120: 0491 a33f 1096 2abf 0385 9bbf 2016 813f
00000130: 4f95 b63f 4dec 5d3f c7cc 9f3f 97cc 933e
00000140: e3da 523f 8916 b3bf 6f28 9b3f 6986 9c3f
00000150: 38b5 ae3f 05df 653f d6f3 fbbe a14f 58bf
00000160: 30c3 8abf 4d11 783f 5fa1 1dbe da9c 84bf
00000170: 3b89 6bbf 334a 4cbf 44ff b43f bb9f 0d3f
00000180: 8d14 87bf c626 4a3f 1de4 48bf 8ab4 5d3e
00000190: afe1 3f3f 2cb5 a43f f04d 2abf 0c7b 89bf
000001a0: 58d7 9ebf 3023 9abf 5afe 083f 56fe 9cbf
000001b0: b86d b0be 1645 a63f 03b3 58bf 0c1b 89bf
000001c0: 91d7 a2bf cb3e 19bf a871 ddbe c24e 0d3f
000001d0: a212 10bf 437e d7be 1c35 5fbf 60fe d73e
000001e0: 3193 393f 44dd c43f df69 44bf d55f ec3e
000001f0: 5645 93bf 030f 093e 6f87 8bbf 5448 0abf
-0.96413815 -0.103155054 0.6565204 -1.261033 -0.9038735 -0.60189295 -0.37332323 -0.6430893
-0.9767155 -0.4835941 -0.534689 -0.5984771 0.9281521 -1.0526402 0.79407346 -0.7156564
1.3454599 -1.017862 -0.583844 -1.0818413 -1.1588466 -1.3493512 -0.43818814 1.2151313
-0.49817446 -1.2177081 -1.4931307 0.8635208 1.5500518 1.5375075 -0.575204 1.3161032
-0.72511685 -0.35815024 1.3982177 -0.066182755 0.4219549 -0.9234905 -0.6591026 -1.1117224
-0.4601591 -0.30837825 1.440625 0.8048449 1.0187314 -0.6802109 -0.5972293 0.8952291
-0.26211908 -0.49466607 0.85783136 0.91426104 -0.29562786 -0.49149027 0.82124215 -1.1467271
0.80644774 1.4569025 0.83749455 -1.1463645 -0.63279945 -0.7848681 -0.19110072 -0.99779594
-0.7338934 -1.1945381 -0.09429429 0.88143843 0.5083808 1.1700553 -0.20783676 -0.9958426
1.277863 -0.6663523 -1.2149967 1.0084877 1.4264315 0.8668869 1.2484368 0.28867027
0.82365245 -1.3991252 1.2121714 1.2228519 1.3649054 0.89793426 -0.4920947 -0.84496504
-1.0840816 0.969014 -0.1539359 -1.0360367 -0.9200627 -0.7980072 1.4140401 0.55321854
-1.0553147 0.78965414 -0.78473073 0.21650901 0.7495374 1.2867789 -0.66525173 -1.0740676
-1.2409468 -1.2041988 0.5351311 -1.2265117 -0.3445871 1.2989833 -0.8464815 -1.0711379
-1.2722036 -0.5986144 -0.43250775 0.551983 -0.5627843 -0.42088518 -0.87190413 0.4218626
0.7249022 1.5380025 -0.76724046 0.46166864 -1.1505535 0.13384633 -1.0900706 -0.54016614

weight_mu f4 [3, 128]
00000000: dfea a63f cdd8 98bb 9de5 68bc 879a d33c
00000010: e50c 4dbd f538 873d a057 58be 27b6 89bd
00000020: dcc1 39be d44c 55bd 357d cd3e 91f3 6cbe
00000030: 3aa7 71be f170 303f c0cf c03d d0aa 933c
00000040: c558 243d 87e4 cbbc f364 32be 98e1 96be
00000050: 27cc 5dbe 0fe5 8b3c ca71 d43d c110 973d
00000060: b54b 3ebe d6a9 5e3d 2cca be3c 40b6 343d
00000070: 2a7f b83e 822e 4a3d fa4e 31be 936a 91be
00000080: 8d91 8ebe 394d 84bd 5007 8fbe 19be d73e
00000090: 1143 10be 3c09 de3c 082d 84be 64a9 1d3d
000000a0: 8119 0e3d e64e 5e3d f252 eb3d 60fe 58bc
000000b0: c47b 51be bb95 643d 0c9e 163d 2ff3 1bbe
000000c0: cc0a 55bc ee8d 12be 0c86 1bbf b5dc 30bd
000000d0: 3abf 0ebe c0fb e63d 2e65 0fbe 0a6a 283f
000000e0: 6dd5 9fbc e265 9bbd 7b61 65bc 0c56 30be
000000f0: 34e9 7d3d ff0c 45be 90f9 353f bc8a 14be
00000100: 73ee a63c be02 653c ec2c 7bbc ab2b 0e3d
00000110: 5c15 0b3f 98fe f9be cc8d 3abd c2c2 f6bc
00000120: d19d 293b adb4 103c c220 2e3d 9997 043b
00000130: 5528 3a3f 5fb2 45be f41e 2e3c fbad debd
00000140: 9815 cc3c ff29 32be a57c 26bc 8f5b 07be
00000150: b5e7 42bd 0727 41be 8c36 3fbb fed9 82be
00000160: cd32 50be 6ece 9cbe 2d1d b6bc e298 7bbf
00000170: 5664 9a3d 4d45 c23c 5500 40be 71fd 75be
00000180: b5ef 853b 1308 9b3d e2e4 13be be7f f63d
00000190: 9ee3 b8bc 35ad 37bf f011 67be 6c67 1b3e
000001a0: 73fa 2ebe aa1c 433d 844b 323b d3ae 1b3d
000001b0: 6569 2abd d121 c73f 3078 79be 301a af3c
000001c0: 1be2 813c d7a9 82be 9168 d4bb 1b63 41bd
000001d0: 1744 c73d 71f6 583e 508b fcbd 5a9b 8fbc
000001e0: 1000 38be c829 6dbe 4bdd 52bf 9e55 7a3e
000001f0: 892b 17bc 2ed8 893d 19be 36bb 1031 66be
00000200: 98b1 1f3f c58e c0bd 2627 b3bc 4cce 8fbc
00000210: bcd0 ccbc aa59 7b3b d688 7cbe c88e 6c3d
00000220: 4d2a 45be 04f4 4f3b 98f5 d6bd b9ac 5cbe
00000230: f79f 32be 13d8 873e f79d 943d 4ddb 5abc
00000240: 7d86 68bd fc29 813d ca01 2cbe 7f62 30be
00000250: 6ce3 43be d0ba 9fbd f96e 73be 55e3 263d
00000260: ad67 39be e6aa 87bd 21c2 58bd 2d5e 9cbd
00000270: 681f f83e 9337 0dbd 97ce 26be e775 60be
00000280: e950 43be c85a 9dbc 548c 70be b282 28be
00000290: 6967 a7bd 20c6 233d 1105 88be 2080 03be
000002a0: 7b6a 373d c71d 853d 70d9 8dbe 2118 0c3d
000002b0: 4573 61be 3b6b 693c b5a0 9f3d bc39 40be
000002c0: c29a 86be 306a 11be 9592 a3be ab02 0cbf
000002d0: 4ad2 25be e9eb 223c 1a14 44be e902 713e
000002e0: f0d5 8e3d 19d1 c0be 3c9b 423d 03e5 59be
000002f0: 35ed 26be b410 4ebe ffce 073f 6834 51be
00000300: b7ee e5bd d4ff c1bc 7967 3d3c 18d0 02bd
00000310: 19d5 6e3f 4255 73be ee4b d5bd b9ea 9cbd
00000320: 9203 b1bd f20a 32bd 77c8 2fbc 191c 2d3d
00000330: f897 17bd 7e7f 03be ac91 ce3c f688 363e
00000340: 0a51 6d3c f5b6 49be df9e 053d 6c26 1ebe
00000350: afb7 ad3d 069a 34be b94b a43d e3ad 55be
00000360: 0e33 3dbe b564 65be 2a34 0a3c 3f03 03bf
00000370: 3281 8dbc 6de8 6ebc 2eb1 95be 02f2 52be
00000380: 53a0 353c 44de fbbc fb16 49be b889 d5bd
00000390: be02 97be 9888 b1be bccf 96be a150 cb3e
000003a0: 80df 4bbe 1058 ce3d df91 2abd 9ced 03be
000003b0: 1f4a 343b 3360 ebbd 9929 8fbe 5b93 0cbd
000003c0: 9367 21bd 7a7d c0bd 6844 a03c f27f d1bb
000003d0: c737 ec3d e833 dc3d f78b 2abe 36d4 833b
000003e0: c696 85be 5dfe 4cbe b9b6 e7be 2b1d 00be
000003f0: e2b7 943d 3a0b 13bd 8b15 4a3d 099f 56be
1.3040427 -0.0046645165 -0.0142149 0.02583052 -0.050061125 0.066026606 -0.21127176 -0.06724196
-0.18140358 -0.052075222 0.40134588 -0.23139788 -0.23598948 0.68922335 0.09414625 0.018025786
0.04012372 -0.024889244 -0.17421322 -0.2946899 -0.21659909 0.017076997 0.10373266 0.073762424
-0.18583567 0.054361187 0.023289762 0.04411912 0.36034518 0.04936076 -0.17315283 -0.28401622
-0.2784542 -0.064600416 -0.27935266 0.4213722 -0.14088084 0.027104013 -0.25815606 0.03849162
0.03469229 0.054274462 0.1149043 -0.0132442415 -0.20457369 0.055806857 0.03677182 -0.15229486
-0.013003062 -0.14311954 -0.60751414 -0.043179233 -0.13940135 0.11278486 -0.1400344 0.657868
-0.019510949 -0.07587792 -0.014000292 -0.17220324 0.061989978 -0.19243239 0.7108393 -0.14506048
0.020377373 0.013977705 -0.015330534 0.034709614 0.54329467 -0.48827052 -0.045545384 -0.030122165
0.002588142 0.008832139 0.04251171 0.002023196 0.7271779 -0.19306324 0.010627497 -0.10873028
0.02491264 -0.17398833 -0.0101615535 -0.1321852 -0.047584254 -0.18862544 -0.00291768 -0.2555694
-0.20331879 -0.30626243 -0.022230709 -0.98280156 0.07538669 0.023714686 -0.18750127 -0.24022461
0.004087413 0.075698994 -0.1444278 0.12036084 -0.022569474 -0.7174867 -0.22565436 0.15176171
-0.17087726 0.047634758 0.0027205655 0.038008522 -0.04160442 1.5557195 -0.24362254 0.021374792
0.015854886 -0.25520203 -0.006482192 -0.047213655 0.09729784 0.2118776 -0.12331259 -0.017530132
-0.17968774 -0.2316047 -0.82368916 0.24446723 -0.009226688 0.06730686 -0.0027884303 -0.22479653
0.6238036 -0.09402231 -0.021869253 -0.017554425 -0.025001876 0.0038353004 -0.24661574 0.057753354
-0.19254418 0.0031731138 -0.10496062 -0.21550263 -0.17443834 0.2653204 0.07256692 -0.013357949
-0.056768883 0.06306836 -0.16797557 -0.17225073 -0.19129723 -0.077993035 -0.23772801 0.040744144
-0.18105955 -0.06624393 -0.05291951 -0.0763515 0.4846146 -0.034476828 -0.16289745 -0.21919976
-0.19073834 -0.019208327 -0.23491031 -0.16456106 -0.08174021 0.03998387 -0.26566365 -0.12841845
0.044779282 0.0649982 -0.27704954 0.0342027 -0.22016628 0.014246757 0.07794324 -0.18772024
-0.26289946 -0.14200664 -0.3194777 -0.5469157 -0.161935 0.009943941 -0.19148293 0.23536266
0.06974399 -0.3765953 0.047511324 -0.21278767 -0.16301425 -0.20123559 0.53050226 -0.20430148
-0.11227172 -0.023681559 0.011560314 -0.031936735 0.9329391 -0.23762992 -0.10414873 -0.07661957
-0.08643259 -0.04346747 -0.010728947 0.042263124 -0.037010163 -0.12841603 0.025215946 0.17825684
0.014484653 -0.19698699 0.032622214 -0.15444344 0.084823005 -0.1763688 0.080222555 -0.20867114
-0.18476507 -0.22401698 0.008435288 -0.5117683 -0.01727352 -0.014581782 -0.2923674 -0.20600131
0.011085588 -0.030745633 -0.19637673 -0.104266584 -0.2949428 -0.34674525 -0.29455364 0.39709952
-0.19909477 0.1007539 -0.04164302 -0.1288361 0.002751 -0.11492958 -0.27961424 -0.034320217
-0.039405417 -0.09398933 0.019563869 -0.006393426 0.11534076 0.10752088 -0.16654955 0.0040231002
-0.26091594 -0.20018907 -0.45256594 -0.12511127 0.07261635 -0.03589938 0.04933695 -0.20959105
