save/model/acrobot_dqn_dueling_noisy_mod_hid_64_64.pth (torch_old, 112645 bytes, 30 tensors)

weight f4 [64, 6]
00000000: 5d2f f53e e557 cabe 1657 863e 4ff7 8e3c
00000010: 3450 15be 36f6 d0bd 244f 9cbf bd4a ff3d
00000020: 9038 dc3e 9ee6 7cbe 8796 8dbd b7ba ab3d
00000030: 21f1 b73e 7fcc 5e3f e842 a8bd c877 16be
00000040: d467 063f 3ea2 373e 5e05 a6be 6168 02bf
00000050: d188 f43e 0c70 efbd 4204 1e3f 7c23 493e
00000060: 8ace 5abe 4cff eebd f433 5b3e 5d28 9d3b
00000070: c6d6 f9be b187 b4be 1b44 513f 29ae 14be
00000080: fba6 6d3e c87c 333d 8af4 08be 5772 a33b
00000090: e72a 9cbe a086 f0bd 1812 05be 9d52 c7be
000000a0: e318 5d3e 3c1d 9d3e 32fd 0a3e 0110 6c3f
000000b0: ab6a 9c3e a158 19bf 911d f1bd 3704 d13c
000000c0: 9503 b03e 2ba1 2dbf 44fe b33d 2967 ae3e
000000d0: 6ed9 8d3e 29b6 593e b847 4f3e 69f1 1c3e
000000e0: 7942 08bf 586d 0a3d 2123 f3bd 94ad 033e
000000f0: c4d8 06bf 0604 243f 945b 2abf 147f 1fbf
00000100: 54ca e03d 0962 0c3e 582f bbbe e077 1a3f
00000110: 1e6a 6f3e a296 a33e 96a7 2c3d 3cc2 5f3e
00000120: a2d2 ab3e b8cf dbbe 8c51 5f3c 8d94 103d
00000130: 37c1 e4be d04d b03e b553 99be fcb1 873e
00000140: 89b1 5c3f 37d2 c9be 57f4 42be 56fc e0bd
00000150: cf06 96be bdad e7bd d850 f0be a5f1 463f
00000160: df63 bbbd 3aab 233b feac c33e 58ec ca3e
00000170: 1850 933d 62d8 023e d99a 52be bd89 7fbd
00000180: 5da8 1c3f a1a3 3cbe fe26 233f 61b9 133d
00000190: 59fe 38bd 1955 e6bd 1881 00bf 3b28 28bf
000001a0: b180 28be 5b7f adbe 2fd3 1cbe 938c 55be
000001b0: 6c16 d33e 7809 0dbf e1bf 133f 5aaf 903d
000001c0: 3586 623e 8137 553e 9d5f 293f 15a0 20be
000001d0: dcfe 133f 81ff 0f3e 0340 2b3e 6d1b 223e
000001e0: 1243 dd3b 7659 6b3f c62d 983e 0409 cdbd
000001f0: f0df 5bbd 9797 b53e 9efa 53bd ce9d dcbe
00000200: 10bb fa3e d7c5 1b3e 1c0e 2dbd bbe4 0fbe
00000210: 648d 88be bafd 0f3e 44f9 a93e 6183 f03d
00000220: 1497 11bf 6fd7 ccbd 4e11 d93e 9a43 3e3d
00000230: 35da f73e 2674 c7be 74c9 d63d b644 493d
00000240: 79e4 e43e 7697 ca3e 9b59 473e 9254 05bf
00000250: 48ee 663e e300 fc3d 953e 703e 4166 90be
00000260: 2a08 d5bd f9dc 013f c074 76be 8c95 a5be
00000270: 562c 60bf 6aef da3d e61c 2dbe 08c9 c73e
00000280: 0f8f c5be a835 43be 842c bf3e 3a8b bd3e
00000290: 3f2f 97be a2dc 08be bbc6 043d 6ea2 adbd
000002a0: 4f8b 243f 4f67 df3e ddf5 1a3f 382b 9f3c
000002b0: a793 de3d c91b 183e fc5a eebe 0e5f 163f
000002c0: 82e7 62be a985 0ebf 5a4e f13d 510f a03d
000002d0: aade fe3d 078d f5be 12af 7f3e bebb 8cbe
000002e0: 171a ecbc 12c6 adbe 88b8 5abe 24d4 b8be
000002f0: 6a74 51bf 2009 8e3d 4523 57be 6237 a0bd
00000300: 605a 76bf 4563 f43d 702c 12bf 4ce3 d33d
00000310: 0c26 80bd c743 c23d bcdf 97be 53ab e2bd
00000320: 41ff 29bd c5d3 a9be 7967 0d3e ebe2 983d
00000330: d2fd 213f d6e4 28bd b6bd f2bd 1425 56be
00000340: f09b 8dbd 7334 8a3d dbd6 893d 1c5b c2be
00000350: 879b bf3e e923 80be dccf f7bd b792 90bd
00000360: ae75 013e bb13 533a cd50 6bbd d312 653e
00000370: 668f 013e 69d2 2e3e 7553 14be c31f fb3b
00000380: 92e2 84bf dd41 e13e 1a02 07bd 8d1a 87bc
00000390: fa1f ea3e 4a6c d6be e746 86bd 04f0 833e
000003a0: 281d 7fbe 78c2 acbd f527 053f 7155 2dbf
000003b0: 26af cc3e c52a b33e 2941 443e 47b1 543d
000003c0: 7328 923d ab55 1b3e 05b6 1abd 7803 3ebf
000003d0: 6c20 e2be 0c06 393e 8da1 dcbb efa0 ff3e
000003e0: baea 5d3e 9839 7c3e 080a eebe a1e7 96be
000003f0: 765c 043e 9519 403f 8f1e 05bf 5710 08bf
0.47887698 -0.39520183 0.26238316 0.01745191 -0.14581376 -0.10203211 -1.2211652 0.12465427
0.43011904 -0.24697348 -0.069134764 0.083852224 0.35926154 0.87030786 -0.08215886 -0.1469413
0.5250218 0.17932984 -0.3242597 -0.5094052 0.47760633 -0.11691293 0.61725247 0.19642442
-0.21367851 -0.11669788 0.21406537 0.0047960714 -0.48796672 -0.35259774 0.81744546 -0.14519562
0.23208229 0.043820173 -0.13374534 0.0049879956 -0.30501482 -0.11744428 -0.12995183 -0.38930216
0.21591525 0.30686367 0.13573149 0.9221192 0.3055013 -0.5990086 -0.117732175 0.025514705
0.34377733 -0.6782405 0.08788732 0.3406308 0.27704948 0.21260895 0.20242202 0.15326466
-0.5322643 0.033795685 -0.11871935 0.12859184 -0.5267451 0.6406864 -0.6654599 -0.6230328
0.10976091 0.13709272 -0.36559558 0.60339165 0.23380324 0.3195086 0.04215201 0.21851438
0.33559138 -0.42931914 0.013630282 0.03529792 -0.4467866 0.34434366 -0.29946676 0.2650298
0.862084 -0.39418194 -0.19038521 -0.10985629 -0.2930207 -0.11312435 -0.4693668 0.7771247
-0.09149908 0.0024973885 0.3821792 0.3963344 0.07193011 0.12777856 -0.20566882 -0.062387217
0.611944 -0.18421794 0.6373137 0.036065463 -0.04516444 -0.112467 -0.5019698 -0.65686387
-0.16455342 -0.33886227 -0.15314935 -0.20854406 0.41228044 -0.55092573 0.5771466 0.07064696
0.22121508 0.20821954 0.6616152 -0.15686066 0.5781076 0.14062311 0.16723637 0.15830775
0.00675238 0.9193338 0.29722422 -0.10011485 -0.05368036 0.35467216 -0.05175268 -0.43089145
0.48970842 0.15212189 -0.042249784 -0.14052097 -0.26670372 0.14061633 0.33197987 0.117438085
-0.5687115 -0.10002028 0.42396015 0.04645119 0.48408666 -0.38955802 0.10487643 0.049137793
0.4470556 0.3956868 0.19467776 -0.5208217 0.22551835 0.12304857 0.23461373 -0.28203014
-0.10401948 0.507278 -0.24067974 -0.32340658 -0.8756765 0.10690196 -0.16905555 0.39020562
-0.38585708 -0.19063437 0.3733865 0.37020284 -0.29528233 -0.13365415 0.032416087 -0.08478247
0.6427507 0.43633506 0.6053141 0.019429788 0.10868006 0.14854349 -0.4655379 0.5873879
-0.22158626 -0.556727 0.117825225 0.078154214 0.124448135 -0.47959158 0.24969128 -0.27486986
-0.028821034 -0.33940178 -0.21359456 -0.3609935 -0.8181826 0.06935334 -0.21009548 -0.078230634
-0.9623165 0.11932997 -0.57099056 0.10346088 -0.06257257 0.09485584 -0.29662883 -0.11067834
-0.041503195 -0.3316938 0.13809003 0.07465156 0.63277924 -0.04123386 -0.11852591 -0.20912582
-0.06914508 0.06748285 0.067304336 -0.37960136 0.37423345 -0.25027397 -0.12100193 -0.07059234
0.12642547 0.00080519513 -0.057450105 0.22370462 0.12652358 0.17072453 -0.14484961 0.0076636984
-1.0381644 0.43995562 -0.03296099 -0.016492153 0.4572752 -0.41879493 -0.06556492 0.25769055
-0.24913466 -0.084355295 0.52014095 -0.677085 0.39977378 0.34993568 0.19165482 0.051926877
0.07136621 0.15169398 -0.037771244 -0.7422404 -0.4416536 0.18068713 -0.0067331255 0.4992747
0.21671572 0.24631345 -0.46492028 -0.29473594 0.12925896 0.75039035 -0.51999754 -0.5314993

bias f4 [64]
00000000: 6fb1 dd3e 7c83 07be d887 84be f9fa 98be
00000010: 68c1 e8be 67fb b63e e985 60bf 5d5f fe3c
00000020: d208 94be 0959 4fbf 86ad 33be c481 ca3d
00000030: 8940 32bf 941a 50bf b21c c33e b8b4 033f
00000040: 22a3 8b3e 3d52 26be 363a 07bd 8fef 193e
00000050: 8ce6 4cbe f52d e53e dafe a0bd 9ff9 c53e
00000060: a881 953e 1116 3ebe 70e5 ffbe ce7f 0c3f
00000070: 9288 963e d2db 4c3d 753b f4be 675e 60be
00000080: 3beb 48bf 111a bc3e d3a0 383f 638b 363f
00000090: cf5b 053f 2cc2 de3e 0c3a e83e 9f54 eb3e
000000a0: 5534 8dbe 14e8 96be d6e1 6dbe 08ae 80bf
000000b0: 0807 2dbf 2e12 a33e a9f8 0d3e db1b 41bf
000000c0: ad8e 2c3e eef5 f63e 89c1 a93e 91a4 cabd
000000d0: d94d 57bf 47c5 193f 8bb8 3a3e b6d5 083f
000000e0: 1eba 2fbf b636 12bf 51b1 823d 7880 be3d
000000f0: f36a f3be ea53 3f3f 6ec4 bfbe 4787 253f
0.43299434 -0.13233751 -0.2588489 -0.29878977 -0.45460057 0.3573868 -0.8770433 0.031051332
-0.2891298 -0.8099523 -0.17546663 0.09888032 -0.6962972 -0.81290555 0.3810783 0.5144763
0.27272898 -0.16242309 -0.0330145 0.1503279 -0.20009822 0.44761625 -0.07861109 0.38667008
0.29200482 -0.18563105 -0.49979734 0.54882514 0.2940107 0.050014324 -0.47701612 -0.21911012
-0.78483933 0.36738637 0.721204 0.7130644 0.52093214 0.43507516 0.45356786 0.45962998
-0.2757899 -0.29473937 -0.23230681 -1.005311 -0.67588854 0.31849808 0.13864388 -0.7543313
0.16851301 0.48234504 0.33155468 -0.0989467 -0.8410316 0.60066646 0.1823446 0.53451097
-0.6864337 -0.5711473 0.06381477 0.09301847 -0.47542533 0.7473742 -0.3745455 0.6465954

weight_mu f4 [64, 64]
00000000: 55a9 66be f289 973e 156d 823c 3c3d a93e
00000010: 1266 91bd 421c d8be dfda cc3e a2a1 cfbd
00000020: d581 d3be c7bc 01bf 4b48 21be b325 a1be
00000030: cb97 cebe 7d56 e53d fa19 4abf d6c0 72bf
00000040: 956d 26bf 5f7c cebe 4638 79be 2381 99be
00000050: 8613 7cbe 7f56 7abf 670d 85be 68c3 903d
00000060: bb73 a33d 62e7 afbd f163 03bf 9fb1 cdbd
00000070: b151 6abd b2a5 aabc 92c7 0abe 842a 213e
00000080: 7d22 0dbe da3a ccbd b596 4bbe b4d8 dfbe
00000090: 0c88 c83b 7337 3bbf 464f c6be ea0d e1bd
000000a0: 8183 c7be dce6 b2bd 7617 e4bd 2532 f7bd
000000b0: 45b0 aebe 2386 c2be be6e 26bf 3c75 983d
000000c0: 9e7e 10bd 9dd7 a0be d854 f93d 11e5 b13d
000000d0: 4a56 d6be 4c2d a8be 0f2b 18be a240 35be
000000e0: 3d56 dc3d 4751 6cbe 3c6c 94be 53bd 90bf
000000f0: b37a 04bd b055 9ebd 53a7 103d 4868 74bf
00000100: 0482 b33e 9e9a 6bbf a457 743c b038 c6be
00000110: 87d3 69bd edf5 a23d 646e 1fbe 60c1 60bf
00000120: 1749 05bf 1200 2bbd 9b67 b6be 72b8 a6be
00000130: 890a bf3e 300d 5a3e 5a50 47bf c944 42be
00000140: b142 273e dd13 a6be 3580 ee3d 701b 7bbc
00000150: 5a4b 34bf 193d 2c3f 0a76 693e ba2c 653d
00000160: 28a3 24bf a9ae 08bf b8e4 f1be 5e98 a2be
00000170: 03fa 51bf 3a61 8abe 71c2 eabe 98f7 5c3e
00000180: 5b30 17bf 8b74 223f 3718 1a3e d764 ac3e
00000190: 2159 f33d 1eba b6be 3160 0b3e 39d8 46bd
000001a0: 794b c03e fcae 20be 8415 06bf a0ab b9be
000001b0: 8262 8cbe 894d b8bd e2ec 8dbf 06e1 13bf
000001c0: 839b cfbe df15 3abe 24df f73e 2646 41bf
000001d0: 9303 afbe 17c8 62bf e417 31bf 312b 2dbf
000001e0: bfbd 9fbd 1ff8 c0be e948 3bbf a49f 19bf
000001f0: ce22 3dbf c48c 8bbe 13d1 1abe 6627 e1be
00000200: 4cd4 a5bd ac9a 8ebe 876b 50be a59d f0bd
00000210: 1bca 50be 3d01 f5bd fcfa d0bd 0883 1ebe
00000220: 5317 0fbe ffb5 05be e5fd a2bd 708d 1bbd
00000230: 1650 d2bc 7748 6cbe b1cd 7fbd 62af 65bd
00000240: b71c 3ebe 3ad2 31be 3e25 21be b908 cbbd
00000250: e23b 4ebd c22e 8fbe 939b a53b 6045 7fbd
00000260: 9590 efbd 835d 51be a794 463b 488e 7b3d
00000270: fa8f 64be 646a 0cbe 5568 1ebe 4425 47bd
00000280: 2bc1 34be 3b6c 04bd 8c49 33bc 26dc b0bc
00000290: b440 3abc a289 c0bd 330d 06be 451f 04bd
000002a0: 3a77 aabd a767 0abe c04b f13c 567d 19be
000002b0: 063e b0bd ba5c 03be 4bc1 84be 33a4 94bd
000002c0: 4baf ecbd aa10 8bbd 8794 0abe 3ea9 65be
000002d0: 182f 91bd 8cab 5abc 6d9b 15bd 33a0 00be
000002e0: d84d 96bd 83bd fe3b 0148 41bd 5101 03bb
000002f0: b35a 12be 720f 6bbe 761a 10be bf16 8abe
00000300: c2a2 a9be 5804 71bd 8dd4 cabe 4718 413f
00000310: f4ad 8abf e3d6 63bf 944e 16be 2a8c 7ebe
00000320: 058f e13e dc6b e5bd c99d 79be 6ed1 04bf
00000330: daca b03d 3255 26be 3214 c23e 2c5e 8dbf
00000340: 7501 2bbd 3fbb 853d c541 5a3e 8a34 b2be
00000350: 02ea 31be c085 a23e 7a0e 8abe 27ac b1be
00000360: 0f8c a2be bed7 58be 0cb0 6b3e 44ff 8cbe
00000370: d826 87be 47f8 87be d797 8d3d b34a a0be
00000380: 1b11 1d3e b1da a03d 7597 6fbf 0888 013e
00000390: 4377 ccbd b162 c9be d86d 3abf 4df5 b4bc
000003a0: 63c9 9dbc e755 08bf c56c 25bf a459 45be
000003b0: 924e d53d ce8b 03bf e725 4bbe bfdf 1ebd
000003c0: 1842 a4be f4e9 ed3d 95c4 cbbe 9457 85bd
000003d0: 6053 813f 7712 1dbf 5ade ccbe 75b9 d43d
000003e0: 5afa 173f bc5b 1d3f ea96 3bbe 14ae debe
000003f0: 6da8 933d f71e 3dbe c6e0 d73e f6a7 93be
-0.22525533 0.2959743 0.015921155 0.3305453 -0.070995465 -0.4220906 0.40010735 -0.10138251
-0.4130999 -0.50678676 -0.15750234 -0.31474075 -0.40350184 0.11198137 -0.7894589 -0.94825494
-0.6501096 -0.40329263 -0.24337873 -0.29981336 -0.24616823 -0.9778823 -0.25986788 0.07068521
0.07981058 -0.08589055 -0.51324373 -0.10043644 -0.057206813 -0.020830963 -0.13552693 0.15738875
-0.13782687 -0.099721625 -0.19881709 -0.4372002 0.0061197337 -0.73131484 -0.38732356 -0.10988982
-0.38967517 -0.08735439 -0.11137287 -0.12070111 -0.34118858 -0.37992963 -0.6501273 0.07444236
-0.035277 -0.314145 0.12174386 0.08686269 -0.41862708 -0.3284706 -0.14860176 -0.17700437
0.10758636 -0.2307788 -0.28988826 -1.1307777 -0.032343578 -0.07731187 0.035315823 -0.9547162
0.35060132 -0.920328 0.014913473 -0.38715124 -0.057086494 0.07957063 -0.15569454 -0.87795067
-0.5206465 -0.041748114 -0.3562592 -0.32562596 0.37312725 0.21294093 -0.7785698 -0.18971552
0.16334035 -0.3243703 0.11645547 -0.015326366 -0.7042748 0.6728073 0.22798935 0.055950858
-0.64311457 -0.5339151 -0.4724481 -0.31756872 -0.8202211 -0.27027303 -0.45851472 0.21578825
-0.5905816 0.6345908 0.150483 0.33670685 0.11882234 -0.3568887 0.13610913 -0.04854605
0.3755758 -0.15691751 -0.5237658 -0.36263752 -0.27418905 -0.08999164 -1.1087916 -0.57765234
-0.40548334 -0.18172406 0.4841243 -0.75497663 -0.34182414 -0.8858656 -0.6917708 -0.6764403
-0.07799863 -0.376893 -0.7315813 -0.6000922 -0.7388123 -0.27255833 -0.15118818 -0.4397537
-0.08097133 -0.2785238 -0.20353518 -0.11748818 -0.20389597 -0.11963127 -0.102041215 -0.15479672
-0.13973741 -0.13057707 -0.07958583 -0.037976682 -0.025672954 -0.23074518 -0.062452022 -0.05607546
-0.18565641 -0.17365351 -0.15736863 -0.09913773 -0.050350077 -0.2796536 0.0050539463 -0.06232202
-0.11697499 -0.20445828 0.0030301006 0.061414987 -0.22320548 -0.1371246 -0.15469487 -0.048619524
-0.17651813 -0.03232978 -0.010942828 -0.02158935 -0.0113679655 -0.094012514 -0.13090973 -0.032256383
-0.08323522 -0.13516103 0.029455066 -0.14989218 -0.0860558 -0.12828341 -0.2592872 -0.07257881
-0.11556872 -0.06790288 -0.13533221 -0.22427842 -0.070890605 -0.013346564 -0.03652518 -0.12561111
-0.07339066 0.0077740564 -0.04718781 -0.0019989798 -0.14292412 -0.2295511 -0.14072594 -0.2697048
-0.33131987 -0.058842033 -0.39615288 0.7542767 -1.0834336 -0.88999766 -0.14678413 -0.24858156
0.44054428 -0.11202213 -0.24376597 -0.51882064 0.08632441 -0.16243437 0.37906033 -1.1044364
-0.041749436 0.06529855 0.21314152 -0.3480571 -0.17374423 0.31742668 -0.2696417 -0.34701654
-0.3174748 -0.21176049 0.23016375 -0.27538502 -0.26396823 -0.26556608 0.06913727 -0.3130699
0.15338556 0.07854212 -0.9359048 0.12649548 -0.09983685 -0.39333108 -0.7282386 -0.022089625
-0.019261068 -0.53256077 -0.64619094 -0.19272476 0.10415377 -0.513852 -0.19838677 -0.0387876
-0.32081676 0.11616889 -0.39798418 -0.06510845 1.0103569 -0.613563 -0.4001339 0.103869356
0.5936638 0.614681 -0.18319288 -0.43492186 0.07209859 -0.18468843 0.42163676 -0.28839082

weight_sigma f4 [64, 64]
00000000: b04e fabd e366 1fba 775f 93bc e873 a63d
00000010: 7ad0 37be 6a5b cd3d fbb9 573e 2982 01bc
00000020: 9be5 bf3c 2cac 71be 1f88 8b3c 94f5 393d
00000030: b14e f73d 147f 80bc 73bd 2ebe 876c 313e
00000040: b96d cabe 4c65 ef3d 8d62 c2bc 5958 803e
00000050: bdb0 993d 3156 5b3e f150 8d3e 9d78 293d
00000060: dbf0 aa3d b08c 9f3d 057c 333e cc35 5dbd
00000070: 35fc e63d 2bf5 d93c 3b88 e13c 52d3 d93d
00000080: 784d 9b3e ee8d 743d 7683 d8bc 810b 0eba
00000090: 4d8d 0bbc 8be4 873e a321 013e 51dc c0bc
000000a0: 5d69 363c 90d0 0c3c 9234 473d 5c23 4bbc
000000b0: 44cb 463e 393a 183d 0dec b4be e931 013e
000000c0: f06f 793d 811b 233d 75cd 213e c532 1cbe
000000d0: 57a4 923c 3822 46be 6b4f e7be 77f8 1cbd
000000e0: 1649 063e c800 febe ced4 db3d 6ff7 30bd
000000f0: a47e 8abd 27a7 853d 1874 313e ef83 08bd
00000100: f3a1 c2bd 9671 3a3e 71e0 e13d 35e2 083d
00000110: 4682 e23c 9e06 683d 6993 dc3e 95e8 82bd
00000120: 4a2b 423e d32f 4b3e b935 a1bd 1ded 35bc
00000130: ae2a a13d 3462 d33e d91d 0e3d eff0 cc3c
00000140: 3f90 193e a9de 363d 6ad2 053e 1695 f4bd
00000150: 6d28 8ebd af29 2ebe 21de 093d 84f3 89bd
00000160: 96d8 1d3e 68f1 403e eaff a8bd a321 983d
00000170: a38b 23bd fae0 3f3d 0ca8 71bd d197 553c
00000180: 1614 22be ee9b ee3d 1c1c 2ebd 3add bd3c
00000190: 82fb ca3d 7b7e 363d a13e d9bd 3ca3 683d
000001a0: 13e5 81bc 8479 35be 0be6 bbbc b5f2 403d
000001b0: e042 fb3d 8a6a 5f3d ebf7 82bd 9474 5dbd
000001c0: ac02 19bc 3b57 6fbd 865d a03c 3ef2 173c
000001d0: 508f eebd 8c1d d1bc cff3 08be 0ec6 76bd
000001e0: d7dd 673d adc2 3fbd cc80 2a3e 4f4a 28bd
000001f0: 75ae fcbb c21b 5cbd fbe6 2d3e 11cf f43d
00000200: b054 19be 7c4e 873c 65db 3c3e 013c 1abd
00000210: 1656 9cbd bb66 803d 760c 893e f1be 7e3d
00000220: b508 e1bc fccb 313e 4e91 d139 397f 783d
00000230: a748 c1bb b936 ef3c b8db 4cbd 7ff3 9c3d
00000240: cca8 fa3a ec5e e63d 80ba 093e 27f3 8c3d
00000250: 8a24 a03d 555e 033e 4a31 b03d 0f8e bf3d
00000260: f194 6d3b 3b31 a33d 8ce4 9c3d 4def 19bc
00000270: a832 9d3d 2a0d 783d 5842 273d 0474 3abe
00000280: 803f a73d adb9 bf3c 81aa 843d 2015 963d
00000290: 77da 2fbd fba9 263e f11d 7a3d 0934 233e
000002a0: e45b ff3d 4d6b 1ebd 952e a33d 1354 163e
000002b0: 068d 973d a379 193e bc42 02bd 4409 59bc
000002c0: b5bc 4c3d 55bb 09bd 3cb4 80bc 6375 ba3d
000002d0: 469a 01bd 325e 6c3c b11c cb3d ee38 373d
000002e0: dbf0 3b3e 3b41 693d 83f5 f53d 5d6f c33d
000002f0: 1b40 8cbc 1d60 0f3c b1b4 213d 4d37 383c
00000300: d6c2 42bc f870 aa3d f458 fdbd d9de 753c
00000310: 1966 0ebd 3d77 cb3d 4b7a b93d 5348 963d
00000320: 2f23 343c af3b ff3d 2ffc 15bd 4083 c23e
00000330: 9eb0 6d3d 8050 9abc b643 edbc 2522 b5bd
00000340: 0c1c 81bc 5368 23bd 03ce 2abd 8883 f5bc
00000350: 399a 7b3e 3c99 15bd c3d3 f93d c013 9bbc
00000360: e17e 153d c9e9 e7bc 2cc8 a63d ac35 c2bb
00000370: 4afc f13c 9999 943c 8560 37bc a4d2 a13e
00000380: 81c8 a9bd 9b8b 363e eb92 ad3b 8840 20bd
00000390: 3c73 373d 35f9 a13d cd32 37bd f985 a1bc
000003a0: 6b64 033d 23bc ca3d 50e1 b5bd 99b7 343c
000003b0: 3b6c 6bbd 26fd f8bd 59c5 c8bc 7879 003e
000003c0: 2b68 3d3e 861f 35ba c0aa 09be d1e6 b73b
000003d0: e1f3 7cbd 0913 9b3d c220 38bc 8694 d13c
000003e0: 866b 8a3d ffdc 933c f72a 8d3c fd65 243e
000003f0: 454f 523c ea30 23bd ab09 f13c f11a c63c
-0.1222204 -0.00060807 -0.017989857 0.08127576 -0.17950621 0.100272015 0.2106704 -0.007904568
0.023424914 -0.23600835 0.017032681 0.045400217 0.12075556 -0.015685596 -0.17064457 0.17326556
-0.39536837 0.11689243 -0.023728633 0.25067404 0.07504413 0.21419598 0.27600816 0.04137479
0.08346721 0.07790506 0.17527778 -0.054006383 0.112785734 0.026606163 0.02753078 0.10636009
0.3033254 0.059705667 -0.026429873 -0.00054185843 -0.008517575 0.26541552 0.12610488 -0.023542555
0.011133519 0.008594647 0.04863412 -0.012398567 0.19413477 0.0371649 -0.35336342 0.12616695
0.060897768 0.03982115 0.15801032 -0.15253742 0.017900629 -0.19348991 -0.4517778 -0.038322892
0.13113818 -0.4960997 0.10733949 -0.04320472 -0.06762436 0.065260224 0.17329443 -0.033328947
-0.095035456 0.18207392 0.11029137 0.033418853 0.02765001 0.056646936 0.43081215 -0.06392018
0.18961826 0.19842462 -0.07871575 -0.0111038955 0.07869469 0.4128586 0.034696434 0.02501723
0.14996432 0.04464594 0.13068548 -0.119424984 -0.06941304 -0.17008089 0.033659104 -0.067359
0.15414652 0.18842089 -0.08251937 0.07428291 -0.03992809 0.046845414 -0.058998153 0.013036684
-0.15827975 0.11650835 -0.042507276 0.023176778 0.099112526 0.044554215 -0.10607649 0.056796297
-0.015856301 -0.17722136 -0.022936841 0.047106463 0.12268615 0.054544963 -0.06394943 -0.054066256
-0.009339016 -0.0584328 0.019575845 0.009274064 -0.116484284 -0.025526784 -0.13374256 -0.060247473
0.056608047 -0.046816517 0.16650695 -0.04108649 -0.0077112266 -0.05373741 0.16982643 0.11953557
-0.14973712 0.016516916 0.18443067 -0.03765488 -0.07633607 0.06269594 0.2676732 0.062193815
-0.027469972 0.1736297 0.00039971847 0.060668204 -0.0058985534 0.029200898 -0.050014228 0.07663631
0.0019123792 0.11248574 0.1345005 0.06882315 0.07819469 0.12828954 0.08603151 0.093532674
0.0036252106 0.07968374 0.07660779 -0.009395433 0.076756775 0.06055943 0.040834755 -0.18208319
0.081664085 0.023403967 0.064778335 0.07328248 -0.042932954 0.1627578 0.06106371 0.15937819
0.124686986 -0.03867655 0.07967869 0.1468051 0.07399945 0.14987807 -0.031801924 -0.013246838
0.049984653 -0.03362592 -0.015710942 0.09104421 -0.031641267 0.014426755 0.09917582 0.044732027
0.18353598 0.056946974 0.12009718 0.09542725 -0.017120412 0.008750943 0.03947896 0.0112436535
-0.011887273 0.08322328 -0.12370482 0.015006744 -0.034765337 0.09934852 0.09056529 0.073380135
0.010994717 0.124625556 -0.036617454 0.3799076 0.058029763 -0.018837214 -0.028962951 -0.08844403
-0.015760444 -0.039894413 -0.041700374 -0.029969946 0.2457055 -0.03652309 0.121985935 -0.018930316
0.036497954 -0.02830972 0.081436485 -0.0059268083 0.029539246 0.018139647 -0.011192446 0.3160602
-0.08290196 0.17826693 0.005297055 -0.03912404 0.04478763 0.079088606 -0.04472618 -0.019717203
0.032078188 0.098991655 -0.088808656 0.011030101 -0.057476263 -0.12157659 -0.024508165 0.12546337
0.18496768 -0.00069092994 -0.13444042 0.0056122323 -0.06175602 0.0757199 -0.011238279 0.025583517
0.0675879 0.018049715 0.017232401 0.1605453 0.012836282 -0.03984157 0.029423555 0.024182769

bias_mu f4 [64]
00000000: 73ab adbe 1f33 e23c 0e64 30bd 063f 893c
00000010: 7ad6 72be 99ea 88be c374 3abe 9621 1dbe
00000020: 00fc acbe c2ea 533e 46b3 37be 7658 3dbe
00000030: 1963 db3d 73f6 64be a589 23be adb3 9abe
00000040: 35dd 73bd b97e ecbd 9cdd 063e 15d8 c5bd
00000050: 9f63 96bd 8d28 1fbe 08c2 ea3d 7ed5 0cbe
00000060: 5da6 21bd 6edc 30be 5672 eebd 10e7 193d
00000070: b59a 323e 1254 a03b 0491 81be 3227 2fbe
00000080: 91e9 1cbe d282 90bd 8be0 c1bd bc1c c4be
00000090: 4dc4 92be 0695 7abe 5c4e 6fbe 0e1f 54be
000000a0: d9c7 f3bd e428 bcbe ee24 e03a ec11 99be
000000b0: ba9f 8fbe 38fe 2ebe b83e 67bd 08bf 4abe
000000c0: 4759 e1bd 7fbb bebd afaf adbd 8497 88be
000000d0: e6f8 8cbe 126e 0bbe 0263 b43d 71ff 6bbe
000000e0: 3b08 17be 8f10 87bd 37f5 85be 05f7 edbd
000000f0: aa56 acbc 68b4 d4bc 0478 1cbe a18d f8bd
-0.33919868 0.027612267 -0.04306417 0.016753685 -0.23714629 -0.26741484 -0.18208604 -0.15344843
-0.3378601 0.20695022 -0.17939481 -0.18490776 0.10712261 -0.22359638 -0.15970476 -0.30215207
-0.05953713 -0.11547608 0.13170475 -0.09660355 -0.0734322 -0.15542813 0.1146279 -0.13753316
-0.039465297 -0.17271587 -0.116429016 0.037573874 0.17441829 0.0048928345 -0.2530595 -0.17104796
-0.15323474 -0.07056202 -0.09466656 -0.38303173 -0.2866539 -0.2447091 -0.23369735 -0.20714971
-0.11903352 -0.36749947 0.001710085 -0.29896486 -0.2805155 -0.17089164 -0.056456298 -0.19799435
-0.110033564 -0.09313106 -0.084807746 -0.26678097 -0.27533644 -0.13616207 0.08807947 -0.23046662
-0.14749233 -0.06594955 -0.26163647 -0.11619381 -0.021037418 -0.02596493 -0.15280157 -0.121363886

bias_sigma f4 [64]
00000000: 8520 1abd 746a b33c 2366 7a3d 862d febc
00000010: cb0b a4bc 0a36 643d add9 bbbc 6c5a 633b
00000020: c8b5 5cbd 2a12 17ba d3b8 b4bd 665b 8e3e
00000030: 1c52 033d 754d 4ebd 5d3e a43d 3911 aebd
00000040: 3146 803a f204 72bd 5487 c1bb 5311 21bd
00000050: eb55 b2bd 2ccc c43d c04d 793d b203 813c
00000060: 1c6e 073d 5b0f 9fbd 5218 a93d f75d 17bd
00000070: cc37 1d3d ae0f 74bc 07bd 8b3d b64e bdbc
00000080: cf63 5ebd 98e4 ce3c 3aa3 d73d 10c1 26be
00000090: 02d5 8abc 70be aabd a2c6 063e 6aa9 293e
000000a0: 982f e53d 652d 19be efc4 313c dfc6 8ebe
000000b0: a3dc 863d 518d a93d 003f 983d aca4 d43b
000000c0: c681 13bd 5cd8 c13d a43b 103a 5d7a 1ebd
000000d0: f771 8d3d 4a3e 943d 694f 53bb 0b33 f5bb
000000e0: 59fe 043d f367 57bb dde9 05bb f948 e43c
000000f0: 6e0e fdbc cd11 d03c 7fac 603e 5f47 7fbd
-0.03762867 0.021901347 0.06113256 -0.031027567 -0.020025155 0.0557156 -0.022930944 0.0034691347
-0.053884298 -0.00057628995 -0.08824315 0.27804106 0.032060727 -0.050366838 0.08019707 -0.08499379
0.0009786544 -0.059086747 -0.005906025 -0.039323162 -0.08707794 0.09609255 0.060865164 0.015748832
0.033063993 -0.07766601 0.08256592 -0.036954846 0.03838329 -0.014896316 0.068231635 -0.023108821
-0.054294404 0.025255486 0.1052918 -0.16284585 -0.016947273 -0.08337104 0.1316171 0.16568533
0.111907184 -0.14958723 0.010850175 -0.27886102 0.06585052 0.08278907 0.07433891 0.006489357
-0.036012433 0.094650954 0.0005502051 -0.038690913 0.06906503 0.07238443 -0.0032243377 -0.0074828914
0.032469127 -0.0032868355 -0.0020433583 0.027866827 -0.03089067 0.025399113 0.21940802 -0.062323924

weight_epsilon f4 [64, 64]
00000000: 472c a83f effe a33f b043 9dbf 93fd 60be
00000010: 42d5 6ebf 1c51 c13f e506 353f 2aa3 89bf
00000020: 5647 d3bf 1c6b 693f 69af 83bf 92d2 81bf
00000030: 4672 f9bd da42 a13f ec7b c5bf ce25 51bf
00000040: 928c 9fbf 7e32 6ebf 77da 623f d625 3b3f
00000050: b946 1c3f 959b 0dbf cb80 54bf 300f 283f
00000060: a5bc cebe 59af aabf 993b b3be 7493 2bbf
00000070: 177c 543f 48ad 9cbf ba12 bbbf 4cc4 a83f
00000080: 766b 963f 45f2 bdbe 247e adbf fafa 123e
00000090: 958b 983f 9fb1 39bf 85cd b43f c01e da3f
000000a0: 95d8 7abe 5749 2f3f 30b8 8abf 617a 8f3f
000000b0: 03b0 b1bf 9eca 613f d277 6e3f d74c b53f
000000c0: a107 2fbf 68ef b43e 394d 8a3f d382 c13f
000000d0: d887 46bf 4b17 8f3f 90aa 993f c7ac 19bf
000000e0: 1875 c1bf 4fba e83f 77b2 c53f 6ef4 8d3e
000000f0: 9ee2 883f c661 e13f dbd0 973f d9c0 81bf
00000100: 6f05 183f ca3e 143f 0d29 0ebf c361 cbbd
00000110: 1be5 d7be 0ec0 2e3f 02a4 a33e 30d6 f8be
00000120: a8fc 3ebf 1600 d33e 5e13 eebe 48b5 eabe
00000130: 2b7d 61bd f2c5 113f 6884 32bf 850f bdbe
00000140: c239 10bf f851 d7be d910 cd3e 752c a93e
00000150: 6144 8d3e e501 80be 0218 c0be 23eb 973e
00000160: a2e1 3abe be4a 1abf d304 22be f018 9bbe
00000170: c113 c03e 17a1 0dbf 2f1b 29bf da8e 183f
00000180: 1df9 073f 16b4 2bbe 80d4 1cbf 31dd 843d
00000190: f9e4 093f fedb a7be 2570 233f dc2b 453f
000001a0: 10c1 e2bd 9873 9e3e 06cb fabe b4b2 013f
000001b0: 3b9f 20bf 1d1b cc3e a490 d73e 3ce3 233f
000001c0: 3238 9ebe c78e 233e a209 fa3e feec 2e3f
000001d0: 9976 b3be 2259 013f 64e8 0a3f 65ea 8abe
000001e0: 95e0 2ebf 4360 523f b6b5 323f 3552 003e
000001f0: 147a f73e 57bc 4b3f 2e3c 093f 3e95 eabe
00000200: bf09 69bf f33f 63bf 0bec 593f 9ee2 1b3e
00000210: de79 253f a6f0 85bf 91d9 fabe 89b9 3e3f
00000220: 8a62 923f 78b9 21bf 0f7a 363f 4de5 333f
00000230: 5bd4 ac3d d875 5fbf cad3 883f 91e8 103f
00000240: 8316 5d3f 1809 253f 072d 1dbf 71aa 01bf
00000250: 818d d8be fe39 c43e b83b 133f 6fe1 e8be
00000260: f73c 8f3e da84 6c3f 1e5d 783e f0c0 ed3e
00000270: 7538 13bf a01b 593f 349d 813f 66dc 69bf
00000280: f96f 50bf d49a 833e e368 703f e1ab cbbd
00000290: f761 53bf 8ea8 003f 118a 7abf 0220 97bf
000002a0: 9ccc 2d3e 33e5 f2be 6939 403f 76d1 46bf
000002b0: f438 763f ae70 1cbf 2139 25bf 7e3a 7bbf
000002c0: 258a f23e 05b9 7abe 2fa5 3fbf 1713 86bf
000002d0: 6c8d 093f 2748 46bf a2ef 54bf b4f2 d43e
000002e0: 9409 863f f93e a1bf 95f9 88bf 1bb5 44be
000002f0: b9ae 3dbf 0a28 9cbf 365f 52bf bfcc 333f
00000300: 729f 253f 5182 213f 34e1 1abf 2f94 ddbd
00000310: 2236 ebbe ac62 3e3f 2a48 b23e df8c 07bf
00000320: 2c13 50bf 01e1 e53e 39b0 01bf 3ab5 ffbe
00000330: f2a9 75bd dad0 1e3f 4e7d 42bf eaf9 cdbe
00000340: 3721 1dbf d595 eabe d769 df3e 584f b83e
00000350: 13e8 993e e075 8bbe e147 d1be cc82 a53e
00000360: 1d9a 4bbe c418 28bf d583 30be 6af9 a8be
00000370: 3e43 d13e 144d 1abf 863c 38bf 2935 263f
00000380: 8c23 143f eb10 3bbe a9dc 2abf 6ac0 903d
00000390: 6b3b 163f c7e0 b6be a90f 323f 07d0 563f
000003a0: d20a f7bd e5a0 ac3e b29d 08bf 694d 0d3f
000003b0: 3ffe 2ebf 1e5e de3e 1dda ea3e 0d8d 323f
000003c0: 2e60 acbe 0831 323e 5934 083f a293 3e3f
000003d0: 2b85 c3be d3eb 0c3f 0c56 173f 3a58 97be
000003e0: 1c86 3ebf e232 653f 06b3 423f 60cd 0b3e
000003f0: 3ecf 063f ddf6 5d3f 8583 153f 5192 ffbe
1.3138512 1.2812175 -1.2286282 -0.21971731 -0.93294156 1.5102878 0.70713645 -1.0752919
-1.6506145 0.9117906 -1.0287906 -1.0142386 -0.12179999 1.2598526 -1.5428443 -0.8169831
-1.2464774 -0.93045795 0.886146 0.7310461 0.61045414 -0.55315524 -0.8300902 0.65648174
-0.403783 -1.3334762 -0.35006407 -0.6702187 0.83001846 -1.2240381 -1.461509 1.3184905
1.1751544 -0.370989 -1.355412 0.14353552 1.1917597 -0.72536653 1.412522 1.7040634
-0.24496682 0.6847128 -1.083746 1.1209222 -1.388184 0.88199794 0.9315158 1.4164075
-0.68371016 0.35338902 1.0804816 1.5118049 -0.7755103 1.1178983 1.2005177 -0.6002926
-1.5113859 1.8181857 1.5445088 0.27725548 1.0694158 1.7607963 1.1860613 -1.0136977
0.5938329 0.5790831 -0.5553139 -0.09930756 -0.4216698 0.682618 0.31961066 -0.48600912
-0.7460427 0.41211003 -0.4649915 -0.45841432 -0.05505101 0.56942666 -0.69733286 -0.36925903
-0.5633813 -0.42054725 0.40051916 0.3304173 0.2759123 -0.25001445 -0.37518317 0.29671583
-0.18250135 -0.602703 -0.15822153 -0.30292463 0.3751507 -0.5532393 -0.66057104 0.59592974
0.5311449 -0.16767916 -0.6126175 0.064875014 0.5386501 -0.32785028 0.63842994 0.7702005
-0.1107198 0.30947566 -0.4898302 0.50663304 -0.62742966 0.39864436 0.4210254 0.6401861
-0.3090225 0.15972434 0.48835474 0.6833037 -0.3505142 0.5052663 0.5426085 -0.27131954
-0.68311435 0.82178134 0.6980852 0.1253136 0.48335326 0.7958426 0.5360745 -0.45816988
-0.91030496 -0.88769454 0.851258 0.15223166 0.6463908 -1.0464065 -0.48994115 0.74501854
1.1436322 -0.6317363 0.71279997 0.7027176 0.08438941 -0.8728919 1.0689633 0.5660487
0.86362475 0.64467 -0.6139683 -0.506507 -0.4229546 0.38325495 0.57513 -0.45484492
0.279762 0.92390215 0.24254271 0.46436262 -0.5750802 0.8480778 1.01261 -0.91351926
-0.81420857 0.25704062 0.93910044 -0.09944893 -0.8257136 0.50257194 -0.9786692 -1.1806643
0.16972584 -0.4744049 0.750876 -0.7766336 0.96180654 -0.61109436 -0.64540297 -0.98136127
0.4737102 -0.24484642 -0.74861425 -1.0474576 0.5373142 -0.77453846 -0.8317815 0.41591418
1.0471673 -1.2597343 -1.0701166 -0.19209711 -0.7409473 -1.2199719 -0.8217653 0.7023429
0.6469642 0.6308947 -0.6049988 -0.108192794 -0.45939738 0.7436931 0.34820682 -0.5294933
-0.81279254 0.44898227 -0.5065952 -0.49942952 -0.059976526 0.6203743 -0.7597245 -0.40229732
-0.61378807 -0.45817438 0.43635437 0.35998034 0.3005987 -0.2723837 -0.40875152 0.32326353
-0.19883008 -0.6566279 -0.1723779 -0.33002788 0.40871614 -0.6027386 -0.7196735 0.64924866
0.5786674 -0.18268172 -0.6674295 0.0706795 0.58684415 -0.35718367 0.69555146 0.83911175
-0.12062611 0.33716503 -0.53365624 0.55196244 -0.683567 0.4343118 0.45869532 0.69746476
-0.3366713 0.17401516 0.53204876 0.7444402 -0.38187537 0.5504734 0.5911567 -0.295595
-0.74423385 0.89530766 0.7605442 0.13652563 0.52659976 0.8670481 0.5840381 -0.49916318

bias_epsilon f4 [64]
00000000: 19f4 aabf e388 1abf 1ee4 6c3f 795c 28bf
00000010: 9fa1 383e 4dcf d7be 5fdc 4a3f 9e88 59bf
00000020: e4c2 8e3f dbb5 31bf 4cff 7fbf caac 5a3f
00000030: fa52 333f 59e9 c63e c26e 3a3f 05ee 70be
00000040: 5c3b 5bbf 67dc 593f 5594 58bf 5c8c fd3e
00000050: 9014 b23f 13dd 283f 0c5a de3f 8c3b 62bf
00000060: 242c 1e3f ce2b af3f 60bf 623e 56a6 f63e
00000070: 1a41 6e3f 71f9 b9bf ee5b 8c3f de11 34bf
00000080: 897d 493f 15ce 453f 5645 1abf 26ef 92be
00000090: 5526 c13f 6f71 11bf 1e46 84be e16b 7d3e
000000a0: fbae 903f a521 45bf f6d0 f13e ebbe d5be
000000b0: 91d0 8f3f 6704 3abe 2c61 8cbf 55b6 8dbf
000000c0: ae98 833f 91d0 40bf 8004 733f dbb8 253f
000000d0: 3f8d 92bf 46c4 843f d7c5 83bf 33cd 5fbf
000000e0: 279d 393f e67e b33f 6500 f9be f9c5 89bf
000000f0: 56ab debe e169 5d3f dd42 6bbf 26b0 c73e
-1.3355743 -0.6036512 0.9253558 -0.657661 0.18030404 -0.42150345 0.7924251 -0.84974086
1.1153226 -0.69418114 -0.9999893 0.85419905 0.7004849 0.38849905 0.72825253 -0.23528297
-0.8563745 0.8510193 -0.84601337 0.49521148 1.3912525 0.6596233 1.737123 -0.8837211
0.61786103 1.3685243 0.22143316 0.4817378 0.9306809 -1.4529248 1.0965555 -0.70339763
0.78707176 0.7726758 -0.6026205 -0.2869808 1.5089823 -0.5681371 -0.25834745 0.24748184
1.13034 -0.7700446 0.47229737 -0.4174722 1.1235524 -0.18165742 -1.0967155 -1.1071268
1.0280969 -0.7531825 0.9492874 0.6473519 -1.1449355 1.0372398 -1.0294751 -0.87422484
0.7250542 1.4023101 -0.48633114 -1.0763541 -0.43490094 0.86489683 -0.918989 0.39001578

epsilon_in f4 [64]
00000000: 10d6 7bbf bc94 75bf 3580 6b3f b375 283e
00000010: 01d3 323f 8ebe 90bf da8a 07bf 111c 4e3f
00000020: 7031 9e3f 23c5 2ebf 4532 453f 3668 423f
00000030: 58c5 ba3d 607c 71bf 52dd 933f fa98 1c3f
00000040: 0eec 6e3f 2259 323f c4da 29bf 1620 0cbf
00000050: 6505 eabe 230e d43e 231c 1f3f 80aa fbbe
00000060: e2ca 9a3e 0d99 7f3f f532 863e 5177 003f
00000070: 9d18 1fbf fa9e 6a3f c711 8c3f b5b9 7cbf
00000080: 4740 61bf 8338 8e3e b7e6 813f c419 dcbd
00000090: 176f 64bf 6509 0b3f e55f 87bf cb50 a3bf
000000a0: a0d1 3b3e 893e 03bf e8ba 4f3f 20db 56bf
000000b0: c40a 853f 390f 29bf 0b8d 32bf 39bf 87bf
000000c0: 560d 033f 4479 87be b91a 4fbf c7e3 90bf
000000d0: eda5 143f be46 56bf d61c 66bf 2720 e63e
000000e0: 7fd9 903f c240 aebf 2906 94bf 2f93 54be
000000f0: bbfb 4cbf b9c0 a8bf 7757 63bf ac4d 423f
-0.9837351 -0.95930076 0.91992503 0.16451149 0.69853216 -1.1308153 -0.52946246 0.80511576
1.2358837 -0.68269557 0.7702983 0.75940263 0.091196716 -0.94330406 1.1551917 0.61170924
0.9332894 0.69667256 -0.66349435 -0.5473646 -0.4570724 0.41417035 0.6215231 -0.4915352
0.30232912 0.9984291 0.26210752 0.5018206 -0.6214693 0.9164883 1.0942925 -0.98720866
-0.87988704 0.2777749 1.0148534 -0.10747102 -0.8923201 0.5431121 -1.057614 -1.2759031
0.18341684 -0.51267296 0.8114457 -0.8392811 1.039391 -0.6603885 -0.69746464 -1.0605232
0.51192224 -0.26459706 -0.8090015 -1.1319512 0.5806568 -0.83701694 -0.8988775 0.44946405
1.1316375 -1.3613513 -1.156438 -0.20759271 -0.8007161 -1.3183814 -0.88805336 0.7589977

epsilon_out f4 [64]
00000000: 19f4 aabf e388 1abf 1ee4 6c3f 795c 28bf
00000010: 9fa1 383e 4dcf d7be 5fdc 4a3f 9e88 59bf
00000020: e4c2 8e3f dbb5 31bf 4cff 7fbf caac 5a3f
00000030: fa52 333f 59e9 c63e c26e 3a3f 05ee 70be
00000040: 5c3b 5bbf 67dc 593f 5594 58bf 5c8c fd3e
00000050: 9014 b23f 13dd 283f 0c5a de3f 8c3b 62bf
00000060: 242c 1e3f ce2b af3f 60bf 623e 56a6 f63e
00000070: 1a41 6e3f 71f9 b9bf ee5b 8c3f de11 34bf
00000080: 897d 493f 15ce 453f 5645 1abf 26ef 92be
00000090: 5526 c13f 6f71 11bf 1e46 84be e16b 7d3e
000000a0: fbae 903f a521 45bf f6d0 f13e ebbe d5be
000000b0: 91d0 8f3f 6704 3abe 2c61 8cbf 55b6 8dbf
000000c0: ae98 833f 91d0 40bf 8004 733f dbb8 253f
000000d0: 3f8d 92bf 46c4 843f d7c5 83bf 33cd 5fbf
000000e0: 279d 393f e67e b33f 6500 f9be f9c5 89bf
000000f0: 56ab debe e169 5d3f dd42 6bbf 26b0 c73e
-1.3355743 -0.6036512 0.9253558 -0.657661 0.18030404 -0.42150345 0.7924251 -0.84974086
1.1153226 -0.69418114 -0.9999893 0.85419905 0.7004849 0.38849905 0.72825253 -0.23528297
-0.8563745 0.8510193 -0.84601337 0.49521148 1.3912525 0.6596233 1.737123 -0.8837211
0.61786103 1.3685243 0.22143316 0.4817378 0.9306809 -1.4529248 1.0965555 -0.70339763
0.78707176 0.7726758 -0.6026205 -0.2869808 1.5089823 -0.5681371 -0.25834745 0.24748184
1.13034 -0.7700446 0.47229737 -0.4174722 1.1235524 -0.18165742 -1.0967155 -1.1071268
1.0280969 -0.7531825 0.9492874 0.6473519 -1.1449355 1.0372398 -1.0294751 -0.87422484
0.7250542 1.4023101 -0.48633114 -1.0763541 -0.43490094 0.86489683 -0.918989 0.39001578

weight_mu f4 [3, 64]
00000000: 6ae0 18be 4406 94bf df74 7dbd 9a1b 83bf
00000010: e792 61be 8532 67bf 61a6 4f3f 27ac dfbd
00000020: 1be7 7bbf c833 0b3f b5d0 533e 9df7 ee3d
00000030: b38e 403e d929 57be 278a e83c 5e45 68bd
00000040: 6007 773f 4969 d1be d8a2 0ebf a105 503f
00000050: da79 2f3e 8cc9 cf3d 011b 5b3f 12db d23e
00000060: dee5 dbbc 24dd 253d e9e8 afbb 835d 61bf
00000070: 7038 633e 6e0c f23e d311 f6ba 642e b3bd
00000080: aca8 213e 026c 3e3f dda5 8dbd c858 803e
00000090: c9b8 59bf fc31 4a3f 8a85 683b a6a4 bebd
000000a0: 32f6 123e 8cca 5e3e fdc9 123f 28cb c33d
000000b0: 07b2 79be a29d 1e3d 441b f2be 7f42 22bc
000000c0: c0ec 163e 044c 29bd 1db6 06be 242c ed3d
000000d0: 915d d83d 08f6 b63d 96a8 0abd 7f6c 3ebf
000000e0: cce6 1f3c fbf4 c13e 49e6 88be 4e56 09bd
000000f0: cba6 5d3d f1e3 cc3f 1557 c8bd 987d a3be
00000100: 246d f7be 28b1 adbf 5acd 9cbd 8732 3f3f
00000110: 8f3b ad3e acc7 9dbe 2911 bd3d baba d03d
00000120: 7b6b 6cbf d5a7 d3bf 3a8b 523e fb92 9d3e
00000130: 35b3 be3d 0dd0 873e 87cc 79bd f363 903d
00000140: f1af 6bbf d073 a2bf 24c2 8cbc 2f0d 98bf
00000150: d9a1 00be f41c ea3d 678c a0be 12df eabd
00000160: f375 8b3d f905 e33d 7bba b3bc d577 803d
00000170: f5bd 06bd 0bb6 32be 229a 49bc 760f 2bbf
00000180: d6d7 49be f12f 60bf 3394 bebc 3ce5 45be
00000190: 1f79 8b3e 89f7 d3be c9af f73b 6f53 cbbd
000001a0: 6869 1b3e fdd8 54bd 6afe bebf b9a5 c63d
000001b0: e86a 243e a343 7b3c aaaf 623c 8c38 3c3c
000001c0: 6152 263f 37ae 0b3e 94b1 3cbd cbc4 7cbd
000001d0: d0e7 e1bc c59c 90bd 20f5 73be 9987 b7bf
000001e0: e1d3 0cbe c684 69bd c313 8bbe 1653 20bc
000001f0: c044 eebd 76f1 a7bf a08a b7bd 23b5 dd3d
00000200: 5563 d63e c3f2 af3f 4696 99bc 1dad 863f
00000210: b55b 6a3e fa66 273f 8763 3dbf 2453 a9bc
00000220: 5c91 813f 7a95 193f 3f56 70bd c692 57be
00000230: 16e4 80be b9de 233e 215d 263e 3e05 503e
00000240: 2b1c 80bf cba5 953f ef8b 2f3f d23b 4fbe
00000250: 3e3b 5e3d 3a3b 863d 5a8c 19bf b623 6cbe
00000260: 56d6 0ebd 3ca0 8a3b 1c35 8ebd 3497 773f
00000270: aac2 debe 336c 01bf 27de ea3d 0ddd dd3e
00000280: c4da a2bd 4323 aabc 3860 0bbe 50d6 f1bb
00000290: 4dbd 303f 6b49 75bf b6b7 7c3d bbf8 333e
000002a0: 459f 88be bfe1 0abc c2fb b53e 82e0 ffbd
000002b0: 9b30 1e3d 564e 38bd d96e f43e c0f2 833d
000002c0: 682f e6be 0a3b 85bd 55ba 1dbd 73f1 bfbc
000002d0: 4d60 a23d 9891 4a3e 9083 4e3e 7a13 993f
000002e0: 2658 1d3e b541 96be 8b46 c23e c195 7c3c
000002f0: d32d c5bd ed77 aabf 50cb 05be bf0f 5a3e
-0.14929357 -1.1564412 -0.061879035 -1.0242798 -0.22028695 -0.9031146 0.8111325 -0.10921507
-0.98399514 0.54375887 0.20685084 0.11668322 0.18804435 -0.21012057 0.028386189 -0.05670678
0.9649563 -0.4090064 -0.5571723 0.8125859 0.17136326 0.10145864 0.8558808 0.41182762
-0.026843008 0.0404941 -0.005368341 -0.8803331 0.22189498 0.47275108 -0.0018773623 -0.08749083
0.15787 0.74383557 -0.069164015 0.25067735 -0.85047585 0.7898252 0.0035479986 -0.09308748
0.14351729 0.21756953 0.5733946 0.09560233 -0.24384318 0.03872455 -0.47286427 -0.009903549
0.1473875 -0.04133226 -0.13155408 0.11580685 0.105647214 0.089336455 -0.033852182 -0.743843
0.009759616 0.37882218 -0.26738194 -0.033529572 0.054114144 1.6007062 -0.097822346 -0.31931758
-0.48325455 -1.3569689 -0.07656355 0.74686474 0.33834502 -0.308164 0.09231789 0.10191865
-0.923515 -1.6535593 0.20560923 0.307762 0.09311525 0.26525918 -0.060986068 0.07050314
-0.9206534 -1.2691593 -0.017182417 -1.1879023 -0.1256174 0.114313036 -0.31357118 -0.114683285
0.068096064 0.110851236 -0.021939507 0.06272856 -0.032896 -0.17452256 -0.0123048145 -0.66820467
-0.19711241 -0.8757315 -0.023264026 -0.19325727 0.27240846 -0.41399792 0.007558797 -0.09928023
0.15176928 -0.05196475 -1.4921391 0.09699578 0.16056406 0.01533595 0.013835827 0.011488091
0.6496945 0.13640676 -0.04606779 -0.061711114 -0.027576357 -0.070611514 -0.23823977 -1.4338256
-0.137527 -0.05701139 -0.27163514 -0.009785434 -0.11634207 -1.3120563 -0.089619875 0.10825565
0.4187266 1.374596 -0.018748414 1.052158 0.22886546 0.65391505 -0.7397999 -0.020669527
1.0122485 0.5999371 -0.058676 -0.21052083 -0.25174016 0.1600293 0.16246463 0.203145
-1.0008596 1.1691221 0.68572897 -0.20237663 0.054255717 0.06554265 -0.59979784 -0.23060498
-0.034872375 0.004230527 -0.069437236 0.9671509 -0.43507892 -0.50555724 0.114681534 0.4333271
-0.079518825 -0.020768767 -0.13610923 -0.0073802844 0.6903885 -0.9581515 0.061698638 0.17575352
-0.26684013 -0.008476674 0.35543638 -0.12493993 0.038620573 -0.044996582 0.4774082 0.06442785
-0.44958043 -0.065054014 -0.03850778 -0.023430562 0.07928524 0.19782102 0.20167375 1.1959069
0.15365657 -0.29347005 0.37944445 0.0154165635 -0.09627881 -1.3317848 -0.13065839 0.21295069

weight_sigma f4 [3, 64]
00000000: af5c 203d bc01 9f3e c12b 023d a166 b03c
00000010: 4471 94bb 4dbc e2bd ddf8 433c b671 7cbd
00000020: 904c 543c 9d42 993c 8346 04bd 0b60 863e
00000030: 18b8 3abc 6e16 7e3b e14e 233e 8a37 bb3d
00000040: 55fe d4bc 2ea0 f7bb 69e0 9a3c 1226 48bd
00000050: 6c63 9f3c 3b34 423e e871 ae3d 98eb 143d
00000060: 4940 193d be59 efbc 2ac1 963d 470b 643d
00000070: 4967 be3b 78e6 333c 391c 6e3c ff5a e0bd
00000080: 05e6 cbbd 4b1d 563d 4e33 e73d 4d54 c2bd
00000090: 1edb 183d c9ad 0dbc 4072 5aba 2e84 023e
000000a0: c742 12bd 0039 d03c 24b6 8e3d 5e30 9dbc
000000b0: 2d59 1bbe b919 93bc 78ef c5bb 9d24 5c3d
000000c0: 397c 1f3c bcb3 343c 471c 27bd 21a6 013d
000000d0: da9c 2f3d db9f c03d b424 a03c 76e0 12bc
000000e0: 7985 ee3b ead4 d338 eaf4 8d3d 6785 2dbc
000000f0: 5422 ab3d 43a0 3ebd 82ca 503d 80cb cdbc
00000100: f4a1 343e 526b 823e 6503 823d 7470 003d
00000110: df1d ae3d eae9 e9bb bb8f 373d ca82 093d
00000120: 76c9 243d 371f e5ba 090a 923c b7ac e4bd
00000130: b336 f83b 715c 893c 0929 213e 5451 ba3c
00000140: ebc1 65bb 2f73 e2bc 871a a6bb 270c 803d
00000150: 7403 5e3d 4939 fc3d acae c63b b0e8 bebc
00000160: a92b 1a3c 6482 5cbd bf86 b6bd 2c22 23bd
00000170: d414 423a f555 bb3c aad4 24be 44f6 d83e
00000180: d102 1fbe 4db1 fa3c 0e8d 013c c42b a9bd
00000190: 4d50 1a3c 4bdf 3fba dbea 433d f846 403e
000001a0: 8ac5 153e 3a21 abbd b118 c1bc 630a c6bd
000001b0: ff50 bd3c 34e4 1d3d 74f6 433c eecb 313d
000001c0: f7d0 51bd b8c6 42bd f4fd 92bc 71be 633d
000001d0: b874 94bd d794 733e 1e85 95bd 0fbb db3c
000001e0: 96d7 0ebe aa7e 383e 90b6 e73d 207a 8cbc
000001f0: 1d7b cd3c 9d5d 59bd 6bc5 53bd 533c 0a3d
00000200: 80b1 283e 4558 4d3c 322e ad3c 3333 1ebd
00000210: 70c3 d53d cfed 073e 6f8c aebc 4843 6fbc
00000220: aebc 48bc 7773 383c 8a5c a33c 8284 98bd
00000230: 4979 c439 e521 bf3c 7272 683e 57f1 b6bc
00000240: 88f6 1fbb 570e 913c c223 7a3c 547b a7bd
00000250: 20d3 453e 67b7 c73d 0bfc 5ebd 6cf2 573c
00000260: e028 783d 04aa 8c3d 01b3 633d cb77 0b3b
00000270: 2a34 e03c da84 cd3a c9bf ebbc 0f6e cf3e
00000280: 08a0 5e3e a755 36bc 4851 593e e502 163e
00000290: c876 463c 2039 a53c e57f 93bd 10b4 783e
000002a0: 1046 d43e 3076 863e aed2 85bc ae33 8dbc
000002b0: faa2 3e3e 3ef1 bfbc d8dc 93bc 64e4 ed3c
000002c0: 8119 a0bc d731 d6bd 2005 443d 2bd5 003e
000002d0: 3b31 57bd 9d85 513e 9adc 81bb e531 4a3d
000002e0: b724 313d 618b 24bd 9199 0abd 4539 3dbb
000002f0: a23a a63c 65f8 263d 53b0 aa3c d227 ea3d
0.03915089 0.3105601 0.03178001 0.021533312 -0.004530104 -0.11071072 0.011961189 -0.06163188
0.012957707 0.018708522 -0.032293808 0.2624515 -0.01139643 0.0038770693 0.15948059 0.091414526
-0.026000181 -0.0075569367 0.018905835 -0.04886443 0.019456588 0.18965237 0.0851782 0.036357492
0.037414823 -0.029217597 0.07361062 0.055674817 0.0058106524 0.010980241 0.014533096 -0.10954856
-0.09955982 0.05227403 0.112890825 -0.09488735 0.03731834 -0.008647391 -0.00083330646 0.12745735
-0.035708215 0.025417805 0.06968334 -0.019188102 -0.15170737 -0.017956601 -0.00604051 0.053745855
0.009734207 0.01102918 -0.04079845 0.031652573 0.042874195 0.0940549 0.019548751 -0.0089646485
0.007279095 0.000101009224 0.06931479 -0.010590888 0.08356157 -0.046539556 0.050974376 -0.02512145
0.17639905 0.25472504 0.06348304 0.031357244 0.08501791 -0.0071384804 0.044814806 0.033571996
0.04023119 -0.0017480616 0.01782705 -0.11165755 0.00757488 0.016767712 0.1573831 0.022743858
-0.003505821 -0.027642814 -0.0050690803 0.06252318 0.054202512 0.12315614 0.006063303 -0.023304313
0.009409823 -0.053835288 -0.089124195 -0.03982751 0.00074036163 0.022868136 -0.1609675 0.42375386
-0.15528418 0.030602122 0.007907165 -0.08260301 0.009418559 -0.0007319345 0.047831398 0.18777072
0.14626136 -0.08355947 -0.023571344 -0.0966995 0.023109911 0.03854771 0.0119606145 0.043407373
-0.051224675 -0.047552794 -0.01794336 0.05560154 -0.07248825 0.23787247 -0.07300781 0.026822595
-0.13949427 0.18017069 0.11314118 -0.017148077 0.025083119 -0.053067792 -0.051701944 0.033748936
0.16473961 0.012533252 0.021140192 -0.038623046 0.10437667 0.1327431 -0.021307198 -0.014603443
-0.012252016 0.011257998 0.019941587 -0.07447149 0.00037474398 0.023331592 0.22699907 -0.022331877
-0.0024408419 0.017707033 0.015267314 -0.0817782 0.19318819 0.09751778 -0.054439586 0.0131803565
0.060585856 0.068683654 0.055590633 0.002128112 0.027368624 0.0015679852 -0.028777974 0.40513656
0.21740735 -0.01112882 0.21222413 0.14649542 0.012113281 0.02016884 -0.07202128 0.24287438
0.41459703 0.26262045 -0.016335811 -0.017236557 0.18616858 -0.023430463 -0.018049642 0.02903957
-0.019543411 -0.10458725 0.04785645 0.12581317 -0.052537184 0.20461126 -0.0039630653 0.04936399
0.043247905 -0.040171985 -0.03383786 -0.0028873247 0.02029163 0.04076423 0.020836031 0.11433376

bias_mu f4 [3]
00000000: 843c 9dbe 3268 74be 7844 ac3e
-0.30710232 -0.23867872 0.33645988

bias_sigma f4 [3]
00000000: aaad 073c 5bce ab3d aafc 75bc
0.008281151 0.083889686 -0.015013853

weight_epsilon f4 [3, 64]
00000000: 758b e1be 94d4 8fbf 7408 553f 8d52 9ebe
00000010: 3f21 34bf 5390 313f b15e 2bbf c4c9 5ebf
00000020: 244a c9be 4900 a83f 546c 563e 94a1 293f
00000030: e7af 0b3f 5a84 3c3f 30f1 d23e f7ca 283f
00000040: 84a7 4fbf 63d2 4a3f 9b44 f2be b7ac f63e
00000050: 227c 853f f470 643f 221b 30bf e937 cbbe
00000060: f245 1cbf 8e65 053e 31e3 24bf 2997 333f
00000070: bd49 2a3f 4b9d 91bf 46dd 9d3f 0a39 fd3e
00000080: fe25 39bf c7ad 373e b69c 513f 9012 843f
00000090: a80f 193f 9ef4 a0bf 61c5 733f c9e8 483f
000000a0: c787 37bf a939 5d3f 7b56 2c3e ee70 4a3f
000000b0: aba4 4bbf 1605 193f 24a1 aabf c5b0 5d3f
000000c0: 2138 463f 9f3a 1bbf bea9 683f e4d4 89bf
000000d0: 1d95 a3be 5253 923f ea95 593f 74d0 e4be
000000e0: 9526 8f3f f1b1 683f 96ba 8b3f 9bad 7b3f
000000f0: 1009 893f 5afa 983e c125 e63e 8918 57bf
00000100: fc7a 84be 52f7 28bf 3543 fa3e a5fd 39be
00000110: f79b d3be 3f98 d03e 8151 c9be 7adc 02bf
00000120: 8477 6cbe 635c 453f 47e5 fb3d 9b46 c73e
00000130: 4819 a43e 4c76 dd3e 67ce 773e 7c4a c63e
00000140: a4f1 f3be 5044 ee3e a54d 8ebe 46e4 903e
00000150: 09d0 1c3f 862e 063f d5e1 cebe 94bb 6ebe
00000160: 5b95 b7be 83b5 9c3d ffb3 c1be c0f9 d23e
00000170: 280c c83e da0f 2bbf df73 393f e9bc 943e
00000180: 3c81 d9be 46c7 d73d 6c3e f63e 4627 1b3f
00000190: 5dcf b33e 8215 3dbf a72f 0f3f 2605 ec3e
000001a0: a29a d7be 76f1 013f 9974 ca3d d3d1 ed3e
000001b0: 573b efbe f3c2 b33e d472 48bf 6c37 023f
000001c0: 25dc e83e 515b b6be 5ca9 083f 41eb 21bf
000001d0: 882b 40be b0e5 2b3f 589c ff3e 9e66 86be
000001e0: ea2a 283f 2cae 083f d525 243f a4d4 133f
000001f0: cffb 203f 57b6 333e 172f 873e 94af fcbe
00000200: a5df 0fbf 3f7f b7bf 78e4 873f 61fc c9be
00000210: b7ce 65bf a088 623f b1a1 5abf 7d1d 8ebf
00000220: c366 00bf 7255 d63f 7bc7 883e d269 583f
00000230: 0c36 323f f781 703f 078f 063f 0558 573f
00000240: 2176 84bf f960 813f 918a 1abf 2e5a 1d3f
00000250: 644c aa3f a5b8 913f 82ac 60bf bca1 01bf
00000260: 185f 47bf 962f 2a3e 865c 52bf 8d1e 653f
00000270: 5c40 593f eac5 b9bf c366 c93f 7f87 213f
00000280: c835 6cbf cf55 6a3e d7b5 853f 1a7f a83f
00000290: 0746 433f 5858 cdbf 0280 9b3f a928 803f
000002a0: 5425 6abf 441e 8d3f d1dd 5b3e ce22 813f
000002b0: 1ce7 81bf 8c38 433f ddaf d9bf 3f6a 8d3f
000002c0: bee2 7c3f 0c0a 46bf 126a 943f 08d8 afbf
000002d0: 4fb2 d0be 25ae ba3f e9cb 8a3f 90f5 11bf
000002e0: 43a1 b63f 4d6f 943f ad43 b23f 408b a03f
000002f0: fed3 ae3f da2a c33e 46cf 123f 5435 89bf
-0.4405171 -1.1236749 0.83216023 -0.30922356 -0.7036323 0.69360846 -0.6694136 -0.8702662
-0.39314377 1.3125087 0.20939761 0.66262174 0.5456528 0.7363945 0.41199636 0.659347
-0.81114984 0.79227275 -0.47317967 0.48178646 1.0428507 0.8923485 -0.687914 -0.39691094
-0.6104423 0.13027021 -0.64409167 0.7015253 0.66518766 -1.1376127 1.2333152 0.4945758
-0.72323596 0.17937385 0.81879747 1.0318165 0.59789515 -1.2574651 0.9522305 0.784802
-0.71691555 0.8641611 0.16829865 0.7907857 -0.7954814 0.59773386 -1.3330426 0.86597854
0.77429396 -0.60636324 0.90884006 -1.0768094 -0.31949702 1.1431677 0.84994376 -0.44690287
1.1183649 0.9089652 1.0916317 0.98311776 1.0705891 0.29878503 0.4495068 -0.8402181
-0.2587508 -0.6600238 0.488794 -0.18163164 -0.4132993 0.40741155 -0.39319995 -0.5111767
-0.23092467 0.77094096 0.122995906 0.38921055 0.32050538 0.43254316 0.2419983 0.38728702
-0.47645295 0.46536493 -0.27793613 0.2829916 0.61254936 0.5241474 -0.4040667 -0.23313743
-0.35856137 0.07651808 -0.3783264 0.4120617 0.39071774 -0.6682106 0.7244243 0.29050377
-0.4248141 0.10536055 0.480945 0.606068 0.35119143 -0.73860943 0.55932087 0.46097678
-0.42110163 0.50759065 0.098855205 0.46449146 -0.4672496 0.35109672 -0.78300214 0.5086582
0.45480457 -0.35616544 0.5338342 -0.63249594 -0.18766606 0.6714735 0.49923968 -0.26250166
0.6569048 0.53390765 0.6412023 0.5774634 0.6288423 0.17550026 0.26403114 -0.49352705
-0.5620063 -1.4335707 1.0616598 -0.39450362 -0.89768547 0.88489723 -0.8540297 -1.1102749
-0.501568 1.6744826 0.26714692 0.8453647 0.6961372 0.9394831 0.5256199 0.8411868
-1.034855 1.0107719 -0.60367686 0.6146573 1.3304563 1.1384474 -0.87763226 -0.5063741
-0.77879477 0.16619715 -0.8217243 0.8949974 0.8486383 -1.4513524 1.5734485 0.63097376
-0.92269564 0.22884296 1.0446118 1.3163788 0.7627873 -1.6042585 1.214844 1.0012408
-0.9146321 1.1024861 0.21471335 1.0088747 -1.0148654 0.7625816 -1.7006794 1.1048049
0.9878348 -0.7735908 1.159487 -1.3737803 -0.4076104 1.4584395 1.0843478 -0.57015324
1.4267963 1.1596466 1.3926903 1.2542496 1.3658445 0.3811863 0.57347524 -1.07194

bias_epsilon f4 [3]
00000000: 91e3 6b3f 6e8e 0a3f dc78 963f
0.92144114 0.5412358 1.1755633

epsilon_in f4 [64]
00000000: 1fc6 f4be c617 9cbf 0a32 673f 0bd2 abbe
00000010: b37c 43bf c6b3 403f f4fa 39bf 44c8 71bf
00000020: 6c73 dabe 0653 b63f 42b4 683e e417 383f
00000030: ab98 173f dc96 4c3f 24ed e43e fb2e 373f
00000040: b65b 61bf 1c1d 5c3f 2276 03bf 47da 053f
00000050: 88dd 903f d6ea 773f c31e 3fbf 4a8b dcbe
00000060: b698 29bf 07c5 103e f9f1 32bf d8e6 423f
00000070: 64ce 383f 6d07 9ebf c552 ab3f e667 093f
00000080: fbee 48bf b156 473e a37b 633f 2255 8f3f
00000090: 511c 263f 94ad aebf ec46 843f c409 5a3f
000000a0: 732d 47bf 0d16 703f de07 3b3e 58b3 5b3f
000000b0: 5101 5dbf d910 263f 3e2d b9bf 5097 703f
000000c0: 661e 573f 9976 28bf c57f 7c3f 2895 95bf
000000d0: 6987 b1be f9cc 9e3f dd22 6c3f 7a52 f8be
000000e0: f15a 9b3f ab88 7c3f 43a4 973f 5391 883f
000000f0: f4b7 943f 3305 a63e e0c4 f93e 256f 69bf
-0.47807404 -1.2194755 0.9031073 -0.33558688 -0.7636215 0.7527431 -0.7264855 -0.94446206
-0.42666185 1.4244087 0.22725013 0.71911454 0.5921733 0.79917693 0.44712174 0.7155606
-0.88030565 0.8598192 -0.5135213 0.5228619 1.1317606 0.96842706 -0.74656314 -0.4307502
-0.66248643 0.1413766 -0.6990047 0.7613349 0.7218993 -1.2346016 1.3384634 0.5367416
-0.78489655 0.19466664 0.8886053 1.1197855 0.6488696 -1.3646722 1.0334144 0.8517115
-0.77803725 0.93783647 0.1826472 0.8582053 -0.86330134 0.6486946 -1.4466932 0.93980885
0.8403076 -0.65805966 0.9863246 -1.1686144 -0.34673622 1.2406303 0.922407 -0.48500425
1.2137128 0.9864604 1.1847004 1.066935 1.1618638 0.32425842 0.48783016 -0.9118522

epsilon_out f4 [3]
00000000: 91e3 6b3f 6e8e 0a3f dc78 963f
0.92144114 0.5412358 1.1755633
