save/model/acrobot_dqn_noisy_mod_hid_64_128.pth (torch_old, 110935 bytes, 18 tensors)

weight f4 [64, 6]
0	0x3d8bb958	0.06822461
1	0x3f3702bf	0.71488565
2	0x3f059262	0.5217649
3	0x3e7e70f2	0.24847773
4	0xbe183d8c	-0.14867228
5	0xbe7b12df	-0.24518918
6	0x3ef38e14	0.47569335
7	0x3dcba3a2	0.0994332
8	0x3e4e863b	0.20168392
9	0xbdec4ed7	-0.11538475
10	0xbe8bfa68	-0.27339482
11	0xbd8fb119	-0.070162006
12	0xbef44aaf	-0.4771323
13	0x3eb080e9	0.3447335
14	0xbf330072	-0.69922554
15	0xbe6f5ab3	-0.23374443
16	0x3de31432	0.11087836
17	0x3dc2799d	0.09495852
18	0xbf7d8030	-0.99023724
19	0x3e7a6345	0.24451931
20	0xbea13487	-0.31485388
21	0xbefe0d24	-0.496194
22	0xbd8458f3	-0.06462278
23	0x3e04db8c	0.12974375
24	0x3d92641b	0.07148
25	0xbde0f7c0	-0.109847546
26	0xbf55d4bf	-0.8352775
27	0x3ead946b	0.33902296
28	0xbd269fae	-0.040679626
29	0x3ddb3493	0.10703387
30	0xbf76a3d6	-0.96343744
31	0xbed01568	-0.40641332
32	0x3e59919f	0.21246956
33	0xbdf04eb7	-0.11733764
34	0xbe922cad	-0.2854971
35	0x3dcd38d2	0.10020603
36	0xbe9e37d2	-0.30901963
37	0xbe386a10	-0.1800921
38	0xbeef84a6	-0.4678089
39	0xbc918087	-0.017761482
40	0x3e7cf2d8	0.24702013
41	0xbe0bf4cb	-0.136676
42	0x3f1ca5cc	0.61190486
43	0xbee77da3	-0.4521304
44	0x3e633bbd	0.22190757
45	0xbd2c40bb	-0.04205392
46	0xbe5ddb2a	-0.21665636
47	0xbe242d43	-0.16032891
48	0x3e9b4062	0.30322558
49	0x3e96b32c	0.29433572
50	0x3f0124ff	0.50447077
51	0xbee2be1a	-0.4428566
52	0xbaa5e77f	-0.0012657492
53	0x3d9230c2	0.07138206
54	0xbdb175b3	-0.086650275
55	0x3e127330	0.14301753
56	0x3ea37544	0.31925404
57	0xbd310f81	-0.043227676
58	0xbedc03e8	-0.4297173
59	0xbe0bb523	-0.13643317
60	0x3de8b52b	0.1136268
61	0x3e32caa3	0.17460112
62	0xbdc2b230	-0.09506643
63	0xbd1fe594	-0.039037302
64	0x3c6d395e	0.014479009
65	0xbe296f4f	-0.16546367
66	0xbe3cbbcf	-0.18431018
67	0xbf18736d	-0.59551126
68	0x3e48a9f2	0.19596079
69	0xbeb9b39c	-0.36269844
70	0x3ecc1c03	0.3986512
71	0x3eb49e2e	0.35276932
72	0x3ec72a94	0.38899672
73	0xbe401f59	-0.18761958
74	0xbe007c99	-0.1254753
75	0xbd5e9d43	-0.054349195
76	0x3cdf5c70	0.027265757
77	0xbe0d61b4	-0.13806802
78	0x3d6718ba	0.056420065
79	0xbf1b833d	-0.6074713
80	0x3ee8b638	0.45451522
81	0x3eb879ce	0.3603043
82	0x3c1c42a6	0.009537375
83	0xbd8dd3a2	-0.069251314
84	0x3d925108	0.07144362
85	0xbf85dc65	-1.0457884
86	0xbd06026e	-0.03271716
87	0x3d2dd328	0.042437702
88	0xbd0ffe96	-0.0351549
89	0xbe9a3a54	-0.30122626
90	0xbe432500	-0.19057083
91	0xbce028db	-0.027363231
92	0x3dc151a3	0.09439399
93	0x3dbeabdc	0.09310123
94	0x3bf57d03	0.007491709
95	0x3c703952	0.014662104
96	0x3f115b5b	0.5678002
97	0xbef4356c	-0.47697008
98	0x3e7deb7c	0.24796861
99	0x3e997eaf	0.29979464
100	0x3de9fd03	0.11425211
101	0xbcd427bd	-0.025897855
102	0x3eb959b3	0.36201248
103	0x3e02bff9	0.12768544
104	0x3ebfcd4a	0.3746131
105	0xbeac4abb	-0.33650765
106	0x3e042dbb	0.1290807
107	0x3da5e096	0.08099477
108	0x3f1757eb	0.5911853
109	0xbe0f9af4	-0.14023954
110	0x3dc4f744	0.09617475
111	0x3cc7e7dc	0.024402551
112	0x3d95c64a	0.07313211
113	0x3bd8960e	0.006609685
114	0xbe83d34e	-0.2574715
115	0xbead2f02	-0.33824927
116	0x3ea280f9	0.31739023
117	0x3ddac4b5	0.1068205
118	0x3e41784a	0.18893543
119	0xbe808ab8	-0.25105834
120	0xbe9df7c4	-0.30853093
121	0xbf251517	-0.64485306
122	0xbe90f8d3	-0.28314838
123	0xbe247431	-0.16059949
124	0xbeb41771	-0.35174134
125	0xbea8ea16	-0.32991093
126	0x3ef5f830	0.48040915
127	0x3f151be5	0.5824569
128	0x3eec5011	0.46154836
129	0xbe780bbb	-0.24223225
130	0xbe37d12c	-0.17950886
131	0xbdd9da55	-0.10637347
132	0xbec44c95	-0.38339677
133	0x3ed573ee	0.4169001
134	0xbf1cd4f6	-0.6126245
135	0x3c53ea6b	0.012934308
136	0xbd21f6ba	-0.039541937
137	0xbd9ddd3f	-0.07708215
138	0xbf355bce	-0.7084321
139	0xbe51875b	-0.2046179
140	0xbe34a9b2	-0.17642859
141	0x3e5ae053	0.21374635
142	0xbea9953d	-0.33121672
143	0xbda616af	-0.08109795
144	0x3e83e10c	0.25757635
145	0x3d1e1b8c	0.03860049
146	0xbe0ab476	-0.13545403
147	0xbe076a7c	-0.13224214
148	0xbce73ff0	-0.02822873
149	0x3dd2eb4b	0.10298785
150	0x3e48651f	0.19569825
151	0x3efb5440	0.49087715
152	0xbdd944d8	-0.10608834
153	0x3d9a02dc	0.07520077
154	0x3eb318eb	0.34979948
155	0x3e9602d4	0.29299033
156	0xbe76a136	-0.24084935
157	0xbf021637	-0.5081515
158	0xbef236dd	-0.47307482
159	0x3d7cac65	0.061687846
160	0x3d37f703	0.044913303
161	0xbd1a7864	-0.03771247
162	0x3f197a21	0.5995198
163	0xbe5f4b09	-0.21805967
164	0x3e8e8aa4	0.2784015
165	0x3e88f1ff	0.26747128
166	0xbe500687	-0.2031499
167	0xbe093707	-0.13399898
168	0xbeb6bc10	-0.35690355
169	0xbe47666a	-0.19472662
170	0xbe19f9a0	-0.1503663
171	0x3eaaabbf	0.33334157
172	0x3f0b5700	0.54429626
173	0xbd690395	-0.05688818
174	0xbd5d5502	-0.054036148
175	0x3f5a684b	0.8531539
176	0xbf45f0ac	-0.7732036
177	0x3ea7f4b2	0.32803875
178	0xbd8c7c6a	-0.068596676
179	0xbd55756b	-0.05211393
180	0xbe847e7e	-0.25877756
181	0xbdec25be	-0.11530636
182	0x3ebe5b57	0.37179062
183	0xbdc1e790	-0.09467995
184	0x3f06e8a8	0.52698755
185	0x3ea4c798	0.32183528
186	0xbf768391	-0.96294504
187	0x3d8273c7	0.06369739
188	0x3efd3635	0.4945542
189	0xbe276892	-0.16348484
190	0x3d188909	0.037240062
191	0xbe264076	-0.16235527
192	0xbf80a19a	-1.0049317
193	0xbe13d9cd	-0.14438553
194	0x3e68f8a1	0.22751094
195	0x3d93f46a	0.07224353
196	0x3e881b33	0.2658325
197	0x3e647c5b	0.22313063
198	0x3e0efa24	0.13962609
199	0xbe3bd71d	-0.18343778
200	0x3e4dd634	0.20101243
201	0x3dce7f9f	0.100829355
202	0xbf326bea	-0.69695914
203	0xbe31aed0	-0.17351842
204	0xbd73979c	-0.059470758
205	0x3e626313	0.22108106
206	0x3ea73566	0.32657927
207	0x3e21cdbd	0.15801139
208	0x3c9c4268	0.019074634
209	0x3cce9762	0.02521867
210	0x3de5c368	0.112189114
211	0xbe46f72c	-0.19430226
212	0xbf40b358	-0.75273657
213	0xbe2168c4	-0.15762621
214	0xbc5a85d7	-0.013337574
215	0x3c2afa67	0.010435677
216	0xbeb1b47d	-0.34708014
217	0xbea45773	-0.32097968
218	0xbe8730fd	-0.26404563
219	0x3f2f0062	0.6835996
220	0xbc2ba516	-0.010476371
221	0xbda323aa	-0.07965787
222	0xbdcd7924	-0.10032871
223	0x3f061d62	0.52388585
224	0x3edb0783	0.42779168
225	0xbe0f052b	-0.13966815
226	0x3d0e6b47	0.034770276
227	0x3da5f883	0.081040405
228	0xbf22538b	-0.63408726
229	0x3f03ea00	0.5152893
230	0xbeffaf94	-0.49938643
231	0x3d21e4c0	0.039524794
232	0xbdb6bea7	-0.08923083
233	0xbe08948f	-0.1333792
234	0xbf16cde5	-0.5890792
235	0x3e9d8dd3	0.30772266
236	0xbde495f0	-0.11161411
237	0x3eade0e8	0.33960652
238	0x3e212a76	0.15738854
239	0xbdf5f9d2	-0.1201054
240	0xbe940064	-0.28906548
241	0x3f279715	0.6546491
242	0xbe762023	-0.24035697
243	0xbe9499bd	-0.29023543
244	0x3e51d5d3	0.20491724
245	0x3e1a4d48	0.15068543
246	0x3df7772f	0.12083279
247	0xbd8d14c5	-0.06888727
248	0x3e8964ce	0.2683472
249	0x3e3d1922	0.18466619
250	0x3c5886e3	0.013215753
251	0x3da14faa	0.07876523
252	0xbf2cdeab	-0.67527264
253	0x3e999547	0.29996702
254	0x3e666753	0.22500353
255	0xbe314aa1	-0.17313625

bias f4 [64]
0	0xbf3143f1	-0.69244295
1	0x3ec39e14	0.38206542
2	0xbf1db67a	-0.6160656
3	0xbf0e15cd	-0.55502015
4	0x3e159c5e	0.1461043
5	0xbeece811	-0.46270803
6	0xbf98dc5e	-1.1942251
7	0x3f170939	0.5899845
8	0x3e51e288	0.20496571
9	0xbf60b82d	-0.8778103
10	0x3f093344	0.5359385
11	0xbda7aadf	-0.08186888
12	0x3e6ffec6	0.23437032
13	0x3eb413ae	0.35171264
14	0xbe5f88e8	-0.2182957
15	0xbf07b20e	-0.53006065
16	0x3ea2b106	0.31775683
17	0x3f092d1c	0.53584456
18	0x3ee10a96	0.4395339
19	0xbe509c26	-0.20372066
20	0xbeb75cd4	-0.3581301
21	0xbb3f1c41	-0.0029161128
22	0x3eb47b76	0.35250443
23	0xbf8bac78	-1.0912008
24	0x3f3716f8	0.7151942
25	0xbf3e468e	-0.7432641
26	0x3e5c2434	0.21498185
27	0x3e65a016	0.22424349
28	0xbeedfbff	-0.4648132
29	0xbed44c29	-0.41464356
30	0xbf5dceda	-0.86643755
31	0xbf08c023	-0.5341818
32	0xbf0dbf33	-0.5536987
33	0xbe8f9d67	-0.28049776
34	0x3f0db69d	0.5535677
35	0x3d112ac4	0.035441175
36	0x3e8c0bb6	0.27352685
37	0x3ed2bcdd	0.41159716
38	0x3dfd5870	0.12370384
39	0xbf8e74dd	-1.1129414
40	0xbf0347c8	-0.51281404
41	0x3f12537b	0.5715863
42	0x3e2b2ade	0.16715571
43	0x3ebd3874	0.36957133
44	0x3d87ac2e	0.066246375
45	0x3d98081c	0.07423422
46	0xbf0f9aa7	-0.56095356
47	0x3f0f549c	0.5598848
48	0xbf760f21	-0.96116835
49	0xbec34b33	-0.3814331
50	0xbf5d8a1c	-0.86538863
51	0xbf857476	-1.0426166
52	0xbf64f4ce	-0.8943604
53	0xbe8b0d6e	-0.27158684
54	0xbe725f83	-0.23669247
55	0xbe97636f	-0.2956805
56	0xbf0f299b	-0.5592286
57	0x3ceba46f	0.028764931
58	0x3f19aaec	0.6002643
59	0x3e545b4b	0.2073795
60	0xbdcf74d7	-0.10129707
61	0xbf1a5f7b	-0.6030194
62	0xbe90ff9d	-0.28320017
63	0x3e89b3f6	0.26895112

weight_mu f4 [128, 64]
0	0xbe32e4a7	-0.17470036
1	0x3e2c6f3b	0.16839306
2	0x3ea46f71	0.32116273
3	0xbda702c7	-0.081548266
4	0x3e1b3d85	0.15160187
5	0xbe899332	-0.26870114
6	0xbf611649	-0.8792463
7	0x3ea2fc71	0.31833223
8	0x3e0ee279	0.1395358
9	0xbf296548	-0.6617017
10	0x3e54ee37	0.20793997
11	0xbeefb2b5	-0.4681603
12	0x3e6beaf7	0.2303885
13	0x3e34aa97	0.176432
14	0xbdfda180	-0.12384319
15	0x3d59c0ce	0.05316239
16	0x3e99ce9d	0.30040446
17	0x3eb2eff9	0.3494871
18	0x3ee53721	0.44768623
19	0xbe07c99c	-0.13260502
20	0xbe6267d9	-0.22109927
21	0x3e3178af	0.17331193
22	0x3e97d2cb	0.2965301
23	0x3eefb2b0	0.46816015
24	0x3e6b8e7e	0.23003575
25	0xbf33e127	-0.7026543
26	0x3db0d6b0	0.086346984
27	0x3e3f7da8	0.18700278
28	0xbe9f0218	-0.31056285
29	0x3e1f8f28	0.15581954
30	0xbf33b383	-0.7019579
31	0x3e1bd04a	0.15216175
32	0xbf013064	-0.50464463
33	0xbe977cf9	-0.29587534
34	0x3e850030	0.25976706
35	0x3e20489e	0.15652701
36	0x3e3a3d37	0.18187414
37	0x3dcc6f9d	0.09982226
38	0x3e6c1d60	0.2305808
39	0xbef1b4a7	-0.4720814
40	0x3e33f332	0.1757324
41	0x3e9873b7	0.29775783
42	0xbe862d76	-0.2620656
43	0x3ea1e3fe	0.31619257
44	0x3e60a632	0.21938398
45	0x3d98ecec	0.07467064
46	0x3ef7351b	0.48282704
47	0xbe08d802	-0.1336365
48	0xbf831d79	-1.0243369
49	0xbdebae49	-0.11507852
50	0xbf056d2b	-0.521197
51	0xbf0f898a	-0.5606924
52	0xbe8a5508	-0.27018
53	0xbd0c7d1e	-0.03429901
54	0x3e954469	0.29153755
55	0xbdc92f6e	-0.098234996
56	0xbec41c47	-0.38302824
57	0x3e2e873f	0.1704378
58	0x3ea91a65	0.3302795
59	0x3e3da4cc	0.18519896
60	0x3e500c41	0.20317174
61	0xbdd2e18a	-0.102969244
62	0x3df66b67	0.12032204
63	0x3dbd1a8d	0.0923358
64	0x3f373761	0.71568877
65	0xbdec8edd	-0.115506865
66	0xbed019ef	-0.40644786
67	0xbeb2f63b	-0.34953484
68	0x3d12aa9e	0.035807244
69	0x3e10fe99	0.14159621
70	0xbec7dd95	-0.3903624
71	0xbd9d5f51	-0.07684196
72	0xbecaf7f1	-0.3964229
73	0x3f08b676	0.53403413
74	0xbe13a83f	-0.1441965
75	0xbb66701e	-0.0035162042
76	0xbebd3b53	-0.36959323
77	0x3e16ef88	0.14739811
78	0xbda709fd	-0.08156202
79	0xbe3bd44e	-0.18342707
80	0xbf111c2a	-0.566836
81	0xbed3eed4	-0.4139315
82	0xbf2ac8ca	-0.6671263
83	0xbe9d0c6c	-0.3067354
84	0x3e97488f	0.29547545
85	0xbe3c532b	-0.18391101
86	0x3d31504b	0.043289464
87	0x3ee2c02d	0.44287243
88	0xbf1f2e3d	-0.6217993
89	0x3eb6d944	0.35712636
90	0xbbe772f7	-0.0070632654
91	0x3d8968be	0.06709431
92	0xbf141949	-0.5785108
93	0xbe02e935	-0.12784274
94	0x3cae55e9	0.0212812
95	0x3e92a7eb	0.28643736
96	0x3e24a7cc	0.16079634
97	0x3e98d832	0.29852444
98	0x3ea8f586	0.3299982
99	0xbf17f98e	-0.59365165
100	0x3e2f3e58	0.17113626
101	0x3cfd1904	0.030895717
102	0x3e85e5f5	0.26152006
103	0x3f5879db	0.84560937
104	0xbf25738b	-0.6462943
105	0xbe9990e2	-0.2999335
106	0x3ea0b348	0.3138678
107	0xbdc3a270	-0.09552467
108	0xbe617e7e	-0.22020909
109	0xbeb9574d	-0.36199418
110	0x3f09e356	0.5386251
111	0xbe3b41f3	-0.18286876
112	0xbe54ef6b	-0.20794456
113	0xbe7a0624	-0.24416405
114	0xbde24d34	-0.110498816
115	0x3eddb940	0.43305397
116	0x3ee303ae	0.44338745
117	0xbea371f2	-0.3192287
118	0xbf407a09	-0.7518621
119	0x3e822076	0.2541539
120	0x3f13b92c	0.57704425
121	0xbf231704	-0.63706994
122	0xbe8d8983	-0.27643976
123	0x3e6a105e	0.22857806
124	0xbf64eca0	-0.8942356
125	0xbeddb462	-0.43301684
126	0xbeb299e2	-0.34883028
127	0xbf3f3ee4	-0.7470534
128	0xbe2df089	-0.16986288
129	0xbe1749f5	-0.14774306
130	0xbda74ea2	-0.08169295
131	0xbda12ccb	-0.07869872
132	0xbce4b050	-0.027916104
133	0x3da81d94	0.082087666
134	0x3ddf49be	0.10902737
135	0xbcff0e12	-0.031134639
136	0xbe243fc6	-0.16039953
137	0x3cd1df3e	0.025619145
138	0xbe01526b	-0.12629096
139	0xbd20b13d	-0.039231528
140	0xbd408a3a	-0.047006823
141	0xbe065a90	-0.13120484
142	0xbe6f058e	-0.23341963
143	0xbd73bb94	-0.05950506
144	0xbcf50750	-0.029910713
145	0xbe04507c	-0.12921327
146	0xbe7eaacb	-0.2486984
147	0xbce31ca6	-0.027723622
148	0xbc0d4c9d	-0.008624223
149	0xbdd9f1be	-0.10641812
150	0xbdab3eda	-0.08361597
151	0xbdd86326	-0.10565786
152	0xbd81016a	-0.06299098
153	0xbdbd88e6	-0.09254627
154	0xbe347157	-0.1762136
155	0xbc3091c2	-0.010776939
156	0xbdc8ae45	-0.09798864
157	0x3c7b798c	0.015348803
158	0x3b0b0937	0.002121521
159	0xbe17e2df	-0.14832638
160	0x3d9ffb49	0.07811601
161	0xbcd8a911	-0.026447805
162	0xbda3d65a	-0.07999869
163	0x3c042ed4	0.008067805
164	0xbe1a19ec	-0.15048951
165	0x3cd6a803	0.026203161
166	0x3cb3e1a8	0.021958187
167	0xbd3fd3cf	-0.046832856
168	0xbdc6970e	-0.0969678
169	0xbe71fae7	-0.23630868
170	0xbde2ef89	-0.11080844
171	0xbe022e77	-0.12713037
172	0xbe210bd1	-0.15727164
173	0xbdfb42f0	-0.12268627
174	0x3d600a74	0.05469747
175	0xbe371390	-0.17878556
176	0x3ad1418b	0.0015964968
177	0xbd9f03c9	-0.07764394
178	0x3d1080df	0.03527915
179	0x3cff5a55	0.031171003
180	0xbd3aeee6	-0.045637988
181	0x3bcb0338	0.006195452
182	0xbdae5866	-0.085129544
183	0xbca823c5	-0.020524869
184	0xbe2c1571	-0.16805054
185	0xbd075dd7	-0.033048477
186	0xbd6f1d76	-0.058377706
187	0xbe31241c	-0.17298931
188	0xbe37875e	-0.17922732
189	0xbdfeb2b5	-0.124364294
190	0xbd28f5ae	-0.041249923
191	0xbd48b319	-0.048998926
192	0xbe5f3549	-0.2179767
193	0x3eafd9dc	0.343459
194	0x3ea62442	0.32449538
195	0xbddf20d1	-0.10894931
196	0x3e9a9697	0.30193016
197	0x3e03eca9	0.12883247
198	0xbebc7e7d	-0.36815253
199	0x3ef68b31	0.4815307
200	0x3e7bf845	0.24606426
201	0xbf3c3488	-0.73517656
202	0x3ea70d43	0.32627305
203	0x3d31668c	0.043310687
204	0x3e7145ca	0.23561779
205	0x3eda9109	0.42688778
206	0xbe03688c	-0.1283285
207	0xbdc72202	-0.09723283
208	0x3ea0373e	0.31292146
209	0x3eb902ad	0.36134854
210	0x3ec6967e	0.3878669
211	0x3ccafa2f	0.0247775
212	0xbd37e34d	-0.044894505
213	0x3e83edc7	0.25767347
214	0x3e7e666e	0.24843761
215	0x3f1d2e34	0.61398625
216	0x3f06c6b5	0.5264695
217	0xbdc82506	-0.09772687
218	0x3ec5d4d1	0.3863893
219	0x3eaa1cb4	0.33225024
220	0xbe799234	-0.24372178
221	0x3e4a6be3	0.19767718
222	0xbe77419b	-0.2414612
223	0x3ec7902b	0.3897718
224	0xbe301046	-0.17193708
225	0xbd09194e	-0.033471398
226	0x3e51d12b	0.20489947
227	0x3e58f021	0.21185352
228	0x3e6aa5d8	0.22914827
229	0x3e800c3a	0.25009328
230	0x3e4b65e4	0.19863087
231	0xbe513081	-0.20428659
232	0x3e60a4a6	0.21937808
233	0x3e96e404	0.29470837
234	0xbdb24484	-0.087044746
235	0x3e9b4ea8	0.30333447
236	0x3eb70415	0.35745302
237	0x3e808e94	0.25108778
238	0x3f1120e7	0.5669083
239	0x3d0c7f98	0.03430137
240	0xbf377f67	-0.71678776
241	0x3c9b5747	0.018962516
242	0xbed4f7b4	-0.41595232
243	0xbe16996e	-0.14706966
244	0xbc973f63	-0.018462842
245	0x3db6aac9	0.089192934
246	0x3ea14870	0.31500578
247	0xbe76678e	-0.2406294
248	0xbeb41612	-0.35173088
249	0x3d621e75	0.055204827
250	0x3f088f79	0.5334392
251	0x3e9e082e	0.30865616
252	0x3e679c84	0.226183
253	0x3ee3db4d	0.4450325
254	0x3ed0e648	0.4080069
255	0x3d958f9d	0.07302783

weight_sigma f4 [128, 64]
0	0x3d1aaa34	0.037759975
1	0x3d198583	0.037480842
2	0x3d8cf513	0.06882682
3	0x3d62d1cf	0.05537587
4	0xbd96e2b3	-0.07367458
5	0xbc9260ec	-0.017868482
6	0x3decc63e	0.11561249
7	0x3d2f9156	0.042863213
8	0x3d25c8c1	0.040474657
9	0x3d273b25	0.04082789
10	0xbd067082	-0.03282214
11	0xbc89eaf3	-0.016835665
12	0x3bb180aa	0.0054169493
13	0xbd067eff	-0.032835957
14	0xbd94dd37	-0.07268756
15	0xbc307305	-0.01076961
16	0xbb923410	-0.0044617727
17	0xbdb2ff95	-0.08740155
18	0x3d5afbaf	0.05346268
19	0xbcafeb92	-0.021474633
20	0xbd557afa	-0.052119233
21	0xbd94ec86	-0.07271676
22	0x3d25ec4a	0.040508546
23	0xbe4dcbc9	-0.20097269
24	0x3cf787a3	0.030216044
25	0x3d6a56f1	0.05721182
26	0xba6f0a28	-0.000911864
27	0xbc10c117	-0.008835099
28	0xbaa1746f	-0.0012318025
29	0xbdda2e9a	-0.1065342
30	0xbcd6af98	-0.026206776
31	0xbc95aadb	-0.018269947
32	0xbd9dc5a6	-0.07703714
33	0x3cf8cdf6	0.030371647
34	0xbd2a513e	-0.041581385
35	0xbba3c366	-0.0049976585
36	0xbbaf2d00	-0.0053459406
37	0x3d04421f	0.03228962
38	0x3ce58319	0.028016614
39	0x3e775018	0.24151647
40	0xbd83980f	-0.06425487
41	0x3c1ab211	0.009441868
42	0x3b9488e8	0.004532922
43	0x3c5932b5	0.013256718
44	0x3c0de902	0.00866151
45	0xbccfbf35	-0.02535973
46	0x3d36af7d	0.044600952
47	0xbbd60637	-0.0065315026
48	0x3d636411	0.055515353
49	0x3d3ea9e5	0.046548743
50	0x3c32fff4	0.010925282
51	0x3d4e90f2	0.0504312
52	0x3d51c090	0.051209033
53	0xbcd3d5b0	-0.02585873
54	0x3cef308a	0.02919795
55	0xbcdca85b	-0.026935747
56	0x3dc05501	0.09391213
57	0xbd3d1779	-0.046164963
58	0x3cd6a8ec	0.026203595
59	0xbca345cd	-0.019930745
60	0x3cc91c05	0.024549494
61	0xbd8f3222	-0.06991984
62	0x3db78235	0.08960382
63	0x3c963c74	0.018339373
64	0x3c70c613	0.014695662
65	0xbd261943	-0.040551435
66	0x3c1dd3b9	0.009632998
67	0x3e3d936d	0.1851327
68	0x3cf6b11e	0.030113753
69	0x3cf69e83	0.030104881
70	0xbd3aca08	-0.04560283
71	0xbd4ac364	-0.049502745
72	0x3e0e241e	0.13880965
73	0xbd57e719	-0.052710626
74	0xbb1c67fb	-0.0023865688
75	0xbdd3da17	-0.10344332
76	0x3e0a57e7	0.13510095
77	0xbe2c5fab	-0.1683337
78	0xbd6033d1	-0.054736916
79	0x3dcb22bf	0.09918737
80	0x3b056ecc	0.002036023
81	0xbe012929	-0.12613358
82	0xbdffc602	-0.12488939
83	0x3df26b8b	0.118369184
84	0x3b63ebd3	0.0034778013
85	0x3e0eb4b0	0.13936114
86	0xbc83d2db	-0.016091755
87	0xbb41fe0f	-0.0029600894
88	0xbd8fbaf5	-0.07018081
89	0x3e6c7469	0.23091282
90	0x3d51760a	0.05113796
91	0xbbb7018e	-0.005584902
92	0x3b5dfd26	0.0033872812
93	0x3d109130	0.03529471
94	0x3dbf3cb0	0.09337747
95	0xbb0b99da	-0.002130142
96	0xbd224050	-0.039612114
97	0x3cda4980	0.026646376
98	0x3cd2d141	0.025734546
99	0x3db4a034	0.08819619
100	0xbd387f92	-0.045043536
101	0x3ec9b2df	0.3939428
102	0xbd79adc5	-0.060956735
103	0xbcb6169a	-0.022227574
104	0x3e236504	0.15956503
105	0x3e0eda6b	0.13950507
106	0xbde61093	-0.1123363
107	0x3da44113	0.080202244
108	0x3e31719f	0.173285
109	0xbe07a34c	-0.13245887
110	0xbe42883f	-0.18997286
111	0x3c35fb46	0.011107272
112	0x3cc4d64b	0.024027964
113	0x3d3b87a0	0.04578364
114	0x3e05c796	0.13064417
115	0x3d03e431	0.032200042
116	0x3cff9606	0.031199466
117	0xbda3c502	-0.07996561
118	0xbdb0a1eb	-0.086246334
119	0x3c62600a	0.013816843
120	0x3da36348	0.07977921
121	0x3dd73f0a	0.105100706
122	0x3dcf177c	0.10111901
123	0x3e6a1dd6	0.22862944
124	0xbdf2d4fb	-0.11857029
125	0x3e1186cb	0.14211576
126	0xbcd6bedf	-0.026214061
127	0x3d903dc2	0.07043029
128	0x3e148bfa	0.14506522
129	0x3d61f1b3	0.055162143
130	0xbca515d2	-0.020152006
131	0x3d43ff56	0.04785093
132	0x3d5070c6	0.0508888
133	0x3d5c2deb	0.05375473
134	0xb994e4bb	-0.00028399177
135	0x3c822e69	0.01589127
136	0x3dfe531b	0.12418195
137	0x3c5d3c08	0.013503082
138	0xbcbd1aae	-0.02308401
139	0x3d9e9b7a	0.077444986
140	0x3d59e456	0.053196274
141	0x3df392ff	0.11893272
142	0xbbf13203	-0.007360698
143	0x3d800000	0.0625
144	0xbcc49c44	-0.024000295
145	0x3d430062	0.047607787
146	0x3c4db3cc	0.012555074
147	0x3d8d8fcd	0.069121934
148	0x3d10165e	0.03517758
149	0x3ddc6e00	0.10763168
150	0x3d140406	0.03613665
151	0x3e04b794	0.12960654
152	0xbcfd2d37	-0.03090535
153	0x3bd53815	0.0065069296
154	0x3d94073a	0.07227941
155	0xbb796e2c	-0.0038060052
156	0x3dc09819	0.0940401
157	0xbc7d7b7e	-0.015471337
158	0x3d801dbd	0.06255672
159	0x3d7feb65	0.06248035
160	0x3d9d09b8	0.07667869
161	0xbd909dca	-0.07061346
162	0x3cdcf079	0.026970135
163	0xbcb3b9ad	-0.021939123
164	0x3dccbf56	0.09997432
165	0x3c6f8862	0.014619919
166	0xbcc64068	-0.024200633
167	0x3e00939f	0.12556313
168	0x3d36c0fa	0.04461763
169	0x3dd12d17	0.10213678
170	0x3d111676	0.03542181
171	0x3d4dedc4	0.05027558
172	0xbcfa8b15	-0.030583898
173	0x3d9883ec	0.07447037
174	0x3d8119be	0.06303738
175	0x3d6b07d2	0.057380505
176	0xbb799209	-0.0038081429
177	0x3d579018	0.052627653
178	0x3db16d26	0.086633965
179	0xbbf3b836	-0.007437731
180	0x3dc0e200	0.09418106
181	0x3d7dd1d8	0.0619677
182	0x3df5ee78	0.12008375
183	0x3d60dada	0.054896213
184	0xbca3cfdc	-0.019996576
185	0x3d675d13	0.056485247
186	0x3da7c452	0.08191742
187	0x3d95d8ec	0.07316765
188	0x3d132189	0.035920653
189	0x3d92c093	0.07165637
190	0x3d270649	0.04077748
191	0x3d846492	0.06464495
192	0x3d3b4c49	0.045727048
193	0xbc3b0789	-0.011415371
194	0xbe01fb53	-0.12693529
195	0xbc92d0e8	-0.01792188
196	0x3c2bf878	0.010496251
197	0xbd54df19	-0.051970575
198	0xbc47bb05	-0.012190585
199	0x3bb311ff	0.005464792
200	0x3d20f080	0.03929186
201	0x3dca307f	0.09872531
202	0xbccdf860	-0.025142848
203	0x3b9e964d	0.0048396946
204	0x3cbab962	0.022793476
205	0x3ceb4e38	0.028723821
206	0xbd3f3cd6	-0.046688877
207	0x3c41447c	0.011796113
208	0xbc6ad0fd	-0.014332053
209	0x3cd97e03	0.026549345
210	0xbd3bb78d	-0.045829345
211	0xbbbae2b6	-0.0057032956
212	0x3d22d085	0.03974964
213	0xbb60b0eb	-0.0034285139
214	0xbbdc9540	-0.006731659
215	0x3dc7c386	0.0975409
216	0x3d71d97e	0.059045307
217	0xbbceb41b	-0.0063080913
218	0x3b61d868	0.0034461264
219	0x3888e0d3	6.526862e-05
220	0x3b33a515	0.002741163
221	0xbc3b4dbe	-0.011432109
222	0x3c3669bb	0.011133607
223	0x3c4222f5	0.011849155
224	0xba374e8f	-0.0006992602
225	0x3bc7a773	0.0060929595
226	0xbc4bb591	-0.0124334255
227	0x3d319d42	0.043362863
228	0x3c55cab9	0.013048821
229	0x3d730474	0.05933042
230	0xbd3085d9	-0.043096397
231	0x3d84068f	0.064465635
232	0x3c460ae0	0.012087554
233	0xbca9d7ae	-0.020732727
234	0xbbabff7f	-0.0052489634
235	0xbc07633a	-0.008263404
236	0xbbb6bc63	-0.0055766567
237	0xbd93c4c4	-0.072152644
238	0xbc671c92	-0.014105933
239	0x3c3f52f2	0.011677491
240	0xbcb87866	-0.022518348
241	0xbca4bdf1	-0.020110102
242	0xbc4086bb	-0.011750872
243	0xbbdf3a7f	-0.006812393
244	0xbcb9b0b2	-0.022667263
245	0x3bf0c337	0.00734749
246	0xba327723	-0.0006807914
247	0xbd91e0a7	-0.07122927
248	0x399ea75f	0.0003026081
249	0xbcdb4da4	-0.02677042
250	0xbd1dfb8a	-0.038569964
251	0xbca61cd9	-0.020277428
252	0xbc7246f3	-0.014787423
253	0x3db7cf16	0.089750454
254	0xbc1fe1c2	-0.009758415
255	0x3d31101a	0.043228246

bias_mu f4 [128]
0	0x3f1fb3e8	0.6238389
1	0xbe43d321	-0.19123508
2	0xbe5bb091	-0.21454073
3	0x3f34e421	0.706606
4	0xbe245e96	-0.16051707
5	0xbe652b36	-0.22379765
6	0xbe31fde4	-0.17382008
7	0x3f1a3207	0.60232586
8	0x3f22d366	0.6360382
9	0x3ed30afa	0.41219312
10	0xbeca909b	-0.3956345
11	0x3f3780a1	0.7168065
12	0x3eadfabd	0.3398036
13	0xbe63ee11	-0.22258784
14	0x3ec9b56b	0.39396223
15	0x3eb7c03a	0.35888845
16	0xbe1ec3fb	-0.15504448
17	0x3ec23496	0.37930745
18	0x3dc8908c	0.09793195
19	0xbedff96e	-0.43744987
20	0xbe3232af	-0.17402147
21	0x3ee1d4cb	0.4410766
22	0x3f26ee02	0.6520692
23	0xbe82e174	-0.25562632
24	0xbdfcdbd9	-0.1234662
25	0xbd319870	-0.043358266
26	0xbe8ce0e8	-0.2751534
27	0xbdf80f0e	-0.121122465
28	0xbe8bc3b3	-0.27297744
29	0xbdc41c2a	-0.09575684
30	0x3f1368f5	0.57582027
31	0xbdf7a6ed	-0.120923854
32	0x3e8adb13	0.27120265
33	0xbd73b087	-0.05949452
34	0x3e9032d1	0.2816377
35	0x3e5bfc62	0.21482995
36	0xbdd8b968	-0.105822384
37	0xbe1afd00	-0.15135574
38	0xbd5551f4	-0.05208011
39	0xbe6c65d6	-0.23085722
40	0xbe307f9e	-0.17236182
41	0x3f2c38f9	0.67274433
42	0xbe99a9e8	-0.3001244
43	0xbc1f3be3	-0.009718868
44	0x3f0b7d80	0.5448837
45	0x3ee8a855	0.45440927
46	0x3df00cb9	0.11721177
47	0xbe76048d	-0.24025173
48	0x3f0f7af1	0.5604697
49	0xbd5b7770	-0.0535807
50	0xbeadfd9c	-0.3398255
51	0x3f038e7d	0.51389295
52	0x3eaae1f3	0.3337551
53	0xbcf48a4f	-0.029851107
54	0xbe319637	-0.17342459
55	0xbe84463c	-0.25834835
56	0x3f05e6e8	0.5230546
57	0x3d9045db	0.07044574
58	0x3e9c3d11	0.3051534
59	0xbdd7fad3	-0.10545888
60	0xbe3f7205	-0.18695839
61	0x3f12bc72	0.57318795
62	0x3eb861bf	0.36012074
63	0xbdd6fa48	-0.10496956
64	0x3ef42534	0.47684634
65	0xbdc46f28	-0.09591514
66	0x3efd4027	0.49463007
67	0x3f04010a	0.51564085
68	0xbd1f0ba7	-0.038829472
69	0x3f32904a	0.6975142
70	0xbb6a6434	-0.0035765292
71	0x3ebf58ff	0.37372586
72	0xbee6ce03	-0.4507905
73	0xbe81dcd5	-0.25363794
74	0x3f00820e	0.5019845
75	0x3ed49b88	0.4152491
76	0xbe3b288a	-0.18277183
77	0x3eba427b	0.36378846
78	0x3f3101e7	0.6914353
79	0xbafff5fd	-0.0019528266
80	0xbeb668a6	-0.35626715
81	0xbe1e146c	-0.15437478
82	0x3f0ce04d	0.55029756
83	0xbe9b4bbb	-0.30331215
84	0x3ed07a89	0.40718487
85	0xbea03dba	-0.31297094
86	0x3f167acb	0.5878112
87	0x3dadd2aa	0.084874466
88	0x3ee1ebd2	0.4412523
89	0x3efdb4d8	0.49552035
90	0xbdb0424f	-0.08606397
91	0xbe547db0	-0.20751071
92	0xbe355ab2	-0.17710379
93	0x3ef5a164	0.47974694
94	0x3ee340fb	0.44385514
95	0xb9b3c66f	-0.00034289385
96	0xbd28666a	-0.041113295
97	0xbe2bc494	-0.16774207
98	0xbe978ed7	-0.29601166
99	0xbeeadd0a	-0.45871764
100	0xbe09f12b	-0.13470905
101	0x3eead641	0.45866588
102	0x3f22cc3b	0.6359288
103	0xbe8b7f4a	-0.2724555
104	0x3ee983ca	0.4560836
105	0xbe6fa2a6	-0.23401889
106	0xbe1a1c20	-0.15049791
107	0x3f023a38	0.50870085
108	0x3ec114d0	0.3771119
109	0x3f3175ae	0.6932019
110	0x3e3e1988	0.18564427
111	0x3f1f2590	0.6216669
112	0x3ea6c4d6	0.3257205
113	0x3f0ab53c	0.5418279
114	0xbe9b4339	-0.30324724
115	0xbe4b6854	-0.19864017
116	0xbe736c1b	-0.23771708
117	0xbe58631e	-0.2113156
118	0xbeb6d937	-0.35712597
119	0x3f252696	0.64512
120	0xbee4ce91	-0.44688848
121	0xbe35fc9d	-0.17772146
122	0xbe14fb60	-0.14549017
123	0x3f0d3cbd	0.55170804
124	0x3ef58574	0.4795338
125	0x3f00ea3b	0.5035741
126	0xbddd907a	-0.10818572
127	0xbea15bbe	-0.31515306

bias_sigma f4 [128]
0	0xbc47e2f9	-0.012200111
1	0x3cd66713	0.026172196
2	0xbd33779c	-0.04381524
3	0x3c3fe3af	0.011711999
4	0x3d969b6b	0.073538624
5	0xbcc66df9	-0.02422236
6	0x3daf71f3	0.08566656
7	0x3c0b26bc	0.008493122
8	0x3d843738	0.06455845
9	0xbc8e8a33	-0.017399883
10	0xbcb95f29	-0.022628384
11	0x3bb53ac7	0.0055306884
12	0xbb761609	-0.0037549755
13	0xbde3aac8	-0.11116558
14	0x3c2c703b	0.010524805
15	0x3c9bfaf7	0.019040568
16	0x3e0841e7	0.1330639
17	0x3bc7d935	0.006098891
18	0xbda05430	-0.078285575
19	0x3d172e92	0.036909647
20	0xbbe5580e	-0.0069990223
21	0xbd04edca	-0.032453336
22	0xbca0b49c	-0.019617371
23	0x3d18367f	0.037161347
24	0x3d8dc704	0.06922725
25	0x3c7250f6	0.01478981
26	0xbdc412bb	-0.09573885
27	0x3d161fd1	0.036651436
28	0x3dd81e16	0.105526134
29	0xbdda8617	-0.10670107
30	0x3d98780f	0.07444774
31	0x3dace4d7	0.08442085
32	0x3db90a40	0.09035158
33	0x3da8f9d0	0.08250773
34	0xbd3a18e0	-0.04543388
35	0x3b891b13	0.0041841357
36	0x3cf1fa2d	0.029538238
37	0x39b4d72d	0.00034492594
38	0x3d995ce7	0.07488423
39	0x3c8d918f	0.017281322
40	0x3d000305	0.03125288
41	0x3d25f1e4	0.040513888
42	0xbd9f2cf1	-0.07772244
43	0xbcfd2a7b	-0.030904045
44	0x3c77e847	0.015131063
45	0x3c9778f6	0.018490296
46	0x3c08f6f5	0.00835966
47	0x3d425ff5	0.047454793
48	0x3bea97ae	0.007159195
49	0x3d172d60	0.036908507
50	0x3da706fd	0.0815563
51	0x3d0efdb3	0.034909915
52	0xbc6d4a22	-0.014483007
53	0xbd1e59ca	-0.03865985
54	0x3e09cfe1	0.13458206
55	0x3bf9095d	0.007599993
56	0x3bb94f2e	0.005655191
57	0x3d561e28	0.052274853
58	0xbc7d2388	-0.015450366
59	0x3c4148c4	0.011797134
60	0xbdfa4bd7	-0.122214966
61	0xbd477dc1	-0.048703913
62	0xbc9bda24	-0.019024916
63	0xbd7031aa	-0.058641113
64	0x3b3b3e00	0.002857089
65	0x3e0cb02b	0.13739078
66	0xbd2ede09	-0.042692218
67	0xbcff62b1	-0.03117499
68	0xbc6e232d	-0.014534754
69	0xbbe34eea	-0.0069368975
70	0xbd0ab3e0	-0.03386295
71	0x3cf0e6d9	0.029406952
72	0xbd1fbccb	-0.038998406
73	0x3c864f28	0.016395167
74	0xbdd57792	-0.10423197
75	0xbd41dbdb	-0.04732881
76	0x3caf2d09	0.02138378
77	0xbbf7aed5	-0.0075586834
78	0x3c207312	0.00979306
79	0xbd06f5c0	-0.03294921
80	0xbd667566	-0.056264304
81	0xbbe31b95	-0.0069307783
82	0x3ce9d940	0.028545976
83	0xbd360631	-0.0444395
84	0xbc6d95b5	-0.014501025
85	0xbc3a05f5	-0.011353959
86	0xbd16fa8d	-0.036860038
87	0xbcc638d3	-0.024197018
88	0x3d3af003	0.04563905
89	0x3d3ff371	0.046863023
90	0xbd1e6b72	-0.038676687
91	0x3e1d8560	0.1538291
92	0x3dbf58b1	0.093430884
93	0x3d1a895f	0.037728664
94	0xbc02eab0	-0.007990524
95	0x3d034c83	0.03205539
96	0xbd9981d1	-0.07495464
97	0x3e14f048	0.14544785
98	0x3cafc868	0.021457866
99	0xbc3be9b3	-0.011469292
100	0xbdb3424c	-0.087528795
101	0x3d37bee7	0.044859793
102	0xbc9c0a00	-0.019047737
103	0xbe316f4a	-0.1732761
104	0xbcd9cb2f	-0.026586143
105	0x3e0aabab	0.13542049
106	0xbce0c913	-0.02743963
107	0x3cde67b7	0.027149064
108	0x38ceef08	9.8673685e-05
109	0xbd6137bd	-0.054984797
110	0x3b85a404	0.00407839
111	0xbbfa1f78	-0.007633146
112	0x3b537e1d	0.0032271214
113	0x3d47956f	0.048726495
114	0xbd481c87	-0.04885533
115	0xbdcf63ca	-0.10126455
116	0xbe5fef56	-0.21868643
117	0x3e1d2a42	0.15348151
118	0x3c89898c	0.01678922
119	0x3b838751	0.0040139337
120	0xbd502c17	-0.050823297
121	0xbcf40895	-0.029789248
122	0x3d37a350	0.04483348
123	0xbd00d004	-0.03144838
124	0x3d6c6679	0.057714913
125	0xbcb56b3e	-0.022145864
126	0x3d382320	0.044955373
127	0x3d80c9d3	0.06288495

weight_epsilon f4 [128, 64]
0	0x3fa10f3d	1.2582775
1	0x3f9dd3a1	1.2330209
2	0x3fae7487	1.3629311
3	0xbf604611	-0.8760691
4	0x3f44ae02	0.76828015
5	0xbf923e1a	-1.1425202
6	0xbfce3ebc	-1.6112895
7	0x3f8666c0	1.0500107
8	0x3fa49e59	1.2860824
9	0x3f597e40	0.8495827
10	0x3fda7033	1.706549
11	0xbefc3219	-0.4925697
12	0xbf7bb319	-0.98320156
13	0x3fa1e4db	1.2647966
14	0xbf9bdb72	-1.2176344
15	0x3f81d511	1.0143148
16	0xbf83f43a	-1.0308907
17	0xbf821e67	-1.0165528
18	0x3f5a013c	0.85158134
19	0xbf6d881b	-0.92785805
20	0x3f96a3e1	1.1768762
21	0x3f786902	0.9703523
22	0x3f1b6f34	0.6071656
23	0xbfa56861	-1.2922479
24	0x3fc3cc67	1.5296754
25	0x3f522498	0.8208709
26	0xbf4e4f52	-0.80589783
27	0x3f8be599	1.0929443
28	0xbf844527	-1.0333604
29	0xbf40e24f	-0.7534532
30	0xbf793ea7	-0.97361225
31	0x3f7768b0	0.96644115
32	0xbf95a539	-1.1691047
33	0xbef664f8	-0.48123908
34	0x3eb812f2	0.35951954
35	0x3f3c37f5	0.73522884
36	0x3f90ddd8	1.1317701
37	0x4007624e	2.115375
38	0xbf0c3de0	-0.54781914
39	0xbf961069	-1.1723758
40	0x3f75d696	0.9603056
41	0x3fea438e	1.8301866
42	0x3f371f55	0.71532184
43	0xbfc14d63	-1.5101742
44	0xbf1d5836	-0.61462724
45	0x3f55c610	0.83505344
46	0x3fbbe347	1.4678735
47	0xbf69a3df	-0.9126567
48	0xbf779a1d	-0.96719533
49	0x3f81bd7e	1.0135953
50	0xbf0ce779	-0.550407
51	0xbf94f555	-1.1637369
52	0x3fd94de2	1.6976893
53	0x3f402a0f	0.75064176
54	0x3faa0ca5	1.3285109
55	0xbf1e5633	-0.6185028
56	0x3f76d928	0.96425104
57	0x3f34737a	0.70488703
58	0xbf988e23	-1.1918377
59	0x3f684ed1	0.90745264
60	0x3f73af7b	0.95189637
61	0x3fcc0e33	1.5941833
62	0x3fd830d6	1.6889904
63	0xbf9edafa	-1.2410576
64	0xbf344fd8	-0.7043433
65	0xbf30b14f	-0.6902055
66	0xbf434f0f	-0.7629251
67	0x3efb151a	0.49039537
68	0xbedc30a3	-0.43005857
69	0x3f23b94b	0.6395461
70	0x3f66e613	0.90194815
71	0xbf167797	-0.5877623
72	0xbf384bde	-0.71990764
73	0xbef37dcc	-0.47556913
74	0xbf748caa	-0.95527136
75	0x3e8d2bca	0.2757247
76	0x3f0ce4b3	0.5503647
77	0xbf353f00	-0.70799255
78	0x3f2e7cdb	0.68159264
79	0xbf115a16	-0.56778085
80	0x3f13ba2d	0.57705957
81	0x3f11ac30	0.5690336
82	0xbef4106f	-0.47668788
83	0x3f04f66d	0.51938516
84	0xbf28a5a4	-0.6587775
85	0xbf0b0d53	-0.54317206
86	0xbeae03ad	-0.3398718
87	0x3f392e0c	0.72335887
88	0xbf5b3411	-0.8562632
89	0xbeeb4337	-0.45949718
90	0x3ee6f8a4	0.45111573
91	0xbf1c9e9a	-0.61179507
92	0x3f1414c6	0.578442
93	0x3ed7f0c8	0.4217589
94	0x3f0b84ea	0.54499686
95	0xbf0a7dd8	-0.5409827
96	0x3f27888c	0.6544273
97	0x3e89ec76	0.26938218
98	0xbe4e13d3	-0.2012475
99	0xbed2b7aa	-0.4115575
100	0xbf222eee	-0.6335286
101	0xbf979137	-1.1841191
102	0x3e9d016f	0.30665156
103	0x3f28008c	0.65625834
104	0xbf099cc3	-0.53754824
105	0xbf832227	-1.0244797
106	0xbecd0317	-0.4004142
107	0x3f5868aa	0.84534705
108	0x3eb02724	0.34404862
109	0xbeef53c9	-0.4674361
110	0xbf5258dd	-0.82166845
111	0x3f02c8c4	0.51087594
112	0x3f0a9983	0.5414049
113	0xbf113fb1	-0.5673781
114	0x3e9dbf4e	0.30810016
115	0x3f26c3a1	0.65142256
116	0xbf7347a5	-0.95031196
117	0xbed72282	-0.42018515
118	0xbf3e605a	-0.7436577
119	0x3eb1437d	0.34621802
120	0xbf0a2d80	-0.5397568
121	0xbeca057d	-0.39457312
122	0x3f2aca81	0.66715246
123	0xbf0209da	-0.5079628
124	0xbf086845	-0.532841
125	0xbf647289	-0.89237267
126	0xbf720886	-0.94544256
127	0x3f31d822	0.6947042
128	0x3fa33b31	1.2752439
129	0x3f9ff46d	1.2496468
130	0x3fb0ceb9	1.3813087
131	0xbf634c3a	-0.8878819
132	0x3f4754eb	0.7786395
133	0xbf9436e9	-1.1579257
134	0xbfd106aa	-1.6330159
135	0x3f8836af	1.0641688
136	0x3fa6d697	1.3034238
137	0x3f5c6d02	0.8610383
138	0x3fdd6237	1.7295598
139	0xbeff98a5	-0.49921146
140	0xbf7f17ee	-0.9964589
141	0x3fa413b1	1.2818509
142	0xbf9df571	-1.2340528
143	0x3f83953b	1.0279917
144	0xbf85bbb7	-1.0447911
145	0xbf83df8e	-1.0302598
146	0x3f5cf1c1	0.8630639
147	0xbf70bc08	-0.9403691
148	0x3f98abde	1.192745
149	0x3f7bc27c	0.98343635
150	0x3f1d87be	0.6153525
151	0xbfa7a358	-1.3096724
152	0x3fc67046	1.5503013
153	0x3f54f9fa	0.83193934
154	0xbf511779	-0.8167644
155	0x3f8dc880	1.1076813
156	0xbf860dbb	-1.047294
157	0xbf437c1e	-0.7636126
158	0xbf7c9b02	-0.98674023
159	0x3f7abeb5	0.97947246
160	0xbf97a9c7	-1.1848687
161	0xbef9b77d	-0.48772803
162	0x3eba8e58	0.36436725
163	0x3f3ec1a9	0.7451425
164	0x3f92d1e7	1.1470307
165	0x400935a2	2.1438985
166	0xbf0e21f8	-0.5552058
167	0xbf981669	-1.1881839
168	0x3f792730	0.9732542
169	0x3fed6c33	1.8548645
170	0x3f399771	0.72496706
171	0xbfc3e8a4	-1.5305371
172	0xbf1f7758	-0.6229148
173	0x3f58a7fb	0.8463132
174	0x3fbe6bd7	1.487666
175	0xbf6cca5d	-0.9249628
176	0xbf7af0cd	-0.9802368
177	0x3f837d56	1.0272624
178	0xbf0ecddb	-0.5578286
179	0xbf96f784	-1.1794286
180	0x3fdc3bfd	1.7205807
181	0x3f42c162	0.7607633
182	0x3fac57a1	1.3464242
183	0xbf2078c1	-0.62684256
184	0x3f7a2d3d	0.9772528
185	0x3f36e25e	0.7143916
186	0xbf9a9cbc	-1.2079082
187	0x3f6b70b6	0.9196886
188	0x3f76f8a6	0.9647316
189	0x3fcece92	1.615679
190	0x3fdb1b19	1.7117645
191	0xbfa0ff52	-1.2577918
192	0xbf8f807a	-1.1211083
193	0xbf8c9f17	-1.098605
194	0xbf9b6fee	-1.2143533
195	0x3f47d328	0.78056574
196	0xbf2f3d2e	-0.6845273
197	0x3f824cd8	1.0179701
198	0x3fb7c2f6	1.4356372
199	0xbf6f7fe7	-0.9355454
200	0xbf92ac44	-1.1458821
201	0xbf41c892	-0.7569667
202	0xbfc2a025	-1.5205122
203	0x3ee0b3f6	0.438873
204	0x3f6042ce	0.87601936
205	0xbf903ecf	-1.1269168
206	0x3f8addde	1.0848958
207	0xbf675b8f	-0.9037408
208	0x3f6b2375	0.9185098
209	0x3f67de3e	0.9057349
210	0xbf423d46	-0.75874746
211	0x3f53a334	0.82670903
212	0xbf8637e5	-1.0485808
213	0xbf5d5483	-0.8645708
214	0xbf0a7d6d	-0.54097635
215	0x3f936045	1.1513754
216	0xbfae742b	-1.3629202
217	0xbf3b3c0a	-0.7313849
218	0x3f37d1bd	0.7180441
219	0xbf794add	-0.9737986
220	0x3f6bb3aa	0.9207102
221	0x3f2bdb68	0.6713166
222	0x3f5e12de	0.8674754
223	0xbf5c7022	-0.861086
224	0x3f855500	1.0416565
225	0x3edb88ba	0.42877752
226	0xbea401e9	-0.32032707
227	0xbf27b341	-0.65507895
228	0xbf8112fd	-1.008392
229	0xbff1402a	-1.8847706
230	0x3ef9e82d	0.4880995
231	0x3f85b481	1.044571
232	0xbf5b09df	-0.8556194
233	0xbfd0b9d9	-1.6306716
234	0xbf2328da	-0.6373421
235	0x3fac3ad0	1.3455448
236	0x3f0c3120	0.5476246
237	0xbf3e782f	-0.74402136
238	0xbfa767cf	-1.3078555
239	0x3f502b92	0.81316483
240	0x3f5c9c2c	0.861758
241	0xbf67318b	-0.9030997
242	0x3efb1665	0.49040523
243	0x3f84b849	1.0368739
244	0xbfc19d7a	-1.5126183
245	0xbf2b373e	-0.6688117
246	0xbf978300	-1.1836853
247	0x3f0d136d	0.55107766
248	0xbf5bf040	-0.8591347
249	0xbf20c78c	-0.62804484
250	0x3f87ecb5	1.0619112
251	0xbf4efbb2	-0.80852807
252	0xbf591ed7	-0.8481268
253	0xbfb5cf88	-1.4203959
254	0xbfc09f81	-1.5048677
255	0x3f8d89ba	1.1057656

bias_epsilon f4 [128]
0	0xbf91271c	-1.134006
1	0x3f2280f4	0.63478017
2	0xbf931c28	-1.1492968
3	0x3f815444	1.0103841
4	0xbf8463d6	-1.0342968
5	0xbf8336d8	-1.0251112
6	0xbf6ed305	-0.9329074
7	0xbf90d60d	-1.1315323
8	0x3f7cb904	0.9871981
9	0x3fa0c5cd	1.2560364
10	0xbe9b6127	-0.3034756
11	0x3fb15dc4	1.385674
12	0xbf1bee86	-0.6091083
13	0x3ef8448b	0.48489794
14	0x3ef860a9	0.48511246
15	0x3f5955b9	0.8489643
16	0x3fb30a23	1.3987468
17	0x3ed63b2e	0.41842026
18	0x3f3f40a1	0.7470799
19	0xbf7ee95f	-0.99574846
20	0xbf291e65	-0.66062003
21	0xbf97e4ba	-1.1866677
22	0x3f8826f0	1.0636883
23	0x3f48dca7	0.7846169
24	0x3f15cbdc	0.5851419
25	0xbef70741	-0.48247722
26	0xbfaf6796	-1.3703487
27	0xbee74d3d	-0.45176116
28	0x3ee4d100	0.44690704
29	0xbf80912e	-1.0044305
30	0xbf9ed852	-1.2409766
31	0xbed4d788	-0.41570687
32	0x3eec4c03	0.46151742
33	0x3ee866be	0.45390886
34	0xbe34387d	-0.17599674
35	0xbf17c20c	-0.5928047
36	0xbf9b9802	-1.2155764
37	0x3f038fe7	0.5139145
38	0xbfbe6c3f	-1.4876784
39	0xbf215ecb	-0.6303527
40	0x3e924718	0.28569865
41	0x3f59bbe6	0.85052335
42	0xbf97a4ac	-1.1847129
43	0xbf84da7e	-1.0379179
44	0x3f19f156	0.60133874
45	0x3f8f29f9	1.1184684
46	0xbfeb7036	-1.8393619
47	0xbf147286	-0.5798725
48	0xbf2a6cf2	-0.6657249
49	0x3f6dfc12	0.92962754
50	0x3ef112db	0.47084698
51	0xbee1fcbf	-0.44138142
52	0x3fb5f3c9	1.4215022
53	0x3fabf24b	1.3433317
54	0x3f253e05	0.6454776
55	0xbef8abf7	-0.485687
56	0x3fef1274	1.8677506
57	0xbf620139	-0.88283116
58	0xbfbd2b87	-1.4778908
59	0xbe752a80	-0.23941994
60	0xbf3cc683	-0.73740405
61	0xbf71ef09	-0.94505364
62	0xbefa310d	-0.48865548
63	0x3f1ded3d	0.6169012
64	0x3f9c41e0	1.2207603
65	0xbf797052	-0.9743701
66	0xbf9b8ed3	-1.2152961
67	0xbf8d3c3f	-1.1034011
68	0xbf3c7f78	-0.73632
69	0x3f3eaf39	0.7448612
70	0x3eaa1424	0.3321849
71	0xbf5c7dcd	-0.86129457
72	0xbeb98a0e	-0.3623814
73	0x3fcb7a7e	1.5896757
74	0xbf56790f	-0.8377847
75	0x3f91d39b	1.1392702
76	0x3e03e63b	0.12880795
77	0xbf7efa91	-0.99601084
78	0xbe92dd09	-0.2868426
79	0xbf34eeb2	-0.7067672
80	0xbf143fe7	-0.5791001
81	0x3f9556ee	1.1667154
82	0xbf4232ef	-0.7585897
83	0xbf0c0657	-0.54697174
84	0xbf84a522	-1.0362895
85	0x3ddfb0b3	0.109223746
86	0x3f3e38d8	0.74305487
87	0x3f9a594e	1.2058504
88	0xbf63b95e	-0.8895472
89	0x3f1916b7	0.59800285
90	0x3e319624	0.1734243
91	0x3f99056e	1.1954782
92	0x3f55debf	0.8354301
93	0xbe9f5b0f	-0.3112416
94	0x3f0e54c8	0.55598116
95	0x3f6695a7	0.900721
96	0x3ec1c481	0.37845233
97	0x3f9cdf98	1.2255735
98	0xbf8a7c11	-1.0819112
99	0xbf5a83ee	-0.8535756
100	0x3f914736	1.1349857
101	0x3f8840aa	1.0644734
102	0x3f143f94	0.5790951
103	0xbf492d16	-0.7858442
104	0x3f99d5e9	1.2018405
105	0xbe8708f9	-0.26374033
106	0x3f763743	0.9617807
107	0xbf96f210	-1.1792622
108	0xbef076f5	-0.46965757
109	0xbf828bf0	-1.0198956
110	0x3f3d669a	0.7398468
111	0x3f07d37c	0.53057075
112	0xbf6bf233	-0.9216644
113	0x3f993816	1.1970241
114	0x3eb33f52	0.35009247
115	0xbf98dea1	-1.1942941
116	0x3f5db581	0.8660508
117	0xbf143b95	-0.57903415
118	0xbf80ba5e	-1.0056875
119	0x3f2cdfe2	0.6752912
120	0xbf80baf1	-1.005705
121	0x3f37f802	0.71862805
122	0x3f760ead	0.96116143
123	0xbf9ab171	-1.2085401
124	0xbebd365e	-0.3695554
125	0x3f6cb6cd	0.9246643
126	0x3f8ec238	1.1153021
127	0x3f76d3f5	0.9641717

epsilon_in f4 [64]
0	0xbf8e06ec	-1.1095862
1	0xbf8b2d1d	-1.0873142
2	0xbf99d6f9	-1.201873
3	0x3f45c56b	0.7725436
4	0xbf2d7020	-0.67749214
5	0x3f80f606	1.007508
6	0x3fb5df7c	1.4208827
7	0xbf6d09c7	-0.92593044
8	0xbf912a5e	-1.1341054
9	0xbf3fcaba	-0.7491871
10	0xbfc0a015	-1.5048853
11	0x3ede64c4	0.43436253
12	0x3f5df4c6	0.8670162
13	0xbf8ec34c	-1.115335
14	0x3f897082	1.073746
15	0xbf64fadb	-0.89445275
16	0x3f68b8ce	0.9090699
17	0x3f657c32	0.8964263
18	0xbf403e3b	-0.75094956
19	0x3f517662	0.8182126
20	0xbf84d6c4	-1.0378041
21	0xbf5b0e31	-0.8556853
22	0xbf09110f	-0.53541654
23	0x3f91dc86	1.1395423
24	0xbfaca92e	-1.348913
25	0xbf394f6d	-0.7238682
26	0x3f35ee1c	0.7106645
27	0xbf76baf9	-0.9637905
28	0x3f694788	0.91124773
29	0x3f2a1740	0.66441727
30	0x3f5bca97	0.85856
31	0xbf5a2c29	-0.85223633
32	0x3f83f634	1.030951
33	0x3ed94722	0.42437083
34	0xbea25268	-0.31703496
35	0xbf25fa09	-0.6483465
36	0xbf7f7ec9	-0.99802834
37	0xbfeec56f	-1.8654002
38	0x3ef756ab	0.4830831
39	0x3f8454ba	1.0338356
40	0xbf58c994	-0.84682584
41	0xbfce94b0	-1.6139126
42	0xbf217b94	-0.6307919
43	0x3faa75ad	1.3317162
44	0x3f0ac048	0.5419965
45	0xbf3c830f	-0.7363748
46	0xbfa5af5d	-1.2944142
47	0x3f4e07e0	0.80480766
48	0x3f5a57bf	0.8529014
49	0xbf64d146	-0.89381826
50	0x3ef881c8	0.48536515
51	0x3f835b19	1.0262176
52	0xbfbfa013	-1.4970726
53	0xbf2974c6	-0.6619381
54	0xbf95f45f	-1.1715201
55	0x3f0ba041	0.54541403
56	0xbf59ad97	-0.850305
57	0xbf1f2089	-0.6215902
58	0x3f868717	1.0509976
59	0xbf4cdb1f	-0.8002185
60	0xbf56e398	-0.8394103
61	0xbfb3f130	-1.405798
62	0xbfbea4b6	-1.4894016
63	0x3f8c1557	1.0944012

epsilon_out f4 [128]
0	0xbf91271c	-1.134006
1	0x3f2280f4	0.63478017
2	0xbf931c28	-1.1492968
3	0x3f815444	1.0103841
4	0xbf8463d6	-1.0342968
5	0xbf8336d8	-1.0251112
6	0xbf6ed305	-0.9329074
7	0xbf90d60d	-1.1315323
8	0x3f7cb904	0.9871981
9	0x3fa0c5cd	1.2560364
10	0xbe9b6127	-0.3034756
11	0x3fb15dc4	1.385674
12	0xbf1bee86	-0.6091083
13	0x3ef8448b	0.48489794
14	0x3ef860a9	0.48511246
15	0x3f5955b9	0.8489643
16	0x3fb30a23	1.3987468
17	0x3ed63b2e	0.41842026
18	0x3f3f40a1	0.7470799
19	0xbf7ee95f	-0.99574846
20	0xbf291e65	-0.66062003
21	0xbf97e4ba	-1.1866677
22	0x3f8826f0	1.0636883
23	0x3f48dca7	0.7846169
24	0x3f15cbdc	0.5851419
25	0xbef70741	-0.48247722
26	0xbfaf6796	-1.3703487
27	0xbee74d3d	-0.45176116
28	0x3ee4d100	0.44690704
29	0xbf80912e	-1.0044305
30	0xbf9ed852	-1.2409766
31	0xbed4d788	-0.41570687
32	0x3eec4c03	0.46151742
33	0x3ee866be	0.45390886
34	0xbe34387d	-0.17599674
35	0xbf17c20c	-0.5928047
36	0xbf9b9802	-1.2155764
37	0x3f038fe7	0.5139145
38	0xbfbe6c3f	-1.4876784
39	0xbf215ecb	-0.6303527
40	0x3e924718	0.28569865
41	0x3f59bbe6	0.85052335
42	0xbf97a4ac	-1.1847129
43	0xbf84da7e	-1.0379179
44	0x3f19f156	0.60133874
45	0x3f8f29f9	1.1184684
46	0xbfeb7036	-1.8393619
47	0xbf147286	-0.5798725
48	0xbf2a6cf2	-0.6657249
49	0x3f6dfc12	0.92962754
50	0x3ef112db	0.47084698
51	0xbee1fcbf	-0.44138142
52	0x3fb5f3c9	1.4215022
53	0x3fabf24b	1.3433317
54	0x3f253e05	0.6454776
55	0xbef8abf7	-0.485687
56	0x3fef1274	1.8677506
57	0xbf620139	-0.88283116
58	0xbfbd2b87	-1.4778908
59	0xbe752a80	-0.23941994
60	0xbf3cc683	-0.73740405
61	0xbf71ef09	-0.94505364
62	0xbefa310d	-0.48865548
63	0x3f1ded3d	0.6169012
64	0x3f9c41e0	1.2207603
65	0xbf797052	-0.9743701
66	0xbf9b8ed3	-1.2152961
67	0xbf8d3c3f	-1.1034011
68	0xbf3c7f78	-0.73632
69	0x3f3eaf39	0.7448612
70	0x3eaa1424	0.3321849
71	0xbf5c7dcd	-0.86129457
72	0xbeb98a0e	-0.3623814
73	0x3fcb7a7e	1.5896757
74	0xbf56790f	-0.8377847
75	0x3f91d39b	1.1392702
76	0x3e03e63b	0.12880795
77	0xbf7efa91	-0.99601084
78	0xbe92dd09	-0.2868426
79	0xbf34eeb2	-0.7067672
80	0xbf143fe7	-0.5791001
81	0x3f9556ee	1.1667154
82	0xbf4232ef	-0.7585897
83	0xbf0c0657	-0.54697174
84	0xbf84a522	-1.0362895
85	0x3ddfb0b3	0.109223746
86	0x3f3e38d8	0.74305487
87	0x3f9a594e	1.2058504
88	0xbf63b95e	-0.8895472
89	0x3f1916b7	0.59800285
90	0x3e319624	0.1734243
91	0x3f99056e	1.1954782
92	0x3f55debf	0.8354301
93	0xbe9f5b0f	-0.3112416
94	0x3f0e54c8	0.55598116
95	0x3f6695a7	0.900721
96	0x3ec1c481	0.37845233
97	0x3f9cdf98	1.2255735
98	0xbf8a7c11	-1.0819112
99	0xbf5a83ee	-0.8535756
100	0x3f914736	1.1349857
101	0x3f8840aa	1.0644734
102	0x3f143f94	0.5790951
103	0xbf492d16	-0.7858442
104	0x3f99d5e9	1.2018405
105	0xbe8708f9	-0.26374033
106	0x3f763743	0.9617807
107	0xbf96f210	-1.1792622
108	0xbef076f5	-0.46965757
109	0xbf828bf0	-1.0198956
110	0x3f3d669a	0.7398468
111	0x3f07d37c	0.53057075
112	0xbf6bf233	-0.9216644
113	0x3f993816	1.1970241
114	0x3eb33f52	0.35009247
115	0xbf98dea1	-1.1942941
116	0x3f5db581	0.8660508
117	0xbf143b95	-0.57903415
118	0xbf80ba5e	-1.0056875
119	0x3f2cdfe2	0.6752912
120	0xbf80baf1	-1.005705
121	0x3f37f802	0.71862805
122	0x3f760ead	0.96116143
123	0xbf9ab171	-1.2085401
124	0xbebd365e	-0.3695554
125	0x3f6cb6cd	0.9246643
126	0x3f8ec238	1.1153021
127	0x3f76d3f5	0.9641717

weight_mu f4 [3, 128]
0	0xbe8d9021	-0.27649024
1	0x3f4c3723	0.7977163
2	0xbcc7a0ad	-0.024368608
3	0xbe9de058	-0.30835223
4	0xbcc0d351	-0.023538264
5	0x3da9ac09	0.08284766
6	0xbdc121e3	-0.094302915
7	0xbebf89a8	-0.3740971
8	0xbe868072	-0.2626987
9	0xbe6c0f84	-0.23052794
10	0x3e61012c	0.21973103
11	0xbea4266e	-0.3206057
12	0xbe350da8	-0.1768099
13	0x3bd2566d	0.006418994
14	0xbe94f50b	-0.29093203
15	0xbe705c8a	-0.23472801
16	0x3d9c31a4	0.07626656
17	0xbea15d17	-0.31516334
18	0xbf5bc068	-0.85840464
19	0x3df0dd02	0.11760904
20	0xbe4a2dcf	-0.19744037
21	0xbe77e028	-0.24206603
22	0xbe854d2a	-0.26035434
23	0x3c9d0cbb	0.01917111
24	0x3d073578	0.033009976
25	0x3c4586e3	0.012056085
26	0xbce709de	-0.028202947
27	0xbd2d0fb6	-0.04225131
28	0x3d281dd9	0.04104409
29	0xbda7a53a	-0.08185811
30	0xbe4ac63e	-0.19802186
31	0xbb2448ec	-0.002506788
32	0xbe16b914	-0.14719039
33	0xbcc63a3f	-0.024197696
34	0xbf3c4315	-0.7353986
35	0xbf0138ae	-0.5047711
36	0xbbc42b65	-0.0059866183
37	0x3b3ca615	0.0028785516
38	0xbf06fca4	-0.5272925
39	0xbbccf47a	-0.00625473
40	0x3b224cee	0.0024765092
41	0xbed5139c	-0.41616523
42	0x3df616dd	0.120160796
43	0x3f8d87a8	1.1057024
44	0xbe69903e	-0.2280893
45	0xbeafb3c5	-0.3431684
46	0xbf82379c	-1.0173221
47	0xbe05f40c	-0.13081378
48	0xbea28df8	-0.3174894
49	0x3f057dd4	0.52145123
50	0x3ec006c8	0.37505174
51	0xbe8e788f	-0.27826354
52	0xbe149b49	-0.14512362
53	0xbe415e0d	-0.18883534
54	0xbeb78e34	-0.3585068
55	0x3f1aae00	0.6042175
56	0xbe880c8a	-0.26572067
57	0x3da460f6	0.08026306
58	0xbe0c78c5	-0.13717945
59	0x3d592c62	0.053020842
60	0xbd1b869b	-0.037970167
61	0xbe4e154a	-0.20125309
62	0xbea4a955	-0.3216044
63	0x3f166fb7	0.58764213
64	0xbe8d371c	-0.27581108
65	0x3d6f18d7	0.0583733
66	0xbe440ada	-0.19144765
67	0x3d4db578	0.05022189
68	0xbde25b0c	-0.11052522
69	0xbe9fa1e9	-0.31178215
70	0xbc7ce600	-0.015435696
71	0xbe4a496c	-0.1975457
72	0x3d8c5543	0.068522
73	0x3d9d06e1	0.07667328
74	0xbe52e191	-0.2059386
75	0xbe692fdc	-0.22772163
76	0x3fb29aa1	1.3953439
77	0xbe1cd915	-0.15317185
78	0xbe9f22d1	-0.3108125
79	0xbcb6f563	-0.022333806
80	0x3c9ed13e	0.019386884
81	0xbcd96fda	-0.026542593
82	0xbe8ca1a4	-0.27467072
83	0x3e61d960	0.22055578
84	0xbead1030	-0.33801413
85	0xbe01c199	-0.12671508
86	0xbea5bf7c	-0.32372653
87	0xbf8943ee	-1.0723855
88	0xbe5d819e	-0.21631476
89	0xbe9321f3	-0.2873684
90	0xbf921d75	-1.141524
91	0xbd365866	-0.044517897
92	0xbe0ad706	-0.13558587
93	0xbe85bd5f	-0.2612104
94	0xbe7064c6	-0.23475942
95	0xbf40f433	-0.7537262
96	0xbec39812	-0.38201958
97	0x3b4ddd19	0.0031412302
98	0xbd7ce5bf	-0.06174254
99	0xbebdec6b	-0.37094435
100	0xbd343e44	-0.044004694
101	0xbeb22548	-0.34794068
102	0xbed93aa3	-0.4242755
103	0x3e2a71cd	0.16644974
104	0xbe6f1fca	-0.2335197
105	0x3dcd6cff	0.10030555
106	0x3cdabfd9	0.026702808
107	0xbe1248d4	-0.14285594
108	0xbe7b3111	-0.24530436
109	0xbeaca141	-0.33716777
110	0x3ed2e95d	0.41193667
111	0xbe841817	-0.2579963
112	0xbe615b8d	-0.2200758
113	0xbe78f1ff	-0.24311064
114	0x3d2b33a3	0.04179729
115	0xbdeed3d0	-0.11661494
116	0x3e37a064	0.17932278
117	0xbbb3a34f	-0.0054821144
118	0x3dc61abd	0.09673069
119	0xbe90c1e6	-0.28272933
120	0x3f20a388	0.6274953
121	0x3c674733	0.014116096
122	0xbcfcc1ef	-0.030854193
123	0xbea80c6c	-0.32821977
124	0xbe7acf7b	-0.2449321
125	0xbea7e09b	-0.32788548
126	0xbcc63aa0	-0.024197876
127	0x3e1819c6	0.14853582
128	0xbe8e061d	-0.2773904
129	0x3dd6b7fa	0.104843095
130	0xbc71d071	-0.014759169
131	0xbeb2bab7	-0.34908077
132	0x3db1229a	0.08649178
133	0x3cca7cf3	0.024717784
134	0xbd4e5f6f	-0.05038398
135	0xbea09fd5	-0.31371942
136	0xbe9d4544	-0.30716908
137	0xbe4b65b6	-0.19863018
138	0x3e914216	0.28370732
139	0xbeb3f4c8	-0.3514769
140	0xbe38162c	-0.17977208
141	0xbd2d77de	-0.042350642
142	0xbea6fab0	-0.32613134
143	0xbe09aa88	-0.13443959
144	0xbd9bede6	-0.07613735
145	0xbe81b110	-0.253304
146	0x3e2132de	0.1574206
147	0x3d92a420	0.071602106
148	0xbdeb4ae6	-0.11488895
149	0xbe3049af	-0.17215608
150	0xbe8fe998	-0.28107905
151	0xbb8e6b9d	-0.0043463246
152	0xbcd8bd75	-0.026457528
153	0x3c0d8024	0.008636508
154	0xbafd376e	-0.0019318887
155	0x3ccfba46	0.025357377
156	0xbe025671	-0.12728287
157	0xbd6929f7	-0.056924786
158	0xbe5df1b7	-0.21674238
159	0x3b0ccec1	0.002148554
160	0xbee5e747	-0.44903013
161	0x3ab93929	0.0014131415
162	0xbf3ecb60	-0.74529076
163	0xbf1286e1	-0.5723706
164	0x3d823fc9	0.06359822
165	0xbdf14479	-0.11780638
166	0xbe022932	-0.12711027
167	0x3cbc6fd0	0.023002535
168	0x3d057a3b	0.03258727
169	0xbeb6b744	-0.35686696
170	0xbb5ffc0b	-0.003417733
171	0x3d997248	0.074925005
172	0xbe43e1f3	-0.19129162
173	0xbe25c2cb	-0.16187589
174	0xbf6a56e9	-0.91538864
175	0x3ddadd6b	0.106867634
176	0xbeb1574f	-0.34636924
177	0x3d5edca2	0.05440963
178	0x3eba7a89	0.36421612
179	0xbe97b56d	-0.29630604
180	0xbe273d6c	-0.16332024
181	0xbeb0c738	-0.34526992
182	0xbe777c0b	-0.24168412
183	0x3f265e1d	0.64987355
184	0xbea807cc	-0.3281845
185	0x3e09dbd5	0.13462766
186	0xbe1c0231	-0.15235211
187	0x3def3562	0.11680104
188	0x3d1e5a54	0.038660362
189	0xbe8e2d8a	-0.2776912
190	0xbe6db058	-0.23211801
191	0xbd93ba35	-0.072132505
192	0xbe75855d	-0.23976655
193	0xbd0cef3a	-0.03440783
194	0xbe8899ab	-0.2667974
195	0x3bdaa3c9	0.0066723567
196	0xbda424ad	-0.08014808
197	0xbeaff0d2	-0.3436342
198	0x3cb1aff9	0.021690356
199	0xbe1a72f4	-0.15082914
200	0x3e3b2401	0.18275453
201	0x3e0f92aa	0.14020792
202	0xbe8e8e6d	-0.27843037
203	0xbe7d26ab	-0.24721782
204	0xbd943244	-0.0723615
205	0xbe1f14a0	-0.15535212
206	0xbea4b06b	-0.32165846
207	0xbda5854a	-0.080820635
208	0xbd0adb75	-0.033900697
209	0x3d850c12	0.06496443
210	0xbe732cdb	-0.2374758
211	0x3e8a1520	0.26969242
212	0xbe7c2e88	-0.24627125
213	0xbe58e0a9	-0.21179451
214	0xbe9ce71d	-0.30645075
215	0xbef68a80	-0.48152542
216	0xbe46813c	-0.19385237
217	0xbe9d415a	-0.30713922
218	0xbf23521b	-0.6379716
219	0x3cce5883	0.02518869
220	0xb98c6e90	-0.00026785256
221	0xbe9bb4fe	-0.30411524
222	0xbe9eb822	-0.30999857
223	0xbe921a8e	-0.28535885
224	0xbee5796b	-0.44819197
225	0xbe03b89d	-0.12863393
226	0x3b024d3f	0.0019882468
227	0x3df35233	0.11880913
228	0x3d39aff3	0.045333814
229	0xbeb22e74	-0.34801066
230	0xbe97ca29	-0.29646423
231	0x3eefcb45	0.4683477
232	0xbe869c0c	-0.2629093
233	0xbdab8490	-0.08374894
234	0x3d06d2df	0.032915946
235	0xbe3c2239	-0.1837243
236	0xbe3d3049	-0.1847545
237	0xbea78eda	-0.32726175
238	0x3e8844db	0.26615033
239	0xbe8c0627	-0.27348444
240	0xbe1acbfe	-0.1511688
241	0xbe8cf6f8	-0.27532172
242	0xbd99eea4	-0.0751622
243	0xbe82a735	-0.25518194
244	0x3e081ff8	0.13293445
245	0xbba4dd42	-0.005031259
246	0x3e1e08a2	0.1543298
247	0xbeabf93d	-0.3358859
248	0x3caa2c08	0.020772949
249	0xbc494e48	-0.01228673
250	0xbcf11fef	-0.029434172
251	0xbea22382	-0.31667715
252	0xbe1d5540	-0.15364552
253	0xbe5eb098	-0.21747053
254	0xbdc26d9a	-0.09493561
255	0x3e84d30c	0.25942266
