save/model/acrobot_dqn_dueling_noisy_hid_128_128.pth (torch_old, 415496 bytes, 30 tensors)

weight f4 [128, 6]
00000000: fc93 94bd e074 013f 3ad2 6b3e a60d 3dbf
00000010: 854b cf3d bf27 343e 3524 dbbc 2fe9 9e3e
00000020: e5f0 dc3d ec44 1e3f 002f cbbe 7375 c7bd
00000030: 53f4 b33e 9ffe de3c e0c9 d23e 8aa6 00be
00000040: 844c c7bc effd 8d3c 17fa c5be 4241 9d3e
00000050: def1 de3e 4534 133f 1a67 623e abd1 fa3d
00000060: a24b 003f 3bc8 e43e 02ee d43e 1ce8 c83e
00000070: 2837 3fbe ded9 bfbd 6149 183e 4978 a33d
00000080: 115a 3bbd 5908 9b3d 61c0 703d ac5a 933d
00000090: 9ccf e33e 489e 213f cd2d b4be b83d 76be
000000a0: 8c17 8fbb cb89 123e 8c98 083e af1c b9bd
000000b0: a1f1 6fbd bf43 8ebd b713 73bd 58b0 d2bd
000000c0: c7a2 853e 4f1f d33e 8a82 313e 01f4 12bf
000000d0: 509a b73c 055c 943d 778c fabc 3637 b0bd
000000e0: 0e14 e03e 0b23 c13d 6185 c4be 5750 883d
000000f0: 8c61 313c f5e3 a33e b863 f73e c383 31be
00000100: d1a2 6bbe b424 f7bd 10fb fc3c ffee 0b3f
00000110: 16df 363e 5718 8e3e 18dd 8a3e c397 bf3d
00000120: 5cc2 de3d f2e7 0a3f 4495 963e 3519 d2bd
00000130: 2fe4 82bd c19c e0bd 2165 343e 7095 16be
00000140: c0ff fdbd 65eb 87be 218a 293b 9432 bdba
00000150: 5175 35be acc3 bdbe 3cff edbe 0f8b 96be
00000160: decc 65be 35a9 953d a238 153e 204f 3d3e
00000170: 6716 82bd e478 c0bd 5b74 2cbc 5ee8 d9bc
00000180: 5e48 c93e 2c89 89be 8fa6 bf3e 9a9c 103e
00000190: 3897 4fbd 31bc cbbd bbaf e83e d1e7 16bf
000001a0: 6c93 843e e667 c1be da23 e33d 7393 4d3d
000001b0: cbdb 22bf e014 80be 7f07 47bf 3f0a 64bd
000001c0: ef79 02bd ec79 073e 46e1 483e 2178 3f3d
000001d0: e8ca 083e 48a7 a53e b255 1d3d 7a40 453d
000001e0: fbba 7a3e 4cd8 9dbe 9e8c e0bc 622b 263e
000001f0: 308c 19bc 6d9b 4fbd 437a b8bd d0a0 5f3e
00000200: a93c 10bf 377b f0be c1b9 373e 6a50 5dbd
00000210: 944b 063f eec2 bfbd 80cf 563d 5eca b73c
00000220: 2a00 4cbe a3ef 00be 6898 9c3e e664 de3d
00000230: 6215 5cbd 0f2d 173e c427 b9be 4403 00be
00000240: 15ba 2ebe d802 b5bd c560 d93e d385 7c3e
00000250: 81ed f43d bd1a 403c 5354 363e fc37 493e
00000260: 2ca2 6abe 53b5 8b3e ae2b 82bc 800b acbb
00000270: b844 343e 5c3a 2dbe 5ebf 673e eeea efbd
00000280: ecf2 033f 7b82 2a3e 4be2 aebd c07b 48be
00000290: 6158 75bb 28f2 09be e1ba 50be 73e9 2ebe
000002a0: b68b bb3e bf3d 28bf d26a 94be 0f91 e73e
000002b0: 5f4e 713c bbcf 97bd 2632 22bf 2750 0a3f
000002c0: 7ba0 2e3e 08b9 a33e 852c 563e 71a9 df3d
000002d0: 46bf 81bf 2cc9 48bc 51c4 d6bd 171c a6be
000002e0: f748 b83b b7e5 1dbe 0d9c 2ebf b69b 233e
000002f0: 8583 1f3f cd25 97be 4768 90be 0444 afbd
00000300: 5894 39be e839 ac3e 3abd 28bf 5c63 38be
00000310: e58b 0a3e b065 013e 0514 933e 8e8b 8c3e
00000320: 0ed1 863e 293c 9d3e d170 193e fd13 893d
00000330: 14e9 22bf 4363 4a3e 983d 203f df42 b63e
00000340: af3d 403e a604 e33d b97e 59be 42ee d3be
00000350: 83df 56bf bb03 7c3e 62e6 c2bb 2298 10be
00000360: fce2 a03e 2f1c 853d f3dd 04be f8ca 363e
00000370: 61d4 ed3d 48ae db3d 0a48 2abe 24a2 17be
00000380: a0c9 2fbd b4be a1be a1d2 8e3d 8c47 32bd
00000390: 52a6 963d c448 24be e239 04bf 1cb2 b53e
000003a0: 932e 27bd 61b1 3a3c 4ccf 11be 3f8c 1abf
000003b0: ae8f 28bf 7955 923e 242a a0bd bf01 5a3c
000003c0: d1d9 bfbe e095 d6be 852b b4bc acc5 a33e
000003d0: 7171 fcbc 3e0e 88be 2636 4cbd 90a0 383f
000003e0: be09 933e 65db 683e 7cd4 b6be c0d7 8dbe
000003f0: e0ac fe3d 915e fbbe 61f7 40be 7d86 563d
-0.07254788 0.5056896 0.23029414 -0.7384895 0.10121826 0.17593287 -0.026750663 0.3103728
0.107881345 0.61823916 -0.39684296 -0.097391985 0.35147342 0.027221022 0.41169643 -0.1256353
-0.024328478 0.017332999 -0.38667366 0.3071385 0.43543905 0.5750163 0.22109643 0.12247022
0.50115407 0.44684014 0.41587836 0.39239585 -0.18673384 -0.09367727 0.14871742 0.07981927
-0.04574019 0.075699516 0.058777217 0.07195029 0.4449433 0.63132143 -0.35191193 -0.24046981
-0.0043668207 0.14310376 0.13339442 -0.09038674 -0.058580045 -0.06946515 -0.059344973 -0.10287541
0.26100752 0.41234824 0.17334953 -0.5740357 0.02241245 0.07244114 -0.030584557 -0.08604281
0.437653 0.09430512 -0.3838301 0.066559486 0.01082648 0.32009855 0.48318267 -0.1733542
-0.23011328 -0.120675474 0.030881435 0.54661554 0.17858538 0.27752945 0.27121806 0.09355118
0.10876915 0.5426017 0.29410756 -0.10258714 -0.06391179 -0.109673984 0.17616703 -0.14705443
-0.12402296 -0.2654678 0.0025869685 -0.0014434629 -0.17720534 -0.37063348 -0.4648379 -0.29402968
-0.22441432 0.07307664 0.14572385 0.18487215 -0.06351929 -0.09398058 -0.010525788 -0.02660006
0.39313024 -0.26862466 0.37431762 0.14122239 -0.050681323 -0.09948004 0.45446572 -0.58947474
0.25893724 -0.3777458 0.110908225 0.050189447 -0.6361663 -0.25015926 -0.77745813 -0.055673834
-0.031854566 0.13230103 0.19617185 0.046745423 0.13358653 0.32354188 0.038411804 0.048157193
0.2448539 -0.30829084 -0.027410802 0.16227487 -0.009371802 -0.050685335 -0.090076946 0.21838689
-0.5634256 -0.46969005 0.17941953 -0.054031767 0.52459073 -0.09363352 0.05244398 0.022435363
-0.19921938 -0.12591414 0.30585027 0.108590886 -0.05373133 0.14763282 -0.3616315 -0.12501246
-0.17063172 -0.08838433 0.42456642 0.24660425 0.11959363 0.011725125 0.17805605 0.19650263
-0.22913426 0.27286777 -0.015889969 -0.0052503943 0.17604339 -0.16916794 0.22631595 -0.11714731
0.51542544 0.16651337 -0.08539256 -0.19578457 -0.003743671 -0.13471282 -0.20383789 -0.17081241
0.36630028 -0.6571922 -0.28987747 0.45227858 0.014728158 -0.07412668 -0.6335777 0.5402855
0.17053406 0.31977105 0.2091542 0.1092099 -1.0136497 -0.012254994 -0.10486663 -0.32443306
0.0056239325 -0.1541966 -0.68206865 0.15977368 0.6231006 -0.29521027 -0.28204557 -0.08557895
-0.18122995 0.3363793 -0.65913737 -0.18006653 0.13529928 0.12636447 0.2872621 0.27450222
0.2633137 0.3070996 0.14984442 0.066932656 -0.636369 0.19764428 0.62593985 0.35597894
0.1877353 0.11084871 -0.21239747 -0.41392714 -0.839348 0.24610798 -0.005947874 -0.14120534
0.31423175 0.06499516 -0.12975292 0.17850864 0.11612774 0.10726601 -0.16629043 -0.14807945
-0.042916894 -0.31590807 0.06973768 -0.043525264 0.07355942 -0.16043383 -0.5165082 0.3548745
-0.0408159 0.0113948295 -0.14239234 -0.6037025 -0.6584424 0.28580835 -0.07820538 0.01330608
-0.37470868 -0.4191122 -0.021993408 0.3198675 -0.030815812 -0.26573366 -0.049856327 0.7212
0.2871837 0.22739942 -0.35708988 -0.27703667 0.12435317 -0.49095586 -0.18844368 0.05237435

bias f4 [128]
00000000: dfff 983e 098a 3abf 4c0c 8b3e e2c9 33be
00000010: 4c09 9cbe 5c66 c13e fc40 073f 14d6 e33e
00000020: 06d4 db3c 0fb1 07bf 10a0 23bf 422c 7ebe
00000030: d51b cebe 3b5e 0d3f 98b7 65bf 90dd 0a3f
00000040: f2bf b53c fe0d 09be fb4a b23e 5e3b e83e
00000050: 183f f63e e797 eebd 86de b03e 74d8 33bf
00000060: ad40 b4be 8f10 a83e 6230 5fbf 9503 893e
00000070: ad9f a2be d03a 4cbe d7d8 09be 6695 d8bd
00000080: ea6c a23d 61c5 073e 9573 553d 4da8 63be
00000090: b2f3 073f 4bf8 f93e c6d2 a03e 0982 3c3e
000000a0: 2e3d 13bf 47da 8dbe a609 30bf e735 bb3e
000000b0: 35fa 703e 1c8c 86bd 66bd 91be 1a78 9ebe
000000c0: ed8e 763e 9374 313e 28d4 553e 2719 77be
000000d0: 97a1 dd3e 2555 2c3e 7b1c 0a3f 6882 1ebe
000000e0: 7fee 32bf 26c4 47bf 40b6 88be bacc 02bf
000000f0: d108 d2be 5b56 00be 08b0 cb3e 7cd0 e8bd
00000100: 3673 dbba ab51 08bf d072 713e 4770 d63d
00000110: eb5e 1abf a9cb 453e a67c 2ebf 6df4 843e
00000120: 4f6c 483e b085 a5bd 1e90 65be 7304 19bf
00000130: 5b62 ab3e 0ab9 063f dedd b8be 48ea e83e
00000140: ed9f 67bf 1083 8fbf c4d6 bebe ce82 7ebe
00000150: e4da 2a3e 0139 dfbe 5cf2 7ebf 3d3a 09bf
00000160: cdb9 023f 5e70 363e 4785 90be bb65 06bf
00000170: 1af7 003f 0bd7 fbbe 9c83 d43e c735 45bc
00000180: c7bb da3e 3d6b c73e e888 f53e 7cb3 813e
00000190: 738a a53e 322d 35be bfad a23e db46 4a3e
000001a0: 4a9b 50bd 35d0 80be a23d 3f3e a447 e1be
000001b0: 0e8b a63e 2eeb 8d3e a114 70be c0c9 873d
000001c0: e613 a5be 616e 4cbf c1bb 0fbf cd7a 71be
000001d0: 6a84 013e 8dc4 71be a2ca 00bf 5896 61be
000001e0: d7ca 62bf 7621 e43e 5a3e 653e 2c83 acbe
000001f0: f9ec 7bbf fb24 fd3e 31a3 bd3e 2430 67bf
0.29882714 -0.72866875 0.2715782 -0.17557481 -0.30475843 0.37773407 0.52833533 0.44499266
0.0268345 -0.53004545 -0.6391611 -0.2482157 -0.4025561 0.5522191 -0.89733267 0.5424433
0.022186253 -0.13384244 0.3482283 0.45357794 0.48095012 -0.11650067 0.34544772 -0.70252156
-0.35205594 0.32825133 -0.871832 0.26760545 -0.31762448 -0.1994431 -0.13461624 -0.105753705
0.0793093 0.13258888 0.05211218 -0.2223217 0.53106225 0.48822245 0.31410807 0.1840898
-0.5751523 -0.27705595 -0.6876472 0.36564562 0.23532946 -0.065696925 -0.28464812 -0.30951005
0.2407796 0.17329626 0.20881712 -0.24130689 0.43287346 0.16829355 0.5394971 -0.15479434
-0.69895166 -0.78033674 -0.26701546 -0.5109364 -0.4102235 -0.12532942 0.3978274 -0.1136789
-0.001674271 -0.53249615 0.23578954 0.10470634 -0.60301083 0.19315971 -0.6815895 0.25967732
0.19572566 -0.080821395 -0.22418258 -0.59772414 0.33473477 0.526261 -0.3610677 0.45491242
-0.904784 -1.1211872 -0.37273228 -0.24854586 0.16685063 -0.43598178 -0.9958856 -0.5360449
0.5106476 0.17816302 -0.28226683 -0.5249898 0.5037705 -0.49187502 0.4150666 -0.012036747
0.42721388 0.38949004 0.47956014 0.25332248 0.3233219 -0.17693022 0.31773183 0.19753592
-0.050929345 -0.2515885 0.18675855 -0.4399997 0.32527965 0.2771849 -0.2344537 0.06630278
-0.32241744 -0.79855925 -0.56145865 -0.23582001 0.12648168 -0.23610134 -0.50309193 -0.22030008
-0.8859076 0.4455678 0.22387066 -0.33693826 -0.98408467 0.49442276 0.37038568 -0.9030783

weight_mu f4 [128, 128]
00000000: 7f04 963e c3ae 623e 14ee 99bd e49d 1bbc
00000010: a03c c8be 15f0 91be 0d9d cdbe b8a5 babe
00000020: 4fe0 a33e bde3 edbd d6d4 0dbe 5bd2 e6be
00000030: d86a 9abe c4ce 00be 4937 6a3d 6633 d5be
00000040: 161f 59be 0bd7 963e cc12 91bc 6908 d0be
00000050: f232 45be 36e5 81be bbac d6be dcda 4dbe
00000060: 14f2 013e 0f8a 98be 2ac9 d13a 5e8e 83be
00000070: dcfe 13bf d238 c5be afc2 bdbd 0bf2 2ebf
00000080: 2c97 bcbe 1638 13bf 304e 10be ef37 dbbe
00000090: 2ab1 a2be 5127 4f3d c3c0 0bbf f37e f33b
000000a0: dd91 acbb 4294 6b3d aaa8 3abd f056 24bf
000000b0: 3d67 ab3c 24df 5ebd 0ee8 2a3e b6b4 273e
000000c0: 1e04 a7be be42 4abe c762 87be 3570 55be
000000d0: 489a abbd b3d6 d4bd 3a1d 9cbe 134d a6be
000000e0: 8a6c 443c 1277 22bc a11c d2bd 0181 913d
000000f0: 46c6 6cbd c5fd 0d3e 7f97 e1bd 5554 d2bd
00000100: d682 0ebe e07c 3e3e ee28 9ebe 54fa b1be
00000110: b558 3ebe 7282 f5bd 39d3 b9bd e483 f4be
00000120: 9f6b 3dbe ed58 913d 9d07 e03e e520 59be
00000130: 4272 79be ad08 efbd ec0c 83bd bc27 cabe
00000140: 8e05 a83d 12b0 273e 861c 2bbe 5d92 fabd
00000150: 62b6 8bbe 47b9 cabc f513 8ebc 4529 45be
00000160: 387e 00bf 1efe 90be ac69 4a3e 9d3f 70be
00000170: 0276 98bd 2b85 12be b34c 8bbe f6c3 9cbe
00000180: 2181 983d ff06 f33c 1c79 05be 73a4 bdbd
00000190: c61e 4ebd e576 15bf 1261 5cbe 98e2 a6be
000001a0: 80fd 083e f6bf b2bd cc74 71be 634c fb3d
000001b0: 185c 80bd 605f d9be 089c bd3e e117 99bc
000001c0: 9239 4abe f54a 7cbe b321 f23d 4b27 adbe
000001d0: a163 4cbf 50a2 f73e 2cf1 35be 45b7 abbd
000001e0: 20a7 f7bd 5264 87bd 4a31 82be edd1 60bd
000001f0: 6b52 063e 2d80 bfbe b944 2f3e 2b70 8dbe
00000200: 0f30 2c3c 2d88 e3bd 511e 12bd dda1 4ebc
00000210: d70f 1abe b96b 24be 9455 21be 4237 15bd
00000220: 5098 57bc b95b 39bd 734d 17be f384 9fbd
00000230: 2898 71bd c654 92bd eca2 9fbc 033e 14be
00000240: 0020 42bc ddc6 25be 2137 0cbe 8fb5 04be
00000250: 1149 95bd 80ef 3abe e696 d5bb 355c 913c
00000260: faa6 233d 47b0 2ebe 4c76 74bd c69e 15be
00000270: ca55 2abe 2c4c 07be b8b7 73bd 3406 383b
00000280: 524a 77bc 9c40 02be e939 033c 2889 e9bd
00000290: 893d 43bb cccf 82bd 0ff4 82bc 9781 06bd
000002a0: ccd9 a5bd fc76 c0bb 2610 c3bd b28d a43b
000002b0: c4b9 a7bd e217 dabd fd59 37bd 6441 a7bd
000002c0: ec9f 82bc f8ea 27be 17ab 15be c1ff d03d
000002d0: 4751 cbbd e0d8 37bd f18d 373c 6d1d 1ebe
000002e0: fbff 49bd 9bc8 20be 644e 00be c4f0 893c
000002f0: 0d3a 04be d338 d6bc fd12 9abd 82e6 3ebd
00000300: 1527 183d 06a5 babc f714 dabd 464b 64bd
00000310: 43fa f8bd 7764 1fbe a735 033d 6b3f 33be
00000320: 9adf 3fbe fe1d 643d 4e2e acbc 7d63 46bd
00000330: cc9d 60bd 20df 01be 26d6 f73c 0565 f3bc
00000340: 0157 b9bd 774d 21be 2037 223c 2c8d 08bd
00000350: faab 203c 639c 44bd 20a1 753c f44d 03bd
00000360: e791 46bd 9284 f4bd 1e93 aebd 82a9 c7bd
00000370: dd55 59bd b895 68bd 502b f7bc 989e 12be
00000380: a51a febc 573e b2bd db30 d0bd e463 53bd
00000390: a9de 99bd 386c b5bc 138f b4bc 6c45 a0bd
000003a0: 79a7 d9bb 19fa e5bd e21a 20be 7934 a6bd
000003b0: 7921 20bd 6069 15be c3c1 a2bd 4fc0 3cbe
000003c0: eb5d 8a3c a690 d63c 5a7e c3bc 2987 bcbd
000003d0: 8117 dabd 4f52 c2bd 20ed ac3d b5aa 4fbd
000003e0: b64b 38bd b86a b2bc 63c5 99bd 6e2f 0dbd
000003f0: 535a aebd bf4d 03be de94 0abe 0b77 c9bd
0.29300305 0.22136979 -0.07516113 -0.009498093 -0.39108753 -0.2850348 -0.40158883 -0.36454558
0.3200707 -0.11615703 -0.13850722 -0.45082363 -0.3015964 -0.12578875 0.05718163 -0.41640776
-0.21203265 0.2946094 -0.017709158 -0.40631416 -0.19257715 -0.25370187 -0.41928658 -0.2010302
0.12690002 -0.2979283 0.0016005386 -0.25694555 -0.5781076 -0.38519913 -0.092656486 -0.6833808
-0.36834085 -0.57507455 -0.14092326 -0.4281611 -0.3177579 0.050574604 -0.54591006 0.007430905
-0.0052664117 0.057514437 -0.045571007 -0.64195156 0.020923251 -0.054412022 0.16690084 0.1637753
-0.3262033 -0.19752023 -0.2644255 -0.20843585 -0.08379036 -0.10392513 -0.30491048 -0.32480678
0.011988768 -0.009916084 -0.10259367 0.07104684 -0.057806276 0.13866337 -0.11015224 -0.10269991
-0.13917097 0.18602324 -0.30890602 -0.34761298 -0.18588527 -0.11987771 -0.09073491 -0.47756875
-0.18498085 0.07097039 0.43755808 -0.21203955 -0.24359992 -0.11671577 -0.06398949 -0.3948344
0.082041845 0.16375759 -0.167101 -0.12234948 -0.27287585 -0.02474655 -0.0173435 -0.19254024
-0.50192595 -0.28318876 0.19766873 -0.23461767 -0.07444383 -0.14308612 -0.27206954 -0.30618256
0.074465044 0.029666422 -0.13034481 -0.09259882 -0.050322317 -0.58384544 -0.21521404 -0.32594752
0.13377953 -0.0872802 -0.2357971 0.12270429 -0.062675655 -0.42455578 0.37033105 -0.018688144
-0.19748524 -0.24637969 0.11822834 -0.3381904 -0.7983952 0.48366022 -0.17767781 -0.08384565
-0.120924234 -0.066109315 -0.2542823 -0.0548877 0.13117377 -0.37402478 0.1711606 -0.2762464
0.010509505 -0.11109958 -0.035673443 -0.012611833 -0.15045105 -0.16056718 -0.15755302 -0.03642965
-0.013158873 -0.04525349 -0.14775638 -0.0778903 -0.058982998 -0.071450755 -0.019486867 -0.1447678
-0.01184845 -0.16189142 -0.13692905 -0.12959884 -0.07289327 -0.18255424 -0.0065182326 0.017744163
0.039954163 -0.17059432 -0.05968313 -0.14611349 -0.16634288 -0.13212651 -0.05950138 0.002807987
-0.015093403 -0.12719959 0.008009412 -0.114031136 -0.0029791316 -0.0638729 -0.015985517 -0.03283843
-0.08098182 -0.005873559 -0.095245644 0.005021774 -0.08189729 -0.106490865 -0.044763554 -0.08166769
-0.015945397 -0.16398227 -0.14616047 0.10205031 -0.09927612 -0.044884562 0.011203275 -0.15440913
-0.049316388 -0.15701525 -0.12529904 0.016838439 -0.1291277 -0.026150143 -0.07523153 -0.046606548
0.037146647 -0.022783767 -0.1064853 -0.05573585 -0.12157109 -0.15565668 0.03203359 -0.17504661
-0.18737641 0.055692665 -0.021018174 -0.048434723 -0.054837987 -0.12682772 0.030253481 -0.029711256
-0.09049798 -0.15752207 0.009900838 -0.033337757 0.009806627 -0.048000704 0.0149920285 -0.032056764
-0.048478987 -0.11939348 -0.08524154 -0.09749128 -0.0530604 -0.056783408 -0.03017202 -0.14318311
-0.031018564 -0.08703297 -0.101655684 -0.051608935 -0.07513172 -0.02214633 -0.02204088 -0.07825741
-0.0066422787 -0.11229343 -0.15635255 -0.08115477 -0.039094422 -0.14590979 -0.07947113 -0.18432735
0.016890487 0.02619202 -0.02386396 -0.09205467 -0.10649014 -0.09488355 0.084436655 -0.05069991
-0.04499408 -0.021779403 -0.07508352 -0.03446906 -0.08513322 -0.12822627 -0.13533351 -0.09837159

weight_sigma f4 [128, 128]
00000000: a16b 983d 9f3c b6bd 657a ebbd bfd9 a73b
00000010: e773 22be 9de1 133e d3e0 cf3d 2990 923d
00000020: 83ac 5f3e e496 963d 49cc 7a3b 7b42 a43a
00000030: 40cc ab3d 2bdb eeba c554 d63d dfd4 4f3e
00000040: d235 4b3e 5fa1 693d 2a07 163d 1a7b 2fbd
00000050: e505 d73d 56f6 80bd 6209 213c 9cca 9a3e
00000060: 2d32 59bb 041e c8bd 031f 25bd 4777 b6bd
00000070: 2e17 16bd b2f5 2d3c 0f4f 33bc f221 3fbd
00000080: 7618 acbd 9e63 20be 3edb 803e 81f3 fb3c
00000090: 9c30 02be 55ff 633c b3d8 c13b 2cd4 aabc
000000a0: 5540 a23d 8cd4 943d 4959 7ebc 163b 59be
000000b0: fdae aabd 6caa a3bd a7e6 683d 31bb 673d
000000c0: 6e3a 683d c405 233e d0a2 9bbd 7c41 dcbc
000000d0: 3215 c53c 2a6a eabb fed3 7bbc 0862 a1bc
000000e0: a8a9 a6bd 661d 82bd 226f 5dbd 8094 f6bc
000000f0: e646 0bbe 8f33 f0bc 6bec d5bd 4702 acbd
00000100: 1e22 f5bd c792 ebbc fe37 d0bd 93b1 843d
00000110: f440 94bd 235a bf3a 3490 293e cd3f 813e
00000120: dc28 1abd f53b 84bd e519 243e 9cdc 89bc
00000130: c2d4 cf3b 6bf3 523c b02f b33d ad4f 96bd
00000140: e888 3ebe b6f9 183d 82a2 92bd 2590 173e
00000150: d69b b93d d837 89be 7895 093e f93d 04be
00000160: 4014 e03c 63ee 5e3d 25bb ba3d 1252 06be
00000170: 2c12 d6bd c1fc 503c daf7 44bd cf23 80be
00000180: e3fb a33c 2af1 fa3c d2f2 d03b d7ed acbd
00000190: 1d4a 483c 52ac 493e 8707 6f3d ac50 843d
000001a0: c839 313c da88 8b3d 5d04 69bd 7589 8e3d
000001b0: 520e 77bd 0dd8 34bd 1bc0 cbbd df63 5ebd
000001c0: ed64 ae3d 3249 0abd 8af5 ad3d 4169 f63d
000001d0: 6c66 c93d 7f73 e1bd 1f0a ebbb de9d 103d
000001e0: 9604 983d 01d9 f93b 18bc 1c3b c24f 843d
000001f0: 6fc5 42be 3fdd 9e3c cd3c 1abe c61a 0b3e
00000200: 1d87 e33d 69ee d83d 1e87 69bc 555e 323d
00000210: 9745 bdbb a2df 09bd 1229 ed3d c879 c83b
00000220: 7e73 cb3d 988b cc3d 2104 393d 36d4 c8bb
00000230: 1643 293d 570d 3d3d d978 46bc 9ed1 823d
00000240: 390c 22bd 3839 82bc 4056 1abd af75 003d
00000250: 12b6 4cbd 8c6a ad3d 0eec 613d 7e6a 723c
00000260: 0beb 30bd d549 8dbc f249 ea3c fab6 303c
00000270: 145f edbb 5ce9 1d3d 8758 633c 3db4 1e3d
00000280: 3cb7 9d3d f1f8 963d 1b86 643d e685 883d
00000290: 8076 433d bb5e 1d3c 9ed3 db3d 3318 983d
000002a0: 4c40 663d 1b9a 3bbd 0ffa 25bd 3bc7 7c3d
000002b0: 4e14 efbc 38d3 cb3d 1584 e93d 6455 6a3b
000002c0: 636a 9e3d b2f8 e7bc 8669 a73d 2128 77bd
000002d0: e4f6 a5bd d139 d23d 834d 28bd d2a6 993d
000002e0: ec8b d33c 2f6b a43d 9b9a c83c fcbc e63d
000002f0: b327 c3bc efd3 8abb baf8 04bb e82a e1bc
00000300: c788 e6bc 5f9c bf3d 0076 3d3d 7616 093d
00000310: 4a2c 693d 7679 84bc c77d 843d 784c e7bc
00000320: c24a 453d c26f 323e fc9e 1a3d 9720 8e3d
00000330: dce3 283d 40f2 aa3d b737 5cbc 5333 3b3c
00000340: 81a9 87bc 85e7 953d 4792 243c 8cc1 823d
00000350: 7164 993c 340d 603c f554 293d 7769 03bc
00000360: a4ca e0bb 085c c43c 4ce6 f8bb 4ebc 3abd
00000370: b1f7 47bc 7c5d 843d 32e5 f8bd fb94 9c3c
00000380: e48d 863d 59f3 9f3d c621 a13d 3020 4b3b
00000390: dc77 053d d587 533d 2ffc 5fbd 155b c63d
000003a0: 7234 91bd 64fc 333d effd 85bd 041c 063d
000003b0: 2a50 2a3d 4b35 643d 91f2 313e 412b a1bd
000003c0: efb2 3c3d cd11 863d 6463 1f3e b811 f83b
000003d0: 35a8 d53d 5f33 9c3c a1bd 423d aa71 b63d
000003e0: 03e7 853d c8b2 d83d 1352 af3d 170d c83b
000003f0: bdb5 173e ec18 00bd e0db cd3d e1dd c63b
0.074424036 -0.08898281 -0.11497954 0.005122393 -0.15864526 0.14441533 0.10150304 0.071564026
0.21843152 0.07352999 0.0038268736 0.001253202 0.08388567 -0.0018223276 0.10465387 0.20296048
0.1984475 0.05703866 0.036627926 -0.04284201 0.10499171 -0.06296985 0.009828897 0.30232704
-0.003314148 -0.0977135 -0.04031278 -0.08909469 -0.0366432 0.01061766 -0.010944142 -0.046663232
-0.08403103 -0.15663001 0.2516727 0.03075576 -0.12713856 0.013915856 0.005915725 -0.020853125
0.079224266 0.072671026 -0.015524217 -0.21213946 -0.083341576 -0.0799149 0.056860592 0.056575004
0.056696348 0.15920168 -0.075994134 -0.026886694 0.024057958 -0.007153769 -0.015370367 -0.019700065
-0.08137828 -0.063532636 -0.054061063 -0.030100107 -0.13601264 -0.02932146 -0.10445484 -0.08398872
-0.11969398 -0.028756512 -0.1016693 0.06479182 -0.07238951 0.0014599006 0.16558915 0.2524399
-0.037636623 -0.064567484 0.16025503 -0.016828828 0.0063425014 0.012875418 0.0874933 -0.07339416
-0.18606913 0.037347518 -0.07159902 0.1480108 0.090629265 -0.26800418 0.13435924 -0.12914266
0.027353406 0.054426562 0.09117726 -0.13117245 -0.10452685 0.012755574 -0.048087932 -0.2502732
0.02001757 0.030632574 0.0063766027 -0.08443802 0.012224701 0.19694641 0.058356788 0.064606994
0.010816999 0.06813212 -0.056888927 0.069598116 -0.06031639 -0.044151355 -0.099487506 -0.054294463
0.08515344 -0.03376121 0.084940985 0.12031794 0.098339885 -0.11008357 -0.0071728374 0.035306804
0.0742275 0.007624746 0.0023915824 0.06460525 -0.19020627 0.019392608 -0.15062256 0.13584432
0.11109755 0.10592348 -0.014253406 0.043546993 -0.005776118 -0.03366054 0.11580099 0.006118033
0.09934138 0.09987563 0.045169953 -0.006128813 0.041323744 0.0461553 -0.012113773 0.063876376
-0.039562438 -0.015896425 -0.03767991 0.03136223 -0.049978323 0.08467588 0.05515676 0.0147958975
-0.043192904 -0.01724712 0.028599713 0.0107858125 -0.007244 0.038552627 0.013876087 0.038746107
0.07700965 0.073717006 0.055791955 0.06666164 0.047720432 0.009605105 0.10733722 0.07426491
0.056213662 -0.045801263 -0.040521678 0.06171344 -0.029184487 0.09952396 0.11402146 0.0035756463
0.077351354 -0.02831683 0.08174424 -0.060341004 -0.08103731 0.10264934 -0.041089546 0.075025216
0.025823556 0.08028256 0.024487784 0.11266515 -0.023822641 -0.0042366902 -0.0020289854 -0.02748628
-0.028141392 0.09355997 0.04625511 0.033468686 0.056927003 -0.016171198 0.064693026 -0.028234705
0.048166998 0.17425445 0.037749276 0.0693981 0.04123293 0.08346987 -0.013441018 0.011425811
-0.016560318 0.073195495 0.010044641 0.063845724 0.018724652 0.013675023 0.041340787 -0.00802075
-0.006860094 0.023969665 -0.007595813 -0.045589738 -0.01220505 0.06463143 -0.121530905 0.019114008
0.06570032 0.07810087 0.0786777 0.0030994527 0.03258501 0.05164321 -0.05468386 0.09685341
-0.07090081 0.04394187 -0.065425746 0.03274156 0.041580357 0.055714887 0.17377688 -0.07869578
0.046069082 0.06546364 0.15565258 0.0075704716 0.104324736 0.019067464 0.047544125 0.089083984
0.065382026 0.10580975 0.08560576 0.006105076 0.14815421 -0.031273767 0.100517035 0.0060689305

bias_mu f4 [128]
00000000: 85e8 b8be 2605 85bd 9eda 65be 6ad8 95bd
00000010: 0b8d 6dbe ea26 2ebe 57e9 89bd b3fb 0cbe
00000020: ebe8 75bd d21d 96be 7a93 89be 3883 26be
00000030: 97bf f8bd 28b6 22be 3362 3bbd 3974 78bd
00000040: a056 abbe 7d39 18bd b2b7 a2be c852 1fbd
00000050: 9f15 d7bb 8d7f 32be 05bd dcbd 1248 2cbe
00000060: 9a4b 77be 4ce5 2cbe 55e0 0ebe 1f94 9b3d
00000070: 2612 46bd a6fc c1bd 0a64 2cbe 9bbe b23b
00000080: 1b76 12bd 666d eabd 1ae4 2ebe 04b1 07be
00000090: 8874 abbd a894 a0be 9c92 c2bd be42 b7bc
000000a0: 8599 303d f874 18be f016 0ebe 3e9e f3bd
000000b0: c988 8cbd 9382 f03b 9ff4 f4bd 6a4a 03be
000000c0: a912 02be 1618 9fbe 3027 0fbe 09ec 0cbd
000000d0: 7b27 debe 6db8 ecbd db4d 83bd 469b d7bd
000000e0: 0416 37be 2930 98bd 5239 5cbe 8a0b 03be
000000f0: e527 fbbd 7bba 72be 2a20 35bd 9eb4 1dbe
00000100: e72d 52b8 44d3 913c f4ee 2bbe eab3 cd3b
00000110: c58c 71bc 36be c0bc 5a20 c1bd 2c57 fa3c
00000120: d6ce cdbd 5e0f ecbd 70d9 a4be bf23 39be
00000130: 5486 64be 4fa0 f4bc 301d 3bbe 8e4b f5bd
00000140: 60c2 0abc d27c fcbd 4cab 24bd 928c d1bc
00000150: 4acc d4bd c795 5abd 3051 0abe c542 d7bd
00000160: a977 53bd 46d0 fdbd 3a48 28be a510 29be
00000170: 21e6 71be ee88 57bc 2896 76bd 8064 8bbd
00000180: 47c4 15be 7e4c aabe 6760 803d 3adb 39be
00000190: aa01 b0bd d800 26be d1ff e53b f9a2 0fbe
000001a0: 92e9 ffbd d0ad f4bd a7ea a2bd e9ee 7ebd
000001b0: e6f8 debb d271 40be 6e3d cabd a287 1ebe
000001c0: bcc9 c8bd b021 9dbd a6be dbbd 19a0 79be
000001d0: bb8c da3c 6110 05bd ad36 a2bd 11a4 90bc
000001e0: 920f 97be 7f3a 56be 1dfd b33c 093f 5cbe
000001f0: 3c37 0abe 9952 ffbd ac5f 30be 1ad2 51bd
-0.36114898 -0.064951226 -0.22446677 -0.07316668 -0.23198335 -0.17007032 -0.06733959 -0.1376789
-0.06003658 -0.29319626 -0.26870328 -0.16260993 -0.12145918 -0.158898 -0.045747947 -0.060657714
-0.33464527 -0.0371642 -0.31780773 -0.038897306 -0.0065638567 -0.1743147 -0.1077824 -0.16824368
-0.24149933 -0.16884345 -0.13952763 0.07596611 -0.04835715 -0.09472017 -0.16835037 0.005454851
-0.035757165 -0.11446647 -0.17079201 -0.1325112 -0.08371836 -0.31363416 -0.0950062 -0.022370692
0.043115158 -0.1488837 -0.13875937 -0.11895417 -0.06862027 0.0073397844 -0.1196072 -0.12821355
-0.12702431 -0.31073064 -0.13979793 -0.03440479 -0.43389496 -0.11558614 -0.06411334 -0.10527663
-0.17879492 -0.07431061 -0.21506241 -0.1279737 -0.12263469 -0.23703949 -0.044220127 -0.15400931
-5.011065e-05 0.017800935 -0.16790372 0.006277551 -0.014743035 -0.0235282 -0.09429999 0.030559145
-0.100492164 -0.115263686 -0.32197142 -0.18080042 -0.22316867 -0.029861597 -0.18272853 -0.119773015
-0.008469194 -0.12328495 -0.040202424 -0.025579724 -0.103905275 -0.053365495 -0.13507533 -0.10510782
-0.05162779 -0.12393241 -0.16433802 -0.16510256 -0.23622943 -0.013155205 -0.060201794 -0.06806278
-0.14625655 -0.33261484 0.06268387 -0.18150035 -0.085940674 -0.1621126 0.007019021 -0.14027013
-0.12495722 -0.119472146 -0.07954913 -0.06223956 -0.0068045733 -0.18793419 -0.09874998 -0.15481427
-0.09804103 -0.07672441 -0.10729723 -0.24377479 0.026678434 -0.032486323 -0.07920585 -0.017656358
-0.29504067 -0.20920752 0.02197128 -0.21508421 -0.13497633 -0.12466926 -0.17223996 -0.05122576

bias_sigma f4 [128]
00000000: 0622 c33d 10c2 e63d 3911 063e 7daa 833c
00000010: 26a9 17bd a8ab 1e3d bfee 043d a9f9 0b3e
00000020: 8072 763d 1113 983c 4f0f a3bd bb3a e93d
00000030: 453d 1abc 139e f2bc 88b6 30bc f42c 283d
00000040: e924 513b 65c8 993d b190 fb3c 12d0 723d
00000050: 27ea fbbc 9d42 0fbd 63b7 99bc 3d55 543c
00000060: e7ff 8bbd c4ea 8cbd 1034 9d3d 5dc1 96bd
00000070: fa92 e03c 69bb 3c3d a78a 1e3e 1000 313d
00000080: e640 273d 5a84 febd 77fa bd3d 9706 ae3c
00000090: 79ba cf3d 70e1 f33b 898c 8c3e bed8 da3b
000000a0: e4d6 2f3d 4d9b 393d 11d6 813d 3042 3f3d
000000b0: 84d0 6c3c 6e05 9e3c e2fe 893d 622d 383d
000000c0: b937 18bc 90a1 5b3d eb7f aa3d e737 303c
000000d0: c53c febc c7ef 00be 34ae 9a3c 01ce bf3c
000000e0: 046a 2cbd d2d6 833e b697 bf3b 635d 9a3d
000000f0: 5917 7b3d d503 e2ba f449 603d 4d8b f1bd
00000100: 3c07 183d 71c0 2ebd a45e 14bd a826 c33d
00000110: a4c1 2d3d f7a3 973c d3dc c03b 9182 feb9
00000120: 3ecf 203e af34 4c3d f86e efbc a8ae 103d
00000130: 85d8 7d3d fbc1 33bc 80d6 9b3c bfb7 653d
00000140: 6ae2 953c af65 da3d 41f2 4dbb e060 1b3d
00000150: d16c 253d f304 0d3d 1cc6 11be 054c 933d
00000160: 651e acbd 6a1f ce3b 8d34 883d b645 ae3e
00000170: 562d 59bd f45c a8bb b976 ffbb 92b4 0a3d
00000180: 5d54 cf3c 0e18 963d 171d 0dbc bbf8 52bd
00000190: 4f36 3c3d 346a 00bd 8a33 0f3d 0279 ebbb
000001a0: 25ec e23d 6752 d03d 9bfb 8bbd 6d97 8a3d
000001b0: c49f 853b 7a5c 483d a3e4 e3bd 4d7b 40bc
000001c0: cdeb a73b 0859 bb3d 743b 52bc b1cd 89bd
000001d0: da99 963c ebf3 2dbd 24eb 763c 94cc 4bbc
000001e0: 05f7 ff3c 17b2 8b3d 0bba 583c 4041 bc3d
000001f0: bae5 db3c de79 043c 83a4 09be 1cac 29bc
0.09527974 0.11267483 0.13092507 0.016072506 -0.037026547 0.038737923 0.03245425 0.13669457
0.06016779 0.01856378 -0.07961904 0.11388155 -0.009414022 -0.029616391 -0.010785706 0.041058496
0.003191287 0.07508925 0.030708643 0.059280463 -0.030751301 -0.034975637 -0.018764203 0.0129597755
-0.06835919 -0.068807155 0.07675946 -0.073611 0.027413834 0.046077166 0.15482579 0.04321295
0.040833376 -0.12427588 0.09276288 0.021243377 0.10142989 0.0074426457 0.2745097 0.0066786697
0.042929545 0.045314122 0.06339658 0.04669398 0.014454011 0.019289698 0.06738068 0.044965155
-0.009290629 0.053620875 0.0832518 0.010755516 -0.031034837 -0.12591468 0.018881895 0.02341366
-0.042093292 0.25749832 0.005846943 0.07537343 0.061301563 -0.0017243574 0.054758027 -0.11794148
0.037116274 -0.042663995 -0.03622307 0.095288575 0.042421 0.018510802 0.0058856993 -0.00048543935
0.15704057 0.04985493 -0.029227719 0.035322815 0.061974067 -0.0109715415 0.01902318 0.056083437
0.01829644 0.10663926 -0.0031424912 0.037934184 0.04038698 0.034428548 -0.14235729 0.07192234
-0.08404235 0.006290366 0.06650648 0.3403756 -0.05302175 -0.005138034 -0.0077961353 0.03386361
0.025308782 0.07328807 -0.008612893 -0.05150674 0.04595023 -0.031351283 0.03496126 -0.007186056
0.11080197 0.10171967 -0.06835099 0.067671634 0.0040778834 0.048916318 -0.11127593 -0.011748147
0.005124545 0.09147841 -0.012831558 -0.06728686 0.018383909 -0.042468946 0.01507071 -0.012438912
0.031245718 0.06821077 0.01322795 0.09192133 0.02684294 0.008085696 -0.13441662 -0.0103559755

weight_epsilon f4 [128, 128]
00000000: 26fc 893f 9add a7be 0e38 c03f e7b9 cbbf
00000010: 3639 e83f 14b5 c8bf d845 8c3e 28d0 85bf
00000020: e6f6 d73e 440e 86bf cd9b 28bf f5be 29bf
00000030: bf80 373f 4258 b3bf 9248 9dbf e4d7 8b3f
00000040: b7b1 f0bf e37d 3f3f eaf6 ea3f 786d 83bf
00000050: 2447 0b3f cc97 403f bd4f 663f 4557 41bf
00000060: 0264 b23f b8b4 e13e 0ceb 8f3f 37af 3d3f
00000070: 7ea1 a5be d39d babf 9ac6 dd3f 50c5 8fbf
00000080: eb50 8d3f 1764 803f 9cb8 9ebf c34f de3f
00000090: 4190 a83f f762 fb3f 8490 de3e 0da1 01bf
000000a0: ebe7 bd3f dae3 87bf 2910 ad3f 42e4 d13e
000000b0: e560 aebf 0a7a dcbf 52ea 533f 16eb 8c3f
000000c0: 56d1 883f cec5 9e3f 0f9d 36bf f826 b13f
000000d0: 39d4 923f 73da 07bf 3275 0e3f 6ac4 803f
000000e0: cede 873f b188 85bf eed3 683f 572b 96bf
000000f0: 622a d53e 52a0 c5be a4e6 a63e 12e7 e8be
00000100: 462d a0bf 9f9a 3cbf a1c8 bf3f 32e7 593e
00000110: 18f8 293f 94cf bc3f d1f8 26bf 1f96 9e3f
00000120: a0c9 143f 3224 81bf 89f8 ffbe 2adc 11bf
00000130: ac93 073f b9db 3d3f 77ec 0e3f 42de c3bd
00000140: d0ec 92bf 24bf 4fbf 9e0c e33f c44f 8abf
00000150: 4f5d ce3f 750b 17bf 682d 96bf 2f53 85bf
00000160: fc22 76bf 83fe 9d3f 0443 4f3f 480d bf3f
00000170: ac91 d93f d036 2b3f 6f17 b8bf 4fea 4fbf
00000180: a749 3f3f 0ed0 48bf 01cc b23f 9bb9 0cc0
00000190: fffc f03e 9b93 6b3f cd17 babe 0704 e93f
000001a0: 188b c4bf b3d4 523f c7cf 4bbf 3da5 cabe
000001b0: 01bd ca3f b92f d73e 34b9 e2bf adab a03f
000001c0: e6ab 22bf 75b9 72bf b892 75bf 84ff e2bf
000001d0: 28a6 4fbf f1c9 cd3e 40ed dabe 1b94 fd3f
000001e0: dbca 6a3f 2f04 91bf f678 cb3f 4fa6 923f
000001f0: bc15 b9bf 55a9 763e 822c 69bf ae8b 7f3f
00000200: 4cb5 24bf 3360 483e 1172 65bf 6e2e 733f
00000210: 4d99 8abf ef93 6f3f 6c70 27be 78ba 1f3f
00000220: 18e5 80be 9b04 203f 3c43 c93e c89e ca3e
00000230: a00a dbbe fb13 563f 85be 3b3f 2ced 26bf
00000240: 8aa7 8f3f d893 e4be 1a3c 8cbf 83e1 1c3f
00000250: 6440 a6be 5ae4 e5be 2b75 09bf e8c8 e63e
00000260: 6df0 54bf 7db5 86be 5cca 2bbf 916b e2be
00000270: 4ab5 453e 12c2 5e3f 015d 84bf 509d 2b3f
00000280: 38af 28bf 9441 19bf d575 3d3f deae 84bf
00000290: 7435 49bf 3909 96bf 84d5 84be edbb 9a3e
000002a0: 40af 62bf 2235 223f 7294 4ebf 778a 7abe
000002b0: 6526 503f 8596 833f dbf4 fcbe ab35 28bf
000002c0: 9d50 23bf 9685 3dbf d8fa d93e fd75 53bf
000002d0: d943 2fbf e929 a23e 1a0c aabe 8fb4 19bf
000002e0: 1d2f 22bf 2965 1f3f a5f5 0abf 9440 333f
000002f0: e872 7ebe 6be6 6b3e 6939 47be 1101 8b3e
00000300: ab32 3f3f 6921 e13e 0fed 64bf 4d0d 02be
00000310: fce2 cabe 9f60 61bf 1c4f c73e aa4c 3dbf
00000320: 5b9a b1be e426 1a3f a6c5 983e c01b ae3e
00000330: 6dd5 a1be b1a0 e2be 789a aabe 32cd 693d
00000340: 3361 2f3f 00fb f73e bd82 87bf 1b19 253f
00000350: a454 76bf 194c b43e 0a43 333f 4a25 1f3f
00000360: 17e7 123f b297 3cbf d666 f7be 6e0d 64bf
00000370: 42da 81bf 6e5f ccbe 7fbe 5b3f 872e f83e
00000380: 7e55 e4be 22b4 ef3e 916c 55bf 9bfa a73f
00000390: 78d4 8fbe 9f99 0cbf 1822 5e3e 5912 8bbf
000003a0: 819b 6a3f 79a9 fbbe 8b48 f33e 2fe4 713e
000003b0: 8e00 72bf 386e 80be f550 873f 8ec9 3fbf
000003c0: fa2c c23e bddd 103f fc90 123f ec7a 873f
000003d0: 2cdd f73e bca4 75be b4a9 823e 2158 97bf
000003e0: ce21 0cbf f119 2d3f eae0 72bf 0b0d 2fbf
000003f0: 0cee 5c3f 4637 13be 822a 0b3f ae84 18bf
1.0780075 -0.32786256 1.5017107 -1.5916108 1.8142459 -1.5680261 0.27397037 -1.0454149
0.42180556 -1.0473104 -0.65862733 -0.66307 0.71680826 -1.4011309 -1.2287772 1.092526
-1.8804234 0.7480146 1.8356602 -1.0267782 0.54405427 0.75231624 0.8996542 -0.7552379
1.393677 0.4408319 1.1243606 0.7409548 -0.3234977 -1.4579414 1.7326233 -1.123209
1.1040319 1.0030545 -1.2400088 1.7368091 1.3169023 1.9639577 0.43469632 -0.5063637
1.4836401 -1.061641 1.3520557 0.4099446 -1.362332 -1.7224743 0.8277942 1.1009243
1.0688884 1.2404115 -0.713334 1.3840017 1.1471015 -0.530677 0.55647576 1.0059941
1.061487 -1.043234 0.9094838 -1.1731976 0.41633898 -0.38598877 0.3259784 -0.45488793
-1.2513816 -0.73673433 1.4983102 0.212796 0.66394186 1.4750848 -0.65223414 1.2389563
0.58120155 -1.0089171 -0.49994305 -0.5697657 0.52959704 0.74163395 0.55829567 -0.09563877
-1.147852 -0.8115103 1.7738225 -1.0805593 1.6122226 -0.5900186 -1.1732607 -1.0416011
-0.9614713 1.2343296 0.8096163 1.4925928 1.699758 0.6688051 -1.4382151 -0.812169
0.7472176 -0.78442466 1.3968507 -2.1988285 0.4706802 0.92022103 -0.36346284 1.8204354
-1.5354948 0.82355803 -0.7961392 -0.39579192 1.583893 0.42028597 -1.771277 1.2552391
-0.63543546 -0.94814235 -0.95927 -1.7734227 -0.8111291 0.40193132 -0.42759132 1.9810823
0.9171578 -1.1329402 1.5896289 1.1457003 -1.4459758 0.24088033 -0.9108354 0.9982251
-0.6433914 0.19567947 -0.89627177 0.9499272 -1.0828034 0.93585104 -0.1635148 0.62393904
-0.25174785 0.6250703 0.39309108 0.39574265 -0.42781544 0.8362424 0.73337585 -0.65205646
1.1223004 -0.44644046 -1.0955842 0.61281604 -0.32471 -0.4490078 -0.5369441 0.45075154
-0.8317936 -0.2631034 -0.6710565 -0.44222692 0.19307438 0.8701488 -1.0340883 0.67036915
-0.6589236 -0.5986569 0.7400792 -1.0365865 -0.7859719 -1.1721565 -0.2594415 0.302215
-0.8854866 0.63362324 -0.8069526 -0.24466883 0.81308585 1.028031 -0.4940556 -0.6570689
-0.6379488 -0.7403196 0.4257419 -0.8260191 -0.684629 0.316726 -0.33212358 -0.60041136
-0.6335314 0.62263733 -0.54281074 0.70020413 -0.24848521 0.23037116 -0.19455494 0.2714925
0.7468669 0.43970802 -0.8942422 -0.12700386 -0.396263 -0.8803806 0.38927543 -0.73945105
-0.34688076 0.6021559 0.29838294 0.34005547 -0.31608143 -0.44263223 -0.33320975 0.057080455
0.6850769 0.48433685 -1.0586773 0.6449143 -0.962229 0.35214308 0.7002417 0.62166274
0.57383865 -0.7366897 -0.48320645 -0.8908299 -1.0144732 -0.39916557 0.8583755 0.48472998
-0.44596475 0.46817118 -0.83368784 1.3123354 -0.28091788 -0.5492191 0.21692693 -1.0864974
0.9164353 -0.49152735 0.47516283 0.23622201 -0.94532096 -0.2508409 1.0571581 -0.74916923
0.3792494 0.56588346 0.5725248 1.0584388 0.48410928 -0.23988622 0.25520098 -1.182377
-0.5473908 0.6761771 -0.9487444 -0.68379277 0.8630073 -0.14376554 0.54361737 -0.59577453

bias_epsilon f4 [128]
00000000: f254 a13f 9b93 40bf 8094 2bbf 1381 8d3f
00000010: 2b79 4d3f 1f15 84bf 79f9 163f 0063 0abf
00000020: 6250 893f 380a 2ebf a507 33bf 6fbf f13e
00000030: 2632 71bf a530 743f 59ce a83f 4c08 8b3f
00000040: 6de8 6ebe 5aa3 7d3f 18b9 4fbf d187 253f
00000050: 4dec 083f b3d3 9abf acbf 8abf 748b 1b3f
00000060: 0fff 603f f7a3 923e c3fe 9a3f 9a6e 91bf
00000070: 65d0 ba3f f87c fbbe aed0 58bf 2ec6 2d3f
00000080: 2fab 56bf bdcf 47bf d452 c7bf 8d6f 933f
00000090: 7602 63be ffdd d4be 3423 993f 8c94 adbf
000000a0: 99a4 403f 508f cc3d 0e74 6bbf b21b 9d3f
000000b0: 4a08 c33e 512e c9bf 27bf 33bf 3332 3e3f
000000c0: 4dcd 7bbf ebdd b5bf f182 4d3e c5fe 6bbf
000000d0: bda5 a93e abe6 8bbd 7e5b 5e3e c835 673f
000000e0: 5086 50bf c780 873f 6624 443f fa95 19bf
000000f0: a531 893e 3158 4a3e e2d0 583f 1ca8 4a3f
00000100: 78f4 a53f 9526 5cbf 2c9c 8a3f 995d 63bf
00000110: d942 953f fbba 323f 89d5 683f 09e1 72be
00000120: 84c1 353f 40ba 813f 3190 6ebf 0b61 843e
00000130: 42c8 fbbe 8d0f 36be 4f49 8f3f d691 43bf
00000140: 7d28 7bbf 075f 0d3e 8d01 33bf 9576 b4be
00000150: e545 8cbf 767a 46bf 7b7f a53f 2415 d53f
00000160: a28b 603f 025d a33f 4642 fb3e 1e90 30bf
00000170: b33a 413f 558e b43f 72fd 923f eb3d 80bf
00000180: 1abd c93e cceb 82bf edcf 92bf 53c5 f5be
00000190: 8606 02bf 8cff b4bf 22f3 733e 2e59 9e3f
000001a0: ac2a d0bf edde e73e d23d c4be fb56 a0bf
000001b0: cd23 c23e dcd8 e5be 4dbc 80bf d83d 86bf
000001c0: 0132 acbf 9e69 113f cb9d 9bbf 89c8 8bbf
000001d0: 3699 c63f 5bff 683f 8383 4b3f 3575 85bf
000001e0: c03d 343f 24e1 5abf 7148 853f bece 8e3f
000001f0: b7dc 683f 2fd0 793f cafa b33e f2bd e9be
1.2604048 -0.7522523 -0.6702347 1.1055015 0.8026301 -1.0318946 0.58974415 -0.5405731
1.0727656 -0.6798434 -0.6993354 0.47216365 -0.94217145 0.95386726 1.3187972 1.0861907
-0.23330851 0.9907738 -0.81141806 0.64660364 0.53485566 -1.2095855 -1.0839744 0.60759664
0.8788919 0.2864072 1.2108997 -1.1361878 1.4594847 -0.4911878 -0.8469342 0.67880523
-0.83854955 -0.7805136 -1.5572152 1.1518418 -0.22168908 -0.4157562 1.1963868 -1.3560958
0.75251156 0.09988272 -0.9197396 1.2274077 0.38092262 -1.571726 -0.7021355 0.7429535
-0.9836014 -1.4208349 0.20069481 -0.9218562 0.3313426 -0.06831106 0.21714589 0.9031644
-0.81454945 1.0586175 0.7661804 -0.5999447 0.26795688 0.19760205 0.8469373 0.79162765
1.2965231 -0.8599637 1.082891 -0.88814694 1.1661025 0.6981656 0.9095083 -0.23718657
0.70998406 1.0134964 -0.9318877 0.25855288 -0.49176222 -0.1777937 1.1194247 -0.76394403
-0.98108655 0.13805781 -0.6992424 -0.3524672 -1.095883 -0.7753061 1.2929529 1.6647077
0.8771306 1.2762759 0.49074 -0.68969905 0.7548019 1.4105936 1.1483595 -1.0018896
0.39402086 -1.022821 -1.1469704 -0.4800211 -0.50791204 -1.4140487 0.23823217 1.2370965
-1.6263022 0.45287266 -0.38328415 -1.2526544 0.3791794 -0.44892013 -1.0057465 -1.0487623
-1.345276 0.56801784 -1.215753 -1.0920573 1.5515506 0.9101464 0.79497546 -1.0426394
0.70406723 -0.8549979 1.0412732 1.1156843 0.90961784 0.9758329 0.35152274 -0.4565273

epsilon_in f4 [128]
00000000: 12f4 5a3f 142f 85be 7881 983f b1a2 a1bf
00000010: c23e b83f 893d 9fbf 7295 5e3e 6355 54bf
00000020: 6658 ab3e f1b7 54bf fbc5 05bf fcac 06bf
00000030: 2897 113f 994a 8ebf 7d93 79bf f8e6 5d3f
00000040: 3ef7 bebf c3ed 173f 7d6b ba3f 5b8c 50bf
00000050: 4901 dd3e 6ecd 183f 6aba 363f 5865 19bf
00000060: cf88 8d3f fc12 b33e 3f5e 643f ae7e 163f
00000070: 2b69 83be 8e0f 94bf bcf4 af3f 5e22 64bf
00000080: 3c3d 603f d1ba 4b3f 7ddb 7bbf 8f61 b03f
00000090: d2bc 853f f772 c73f ef94 b03e c4b1 cdbe
000000a0: abab 963f 13a1 57bf bd4e 893f f486 a63e
000000b0: e759 8abf e2ec aebf fb21 283f a79b 5f3f
000000c0: ea19 593f 6ef0 7b3f 83e2 10bf 468d 8c3f
000000d0: affc 683f 2892 d7be 050d e23e a953 4c3f
000000e0: 1299 573f fce3 53bf 83b9 383f 9449 6ebf
000000f0: eb1f a93e bdcb 9cbe 246b 843e b3c8 b8be
00000100: d42a 7ebf 3ca3 15bf 1029 983f 28e2 2c3e
00000110: 51da 063f 40cd 953f 9079 04bf c3a4 7b3f
00000120: 4e18 ec3e a6eb 4cbf 1216 cbbe 1173 e7be
00000130: d921 d73e fea1 163f 46ca e23e a966 9bbd
00000140: b323 69bf 49d3 24bf d523 b43f c078 5bbf
00000150: 8eba a33f 34ad efbe da4c 6ebf 148f 53bf
00000160: a848 43bf 31b4 7a3f ce70 243f 6c94 973f
00000170: 4e9e ac3f 30d7 073f b60e 92bf 89f5 24bf
00000180: 52c4 173f f052 1fbf 52db 8d3f 234d dfbf
00000190: f832 bf3e cee7 3a3f 39a5 93be acdf b83f
000001a0: caef 9bbf b845 273f 0cb4 21bf 30c7 a0be
000001b0: 0bda a03f 5fba aa3e a7e1 b3bf 68f3 7e3f
000001c0: 1910 01bf 9a93 40bf 32d6 42bf 7019 b4bf
000001d0: 76bf 24bf a345 a33e 12b2 adbe 2c30 c93f
000001e0: 8848 3a3f 5a1c 66bf 2b6f a13f d4b3 683f
000001f0: 79d8 92bf 3fb3 433e caff 38bf b4bf 4a3f
0.8552867 -0.2601248 1.1914511 -1.2627774 1.4394152 -1.2440654 0.21736696 -0.8294279
0.3346588 -0.8309317 -0.5225522 -0.52607703 0.5687127 -1.1116515 -0.97490674 0.86680555
-1.4919202 0.5934717 1.4564053 -0.81464165 0.43165043 0.5968846 0.71378195 -0.59920263
1.1057376 0.3497542 0.8920631 0.5878705 -0.25666174 -1.1567247 1.3746562 -0.8911494
0.87593436 0.79581934 -0.9838179 1.3779773 1.0448248 1.558196 0.34488627 -0.40174687
1.1771139 -0.84230155 1.0727154 0.32524836 -1.0808686 -1.3666041 0.6567685 0.8734688
0.84805167 0.9841374 -0.5659563 1.0980613 0.91010565 -0.42103696 0.44150558 0.79815155
0.8421794 -0.8276975 0.7215807 -0.9308102 0.33032164 -0.3062419 0.25862992 -0.3609062
-0.992841 -0.584522 1.1887531 0.16883147 0.52676874 1.1703262 -0.5174799 0.9829828
0.46112293 -0.8004707 -0.39665276 -0.45204976 0.4201801 0.5884093 0.44294947 -0.0758794
-0.910701 -0.64384896 1.4073435 -0.85731125 1.2791307 -0.4681183 -0.93086016 -0.82640195
-0.7628274 0.979312 0.64234626 1.184217 1.3485811 0.53062725 -1.141074 -0.64437157
0.59283936 -0.6223593 1.1082556 -1.7445415 0.37343574 0.73009956 -0.28836992 1.4443259
-1.2182553 0.6534076 -0.63165355 -0.31401968 1.2566541 0.33345315 -1.4053239 0.9959016
-0.5041519 -0.7522522 -0.76108086 -1.4070263 -0.64354646 0.31889066 -0.3392492 1.5717826
0.72766924 -0.8988701 1.2612051 0.90899396 -1.1472312 0.19111346 -0.72265303 0.79198766

epsilon_out f4 [128]
00000000: f254 a13f 9b93 40bf 8094 2bbf 1381 8d3f
00000010: 2b79 4d3f 1f15 84bf 79f9 163f 0063 0abf
00000020: 6250 893f 380a 2ebf a507 33bf 6fbf f13e
00000030: 2632 71bf a530 743f 59ce a83f 4c08 8b3f
00000040: 6de8 6ebe 5aa3 7d3f 18b9 4fbf d187 253f
00000050: 4dec 083f b3d3 9abf acbf 8abf 748b 1b3f
00000060: 0fff 603f f7a3 923e c3fe 9a3f 9a6e 91bf
00000070: 65d0 ba3f f87c fbbe aed0 58bf 2ec6 2d3f
00000080: 2fab 56bf bdcf 47bf d452 c7bf 8d6f 933f
00000090: 7602 63be ffdd d4be 3423 993f 8c94 adbf
000000a0: 99a4 403f 508f cc3d 0e74 6bbf b21b 9d3f
000000b0: 4a08 c33e 512e c9bf 27bf 33bf 3332 3e3f
000000c0: 4dcd 7bbf ebdd b5bf f182 4d3e c5fe 6bbf
000000d0: bda5 a93e abe6 8bbd 7e5b 5e3e c835 673f
000000e0: 5086 50bf c780 873f 6624 443f fa95 19bf
000000f0: a531 893e 3158 4a3e e2d0 583f 1ca8 4a3f
00000100: 78f4 a53f 9526 5cbf 2c9c 8a3f 995d 63bf
00000110: d942 953f fbba 323f 89d5 683f 09e1 72be
00000120: 84c1 353f 40ba 813f 3190 6ebf 0b61 843e
00000130: 42c8 fbbe 8d0f 36be 4f49 8f3f d691 43bf
00000140: 7d28 7bbf 075f 0d3e 8d01 33bf 9576 b4be
00000150: e545 8cbf 767a 46bf 7b7f a53f 2415 d53f
00000160: a28b 603f 025d a33f 4642 fb3e 1e90 30bf
00000170: b33a 413f 558e b43f 72fd 923f eb3d 80bf
00000180: 1abd c93e cceb 82bf edcf 92bf 53c5 f5be
00000190: 8606 02bf 8cff b4bf 22f3 733e 2e59 9e3f
000001a0: ac2a d0bf edde e73e d23d c4be fb56 a0bf
000001b0: cd23 c23e dcd8 e5be 4dbc 80bf d83d 86bf
000001c0: 0132 acbf 9e69 113f cb9d 9bbf 89c8 8bbf
000001d0: 3699 c63f 5bff 683f 8383 4b3f 3575 85bf
000001e0: c03d 343f 24e1 5abf 7148 853f bece 8e3f
000001f0: b7dc 683f 2fd0 793f cafa b33e f2bd e9be
1.2604048 -0.7522523 -0.6702347 1.1055015 0.8026301 -1.0318946 0.58974415 -0.5405731
1.0727656 -0.6798434 -0.6993354 0.47216365 -0.94217145 0.95386726 1.3187972 1.0861907
-0.23330851 0.9907738 -0.81141806 0.64660364 0.53485566 -1.2095855 -1.0839744 0.60759664
0.8788919 0.2864072 1.2108997 -1.1361878 1.4594847 -0.4911878 -0.8469342 0.67880523
-0.83854955 -0.7805136 -1.5572152 1.1518418 -0.22168908 -0.4157562 1.1963868 -1.3560958
0.75251156 0.09988272 -0.9197396 1.2274077 0.38092262 -1.571726 -0.7021355 0.7429535
-0.9836014 -1.4208349 0.20069481 -0.9218562 0.3313426 -0.06831106 0.21714589 0.9031644
-0.81454945 1.0586175 0.7661804 -0.5999447 0.26795688 0.19760205 0.8469373 0.79162765
1.2965231 -0.8599637 1.082891 -0.88814694 1.1661025 0.6981656 0.9095083 -0.23718657
0.70998406 1.0134964 -0.9318877 0.25855288 -0.49176222 -0.1777937 1.1194247 -0.76394403
-0.98108655 0.13805781 -0.6992424 -0.3524672 -1.095883 -0.7753061 1.2929529 1.6647077
0.8771306 1.2762759 0.49074 -0.68969905 0.7548019 1.4105936 1.1483595 -1.0018896
0.39402086 -1.022821 -1.1469704 -0.4800211 -0.50791204 -1.4140487 0.23823217 1.2370965
-1.6263022 0.45287266 -0.38328415 -1.2526544 0.3791794 -0.44892013 -1.0057465 -1.0487623
-1.345276 0.56801784 -1.215753 -1.0920573 1.5515506 0.9101464 0.79497546 -1.0426394
0.70406723 -0.8549979 1.0412732 1.1156843 0.90961784 0.9758329 0.35152274 -0.4565273

weight_mu f4 [3, 128]
00000000: 2181 9cbe 6322 a43c 7c6f ef3d 590f f2bc
00000010: 4341 26be 2421 c23d a327 393d 4b98 023d
00000020: 7bca e7ba 65bd 1cbe 5478 5d3e 7c4d b2bd
00000030: 8c60 9d3d aac2 48be 3aab de3c 368a 003c
00000040: 32cc 863a a0c7 6fbc 527a 893e d8e9 77bd
00000050: f4bb d7be 1755 28bc 81a7 bdbc 4b9b 98bd
00000060: 636a 343d 5237 f23c dd1e 56bd f0f6 dabe
00000070: 2400 94bc 6673 a6bc ae34 ffbb 8e98 21bc
00000080: 342e 40bd 2ca9 a3bd 3e93 a23e 7ff1 1bbd
00000090: 9bb9 4abc 7e3d 24be 5302 e63c a80a 10bf
000000a0: eedc 093e ac0b cfbd 94f8 29bd c742 1fbc
000000b0: 5099 bb3d bdde 72bc 1790 b53e cb28 c5be
000000c0: d618 09bd e58e 973f 7fc1 c73c aa0b 273d
000000d0: 784b e7bc 5219 27bd 841f c73c ad69 7f3c
000000e0: 9d9a 783d 7617 b3bd 11d1 86bd 7b88 2ebd
000000f0: c20e f33c 0e86 12bb b432 123d fb58 e13b
00000100: e049 6ebd ff31 36be e3e8 ee3c 3ca2 383d
00000110: 979e f039 2107 033b 1ea2 ad3e f88c 653f
00000120: 71a4 37bd 3f4d 413d 4374 43be c5de 0cbd
00000130: 054c d1bc 13fc 063f f73e 0e3f 331b d3bc
00000140: ead5 9cbd b24f 183d 0d99 f03c 0b0f b83c
00000150: 3630 f63c 7b70 873e 462c 5c3b 9cbf 70bd
00000160: 232a 21bc d50c 26bd 6b5f 6e3c 0ca7 0b3d
00000170: d39b da3c f5ad 33bd 77ee 55bf c038 1d3d
00000180: 4924 863d 796d c33e 8e88 0a3e 6d54 a1bc
00000190: 0939 83be 7136 633d 6401 4b3f 4145 583e
000001a0: ac30 9a3c 6a8d 303e ef97 bb3c 346a 3b3b
000001b0: 7662 3abc 5ec5 4cbe dba0 9ebd f0ff 223d
000001c0: 971f 1f3d 0c6b d23d 1d82 adbe 0e7f 47bf
000001d0: 66fc a03b 7100 b7bd 2feb b6bd 116f 88bc
000001e0: 2191 edbd fd52 92be 1b99 3a3e a042 bbbc
000001f0: 0bf8 143d 0dbe 853c 252b 0d3d bc74 84be
00000200: ab75 a63e 02bd efbc 272c ea3d d9f7 47bd
00000210: bafd dd3d 887c 503d 6192 0f3b 0437 f43c
00000220: 2e2f 3abd da71 4abe 5784 96be 66c4 b3bd
00000230: 27ea 8e3c cddf 07be 90bb 6cbd 1a2d e33c
00000240: 3a91 303d 1511 633b 38d0 d33e 8ed9 dcbc
00000250: 4dd5 9a3d 20f0 0abe 9bac 39bd 8f56 8b3b
00000260: 7650 113e e5e9 67bd 9fc5 c9bd 0b04 42bf
00000270: 6223 18bd 001b ee3b a9c1 2e3d c6a0 8d3b
00000280: 8974 583c aa7c 273d c983 95be 9854 5bbb
00000290: 51cb 383c b5b0 bbbe 8e9c f0bb 5720 993e
000002a0: 836f 80be b8c4 f03c 9c9f 1e3d f7ec 2fbd
000002b0: 4b3f ba3c 173e fe3c e129 d0be 918a 3fbd
000002c0: 31fc 31bd eac1 c6bf c196 14bd d22c e63d
000002d0: 05a1 033f 0eb5 183d bdc4 483d 0112 583d
000002e0: c82b 823d 430c 59be 240b 13bd 6aae 9f3c
000002f0: a952 77bc ad3f c33e 729a 413d 455c ee3b
00000300: 0836 853d 20a8 debb 0ecd 2ebc 0156 88ba
00000310: 7e6a 923d ebd1 c5ba e87f afbe 62ce 23bf
00000320: 791c 053e 1a3d 943d f79e a1be a47d c0bd
00000330: 9e59 d83b 54ba 66be 498a 91be 500f 4cba
00000340: 7636 a73d c744 4fbd 6282 323c 28ae f93c
00000350: fe49 833d e252 fcbc e707 be3d 8bb6 43bd
00000360: bb93 10bd b7b2 4dbd f31f 1dbe 401c 703c
00000370: bb88 99bd 0ac4 c2bc 386d 553b 7391 9fbc
00000380: 8a39 6c3e 1b1a 14bf 49e7 263d b23a 9cbc
00000390: 0cc9 87bc 6555 973d 3175 3dbf fe3c 983d
000003a0: 8dcc 593d e105 883e a7a9 5e3d 1f2c 123e
000003b0: 57c7 79bd f292 9a3e 4fce c13d 51e4 eb3d
000003c0: d1aa efbc f752 973c 794c b13d 118c 9d3e
000003d0: 0e4d e43c 1b63 8d3c 4c9c 37be 79a3 d1ba
000003e0: 9b56 bdbd 0b5b 0cbe 4c67 093e 70cc 283d
000003f0: 50d7 94bc ea67 0abd 9a14 d13d b5af cbbc
-0.30567268 0.020035928 0.11691186 -0.029548334 -0.16235833 0.09478977 0.045203816 0.03188352
-0.0017684245 -0.15306623 0.21627933 -0.08706185 0.076844305 -0.19605508 0.027181257 0.007845452
0.0010284244 -0.014634997 0.26851135 -0.060525745 -0.42135584 -0.010274193 -0.023151161 -0.07451495
0.04404677 0.029567394 -0.052275527 -0.42766523 -0.018066473 -0.020318698 -0.0077882623 -0.009863032
-0.046919063 -0.07991251 0.31752962 -0.038072105 -0.012373353 -0.16039082 0.02807728 -0.5626626
0.13463184 -0.10109648 -0.04149683 -0.009720511 0.091601014 -0.014823613 0.35461494 -0.38507685
-0.03347095 1.1840483 0.024384258 0.040782608 -0.028234228 -0.04079563 0.02430702 0.01558916
0.060694326 -0.08744709 -0.06582845 -0.042610627 0.029670123 -0.0022357735 0.035692886 0.0068770624
-0.05817592 -0.1779251 0.029163783 0.045076594 0.00045894526 0.0019993263 0.33912748 0.89668226
-0.044834558 0.04719281 -0.19087319 -0.034392137 -0.025548944 0.52728385 0.55564827 -0.025769806
-0.07657988 0.03718538 0.029369855 0.02246811 0.030052286 0.26453003 0.0033595725 -0.058776483
-0.009836706 -0.04053958 0.014549117 0.034094855 0.02668563 -0.04386707 -0.83566993 0.0383842
0.065498896 0.38169459 0.13528654 -0.019693578 -0.25629452 0.05547184 0.79298997 0.21120168
0.018822037 0.17241445 0.022899596 0.0028597238 -0.011376014 -0.19997165 -0.077455245 0.039794862
0.038848486 0.10274324 -0.3388833 -0.77928245 0.0049129007 -0.08935631 -0.089315765 -0.016654523
-0.11599947 -0.2857894 0.18222468 -0.022858918 0.036369365 0.016325975 0.034464974 -0.2587031
0.3251165 -0.02926493 0.11434203 -0.04882035 0.1083941 0.050900012 0.0021907317 0.02981139
-0.04545515 -0.19769993 -0.29397842 -0.087776944 0.017445637 -0.13268967 -0.05779606 0.027731467
0.04310725 0.0034647633 0.41369796 -0.026959207 0.07560215 -0.13568163 -0.045330625 0.004252262
0.1419085 -0.056619544 -0.09852146 -0.7578742 -0.03714312 0.0072664022 0.042665157 0.004322144
0.013211378 0.040890373 -0.29202107 -0.003346717 0.011278943 -0.36658254 -0.0073428815 0.29907486
-0.25085077 0.029390678 0.038726434 -0.042950597 0.022735259 0.031035466 -0.4065695 -0.046763007
-0.0434534 -1.5527928 -0.036276583 0.112390175 0.5141757 0.037282042 0.04901575 0.052751545
0.06356007 -0.21196084 -0.035899296 0.019492347 -0.015095391 0.38134518 0.04726643 0.007274183
0.06504446 -0.0067949444 -0.010669006 -0.0010401608 0.07149218 -0.0015092468 -0.34277272 -0.6398679
0.12999143 0.07238217 -0.31566593 -0.09398964 0.00660248 -0.22532016 -0.28425816 -0.0007784264
0.081646845 -0.0506027 0.0108953435 0.030478552 0.06410597 -0.03080124 0.09278851 -0.04778151
-0.035297137 -0.050219264 -0.15344219 0.014655173 -0.074967824 -0.02377512 0.003256632 -0.019478535
0.23068824 -0.57852334 0.040747914 -0.019070957 -0.016575359 0.073893346 -0.74006945 0.07433508
0.05317359 0.26566985 0.05436101 0.14274643 -0.06098112 0.30190235 0.09463178 0.11518157
-0.029256256 0.018472178 0.08657164 0.30770925 0.027868774 0.017259171 -0.17930716 -0.0015994153
-0.09245034 -0.13706605 0.13418311 0.04121059 -0.018169075 -0.033790506 0.102090076 -0.024864057
