save/model/acrobot_dqn_dueling_noisy_mod_hid_128_256.pth (torch_old, 820021 bytes, 30 tensors)

weight f4 [128, 6]
00000000: 4e61 be3e a5f6 8fbe e805 cd3e f306 dc3d
00000010: d4a9 09be 05b6 f4bd 69b3 923d 893d e63e
00000020: 1b06 913e f3a7 d2bd 0bb3 1fbd 7c96 59be
00000030: 47fe 95be 5a45 133e 888d e2be 75c5 66be
00000040: b58c fbbd 6a94 debd 6746 053e 086f 873e
00000050: 701a e83e 2cf5 b4bd 64c3 52be e7be 29bd
00000060: 099a d9bc 8320 b5be 720b 88be 73a5 6d3d
00000070: c9d7 a4be ca03 99be 39cc 2ebf 8a4b ffbe
00000080: bf9d a8bd f974 0c3f 4431 b93d 0574 42be
00000090: f1bf 1b3d 8551 9e3e 1ca6 cc3e 71fd 883e
000000a0: f2dd f03d 7d8c a33d 0add ea3d fd48 de3e
000000b0: 72e9 bc3e 66c5 92be dddd 9b3d 77c9 fd3d
000000c0: f83e efbe e043 8abe a93f 91be 47a9 603d
000000d0: 9239 193e 9075 1abe f4f6 e4be 6fc0 813e
000000e0: b816 853e 4a4d 53be 3d1d c5be b307 42be
000000f0: ad28 153f 43a7 803d b5f6 133e 42bb c53d
00000100: c573 54be 21bb 77bd 9361 0fbf d45a 713f
00000110: 9d91 7a3d 015e c8bd 3b90 98bd 5baa 063e
00000120: 1150 86bf d4b5 bc3e af42 c13e 3f55 153f
00000130: f946 06be 6ed3 2ebe 9975 f83e bf6c 69bc
00000140: dd18 903e f084 37be 4608 7c3e 1685 0c3e
00000150: dcb4 d13e 1e07 833e 3eb0 b13e 8a4a 903e
00000160: 38c3 3fbe 0b74 09bc a896 45bf cc2a 04bf
00000170: ad59 86be 916c ba3e ff1e 19be 9cff 12be
00000180: 9890 3c3e 23ab 8ebe a52b 553e 9956 bebe
00000190: d866 a73e fc29 813e 9511 04bf b601 0dbf
000001a0: cfc1 fabe 2aa3 95bd 0eb9 353e e495 eb3d
000001b0: fb0e b23e e3c2 a33e 01ab 40be 3694 2fbe
000001c0: dc48 ae3c 47c2 1cbd 89d0 b3be 44a5 20bf
000001d0: e79c babe ba98 383f c061 32be c3ec 80be
000001e0: 496b bcbe a5d3 5c3e 0e1e 9fbe 965f fa3c
000001f0: 8c7d 89be c8be 733d 15af 04bd 595f c5be
00000200: 7cd0 4d3c 30f5 eebe 15ed e03c 4bdd 22bc
00000210: 70e1 933e b22d 593e a8fa 8c3e 0a39 753d
00000220: 4a1e 29bd d0ab e03c cc09 10bf d779 99be
00000230: 802f 0ebf aa74 c43e 5207 113e cb7f 303e
00000240: ece6 f33e df49 473f 724d 093e b2dd febe
00000250: 72b0 96bd bea9 21bc 792b 8a3b d352 01bf
00000260: 5de3 983d 1adf 4fbf 2120 ad3d c1be 36bd
00000270: 7a3f 4b3e 6ae4 983e 9d1d b2bc 133b aabd
00000280: 3c3e 1dbe 6452 83bd f5c2 0ebf 1bb2 58be
00000290: 1dd4 85bd 6459 23bd 437d c63e 254a 093d
000002a0: 82d8 debe fac7 34bf c4eb 3bb9 afd5 12bf
000002b0: 67c2 273e a820 21bd 1499 40bf 4512 b33e
000002c0: 8bb2 0bbe 0276 ab3e c8b2 07bd 10ed a2bd
000002d0: 19de 94be d3a2 84be ee46 223f eeb5 a53e
000002e0: fb23 863e 99de e83d f149 d5be d26c 293e
000002f0: af7c 12be b414 d9be 3543 b5bd 3286 3ebd
00000300: 6d23 3fbe e7cb 443f b1a7 713d 5c86 64be
00000310: 1303 113e dc64 af3d 6780 993d 3267 863e
00000320: 90df 883a dbf6 31be 5ff0 903e d920 2bbd
00000330: 6c78 df3e 71ad b3be 224d d53e fc2c adbd
00000340: b108 d73d d184 cb3b 503f e33d bb7a 243f
00000350: b357 e93d 89f7 42be afc9 d83d 18b3 593e
00000360: 94fa e13e d20f a03d 1559 74be cc47 6abe
00000370: a449 aebc 83de aabd b659 083e a791 3cbd
00000380: 1215 723e b815 41be 5303 e43e a42c 8c3d
00000390: 5d57 44bf bf19 b53e 7b59 c1bd 1144 7dbe
000003a0: 4c82 46bd 3161 8b3d f473 12bf d071 c2be
000003b0: 93dc d0be 16fb 12be 66d1 683e c2ef 7dbe
000003c0: 0623 94be 6508 d73d 22a9 f6be 3165 13be
000003d0: 7c46 8e3d 3a6d 823e c50c 10bf 9073 063f
000003e0: 06ec 91be 7a28 92bd 5a6a 103d 55c1 1e3e
000003f0: 29be dc3e 72b0 e1be 6842 4c3e e090 9e3e
0.37183613 -0.28117862 0.4004357 0.10743513 -0.1344369 -0.1194878 0.07163126 0.44968823
0.2832497 -0.1028594 -0.038989108 -0.21248811 -0.2929556 0.14381924 -0.44248605 -0.22536261
-0.12282697 -0.108681515 0.13015138 0.26451898 0.4533267 -0.08835825 -0.20582348 -0.041441824
-0.026562707 -0.35376367 -0.26571232 0.058019113 -0.3219588 -0.29885703 -0.6828037 -0.4986232
-0.08233213 0.54865986 0.090426 -0.1898957 0.038024846 0.3092157 0.3997048 0.2675586
0.11761083 0.079857804 0.11467941 0.4341506 0.36896855 -0.28666228 0.076106764 0.12391942
-0.4672773 -0.2700491 -0.2836888 0.054848935 0.14963368 -0.15083909 -0.4471966 0.25342128
0.25993896 -0.20634952 -0.3849887 -0.1894825 0.5826519 0.06281903 0.1444958 0.09654857
-0.20747288 -0.060481194 -0.5600826 0.9427922 0.061174024 -0.09783555 -0.07449385 0.13150923
-1.0493184 0.36857474 0.37746188 0.583332 -0.13113011 -0.17072842 0.4852722 -0.0142471185
0.2814397 -0.17921805 0.24612531 0.13722643 0.40958297 0.25591367 0.34704775 0.2818187
-0.18726814 -0.008389483 -0.7718301 -0.516278 -0.26240292 0.36410955 -0.1495323 -0.1435532
0.18414533 -0.27864942 0.2081743 -0.37175444 0.3269565 0.25227344 -0.5158933 -0.55080736
-0.4897599 -0.07306512 0.17746374 0.11503199 0.34777054 0.31984624 -0.18815233 -0.17146382
0.021274976 -0.038271215 -0.35120037 -0.62752175 -0.36447832 0.7210804 -0.17420101 -0.25180635
-0.36800602 0.21565111 -0.31077617 0.030563157 -0.26853597 0.059508115 -0.032393534 -0.38549307
0.012561914 -0.46671438 0.0274568 -0.009940456 0.28882933 0.21208838 0.27534986 0.05986885
-0.04128865 0.027425677 -0.5626495 -0.2997577 -0.5554123 0.38370258 0.14162949 0.17236249
0.47637117 0.77847093 0.1340845 -0.49778515 -0.07357873 -0.00986713 0.004216608 -0.50517005
0.07465241 -0.811998 0.08453394 -0.04461551 0.19848433 0.29861766 -0.021742636 -0.08312049
-0.15355772 -0.06412199 -0.5576623 -0.21161692 -0.06534598 -0.03988017 0.38767442 0.033517975
-0.43524557 -0.7061764 -0.00017921539 -0.57357305 0.16382752 -0.039337784 -0.7523358 0.34974876
-0.13642327 0.3348847 -0.033129483 -0.07955372 -0.29075697 -0.25905475 0.6338948 0.32365364
0.26199326 0.11370582 -0.41657975 0.16545418 -0.14305376 -0.42398608 -0.08850709 -0.046514697
-0.18665858 0.7687363 0.058997814 -0.22316879 0.14161329 0.08564159 0.07495194 0.26250607
0.0010442603 -0.17379324 0.2830839 -0.041779373 0.43646562 -0.35093263 0.4166041 -0.08455846
0.10499705 0.0062109013 0.1109606 0.6424977 0.113936804 -0.1903974 0.10585343 0.21259725
0.44136488 0.078155175 -0.23862107 -0.22878951 -0.021275349 -0.08343222 0.13315472 -0.046037342
0.2364085 -0.18855941 0.44533786 0.06844452 -0.76695806 0.35371205 -0.09440895 -0.24732997
-0.048464105 0.06805647 -0.5720818 -0.37977457 -0.40793285 -0.14353594 0.22736129 -0.24798492
-0.2893297 0.10499648 -0.48175913 -0.1439407 0.069470376 0.25473958 -0.56269485 0.52520084
-0.28500384 -0.071366265 0.035257675 0.15503438 0.4311383 -0.4407993 0.19947207 0.30969906

bias f4 [128]
00000000: ea3a c03e 4642 f3be a7e3 70be b7b8 2e3e
00000010: cc56 43bf 1ed2 19bf 68bb b53e 06b7 8f3e
00000020: d666 9cbf 407d ebbe e77c 753e f544 95be
00000030: d2a7 d5be 49c0 b43e 3e62 c73e f880 38be
00000040: 5583 dabe 53ae d73d e1ee 023e 2d3a f53b
00000050: 98b7 35bf 0482 fd3e 4215 333e 7b78 1ebc
00000060: 07c7 043e 1c4b 90be f477 083f ce55 21bf
00000070: 21f7 88be c0d5 3abd 41c0 cbbe f767 a3be
00000080: 04dd d43e 6125 e3be 5481 ad3d fc2f 74be
00000090: d1fd a33e f9c3 d2be df32 20bf 48ef 10bf
000000a0: 9f5b 35bf 0cec 0fbf 9125 19bd 14bc e1be
000000b0: 6da4 803e 68ae a3be a931 b53e a5c6 dabe
000000c0: e83e ad3d ab97 39be cecb 28bf 6a00 95be
000000d0: 8c9d 2cbf 4afc 08bf 8d67 8b3e d006 dc3e
000000e0: 4046 fbbe 5a7a 63be 41dd 13bf fae0 bbbe
000000f0: d894 19bf 1fdd f9be c209 b3be a7ff 3ebf
00000100: 9beb 063d 8a2e e5be 90e0 a53d c849 c53d
00000110: ac76 7d3e 28d3 24bf a91d 96be f876 713e
00000120: d0b3 1fbe 9509 60be 61ac d6be 5dcb 49bf
00000130: 9147 c43e 514b babe 758f c5be 7a58 ce3d
00000140: e687 f43e f01a 36be d4cc 64bf f032 c0bd
00000150: 469c 933e 7759 dfbe e66d 08bf 947c b3be
00000160: 1421 00bf 67fa 05bf 3ee2 d53e 19ed 38bf
00000170: 2305 b4bd 6952 ffbe 8956 63bf ba05 08be
00000180: 7ffb 07bf 0f77 47bf c7cf abbe e2cf bf3e
00000190: 2925 e2bd 9d3b 7ebe 9bc4 08bf ec2d d3be
000001a0: 288a acbe c040 35bf 1bfd a5be 8a6d 82be
000001b0: e39e b63e 06ac c7bd ef43 c5be 54fb 73bd
000001c0: af1b e73e 79a9 79be 9ce6 f1be 4bf6 a73e
000001d0: 609e 5ebe 32bd bcbe 5e5b 69be 90ee 6dbf
000001e0: f063 fd3e 1b22 5c3e af3b e93e 8c21 60be
000001f0: 697c 213e 7b47 7b3e 9927 10be 9aa5 013f
0.37544948 -0.475115 -0.23524342 0.1706265 -0.76304317 -0.6008624 0.35494542 0.28069323
-1.2218883 -0.45993996 0.23973428 -0.29154173 -0.417296 0.35302952 0.3894214 -0.18017948
-0.42678323 0.105312966 0.12786438 0.0074837417 -0.70983267 0.49513257 0.17488578 -0.0096722795
0.12966548 -0.28182304 0.53308034 -0.6302155 -0.26751044 -0.045614004 -0.39795116 -0.31915256
0.41574872 -0.44364455 0.08471933 -0.2384643 0.32029584 -0.4116514 -0.62577623 -0.56615114
-0.7084293 -0.56219554 -0.03738934 -0.44088805 0.25125447 -0.31969 0.3538945 -0.4272968
0.08459264 -0.18124263 -0.6593598 -0.29101878 -0.674279 -0.5350996 0.2722744 0.42973948
-0.49077034 -0.22214642 -0.5775948 -0.3669508 -0.5999274 -0.48801515 -0.34968382 -0.74608845
0.032939535 -0.4476207 0.080994725 0.09633213 0.24752301 -0.643847 -0.29319504 0.23580539
-0.15595937 -0.21878655 -0.4192839 -0.7882593 0.3833585 -0.36385587 -0.38586012 0.10075469
0.47759932 -0.17783713 -0.8937504 -0.093847156 0.28830165 -0.43622944 -0.5329269 -0.35055983
-0.50050473 -0.5233521 0.41774172 -0.7223678 -0.08790042 -0.4986756 -0.8880392 -0.13283435
-0.5311813 -0.77916044 -0.3355696 0.3746329 -0.11042244 -0.24827428 -0.53424996 -0.41245973
-0.33699155 -0.70801926 -0.32419667 -0.25474197 0.35668096 -0.09749608 -0.38528392 -0.059565857
0.45138308 -0.24381055 -0.47246253 0.32805094 -0.21740103 -0.36863095 -0.2278876 -0.9294214
0.4949031 0.21497385 0.45553347 -0.21887797 0.15770115 0.24538986 -0.14077605 0.5064331

weight_mu f4 [256, 128]
00000000: a15c 86bd da55 533c c646 6abd e2ed 78bc
00000010: 809e 763c a89b 08bd 6449 cbbd 7fc3 14be
00000020: 3833 93bc 3b92 38bd e0fa 84bd a103 13bd
00000030: c051 2dbc 08e9 f0bd 4558 98bd 92dc c6bd
00000040: eb47 2bbd 8d3b 17be 2f30 93bd e41c a8bd
00000050: 6fc3 603d 323a fbbd 35d9 e8bd 10a1 b03c
00000060: 15cb f1bd be74 c2bc 400c a3bd 503d 5cbd
00000070: e864 7fbd 9f4d dcbc f6aa a83c 33b5 84bd
00000080: cdf5 cdbd 5eb3 8abd 4d95 9b3c 906c 183d
00000090: d464 a8bd 193f bb3b 9e1b c2bc 80b5 babc
000000a0: 03d9 97bd 3778 1e3a 3842 35bd c390 c7bd
000000b0: 24b0 343d 1200 83bd 4e6e 823c f028 923b
000000c0: 3690 46bd aa5a 15bd e6a4 7d3d 8208 7c3c
000000d0: 16a3 cfbd 61c0 9ebd 30f9 62bb 8633 d03c
000000e0: b78b 93bd e6e4 86bd d9b0 adbd f0f4 b13c
000000f0: 6b7d 8e3c 9898 2ebd ea2c f93c 0017 ebba
00000100: cd3f f53c 1df7 f13c 0491 c6bd 9c22 a6bd
00000110: efdb c6bd 1dbd 1e3d 7f5f ae3c 4186 24bd
00000120: 5845 01bc 62fe cebd 6e04 583d 4c8a 4e3d
00000130: 6482 03be 0000 033b 64cf afbd 0f64 52bd
00000140: 9293 52bd eab4 83bd 5f88 303d 33e0 d2bb
00000150: 477f a2bd 74b8 0cbe 6ba5 73bd ea67 16be
00000160: ef2a 3d3b 2841 213c a6ea 64bd 506d e23b
00000170: 597f b0bd 7c50 24bd 52a8 49bd 3d2f b5bd
00000180: 2567 b8bd 4169 a8bc b233 3fbd 4de3 f4bd
00000190: 9073 e33c 6801 afbd 3e1c f0bd f506 91bd
000001a0: 1c2a d53b 65ce d2bd 3b0c 16bb 5eb2 a1bc
000001b0: e1fd 78bd 52af d7bd dca1 84bb 5da2 48bd
000001c0: a3c8 dbbc 6243 94bd 1b98 143d b073 00bd
000001d0: cb3b 23bd 50f9 e83c e074 633c f87d a7bd
000001e0: 54a6 cabd 19af f3bd e394 7dbd 9baa bdbd
000001f0: 97d6 83bc ec7b b33c eca9 9cbc e0f6 fabd
00000200: f295 3abe 5c9a 98bd 6c74 01be 7fe3 3abe
00000210: cc3b 9aba 89ee b5bd 2110 12be 7aa0 c0b9
00000220: dd51 24be 8719 05bb ab00 f9bd 40d5 08be
00000230: 2823 fabd 9e95 7b3c 851e 85bd 41a9 d7bc
00000240: 82c9 7c3c 1d81 373c 7cb6 eabc 8ffd 85bd
00000250: 6e53 46bd 2326 65be a6d4 03be 873f 3c3d
00000260: 68ef 69bd 4fcf 61bc 1191 24be 5234 9b3b
00000270: 46bc c9bc 3dc8 87bc b82b 69be 9640 2ebe
00000280: 9e2e 0dbe 690a 0a3c 8127 77bd e7ec 76bd
00000290: c252 09bd cb6b dbbb 54db 27be 730f 87bd
000002a0: 8239 893d a30c b2bd 430b c4bd 5a4c 04be
000002b0: 8e17 0ebe 4d8e 42bd a7e6 9bbc 65c4 b6bc
000002c0: 889e fabd 2747 f3bd b320 8bbd 589e 4d3c
000002d0: 626a 42be ab4b 40be c467 1bbd d118 12be
000002e0: 1b03 d1bd 4164 21be 03fc babc 7897 18be
000002f0: db3d 4bbd b378 b3bd c13d d5bb 1678 b2bc
00000300: 288c 2cbd 1c9c a4bd b95a 803b bb5d 073d
00000310: 0036 cbbd 1ac0 a5bd 61b0 32bd c680 3cbe
00000320: 6d10 4abe 0d7c b0bb 0ac3 14be 6b18 d3bc
00000330: b247 20be 21cd 05bd caae f8bd 2257 013c
00000340: bdb8 55be ed07 cebc 7b7d 19bd 8b81 0dbe
00000350: 8d61 033c 4442 9fbd 0c6f 0cbe 46d9 6abd
00000360: d159 fdbd 6e5c a7bd 7d31 e1bd 2e8c d9bd
00000370: 168d 1ebe da81 67be 77a6 fe3b 96a8 1dbe
00000380: d4fe d6bd 01a6 93bd 2446 38be 00bf 6cbd
00000390: 84e9 ffbd cd77 05be 1987 74bd ba36 7cbd
000003a0: c75a 203c 5c39 c9bc 18bd 8dbd 3b13 02be
000003b0: d390 fdbc 472a eabd 4fef c6bd fb66 723a
000003c0: 7311 36be 2e3c f6bd 0265 c1ba 8197 36bd
000003d0: 862e 80bd f6b1 0ebe 7ccf a4bd 0eb5 b03d
000003e0: 3565 6bbe 0c00 b7bd 9282 0bbe 5fc6 20bd
000003f0: 0e0a 0bbd 2d50 25be 0875 febd 678f 83bd
-0.06560636 0.012898887 -0.0571964 -0.015193434 0.015052438 -0.03335157 -0.099261075 -0.14527701
-0.017968759 -0.04506133 -0.06493163 -0.035892133 -0.010578573 -0.11763197 -0.07438711 -0.09710039
-0.041816633 -0.1476881 -0.07186925 -0.082086354 0.05487388 -0.12266959 -0.11369554 0.021561176
-0.11806313 -0.023737308 -0.07961321 -0.05376941 -0.06235209 -0.026892481 0.020589333 -0.064798735
-0.100566484 -0.06772493 0.01899209 0.03721291 -0.082223564 0.005714309 -0.02369481 -0.022791624
-0.074144386 0.0006045135 -0.044252604 -0.09744408 0.044113293 -0.06396498 0.015921738 0.0044604465
-0.048477374 -0.036463417 0.061924838 0.015382888 -0.10138528 -0.07751537 -0.003463339 0.025415193
-0.07204383 -0.06586628 -0.08480997 0.02172324 0.017393788 -0.042625993 0.030416925 -0.0017935932
0.02993765 0.029536778 -0.09695628 -0.0811207 -0.09709918 0.03875457 0.02128577 -0.040167097
-0.007890068 -0.101071134 0.0527386 0.05042486 -0.12842709 0.0019989014 -0.085844785 -0.051364955
-0.051410265 -0.06430991 0.043098804 -0.006435418 -0.079344325 -0.13742238 -0.059483927 -0.14688078
0.0028864702 0.009842195 -0.05588784 0.0069100037 -0.0861804 -0.04011582 -0.04923279 -0.088469006
-0.09004048 -0.020558001 -0.04668016 -0.11957417 0.027765065 -0.0854519 -0.11724137 -0.07081405
0.006505264 -0.10293273 -0.0022895474 -0.019738372 -0.060788993 -0.105314866 -0.0040476155 -0.048982967
-0.02682907 -0.07239415 0.03627787 -0.03136033 -0.039851945 0.028439194 0.013882846 -0.081783235
-0.09895006 -0.118986316 -0.061909568 -0.09261056 -0.016093535 0.021909676 -0.019123994 -0.12254119
-0.18221262 -0.07451317 -0.12642068 -0.18250845 -0.0011767088 -0.088833876 -0.14263965 -0.00036740658
-0.16046853 -0.0020309405 -0.121583305 -0.13362598 -0.12213737 0.015355496 -0.06499962 -0.026325824
0.015428903 0.011200217 -0.028651468 -0.06542503 -0.04841941 -0.22377829 -0.12874088 0.045959022
-0.05711308 -0.013782336 -0.16070963 0.0047364617 -0.024625909 -0.016574973 -0.22770584 -0.17016825
-0.13787314 0.008425334 -0.06034041 -0.06028452 -0.03352619 -0.0066961995 -0.16392261 -0.065947436
0.06700422 -0.086938165 -0.095724605 -0.12919751 -0.13876173 -0.04749899 -0.019030882 -0.022310445
-0.12237269 -0.118788056 -0.06793346 0.012549959 -0.18985894 -0.18778865 -0.037940755 -0.14267279
-0.102056704 -0.157609 -0.022825247 -0.1490153 -0.049619537 -0.08763256 -0.006507606 -0.021785777
-0.04212585 -0.08037588 0.003917065 0.033048373 -0.09922409 -0.08093281 -0.04362524 -0.18408498
-0.19732828 -0.0053858818 -0.14527526 -0.02576848 -0.1565235 -0.03266633 -0.12142713 0.007894309
-0.20871253 -0.025150264 -0.037473183 -0.13818948 0.008018863 -0.07776311 -0.13714236 -0.057336114
-0.12370647 -0.081719264 -0.10995767 -0.1062244 -0.15483508 -0.22608128 0.007771309 -0.15396342
-0.10497823 -0.07209397 -0.17995507 -0.05779934 -0.124957114 -0.13033982 -0.05969915 -0.06157563
0.009787268 -0.024563484 -0.069208324 -0.12702648 -0.030952847 -0.11433845 -0.09713613 0.00092469127
-0.17780094 -0.12023197 -0.0014754834 -0.04457808 -0.06258874 -0.13935074 -0.08047387 0.086282834
-0.22987826 -0.08935556 -0.13624027 -0.03925168 -0.033945136 -0.16143866 -0.12424666 -0.06423836

weight_sigma f4 [256, 128]
00000000: 6348 553c 2726 383d f304 353d 2362 9a3d
00000010: f304 353d f304 353d 5a9d 373d c84a 98bc
00000020: f304 353d d450 9a3d 7d5a 9a3d 5884 9b3d
00000030: f304 353d 1be4 4c3c b741 b43d 7c30 9a3d
00000040: a2f6 4b3c 5e23 da3d edb1 4c3c 5b4e 9a3d
00000050: 3d4d 503c 98d9 97bc 61ed 2e3d 3926 4c3c
00000060: 978d 543c 06d4 4c3c 541f 563c f304 353d
00000070: f304 353d 2d84 9a3d 0e80 9b3d f304 353d
00000080: db16 4c3c 8c9f 4c3c 0341 9a3d 9f73 9b3d
00000090: 0941 9a3d 5879 9b3d c492 4c3c f304 353d
000000a0: 8881 9b3d 10ef 4b3c 5337 4c3c 8c50 4c3c
000000b0: d438 9a3d 50c5 373d f26c d93d f304 353d
000000c0: 4f6f 553c b34c 553c f304 353d bf2a 4d3c
000000d0: c751 9b3d d355 993d 133a 98bc 351a d43d
000000e0: f304 353d 72cf 553c c01a 573c f304 353d
000000f0: 5ca6 553c 3487 9b3d 8dd0 553c f304 353d
00000100: 7b6d 553c 3283 4c3c a852 553c b649 323d
00000110: 9d4e 4f3c a31d 4c3c 9deb 973d 283c 553c
00000120: 3472 993d 26c7 4c3c 09c7 9a3d 121c 4c3c
00000130: 6079 373d f304 353d f304 353d f304 353d
00000140: 88af da3d 5f11 4c3c 6e21 4c3c c371 9b3d
00000150: 6f15 9a3d a831 97bc 965c 4d3c a001 98bc
00000160: d052 553c f304 353d 026c 9b3d f304 353d
00000170: 0319 9a3d 0539 503d f304 353d 3b04 9a3d
00000180: ecf7 4b3c 967d 9b3d 3005 4c3c a7e3 4c3c
00000190: 0e4a 553c 091e 9a3d edf1 4b3c f304 353d
000001a0: 6b65 9b3d fd3f 4c3c 0851 4c3c 132f 323d
000001b0: e7ab 95bc 6e3a 463d 7d13 6c3c 5288 353d
000001c0: cd1f 343d b40e 9a3d a060 583c 684e c33d
000001d0: 3b58 9a3d 1f86 5a3c f304 353d 1f3e 4d3c
000001e0: eb43 503c ddba 323d 2c7e 96bc db14 4c3c
000001f0: 87c4 323d 9960 9a3d 7e97 4d3c c1cd 373d
00000200: e3f0 b13c 3351 823d 9604 ad3d 6c30 8e3d
00000210: 3161 a73b f0c3 913d 6d06 94bd ac73 823d
00000220: b5d2 473d 5c13 30bc 4e0d 453d b28c 113d
00000230: cb7a f13c 6860 933c c709 b73c e114 723d
00000240: 7949 62bc 0293 103d 4bca fa3b e3fa a23d
00000250: b6a8 a3bb ceb8 a4bd 4139 373d 73d1 8bbb
00000260: 69e0 953c c41d e2bb 38c9 fcbb 83f8 6b3a
00000270: 0355 e73d 4ec0 ab3d ac32 14be 31b5 4a3c
00000280: 251e 003e 54e3 8b3c 1b92 cd3d 0bff 533d
00000290: aaae 293d 8f10 e0bc 6caa f3bd 1707 c23c
000002a0: 12f6 cbbb a0cf 1ebd c478 3d3b 32db d03c
000002b0: a1c2 123d 865b e73d ea25 103d a842 743d
000002c0: fcdb 7ebd 5028 edbc 83ab ed3c f571 303d
000002d0: 1317 a03d 8ee2 e13d c00c a03c 8d32 113e
000002e0: 0af8 7a3d bedc adbb ddc8 1fbb c85b 7d3c
000002f0: aeba df3c 2c98 963d 54bf 063d 24d6 b43d
00000300: fc54 8bbb d91f 3bbd c65e 823d 97f7 993d
00000310: 9de2 283c 02c9 ff3d 7f2c 6b3c eb73 c3bc
00000320: 9706 c13d 4239 003d 946f 473d 4d2c 57bb
00000330: b7a3 543d 4bd7 d1bd ba16 fd3c ea04 c53d
00000340: d9ad bc3d 13ae 0e3d 6e68 b23d 0637 673d
00000350: 8601 e23c 1119 fe3a c794 423d 7a12 9e3d
00000360: 4c1d 7dbd 9864 b4b9 c901 973c 5d47 d53d
00000370: 955b 473d cc92 0b3e 27f0 10bd 7902 423d
00000380: 7199 113e 2830 c03d 5473 293e 9902 563d
00000390: eeab 03be e59f 0f3e 8cc2 4d3e e37d 4b3d
000003a0: e949 be3b 8157 173c aa55 2e3d 73b4 993c
000003b0: 7de2 ca3c 2da3 893d 4e8a 423d 8f6a f53b
000003c0: 24a6 093d a8a6 f43c 88f5 1a3c ebb6 2b3d
000003d0: c2dd c23d eac4 153b 1988 6e3c 104e 6c3d
000003e0: 1162 e93d 47cd 963d 3961 d8bd 644e cd3d
000003f0: 9975 b43d f593 913d b4fc d03c 4368 743d
0.013017747 0.04495826 0.044194173 0.07538249 0.044194173 0.044194173 0.044827797 -0.018590346
0.044194173 0.07534948 0.075367905 0.07593602 0.044194173 0.012505556 0.088015966 0.07528779
0.012448939 0.10651277 0.012493593 0.07534476 0.012713728 -0.018536374 0.04270685 0.012460285
0.012973211 0.012501722 0.013068993 0.044194173 0.044194173 0.07544742 0.07592784 0.044194173
0.012456621 0.012489211 0.07531931 0.07590412 0.07531936 0.07591504 0.0124861635 0.044194173
0.075930655 0.012447134 0.012464362 0.012470376 0.0753037 0.044865906 0.10616483 0.044194173
0.013027026 0.013018775 0.044194173 0.0125223985 0.07583957 0.07487073 -0.01858238 0.10356561
0.044194173 0.013049947 0.013128936 0.044194173 0.013040151 0.07594147 0.013050211 0.044194173
0.01302659 0.012482451 0.013020195 0.043527327 0.01265302 0.012458238 0.074179865 0.013014831
0.07492486 0.012498653 0.07557494 0.012457864 0.044793487 0.044194173 0.044194173 0.044194173
0.10678011 0.0124553135 0.012459142 0.07590058 0.075236194 -0.018456295 0.012534281 -0.018555462
0.013020232 0.044194173 0.0758896 0.044194173 0.07524302 0.050835628 0.044194173 0.07520338
0.012449246 0.07592313 0.012452409 0.012505448 0.013018144 0.0752526 0.012447816 0.044194173
0.07587703 0.012466428 0.012470491 0.043501925 -0.018270446 0.048395567 0.014408943 0.04431946
0.04397564 0.07522336 0.013206631 0.09536439 0.0753636 0.013337641 0.044194173 0.012527018
0.012711505 0.043635238 -0.01837071 0.012456144 0.043644454 0.07537956 0.012548326 0.044873957
0.021721309 0.06363144 0.0844814 0.069428295 0.0051080217 0.0711745 -0.07227788 0.06369719
0.04878493 -0.010746803 0.04810839 0.035534568 0.029477498 0.017990306 0.02234353 0.059101943
-0.013811463 0.035296448 0.0076535097 0.07958009 -0.004994477 -0.08043061 0.044732336 -0.0042669117
0.018295484 -0.006900521 -0.007714417 0.00090015697 0.112955116 0.083862886 -0.14472455 0.012372301
0.12511499 0.017076172 0.10037633 0.0517569 0.04142634 -0.027351646 -0.1189774 0.023685021
-0.006224402 -0.038772225 0.0028911093 0.025495145 0.035830144 0.112967536 0.035192408 0.05963388
-0.062221512 -0.028949887 0.029012447 0.043077428 0.07816901 0.1102954 0.01953733 0.1417944
0.061271705 -0.0053058555 -0.0024381198 0.015463777 0.027310695 0.07353243 0.03289731 0.088299066
-0.0042520743 -0.04568467 0.06365733 0.07517927 0.010307935 0.12489511 0.01435387 -0.023858985
0.09425085 0.031304605 0.048690394 -0.0032832802 0.051913943 -0.10246142 0.030894626 0.09620078
0.09212846 0.03483398 0.08711325 0.05644896 0.027588617 0.0019386132 0.047505166 0.07718368
-0.061795518 -0.00034407224 0.018433468 0.10414002 0.048671324 0.13630217 -0.035385277 0.04736564
0.1421869 0.09384185 0.165479 0.05224857 -0.12858555 0.14025839 0.20093745 0.0496806
0.0058071506 0.009237171 0.042562164 0.018762803 0.024766201 0.067205764 0.04749518 0.0074895094
0.03360571 0.029864624 0.009457953 0.04192249 0.09514953 0.0022852966 0.014558815 0.057691634
0.11395658 0.07363372 -0.10565419 0.100247175 0.088114925 0.07108299 0.025511123 0.059669744

bias_mu f4 [256]
00000000: fc6b c13c ec4c f8bd dc73 6dbe db9b cebd
00000010: a5de e2bd 8b6c 10bc 5790 373d 1229 80bd
00000020: f0de 72be 4bd3 86bd 763e 1bbe 0bde 28bd
00000030: 578e 03be 8769 25be 5af9 b2bc ad0c 0dbe
00000040: 3cca 4bbc ccd8 c8bd 12bc 76bd 5260 88be
00000050: 77f9 6dbc 8612 3dbe 57e4 46be f241 96bd
00000060: 611b 47be a7d6 48be 4fe1 25be 58d9 ffbd
00000070: 3216 18be 85ff 9fbd 9f28 29be 53ae 2fbe
00000080: 4c64 0bbe 69b6 24be 4842 1dbe 7dfc d3bd
00000090: b7b8 53be 25ff f6bd 15f4 9cbd 61ef 15be
000000a0: 3b28 9dbe b7e6 19bd c38e 3a3c ae21 10be
000000b0: e6b7 86bd c882 21be 80f1 83be 4b48 0bbe
000000c0: 057e ddbd b232 4cbe 6209 8bbc cb8a 34bd
000000d0: 298e 7dbe 7216 07be a219 79bd d89c 2c3c
000000e0: 8264 bfbd 9eac 97be fdce b0bd 40cd 24be
000000f0: ae61 dabd 49c7 cbbd dbc1 80bd 5538 bbbe
00000100: 4b7d 2cbe b392 9cbd 963e 90bd 74a0 0abe
00000110: c01b 44be 1e3c f73d 9879 11be 6010 d1bd
00000120: 18a7 68be 1648 8abe 71d4 23bd 2dd0 68be
00000130: f50d 4ebe 430c b5bd 6054 56be 7573 19be
00000140: 9644 4abe d144 0fbe 7e38 02be abf4 11be
00000150: 4eca 3abe ae8f b2bc 8f2a 56be 5e2f 65be
00000160: aaee 2cbe 358c 76be 6992 15bd 591c 30be
00000170: c750 e4bd d72b 8dbd ab4e 46be 0511 54be
00000180: 64a4 dabd 650b 4bbe d004 1abe fc30 6ebd
00000190: 8849 aebd 9fa3 debd 4dfa 52be 332d 57be
000001a0: 6429 03be 5c15 eabd 3911 82be 2a3a babd
000001b0: 3379 42be ab3b 14be 87f9 4abd c66f 03be
000001c0: aaed 40be f71c d83d 5492 68be 877c 7dbe
000001d0: 3920 51be 2455 d1bd c472 bfbd a498 6cbd
000001e0: f176 77be c465 31be 7277 2ebe 72b2 4dbd
000001f0: 2cc7 dcbb 375b e8bd 7a82 18be 3854 f8bd
00000200: 95c6 83be 5005 c6bd 55f1 5ebe b709 4dbe
00000210: f42d d6ba 05c3 2abe f72b 06be 55be e7bd
00000220: 46c4 06be ace6 69be c4cf 04be 9bd0 55be
00000230: eb97 07bd 0f84 55be e456 90be f2f7 6fbe
00000240: 62d2 70be 035b 44be 894a 38bd b7eb 9ebe
00000250: cdae 15be 2f58 98bd 61ba 3abe 22f1 abbd
00000260: 5851 08be 4829 39bd 4081 6cbd a8e8 e7bd
00000270: d4e6 4abe 5322 8cbe ef5a 23bd c784 8bbd
00000280: 1096 a7bd 046a 62be 039b 57be 6a47 67be
00000290: 712f 0fbe 9c50 26be d565 0cbe ef53 df3a
000002a0: e3a9 67be 1f9d 5cbe b079 35bd 8b2a 56be
000002b0: 18e2 c7bd 2386 7fbd cdad 66be 9596 56bc
000002c0: 0d47 0cbe 5981 96bd 15f8 e0bd 1327 edbd
000002d0: 8727 99bb 478a 17be 2d11 8abd 5c5e 82bb
000002e0: 49fa 66be d3c0 97be 0dcc 83be 7c17 f9bd
000002f0: 0f63 82bd 26fb 9fbd dacc 89bd 94b3 b4bd
00000300: 1468 fabd d65a 75be 0542 24be 7a0a 9cbe
00000310: 0699 fdbd 4c68 07bd 8d1a 03be 36da 71be
00000320: 7146 61be 44dd cebc 2483 9cbd 0558 84bd
00000330: e270 2ebd 59e3 32be 69f6 04be 1ddc c9bd
00000340: fda1 1bbe ea05 ffbc d521 093c 5f54 18be
00000350: d462 adbc 73c0 c4bd e3b6 31be cf88 97bd
00000360: 7bf2 8cbe a695 cbbd f187 65bd 08f1 20bd
00000370: 3b3e c5bd e2d3 ddbd 70c4 95be 578a d6bd
00000380: 91de 14be 85c3 7fbd 6981 40be f254 11be
00000390: 65a0 0dbe 7834 1fbe fe2f 56be 01ec 42be
000003a0: 48e2 8dbd 81e5 d9bd 6438 dbbd 751a 95bc
000003b0: 3dc6 68be d6e5 083e 45be 14be f6fb bfbd
000003c0: 4280 9bbd 5c21 b3bd 2873 56be 0359 bebc
000003d0: 4758 58be 7bab 2ebd d05c 81bc aee5 72be
000003e0: 1932 1abe 7d42 8ebe e896 853d 0dbb 47be
000003f0: 4b5d fcbd a433 dbbd 2f4b edbd 9436 7abe
0.023611061 -0.12124047 -0.23188728 -0.10088321 -0.11077622 -0.008814941 0.044815388 -0.062578335
-0.23717856 -0.0658327 -0.15160546 -0.04122738 -0.12847267 -0.16153537 -0.021847416 -0.13774367
-0.012438353 -0.09806976 -0.06023795 -0.26635987 -0.014524809 -0.18464097 -0.19423042 -0.07336797
-0.19444038 -0.19613133 -0.1619923 -0.12492627 -0.14852217 -0.07812408 -0.16519402 -0.17156343
-0.13612479 -0.16085209 -0.15357316 -0.10350893 -0.20675932 -0.12060384 -0.076637425 -0.14642097
-0.30694756 -0.037573542 0.011386576 -0.14075348 -0.065780446 -0.15772545 -0.25770187 -0.13601796
-0.10815052 -0.19941214 -0.016972248 -0.044077676 -0.24761261 -0.13192156 -0.06081546 0.010535441
-0.09345342 -0.29623884 -0.0863323 -0.16093922 -0.10663162 -0.0995012 -0.06286975 -0.36566415
-0.1684467 -0.07645168 -0.07043187 -0.1353777 -0.19151211 0.12072013 -0.1420654 -0.102082014
-0.22719991 -0.27008122 -0.03999752 -0.22735663 -0.20122512 -0.08840229 -0.20930624 -0.1498545
-0.19752726 -0.13991095 -0.12716863 -0.1425349 -0.18241236 -0.021797027 -0.20914672 -0.2238135
-0.16887918 -0.24076922 -0.03651658 -0.17198314 -0.111482196 -0.068931274 -0.19365947 -0.20709617
-0.10675886 -0.19828565 -0.15040898 -0.058152184 -0.08510119 -0.10871052 -0.20603295 -0.21013336
-0.12808758 -0.11429855 -0.25403765 -0.09093125 -0.18991546 -0.14475887 -0.049554374 -0.12835607
-0.18840662 0.105523996 -0.2271207 -0.24754535 -0.20422448 -0.102213174 -0.09348062 -0.057762757
-0.24166466 -0.17323977 -0.17037752 -0.050219007 -0.0067376103 -0.11345523 -0.14893523 -0.121254385
-0.25737444 -0.09668982 -0.21771748 -0.20023237 -0.0016340599 -0.16675957 -0.13102709 -0.113156
-0.1316081 -0.228419 -0.12969881 -0.20880358 -0.033103865 -0.20851158 -0.28191292 -0.23434427
-0.23517755 -0.19175343 -0.044992957 -0.3103921 -0.14617462 -0.07438695 -0.1823516 -0.08395602
-0.1331228 -0.045205384 -0.05774045 -0.113236725 -0.19814616 -0.27369937 -0.039881643 -0.06812435
-0.08182919 -0.22110754 -0.21055226 -0.22585836 -0.13982941 -0.16241688 -0.13710721 0.0017038564
-0.226234 -0.21544312 -0.044305503 -0.20914666 -0.09759921 -0.062383782 -0.22527237 -0.013097425
-0.13698979 -0.0734889 -0.10984818 -0.115797184 -0.0046739015 -0.14798842 -0.06741557 -0.0039785337
-0.22556414 -0.296393 -0.25741616 -0.121626824 -0.0636655 -0.07811575 -0.067285255 -0.08823314
-0.122268826 -0.23960432 -0.1604081 -0.30476743 -0.123827025 -0.03305845 -0.12803097 -0.23618397
-0.21999528 -0.025251992 -0.076422006 -0.06462101 -0.042588122 -0.17469539 -0.12984623 -0.098564364
-0.15198512 -0.03113075 0.008369883 -0.14875935 -0.021165289 -0.09607019 -0.17354922 -0.07399141
-0.27528748 -0.099406525 -0.056037847 -0.039292365 -0.0963101 -0.10831429 -0.29251432 -0.10475605
-0.14538027 -0.06244232 -0.18799366 -0.1419256 -0.13830717 -0.15547359 -0.20916745 -0.19035341
-0.06927925 -0.106394775 -0.10704115 -0.018201092 -0.22731872 0.13368925 -0.14525707 -0.093742296
-0.075928226 -0.08746597 -0.20942366 -0.023235803 -0.21127425 -0.042644005 -0.015791327 -0.23720428
-0.15058173 -0.27785102 0.06522924 -0.19504948 -0.12322482 -0.10703209 -0.11586606 -0.24434882

bias_sigma f4 [256]
00000000: c853 00bd 009f 21bd 0cae 40bd 19ee eb3c
00000010: 0d59 02bd 336d 863c 9521 89bc a273 43bc
00000020: bae9 5bbc 809c 33bc 0264 123c d6da 863c
00000030: ae36 1bbc d571 0f3e be81 d53d b7f2 67bd
00000040: a49d e63d 9117 a73c 9a00 8a3c fab5 913d
00000050: 7a5a 173e 1974 a53d c1e1 8a3d 667c 893c
00000060: e924 75bd 93b2 39bd 2eef f5bc 522a 933d
00000070: bba8 0ebe 0efa 5e3d 01ae b53d e2a0 903d
00000080: 3290 573e 120a bd3b 2226 b73c 60b9 de3b
00000090: bc06 dfbd b24c e9bd 184c d83d 0909 783e
000000a0: 9c07 c43c 520f 81be a989 90bc 092e fe3c
000000b0: 12e6 e83c edc6 a63d 2a78 b0bd 5adb d03c
000000c0: b3dc 9a3d ae22 3c3e 9165 79bc 88d2 d7bc
000000d0: 03cc 853d 1d1e 04bd fe28 47bc 1952 d03c
000000e0: 4126 5fbd 8ba3 0f3e 61c8 bcbd 1dbd dabd
000000f0: c7de d13b 6e03 803d 395a d03d ae36 0ebe
00000100: 496f 133d 7093 de3d 01da ccbd 593a eb3c
00000110: 005d b23c d61b d43b 0318 843d 302c 9d3c
00000120: b279 47bc 31c4 a33d e2b6 b03d d39b 8c3d
00000130: ba2b 963d 2065 4b3d 7731 b93d 53b3 3abc
00000140: 7657 16be 616b 1dbd e019 0abd 83d9 11bc
00000150: e66c 14bd 2494 8abd ea45 1f3d 590c f73c
00000160: 94db eb3d 3942 273e bbe7 28bd 7dc7 edbd
00000170: 752d 51bd 6e50 733e e496 053d 6c80 673e
00000180: cd61 cbbc c34a cc3d 18a5 2ebc 5bc4 3cb8
00000190: 3ee8 b63d 85a6 92bc ae9e 1e3d c194 883e
000001a0: 98ae ac3d 4f49 8c3b 18fc 813d 031e cdbd
000001b0: 394f b0bd 0dfd 4fbe 7acd 39bc 7b81 263d
000001c0: fceb debc d797 623d f965 d73d 333f 95ba
000001d0: 62fd ef3d 8de8 a23d 37ae c63d a763 363d
000001e0: 41aa 66bd e798 3ebd b93d 1c3d eff8 15bd
000001f0: 6b2f e23b e66a 1c3d a46c 44bc 436f a73d
00000200: 23b9 143d 82d7 fb3d 10c3 a03d 21c7 243c
00000210: 5dd2 fe3c 133e 8f3d be91 f93d 4f2a d83c
00000220: e9c2 edbc 4354 3bbd 4257 eb3c 0254 ac3d
00000230: e53a 573e 0502 acbb cc48 3f3e 59b3 94bb
00000240: 067d 613e f83d ff3d 54e7 07be 5fd9 893d
00000250: 6595 1bbb 2fb5 ee3c 9114 bdbd dcc5 8c3d
00000260: 275b d83c ecee 833d cea8 853d dd46 5fbe
00000270: 667f 9bbd be40 7a3d e556 1b3c 5ce9 4ebe
00000280: 749c 44bc e749 ab3c 3299 163d b4e1 6d3e
00000290: 25cf 743c e698 883d bdcf 82bc 4084 3f3d
000002a0: e233 6c3d 5a90 c83d 7571 083d f508 013e
000002b0: efa1 61bd 1a85 05be 4680 523d f362 743d
000002c0: ff55 f13d c2fd 183d e990 4b39 418e 38bd
000002d0: 9788 b7bc 9c0d 8bbd bc63 683d f152 37bd
000002e0: f920 31bb 7c42 663d 3bf6 cc3d d2d7 c63d
000002f0: df77 b6bb 5104 1c3b 37c5 69bc 6baa 023c
00000300: baf9 0b3e 32a7 073d b627 583e 001b 913d
00000310: ea48 5a3c f828 123d fe6b 02bd 0dad 663c
00000320: 9230 7d3c ce67 c3bd 4904 91bd 32f6 8b3d
00000330: 2408 653d 2844 f7bc 167b b63d c4e2 833c
00000340: 5a7b e1bd b177 39bd 16c2 8bbb 79ea ff3d
00000350: 0507 dcbc be92 56bd da73 3aba edde 423d
00000360: 5107 b8bd f255 86bd 5960 c23c d00f 5b3c
00000370: a6f1 9abc ee64 8a3d e151 d9bd 0e15 e33c
00000380: 0a59 b5bb 89a7 2a3d 549d 64bc 9965 8f3b
00000390: 80ee a03d e4a4 58ba d502 8d3e 9ce2 7a3e
000003a0: d8fe 463c 2c93 6e3d 833e 923c 1439 c1bc
000003b0: f2b0 283e 7995 05bd 723a 213d 5eeb 943d
000003c0: c8f7 913c c7bf 193d 0478 d03c 56f3 023d
000003d0: 26d3 52bd bf70 07be 3f11 993d 938b 39bd
000003e0: 3374 ae3d b37a 683d 1cd2 4b3d 1135 263d
000003f0: 2ea2 0b3d 1469 81bc f416 e4bc 88c2 d6bd
-0.0313299 -0.039458275 -0.047040984 0.028800057 -0.031823207 0.016409492 -0.016739646 -0.0119294245
-0.013422424 -0.0109626055 0.0089349765 0.016461771 -0.009473486 0.14008267 0.10425137 -0.056627955
0.11260536 0.02039698 0.01684599 0.071147874 0.14780608 0.080787845 0.067813404 0.01678295
-0.059849653 -0.045336317 -0.030021276 0.07185806 -0.13931553 0.05443769 0.08871079 0.07061936
0.210511 0.0057690227 0.02235705 0.0067970008 -0.10889956 -0.113915816 0.10561389 0.24222197
0.02392941 -0.25207 -0.017643766 0.03102781 0.028430019 0.08143411 -0.086166695 0.02549522
0.07561626 0.18372604 -0.015221969 -0.026345506 0.06533053 -0.03225528 -0.012155769 0.025429772
-0.05447984 0.1402723 -0.09217907 -0.10680602 0.006404731 0.06250654 0.101734586 -0.13888046
0.0359948 0.10867965 -0.100025184 0.028714346 0.021772861 0.006473045 0.06449892 0.01918611
-0.0121750105 0.07996405 0.08628632 0.068656586 0.07332559 0.049656987 0.09042638 -0.011395293
-0.14681801 -0.038432483 -0.033716083 -0.0089019565 -0.036236666 -0.06766537 0.038885035 0.030157255
0.115164906 0.16333856 -0.04123662 -0.11610315 -0.05106874 0.2376115 0.032614604 0.22607583
-0.024826908 0.09975197 -0.010659479 -4.5005563e-05 0.089310154 -0.017901668 0.038725547 0.2667599
0.084317386 0.0042812 0.06346911 -0.1001549 -0.086088605 -0.20311375 -0.011340493 0.040650826
-0.027212135 0.055320587 0.105174966 -0.0011386633 0.11718251 0.07954512 0.097011976 0.04452863
-0.05631471 -0.046532538 0.0381448 -0.036614355 0.0069026253 0.038187884 -0.011988793 0.08175518
0.036309373 0.12296964 0.07849705 0.010057242 0.031106168 0.069942616 0.12186001 0.026387362
-0.029023604 -0.045734655 0.028728131 0.08414461 0.2101856 -0.005249264 0.18680114 -0.0045379815
0.22020349 0.124629915 -0.13271838 0.06730913 -0.002374017 0.02913913 -0.09232438 0.06873676
0.026410652 0.06442055 0.065263376 -0.21804376 -0.07592659 0.0610969 0.0094811665 -0.20206207
-0.012000192 0.020909263 0.036767192 0.2323063 0.014941965 0.06669788 -0.015968198 0.046756983
0.057666667 0.09793158 0.033311326 0.12601073 -0.055086073 -0.13039055 0.051391862 0.059664678
0.117839806 0.037351377 0.00019413572 -0.04505754 -0.022403998 -0.06789705 0.05673574 -0.044756833
-0.002702771 0.05621575 0.10007902 0.09709133 -0.005568489 0.0023806284 -0.014268211 0.007975201
0.13669482 0.033118434 0.21108899 0.07085228 0.013323048 0.035683602 -0.03184127 0.014079344
0.015453475 -0.095412835 -0.070808955 0.068340674 0.055915967 -0.030183867 0.089101955 0.016099341
-0.110098556 -0.045280162 -0.00426508 0.12495894 -0.026858816 -0.052386038 -0.00071126 0.04757588
-0.089857705 -0.065593615 0.023727583 0.013370469 -0.018914055 0.06757532 -0.1061132 0.02772
-0.005534296 0.04166368 -0.013953526 0.004376125 0.0785799 -0.0008264317 0.27541223 0.24500507
0.01214572 0.058245823 0.017852074 -0.023586787 0.1647375 -0.03261325 0.03936238 0.07271455
0.017818347 0.03753641 0.025447853 0.031970344 -0.051470898 -0.13226603 0.074739926 -0.045299124
0.08518257 0.05675764 0.049760923 0.04057795 0.034090213 -0.015797175 -0.027842976 -0.10486323

weight_epsilon f4 [256, 128]
00000000: 1072 193f 4719 3b3f 0788 a0bf 6ee5 523f
00000010: 62bc 9dbe d61b 53bd 834f 33bf d59a f43e
00000020: 3357 963f 3919 813f acb6 57bf d30c d53e
00000030: e5de a7bf 36b3 703f a84f 07bf baac 47bf
00000040: 860a c73e 1865 1fbf be94 abbe aa5e 453f
00000050: c34f f93e 4611 813f cf23 ebbe 0193 99bf
00000060: 3878 03bf a21e f63e 6e2f 5ebf c9b8 383f
00000070: f28b 073f c8ab fbbe 7aad 9abe 41c2 90bf
00000080: 8144 2ebe 0adf 09bf 3f60 a5bf b13e a9bf
00000090: 97c2 cebe ac0f 823f 17d5 803f 45d5 72bf
000000a0: e619 8fbf bec0 523f 2033 65bf 016e 20bf
000000b0: a8f1 6abf d380 45be 62ed 51bf 93de 79be
000000c0: 2dfb 71be 6c20 88bf e7e3 1f3f 7674 75bf
000000d0: 649f 093f ea40 573f a811 fabe f743 94be
000000e0: d696 cabe 069c 473f 7657 32bf c24a 68bf
000000f0: 90ef 8d3f 3baa 643f a71a 80bf 2d81 983f
00000100: cce2 a4bf 2f17 cabe 472f 60bf c3b0 613f
00000110: a96e 2c3f b231 4d3f e5ea a13f 0552 663f
00000120: 5e06 87be a074 1cbf e1c6 58bf 3b19 3a3f
00000130: 2b07 bf3e 19fa 5fbf 409e 90bf 52be 893f
00000140: 5b22 983f ad65 7ebf 22f7 0bbf a210 9cbf
00000150: 2c4d 8c3f 45d1 7cbf e715 5a3f f089 22bf
00000160: 2786 463f eead 33bf c117 a1bf 9370 953f
00000170: ec2b 883f 17c4 f0be 054c 87bf 797e 193f
00000180: 1021 11bf e994 93be 43f1 f73d b85b 903f
00000190: 79c5 80bf 7c30 94bf aaa8 243f d973 85bf
000001a0: 5ea6 c4be 2a56 423f ce95 53bf bf49 a0be
000001b0: 03a8 863f 601e 573f bf0d 87bf 5828 103f
000001c0: 1e13 1e3f bd31 15bf b527 413e 7583 883f
000001d0: 27c5 92bd fc98 3fbf 3f0d 83bf e878 7f3f
000001e0: ec29 a4bf af74 b4be a68f 643f f5f0 fcbe
000001f0: 347d 913f 1065 a93e e6a2 aa3e be8a 76bf
00000200: cb9e 223f 1f49 463f 3721 aabf 8981 5f3f
00000210: c82a a7be 32bb 5fbd 2608 3ebf 739d 013f
00000220: 6854 9f3f 48d1 883f 839c 64bf e6c9 e13e
00000230: 6de8 b1bf 8317 7f3f cf66 0fbf 119d 53bf
00000240: 2af1 d23e e4ec 28bf 11d7 b5be ba2b 513f
00000250: f01b 043f dbc8 883f 0033 f9be b4c1 a2bf
00000260: 9354 0bbf f26a 023f 5578 6bbf 40c4 433f
00000270: b4a6 0f3f 025c 05bf 11ed a3be 056a 99bf
00000280: f3af 38be 621d 12bf 9743 afbf 425d b3bf
00000290: 621f dbbe 78d6 893f 1489 883f 1cad 80bf
000002a0: 4ba8 97bf a85a 5f3f 65e7 72bf a405 2abf
000002b0: dafd 78bf ed4f 51be a87a 5ebf 9d67 84be
000002c0: 8b39 80be 0f44 90bf 4873 293f c510 82bf
000002d0: edd9 113f b71f 643f ae82 04bf 6821 9dbe
000002e0: cab3 d6be 5e8b 533f 4401 3dbf 5c2e 76bf
000002f0: 1e6c 963f 5056 723f 7ec3 87bf 819f a13f
00000300: a4be aebf 812c d6be c896 6dbf 512f 6f3f
00000310: 04be 363f 8576 593f 4d99 ab3f 7117 743f
00000320: 2419 8fbe 6ecf 25bf ffbc 65bf c439 453f
00000330: 2873 ca3e 6d5e 6dbf dd43 99bf b5fa 913f
00000340: 043b a13f d1cd 86bf 8755 14bf 7665 a5bf
00000350: b6b0 943f 86f7 85bf 0e20 673f db41 2cbf
00000360: e264 523f 376c 3ebf 8ab9 aabf fe5f 9e3f
00000370: 3f50 903f 6729 ffbe f562 8fbf f2ab 223f
00000380: 7fce 19bf e367 9cbe 3562 033e 5bfd 983f
00000390: 8678 88bf c30c 9dbf 0881 2e3f 8e6e 8dbf
000003a0: 6968 d0be ccf4 4d3f 753c 60bf 36df a9be
000003b0: 24b5 8e3f 1cfb 633f f620 8fbf e8c6 183f
000003c0: b486 273f 651d 1ebf 42b4 4c3e 04ad 903f
000003d0: b48b 9bbd b20d 4bbf 34e3 8abf a95f 873f
000003e0: b6fa adbf da3e bfbe 253a 723f 5008 06bf
000003f0: 2630 9a3f eb85 b33e c3d6 b43e 3ba4 82bf
0.5993967 0.73085445 -1.2541512 0.8238133 -0.30807787 -0.05154022 -0.700432 0.47774377
1.1745361 1.0085822 -0.8426311 0.41611347 -1.3114897 0.94023454 -0.5285592 -0.77997935
0.38875216 -0.6226363 -0.3351192 0.7709757 0.48693666 1.0083396 -0.45925757 -1.1997987
-0.51355314 0.48070246 -0.8679112 0.7215696 0.52947915 -0.49154496 -0.30210477 -1.1309282
-0.1701832 -0.53855956 -1.2919997 -1.3222257 -0.40382835 1.0161033 1.006503 -0.94856673
-1.1179779 0.8232535 -0.89531136 -0.6266785 -0.9177499 -0.19287424 -0.8200284 -0.24401312
-0.23630972 -1.0634894 0.62457126 -0.9588083 0.53758836 0.84083426 -0.48841596 -0.28958103
-0.39568204 0.7797245 -0.69664705 -0.9073907 1.1088734 0.8932225 -1.0008134 1.1914421
-1.2881713 -0.39470813 -0.8757214 0.8816034 0.67356354 0.80153954 1.2649809 0.899689
-0.26372045 -0.61115456 -0.84678465 0.7269475 0.37310156 -0.87490994 -1.1298294 1.0761206
1.1885484 -0.99373895 -0.5467397 -1.2192576 1.0961051 -0.9875682 0.8518967 -0.63491726
0.7754845 -0.7018727 -1.2585374 1.167498 1.0638404 -0.47024605 -1.0570074 0.59958607
-0.56691074 -0.28824547 0.12106564 1.127799 -1.0060264 -1.1577296 0.6431986 -1.0425979
-0.38408178 0.75912726 -0.8265046 -0.31306264 1.0520023 0.84030724 -1.055107 0.5631156
0.6174792 -0.5827902 0.18862803 1.0665118 -0.0716651 -0.7484281 -1.0238417 0.99793863
-1.2825294 -0.35245273 0.8928169 -0.49402586 1.1366334 0.33084917 0.33327407 -0.96305454
0.6352355 0.77455324 -1.3291386 0.8730703 -0.32649827 -0.054621883 -0.74231184 0.50630873
1.2447634 1.0688868 -0.8930132 0.4409935 -1.3899056 0.9964525 -0.5601625 -0.8266154
0.4119962 -0.65986466 -0.35515645 0.81707346 0.5160513 1.0686296 -0.48671722 -1.2715364
-0.54425925 0.50944436 -0.9198049 0.7647133 0.56113744 -0.5209352 -0.32016805 -1.198548
-0.1803587 -0.57076085 -1.3692502 -1.4012835 -0.4279738 1.0768576 1.0666833 -1.0052829
-1.1848234 0.87247705 -0.9488433 -0.66414857 -0.97262347 -0.20440646 -0.8690591 -0.258603
-0.25043902 -1.127077 0.6619153 -1.0161368 0.56973153 0.89110893 -0.517619 -0.3068955
-0.41934043 0.8263453 -0.73830056 -0.9616449 1.1751745 0.9466295 -1.0606534 1.2626802
-1.3651929 -0.4183083 -0.928082 0.93431574 0.7138369 0.8494647 1.3406159 0.9534827
-0.27948868 -0.6476964 -0.8974151 0.7704127 0.39540982 -0.9272221 -1.1973835 1.1404635
1.2596135 -1.053156 -0.57943004 -1.2921588 1.1616428 -1.0466163 0.90283287 -0.6728799
0.82185185 -0.7438387 -1.3337872 1.2373044 1.1274489 -0.49836275 -1.1202074 0.6354362
-0.60080713 -0.3054801 0.12830432 1.1952318 -1.0661781 -1.226952 0.68165636 -1.1049364
-0.4070466 0.80451655 -0.8759225 -0.3317811 1.114903 0.8905504 -1.1181934 0.59678507
0.65439916 -0.617636 0.19990638 1.13028 -0.07595006 -0.7931777 -1.0850587 1.0576068
-1.3592136 -0.3735264 0.9461997 -0.52356434 1.2045944 0.3506311 0.353201 -1.0206369

bias_epsilon f4 [256]
00000000: 18e5 733f 263d 813f b8be 21bf 1336 573f
00000010: 9abd dbbe 84a2 b23f cca1 34bf 76a9 d7bf
00000020: bbdf e6be 91ec 19bf ced9 013f 3948 c6be
00000030: 9b2d afbf 07ae 7dbf e7d1 babf 0393 aebf
00000040: ec3a 9a3e 7b8d 473f 5a48 09bf 1346 fdbe
00000050: 7cfe 013f 3136 87bf 3011 21bf b446 503f
00000060: 0b90 80bf d9cb 3dbf 8a78 f4be d7c2 8abf
00000070: f8d5 16bf a561 bfbf e480 aabe 71f4 803f
00000080: 6aac a63f dbbf edbe b692 983e 0936 c4be
00000090: 8725 e6be 419d 813f 52f3 433f 4940 853f
000000a0: fd57 6fbf 5671 3a3f d159 443f 89a1 7dbf
000000b0: 63ab 763f 4985 15bf 7d0b 99bd 2202 423f
000000c0: a726 363f e1cc 6fbf c994 32bf 8b62 31bf
000000d0: 20ed 1bbf b294 5cbf 363a 42bf 31a8 5c3f
000000e0: 4c09 69bf f1c4 a9be 1d9c 82bf 9626 75bf
000000f0: 44f4 dfbe a616 13bf e20b 8d3f b70d 883f
00000100: c484 073f 06e9 a8bf 403b 78bf 6492 9f3f
00000110: 29c9 4b3f 3305 95bf b4dc 8cbe b855 8bbf
00000120: 90d5 8b3f ca8b 2b3f d62e 16bf 26cb 973e
00000130: c906 55bf 9a49 6ebf 0904 22bf e31f 7cbf
00000140: 0593 3abf be03 2dbf 1986 a63e 51a3 96bf
00000150: bb21 4e3f e8b8 663f 4874 8ebe 8f76 963f
00000160: ffec a8bf 1e67 30bf a9cb 113f f5e1 8abf
00000170: 5c4d bdbf eb04 8b3f 1b4a 923f c519 99bf
00000180: e76f 2abf c782 8abe c5b2 8f3e 7ddd a03e
00000190: 09d2 a13e b511 20bf b4d5 66bf 9ed0 933f
000001a0: 06e9 093f 916f 623f 711b 523f 0368 553f
000001b0: 330a 8cbf ea88 913f d474 c63f c838 9e3f
000001c0: 2ef1 b2bf 75ba 60bf fbab 373f de35 3a3f
000001d0: e5cc 8c3f 9b7d 64bf fea5 cfbe 9807 223f
000001e0: 96a4 b93f 78b0 373f e725 703f dd8c db3e
000001f0: 5cad 653f 7900 11bf 0955 11bf 05e3 a93f
00000200: 6b9a 8e3f 0f02 483f 2db3 4a3f 52b8 b03f
00000210: 3c46 853f 8ed7 4b3f ce6a ad3f 0564 843e
00000220: e960 c8bd f2b6 383f 8263 0dbf 484c c0be
00000230: 35be 15bf db23 343f 7b92 5d3f 7a68 d83e
00000240: c24c 47bf c371 09bf f5ec 333e 478a b03e
00000250: 1186 3abf adb0 483f c608 663f 60a8 94bf
00000260: 8ec3 bbbe de6c 3d3f c649 cd3f 41e2 743f
00000270: 08ca b0be c625 9cbf d795 863f 0965 6bbf
00000280: 34eb a93f 8a41 163c 7097 b9bf 41da 8ebf
00000290: 1f46 9abf 4eb2 76bf 31b7 293f 3dc0 71bf
000002a0: ab85 8f3f 13cb d53e 7eaf 71bf 7daa 98bf
000002b0: 8ae6 dd3f 5d92 403f a738 89bf 9e4c 57bf
000002c0: 16cc f93e 2ccd 463f a700 f8be 7108 fdbe
000002d0: 6403 83bf 8ee3 97bf d0bf 333f b82e 543f
000002e0: 5d40 83bd f79a 713f c7fc 3bbf 0b07 1b3f
000002f0: 0823 acbf 50df 8ebf 1e83 633f 3b72 82bf
00000300: a789 55bf 4970 a9bf 04e8 67be da96 3ebf
00000310: f5b0 6a3e 7ebf d0be 9d20 a5bf d452 0cbf
00000320: df46 ad3f f79b 7f3f 72f0 f2be 3e85 2d3f
00000330: a6b4 e6be 8c5f 643f e811 663f 6ce4 b3bf
00000340: 77bf 81bf b23e 4b3e e852 bebf 5fa8 42be
00000350: 0ba2 09bf db61 f3be a6ba 3bbf 048e 9e3f
00000360: 50a2 5bbf a142 2dbf ee00 65bf 07f7 4abf
00000370: 0ae5 4b3f 576f 8e3f 6e14 75bf f349 87bf
00000380: 6631 b5bf 7fab 44bf 0e1c 8ebf a6c2 913f
00000390: a84a a8be 4727 9dbe b6b1 0abf e8b1 99bf
000003a0: 09cb c1be 8961 bc3f 1fe6 103f 594d 163f
000003b0: 47ab 57bf a0e0 92be efbd 5bbf c272 1ebf
000003c0: 98d6 edbe 30c0 10bf ad8e 8cbf d3d5 2abf
000003d0: ee7e 72bd 7ca8 8fbf 5b04 d9bd d404 0c3f
000003e0: 92c3 8c3f c707 923f bfa1 9bbf bb99 6fbf
000003f0: f647 c03e fbce 473f f520 ddbe 14b3 5cbf
0.95271444 1.0096786 -0.6318164 0.84066886 -0.42918092 1.3955846 -0.7055938 -1.684859
-0.45092568 -0.60126597 0.5072297 -0.38726977 -1.3685793 -0.9909367 -1.4595307 -1.3638614
0.3012308 0.7795026 -0.53626025 -0.49467525 0.5077894 -1.0563413 -0.6291685 0.81357884
-1.0043958 -0.7413917 -0.47748214 -1.084071 -0.5892024 -1.4951674 -0.3330146 1.0074598
1.3021367 -0.46435437 0.29799432 -0.38322476 -0.44950506 1.0126115 0.7654315 1.0410243
-0.93493634 0.72829187 0.7669955 -0.9907461 0.96355265 -0.584065 -0.07472894 0.75784504
0.7115273 -0.93671995 -0.6975828 -0.6929099 -0.609087 -0.8616439 -0.7587007 0.8619414
-0.9102981 -0.33158067 -1.0203892 -0.95762 -0.43741047 -0.57456434 1.1019251 1.0629185
0.5293696 -1.3196113 -0.9696541 1.246655 0.7960382 -1.1642212 -0.27512133 -1.0885534
1.0924549 0.67010176 -0.58665216 0.29647177 -0.8321348 -0.9308106 -0.6328741 -0.98486155
-0.72880584 -0.67583835 0.32524183 -1.176859 0.8052022 0.90125895 -0.2782309 1.1754931
-1.3197325 -0.68907344 0.56951386 -1.0850207 -1.4789233 1.0860876 1.1428865 -1.1960989
-0.66577 -0.270529 0.28066078 0.31418982 0.31605557 -0.6252702 -0.90169835 1.154804
0.5387119 0.88451487 0.8207312 0.83361834 -1.0940613 1.1369908 1.5504403 1.2361078
-1.3979852 -0.8778451 0.71746796 0.72738445 1.1000029 -0.8925416 -0.4055633 0.6329284
1.4503353 0.71753645 0.93807834 0.42880908 0.8971765 -0.56641346 -0.5677038 1.3272406
1.1140875 0.7812814 0.7917965 1.380625 1.0412059 0.79625785 1.3548219 0.2585756
-0.09784109 0.7215415 -0.5522996 -0.37558198 -0.5849336 0.7036721 0.86551636 0.4226721
-0.778515 -0.5368921 0.1757086 0.34480497 -0.7286082 0.78394586 0.8985714 -1.1613884
-0.36672634 0.73994243 1.6038139 0.95657736 -0.34529138 -1.2199028 1.0514477 -0.9195104
1.3274903 0.009170899 -1.449934 -1.1160356 -1.2052649 -0.9636582 0.6629515 -0.9443396
1.1212667 0.41756496 -0.94408405 -1.1927029 1.733598 0.7522333 -1.0720414 -0.84101284
0.48788518 0.7765682 -0.48437998 -0.49420503 -1.023541 -1.1866319 0.7021456 0.8288379
-0.06408761 0.9437708 -0.7343258 0.6055762 -1.3448191 -1.11619 0.88871944 -1.019111
-0.83413166 -1.3237392 -0.226471 -0.7444893 0.22919066 -0.40771097 -1.2900578 -0.54813886
1.3537253 0.9984736 -0.4744907 0.67781436 -0.450597 0.8920829 0.8987107 -1.4054084
-1.0136555 0.19848135 -1.4869051 -0.19009541 -0.5376288 -0.47535595 -0.7333168 1.238709
-0.85794544 -0.6767979 -0.89454544 -0.79283184 0.7964636 1.1127728 -0.957343 -1.0569443
-1.41557 -0.7682418 -1.1102312 1.1387527 -0.32869458 -0.3069403 -0.54177415 -1.2007418
-0.37850216 1.4717265 0.56601137 0.58711773 -0.84245723 -0.28687 -0.8583669 -0.61893857
-0.46452785 -0.56543255 -1.0981041 -0.6673252 -0.05920308 -1.1223292 -0.10596534 0.5469487
1.0997183 1.1408623 -1.2158736 -0.9359395 0.37554902 0.780502 -0.43189207 -0.8621075

epsilon_in f4 [128]
00000000: ba0f 213f 8962 443f b97f a8bf 0f5d 5d3f
00000010: 8f90 a5be 2a96 5dbd d135 3cbf 615f 003f
00000020: 6acd 9d3f 8981 873f 826b 62bf d29f df3e
00000030: d833 b0bf 86a5 7c3f e806 0ebf c695 51bf
00000040: 85eb d03e 5a4e 27bf d618 b4be 6d2a 4f3f
00000050: bfd7 023f 3179 873f 79cf f6be 4e32 a1bf
00000060: a9fe 09bf e72a 013f 7f36 69bf d8e3 413f
00000070: 3046 0e3f bf14 04bf cc5a a2be 8cf1 97bf
00000080: bbea 36be d2b6 10bf 7f95 adbf 1aa5 b1bf
00000090: aa05 d9be 3884 883f 063a 873f afe2 7ebf
000000a0: 2134 96bf 8d36 5d3f 5193 70bf 6964 28bf
000000b0: d59a 76bf 484e 4fbe b358 5cbf b222 83be
000000c0: c4fd 7dbe 09e2 8ebf 74d3 273f 98d1 80bf
000000d0: 0374 103f e8ef 613f 813d 03bf d09f 9bbe
000000e0: eaa4 d4be 3e84 513f 7431 3bbf 3dd2 73bf
000000f0: fcfa 943f a003 703f 5576 86bf e312 a03f
00000100: d211 adbf ed1e d4be bf4f 6bbf 5de4 6c3f
00000110: 92fd 343f df60 573f 34f4 a93f 73c0 713f
00000120: fbb9 8dbe 8938 24bf 3a89 63bf c855 433f
00000130: 5a82 c83e ee17 6bbf c1cb 97bf 7a94 903f
00000140: 5caf 9f3f 0383 85bf 85e9 12bf 95cf a3bf
00000150: d443 933f c6ae 84bf e1e8 643f 249b 2abf
00000160: 9560 503f ec98 3cbf 9616 a9bf 58db 9c3f
00000170: 1bee 8e3f 3eb7 fcbe 1703 8ebf c11c 213f
00000180: 0f55 18bf 12e8 9abe cc1f 023e ec85 973f
00000190: a129 87bf 5e8b 9bbf ced4 2c3f 7c13 8cbf
000001a0: fc68 cebe 63fb 4b3f 3016 5ebf 5a3e a8be
000001b0: f156 8d3f a7cb 613f bac1 8dbf ff4f 173f
000001c0: 99eb 253f 6399 1cbf ebbd 4a3e fc49 8f3f
000001d0: 000e 9abd 681b 49bf 618e 89bf 7513 863f
000001e0: c54f acbf 8a69 bdbe bae7 6f3f 67bf 04bf
000001f0: c6b5 983f 60cd b13e fd1a b33e a463 81bf
0.6291462 0.7671285 -1.3163978 0.8647012 -0.32336852 -0.054098286 -0.7351962 0.50145537
1.2328312 1.0586406 -0.88445294 0.4367662 -1.3765821 0.9869007 -0.5547929 -0.8186916
0.40804687 -0.6535393 -0.35175198 0.8092411 0.5111045 1.058386 -0.48205164 -1.2593477
-0.53904206 0.5045609 -0.9109878 0.75738287 0.5557585 -0.51594156 -0.31709898 -1.1870589
-0.1786298 -0.5652896 -1.3561248 -1.387851 -0.42387134 1.066535 1.0564582 -0.9956464
-1.1734658 0.8641136 -0.93974787 -0.65778214 -0.96330005 -0.20244706 -0.86072844 -0.25612408
-0.24803835 -1.116273 0.65557027 -1.0063963 0.5642702 0.8825669 -0.5126572 -0.30395365
-0.4153207 0.8184241 -0.73122334 -0.95242673 1.1639094 0.9375553 -1.0504862 1.2505764
-1.3521063 -0.41429844 -0.9191856 0.92535955 0.7069942 0.8413219 1.327765 0.9443428
-0.27680954 -0.64148766 -0.88881266 0.76302767 0.3916195 -0.9183339 -1.1859056 1.1295311
1.247539 -1.0430607 -0.5738757 -1.2797724 1.1505075 -1.0365837 0.89417845 -0.66642976
0.8139737 -0.7367084 -1.3210018 1.2254438 1.1166414 -0.49358553 -1.1094693 0.629345
-0.5950479 -0.3025518 0.12707442 1.1837745 -1.0559579 -1.2151906 0.67512214 -1.0943446
-0.40314472 0.7968046 -0.86752605 -0.3286007 1.1042157 0.88201374 -1.1074746 0.5910644
0.6481262 -0.6117155 0.1979901 1.1194453 -0.075222015 -0.78557444 -1.0746576 1.0474688
-1.3461844 -0.36994582 0.9371296 -0.51854557 1.1930473 0.34727 0.34981528 -1.0108533
