save/model/cartpole_dqn_hid_64_64.pth (torch_old, 20324 bytes, 6 tensors)

weight f4 [64, 4]
000000 11 6b 10 bf ba c4 a8 be 7d 44 97 bf ce a4 b3 be
       -0.5641337 -0.3296259 -1.1817776 -0.35086673
000010 19 84 70 3f 78 ff 70 3e ac 9e 87 3f c2 3b 3a 3e
       0.93951565 0.23534954 1.0595298 0.18186858
000020 08 93 cd 3e 0d 89 0a 3d 90 5a 69 3f b7 ed b2 3d
       0.40151238 0.033822108 0.9115381 0.08736747
000030 1a 63 8c bf 37 d6 86 3e f3 89 c2 3f b8 b5 a9 3e
       -1.0967743 0.26335308 1.5198349 0.33146453
000040 c7 09 b2 3e 74 86 85 3e e1 1f 99 3f 5d ac 3f 3d
       0.34773085 0.26079142 1.1962854 0.046795238
000050 8a 3f ac 3e e4 b5 cb be ec 45 36 be 48 47 97 be
       0.33642226 -0.3978721 -0.1780011 -0.2954657
000060 e9 17 a3 3d 00 c4 5f 3e ad 8c 6e 3f 82 de a9 3d
       0.07963545 0.21852112 0.93183404 0.08294393
000070 17 44 5c be 70 2b 67 be 13 fd 40 be b9 ac b5 3c
       -0.21510349 -0.22575164 -0.1884654 0.022177087
000080 07 af 8a 3e 1b 8d 3d 3f 84 e2 8c 3e ae 43 df 3e
       0.2708666 0.74043435 0.27516568 0.43606323
000090 3b b2 09 3e 32 cd 2e bc 12 49 81 3e 91 62 7e bd
       0.13446896 -0.01066904 0.2525106 -0.06210572
0000a0 60 81 91 bf cf 28 bc be 6c 14 0f bf 8b cf 4d be
       -1.1367607 -0.36749884 -0.55890536 -0.20098703
0000b0 8d a7 b9 be 4f fa d8 be 9a 9b 1a 3d 0c 4b 93 be
       -0.36260644 -0.4237847 0.03774605 -0.28768194
0000c0 df 63 c1 3e 51 e5 f9 bd 68 c0 5c bf d9 b5 d5 be
       0.37771508 -0.12201942 -0.8623109 -0.417403
0000d0 b9 ee 47 be 5e ed a7 3e 37 ff b1 3e d3 50 93 3e
       -0.19524659 0.32798284 0.34765026 0.287726
0000e0 9d 36 23 be ec 75 ad 3d 7c 45 92 3f 0a b1 6f 3c
       -0.15938802 0.084697574 1.1427455 0.014629612
0000f0 08 73 ac 3e cc ab ef be f2 be 94 be b4 93 9c be
       0.33681512 -0.46810758 -0.2905193 -0.3058144
000100 ce be 8f 3e 14 00 7e 3e 0d 73 80 be 8f b5 9a be
       0.2807526 0.24804717 -0.25087777 -0.30216643
000110 c7 84 93 3d 64 cc 75 be 38 f7 ca bf 68 54 a3 be
       0.0720306 -0.2400375 -1.5856695 -0.31900334
000120 e5 e2 70 be eb 2f 92 be ff 6c a6 be 7e 96 32 3e
       -0.23524053 -0.28552184 -0.32505032 0.1744022
000130 60 3f ac be 46 49 99 be c0 79 98 3e 0c b0 44 be
       -0.336421 -0.29938716 0.29780388 -0.19207782
000140 c3 af f1 3e 38 73 aa be 65 82 b4 bd 41 2d 87 3d
       0.47204408 -0.3329103 -0.08813933 0.066004284
000150 ea 6c f1 3e 11 91 49 3d 70 b5 6a 3e 1f cd 35 3e
       0.47153407 0.04921061 0.22920775 0.17754029
000160 43 43 80 3e 7c 4d 88 3e 44 74 f0 bd d4 c6 16 bd
       0.25051317 0.26621616 -0.11740926 -0.03681071
000170 07 58 f3 3e 40 26 22 3f 3a 67 91 3f c8 e9 c6 3e
       0.47528097 0.63339615 1.1359627 0.38850236
000180 40 dd 5c 3f 27 3d f7 3e 1c ec d8 3f e3 95 e2 3e
       0.862751 0.48288843 1.6947055 0.4425498
000190 e9 f8 e6 be d8 c8 84 be f7 7c 25 3f 14 13 68 bd
       -0.45111778 -0.25934482 0.64643806 -0.05665882
0001a0 82 8c 6c 3f a4 8c c4 3b 21 4a 50 3f bc aa 27 3d
       0.924019 0.005998211 0.8136311 0.04093431
0001b0 04 7a cb be 1c 50 41 3d 03 fc b5 3e 59 67 bf bd
       -0.39741528 0.04719554 0.35543832 -0.09345884
0001c0 30 a3 7b 3e 02 2e ec 3c 5e 31 cf bf 5d b5 84 be
       0.2457397 0.028830532 -1.6186941 -0.2591962
0001d0 9d 84 88 be 20 e9 6c 3d 39 81 05 3f 34 e7 8b be
       -0.26663676 0.057839513 0.52150303 -0.2732483
0001e0 99 73 c3 be bc 40 4d 3e 78 ca 25 3f 00 06 5e 3e
       -0.38174132 0.20044225 0.6476207 0.21681976
0001f0 9f 64 23 3f ed 58 4d 3e bd e3 1f 3f c8 c3 2a 3e
       0.6382541 0.20053454 0.62456876 0.16676247
000200 96 3c fe 3e fc 6c 14 3f ee 41 b8 3e 91 31 96 3e
       0.49655598 0.57978797 0.359878 0.2933469
000210 ce 4b 73 bf 21 7e 5a be 25 ac a6 be 98 55 a4 3d
       -0.95037544 -0.21337177 -0.3255321 0.08024138
000220 83 59 8f be 39 8a cb 3d 21 a5 89 3f 38 f9 9d bd
       -0.2799798 0.09938473 1.0753518 -0.0771355
000230 55 9f 95 3d f4 62 64 3e 23 f5 9e be a6 4d 8e 3e
       0.07305781 0.22303373 -0.310464 0.27793616
000240 fe 47 5a bf 8c ff 50 bf fa ca 9d bf ae 49 16 bf
       -0.852661 -0.81639934 -1.2327569 -0.58706176
000250 12 a1 d5 be 53 19 f3 bd c3 e7 f4 bd 15 24 33 be
       -0.4172445 -0.118700646 -0.119582675 -0.17494233
000260 a4 05 02 3f d5 2d 8d be 86 ee c2 be 07 26 2a 3e
       0.50789857 -0.2757403 -0.38072604 0.16616069
000270 1b cb c1 bc 14 8e ca be 44 27 38 be d3 74 0c 3c
       -0.023656419 -0.39561522 -0.17983729 0.008572775
000280 8a ac e0 be af ea 3e 3e 9f 48 c3 bf 4c ea d7 be
       -0.43881637 0.18644212 -1.5256537 -0.42170942
000290 16 e8 f4 3c ae d0 fe 3c e3 70 ab bf a6 09 bd be
       0.029895823 0.031105366 -1.3393825 -0.36921424
0002a0 cc 14 37 3e 1b 0e 1c be db 15 c6 3e d2 03 14 3c
       0.17879027 -0.15239756 0.3868855 0.009034114
0002b0 62 94 28 be cc de bf 3e 76 b3 bd 3e e7 7b b4 3e
       -0.16462854 0.37474668 0.3705098 0.3525078
0002c0 d4 1c 21 3e 9a 28 b5 bb 5b 5a 9a 3d 55 9f 46 be
       0.15733653 -0.0055285217 0.07536765 -0.19396718
0002d0 17 75 28 3f 4f 6b 9e be 0f 32 cc bf 6b 36 d3 be
       0.65803665 -0.30941245 -1.5952777 -0.41252455
0002e0 89 d5 61 3e ab d2 26 3f db 24 a6 3f e1 07 0b 3f
       0.22054113 0.65165204 1.2979997 0.543089
0002f0 30 73 e5 3e 00 54 f5 3e cb bd 92 3e 8b 11 43 3e
       0.44814444 0.4791565 0.28660426 0.19049661
000300 05 16 98 3e 4b 31 11 3f 6e 1f d4 3f ee 19 11 3f
       0.297043 0.5671584 1.6572092 0.5668019
000310 5f c1 28 bf d7 6f 22 3e b2 4d 37 3e da 65 49 3e
       -0.6592006 0.15862976 0.17900732 0.1966776
000320 2e b4 f4 3d 15 fb e6 3e e9 02 88 3e fe 8c 10 3e
       0.11948429 0.45113435 0.2656472 0.14116284
000330 a1 2f 0c 3f 8a d3 66 3d 2f 42 cb bf bd 4f a4 bd
       0.54760176 0.056354083 -1.5879573 -0.08023021
000340 72 59 e8 3e 07 db 82 be 1b 8f 05 bf 6f f9 ef 3d
       0.4538074 -0.2555773 -0.52171487 0.117174976
000350 12 10 9f be 31 7f b7 be 56 cd c5 bf f6 a0 b5 be
       -0.31066948 -0.35839227 -1.5453289 -0.35474366
000360 14 96 ea 3e 3f d2 d2 be 98 ba 39 bf f2 91 46 be
       0.45817626 -0.4117603 -0.72550344 -0.19391611
000370 44 4a 25 bf 23 6c 08 3f c3 6e 43 3f 88 69 0c 3f
       -0.64566445 0.53290004 0.76340884 0.5484853
000380 7f 3e 01 bf 4e bc 91 3e 7c a8 d0 3e c8 ec 8f 3d
       -0.50485986 0.28463978 0.40753543 0.07027584
000390 6e 08 d4 bd 29 98 81 bd 27 96 1f bf 6c 38 4c be
       -0.1035317 -0.0632785 -0.6233849 -0.19943398
0003a0 50 d1 95 bf 46 3e bf be bf 51 cd bf ca 3f 69 be
       -1.1704502 -0.37352198 -1.6040572 -0.2277824
0003b0 f4 8f 0b 3e 1e 21 86 be 4e ee ee be e1 bf 14 be
       0.13629133 -0.2619714 -0.46666187 -0.14526321
0003c0 04 a4 96 3c a0 6b 2a be 48 97 6f 3e 46 9c 88 be
       0.018388756 -0.16642618 0.23397553 -0.26681727
0003d0 37 1a 41 3f 6b 43 d3 3e ee 81 92 3d 71 28 86 3e
       0.75430626 0.41262373 0.07153688 0.2620273
0003e0 67 1d 81 be f3 91 d6 3e 6e 0e 34 be 95 b7 25 bd
       -0.25217745 0.41908225 -0.1758363 -0.04045828
0003f0 c3 58 09 3f 25 a0 fe 3e 96 f4 ed 3e 6d 8f 75 3e
       0.53651065 0.49731556 0.46475667 0.23980494

bias f4 [64]
000000 19 58 01 be 88 3c 5e be 22 b2 e8 be 30 f1 dc be
       -0.12631263 -0.21702778 -0.45448405 -0.4315276
000010 eb 16 fe be 1e e4 29 3f a5 d7 86 3e f2 46 3b 3f
       -0.4962686 0.66363704 0.263364 0.7315513
000020 8f bf 04 3f 19 13 ec 3e 9a e1 74 be b2 cb 57 3f
       0.51854795 0.4610832 -0.23914185 0.8429519
000030 4d 1c 3b bf b2 72 24 3f 6a a2 45 3e db fe 1e 3f
       -0.7309006 0.6423751 0.19300237 0.6210763
000040 3a ac 58 bf 54 b6 97 be d4 23 2d 3f b6 9b d6 3e
       -0.84637797 -0.29631293 0.67632794 0.41915673
000050 48 aa 2b 3f a3 98 02 bf 35 76 e1 3e 59 ec 34 3f
       0.67056704 -0.51014155 0.44035497 0.7067314
000060 53 54 19 3e ec b2 e6 be 72 28 c0 bd ef 09 53 3f
       0.14973573 -0.45058382 -0.09382714 0.8243703
000070 d5 5c 22 bf f4 06 33 3f c6 f2 3d 3f 29 4b 32 bf
       -0.634229 0.69932485 0.7419857 -0.69645935
000080 5a 25 fa 3e 51 cc 50 be f5 ad c2 3e d1 f2 51 3f
       0.48856622 -0.2039044 0.38023344 0.82011133
000090 d0 80 52 be 21 60 26 3f 07 42 40 3f bf d7 49 3f
       -0.2055695 0.6499043 0.7510075 0.7884483
0000a0 90 b0 a9 be 8e de 3f bf 01 5d 08 3f 23 e6 56 3f
       -0.3314252 -0.74948967 0.5326691 0.8394491
0000b0 69 f7 54 3f 59 69 e6 be b7 6d 20 be 0c ce d7 3e
       0.8319002 -0.4500225 -0.15666853 0.4214939
0000c0 17 f9 d4 be 9a 4a 25 bf b0 ab da 3e ed 08 01 bf
       -0.4159629 -0.6456696 0.42709112 -0.50404245
0000d0 77 1c 27 3f 31 e3 69 be c8 9a a5 3e 9c 34 c1 be
       0.6527781 -0.22840573 0.3234465 -0.3773545
0000e0 be 59 3f 3f ad ca 51 3f 78 58 48 be cf 14 53 3f
       0.7474631 0.81949884 -0.19564998 0.82453626
0000f0 21 a1 ea be 91 27 a4 be 3b 7b 49 3f e4 4d 2e 3f
       -0.45826057 -0.32061437 0.7870366 0.680876

weight f4 [64, 64]
000000 12 7b d9 bd e4 6c d3 bd 9b ce e3 bd ff 28 e3 3d
       -0.10619177 -0.103235036 -0.11123391 0.11091804
000010 72 15 6b bd 66 fd 80 3d 91 50 63 3d ef 43 57 bd
       -0.0573935 0.06298332 0.055496756 -0.05255502
000020 5f 63 76 3d 3c 56 e0 bd 94 0c 04 3d 90 f5 c5 bd
       0.06015336 -0.10953948 0.032238558 -0.09665978
000030 46 1d e0 bd eb 61 fa bd c4 94 14 3c 28 2c 87 3b
       -0.109430835 -0.122257076 0.009068672 0.004125137
000040 a6 af 9c 3d 63 2a 82 bd bb 2c d2 bd 76 0f 14 bd
       0.0765069 -0.06355741 -0.10262438 -0.036147557
000050 ba 81 83 3d c8 74 ed bd a6 4e a8 bd 1a ee c9 3a
       0.06421228 -0.1159454 -0.08218126 0.0015406043
000060 5c 1e c5 3d 07 aa 08 3e 87 28 67 3d ed 0d 0b be
       0.09624931 0.1334611 0.056435134 -0.13579531
000070 60 7e d8 bd 36 4c 7c bd c0 20 aa bd af 7a c2 bd
       -0.10570979 -0.061596118 -0.08307028 -0.09496056
000080 15 66 c3 bd ff fd ca bd 54 1c 9f bd af aa 46 bd
       -0.09540955 -0.09911727 -0.07769075 -0.04850262
000090 8e ca fb 3d 72 b9 90 3d 2b d3 1e 3d 11 03 c0 3d
       0.122944936 0.07066621 0.038775604 0.09375585
0000a0 8d 93 8a 3d 00 eb a2 3b 10 7e 11 3d f4 eb b9 3d
       0.06766424 0.004971862 0.035520613 0.090782076
0000b0 00 a9 8e bd 8a 22 96 3d 48 63 d0 3d e2 07 d9 bd
       -0.06965828 0.073308066 0.101751864 -0.10597207
0000c0 06 a6 a1 bc 06 21 bd 3d 33 98 cd bc f8 09 21 3d
       -0.019732486 0.09234814 -0.025096988 0.039316148
0000d0 b6 97 6d 3d 34 61 d7 3d 38 ed 44 3a 83 73 45 3d
       0.05800601 0.10516587 0.0007512155 0.048205864
0000e0 c8 b6 ca bb b2 bf 3b bd 5a 8f 05 be 04 de d6 3c
       -0.00618634 -0.04583711 -0.13042966 0.026228912
0000f0 c6 dd 9e bd c6 4c 95 bd 4b 76 44 3c b9 10 91 bd
       -0.07757144 -0.07290034 0.011991094 -0.07083268
000100 8a 69 3e bf 19 50 f6 be 57 25 37 bf b3 e8 f1 bd
       -0.7437979 -0.48107985 -0.7154135 -0.11811962
000110 55 45 0a be 50 12 d9 3e db 69 3e 3e e5 47 d1 3e
       -0.1350301 0.42396784 0.18595068 0.40875164
000120 5d 8e ad 3e 32 f6 a3 3e 0e 28 2c bf 51 6d d1 3e
       0.33897677 0.3202377 -0.6724862 0.40903714
000130 d1 8e 29 bf 5f c4 c2 3e c2 81 2b 3e 1f ea e9 3e
       -0.66233546 0.38040444 0.16748717 0.45686433
000140 c9 41 62 be 6c 88 9c bf 52 13 c9 3e 86 b2 be 3e
       -0.22095408 -1.2229133 0.39272553 0.37245578
000150 b1 9b 8b 3e 8f 71 6b be 67 31 83 3d 25 01 45 3e
       0.2726722 -0.22992538 0.06405907 0.19238718
000160 f9 d9 32 bf ec 3b 16 be a1 49 88 be 3f 89 e3 3e
       -0.6986385 -0.14671296 -0.26618674 0.44440648
000170 b1 33 f8 be 61 17 cb 3e 81 01 e0 3e f8 cd 1f bf
       -0.48476937 0.39666274 0.43751147 -0.6242366
000180 b0 4f 55 3e 8f 9b 88 3d ca fe 84 3e 1b 22 8e 3e
       0.2083118 0.066702954 0.2597564 0.27760395
000190 51 0e 13 bf e3 e1 bb 3e 60 aa d5 3e 8e 41 89 3e
       -0.5744372 0.36695775 0.41731548 0.26807827
0001a0 77 81 2d be b5 e4 6a be ce e4 cd 3e 34 91 d4 3e
       -0.16943918 -0.22938807 0.40213627 0.4151703
0001b0 ec 2e 90 3e 92 cb bc bf c4 5c b4 be 4b 62 b9 3d
       0.281608 -1.4749625 -0.35227025 0.09051951
0001c0 ab 66 7b bf ec f7 3b bf b4 49 b4 3e 31 ae 2c bf
       -0.98203534 -0.73425174 0.3521248 -0.67453295
0001d0 92 e4 c5 3e a2 07 b9 bf 20 9e 82 3e f0 75 89 bf
       0.38650948 -1.4455454 0.25511265 -1.0739117
0001e0 e7 b8 bd 3e 2b e7 a6 3e f9 dc c6 be 4d 78 83 3e
       0.37055132 0.32598242 -0.38840464 0.2567772
0001f0 03 fa 1f bc 4c e7 b7 bf 30 5f 86 3e 22 ff 4b 3e
       -0.009764197 -1.4367461 0.26244497 0.19921544
000200 80 21 81 3c e2 04 80 3d fd 5d 02 be d3 33 be 3d
       0.015763044 0.06250931 -0.12731166 0.092872284
000210 6e f1 dc 3d d9 fd d8 bd 11 fd 9a bc 99 46 06 be
       0.107882366 -0.105952926 -0.0189195 -0.13112868
000220 b9 99 05 be e9 14 a6 3b a8 61 65 bd b9 63 99 bd
       -0.13046922 0.0050684107 -0.056001335 -0.07489724
000230 aa a7 1b bd 84 0d ab 3d ef 35 ef bd 4b a3 08 be
       -0.038001694 0.08352187 -0.11680209 -0.13343541
000240 12 a4 93 bd 38 3b 28 3c b8 38 b5 3d 11 9d 6d bc
       -0.07209028 0.010268025 0.08848709 -0.01450278
000250 76 8e bb bd 18 f7 85 bc 8a 88 f3 3c 24 74 1e bd
       -0.09158032 -0.016353175 0.029728193 -0.03868498
000260 06 73 ef bc c0 fc 1b 3b 55 74 97 3d 2d f9 01 be
       -0.029229652 0.0023801774 0.073952354 -0.1269271
000270 f5 08 89 bd e5 e8 23 bd f7 cc de bc dd ec 05 be
       -0.066911615 -0.040017027 -0.027197344 -0.13078637
000280 fa e0 89 3d 24 30 ca 3c 75 cd 81 bd 14 01 be bd
       0.06732364 0.024681158 -0.06338016 -0.092775494
000290 68 c5 f2 3c 75 30 08 3d 83 93 a2 3d 74 0e de 3d
       0.029635146 0.033249337 0.07938292 0.108426005
0002a0 28 3a 4e bd 5c c7 c0 bd 0e e5 0e bd 0a 4b d4 bd
       -0.05034843 -0.09413025 -0.034886412 -0.10365875
0002b0 d9 e5 d5 3d 62 56 81 bd 0a 85 e2 3d 19 51 01 be
       0.104442306 -0.06315304 0.110605314 -0.12628593
0002c0 f4 84 07 bd 0e 7a 86 3d ed f2 bb 3d 92 38 79 bd
       -0.03308578 0.06566249 0.09177194 -0.060844965
0002d0 35 46 89 bd fd 12 d7 bd f3 9a ce 3d 18 e7 13 bd
       -0.06702844 -0.105016686 0.10088148 -0.03610906
0002e0 f0 33 2d bd 6a 56 ab 3d d9 bc 1e 3d 44 4c a3 39
       -0.04228586 0.083660915 0.038754318 0.00031146605
0002f0 20 42 cd 3d 25 fc 34 bd ae fa 48 3c 4d 03 ba 3d
       0.10022378 -0.044185776 0.012266798 0.09082661
000300 b4 8b dc 3d 44 de 94 3d e5 3a c1 3d 03 b9 86 bb
       0.10768834 0.07268956 0.09435061 -0.0041114106
000310 11 3a 90 bd 4b db 0c 3d e1 f0 3c 3d 94 10 a0 bd
       -0.07042325 0.03438882 0.046128158 -0.07815662
000320 42 eb 5b 3c 24 b6 ce 3b a5 09 d9 bd 45 d0 30 bd
       0.013422789 0.006308334 -0.10597543 -0.04316737
000330 fd 64 cb bd 21 7b 78 3d ab 31 92 3c 88 36 2f 3b
       -0.09931371 0.0606643 0.01784595 0.0026735384
000340 fb 31 50 3d 8c 8f b7 3c 2a 39 06 be 9c 62 80 bc
       0.050828915 0.022407316 -0.13107744 -0.01567202
000350 49 04 78 bd 3d 79 d5 3d cf bb 98 bc 00 95 04 be
       -0.06055096 0.10423515 -0.018644242 -0.12947464
000360 d7 26 02 be 83 08 70 bd 14 27 0f be 26 5d dc bd
       -0.12710129 -0.058601867 -0.13979751 -0.10759954
000370 ff cc 82 3c 75 3e f2 bd fc 96 c7 bd d5 7c 0f b8
       0.01596689 -0.11828319 -0.09745595 -3.4210116e-05
000380 f9 ad 94 bd 35 0a 4f 3d 77 82 f4 bc 3b 02 88 3d
       -0.07259745 0.050546844 -0.029847367 0.066410504
000390 b8 5f 09 3d 5a 85 59 bd 4f 59 ed bd f8 25 3f 3d
       0.03353855 -0.05310569 -0.115893 0.04666707
0003a0 64 91 b2 bd 48 eb ee bd 0e ce f1 b9 ce ca 98 3d
       -0.08719137 -0.1166597 -0.00046120625 0.07460557
0003b0 72 53 bc 3d 23 58 66 bd 3e 70 96 bc 97 50 9a 3d
       0.091956034 -0.056236397 -0.018364068 0.075349025
0003c0 67 63 e6 3d e0 31 df bc f9 42 35 3d a9 2d a5 3d
       0.11249428 -0.027245462 0.044253323 0.080653496
0003d0 63 c9 ed bc cf 31 4b 3d 3b 59 d0 3d b0 9c a9 bd
       -0.029026693 0.049608048 0.10173269 -0.08281839
0003e0 b5 42 5d 3d 94 37 c6 bd 00 36 9c bd f9 7b 61 3d
       0.054018695 -0.096785694 -0.07627487 0.05504987
0003f0 1c cb 73 bd 6b c3 b9 3d c2 fa 1d 3d 70 d0 22 bc
       -0.059519872 0.09070476 0.03856922 -0.009937391

bias f4 [64]
000000 ed 57 98 3d 9a 59 bf 3e 11 77 8a 3d cf c8 9f 3d
       0.074386455 0.37373048 0.06760991 0.07801973
000010 0a 66 03 3d 79 f5 db 3e 62 a3 9a bd 51 ad d8 bd
       0.032079734 0.42960718 -0.07550694 -0.105799325
000020 73 e5 ec 3e 2a 5a f2 bd 59 8f 60 3d 82 7e 7c bd
       0.46268806 -0.11833604 0.054824207 -0.061644085
000030 66 94 bc bd c4 fa a7 3e 20 1b ce bd eb 07 05 3c
       -0.09207992 0.32808506 -0.100637674 0.008119564
000040 7a bd 1b 3d 4e d8 11 be b7 4a dd 3e 23 c1 fb 3e
       0.038022496 -0.1424267 0.43221065 0.4917079
000050 e5 89 7b 3d ba 76 4c bb f4 fc 62 bd 23 02 d1 3e
       0.061410803 -0.0031198696 -0.055417016 0.40821943
000060 c8 bd d2 bd 9e 9a cb 3d d2 f5 5f 3d ae 79 b9 3e
       -0.10290104 0.099416 0.054677792 0.36225647
000070 f0 c5 9c 3e e3 ad b3 3e 57 2f e4 3e c0 67 04 3f
       0.30619764 0.35093603 0.44567367 0.5172081
000080 52 44 74 3e 2f 3f d1 3e a3 69 d2 bc 1c 9f b4 3e
       0.23854187 0.40868518 -0.025685137 0.3527764
000090 cb 2d fd bd 89 d6 99 3e 7b 18 aa 3e 6c 21 c1 bd
       -0.1236225 0.3004649 0.33221802 -0.09430203
0000a0 3c e3 a2 3e 18 7b 7d bd d4 08 e9 3e 69 d1 bb 3e
       0.3181399 -0.06188497 0.45514548 0.36683205
0000b0 da 70 0a be 2c 3b 4b bd 83 9e be 3e 53 e9 37 bc
       -0.13519612 -0.049616978 0.3723031 -0.011225062
0000c0 3e eb 0a 3e fa 5d c0 3e f6 93 1d 3d c1 f3 8a 3e
       0.135663 0.37571698 0.038471185 0.27139094
0000d0 04 e2 d0 bd 38 d9 db 3e 00 27 f7 3e 23 38 b0 3e
       -0.10199359 0.42939162 0.48271942 0.3441783
0000e0 86 93 de 3e ff 6c 70 3d ed 07 04 be 62 fc 02 3f
       0.43471926 0.058697697 -0.12893648 0.51166356
0000f0 e2 3e af 3d e1 b4 d3 3e ce c1 d2 3e 0b 70 8a 3e
       0.08556916 0.41348937 0.41163486 0.27038607

weight f4 [2, 64]
000000 d2 b6 a6 bd d1 a6 f5 3e df 19 09 3d ee 60 cf bd
       -0.08140339 0.47978833 0.03347194 -0.1012591
000010 05 4e ec bc 24 3a 73 bc 21 47 ff 3d e7 3e f3 bd
       -0.028845796 -0.014845405 0.12464739 -0.11877232
000020 b8 da 05 3f fc 79 b2 3d 40 1d d0 3c 80 3d e4 3a
       0.52286863 0.08714673 0.025404572 0.0017413348
000030 18 ae 14 3d 03 4b 0d 3f 0f 20 1f bd 88 74 5e bd
       0.03629884 0.55192584 -0.038848933 -0.05431035
000040 0d f5 44 3d a8 ce 8b bd f0 54 cd 3e b5 60 08 3f
       0.04808526 -0.06826526 0.40103865 0.53272563
000050 f1 89 70 bd 68 09 a3 bb e8 85 59 bf 15 5f 91 3e
       -0.0587253 -0.0049754865 -0.8496995 0.28392854
000060 fa 14 bc bd 7e 8d 7c bd c6 cd 7c bd 5d 44 09 3f
       -0.091836885 -0.061658375 -0.06171968 0.5361994
000070 19 d5 fa 3e d2 6c 02 3f a9 ae 01 3f fd f2 f4 3e
       0.48990706 0.50947297 0.50657135 0.47841635
000080 22 17 ce 3e 3d fc f4 3e d2 94 74 bd a6 9d c1 3e
       0.40252024 0.47848693 -0.05971224 0.3781559
000090 82 9b 84 bd 39 3d a2 3e 49 1d 10 3f 0a c0 c5 3d
       -0.06474973 0.31687334 0.56294686 0.09655769
0000a0 11 16 f1 3e 1b 2d 72 bf 69 25 c6 3e f5 fd d2 3e
       0.47087148 -0.94600075 0.38700417 0.4120938
0000b0 39 2d b7 bd 6e f7 ff bd 7a 57 e1 3e cb a6 8b bd
       -0.089441724 -0.12498365 0.44012052 -0.068189226
0000c0 8e 5f 3c be a5 e6 db 3e e4 50 f5 3d c8 92 c9 3e
       -0.18395826 0.42949405 0.11978319 0.39369798
0000d0 00 94 2f 3b fb cb dc 3e b3 da 0a 3f f1 fa ea 3e
       0.0026791096 0.43124375 0.5423996 0.45894578
0000e0 70 9d 01 3f 0d 99 74 bd 1a 79 4c be 74 f6 05 3f
       0.50630856 -0.059716273 -0.19968072 0.5232918
0000f0 f5 21 cf 3d 86 f9 12 3f 38 d2 18 3e 6e b7 f2 3e
       0.10113899 0.5741199 0.14923942 0.4740557
000100 90 68 5b 3d 45 6c 09 3f fa 03 ca bd 9d 5e 9d bd
       0.053566515 0.5368083 -0.0986404 -0.07684062
000110 63 6b 1e b8 33 16 02 3f 61 0d 42 bd 41 a4 8e bd
       -3.7770147e-05 0.50815123 -0.04737604 -0.06964923
000120 c1 a2 b0 3e 83 02 23 bd 04 bc 1f 3c 35 59 0a 3d
       0.3449917 -0.039797317 0.009749416 0.03377648
000130 a0 e3 c8 bb da a7 b5 3e 1a b8 55 bd fd 14 c6 bd
       -0.0061306506 0.35479623 -0.052177526 -0.09671972
000140 fe 91 94 bd e6 cb 1f 3d f8 eb e4 3e d9 05 c3 3e
       -0.07254408 0.039012812 0.4471128 0.380904
000150 a3 9e 98 bd 55 9b 16 bc b6 ca 63 bf ce c0 11 3f
       -0.074521326 -0.0091923075 -0.8898119 0.5693482
000160 9c fe e0 bb 34 6e 99 bd c1 db 29 3d 9f 6d c4 3e
       -0.0068662893 -0.07491723 0.04146934 0.38364884
000170 22 f8 b7 3e c3 61 b1 3e c4 91 ba 3e c5 9b cd 3e
       0.35931498 0.346449 0.36439335 0.40157905
000180 3f b9 00 3f 34 8d eb 3e d9 c0 5c 3c 8c 0a 06 3f
       0.50282663 0.46006167 0.013473713 0.52359843
000190 7c 89 a3 bb 00 d0 07 3f af e3 12 3f 70 27 4a 3c
       -0.0049907546 0.5305176 0.5737867 0.012338504
0001a0 8b 7a d6 3e b4 48 57 bf 00 28 fa 3e 58 ca f3 3e
       0.41890368 -0.8409531 0.48858643 0.47615314
0001b0 2c 82 ac bd 36 f7 f5 3d 74 63 d8 3e 18 03 af bd
       -0.08423266 0.12010042 0.42263377 -0.08545512
0001c0 56 3b ec 3e a9 71 f3 3e 93 95 77 bd 61 c2 00 3f
       0.4613902 0.47547653 -0.06044538 0.502966
0001d0 f6 a3 97 bd 26 8e ef 3e b0 6f d9 3e 8f 6f db 3e
       -0.0740432 0.46788138 0.42468023 0.4285855
0001e0 84 da ac 3e 21 7a f0 bd b6 83 8a bf 3b 3f b4 3e
       0.33760464 -0.11742044 -1.0821445 0.3520449
0001f0 2c 31 4a bd 5a 7b d1 3e f9 9d eb 3e 99 41 d5 3e
       -0.0493633 0.40914422 0.4601896 0.4165161

bias f4 [2]
000000 33 7e 93 3e 5f e3 8a 3e
       0.2880722 0.27126595
