save/model/cartpole_dqn_noisy_hid_128_128.pth (torch_old, 208711 bytes, 18 tensors)

weight f4 [128, 4]
00000000: f5cb 733e 02b1 413d 3fe0 b1be 8136 f63d
00000010: 2b4e 7e3e b35e b53c 3fad e8be 60e4 12bd
00000020: be8d b7be 1ea1 86bd 9f66 2f3e fa44 02bd
00000030: d2ce 9dbe edba 35be 21a4 ed3e 26bf dfbd
00000040: 0371 a4be 0271 21be 9fe2 d4bd 4149 cabd
00000050: 7a42 9ebd f86c 7f3e 2768 9e3e 84a1 143e
00000060: a916 783e 3292 36be fa5a 043f cd79 b5be
00000070: 24eb d93e 07b1 d2bd ed6b b2bf f0ab 5dbe
00000080: 5bae 423c f5e7 2a3c fe08 14bf 8834 08be
00000090: 63c7 903e 14ed 85be 87d8 b23d c963 033e
000000a0: 020b 63bd af4c 263e 3761 96bd 3f01 173d
000000b0: bdcc bcbe 129e 9c3d c23f 0d3f a876 d83d
000000c0: dcb5 aa3c f0a4 803e 7a56 903e 8a6f a53e
000000d0: 294f 143e 47d9 d13e b851 9b3f a161 d93e
000000e0: 7238 8ebd e437 293e 3441 2bbf c106 863d
000000f0: f6a9 86be e5e0 9cbe 42cb 193f 5745 16be
00000100: f963 00be b782 1fbe ab48 3abe 56c1 80bd
00000110: 7cc6 3cbe 26f6 1cbe 5803 8dbf 3080 2abe
00000120: 9603 ae3e ca9c 39be 2cdb d4be 73e1 debc
00000130: 02f2 713e a0e1 06bd d147 f53e c5c5 3cbe
00000140: 8c0c 28be 1d61 333e 236a 273e c9ab 263e
00000150: 20fa 2e3f 7ae5 d5bd 6acb b5be 71b9 b7bc
00000160: 109f c0be 9d65 fb3c 8e05 323f a009 d53c
00000170: 117e a93e b47f eabb dbc3 8f3f ae95 bc3e
00000180: 60a6 2bbe 247b 753d eceb 1b3e c02d cc3d
00000190: 467e 7cbd 2f5a a7be e9a0 9b3e 292b 2dbe
000001a0: 5bb9 84bc 23b8 6cbe 62c6 e5bc c9ac a83d
000001b0: cf09 0bbc b97e b1be d532 2d3e a1c9 d3be
000001c0: ee17 9e3e 01b6 83be 189b e8be 42ee 263d
000001d0: 22ee 993d 7463 75be fc3c 09bf 9c6b 193e
000001e0: 0b91 9c3e 6633 8fbe 86c5 243e 0e2c 45bd
000001f0: 65fb 30be fafd dfbc 60d2 a1bf fcd2 8abe
00000200: 5ee6 883d b384 1b3d 0503 d8bd 2182 c5bd
00000210: 5704 db3d c29d 52be a454 ccbf 5ea7 b5be
00000220: 8197 d53e 0e41 153d 5b29 26bf 9291 81bc
00000230: e416 91be 7cb3 8fbe 25f8 283f fb77 82bd
00000240: 71c9 483d 8f4e bdbd a56c afbd ca62 bfbe
00000250: 67ec 60be 8795 a83e 1b18 bcbe 18a0 8e3d
00000260: ab9c 9c3e 2411 1ebe 8c37 8abe 79ff 9bbe
00000270: 88b7 203d d7ba acbd 093e c23d a3f1 a13d
00000280: 885c 98bc 6b96 c3be 041d 5a3f 7dc8 98bd
00000290: 41e1 86be cdcb e9be 2191 ebbe 8b33 91be
000002a0: 60e6 bd3e 7387 35be e053 76bf 59df 203e
000002b0: 54bc b13e b977 81be 7f5f 033d aa28 583e
000002c0: d791 4ebe f9d5 4d3e 1989 1c3f 8760 a63d
000002d0: 6a75 b03e 40c0 febd 57e4 503d 7699 2e3d
000002e0: 2e4e 10be 3b85 31be 140e 29bf 5c6c a0be
000002f0: a09b 88be 2d74 683e b314 e03e 0a73 113e
00000300: 7b80 0c3e f142 ec3e 4854 843f 0560 cf3e
00000310: 6d1b c3bd 169b 323e abc2 f8bc 4b1c 1dbc
00000320: 313b e73d f5ee 7cbe ab63 aa3d 94b9 2cbe
00000330: 12bd 2cbe 27db a43e db95 c4be cf73 ac3e
00000340: ec13 18bf 3b10 21bc 0602 283f 6d73 9b3d
00000350: a356 263c f7fd 02be a178 e83d 40ad 3f3d
00000360: 91fb 5abb 2668 e6bd 389b abbf 53d6 3abe
00000370: c54d 243f 460a 75be 25e4 48be d09c cabe
00000380: d59f b7be afed d7bd b471 4bbf 1fd0 b9bd
00000390: 20ee babe b639 883e ff42 9c3e e1f6 813c
000003a0: c6fb 773e 5ac7 75be 79dd cb3d a480 cc3e
000003b0: a74c b1be 68fa a13e 67dd 2b3f 103b f43d
000003c0: c112 a43e 54cd 503e 5b8a 1c3e 50f3 84be
000003d0: 9f42 cabe e2ea bd3e 27dd a5be ac5e c63e
000003e0: 22b5 143e 8828 b9be 8981 9a3e 462f 79be
000003f0: 32be 5bbe b7af e63e ee1b c33d d066 d63e
0.23808272 0.04728795 -0.347414 0.120221145 0.24834506 0.022139883 -0.45444676 -0.035862327
-0.35850328 -0.065736994 0.1712899 -0.031804062 -0.30821854 -0.17747088 0.46414283 -0.109251305
-0.3211747 -0.15765765 -0.10394787 -0.09877253 -0.07727523 0.24943912 0.30938837 0.14514738
0.24227394 -0.17829207 0.5170132 -0.3544449 0.4256221 -0.102876715 -1.3939186 -0.2164762
0.01188239 0.010431279 -0.5782622 -0.13301289 0.2827712 -0.2615744 0.087327056 0.12831034
-0.05543042 0.1624019 -0.07342761 0.036866423 -0.36874953 0.07647337 0.5517541 0.10569507
0.02083867 0.25125837 0.28190976 0.3231166 0.14483322 0.40986082 1.2134314 0.42457297
-0.0694436 0.16525227 -0.6689637 0.06544257 -0.26301545 -0.3064033 0.6007577 -0.14674889
-0.12538137 -0.15577208 -0.18191783 -0.06286876 -0.18435091 -0.15328273 -1.1016645 -0.16650462
0.3398711 -0.18126217 -0.41573465 -0.027207112 0.23627475 -0.032930017 0.47906354 -0.18434818
-0.16411036 0.17517515 0.16349082 0.16276468 0.6835041 -0.1044416 -0.35506755 -0.022427293
-0.37621355 0.030688101 0.69539726 0.026005566 0.33103994 -0.0071563367 1.1231645 0.36832947
-0.16762686 0.05993189 0.15226716 0.099696636 -0.06164386 -0.32685992 0.30396202 -0.16910996
-0.016201666 -0.23117118 -0.028048698 0.08236081 -0.008486225 -0.34666994 0.16913922 -0.41364768
0.30877632 -0.25724795 -0.45430827 0.040754564 0.07516123 -0.2396372 -0.5360868 0.14982456
0.3057941 -0.279689 0.16090974 -0.048137717 -0.172834 -0.027342785 -1.2642326 -0.27114093
0.06684564 0.03796835 -0.10547451 -0.09643961 0.10694187 -0.20567992 -1.596333 -0.35479254
0.4171715 0.036438994 -0.64906853 -0.015816484 -0.28337777 -0.28066623 0.6600364 -0.06370541
0.049020234 -0.092434995 -0.08565644 -0.37380058 -0.2196518 0.3292658 -0.3673714 0.06964129
0.30588278 -0.15436226 -0.26995504 -0.30468348 0.03923753 -0.08434074 0.094844885 0.07907417
-0.01859881 -0.38200697 0.85200524 -0.07460115 -0.2634373 -0.456633 -0.46009162 -0.28359637
0.37089825 -0.17727451 -0.96221733 0.157102 0.34713995 -0.25286654 0.032073494 0.21109262
-0.20172821 0.20101155 0.61146694 0.0812388 0.3446458 -0.124390125 0.05099901 0.04262682
-0.14092323 -0.1733598 -0.66037107 -0.31332672 -0.26681232 0.22700568 0.43765792 0.1420404
0.13720886 0.46144822 1.0338221 0.40502945 -0.095267154 0.17441973 -0.030366262 -0.009589265
0.11290587 -0.2470053 0.083197914 -0.16867667 -0.16869 0.3219845 -0.3839558 0.33682105
-0.594054 -0.00983053 0.6562809 0.07590375 0.010152492 -0.12792192 0.11351133 0.046796083
-0.0033414105 -0.112503335 -1.3406744 -0.1824582 0.64181167 -0.239297 -0.1961828 -0.39572763
-0.3586413 -0.105433814 -0.7947037 -0.09072899 -0.365098 0.2660653 0.30519864 0.015864791
0.24217138 -0.24001828 0.09954352 0.39941895 -0.34628794 0.31636357 0.6713471 0.11925328
0.32045558 0.20390826 0.15287153 -0.25966883 -0.39503953 0.37093264 -0.32395288 0.38744104
0.14522222 -0.36163735 0.30176952 -0.2433444 -0.21459273 0.45055935 0.095268115 0.41875315

bias f4 [128]
00000000: 0959 cd3e b2a5 143f af25 b3be 045a f3be
00000010: 9a0d eebe 48b6 043f 8534 ee3e 4115 c9be
00000020: b90d 97be 38ea 8dbe 11d8 913e 4af9 bdbe
00000030: a923 3c3f bd4f 25be 3295 26be 78d8 f4be
00000040: 75c2 083f c055 9fbe 7208 a6be a209 003e
00000050: 0932 1f3f 1705 93be 1fe0 e9be c7e2 7cbe
00000060: 38ab d73e 3f8e fd3e a7a7 263f 5164 0e3f
00000070: d472 a8be 3b0c 313f 234c 06bf 340d 6dbe
00000080: a4c0 df3e c1e3 11bf 4b36 21bc a01c 11bf
00000090: 9b9f 0d3f 7f41 8e3e 489e fdbe 7ff2 2b3f
000000a0: 1966 c2be a172 04bf 42b5 133f bb68 ea3e
000000b0: 0b34 893d 7400 3a3f cef7 a1be cf9e 553e
000000c0: e231 663d 0d23 9d3e 0bf8 b63e 5466 95be
000000d0: 4f63 fabe 39e6 a63e a77d 2cbe 177f c6be
000000e0: 1a1c 82be a060 113f 981a 30bf be15 873e
000000f0: 91d3 3dbf 2efd 233f ef3e eb3e e4c8 043f
00000100: 56ea dfbe 2d89 5ebe 8dcc 2a3f 3041 91be
00000110: 7455 50be c7cd 8bbe e31e b53e 7214 153f
00000120: 4411 c03e 1088 c8be f80b 393f 9cd2 91be
00000130: 826c a13e b391 7bbe 395c 193f 7c06 813e
00000140: 3f31 44be dd3c 103f dbfa 65be 1341 38bf
00000150: 6232 723e a235 cf3e a186 363f c6e6 193f
00000160: ba74 403f 2f33 d63e feef 2d3f ab3d 88bc
00000170: 452d 8bbe 3f62 db3e 196e 993e a4fb dfbe
00000180: 8bdd a6be 7ddc bdbe 25e0 9cbe c1c6 84be
00000190: b99f 083f 367f c63d 4deb 04bf c2b5 0bbe
000001a0: 0e88 fb3e bb1f 123f 78bd 333e b1c1 93be
000001b0: 7e5c 493e 0d49 a73e fce6 fdbe cd17 333f
000001c0: fad3 693e c687 173f f8df ec3e e3a8 44bf
000001d0: 65b0 c0be a566 cfbe 4d87 1e3f 04fa b43e
000001e0: 0293 b1be 8fa0 b7be 242b ddbe 8034 12bd
000001f0: a61e 44be 9ef0 07bf a65a 233f f899 b13e
0.4010699 0.5806533 -0.34989688 -0.47529614 -0.46494752 0.5184064 0.46524444 -0.39274028
-0.29502657 -0.27717757 0.28485158 -0.37104255 0.73491913 -0.16143699 -0.16267851 -0.47821403
0.5342172 -0.3112011 -0.32428318 0.12503675 0.6218572 -0.2871482 -0.45678803 -0.24695884
0.42122817 0.49522588 0.6509957 0.5562182 -0.32900107 0.6915929 -0.52459925 -0.23149568
0.4370166 -0.5698815 -0.009839605 -0.56684303 0.55321664 0.27784345 -0.49534822 0.67166895
-0.3796852 -0.5173741 0.5769845 0.45783028 0.066993795 0.7265694 -0.31634372 0.20861362
0.056199916 0.30690804 0.35736117 -0.29179633 -0.4890389 0.3259752 -0.16844808 -0.38768837
-0.25412065 0.56788063 -0.6879058 0.26383775 -0.7415095 0.64058197 0.45946452 0.51869035
-0.43733472 -0.21732016 0.6671837 -0.28370047 -0.20345098 -0.27305433 0.35375127 0.5823432
0.37513173 -0.39166307 0.7228389 -0.28480995 0.31528097 -0.24567299 0.59906346 0.2520026
-0.19159411 0.5634287 -0.22458975 -0.71974295 0.23652032 0.40470606 0.7129918 0.6011776
0.7517811 0.41835925 0.67944324 -0.016630968 -0.27182975 0.42848393 0.2996681 -0.43746674
-0.325909 -0.37082282 -0.3063976 -0.25932887 0.5336872 0.09692232 -0.5192154 -0.13643554
0.4912724 0.57079667 0.17552745 -0.28858712 0.19664189 0.3267292 -0.4959029 0.6995819
0.22834769 0.5919155 0.46264625 -0.768202 -0.37634578 -0.40508 0.619252 0.35346997
-0.3468247 -0.35864684 -0.43196976 -0.0356946 -0.19152316 -0.5310153 0.63810194 0.3468778

weight_mu f4 [128, 128]
00000000: 9ec2 953e fd1b 9e3e fd9f 04bf 2957 bcbe
00000010: 35bd 9cbe 71e6 933e d068 963e 6c0c a2bf
00000020: 6efe 84bd 2c9a 47be a00f 1f3e 2111 82bf
00000030: a4b3 513e 5f94 d0be 130e 443d 7a47 fdbe
00000040: 5645 393e f665 4dbf efec 64bc 9332 1a3e
00000050: ff4c 6a3e 947a 9fbd 7f1f a7be 64bb debb
00000060: a9ec 383e 4aad 273e 0680 693e 828a 4a3e
00000070: 3b09 f1bd b7ac ab3e 0994 b93d 8060 23be
00000080: 010d 533e ffa2 8ebf 4d82 d4bc 9d9e 94be
00000090: a8a2 253e 4c15 1d3e 954c cbbd 3b54 6d3e
000000a0: e9d6 21be c412 1cbf 552e 893e 54d1 413e
000000b0: 984a a53c b3d8 923e 5c86 03be 9a00 c23d
000000c0: 5f68 b6be ffb7 503e 2885 2b3e 92dd ffbd
000000d0: 34c7 3abf c029 463e 1366 cabe f74a d2be
000000e0: bdf4 bcbe fd53 483e a2d5 49be 0e58 903d
000000f0: e708 e03c 8ea5 ae3e 8312 913e a40e 563e
00000100: f88e 6ebe 6de3 01bf bb34 703e 976c 60be
00000110: bb57 31be dab5 833b c1f4 693e 701c 113e
00000120: c073 593e fe45 a2be 4220 623e 055e 87be
00000130: 944c a93d cfab b7be 7e31 2a3e 698f 0c3e
00000140: d21d 2bbe 68c1 653e c4ba fabe 61a0 7bbe
00000150: 4015 c83d 4570 5e3e 9b52 b33e 1b3d 4f3e
00000160: 2f07 373e 9b77 333e 2cb8 6d3e 26aa 9b3c
00000170: e0f7 65be b22a 9e3e 9f2e 1f3e eace 33bc
00000180: c48d c3be 7daf 1fbf 63c9 93be 4a83 4fbe
00000190: 5014 843e 8d3d c83b 0f75 d6be ee22 99be
000001a0: 1d3c 3d3e 8360 333e f8e7 3a3e c920 a2bc
000001b0: f94d 373e f9e6 7c3e 0c12 60be 0272 683e
000001c0: e965 fa3d 723d 933e c26f 673e da4d dabe
000001d0: 316c c1bd d468 54be 9101 8b3e ed1f 633e
000001e0: e890 ebbc c178 1ebf f1c3 ccbe a55c 7bbe
000001f0: 4f1d 8bbe 74c6 ebbe e6c2 8b3e caef 693e
00000200: 79bc 01be 784f 6a3d c2e9 8f3d 7a5e f7bc
00000210: 5397 753d 85ce fcbb 4ff6 50bd e13d 903d
00000220: 1a14 76bd 8a2b ccbd 410d b73c 1e21 3cbd
00000230: 809e 19be daea 9dbd d1ff 29bd fa43 073d
00000240: 09b1 cebd 8589 f43d 45da 00be a626 963c
00000250: 2e81 0abe 5903 b23c aeb8 133c 236a 42bd
00000260: 02e9 d4ba 6ffb 05bd fffd 01be f52b d6bd
00000270: 65f1 8d3d 3eee 053c 778f a93d 346b 5c3d
00000280: 8710 88bd dbcd 533d b1a6 f9bc 97e4 fcbd
00000290: 0830 413d 0647 113d 9648 7d3b fb4f 43bd
000002a0: b28e 4abc eb63 0abd f1b1 0ebb ef8e e63c
000002b0: 2136 01bd 24a0 c5bc 065e 57bd 18a1 b3bd
000002c0: 9ff0 bebc 286e 9b3d a851 34bd bf63 a7bd
000002d0: 3a46 a3bd ac92 26bd 1bb4 c03d 19cf 14bd
000002e0: c33f 48ba a815 21bc c501 65bd 619b b2bd
000002f0: 8e25 4dbd 918d 31bc d77d cbbc b7f7 98bd
00000300: fe5f d4bc 5990 19be 8d85 c3bd 88c3 a3bd
00000310: b97c 78bd 844d 7dbd 68c1 1bbb 9f1d 8b3d
00000320: 6a81 26bd 3f77 6fbd ffc1 02bd 945f b6bd
00000330: 89b5 933d 3877 153d f7b7 5fbc e937 2939
00000340: 8be7 363e b357 a9bc 359c 7e3d b1d3 07bd
00000350: a02e 9539 d449 8f3d 5532 a5bd fb6a f6bc
00000360: ba79 09bd e8bf d1bb fd58 a1bd 1145 393d
00000370: 3a22 923d 26d7 39be 72ec c0bd 63d7 703d
00000380: d40c e63c dc30 c2bb fc85 0dbd 0cef 2d3d
00000390: 0da6 adbc 150d 113d df9d 923c d4ad 543d
000003a0: 06dc 5a3c b0bd bfbd 8425 103d 00d3 9e3d
000003b0: 9577 6a3d dfeb ac3b e4ba 883d daa1 84bd
000003c0: a0da 94bd d40c aa3c 1a57 79bd a4f4 61bd
000003d0: a771 893d 6573 60bd a40f 04be 8183 513d
000003e0: a843 5dbd 6951 a5bc 1002 27bd 9613 7cbc
000003f0: 4a51 eabc 499c d4bc f3a9 70bb 24ad c83b
0.29250044 0.30880728 -0.5180662 -0.36785248 -0.30613104 0.2888675 0.2937684 -1.2660041
-0.06493841 -0.19492406 0.15533304 -1.0161477 0.20478684 -0.40738198 0.047864985 -0.49468595
0.18092856 -0.80233705 -0.013972505 0.15058355 0.22880934 -0.07787052 -0.32641217 -0.006797241
0.18059029 0.16374698 0.22802743 0.19779399 -0.11769339 0.33530208 0.090614386 -0.1595478
0.2061043 -1.1143492 -0.025941039 -0.29027262 0.1617533 0.15340155 -0.09926716 0.23176663
-0.15804638 -0.60966134 0.2679316 0.18927509 0.02017717 0.28680953 -0.12844223 0.09472771
-0.35626504 0.20382689 0.16750014 -0.12493433 -0.7296021 0.19351864 -0.39531 -0.4107282
-0.3690547 0.19563289 -0.197104 0.07048045 0.027347995 0.34110683 0.28334436 0.20904022
-0.23296726 -0.5073765 0.23457615 -0.21916424 -0.17318623 0.004019481 0.22847272 0.14171004
0.21235561 -0.31694025 0.22082618 -0.2643892 0.08266559 -0.35873267 0.16620442 0.13726582
-0.16710594 0.2243706 -0.48970616 -0.24572898 0.09769678 0.21722515 0.3502396 0.20238154
0.17873834 0.17526095 0.23214787 0.019002032 -0.22457838 0.3089195 0.15545128 -0.010974625
-0.38194096 -0.6237715 -0.28864583 -0.20264927 0.25796747 0.006110853 -0.41886184 -0.29909462
0.18479963 0.17517285 0.18252552 -0.019791024 0.17900838 0.24697484 -0.21881884 0.2269974
0.12226469 0.28757817 0.22601226 -0.4263752 -0.09444464 -0.20743114 0.27149633 0.22180147
-0.02875562 -0.61903006 -0.3999324 -0.2454706 -0.27170798 -0.46049845 0.27297133 0.22845379
-0.12669553 0.057204694 0.07027008 -0.030196417 0.059958767 -0.0077150487 -0.05101615 0.070430525
-0.060077764 -0.09969242 0.022345187 -0.04593002 -0.15001869 -0.0771081 -0.04150373 0.033023812
-0.100923605 0.11940292 -0.12583263 0.018328976 -0.1352584 0.021730112 0.009016199 -0.0474645
-0.0016243758 -0.03271049 -0.12694548 -0.10457603 0.06930808 0.008174477 0.08279317 0.053813174
-0.06643777 0.05170999 -0.030474992 -0.123482876 0.047164947 0.035468124 0.0038648 -0.047683697
-0.012363123 -0.033786695 -0.0021773542 0.028144328 -0.031545762 -0.024124213 -0.052579902 -0.087709606
-0.023308096 0.0758937 -0.044023186 -0.08173322 -0.07972379 -0.04066722 0.094093524 -0.036330316
-0.0007638896 -0.009831823 -0.05590989 -0.087210424 -0.050084643 -0.010836975 -0.024840279 -0.07469123
-0.025924679 -0.1499647 -0.09546957 -0.07996279 -0.06066582 -0.061841503 -0.0023766402 0.06792759
-0.040650763 -0.05846333 -0.03192329 -0.08904949 0.072123595 0.03649065 -0.0136547005 0.00016137924
0.17861764 -0.020671701 0.06216069 -0.03316087 0.00028454233 0.069965035 -0.08066241 -0.03008031
-0.033563353 -0.006401051 -0.07878301 0.045231882 0.071354344 -0.18148479 -0.09420098 0.05879916
0.028082289 -0.0059262346 -0.034551606 0.0424643 -0.021197343 0.035412867 0.017897544 0.051923588
0.013358122 -0.09362352 0.035192028 0.07755089 0.05724295 0.0052771415 0.066762716 -0.06476183
-0.07268262 0.02075807 -0.060874082 -0.055164948 0.067111306 -0.05479755 -0.12896591 0.051150803
-0.0540196 -0.020180421 -0.04077345 -0.015385529 -0.028603215 -0.025953429 -0.0036722391 0.0061241556

weight_sigma f4 [128, 128]
00000000: efc8 13be d74d c13b 1bc4 edbd d70b 3dbe
00000010: 2a0e 6f3e f0e3 233c 3506 863c 0b91 3cbd
00000020: c31d 1bbe 65b6 313b 7e92 503d b2e4 ae3d
00000030: daf8 923d 6e0a 93bc d3d0 c53c 4257 b83d
00000040: ce7c 8f3c 9448 203e 51b1 593e 2cd1 143e
00000050: 9055 bf3c bb2e 9cbd e5d2 bcbd b4d5 f73d
00000060: f0af 0cbd d582 7fbd 913f 64bd 7926 fc3b
00000070: f348 593e dc6a 52bc 717e 833d 0972 e8bd
00000080: c046 82bd 31f0 873e 93a8 393e a202 25bd
00000090: 24b6 7abd f808 ef3d a8aa d23d a9d6 29bd
000000a0: 8137 383d d7f4 1cbd 47ed cbbc e811 c23d
000000b0: 4089 2f3e a796 6f3b f659 bbbc 2417 943d
000000c0: da0d 03bc 4762 58bc 34dd da3d 8fd0 313d
000000d0: ae72 e03d 64cd 453d cc7b b03d 984d ae3c
000000e0: ee45 d1bd 3f7c 09bd d8ef 02bd 6026 0bbe
000000f0: d7f2 843d 71c7 1cbd 6c09 b5bb 3a6b be3d
00000100: 6cc3 883d 5bfd d23d eb43 19b9 8a0c 37be
00000110: f63a 973d 8f00 843d 6fb6 2cbd 5bb7 29bd
00000120: 51b8 2f3d 1c1d 8cbc ae74 2ebd be57 a83e
00000130: 50ac c33d 9c69 59bd 0e33 94bc 4caa a13d
00000140: 394a 97bc 515f 30bd c2b7 853c 1159 8b3e
00000150: 11fa 683d 9ff8 90bd efe3 cb3c 6e24 3bbd
00000160: 9032 b1bd 2a09 2abd 1e30 e63b 9f0d 033d
00000170: 4d0a 8c3d 2849 9bbd 58c7 e4bd 23a7 743e
00000180: 0f29 c73c dd90 02be 9de5 63bd 23b9 e3bb
00000190: 7e25 24bd 69a5 b5bd e555 ccbd d46c cd3d
000001a0: 0ca8 3f3d 1aa7 dc3c ea2e bfbb 454c ec3d
000001b0: 0aa6 05bc 936d f03d 2886 943d 92b5 793d
000001c0: ea49 073e fe41 bebc cdc3 863d a3ae 6d3d
000001d0: df0c ba3d 2273 0e3d 0f0d 0abd 6e8f 413c
000001e0: e993 753e c83c 9e3d b5ef 793d 0339 3b3d
000001f0: 02b6 a53c d76b 1e3b 3156 40bd 1e86 d43c
00000200: 63c0 ef3c 20ad a23d 2e5b 1a3d 099f 6c3d
00000210: 628b 7f3c 83b4 273d bbfb 603d 7e9e 173d
00000220: 84e0 213d 1f4a 0d3d 5825 713d c9ab 4d3d
00000230: e666 68bc 98a8 883d 3f5d 863d 66b5 253d
00000240: 58a5 063c a154 483e aeaa 343d a21c a13d
00000250: cbb1 773d 5ace 623d bfa3 f3bb 1f8a 2f3d
00000260: a329 183d 837d dc3c ce33 e93c deff 573d
00000270: f304 353d fc24 603d f304 353d 0ffc 413d
00000280: 5dbe 4b3d b5c4 cb3c 92c5 6c3d d121 1a3d
00000290: c692 ff3c d018 813c d960 3b3d 745b 1c3d
000002a0: b5a4 543d 8753 3abc c877 a33d 71d2 933c
000002b0: 9046 793c e3cc 123d 7b4e 173c bf8c 183d
000002c0: d039 093d cef2 8c3d f3fb b33c 9772 da3d
000002d0: 57f0 6f3d d3d2 e83c f499 333b 66b6 043d
000002e0: f1f9 993d 64a0 3b3c 39d6 843d 4297 9d3c
000002f0: 777e 5f3d c3ae 373d 2ffe 9a3d 6c4a 223d
00000300: bac6 3b3d e90b 44ba a768 893d 0f08 863d
00000310: 8729 423d 39c1 973c fccb 2d3c a869 763d
00000320: 656a 0e3d 225e 1e3d f48b 223d c983 e13c
00000330: 62ae 9b3c a7ed 3e3d 453c be3b d39a 893c
00000340: 799b d73c 843d 663b 8456 b43c 6d4f 6b3d
00000350: ac25 593d 34d9 263d c468 073d 0b0d 5b3d
00000360: ca6e 463d 5b48 1b3d b53d 093d 4500 943d
00000370: c58a 1e3d 0b8d cf3c 5349 2c3d d835 8c3d
00000380: 1049 4abd 2b83 613b 6c8f 8f3d 00f8 0a3d
00000390: d274 083d 3c0f 3c3d f617 b83d 2038 523c
000003a0: 6c78 1a3d f380 4d3d b67b d93b 1a7c 843d
000003b0: 705f 893d 3869 343d d01b 1b3d 3249 33bc
000003c0: 4725 df3c 2ff3 4b3d 31de 083d bc92 073d
000003d0: f304 353d 4f1e b63c 2f0a 603d 19e3 373d
000003e0: 315f 543d de46 0f3d 6d7c a43c 1772 2c3d
000003f0: f577 103c 6c7c 173d d5b4 cc3c e0d0 b63c
-0.14432119 0.005899172 -0.1160967 -0.18461548 0.23345247 0.010003075 0.016360382 -0.04603676
-0.15148072 0.0027116772 0.050920956 0.08539714 0.07176371 -0.01794931 0.024147427 0.09001018
0.017515566 0.15652686 0.21259047 0.14532918 0.023356229 -0.07626101 -0.092199124 0.121013075
-0.034347475 -0.06238063 -0.055724684 0.007695016 0.21219234 -0.01284286 0.06420601 -0.113498755
-0.06361151 0.2655044 0.18130712 -0.040285714 -0.06120886 0.116716325 0.10286456 -0.04146448
0.044974808 -0.038319435 -0.024893416 0.094760716 0.171422 0.0036558302 -0.022870045 0.07230976
-0.007998908 -0.013207025 0.106867224 0.043411788 0.109593734 0.04829158 0.086173624 0.021277234
-0.10218416 -0.033565756 -0.031967014 -0.13588858 0.064916305 -0.03827614 -0.005524805 0.092977956
0.06677899 0.1030223 -0.00014616518 -0.17875877 0.07384293 0.06445419 -0.04216617 -0.041434627
0.042900387 -0.017103724 -0.042591743 0.32879442 0.095543504 -0.053079233 -0.018090751 0.0789381
-0.01846801 -0.04305965 0.016322974 0.2721639 0.056879107 -0.07078671 0.02488896 -0.04568904
-0.08652222 -0.041512646 0.007024779 0.031995412 0.06837902 -0.07582313 -0.11170834 0.23891883
0.02431157 -0.12750573 -0.0556389 -0.0069495603 -0.040074818 -0.0886944 -0.099773206 0.10030523
0.04679112 0.026935149 -0.00583445 0.11537985 -0.008157263 0.117396496 0.07252151 0.060964175
0.1321179 -0.023224827 0.06580315 0.058027875 0.09084486 0.034777768 -0.03370386 0.011813981
0.23982204 0.07726437 0.061019618 0.045708667 0.02022839 0.0024173164 -0.0469572 0.025942858
0.029266542 0.07943177 0.037684612 0.057768855 0.015597196 0.040943634 0.05492757 0.037016384
0.039520755 0.034494516 0.058873504 0.050212655 -0.014184689 0.06672782 0.06560754 0.0404562
0.008218132 0.19563533 0.044108085 0.078667894 0.06047229 0.055372573 -0.0074352915 0.042856332
0.037149083 0.026915317 0.028467085 0.05273425 0.044194173 0.05472277 0.044194173 0.047359522
0.04974209 0.02487407 0.057805605 0.037629906 0.031197917 0.015758902 0.045746658 0.038173154
0.05191489 -0.0113724535 0.07981831 0.018044682 0.015214577 0.035839926 0.00923502 0.0372436
0.0335024 0.06882249 0.021970725 0.106663875 0.058578815 0.028420841 0.0027404996 0.03240051
0.07518376 0.011451814 0.06486172 0.019237164 0.054563966 0.0448444 0.07568013 0.039621755
0.045843817 -0.00074785814 0.06709414 0.06544506 0.047402885 0.018524753 0.010607716 0.060159355
0.034769434 0.03866399 0.03968425 0.02752866 0.01900405 0.04661336 0.0058055245 0.016797459
0.026319252 0.003513188 0.02201391 0.057448793 0.053014442 0.040734485 0.033058897 0.053479236
0.0484455 0.0379108 0.033506114 0.07226614 0.03870656 0.02533581 0.042062115 0.068462074
-0.049386084 0.0034410458 0.070097774 0.033927917 0.033314534 0.045912966 0.08988945 0.012830764
0.0377125 0.050171804 0.006637062 0.06468983 0.067076564 0.044045657 0.03786832 -0.010942744
0.027239455 0.049792465 0.033415023 0.03309892 0.044194173 0.02223125 0.05469721 0.04489431
0.051848594 0.034979694 0.020078862 0.042100992 0.0088176625 0.036983892 0.024988571 0.022316396

bias_mu f4 [128]
00000000: 3a17 a03e 9672 dfbd eb22 d9bc 58d9 e13e
00000010: 0382 983e 3976 ab3e 0329 8b3e b4cc c1bd
00000020: 8cb0 0bbd d826 e2bd 17b6 88bd 4243 783e
00000030: 1d80 bd3e a9be 2ebb 6ce4 3ebd 4fca 5a3e
00000040: e98c 88bc 2596 c23e 9b1b ebbc e9cc 2ebd
00000050: 8d1b a23e 2abe b33e 8922 0bbe 65a6 f2bd
00000060: f3c2 403e 4ec2 28be a60c c13e 8f4d a0bc
00000070: 142e 01be 535e a73e 9f0e 833e 84f8 cbbc
00000080: 16af a53e a543 b53e d715 d1bd 188d e33c
00000090: 70f4 87bd af9f 28be 2f6d 28bd fa32 24bb
000000a0: 28a4 c5bc 7518 9b3e ff14 993e 8531 41bd
000000b0: ff4f ca3e d974 833c f5ef a9bc b348 bc3e
000000c0: 4ff6 15be 9985 bcbd 0776 97bd 7d2b de3e
000000d0: c784 3bbd ce92 35be 08c5 20bd f408 d2bd
000000e0: 88d0 ffbc 50f2 05be 11f8 07be d5a0 4ebd
000000f0: 9751 8d3e c7cb 0a3e 7dc6 c73e e9b8 9abd
00000100: a47c 2b3e b51b bfbd 996f 41bd 1b8d 8abd
00000110: 1099 c13e e9a7 a4bd 5418 143c e608 e43e
00000120: cb47 b93e 78f5 9d3e b459 953e c973 a93e
00000130: 4366 793e 5067 96bd 3292 05be f547 7f3e
00000140: 5e65 b33e d1c8 d13c bcc1 a23e cd8f bb3c
00000150: 1e42 bc3e 2842 dfbd 24b5 ce3e bd13 6d3e
00000160: 94d7 d23e 9b83 213c ec1b c33e dc61 c8bd
00000170: 82f2 e4bc 8747 473e 4222 963e 09fd 0ebe
00000180: a003 3cbd c7de c63e 459c c23e 1676 3abd
00000190: 8e7e 9fbd 6356 bb3e 05bd 60be a14b af3e
000001a0: e576 dc3e 2d86 28be 77c7 55bd a602 9a3e
000001b0: 4a7e 12be ab96 853e 0b18 33be db57 63be
000001c0: c62a cf3e 7685 04be ac69 15be 9186 cd3e
000001d0: 0547 913e 6a48 42bd bdbd dabd c2af 31be
000001e0: 99e8 25bc 52a3 d3bd 2914 c73e 5357 bbbc
000001f0: 7e37 813e e49c 563b 0a8d 023d 5868 b53e
0.3126772 -0.109105274 -0.026505908 0.44111133 0.2978669 0.33488634 0.27179727 -0.09462872
-0.034103915 -0.11042565 -0.06675356 0.24244407 0.37011805 -0.0026663935 -0.04660456 0.21366237
-0.016668754 0.38005176 -0.028699687 -0.042675886 0.31661645 0.3510602 -0.13587393 -0.118481435
0.18824367 -0.16480371 0.37704962 -0.019568233 -0.12615234 0.3268915 0.25597093 -0.024898775
0.32360142 0.3540317 -0.10209244 0.02777724 -0.0663842 -0.16467164 -0.04111975 -0.0025054798
-0.024126127 0.30292097 0.2989883 -0.047166366 0.39514157 0.016046928 -0.020744303 0.36774215
-0.1464474 -0.09205169 -0.07395559 0.43392554 -0.045780923 -0.17731783 -0.039250404 -0.10255614
-0.031227365 -0.13080716 -0.13278224 -0.05044635 0.2760131 0.13554297 0.39018622 -0.075548
0.16746765 -0.093314566 -0.04722557 -0.06765195 0.3781209 -0.08039839 0.009039003 0.4453804
0.36187586 0.3085134 0.2917 0.3309615 0.24355416 -0.07343924 -0.1304405 0.24929793
0.35038275 0.025608452 0.31788433 0.022895718 0.36769193 -0.1090129 0.40372574 0.23152061
0.41180098 0.009858037 0.3810724 -0.0978429 -0.027947668 0.1946088 0.29323012 -0.13963713
-0.045901895 0.3884184 0.3800985 -0.04552277 -0.0778781 0.36589345 -0.21947105 0.34237388
0.4305946 -0.16457434 -0.052192178 0.30080146 -0.14305988 0.26091513 -0.1748964 -0.22201483
0.4046232 -0.12941536 -0.14591092 0.4014173 0.28374496 -0.04743234 -0.10680721 -0.17352203
-0.010126256 -0.10333885 0.38882568 -0.022868788 0.2523765 0.0032747323 0.031872787 0.3543117

bias_sigma f4 [128]
00000000: d53d bc3d 6771 0a3d 704b 843b d1ba 95bd
00000010: daea f7bc 09bd 23bd cdc3 6f3c 7ef7 6a3d
00000020: f782 6d3d 6d43 a93d 4ef0 5b3d ba1a fc3b
00000030: e0af a83c c5a1 343c 12b2 b63b 62c9 433d
00000040: cc24 a33c 9676 263c d042 b73c 6c7f 2e3c
00000050: d14b f13c 9ef8 d83c 2df1 343c 5589 803c
00000060: 4c64 043e db18 243e 8f19 6a3c 2903 623d
00000070: ebf5 593d 83e0 8cbd 44e3 893c 67a7 433b
00000080: 2767 97bc c0d7 223d b255 853c 5a93 bb3d
00000090: 521e 233d 88b2 443c 33ce 223c 3f16 673d
000000a0: 6e97 1d3d e119 653b fa13 56bc d75a ab3d
000000b0: a139 933b 5eb5 75bd c409 d33d ef55 f1bc
000000c0: 2656 6a3d 5df3 f23c 830e 9b3d 3db3 24bb
000000d0: 9bcf d2bc 1db1 1b3c fa55 cc3b 4425 313d
000000e0: 4690 02bd 9c51 3d3d 8af4 3ebd 9168 873d
000000f0: 0b7d acbb c226 47bc 57a8 f33b 5759 b93c
00000100: 6c44 4dbc 1de6 ab3d 2073 b5ba 924d 6dbb
00000110: 48f9 7839 5af2 5f3d e53c 3cbc eb96 b1bb
00000120: 6206 47bd 0926 abbd fdf9 a53d 490e 3abb
00000130: 9345 23bd 63d8 25bd 67b8 8b3d afa2 863d
00000140: a1ef 8c3d bd64 823d 5c94 c3bd d144 143d
00000150: 6f61 4bbb 860e d03c a58c 853c a8ab d8bb
00000160: 9438 113d 52c5 f53d f64b f13c c56f c03d
00000170: 4e64 ec3c c7b4 f3bc dd14 30bd b67b 683d
00000180: e0d3 b3ba e3c8 4fbb 23c4 203b 2250 103d
00000190: 92ba a73c d370 93bc 6734 64bb 5199 71bb
000001a0: d264 b3bc 4e3b 223c db3f 8a3c 3218 103d
000001b0: 5301 bf3d c030 08bc 1bc7 f23d f7da 34bd
000001c0: 086d 6cbd e99d 3b3e 5213 3a3d b968 4dbd
000001d0: f6c6 d6ba 6b2e 143e 2173 6b3d d0ea cb3d
000001e0: e2aa 393d 32fd 3a3d 3902 febc f0fe ca3c
000001f0: 2dba 8e3c 7569 01bd 598c 83bd eb28 aebb
0.09191481 0.033799555 0.004037313 -0.07311023 -0.030263353 -0.0399752 0.014634085 0.057364933
0.057986226 0.082648136 0.05369597 0.0076936157 0.020591676 0.011024897 0.005575427 0.047799475
0.019915007 0.010160109 0.022370726 0.010650497 0.029455097 0.026485737 0.011043829 0.015690485
0.12928885 0.16025107 0.01428832 0.055178795 0.05321304 -0.0687876 0.016832002 0.0029854418
-0.018481804 0.039756536 0.016276214 0.091589645 0.039823838 0.012005456 0.009936857 0.0564177
0.038474493 0.0034958052 -0.013066286 0.08366936 0.004492954 -0.05998742 0.10304597 -0.029459922
0.057211064 0.02965706 0.07571127 -0.0025131248 -0.02573376 0.009502676 0.006235835 0.04324843
-0.03187587 0.046220407 -0.04661993 0.06611741 -0.0052639297 -0.012155237 0.007435839 0.022625608
-0.01252852 0.083935 -0.0013843514 -0.0036209566 0.00023743988 0.054674484 -0.011489128 -0.005419602
-0.04859007 -0.08356864 0.08104322 -0.0028389862 -0.039861273 -0.040489566 0.06822281 0.06573998
0.06881643 0.063668706 -0.09549782 0.03619844 -0.0031033417 0.02539755 0.016302416 -0.00661226
0.035454348 0.120005265 0.029455166 0.09396318 0.028856423 -0.029749287 -0.042988647 0.056758605
-0.001371976 -0.0031705431 0.002453097 0.03523267 0.020474706 -0.017998135 -0.0034821273 -0.0036865065
-0.02189866 0.009901835 0.016876152 0.035179324 0.093264244 -0.008312404 0.118543826 -0.044154134
-0.057721168 0.18321957 0.04542858 -0.0501487 -0.0016386199 0.14470832 0.057482842 0.09956896
0.045328982 0.045651622 -0.03100692 0.024779767 0.01742276 -0.031594712 -0.064232536 -0.0053149364

weight_epsilon f4 [128, 128]
00000000: 0b3f 0340 0079 c8bf a565 adbf 2cae 96bf
00000010: b487 90bf 638c 703f acfb c13f 8e65 47bf
00000020: 119d 4abf 8b8d a33f cc69 b7bf 5f77 53bf
00000030: 2a98 663e 4bfb ed3f b82e ebbf 9ff0 25bf
00000040: 8f38 cdbf 3488 debf d042 e73f 2826 8fbf
00000050: 0629 b2bf 8781 443f d5f8 eabf 098a 83be
00000060: dda7 17bf d8e9 a4bf cf77 443f a2d2 533f
00000070: 34e1 c5bf d578 1ebf 53eb 1a40 b1a3 e53f
00000080: 13bf 6dbf 73f6 85bf 24c7 91be 070d a33f
00000090: 56b6 b1bf 17f7 a53f aa97 d23f dda5 9a3f
000000a0: b3ec 8dbf 5556 1cbf f9b4 a8be 61fc b53f
000000b0: ef1c f33f 9b5c ffbf e0ec 6abf 3f2b 8cbf
000000c0: f58f 4d3f 1981 b8bf 3391 bf3f 20ef 4b3f
000000d0: c891 bd3f 0884 e23f a003 4fbf 69c1 5dbf
000000e0: 163c 503e 0c00 07c0 2c90 c6bf 084a 87bf
000000f0: 50eb bebf 5551 05c0 551f a23f 3453 b23f
00000100: 3179 383d 298b ab3f 7b61 2b3f c60c 8d3f
00000110: 4663 9a3f 8ec5 833f 22e7 99bf 557c 3f3f
00000120: 5110 46bf f210 233f e987 22bf 1553 a03f
00000130: 6934 d03f 9463 eb3f 5749 b23f 30fb c53f
00000140: 4cf4 c43f 1d88 8dbe f091 a43e c95b 0740
00000150: 4a6f b63f 2805 893f 2276 bebf 8ef4 69be
00000160: 0a5e f73f b11a da3f 5fe8 1d3f 4d61 bcbf
00000170: 38b9 eb3e 20de bbbf 5ee2 c0bf 33fb 9c3f
00000180: d8ab 92bf ff00 49bf 20b6 96bf 3c58 afbf
00000190: 6eea 96bf 4375 3abf 68e4 a43f b355 11bf
000001a0: c5e1 07c0 40e9 a9bf 69ce 9bbf c6d9 2abf
000001b0: f687 90bf dd9c e3bf d729 9fbf 4e40 60bf
000001c0: a409 e9bf 97c2 b7bf 0463 f5bf b633 953f
000001d0: f98b 2b3f f87f b6bf 63e0 af3f ffa6 c0bf
000001e0: b80e 283f d528 8cbf b1f3 67bf 2633 cbbe
000001f0: b3c3 b4bf 633b a53f 1ee3 a4bd 27db 9abf
00000200: eadb 463f c1df 17bf b35c 03bf 074e e4be
00000210: 75fc dabe 0f3c b63e 2af5 123f 150f 97be
00000220: f57e 99be 0bcf f73e 40f3 0abf dd33 a0be
00000230: 94b1 ae3d 424a 343f 652b 32bf ed6c 7bbe
00000240: a378 1bbf f695 28bf db32 2f3f c7e4 d8be
00000250: 79f8 06bf 73de 943e 9302 32bf 8a4d c7bd
00000260: 5ac8 65be c5de f9be 17d7 943e 0179 a03e
00000270: e0e8 15bf 421c 70be 35ba 6a3f 5ff8 2d3f
00000280: a31c b4be 91f9 cabe 74e0 dcbd 520c f73e
00000290: 97a1 06bf b976 fb3e 648a 1f3f f650 ea3e
000002a0: d709 d7be 39e0 6cbe 309e ffbd 6ade 093f
000002b0: 722d 383f f774 41bf 83f9 b1be d960 d4be
000002c0: d9ba 9b3e d8c6 0bbf a020 113f 107f 9a3e
000002d0: 2e9d 0f3f 909a 2b3f 6bd4 9cbe 5cff a7be
000002e0: 21c1 9d3d fd8b 4cbf 6d6d 16bf 16fc ccbe
000002f0: f3a2 10bf 63ff 49bf 2ca4 f53e 6e18 073f
00000300: dac0 8b3c 3df5 013f aad5 813e 8eb6 d53e
00000310: 11ec e93e b8a7 c73e fa2f e9be d010 913e
00000320: 910c 96be 4212 773e a042 76be d3ea f23e
00000330: 51bb 1d3f 7153 323f f510 073f 90fc 153f
00000340: 6635 153f 7071 d6bd 9559 f93d fd16 4d3f
00000350: 7835 0a3f 7e9b cf3e 2d4a 10bf 643d b1bd
00000360: 8766 3b3f 3c3b 253f 6141 6f3e 84b6 0ebf
00000370: 5294 323e 2453 0ebf 0e20 12bf 06da ed3e
00000380: fb3a debe c846 98be 145a e4be 6cd6 04bf
00000390: 54a9 e4be c241 8dbe 89d6 f93e 9334 5cbe
000003a0: ffe1 4dbf a4b8 00bf 4812 ecbe db6e 81be
000003b0: d9fc dabe 516f 2cbf 7328 f1be 60e3 a9be
000003c0: 6c8b 30bf 8436 0bbf 6be6 39bf 9910 e23e
000003d0: dbf5 813e 1b42 0abf 913d 053f 14f3 11bf
000003e0: 4aa2 7e3e 305d d4be dbb8 afbe a8f0 19be
000003f0: 89f1 08bf 525a fa3e 94d4 f9bc b4a1 eabe
2.0507228 -1.5661926 -1.3546644 -1.1771903 -1.1291413 0.93964213 1.5154929 -0.77889335
-0.79145914 1.277757 -1.4329162 -0.8260402 0.22518983 1.8592314 -1.8373632 -0.64820284
-1.6032885 -1.7385316 1.8067265 -1.1183519 -1.3918769 0.76760143 -1.8357188 -0.2569125
-0.59240514 -1.2883863 0.76745313 0.82743275 -1.5459352 -0.61903125 2.420613 1.794058
-0.9286968 -1.0465835 -0.28472245 1.2738351 -1.388377 1.2966031 1.6452534 1.2081867
-1.108786 -0.6106923 -0.3295057 1.4217645 1.8993205 -1.9950136 -0.9176769 -1.0950698
0.80297786 -1.4414397 1.4966186 0.7966175 1.4810114 1.7696543 -0.80864906 -0.86623245
0.20335421 -2.1093779 -1.5512748 -1.0569468 -1.4915562 -2.083089 1.2665812 1.3931642
0.045037452 1.3401843 0.6694562 1.1019523 1.2061546 1.0294664 -1.2023661 0.7479909
-0.77368647 0.6369773 -0.6348863 1.2525355 1.6265994 1.8389764 1.3928632 1.5467281
1.5387053 -0.2764291 0.3214259 2.1149771 1.4252713 1.0704699 -1.4879801 -0.22847196
1.9325573 1.7039396 0.61682695 -1.4717194 0.46039748 -1.4677162 -1.5069082 1.226416
-1.1458693 -0.78517145 -1.177433 -1.3698802 -1.1790292 -0.7283518 1.2882204 -0.5677139
-2.1231549 -1.3274307 -1.2172366 -0.66738546 -1.1291492 -1.7782246 -1.2434644 -0.8759812
-1.8206067 -1.4356259 -1.9170842 1.1656406 0.67010456 -1.4257803 1.3740352 -1.5050963
0.6564746 -1.0949961 -0.9060622 -0.3968746 -1.4122223 1.2908748 -0.08051132 -1.209813
0.7767931 -0.59325796 -0.5131332 -0.4459078 -0.42770734 0.35592696 0.5740534 -0.29503694
-0.29979673 0.4840015 -0.5427742 -0.3128957 0.08529964 0.7042581 -0.69597465 -0.2455327
-0.6073095 -0.6585382 0.68436974 -0.42362043 -0.5272289 0.29075965 -0.6953518 -0.09731586
-0.2243971 -0.48802772 0.2907035 0.3134232 -0.58558464 -0.2344828 0.9169038 0.6795711
-0.35178098 -0.3964353 -0.107849985 0.48251587 -0.52590317 0.49114016 0.6232054 0.45764893
-0.41999695 -0.23132409 -0.12481344 0.53855 0.71944344 -0.755691 -0.34760675 -0.4148014
0.3041599 -0.54600286 0.56690407 0.30175066 0.5609921 0.6703272 -0.30630812 -0.3281201
0.07702852 -0.79901105 -0.5876072 -0.40036076 -0.5649864 -0.78905314 0.47976816 0.5277165
0.017059732 0.5076483 0.25358325 0.4174084 0.45687917 0.38995147 -0.45544416 0.2833314
-0.29306462 0.24128059 -0.24048853 0.47444782 0.6161395 0.6965857 0.5276025 0.58588505
0.58284605 -0.10470855 0.121752895 0.801132 0.53987837 0.4054832 -0.56363183 -0.086542875
0.7320332 0.6454351 0.23364784 -0.55747247 0.17439392 -0.5559561 -0.5708016 0.464554
-0.43404374 -0.29741502 -0.44599974 -0.5188968 -0.44660437 -0.27589232 0.4879649 -0.2150443
-0.8042297 -0.5028174 -0.46107697 -0.2527989 -0.42771032 -0.67357355 -0.47101173 -0.33181286
-0.6896274 -0.5438006 -0.72617215 0.44153288 0.25382885 -0.5400712 0.5204707 -0.5701153
0.24866596 -0.41477346 -0.3432072 -0.1503321 -0.53493553 0.48897034 -0.030496873 -0.45826495

bias_epsilon f4 [128]
00000000: effc b9bf 99e6 0cbf d665 ab3f aa33 69bf
00000010: 1db6 a6bf 7738 a83f 2678 ab3e 9817 533f
00000020: 9955 7cbf 6f0e 54bf e6e9 7a3e 59f5 7d3f
00000030: 6a28 863f 02f6 b2bf dbac c8bf 6430 e93f
00000040: 8281 0abf 2fb9 8d3f 5858 21bf af82 64bf
00000050: a330 37bf 65d3 a13f 2c52 3fbf bf77 3f3f
00000060: 17e9 77bf 4b23 68bf 42cb 9d3d cb6f 2a3f
00000070: 6517 3ebf 1b30 a0bf 9cf4 35bf 2c2e 93bf
00000080: e521 513f 3b69 5d3f a1c4 f5be e586 5d3f
00000090: c231 673f 89d7 263f c3ce 5f3f 31c8 21bf
000000a0: a8a0 81bf e93d b03e aef6 bebf 1b39 58bf
000000b0: 609c 383f c1a3 783f caa5 94bf d765 083f
000000c0: 0376 643e cc24 58bf c92e 94bf 896e 99bf
000000d0: 823e 1d3f 3635 5ebf 58b4 9d3f 5448 413f
000000e0: 73d5 8fbf 8f72 c73e f7d1 d5bf eec0 983f
000000f0: a09d fdbe 7167 3dbf 6cb4 7dbf 9ea5 973f
00000100: 5369 9ebe 9baf eebd b388 523f 442f 6abf
00000110: ab08 29bf 5734 bcbf fcf0 1e3f cb07 7abf
00000120: 844e 973f 4c21 55bf ea72 263e 2114 3bbf
00000130: 5858 a6bf 61a1 50bf 1299 8e3f ce02 813f
00000140: cc2c b33f 75aa 0b3f 833c febe 27ba 03be
00000150: a598 a73e cd05 923f ad73 5d3e 5116 3e3f
00000160: 471f 673f 8de0 933f 9b25 7e3f 57ca 86bf
00000170: 7ffb 1cbf 0ec2 2abf be46 f63e 84bd 603f
00000180: 4cf1 95bf 14a2 003f 01a4 55be 7c53 83bf
00000190: fecc a9bf 1871 8c3e 7625 6a3e 370f 42bf
000001a0: 8f21 26bf 3185 8fbf 0965 fabe 9b18 b23f
000001b0: a97a 753f 8af6 4abf de75 f33e ddff 143f
000001c0: be22 99be 32c2 44be 7164 0cbf c86b 4a3f
000001d0: d944 f9be f231 62bf 585c 123f 457f 95be
000001e0: 4fbd 6ebf da4f 673f 8564 a13f acc1 17bf
000001f0: 1c1b 9ebf 6f9c 87bf bb73 f9be 4b0f 923f
-1.4530314 -0.55039364 1.3390453 -0.9109446 -1.3024327 1.3142232 0.33490103 0.82457876
-0.9856811 -0.82834524 0.24503288 0.99202496 1.0481083 -1.3981326 -1.5677751 1.8217893
-0.54103863 1.1072139 -0.63025427 -0.8926191 -0.7155859 1.2642637 -0.7473476 0.74792093
-0.9684004 -0.9067885 0.07704784 0.6657683 -0.7425445 -1.2514681 -0.7107637 -1.1498466
0.81692344 0.86488694 -0.48001578 0.8653396 0.903103 0.6517263 0.8742487 -0.6319609
-1.0127153 0.34422234 -1.4919031 -0.84462136 0.7211361 0.9712487 -1.1613095 0.53280395
0.22310643 -0.8443115 -1.1576778 -1.1986858 0.61423504 -0.86799943 1.2320662 0.7550099
-1.1237015 0.3895459 -1.6704701 1.1933877 -0.4953432 -0.73985964 -0.99103427 1.1847417
-0.3093973 -0.11654588 0.82239836 -0.9147837 -0.6602885 -1.4703473 0.6208646 -0.9766814
1.1820836 -0.8325393 0.16254774 -0.7307759 -1.299571 -0.81496245 1.1140463 1.0078981
1.3998046 0.5455697 -0.49655542 -0.1286398 0.32733646 1.140802 0.21626158 0.742528
0.902821 1.1552902 0.9927613 -1.0530499 -0.6132125 -0.66702354 0.48100847 0.8778918
-1.1714263 0.5024731 -0.20863344 -1.0259852 -1.3265684 0.27430034 0.22865853 -0.75804466
-0.64894956 -1.1212522 -0.4890521 1.3913759 0.9589029 -0.7928244 0.47550863 0.58202916
-0.2990932 -0.19214705 -0.5484076 0.7907071 -0.4868534 -0.8835746 0.57172155 -0.2919866
-0.9325761 0.9035622 1.2608801 -0.59279895 -1.2352023 -1.0594615 -0.48721108 1.1410917

epsilon_in f4 [128]
00000000: d3a6 b4bf f4f7 893f 5cab 6e3f c066 4f3f
00000010: 9aef 463f a18c 25bf 9980 85bf 633a 093f
00000020: 2471 0b3f 9c1e 61bf be74 7c3f d988 113f
00000030: e7b2 1ebe 68c8 a3bf 40db a13f b867 e43e
00000040: 853c 8d3f 7326 993f 5828 9fbf f808 453f
00000050: c039 753f 163d 07bf 2ab6 a13f 0b0e 353e
00000060: 70be d03e 05fe 623f 6636 07bf a8c7 11bf
00000070: 1e2f 883f 4520 da3e 643c d5bf a70a 9ebf
00000080: f79e 233f 0164 383f 49a7 483e b76d 60bf
00000090: e59b 743f 9f70 64bf e4ee 90bf c8dc 54bf
000000a0: 8459 433f 0c30 d73e b736 683e c57d 7abf
000000b0: 7a50 a7bf 7fbe af3f efad 213f e0ee 403f
000000c0: ab78 0dbf 2ff5 7d3f f5d6 83bf cc59 0cbf
000000d0: fd76 82bf 50e4 9bbf 7578 0e3f a39d 183f
000000e0: 7f4f 0fbe 94d1 b93f 88a7 883f 6a37 3a3f
000000f0: ca64 833f bb80 b73f 8b26 5fbf d073 75bf
00000100: 4cea fdbc 431e 6cbf e5e4 ebbe 4c25 42bf
00000110: 2081 54bf f85f 35bf 42d6 533f 98c8 03bf
00000120: 8a4f 083f 1c73 e0be 7db6 df3e 0bad 5cbf
00000130: 374a 8fbf a1ff a1bf 3c66 75bf 0041 88bf
00000140: 138c 87bf 11cf 423e 0785 62be da4f babf
00000150: f01b 7bbf 5999 3cbf 2514 833f 0903 213e
00000160: 043e aabf 591a 96bf 6e59 d9be 71a5 813f
00000170: 913a a2be 2a4b 813f 00bf 843f fa12 58bf
00000180: 15e2 493f 8c55 0a3f b371 4f3f a359 713f
00000190: b1b9 4f3f d052 003f 8af6 62bf 240b c83e
000001a0: 4608 bb3f 0adf 693f f674 563f 1a2a eb3e
000001b0: f5ef 463f 96a5 9c3f e813 5b3f 5655 1a3f
000001c0: 5d61 a03f f6ee 7c3f 13e1 a83f d35d 4dbf
000001d0: 621f ecbe e532 7b3f 0a15 72bf 2496 843f
000001e0: e151 e7be 8deb 403f 13a2 1f3f 6ed8 8b3e
000001f0: 63cf 783f 426e 63bf c3f4 623d 2226 553f
-1.4113411 1.0778794 0.93230224 0.8101616 0.7770935 -0.6466771 -1.042987 0.53604716
0.54469514 -0.8793733 0.98615634 0.5684944 -0.15497933 -1.2795534 1.2645035 0.4461038
1.1034094 1.1964859 -1.2434187 0.7696681 0.95791245 -0.52827585 1.2633717 0.17681138
0.40770292 0.88668853 -0.5281738 -0.56945276 1.0639379 0.42602745 -1.6659055 -1.2347001
0.63914436 0.72027594 0.19595064 -0.8766741 0.95550376 -0.89234346 -1.1322904 -0.83149385
0.76308465 0.42028844 0.22677122 -0.9784816 -1.3071434 1.373001 0.63156027 0.75364494
-0.5526225 0.99202245 -1.0299975 -0.5482452 -1.0192562 -1.217905 0.5565255 0.59615535
-0.13995169 1.4517083 1.0676126 0.72740805 1.0265133 1.433616 -0.87168187 -0.9587984
-0.03099551 -0.92233676 -0.4607307 -0.7583816 -0.8300953 -0.7084956 0.82748806 -0.51477957
0.53246367 -0.4383782 0.43693915 -0.8620154 -1.1194524 -1.2656137 -0.9585912 -1.0644836
-1.0589622 0.19024302 -0.22121058 -1.4555619 -0.98089504 -0.7367149 1.0240523 0.15723814
-1.3300176 -1.1726791 -0.42451042 1.0128614 -0.31685308 1.0101063 1.0370789 -0.84403956
0.788606 0.54036784 0.81032866 0.942774 0.8114272 0.5012636 -0.8865744 0.39071
1.46119 0.91355956 0.8377222 0.45930558 0.77709895 1.2238033 0.8557725 0.6028646
1.2529713 0.98802125 1.3193687 -0.8022129 -0.46117693 0.98124534 -0.94563353 1.0358319
-0.45179656 0.7535942 0.6235668 0.2731356 0.97191447 -0.88840115 0.055409204 0.8326131

epsilon_out f4 [128]
00000000: effc b9bf 99e6 0cbf d665 ab3f aa33 69bf
00000010: 1db6 a6bf 7738 a83f 2678 ab3e 9817 533f
00000020: 9955 7cbf 6f0e 54bf e6e9 7a3e 59f5 7d3f
00000030: 6a28 863f 02f6 b2bf dbac c8bf 6430 e93f
00000040: 8281 0abf 2fb9 8d3f 5858 21bf af82 64bf
00000050: a330 37bf 65d3 a13f 2c52 3fbf bf77 3f3f
00000060: 17e9 77bf 4b23 68bf 42cb 9d3d cb6f 2a3f
00000070: 6517 3ebf 1b30 a0bf 9cf4 35bf 2c2e 93bf
00000080: e521 513f 3b69 5d3f a1c4 f5be e586 5d3f
00000090: c231 673f 89d7 263f c3ce 5f3f 31c8 21bf
000000a0: a8a0 81bf e93d b03e aef6 bebf 1b39 58bf
000000b0: 609c 383f c1a3 783f caa5 94bf d765 083f
000000c0: 0376 643e cc24 58bf c92e 94bf 896e 99bf
000000d0: 823e 1d3f 3635 5ebf 58b4 9d3f 5448 413f
000000e0: 73d5 8fbf 8f72 c73e f7d1 d5bf eec0 983f
000000f0: a09d fdbe 7167 3dbf 6cb4 7dbf 9ea5 973f
00000100: 5369 9ebe 9baf eebd b388 523f 442f 6abf
00000110: ab08 29bf 5734 bcbf fcf0 1e3f cb07 7abf
00000120: 844e 973f 4c21 55bf ea72 263e 2114 3bbf
00000130: 5858 a6bf 61a1 50bf 1299 8e3f ce02 813f
00000140: cc2c b33f 75aa 0b3f 833c febe 27ba 03be
00000150: a598 a73e cd05 923f ad73 5d3e 5116 3e3f
00000160: 471f 673f 8de0 933f 9b25 7e3f 57ca 86bf
00000170: 7ffb 1cbf 0ec2 2abf be46 f63e 84bd 603f
00000180: 4cf1 95bf 14a2 003f 01a4 55be 7c53 83bf
00000190: fecc a9bf 1871 8c3e 7625 6a3e 370f 42bf
000001a0: 8f21 26bf 3185 8fbf 0965 fabe 9b18 b23f
000001b0: a97a 753f 8af6 4abf de75 f33e ddff 143f
000001c0: be22 99be 32c2 44be 7164 0cbf c86b 4a3f
000001d0: d944 f9be f231 62bf 585c 123f 457f 95be
000001e0: 4fbd 6ebf da4f 673f 8564 a13f acc1 17bf
000001f0: 1c1b 9ebf 6f9c 87bf bb73 f9be 4b0f 923f
-1.4530314 -0.55039364 1.3390453 -0.9109446 -1.3024327 1.3142232 0.33490103 0.82457876
-0.9856811 -0.82834524 0.24503288 0.99202496 1.0481083 -1.3981326 -1.5677751 1.8217893
-0.54103863 1.1072139 -0.63025427 -0.8926191 -0.7155859 1.2642637 -0.7473476 0.74792093
-0.9684004 -0.9067885 0.07704784 0.6657683 -0.7425445 -1.2514681 -0.7107637 -1.1498466
0.81692344 0.86488694 -0.48001578 0.8653396 0.903103 0.6517263 0.8742487 -0.6319609
-1.0127153 0.34422234 -1.4919031 -0.84462136 0.7211361 0.9712487 -1.1613095 0.53280395
0.22310643 -0.8443115 -1.1576778 -1.1986858 0.61423504 -0.86799943 1.2320662 0.7550099
-1.1237015 0.3895459 -1.6704701 1.1933877 -0.4953432 -0.73985964 -0.99103427 1.1847417
-0.3093973 -0.11654588 0.82239836 -0.9147837 -0.6602885 -1.4703473 0.6208646 -0.9766814
1.1820836 -0.8325393 0.16254774 -0.7307759 -1.299571 -0.81496245 1.1140463 1.0078981
1.3998046 0.5455697 -0.49655542 -0.1286398 0.32733646 1.140802 0.21626158 0.742528
0.902821 1.1552902 0.9927613 -1.0530499 -0.6132125 -0.66702354 0.48100847 0.8778918
-1.1714263 0.5024731 -0.20863344 -1.0259852 -1.3265684 0.27430034 0.22865853 -0.75804466
-0.64894956 -1.1212522 -0.4890521 1.3913759 0.9589029 -0.7928244 0.47550863 0.58202916
-0.2990932 -0.19214705 -0.5484076 0.7907071 -0.4868534 -0.8835746 0.57172155 -0.2919866
-0.9325761 0.9035622 1.2608801 -0.59279895 -1.2352023 -1.0594615 -0.48721108 1.1410917

weight_mu f4 [2, 128]
00000000: 3844 803e b483 6f3d ba14 1b3c a19d b83e
00000010: 23a9 a83e c5af 7a3e 3bc5 8e3e 4e36 ba3c
00000020: b0bf 89be 7352 233d 57ff ec3c ef58 383e
00000030: ba31 a73e 4dbc 9b3d d7d6 733d 0cbd bd3d
00000040: 03c5 b43d d630 8e3e 81d7 21be bda2 b4be
00000050: b623 873e 0c79 b63e 8079 283d d30e 52be
00000060: d31f 2c3e 68ee fcbd 8900 a33e 008e 1c3d
00000070: ce21 34bd 9621 973e 0c8b 7f3e 629c 1bbd
00000080: a1d1 903e 5e57 6d3e 47b1 1dbc 0148 c63d
00000090: 3653 bb3c af4c 5abe 86be 3a3e 4f39 5ebd
000000a0: df8f 103c a3ea 863e 95ea 923e e4b0 ddbb
000000b0: 6659 bb3e 3146 4bbe 21ca afbc e388 7e3e
000000c0: 0878 9bbb 2da1 7d3d 4522 ab3c 2d5b ba3e
000000d0: cd1c a03d 7793 b9be de63 443d f02a a33d
000000e0: 158c 35bd 69c8 7ebe 11ce 7ebe 8032 14be
000000f0: 518b 933e 4eb1 723e 82da 9f3e b3d7 8bbd
00000100: 8607 573e fe28 633b 28a5 6d3c acad 4a3c
00000110: cf21 c13e 7755 a13d eff5 c63d 66e9 bb3e
00000120: 0809 6c3e cead 993e e090 9a3e 537f c33e
00000130: cbed aa3e ac7b 31be a5df d33d d5b2 923e
00000140: 0dbe 793e 5786 9a3c 93c4 963e 003f 9ebb
00000150: 4691 a63e 354b 3bbe 4f97 a93e 8d91 3a3e
00000160: 249e 993e 0b26 81bd 38ab 833e 06ee c5bb
00000170: 8ce3 32be d595 473e 90d8 aa3e 0103 54bd
00000180: 109b ae3d dd76 a23e cc88 803e 36fa aa3d
00000190: d62a 63bd d2e0 c03e 633e 62be 07fd bf3e
000001a0: 93ea c33e 4379 17be 228c 6d3c 9b45 923e
000001b0: d8cd 41be 14ba 8e3e b848 1fbe 2abc f8bd
000001c0: c96a 873e 4e95 ee3c a1b6 c8be a3a6 a53e
000001d0: 6b08 543e dbe8 6d3c 62b4 dd3c a602 45bd
000001e0: 5acf 963d ce02 863a fb25 893e bfbc adbe
000001f0: 19e3 8d3e 1173 9bbe 5918 943d 9721 7d3e
00000200: da05 8c3e 304d b9bd b1ec c1bc 80f9 b73e
00000210: d0cd a13e 5ab2 a23e 1275 aa3e 904a 373c
00000220: 9109 b539 cba9 89bd ec94 09bd 09b0 813e
00000230: bdeb 993e 90c9 c6bc 44e4 243d 33ab 403e
00000240: 0520 4ebd b821 a83e 3085 cfbc de57 bd3c
00000250: f0da 803e 4e3e 8f3e 45ec 9ebd c9f8 083e
00000260: dd4e 003e d5c1 25be 9e9c 823e 1af7 21bc
00000270: 6cc6 883a f65b 503e ae81 863e d054 52bd
00000280: 511d 423e 0ecf 813e e1e9 763c b556 96bd
00000290: d77f 303d 45f9 193c e35d c6be 89b2 1a3d
000002a0: c2fb 62bd 0549 6c3e 71cb 983e e079 1abd
000002b0: dec7 853e c3a2 0c3e b97c e83c 1ea2 993e
000002c0: d78e 3dbd cf40 da3c a9a3 20be c424 b73e
000002d0: 7427 bdbd 77ff f3b6 e092 07bd fd46 c73d
000002e0: 24e2 6a3d 0b20 43be 77cd 80bd e455 983d
000002f0: 9686 843e 29bd 47be ccb3 b43e 5d5b 9ebd
00000300: 26b3 683d 7b19 fb3c 3328 603c 7d57 88ba
00000310: f878 a13e 6f91 05bd 95f4 6bbd a43e bb3e
00000320: b6dc 8f3e 88ac 9f3e ae54 9d3e efeb a53e
00000330: 05cf 833e 7840 14be eff5 24be e49d 443e
00000340: e344 913e 58e2 bc3c b97a ba3e 39de 59bd
00000350: 442e 823e e7ee 243d e81a aa3e b88a f53d
00000360: d951 ac3e e791 b43c faaa 973e 0534 6bbb
00000370: f4ec 8cbd 8e35 4d3e 7280 a43e 357d 62be
00000380: ff7d 2cbd e524 b93e ee08 a93e a78a 16bd
00000390: e466 acbd db4e ac3e fd6d a43c 5ffd b33e
000003a0: febc c03e b66b 6ebc c7ff 40bd bd9c a03e
000003b0: e0d8 6bbe 5831 713e 7741 65ba 5300 6fbe
000003c0: 7729 ba3e e3f3 e1bc 3be3 94bc 97fb b13e
000003d0: 6006 993e 1514 843c 984b cebc 3f95 36be
000003e0: fb63 5ebd 70fe f33c 92ff 9e3e ea3e 24bd
000003f0: 9388 8d3e fcb3 42bd e17b 31be 05c8 ad3e
0.25052047 0.05847521 0.009465391 0.3605776 0.3294154 0.24481113 0.2788485 0.022730973
-0.26904058 0.03987355 0.02893035 0.18002675 0.32655126 0.07604275 0.05953106 0.092645735
0.088266395 0.27771634 -0.15804864 -0.3528041 0.26394433 0.35639226 0.041131496 -0.20513467
0.16809015 -0.1235016 0.31836346 0.03822136 -0.04397755 0.29517812 0.24955386 -0.037990935
0.28284934 0.23177859 -0.009624786 0.096817024 0.022866827 -0.21318315 0.18236741 -0.054253872
0.008823364 0.2635089 0.28694597 -0.006765472 0.36591643 -0.19850995 -0.021458687 0.24856906
-0.0047445334 0.061921287 0.020890364 0.36397687 0.07817993 -0.3624532 0.047946803 0.07967174
-0.044323046 -0.24881138 -0.24883296 -0.14472389 0.28817227 0.23700449 0.31221396 -0.06828251
0.20998964 0.0034661884 0.014504708 0.012370508 0.37721106 0.07877629 0.09714877 0.36701506
0.2305032 0.30015415 0.30188656 0.38183078 0.33384547 -0.17332333 0.10345391 0.28652063
0.24388905 0.018862886 0.2944685 -0.0048292875 0.3253271 -0.18290408 0.33123252 0.18219586
0.30003464 -0.06306084 0.25716567 -0.0060403375 -0.17469615 0.1949075 0.3336835 -0.051760677
0.085256696 0.3173131 0.25104368 0.08348505 -0.055460773 0.37671524 -0.22094111 0.37497732
0.38264903 -0.14792351 0.014498742 0.2856873 -0.1892618 0.2787634 -0.15555084 -0.121452644
0.26448658 0.029123928 -0.39201835 0.32353696 0.20706336 0.014520849 0.027063552 -0.04809823
0.07363768 0.0010224225 0.2678679 -0.33933064 0.27712324 -0.30361226 0.072312064 0.24719845
0.27348214 -0.090479255 -0.023672434 0.3593254 0.31602335 0.31776696 0.33292443 0.011187211
0.00034530138 -0.067218386 -0.03358929 0.25329617 0.30062667 -0.024266034 0.040256754 0.18815307
-0.050323505 0.32838225 -0.025332063 0.023113187 0.25167036 0.27977222 -0.077599086 0.13376154
0.12530084 -0.16187222 0.25510114 -0.009885574 0.0010435111 0.2034758 0.26270813 -0.051350415
0.18956496 0.25353283 0.0150704095 -0.07340757 0.043090668 0.009397809 -0.38743505 0.03776792
-0.055415876 0.2307473 0.29842713 -0.037713885 0.2612905 0.13733964 0.028379785 0.30006498
-0.0462788 0.026642231 -0.15687431 0.35770237 -0.09236041 -7.2717044e-06 -0.033099055 0.09730337
0.05734457 -0.19055192 -0.06289189 0.07438257 0.2588393 -0.19505753 0.35293424 -0.0773227
0.056811474 0.030651798 0.013681459 -0.001040205 0.31537604 -0.0326094 -0.0576063 0.36571229
0.28098077 0.31186318 0.30728668 0.32406566 0.2574388 -0.14477718 -0.16109441 0.19200855
0.2837287 0.023057148 0.36421755 -0.053190444 0.25425923 0.040266898 0.33223653 0.11989349
0.33656195 0.022042228 0.29622632 -0.003588916 -0.06881133 0.2003996 0.32129246 -0.22118075
-0.042112347 0.3616096 0.33014625 -0.036753323 -0.08418062 0.33653912 0.020071978 0.35154244
0.3764419 -0.0145520475 -0.04711893 0.31369582 -0.2303195 0.2355398 -0.0008745412 -0.23339967
0.3635976 -0.027582115 -0.018174758 0.3476226 0.29887676 0.016122857 -0.02518253 -0.1783037
-0.054294568 0.029784411 0.3105436 -0.040099062 0.2764326 -0.047534928 -0.17332412 0.33941665
