save/model/cartpole_dqn_dueling_hid_256_256.pth (torch_old, 537556 bytes, 9 tensors)

weight f4 [256, 4]
00000000: 15ed afbe 494f 1bbe e903 98bf 49ad 3cbe
00000010: 56f8 b33e b339 06be 6a30 433f 03af 943e
00000020: 151b 483f ff46 113f 9765 42bd e6f0 8b3e
00000030: 8350 a83e b2b1 d0be 73d4 1abe 963d 79be
00000040: af62 1b3d edaa 55be f964 b33e 88b2 003e
00000050: def5 e93d ad85 8cbe 24f0 9b3e 332a 0c3e
00000060: 64f3 75be cd39 a6be f4f3 e1be 36c0 66be
00000070: a9f2 593f e44c 9ebe 313a 5abd 7ad0 a8be
00000080: 3ce9 4fbe dd36 193e bb00 243f 6b8d 99be
00000090: 3621 dfbe 42bf 613d 831c 0a3f 24e3 b2be
000000a0: 9cae 4bbe 3f18 843d 34d7 6e3e 1eff 3fbd
000000b0: 8374 bebe b7fd 4c3e b7f9 13be fa2b f0bd
000000c0: 7424 94be 00da e0be f678 b1be ffa2 a8be
000000d0: 2e92 213f ebbd 84be 8ea7 bdbe a99d abbe
000000e0: ae48 193e 055a 9ebc fba9 9b3f 3f58 df3e
000000f0: f120 503f 9a6e b13e b3d6 1ebe 2239 6f3e
00000100: d31a 5abf 085d b5be 9fca c03e ad23 0bbe
00000110: 9991 c4be a734 e1bc 0e4e c2bf f76d 1ebd
00000120: 8ddd 9e3e cb80 abbe d4c0 01be 7545 c2be
00000130: 794b 1b3e 8bd0 93be 49ce 98be 6644 89be
00000140: b5d7 08bd b736 e8be 91e2 e83e 65d8 a0bd
00000150: 9c6c f6be 6618 d13d 0a6f ba3e 184e f43d
00000160: d931 efbe d7aa dcbe 90f2 a43e 41e3 d7bd
00000170: dac7 3e3e fb15 2bbd 389e 3abf 8bb3 6d3e
00000180: a462 c53e 8217 30bd 7222 b1bf 0b11 babe
00000190: d14c 8a3e 83e4 96bd 9234 343e f76a 8e3e
000001a0: b73f 01be a99f 6d3e edb9 0a3f 0332 ba3d
000001b0: 8543 963e 78e5 21bd d8fc 0ebf 529c 293e
000001c0: 9949 173e e0c2 0bbe 8dbe 9cbf eedd 1abf
000001d0: 0cd9 a1be f479 493e 59cb 193f d2f5 903e
000001e0: cab0 753e 6c7c c93e 842b 073f 79bf 973e
000001f0: 9557 0a3e 65fd 89be 50d3 d63e 9d13 5cbe
00000200: 4be4 3ebe e354 89be 532a d2bc 1da4 38be
00000210: df7c e7be ec1e 3d3e 2275 b93e 7d86 463e
00000220: 5dcf 15be 1456 553e f054 883e 2b60 7f3e
00000230: 55a2 61bf 9b65 c6be 997e 16be 2584 81be
00000240: 29ae 0b3f bf95 043d 9aac 3f3f 1efd 443d
00000250: 2192 aa3e fb54 c2be 10fe 043f c200 43be
00000260: 1834 45be 3873 463d 6ce4 ffbb f1f0 b1bd
00000270: 773f de3e 8a82 ae3e 0cc8 47bf 15df 523d
00000280: 0040 beb9 2814 b13d a623 8b3e 0801 183e
00000290: d8ca fe3e aa1d a4be b906 a3be cdc1 e0bd
000002a0: d1df b13e 4920 62be 8814 08bf f850 e6bd
000002b0: 01cd 88be 8fba c9bd 80b5 86bd 7f11 8dbe
000002c0: 8272 24bf 0d82 3d3e 63fd a63e c823 ce3c
000002d0: cabd 303d a777 9ebe f720 903e 2a3b 4cbd
000002e0: 4da9 39bf fcfe 873d 0aff 9ebe 6588 6e3d
000002f0: 72c7 9a3e 27a4 c6be f29e 96be a0e6 bebe
00000300: 0063 b83d 7dcf fd3d 7114 413e d384 1d3e
00000310: fd1b 1d3e 4bd1 b93e 70ce aa3f dc65 563c
00000320: c18e cdbd 52fe ba3d 3db2 b03e fd97 ac3c
00000330: d617 2d3f 1469 b43e d973 24bf 1e39 823d
00000340: 2ca2 173f 1c66 66be 9b26 92bc 4928 05bf
00000350: b7f8 873c f229 453e 6908 c8bf 6571 40be
00000360: 0d9f 4c3f c5f4 b0be 0188 57bf 50e4 a4be
00000370: 5094 a7be 6c6b 223e e50a 4e3e fbed 89be
00000380: dd47 923e 508a c7be 422e 003e 9dea a6be
00000390: 2a06 d3be 3944 d53e 10dc cebd 3f61 903d
000003a0: 42b5 dbbe 5145 63be 7f85 943e a1f7 90be
000003b0: 43e2 44bf b0dd 803e c89d 5b3f 2c0e 4dbd
000003c0: c3b9 debd 4e34 8f3e af0a e73e f16e 2abe
000003d0: c2d4 22be 6d22 993e c1e9 c4bd 401a 073e
000003e0: 7e86 413e 26d0 f9bd 7533 123f 5697 6fbe
000003f0: 514d d53e 0d00 d73d 5466 efbe 27ee c5bd
-0.34360567 -0.15166964 -1.1876193 -0.18425478 0.35150403 -0.13107948 0.7624575 0.29039773
0.78166324 0.56748956 -0.047460165 0.27332228 0.32873926 -0.4076057 -0.15120105 -0.243399
0.03793591 -0.20865984 0.35037974 0.12568104 0.114238486 -0.27445737 0.3045665 0.13687973
-0.24018627 -0.32465973 -0.44131434 -0.2253426 0.85135895 -0.30918038 -0.053278152 -0.32971555
-0.20303816 0.14962335 0.64063615 -0.29990706 -0.43580025 0.05511404 0.53949755 -0.3493892
-0.19890827 0.06449937 0.23324281 -0.046874158 -0.37198266 0.2001866 -0.14450727 -0.11727138
-0.28934062 -0.4391632 -0.34662598 -0.32936856 0.6311368 -0.25926146 -0.37041897 -0.33518723
0.14969131 -0.019330034 1.2161249 0.43622014 0.81300265 0.34654695 -0.15511589 0.23361638
-0.8519718 -0.3542254 0.37654588 -0.13587828 -0.38392332 -0.027490927 -1.518007 -0.03867909
0.31028405 -0.334967 -0.12671214 -0.37943617 0.1516551 -0.28870043 -0.29844883 -0.26809996
-0.03340884 -0.45354244 0.45485356 -0.07853774 -0.48129737 0.10209732 0.3641284 0.11928958
-0.46717718 -0.4309909 0.3221631 -0.10541392 0.18630925 -0.04176901 -0.7289767 0.23213021
0.3855182 -0.04299117 -1.3838637 -0.36341128 0.2701173 -0.07367804 0.17598179 0.27815983
-0.12621962 0.23205437 0.5418995 0.0909157 0.29348388 -0.03952548 -0.5585456 0.16563538
0.14774169 -0.13648558 -1.2245651 -0.6049489 -0.31610906 0.19675428 0.6007591 0.28312546
0.23993221 0.3935274 0.52800775 0.2963827 0.13509972 -0.26951137 0.41958094 -0.21491857
-0.18641774 -0.26822576 -0.025654947 -0.18031354 -0.45212457 0.18468827 0.36222178 0.1938724
-0.14629884 0.20833617 0.26627302 0.24939029 -0.88138324 -0.38749394 -0.1469673 -0.2529613
0.5456262 0.03236937 0.74872744 0.048092954 0.33314613 -0.3795546 0.5195017 -0.19043258
-0.19258153 0.048449725 -0.0078092124 -0.08688534 0.43407795 0.34083968 -0.7803962 0.05148228
-0.00036287308 0.086464226 0.27175635 0.14844143 0.49764132 -0.32053882 -0.31841066 -0.109744646
0.3474107 -0.22082628 -0.5315633 -0.11245912 -0.26718906 -0.09850036 -0.06577587 -0.2755241
-0.64237225 0.18506642 0.32615194 0.025163546 0.043149747 -0.30950662 0.2815015 -0.04986111
-0.7252396 0.06640431 -0.31053954 0.058235545 0.3023029 -0.38797113 -0.2941814 -0.37285328
0.09003258 0.12393091 0.18855454 0.153827 0.15342708 0.3629249 1.334425 0.013085809
-0.10036994 0.09130539 0.34510985 0.021068567 0.67614496 0.35236418 -0.6423927 0.063585505
0.5923183 -0.22499889 -0.017840674 -0.52014595 0.016598089 0.19254282 -1.5627567 -0.18793257
0.7993019 -0.34561744 -0.841919 -0.3220544 -0.3273034 0.1586129 0.20121343 -0.26939377
0.28570452 -0.38972712 0.12517646 -0.3260087 -0.4121564 0.41653612 -0.10100567 0.07049798
-0.42911726 -0.22194411 0.290081 -0.28313926 -0.7690775 0.25169134 0.8578763 -0.050062343
-0.10875275 0.27969593 0.45125338 -0.16643883 -0.15901473 0.29909077 -0.096148975 0.13193607
0.18898961 -0.12197904 0.5710977 -0.23397574 0.4166055 0.104980566 -0.46757758 -0.096645646

bias f4 [256]
00000000: 2d2c eabe f843 b7be cf01 e4be 5144 ae3e
00000010: 4a56 923e 59ca 51be ddc6 85bd a365 44be
00000020: cf02 0d3f ecbb 40bf 3cb9 963e 3f72 fc3e
00000030: ba9b 973e 5dca 11bd cb0c 40be 11e7 9d3e
00000040: 361e b1bc 163a 2cbe b34f 7cbc dd06 fd3e
00000050: ad0e f3be 1a25 82be 30f8 fabe 3713 ad3e
00000060: 5ae6 e4be 2073 083f c1cc e23e 1250 0c3f
00000070: 6092 88be 139d 9cbe 7de7 bc3d b2ac f5be
00000080: e7db 92be e779 0a3f fbe7 9d3e b290 63bd
00000090: 4057 0bbe bc8a f43e d27c c33e 099f 4a3c
000000a0: 2000 d2be f839 cabe c09e c0be 73cc 133f
000000b0: bd43 7bbe 8e0a 223f 52fa 5b3e 0697 cd3e
000000c0: a58c 1a3f c6b6 67be e93e 42be 30ab b5bd
000000d0: 180a 02bf c460 a0be 00fa 0cbf ca33 9b3e
000000e0: 565e e33e 404d 1a3f d060 9b3e c6f1 17bf
000000f0: 1d21 f83e bbec df3e 2c20 e43e bb70 0cbf
00000100: c34b 8c3e f2ff 883e 0c37 d6be 73f9 dbbe
00000110: 9faa 503e bdf4 ca3e 9c29 be3e 573b d4be
00000120: 6c19 1dbf d2e7 f43e 5a9c e33e 16a1 8dbe
00000130: c4d6 f53e f286 e23d 84cb fdbe 9c3b b0be
00000140: 84ca cb3e 50a4 c6be c507 cebe 97f2 d93e
00000150: 9997 65be 313d e93e a2a4 95be 7f6b 2fbe
00000160: 5b8b 543e 03b0 d93e 2825 0b3f 3220 0b3f
00000170: 50cb 123f 91c0 ad3e 41f9 11bf 4f69 92be
00000180: 626c 22bf fdc6 103f 98d1 8cbe 01f3 d93e
00000190: 385f dabe e84a aebe 88e8 b3bd 21c8 f4bd
000001a0: 5fb1 973e d547 89be 70ad b53e d97b 0ebf
000001b0: 9ff6 c2be 6818 0e3f e4d8 0c3f e56b 1abf
000001c0: aa3a 06bd 60c7 a03e 8a37 62be 288f 193f
000001d0: 125d b83e ac4e f1be 3960 d03e baed fd3e
000001e0: 59f1 3fbe 63bb 0fbd bb4c 263f 4678 073f
000001f0: b8da b3be 3422 0c3f 1e00 56bd 9f72 1d3e
00000200: c153 83be a13c dbbe 9146 1a3f 1022 083f
00000210: fab3 523e 5442 bd3e 4230 b93d 04d2 a9be
00000220: fa86 943e d740 403e 6c27 e53e aaf7 d9be
00000230: 85cd 853e 22a0 42be a515 f53d 7312 03bf
00000240: 96e6 c6be 062b 1b3f 06df 18bf be06 ca3e
00000250: 56f3 09bf 0a12 c7be 1464 833d 7190 86be
00000260: f951 80be e639 1d3f 2aac f03e 5fe9 7fbe
00000270: a6ec d03e e6f5 31bd 219f 12bf 4b66 68be
00000280: 81cc a9bd fb0e bebe 6a01 6b3d 03b9 6fbe
00000290: be81 c0be 6f68 6ebe fd8f 983e 5230 0e3f
000002a0: e86c cfbe b989 a03e 474c 013f d412 8e3e
000002b0: ec6a 083f a97d 3fbe b2a2 953e 8088 d2be
000002c0: c9ff 38bd ee96 b83d e8b2 123f 26ef 06bf
000002d0: ddc9 34be 1a1a 653e 16f8 d93e a0cf 5a3d
000002e0: bfbf fe3d ee9e f5be 01f7 13bb e264 c63e
000002f0: b94f 55be 66d5 a83e 76f7 f9be 27f9 00bf
00000300: ad46 d73e db01 a93e 5a85 c4be 2c66 c7be
00000310: 7fb0 03bd f2a3 d0be 6a81 c3be 490e a23e
00000320: f915 ebbe 80c5 84be d92c eb3e ac0d 71be
00000330: 0798 80be 151e 87be 83f6 be3e 9bcc 0abf
00000340: 9637 ae3e d518 c9bd 54e3 203f 1608 f43e
00000350: 5620 933d d6e6 0c3f 5b49 983e ea0b 1ebe
00000360: d812 ee3e 5a7a 0a3f dfab 833e 4cdc f83e
00000370: 27e5 fdbd 9da8 18be e96d 0b3f 5f0b 9fbe
00000380: 69bb 22be 3c45 28be b64a be3e f9db 3fbd
00000390: a321 f83e 2b83 183f 5a63 1abe f4fc 8dbe
000003a0: a695 07bf 404d cd3e 8365 efbe 02da babe
000003b0: fec9 f1bd b142 5bbe 116f 183e 7c10 eb3e
000003c0: f3ba d53e 4887 373e 840c c7be 930a 6d3e
000003d0: 0771 bd3e af69 9e3e f86b 9ebe 0308 13bf
000003e0: 87e2 2bbe c80f b33e ea13 883e a51d debe
000003f0: aebd 16bc 0658 fc3e ed31 d93e 981e bebe
-0.45736828 -0.35794044 -0.4453263 0.34036496 0.28581458 -0.20487346 -0.06532071 -0.19179396
0.5508241 -0.75286746 0.29438198 0.49305913 0.29610997 -0.03559338 -0.1875488 0.30840352
-0.021620851 -0.16819033 -0.015399861 0.494193 -0.47472134 -0.2541893 -0.49017477 0.33803722
-0.44706994 0.53300667 0.4429684 0.5480968 -0.26674175 -0.30588588 0.092238404 -0.4798332
-0.28683397 0.5409226 0.3084105 -0.055557914 -0.13607502 0.47762096 0.38181168 0.0123670185
-0.4101572 -0.39497352 -0.37621117 0.5773384 -0.24537559 0.63297355 0.21482208 0.40154284
0.60370857 -0.22628316 -0.18969311 -0.08870542 -0.5079665 -0.31323826 -0.5506897 0.3031295
0.4440791 0.60274124 0.303473 -0.5935329 0.48462763 0.437353 0.44555795 -0.54859513
0.27401552 0.2675777 -0.41838872 -0.42963752 0.20377587 0.39639845 0.3714112 -0.41451523
-0.61366916 0.47833115 0.44455224 -0.2766196 0.48015416 0.11060895 -0.49569333 -0.34420478
0.39802945 -0.38797235 -0.40240303 0.42567894 -0.22421111 0.45554498 -0.29227167 -0.1713085
0.20756285 0.425171 0.5435357 0.54346 0.5734148 0.3393598 -0.57020956 -0.2859597
-0.6344663 0.5655363 -0.27503657 0.4256821 -0.4265077 -0.34041524 -0.08784586 -0.11952234
0.2962751 -0.26812616 0.35483885 -0.55657727 -0.38078782 0.5550599 0.5501845 -0.60320884
-0.03277079 0.3140211 -0.22091499 0.59984064 0.36008507 -0.47130334 0.40698412 0.49595433
-0.1874441 -0.035090815 0.6496083 0.529179 -0.35127807 0.5473969 -0.052246206 0.15375756
-0.25649837 -0.42819694 0.60263926 0.53176975 0.20576468 0.36964667 0.090424076 -0.33168042
0.2900923 0.18774734 0.4475664 -0.42571765 0.2613336 -0.19006398 0.11967019 -0.51200026
-0.38847798 0.60612524 -0.59715307 0.3945827 -0.53886926 -0.3888095 0.06415573 -0.26282075
-0.2506254 0.6141647 0.4700635 -0.24991368 0.40805548 -0.043447398 -0.5727406 -0.22695272
-0.08290959 -0.37120804 0.057374395 -0.2341042 -0.37598985 -0.23282026 0.29797354 0.5554248
-0.40512776 0.31355074 0.50507015 0.2774874 0.5328815 -0.1870028 0.2922569 -0.41119766
-0.04516581 0.090131626 0.5730424 -0.5270866 -0.1765513 0.22373238 0.42572087 0.053420663
0.124389164 -0.47972816 -0.0022577646 0.38748842 -0.20831193 0.3297531 -0.4882161 -0.50380176
0.4204611 0.33009228 -0.3838299 -0.38945138 -0.03215074 -0.4075008 -0.38184673 0.31651524
-0.459152 -0.2593193 0.45932654 -0.23540372 -0.25115988 -0.26390138 0.3729745 -0.54218453
0.34026784 -0.098191895 0.62846875 0.4766242 0.07183902 0.5503973 0.29743466 -0.15434232
0.46498752 0.54092944 0.25717065 0.48605573 -0.12397223 -0.14908071 0.54464585 -0.31063363
-0.15891804 -0.16432661 0.37166375 -0.04684064 0.48463163 0.59575146 -0.15076962 -0.2773205
-0.5296272 0.40098 -0.46757135 -0.36494452 -0.11806105 -0.2141216 0.14886118 0.45911014
0.41744193 0.179227 -0.38876736 0.23148565 0.37000296 0.30940005 -0.3094175 -0.574341
-0.16785632 0.34972978 0.26577693 -0.43381992 -0.009200497 0.49285907 0.42420903 -0.37132716

weight f4 [256, 256]
00000000: d607 a93c c203 63bc 0096 153d 71fc d93c
00000010: 6ef9 e23c d029 f3bc 0109 863c f955 4e3d
00000020: d3ec 8c3c 29ae 37bd cc91 e4bc 14ab c7bc
00000030: 4593 213d a0b0 973c 3121 093d 7b7d 0d3d
00000040: 6d26 2cbd 001c 853d 5877 5a3d abd2 0bbd
00000050: c548 15bc 74f1 e2bc 2787 183c dd86 32bc
00000060: edc8 01bd ef55 09bd 6750 01bd 5abb 47bd
00000070: e959 bb3c 2e03 61bc 514b 233d b0fb 6ebc
00000080: 089b 583d ab24 383d 796f b83b addb 09bd
00000090: df36 c13b 9122 58bd 31a2 3f3c 8d07 89bd
000000a0: 3497 4abd d657 f9bc 2e6c 35bd 65fa 523d
000000b0: 3c21 103d 0df5 483d 215e 56bd 6490 a6bb
000000c0: fe11 90bd c503 113d 4c40 8e3c 5998 0fbc
000000d0: dcaf 0dbd 6914 103c d35a f23c 510d b03c
000000e0: 6282 7dbd 734b 2b3d e4c9 15bc a9c5 b03b
000000f0: c8c7 153d a750 8ebd 5407 30bd 12a2 05bd
00000100: 8566 82bd df7c e4bc 044b 823c 60d5 35bd
00000110: b810 4e3c e2bc 8abd 15e8 dc3a fd5b 273b
00000120: df4b f1bc 20dc 493d c8f8 6ebd 8c44 5bbd
00000130: 625e 7abd 6fc8 9ebc f97d 3d3d 5a76 0bbd
00000140: 4eb6 56bc 3710 d2bc 90bd 4c3d 4825 053c
00000150: cfc4 f0bc 5abe 76bd fda4 cd3c 4eae 06bd
00000160: 6e4a 47bd 8706 33bd 9ea2 7d3c c584 6fbd
00000170: 842a 64bd 03d4 2a3d 69b2 843c 9277 f23c
00000180: 1ecc 5abd d905 84bd 20a2 28bd c1b5 e1bc
00000190: ee0c cebb 928b 42bd d879 7a3d 9866 88bd
000001a0: 3f5f 2fbd 48d7 923b ce94 513a 7d81 8ebc
000001b0: 5344 0e3d 2bfc ccbc f44f 013d 7319 3abd
000001c0: e656 10bd 578f 403d dceb 843c d457 333d
000001d0: ea1f c7ba 3e15 39bc b15b a6bc 0d16 d53c
000001e0: c82e bcbc 91c3 883c e977 2cbc c68a 73bd
000001f0: 535b c0bc 0676 1dbd be4b 64bc 7ff3 7abd
00000200: ed94 59bd 5321 63bd bf2b 0f3c 5db4 9abc
00000210: 9dd5 06bc 0246 02bd 0ca3 353d b690 9b3c
00000220: 4ebf 37bd 3f14 44bd c77c 2b3d b8dc 713d
00000230: 5175 443c cb3c f73c 3247 67bc c019 963c
00000240: 16fe 48bd c964 253d 3e33 3b3d 880d 8e3c
00000250: adec 4bbd 7e07 cf3c dd78 7cbc dd8b 053d
00000260: f0db 283d 87d9 0dbd a716 f63a 0c70 fd3c
00000270: 26a5 96bb 4691 08bd 6fe3 d23c 757c 80bd
00000280: 24d2 453d c27e 533d 7e15 a43c a70e 343d
00000290: 3557 253c bb4c 6b3c 1360 a2ba 4d4c ff3c
000002a0: 28a7 0cbd 4749 76bd 1f69 06bd 6425 543d
000002b0: c732 1c3a e05a 1cbd 13ed bf3a 9798 cdbc
000002c0: f59c e0bb d8ab 8d3c 88e2 913b 76fb 0dbd
000002d0: fbee 58bd b62b 423d b551 70bd a8d8 bfbc
000002e0: c329 3e3d 60f1 89bc 96b2 9e3c 0717 8ebd
000002f0: 98ff ff3c 6f09 42bb f42c d1bc b674 80bd
00000300: 73b6 253d 3c02 45bd 1455 98bc d7fe 083d
00000310: e51d 80bd bb63 3d3d c7c3 7b3c 4541 ae3c
00000320: ae6f 92bd 28f1 033d 8133 4cbc 9124 fb3b
00000330: 33b3 9bbb 6515 f5bb 649e 443d b4d8 8abd
00000340: 0639 25bd a3e5 64bd ce71 b63c d668 ccbc
00000350: 1a53 1e3d 03cc 11bd e5d1 64bc 1186 82bd
00000360: a858 45bb 42c0 883c 4f1d e33c dfe2 b6bc
00000370: 1281 7abd 7b65 72bd 9b14 c33c 7d24 0dbc
00000380: ee36 573d 2072 1dbd 9c25 6bbd 8126 133d
00000390: d618 dbbb e813 c03c f40d 51bd de47 073d
000003a0: 22cd a6bc e6ea 293b ccd5 983c 6aae 433d
000003b0: 0573 3c3d 78d3 64bb 72c4 403d 240e 2e3d
000003c0: 5536 8139 cef3 b13c e838 d3bc c7da 8abc
000003d0: c87b e43c e322 1a3d ad96 7ebc 5453 513d
000003e0: 1086 8e3d 7907 ebbc b938 2e3d 5d2d cc3b
000003f0: ec71 e6bc d838 083c 825c 203c 621f 36bd
0.02063362 -0.013855876 0.036520004 0.026609631 0.027706828 -0.029683024 0.016361715 0.05037496
0.01720277 -0.044843826 -0.027901553 -0.024373569 0.039447088 0.018516839 0.03347892 0.034543496
-0.042028833 0.06499481 0.05333647 -0.034136456 -0.009111588 -0.027703024 0.009309567 -0.010896412
-0.03168576 -0.03352922 -0.03157082 -0.048762657 0.022870021 -0.013733668 0.03986675 -0.014586374
0.052882224 0.044956844 0.005628523 -0.033656765 0.0058964337 -0.05276734 0.011696384 -0.06690893
-0.049460605 -0.030437391 -0.04429262 0.051508326 0.035187945 0.049061824 -0.052335862 -0.0050831307
-0.07034682 0.035403986 0.017364644 -0.00876435 -0.03459154 0.008793929 0.029584324 0.021490725
-0.06189192 0.04182 -0.009142373 0.0053946567 0.03656748 -0.06948977 -0.04297574 -0.032625265
-0.0636721 -0.027891574 0.01590491 -0.044392943 0.012577228 -0.06774308 0.0016853834 0.0025537007
-0.029455123 0.049282193 -0.058342725 -0.05353217 -0.061125167 -0.019382684 0.046262715 -0.034048416
-0.013104988 -0.025642497 0.04998547 0.008126564 -0.02939072 -0.060240127 0.025103087 -0.032881074
-0.048654966 -0.043707397 0.0154806655 -0.05847623 -0.05570461 0.041706096 0.016198354 0.029598031
-0.053417318 -0.06446428 -0.04117024 -0.027552487 -0.0062881624 -0.047496386 0.061151356 -0.06660193
-0.042815443 0.00448123 0.0007994891 -0.01739573 0.034733128 -0.025022587 0.03157039 -0.045434427
-0.035239123 0.0470117 0.016225748 0.04378493 -0.0015192006 -0.011296568 -0.020307394 0.026011491
-0.022971526 0.016694816 -0.010526636 -0.059458517 -0.023481047 -0.038442634 -0.013934074 -0.061267372
-0.053120542 -0.055451702 0.008738457 -0.018884832 -0.00822964 -0.031805046 0.044344947 0.018989902
-0.044860177 -0.04787087 0.041867044 0.059048384 0.011990861 0.030180356 -0.014116095 0.018322825
-0.04907044 0.04037932 0.045703165 0.017340437 -0.04978626 0.025272127 -0.015409675 0.032604087
0.041225374 -0.03463128 0.0018775061 0.030937217 -0.004597324 -0.03334167 0.025743214 -0.06273738
0.04829611 0.051634558 0.02002978 0.043959286 0.010091593 0.014361556 -0.0012388251 0.031164313
-0.0343391 -0.060128476 -0.032815095 0.05179347 0.0005958494 -0.038172603 0.0014642797 -0.025097175
-0.0068546482 0.017293856 0.0044520535 -0.03466364 -0.052962285 0.047404967 -0.058671672 -0.02341874
0.046426546 -0.01683873 0.019372266 -0.06937986 0.031249806 -0.0029607674 -0.02553413 -0.06272261
0.0404572 -0.048097834 -0.018595256 0.03344616 -0.06255702 0.04623769 0.015366501 0.021271357
-0.071502075 0.032212406 -0.012463451 0.007664271 -0.004751587 -0.007479357 0.048002616 -0.06779614
-0.040337585 -0.05588306 0.022271063 -0.024952333 0.03865347 -0.03559495 -0.013966058 -0.063732274
-0.0030112658 0.016693238 0.027723936 -0.022324977 -0.061158247 -0.05917881 0.023813536 -0.0086146565
0.05254262 -0.038438916 -0.057408914 0.035925392 -0.0066863103 0.023446992 -0.051038697 0.033027522
-0.020361487 0.0025927364 0.018656634 0.047773756 0.04600813 -0.0034916084 0.047062345 0.042493954
0.00024645278 0.0217227 -0.025783971 -0.016950024 0.027891055 0.037630927 -0.015538854 0.05110486
0.06959164 -0.028690087 0.042534564 0.0062309937 -0.028130494 0.008314334 0.009787681 -0.044463523

bias f4 [256]
00000000: f519 45bc f457 42bd 225f 93bc 270c c1ba
00000010: c404 99bd ef6c 11bd 327a 603d faad 663c
00000020: 390e a7bd 8b0f 72bd 886f 84bc 4e86 e63c
00000030: 143c 13bb 9f09 8bbd 05a9 053d 157b c1bd
00000040: 53bb 9c3b def7 89bd 63c5 95bb 52bb 95bd
00000050: 0f03 86bd 2701 18bb 7240 1ebd ea26 6ebc
00000060: 3e3f 443d 3f37 36bd d093 10bd 59a2 aebc
00000070: b815 213d 6bce cd3c dcad 9bbd a330 ec3b
00000080: 4e9b ecbb ad27 1ebe e4db 5c3c 4cee 3fbc
00000090: 91c8 63bd 8cd9 a53c 51c2 283d dd1f 78bd
000000a0: 1dee 323d ee03 25be 3b2e 9ebd af34 8a3c
000000b0: 2bcb a5bd 9256 6c3b 1fad 82bd 4282 52bd
000000c0: 9623 1abd fef5 273d 5c27 c9bd b803 0bbd
000000d0: 807e 6bbc 7065 14bd d9f1 20bd 062f 853b
000000e0: f3fa f8bd 5422 213d 4e19 4ebd de26 893c
000000f0: 3639 82bd 2cbc dfbd 039d 14bd 8d08 eabc
00000100: 7339 babd 4870 e5bd fbf0 06bd 09ea 003d
00000110: 2e0a 44bd efd9 4f3c 4e2b babd bacf 5dbd
00000120: 6446 acbc 81e9 2ebc c814 363c c481 97bd
00000130: 7acd 90bb d798 b9bc b388 da3a 2621 74bd
00000140: a548 3cbd c386 42ba 4e8e 7cbd 59a4 83bd
00000150: ca57 56bd ea61 62bd c0b2 e7bb e328 e73b
00000160: fe22 77bd bf6b 24bd d5a3 1fbe 5603 623b
00000170: c018 28bd c00a 26be 5c75 ce3d cb93 ea3c
00000180: 5ce7 a73d 749f 03be 7c72 bdbc 71e2 f1bd
00000190: c058 483c 5518 1b3d ebe4 8abd c9ac 373d
000001a0: 7663 f93c 3865 14bd 4c12 6fbc 7d70 f7bd
000001b0: c8c0 64bd e994 dfbc 1db6 1bbc 13b4 083d
000001c0: 1c2c 19bd da37 c8ba ec3d f23c e163 0bbc
000001d0: 184c 213d a6ac c8ba 1737 06bd 930d 84bd
000001e0: 0c9c e43c 894d 69bd 3c8e 453c f241 92bd
000001f0: 9f06 0dbd 5bcc 88bb b708 953d 6310 79bd
00000200: cb3f 05bc 99af 49bd e42f 34bc 5292 96bd
00000210: f7e8 3bbd 3e6c 89bc 2e34 8dbd 6998 963c
00000220: 3b4d 2dbd 4e6a 04bd 62ec 7abc 84db 10bd
00000230: 6cce 443c 2126 22bd 7ed1 dfbd 0613 35bc
00000240: 75d4 39bd 6d49 f43c bf8b a33c 2150 04be
00000250: cc6b cd3c 8e19 8bbd 3fa1 913c 6117 953c
00000260: 9e0d 3e3d ee12 84bd c7c8 a03c f7f1 d53c
00000270: 7488 7bbd f026 983b 9cdd 3ebd f22c 33bc
00000280: a920 b6bd 227e d83d 8431 4bbd 5748 63bd
00000290: 0015 89bc a7a2 e6bc c45e 033d e49c b93c
000002a0: 2648 173d 229f 5f3d 35b9 b63c df80 4e3d
000002b0: 10c1 77bd 5723 a9bd 0b81 dc3c 50a6 4d3d
000002c0: 6645 87bd 5c7d a03c 5f10 39be 9b65 30bd
000002d0: 1da5 7abc ace3 c2bc 7df6 bdbc 8c93 d13d
000002e0: bdf9 46bd 1cf8 b5bc 5bb6 9ebd 72f8 15bd
000002f0: 2dea acbd 6df1 aabc a2ab 95bd e0e8 393d
00000300: f983 cdbc 25a7 1e3c 2e27 e93d fa81 643d
00000310: 908b 73bd c237 debd 5bdb 5fbd d7df c33a
00000320: 39cd b33a 2836 51bd 8ad9 203d e4c5 bfbd
00000330: 0d90 8f3c 8f9a 41bd f110 7dbd b838 dfbc
00000340: 9ccc 67b9 1d68 31ba 2438 50bd da6d b23c
00000350: c0b5 9e3b 252b 6ebc ec31 df3b a910 513c
00000360: 79b2 383c ccba 0a3b dc22 51bd 1fbb dc3c
00000370: e761 c33c 55cb 97bc 315a 8c3c 1d78 faba
00000380: 1ef6 f73b fbb3 c73d 8e2d 2b3c 454b 9ebd
00000390: c279 78bd 3421 023d c1c7 88bd 78f6 8fbd
000003a0: ec70 863b 5665 b3bb 5462 bc3c 6777 f0bb
000003b0: afc5 2dbd e936 29bd 12b2 1a3d b0ce 90bd
000003c0: fe9f 8fbd df5d 4f3d ef8b daba 5bcd 063d
000003d0: fd55 b7bd 276c 033d 24f0 54bd 8274 1cbd
000003e0: db01 e0bd 3b95 c83c 6201 1fbc 4b5a a0bc
000003f0: a0a5 073d 6d85 80bd 6d80 2c3d e881 dbbc
-0.012030114 -0.04744716 -0.017989699 -0.0014728353 -0.07471612 -0.035504278 0.054804035 0.014079565
-0.0815701 -0.059096854 -0.016166463 0.028140213 -0.002246623 -0.067889445 0.032631893 -0.09447304
0.004783073 -0.0673673 -0.0045706495 -0.07311119 -0.06543552 -0.0023194046 -0.03863568 -0.014535645
0.047911875 -0.04448628 -0.035297215 -0.021317648 0.039327353 0.025122842 -0.076015204 0.0072079464
-0.007220662 -0.15444823 0.01348016 -0.011714529 -0.055611197 0.020245336 0.04120094 -0.060577262
0.043684114 -0.1611478 -0.077236615 0.016870825 -0.08095392 0.0036062342 -0.063806765 -0.051393755
-0.037631594 0.04100608 -0.0982196 -0.033939093 -0.014373422 -0.03622955 -0.039293144 0.0040644435
-0.1215724 0.03933938 -0.0503171 0.016742166 -0.06358568 -0.10924563 -0.03628255 -0.02856853
-0.09092989 -0.112030566 -0.03294466 0.031473193 -0.04786127 0.012686237 -0.09090291 -0.05415318
-0.021029659 -0.010675789 0.011113353 -0.07397798 -0.004419026 -0.022655888 0.001667282 -0.059601925
-0.045967717 -0.0007420594 -0.06165915 -0.06427831 -0.052329816 -0.05526916 -0.007070869 0.0070544346
-0.060336106 -0.040141817 -0.1558984 0.0034486852 -0.04103923 -0.16215038 0.10080978 0.028634926
0.08198425 -0.12853795 -0.02312588 -0.118107684 0.012228191 0.037865 -0.06781944 0.044842515
0.030442934 -0.036229342 -0.014591765 -0.12082002 -0.055847913 -0.027292686 -0.009503868 0.033374857
-0.03739558 -0.0015275434 0.029570542 -0.0085077 0.03937921 -0.0015310242 -0.03276738 -0.064479016
0.02790644 -0.05695871 0.012057837 -0.07141484 -0.034430142 -0.0041747517 0.07277053 -0.060806643
-0.008132885 -0.04923973 -0.010997746 -0.07352127 -0.04587647 -0.016775247 -0.06894718 0.018383222
-0.04230998 -0.032327943 -0.015315147 -0.035365596 0.012012105 -0.039587144 -0.10928629 -0.011051899
-0.04536863 0.029820168 0.019964097 -0.12921192 0.025075816 -0.067919835 0.017777083 0.018199624
0.046399705 -0.06448923 0.019626988 0.026116354 -0.06140943 0.0046433136 -0.046598062 -0.010936009
-0.08892948 0.10570933 -0.04960777 -0.05548891 -0.016733646 -0.02815373 0.032072797 0.02265782
0.03693404 0.05459512 0.02230511 0.05041587 -0.060486853 -0.08258694 0.026917001 0.050207436
-0.066050336 0.019591026 -0.18072651 -0.04306565 -0.015298155 -0.023790203 -0.023188824 0.102332205
-0.048578013 -0.022213034 -0.07749625 -0.03661389 -0.08443103 -0.020867074 -0.07308127 0.045388103
-0.025087344 0.009683405 0.11384426 0.055788018 -0.05945927 -0.10850479 -0.054652553 0.0014944029
0.0013717777 -0.051077038 0.03926996 -0.093639165 0.017524743 -0.04726654 -0.061783735 -0.027248725
-0.000221061 -0.0006767528 -0.05083479 0.021780897 0.0048434436 -0.014536654 0.006811371 0.01276032
0.01127302 0.0021168469 -0.051058635 0.026944695 0.023850394 -0.018529573 0.01713285 -0.0019109283
0.0075671813 0.097511254 0.010447873 -0.077292 -0.060662992 0.031769946 -0.06678725 -0.07029432
0.004102817 -0.0054747267 0.022996105 -0.0073384526 -0.042424854 -0.041312132 0.037767477 -0.070706725
-0.07012938 0.05062663 -0.0016673784 0.032910686 -0.08951948 0.032085564 -0.05198683 -0.038197048
-0.10937854 0.024485221 -0.0097049195 -0.019574305 0.033116937 -0.06275449 0.042114664 -0.026795343

weight f4 [2, 256]
00000000: f233 d63b 3b18 16bd 52d9 d7ba cdec a9bb
00000010: 1f88 c8bc 34db f1bb f880 343d a28d 023c
00000020: 504a b73c 6e69 ffbc 1dd1 92bc 94dc b33c
00000030: 5afe 873d a723 15bc e3e8 0c3d 87cd e0be
00000040: ce9b b13d 38ad 8cbc 75aa 3ebd f353 2b3c
00000050: 53a7 893d af62 113d ed7f 133d 3f8e debc
00000060: d1b2 5a39 f633 1c3c 228e 39bc 0bcb e1bc
00000070: 9eaf 40bd 411f 583c 1dec 4e3d ca77 6dbd
00000080: ca71 713c 99cf 8dbe 0072 6e3d b1a6 d1bc
00000090: 017b dabc e82d 43bd 4960 133d dc16 ff3c
000000a0: 9b36 a63c 9af5 c4be 2fa8 f83c b7f3 72bd
000000b0: e293 433c 17f0 9fbc dbee 3d3d b84e d5bc
000000c0: 00c4 4539 a82d 91bc a0bd 03be 7051 fc3b
000000d0: b8eb 89be dc73 c6bb 8707 bebc a4f4 e0bc
000000e0: f9da 98bd f99f 80bd 4df3 93bd 9841 e5bc
000000f0: 9eb7 13bd 207c 94be 6440 58bd f77d 3e3c
00000100: c4dc 96be 6f71 b23d 71e1 7a3c c8ed f63c
00000110: 509d 6cbc 0116 1dbd e911 3ebc 04f4 b5bc
00000120: 003c fa3b be94 3dbd 1838 ba3c 6d78 d93e
00000130: fd02 cb3c 5f06 0fbd b8b7 513b e6d1 613d
00000140: 16ed bdbc 47b2 4abd 62f9 233d 93ea 013c
00000150: 815d 9b3b d2ba 5f3d 28d0 383c 7e81 393c
00000160: 157a 2f3c 5000 bbbb 9afd 92be d130 4f3d
00000170: 72aa 2abd 4f02 98be d344 0e3e c0be d7bb
00000180: d47f 45bd 587a 283e 1abd c83c 1c4f a0be
00000190: dc04 223d 4f09 033d 3552 29be 7109 14bd
000001a0: 9b06 f7bc b969 293c f632 eabc bdaa b0be
000001b0: 63be 293d c86d db3c 3bc7 153d 87b0 54bd
000001c0: 9c92 64bc 5683 1d3e 6334 db3c 3d09 843d
000001d0: 74c4 edbc 804a 2bbd 0918 593c f821 92be
000001e0: b643 7c3d 3967 40bb bc76 4b3d 1b17 063b
000001f0: e31e 1fbd eb01 193d f94f 40be 9253 9e3c
00000200: 0fa2 883a 3e7c 3f3d 2d4f 35bc 5f42 e73c
00000210: cce3 babc 7358 953b 538c 0eba fcf0 ccbd
00000220: a9d7 b33c 71a4 a2b9 1347 073d 8332 29bd
00000230: a23b 0dba 1d87 35bd 2921 423d eae3 91be
00000240: 0f9f a7bc 8cc5 9abc c672 993c fa15 40bd
00000250: e6ef 6abd 88b5 213d caf1 fdbc 52eb a73d
00000260: 14e2 00bd 2e90 3bbd e775 953a 7b1a c4ba
00000270: a5f6 f23a dcd5 2a3d c447 6f3d 4fb2 4cbd
00000280: be25 57bc 9df6 8c3d e32d 923c bd16 7cbe
00000290: d9a0 063d 1e55 b73c 9bba 8dbd 3558 d5bc
000002a0: 558e 22bd c229 b7bb 5623 3abd cf79 40bd
000002b0: c0e8 76bd efdf 0fbd a6e8 473d 41fa c3bc
000002c0: 8641 f13b b730 973b 7b02 83be 8eff dc3c
000002d0: 9174 bb3c e014 7f3d 4b53 40bc f569 a73d
000002e0: 3eab 8cbc c553 213c aec1 87bc 40bb c13c
000002f0: ff2e 8fbe 606f fbbc da7b 1bbc cd22 4c3c
00000300: 9e71 f53c bf3c 5ebd 6d8f a63d 3520 023d
00000310: a92f 513b 4a52 39be cfe4 10bb 2e36 c6bc
00000320: 1b00 253d d007 da3c cfeb 0d3d 7ad2 6f3d
00000330: f27b a93c c7c7 8d3c 1f02 02bd 37b8 10bc
00000340: 76b5 19bd 3408 213d 5b6c 183d ee34 143d
00000350: 8fd5 c1bc e724 4ebd 5b59 013c 6492 f2bc
00000360: 07b5 773b 5b6d 36bd ee41 2cbc a514 14bc
00000370: 24f8 173d 6c20 2a3b 2bf7 413d 56b9 6b39
00000380: 83f1 193c 370f 913d c0df dd3c b69a d5bc
00000390: 14e9 85bb 123c 6e3e 43e4 95bd e7c6 2e3d
000003a0: 5c3f 53bd fcbc 38bd af41 fd3c 19b8 01bd
000003b0: 0c35 ef3b 6bad da3c 106d c0bb 8955 cc3c
000003c0: f111 f83e 5001 da3c e525 f33c 4b1f 373d
000003d0: e4fd 7cbe feec 2fbd 11b3 183d 46a7 8f3c
000003e0: 1655 aabe af80 b73b e374 2f3d e2c5 66bc
000003f0: 9729 b13c ac50 0d3d 213f 7f3c 6678 34bd
0.006536954 -0.0366442 -0.0016467965 -0.0051856996 -0.02447897 -0.0073808674 0.044068307 0.007968338
0.022374302 -0.031178202 -0.017921979 0.021955766 0.066403106 -0.009102738 0.034401786 -0.43906805
0.086722955 -0.01717244 -0.04654928 0.010457027 0.06721368 0.035494503 0.03601067 -0.027167438
0.00020856714 0.009533873 -0.011325391 -0.027562639 -0.04704248 0.013191045 0.050518144 -0.057975568
0.014736602 -0.27697447 0.058214188 -0.02559218 -0.026669981 -0.0476512 0.035980497 0.03113883
0.02028971 -0.3846863 0.030353634 -0.059314456 0.0119371135 -0.019523663 0.04637037 -0.026038513
0.000188604 -0.017721966 -0.12865305 0.007700138 -0.26937652 -0.006056292 -0.023196949 -0.027460404
-0.07463641 -0.06280512 -0.0722414 -0.02798538 -0.036063783 -0.2900095 -0.052795783 0.011626712
-0.29465306 0.08713042 0.0153125385 0.03014268 -0.014441803 -0.038351063 -0.01160095 -0.022211082
0.007636547 -0.04628443 0.022731826 0.4247469 0.024781698 -0.034918185 0.0032000374 0.055131815
-0.02318434 -0.049486425 0.04003275 0.007929462 0.004741371 0.054621525 0.011280097 0.011322377
0.010710259 -0.0057068244 -0.28709108 0.050583664 -0.041666456 -0.2968926 0.13893442 -0.0065840185
-0.04821761 0.1645292 0.024504233 -0.31310356 0.039555416 0.0319913 -0.16535266 -0.036141817
-0.030154517 0.010340148 -0.028588753 -0.34505263 0.041441333 0.026785746 0.036566954 -0.051926162
-0.01395097 0.15382132 0.026758378 0.064470746 -0.02902434 -0.041819096 0.013250359 -0.2854154
0.06158801 -0.00293584 0.04967378 0.002046055 -0.038847815 0.037355345 -0.18780507 0.019326959
0.0010424274 0.046749346 -0.01106624 0.02822989 -0.0228137 0.004557663 -0.000543778 -0.100069016
0.02195342 -0.00031021566 0.033026766 -0.041307937 -0.0005387609 -0.044318307 0.047394905 -0.28494197
-0.020461587 -0.018893026 0.018731486 -0.04689596 -0.05735769 0.039479762 -0.030999083 0.08199181
-0.031465605 -0.045791797 0.0011402935 -0.0014961505 0.001853664 0.04170786 0.05841805 -0.049974736
-0.013131557 0.06882975 0.017844146 -0.24618049 0.03286824 0.022379454 -0.06920358 -0.026043037
-0.03968652 -0.0055896947 -0.045443855 -0.046991166 -0.06028056 -0.03512567 0.048805855 -0.023923041
0.0073625473 0.0046139616 -0.2558783 0.026977327 0.022882732 0.062275767 -0.011738609 0.081745066
-0.017171498 0.009846632 -0.016571846 0.023648858 -0.27965543 -0.030692756 -0.009489978 0.012459469
0.029961403 -0.05425715 0.08132825 0.031768996 0.0031919277 -0.18097797 -0.0022109037 -0.024195757
0.040283304 0.026615053 0.034648713 0.058550335 0.020688985 0.017307175 -0.031740304 -0.008832983
-0.03752657 0.039314464 0.03721271 0.03618329 -0.023661403 -0.05032816 0.007894839 -0.02961082
0.003779711 -0.044537883 -0.010513766 -0.009038125 0.03710188 0.0025959266 0.04735486 0.0002248039
0.00939596 0.0708298 0.027084231 -0.026074748 -0.004086623 0.23265103 -0.07318928 0.042670157
-0.051574096 -0.045102105 0.03091511 -0.03166971 0.007300025 0.02669402 -0.0058723763 0.02494313
0.48451188 0.026611954 0.029681155 0.044707578 -0.24706227 -0.042950623 0.037280146 0.017535817
-0.3326804 0.005600057 0.04283608 -0.014085265 0.021626277 0.034500763 0.015579016 -0.044060133

bias f4 [2]
00000000: ab97 123c 6fdf 0e3d
0.008947293 0.03488105

weight f4 [256, 256]
00000000: d52a 06bd 9ebc a2bd bef5 78bc 08e5 72bd
00000010: c80c 5e3c 5077 bd3b c011 f23c 4288 36bd
00000020: 7b87 aebb 89d5 25bd f252 15bd 9c99 93bd
00000030: 6ed2 26bd e11d a3bc 79bc e33c d864 8f3b
00000040: b01a 61bd 84f8 82bd f8fb 373c 1581 d6bc
00000050: 0072 85ba ac5c c7bc 601e b9bc 5c4b a7bd
00000060: 334f 303d 6d47 afbd 6bbc 973b 2eac b0bd
00000070: aee5 553d 4c79 61bd c87d 06bd 6e8b 143d
00000080: f089 b23b 32f9 d03b ac9d 073d 6fd5 b03c
00000090: 2cf0 37bd 25d5 b3bd 5db8 a7bd e5b3 91bc
000000a0: 585a 40bd 6e51 24bd 3646 223d 5c25 aabd
000000b0: 8fb6 8bbd 4f08 dbbc 2bf0 113d 07d5 eabc
000000c0: 87b6 ad3c a412 66bd 62f2 54bd 9f59 613c
000000d0: b482 a4bd 1d43 00bd 1f27 e63c 221d 25bd
000000e0: 97c9 573c 986f 2ebd 1ec1 85bd fdec 89bb
000000f0: 8ed9 db3c 46f6 09bc 6e10 50bd ba5f b6bd
00000100: 5ef6 0fbd 4c98 1c3c a0e1 dbbc ee05 0fbd
00000110: b0ee 4cbd 8598 6ebd 301c 033d 6fe3 9d3c
00000120: c607 303d bcc9 a83c 7f20 8dbd 7a3a 42bd
00000130: 2672 7c3c 03a2 8bbd 475a 72bd 9489 043c
00000140: 3554 e73b a726 cbbc 5c1f f33c 173c 20bb
00000150: 282d aabc 01f0 b2bc d27b 1a3d bf39 b7bc
00000160: 60e0 9cbb 3352 bebd 9159 c0bd ac40 a0bc
00000170: 8502 e1bc 1816 96bd 1d6d 9c3b 1a0e 7ebd
00000180: 64de 30bd 8531 323b 6564 fbbc f915 92bd
00000190: 280f 4dbd 9598 de3c f00c 883b 68c7 3dbc
000001a0: 3891 c4bb 85b4 9ebd efeb 75bc 1939 cdbb
000001b0: 5af9 38bd 7f8a 9c3b 4feb 5bbd 2459 643d
000001c0: e2ef 663d 8a1f cdbd a77c e73c c536 733c
000001d0: 3d87 cb3b 8089 0fbc e1e1 3abd 817d 72bd
000001e0: 2e6d 8abc 53b3 453c de93 1cbd 21ca f4bc
000001f0: 00ed e73c 7089 dcbb fea6 663d b461 b2bd
00000200: f8b0 e03c f792 873a 9167 a6bd 6709 aebc
00000210: 145e d7bc 667a 2abd 7c49 cebc 0f9a 8a3c
00000220: 7a34 ec3c 2f3f 8cbd 01b8 01bd 0002 9f3c
00000230: 45fe b2bd 7206 353d db83 593c 7e74 7dbd
00000240: ce69 03bd b11a 973c f609 a3bb 36d1 22bd
00000250: 816a 01bd 70a6 81bc e03c 9c3c 40e9 233c
00000260: 7ae0 3d3d 6cc3 bcbc fce0 b8bd 0cee 63bc
00000270: a200 eabc f0db 0ebd 6376 a73b ea16 21bc
00000280: c8a7 01bc f7e5 d5b9 dcc1 bb3c ac47 f5bc
00000290: 4c0b 72bd c8f9 6bbc 693a 6ebd 5742 afbd
000002a0: 92e6 5fbd c5aa 24bd 2dbc 0fbd e666 0dbd
000002b0: 55f1 3d3c 33fb 433c 831b 33bc 3b0b 5cbb
000002c0: 569c 7ebd 5c25 853c 23a6 2bbd 2c66 7cbd
000002d0: 0874 693c 96db b9bd 1ba6 b1bc 10ff 99bc
000002e0: dc57 8c3c d8eb 9ebc fde7 74bc 6e15 fd3b
000002f0: ecfc 0e3d fa11 8b3c f427 70bd 9014 4cbd
00000300: 9192 99bd 3ecf bdbd 8c0c 14bd 9002 dbbb
00000310: 56e4 a03c 749f 823c c082 6b3d c1eb e9bb
00000320: 4755 6bbd 0476 73bd 99df 833c 2f1d 9ebd
00000330: 2c78 ccbc 14f2 36bd d7be 14bc 3216 113c
00000340: 664d b7bc ba3a 963c b301 bf3a c730 cb3b
00000350: 1dd3 76bc 89c2 18bd 6c8e b8bc 4702 7a3c
00000360: 0bcd 7cbd 80a6 47bd 71eb 4fbd 5de3 babc
00000370: e95a 05bd e8c3 3f3c 31d2 a3bd 20a2 7dbd
00000380: 96d5 debc 6806 1bbc 67cb 29bc b658 0a3d
00000390: 4532 bfbc 0fdf bdbd f02e ce3c 0466 debc
000003a0: d6fd 05bd 94c9 b6bd aa79 a83b c486 893c
000003b0: d02c 8cbb 841c 29bc 5647 9fbd abd9 b0bd
000003c0: debc 9cbd 8c12 96bd f774 003d 0346 863b
000003d0: f964 2cbd 301f 19bc 4520 b8bd ecf2 0abd
000003e0: 32d8 20bd 445f 9ebd b2e2 d33c eefb b63c
000003f0: 1769 143b 8482 9dbd 4703 28bd 1833 27bc
-0.03275569 -0.07946132 -0.015195308 -0.059300452 0.013552852 0.0057820454 0.02954948 -0.04456354
-0.005326209 -0.040486846 -0.036456056 -0.07207033 -0.040728025 -0.019911708 0.027799832 0.004376035
-0.05495709 -0.06395057 0.011229508 -0.026184598 -0.0010181069 -0.024336182 -0.022597492 -0.081686705
0.04304428 -0.08558545 0.0046306155 -0.08626591 0.052220993 -0.05504732 -0.032834798 0.036265783
0.0054485723 0.0063773626 0.033109352 0.021586148 -0.04490678 -0.087808885 -0.081894614 -0.017785976
-0.04696116 -0.04011672 0.03961774 -0.08307907 -0.0682193 -0.02673736 0.035629433 -0.028666032
0.0212052 -0.05617012 -0.051988967 0.0137542775 -0.08032742 -0.031314004 0.028094826 -0.040310986
0.013170621 -0.042586893 -0.06530975 -0.0042091594 0.026837137 -0.008420533 -0.05079692 -0.08904977
-0.035147063 0.009557795 -0.026840985 -0.034917764 -0.050032318 -0.058250923 0.032009304 0.019273488
0.042976163 0.020604007 -0.06890964 -0.04741905 0.0154080745 -0.06818011 -0.059168126 0.008089442
0.007059599 -0.024798704 0.02967804 -0.002444988 -0.020773485 -0.021842958 0.03771574 -0.022366403
-0.00478749 -0.09293022 -0.093920834 -0.019562088 -0.027467022 -0.07328433 0.0047737495 -0.062025167
-0.04318084 0.002719016 -0.03068752 -0.07133097 -0.050063282 0.027172366 0.004151933 -0.011583187
-0.0059987567 -0.07749275 -0.015009864 -0.00626291 -0.045159675 0.004777252 -0.053691205 0.055749074
0.056381114 -0.10015781 0.028257681 0.014844601 0.00621119 -0.00876081 -0.04562557 -0.05920172
-0.016897764 0.01206668 -0.038226955 -0.029881539 0.028311253 -0.006730251 0.0563116 -0.08710042
0.027428135 0.0010343482 -0.081252225 -0.021244718 -0.026289977 -0.041620634 -0.025181524 0.016919164
0.028833617 -0.06847989 -0.03166962 0.019410133 -0.08739904 0.0441956 0.013276066 -0.061878674
-0.032083325 0.018445345 -0.0049755527 -0.0397503 -0.03159571 -0.015826434 0.019071996 0.010004342
0.046356656 -0.023042403 -0.09027287 -0.013911735 -0.028564755 -0.034877717 0.0051105483 -0.009832123
-0.007913537 -0.00040797863 0.022919588 -0.029941402 -0.059092805 -0.014402814 -0.058161173 -0.08557575
-0.05466325 -0.04020192 -0.035091568 -0.03452196 0.011593183 0.011961746 -0.010931852 -0.003357603
-0.062160812 0.016253166 -0.041906487 -0.061620876 0.014248855 -0.09075086 -0.02168565 -0.018798381
0.017131738 -0.019399568 -0.014947888 0.007723502 0.034909174 0.016976345 -0.058631852 -0.049824297
-0.074986584 -0.09268044 -0.036144778 -0.006683655 0.019640129 0.015945174 0.05749774 -0.0071386998
-0.057454374 -0.05943872 0.01609783 -0.0772041 -0.024959646 -0.044664457 -0.009078703 0.008855389
-0.022375774 0.01833855 0.001457265 0.006200883 -0.015064982 -0.0372949 -0.02252885 0.015259332
-0.06171898 -0.04874277 -0.050761644 -0.022813493 -0.0325574 0.0117044225 -0.07999075 -0.061922193
-0.027201455 -0.009461977 -0.010363436 0.033776008 -0.0233394 -0.09271061 0.025168866 -0.027148254
-0.03271278 -0.08925167 0.0051414566 0.016787894 -0.004277803 -0.01032174 -0.07777278 -0.08635267
-0.07653211 -0.07327756 0.031361546 0.0040977015 -0.042088483 -0.009345815 -0.0899053 -0.033923075
-0.03926868 -0.07733014 0.025864933 0.022336926 0.0022645646 -0.076909095 -0.04101875 -0.010205053

bias f4 [256]
00000000: 7ee4 45bc 35f9 803e acf9 75bd d02e a3bc
00000010: 7475 833d ed57 4e3d 40bb 143c 98fe 63bc
00000020: 07d1 32bd 1df4 55bd be09 633d e425 06bd
00000030: ecf5 babc ba38 1c3c 16b0 4f3d 6e4b 2ebd
00000040: fd78 8fbb 9db1 12ba 8a10 963c 000b 943e
00000050: 00f4 04bc a838 4dbd da41 ed3d c26b aebd
00000060: 8184 81bd 2002 d739 c1a9 603e 0b96 053d
00000070: 9534 163e 3a79 a43d 9d47 87bd 28e3 18bd
00000080: 7d3d 173e eb6a 563d c6f8 85bd 719a 08bd
00000090: 8b58 223d be3c fb3d 7d44 943e c046 50bd
000000a0: 04dc 0c3d 6f11 5b3e 3d0f d4bc 29ef 443c
000000b0: d778 4bbd 0719 f93c adb6 5e3c 54d8 143d
000000c0: 5256 89bc c0a8 1cbb c3da bbbc 0a41 bcbc
000000d0: afdd 92bd 7112 0bbe 8ef1 133e c0ce 873a
000000e0: 20fe 0c3d b5aa 86bd bfab f23d 60fd b43d
000000f0: 27f1 1d3e 2af7 d43c 5f50 4f3c c641 9ebc
00000100: b145 613e 242e 8cbd 1c19 323e 6e74 a83c
00000110: b13a 873e b91e d1bc 69a8 153e c45f 07be
00000120: 8840 89bc be94 86bc ec44 92bd be72 993c
00000130: e727 2b3d 9da1 0f3e b02e 66bc 2479 98b8
00000140: ee1d 963e fe62 043d 7606 823c 08b9 54bd
00000150: eb77 0e3d 3c1e 3c3e 727f 55bd 3dc4 8e3e
00000160: d909 ba3d 7011 7cbd cc47 f9bc aca8 0d3e
00000170: cebe 7a3e cc57 80b9 96bc 033d 6d02 30bd
00000180: d645 803e a970 923d a43e 173d a28d e23c
00000190: 80b4 253e 8c07 d33d c2c3 1bbd 5b0e 0e3d
000001a0: 1c26 00bc 6fb1 883d 4e95 193e 8806 993c
000001b0: 1d34 1fbd bfe0 f4b9 1845 55bd f7a2 44bd
000001c0: d903 53bd 5e1d 2bbd ed4b 36bd 99f2 75bd
000001d0: 46ed 4e3e b0ff 93bb 1345 523c 3313 86bd
000001e0: 124b 003e e85b fbba 4a11 183e 6b83 9dbd
000001f0: daf6 843e 4953 81bd 7cfa a9bd e0e3 f3bc
00000200: 9a40 403d 157c a8bc 3226 ec3d 8e7d 643b
00000210: 68d0 81bd 1af2 0cbd 308f ebbb 8a5e 4d3d
00000220: e82d fdbc 2829 d0bc 1ddc 673e c8f4 36bd
00000230: abcd 673e b637 4bbd 6077 4fbd 169c 53bd
00000240: 3824 123e b0e2 fbbc 9664 fbbc 1d10 e03c
00000250: 73eb f3bb c488 433e 654e d0bc a3e1 95ba
00000260: 351b 67bd 703b 1d3e cbf4 163e 3abd 4dbd
00000270: a510 b73c 6805 37be e416 b0b9 a4eb 3d3d
00000280: 1fd5 8dbd b30b 703d ba78 123c ecf3 5fbc
00000290: c7e2 66bb 53ec 383e 48b1 a6bd 1df9 3cbd
000002a0: 484f 2e3e 849f 7b3c 1c2e 283e f2ee 0d3d
000002b0: 85a4 8d3e 4ce2 d23c 43a1 943c e9a1 59bd
000002c0: ad69 9a3e bf13 b43d 6cf8 263e ec84 6abd
000002d0: 690b 1cbd 41f0 223e a8b0 093d 8b6c 34bd
000002e0: 7d37 59bd abc2 46bd 0f38 83bc 80e7 45bd
000002f0: ec2e 1e3e ad11 eb3d d13f fd3d b30e 99bc
00000300: df67 fabc e39a 703e b9bb a6bc ddc6 80bc
00000310: b82b d73a 791e 22bd ed4b f2bc 481c 43bd
00000320: a0a4 663e 268b 5a3d 50d8 6b3e 571b 96bd
00000330: f0f1 45bd 7baa 06bd 8ab0 e23d 31e5 393e
00000340: 1130 92bd 5c8e a6bd 9a56 253e 6e2a 143d
00000350: 4207 8e3e 41b3 513c b73e 12bd bba6 87bd
00000360: 4313 76bd 4939 18bd 885f 2c3e abde 703e
00000370: 5a29 f23d 2266 a73d 5d4b 3fbd 11ba 14bc
00000380: 85eb 1abb b8c3 61bd 5971 98bc 4d90 d2bb
00000390: 9402 0b3e f4ad 863a 824f af3c 669c b3bd
000003a0: afe9 1e3d e8bf ce3c 89e7 623e df5c 643e
000003b0: a2c4 9b3d d107 173e 4b12 d43d af42 d73d
000003c0: 338c d93d 1c81 93b8 f0f5 3b3e c171 523c
000003d0: 129d a83d b0a0 3d3d 8acf 0b3e 5a5f 39bd
000003e0: 6b11 59bd d0db 863d e790 de3d c7d4 0d3e
000003f0: a146 91bc 06a4 0a3e 88a7 7e3e 906b fabc
-0.012078403 0.2519013 -0.06005256 -0.019919783 0.06418887 0.05037682 0.009077847 -0.01391568
-0.043656375 -0.052234758 0.055429213 -0.03275098 -0.022822343 0.009535009 0.050705038 -0.042552404
-0.0043784366 -0.00055959244 0.018318433 0.28914642 -0.008114815 -0.05010286 0.11584826 -0.08516647
-0.06324101 0.0004100958 0.21939756 0.032613795 0.14668496 0.08030935 -0.06605456 -0.037326008
0.1476955 0.05234806 -0.065415904 -0.03335041 0.039635222 0.12267445 0.28958502 -0.050848722
0.03438951 0.21393369 -0.025886172 0.012019911 -0.04967579 0.030407442 0.013593358 0.03633912
-0.016764794 -0.0023904294 -0.022931462 -0.022980232 -0.07171189 -0.13581254 0.14447615 0.0010361299
0.03442204 -0.065755285 0.11849164 0.0883739 0.15424024 0.025996763 0.012653439 -0.019318473
0.21999241 -0.06844738 0.17392391 0.02056333 0.26411965 -0.025527345 0.14615025 -0.13220125
-0.016754404 -0.016428348 -0.07142052 0.018731471 0.0417861 0.14026494 -0.014049217 -7.270489e-05
0.2931971 0.03232097 0.015872221 -0.051934272 0.03478233 0.18370908 -0.052123494 0.27884093
0.090839095 -0.061540067 -0.030429743 0.13833874 0.24486849 -0.00024479476 0.03216227 -0.042971063
0.2505328 0.071503945 0.036924973 0.027655426 0.16182137 0.10304174 -0.038028486 0.03468166
-0.007821586 0.06674468 0.14998361 0.018679872 -0.03886806 -0.00046706756 -0.052067846 -0.048006978
-0.05151734 -0.041776054 -0.044506002 -0.060045812 0.202077 -0.0045165643 0.012833851 -0.06546631
0.12528637 -0.001917717 0.14850345 -0.076910816 0.25969583 -0.063147135 -0.08299729 -0.029771745
0.04693661 -0.02056698 0.11530723 0.0034864875 -0.063385785 -0.034410574 -0.0071887 0.050138988
-0.030905679 -0.02541025 0.2264256 -0.044667035 0.2263705 -0.049613677 -0.050650954 -0.051662527
0.14271629 -0.030747741 -0.030687612 0.027351433 -0.007443839 0.1909514 -0.025428006 -0.0011435043
-0.05642243 0.15354705 0.14741819 -0.05022929 0.022346804 -0.17873156 -0.0003358639 0.046367303
-0.06925415 0.058604907 0.008939916 -0.013668995 -0.0035230385 0.180589 -0.081392825 -0.04613601
0.17022431 0.015357856 0.1642384 0.034651704 0.2766458 0.025742672 0.018143302 -0.053132925
0.3015875 0.08792829 0.16305703 -0.05725567 -0.03809682 0.15911962 0.03361574 -0.044048827
-0.053031433 -0.048525494 -0.016017942 -0.04831648 0.15447587 0.11477981 0.12365688 -0.018683767
-0.030567108 0.23496585 -0.020353185 -0.015719825 0.0016416227 -0.039579842 -0.02957722 -0.047634393
0.22523737 0.05335536 0.23031735 -0.073294334 -0.048326433 -0.032877427 0.110688284 0.18153836
-0.07138074 -0.08132622 0.16146317 0.036173277 0.27739912 0.012799085 -0.03570434 -0.06623598
-0.060076963 -0.037164006 0.16833317 0.23522441 0.118242934 0.08173777 -0.04670273 -0.009077565
-0.0023638916 -0.055118293 -0.018608736 -0.0064258934 0.13575202 0.0010275231 0.021400217 -0.08770065
0.038797077 0.025237992 0.22158636 0.22301053 0.07605864 0.14749075 0.103550516 0.10510766
0.10622444 -7.033555e-05 0.18355536 0.012844504 0.08233084 0.04629582 0.13653389 -0.04525695
-0.052995127 0.06584895 0.10867482 0.138507 -0.017733874 0.13539132 0.24868596 -0.030568868
