save/model/cartpole_dqn_hid_256_512.pth (torch_old, 537461 bytes, 6 tensors)

weight f4 [256, 4]
0	0x3e548535	0.2075394
1	0xbdb3843f	-0.08765458
2	0xbeb15aeb	-0.34639677
3	0xbdb50318	-0.08838481
4	0x3d959cdc	0.07305309
5	0x3d230c42	0.03980661
6	0x3fa35b18	1.2762175
7	0x3dd0b20a	0.10190208
8	0x3f22b68a	0.6355978
9	0xbe53272a	-0.20620409
10	0xbf119d61	-0.56880766
11	0xbe8655a4	-0.26237214
12	0x3da55066	0.080719754
13	0xbeff60d3	-0.4987856
14	0xbf4d16a7	-0.8011269
15	0xbedeade2	-0.43492037
16	0xbe061bad	-0.13096495
17	0xbe1f8ac8	-0.15580285
18	0xbdc328ba	-0.09529252
19	0xbea663d1	-0.3249803
20	0xbe3fb8ff	-0.18722914
21	0xbda8a8e7	-0.082353406
22	0x3eb97ac1	0.36226466
23	0x3db5e09d	0.08880732
24	0xbea95e1a	-0.33079606
25	0x3d202ebf	0.03910708
26	0x3f9bacec	1.2162147
27	0x3e0378d4	0.12839061
28	0xbf03cb32	-0.51481926
29	0xbb06bf95	-0.002056097
30	0x3f2e3f8e	0.68065727
31	0x3ddd394b	0.108019434
32	0xbd5e79a2	-0.054315217
33	0xbd88e135	-0.0668358
34	0xbebfc6a7	-0.37456247
35	0x3e84836e	0.25881523
36	0x3e6f31c5	0.2335883
37	0xbe9129c5	-0.2835218
38	0x3e9c5721	0.30535224
39	0xbe64033d	-0.2226686
40	0x3f269fec	0.6508777
41	0xbd2e6f0f	-0.042586382
42	0xbe5b0f74	-0.21392614
43	0xbd837493	-0.06418719
44	0xbe3890c3	-0.18023972
45	0xbce12d18	-0.027487323
46	0x3ebd50a8	0.36975598
47	0x3dfd0053	0.123535775
48	0xbeb6df32	-0.3571716
49	0xbe8bfe6c	-0.27342546
50	0xbf635ad2	-0.88810456
51	0xbea82d9b	-0.32847294
52	0x3ef82c45	0.48471275
53	0xbea1cf23	-0.31603345
54	0x3e518a0e	0.2046282
55	0xbea51054	-0.3223902
56	0x3d135849	0.035972867
57	0x3cc170f9	0.02361344
58	0xbe677675	-0.22603782
59	0xbd58ba38	-0.052911967
60	0x3e4b37e6	0.19845542
61	0xbea3d0c4	-0.31995213
62	0xbeb0306e	-0.3441195
63	0x3dedbe75	0.116085924
64	0x3cae4a20	0.02127558
65	0x3dcabfe8	0.098998845
66	0xbdfdc528	-0.1239112
67	0x3def30d0	0.11679232
68	0xbe61f11a	-0.22064629
69	0x3e735712	0.23763683
70	0x3f4ec177	0.80763954
71	0x3ea41c50	0.3205285
72	0x3ed10b9e	0.40829176
73	0xbea96227	-0.33082697
74	0xbf85e11f	-1.0459327
75	0xbea20e04	-0.31651318
76	0x3ccc6a31	0.02495298
77	0xbe38fa2f	-0.18064187
78	0x3e2b3318	0.1671871
79	0xbde46a0b	-0.111530386
80	0x3f4adfce	0.7924775
81	0x3ee1b247	0.44081327
82	0x3fb3413c	1.4004283
83	0x3eb03c39	0.34420946
84	0x3ec93dc4	0.39304936
85	0x3eae885d	0.34088412
86	0xbef7dde2	-0.4841147
87	0x3e34b6f9	0.17647924
88	0xbe887113	-0.2664877
89	0x3ea7cf38	0.32775283
90	0xbf27b19b	-0.6550538
91	0x3ed8dd5a	0.42356378
92	0xbe920226	-0.28517264
93	0x3e6fde28	0.2342459
94	0x3f40e91b	0.7535569
95	0x3e78e00b	0.24304216
96	0x3e84b969	0.25922707
97	0x3ed39cd5	0.4133059
98	0xbd87e1fd	-0.06634901
99	0xbc7e16fb	-0.015508409
100	0x3eece001	0.4626465
101	0x3ddfe1b0	0.10931718
102	0xbec85878	-0.39129996
103	0x3c71d2f7	0.014759771
104	0x3f32298a	0.69594634
105	0xbdfc3978	-0.12315649
106	0xbceeac77	-0.029134972
107	0xbe05ffd1	-0.13085867
108	0xbdfc107f	-0.12307834
109	0xbe7a264a	-0.24428669
110	0x3d293e7e	0.041319363
111	0x3d2e390e	0.04253488
112	0xbe1c6bb1	-0.15275456
113	0x3dffce71	0.124905474
114	0x3f6aa50e	0.91658103
115	0x3de89374	0.113562495
116	0x3f0a4762	0.5401517
117	0x3d926d07	0.071497016
118	0xbe9375e7	-0.2880089
119	0xbd0c5139	-0.034257147
120	0x3dd79adb	0.10527583
121	0xbdf14c4b	-0.1178213
122	0xbe71766b	-0.23580329
123	0x3e09e6ed	0.13466997
124	0xbe6bb122	-0.2301679
125	0x3e4cc8a7	0.19998418
126	0xbe400a70	-0.18753982
127	0xbdec5700	-0.115400314
128	0x3f398754	0.7247212
129	0xbdc0c9fc	-0.094135255
130	0xbe26edcd	-0.16301651
131	0xbe139901	-0.14413835
132	0x3f254777	0.6456217
133	0xbe26ee90	-0.16301942
134	0xbf7cad44	-0.9870188
135	0xbdb625c1	-0.0889392
136	0xbedd481f	-0.43219087
137	0x3ead72ba	0.33876592
138	0x3ecc5b44	0.3991338
139	0x3e9549e7	0.29157946
140	0xbd326d66	-0.04356136
141	0x3eb96b19	0.36214522
142	0xbe90ebc6	-0.2830488
143	0x3eca7e22	0.39549357
144	0x3d902205	0.07037739
145	0x3e498301	0.1967888
146	0x3f0fb4e1	0.56135374
147	0xbe4a536c	-0.19758385
148	0x3e18300f	0.14862083
149	0xbd347aa4	-0.04406227
150	0xbea2d8c4	-0.31806004
151	0x3e3c712b	0.18402545
152	0x3eaa8158	0.33301806
153	0xbe844340	-0.25832558
154	0xbeaae621	-0.333787
155	0x3e042584	0.12904936
156	0xbe6ad992	-0.22934559
157	0x3d50fd1f	0.051022645
158	0xbd8511e1	-0.06497551
159	0xbd100c4a	-0.03516797
160	0xbede4676	-0.43413132
161	0xbd2c14b5	-0.042011935
162	0x3c98ae74	0.018637873
163	0xbe1feb47	-0.15617095
164	0xbea6117c	-0.32435215
165	0xbdae36a9	-0.08506519
166	0x3d7c4b9e	0.06159555
167	0xbe6a8f1f	-0.22906159
168	0xbdd18abe	-0.10231541
169	0xbd88d0ac	-0.06680426
170	0xbf9c76de	-1.2223775
171	0xbe51765b	-0.20455305
172	0xbe85aa39	-0.26106432
173	0xbe0294e7	-0.12752114
174	0xbeb604dc	-0.35550582
175	0xbe1bbba8	-0.15208304
176	0x3f17b4c2	0.5926019
177	0x3e1091b7	0.14118086
178	0x3f21cdc3	0.6320459
179	0x3df2233b	0.11823126
180	0x3cb55d5f	0.02213925
181	0xbddd116e	-0.1079434
182	0xbf851f13	-1.0400108
183	0xbebd2b85	-0.36947265
184	0x3f02617b	0.50929993
185	0xbe0b04d5	-0.13576062
186	0x3ef73259	0.482806
187	0xbe09a587	-0.1344205
188	0xbdba5569	-0.09098322
189	0xbe9c7707	-0.3055956
190	0x3f14e7a0	0.5816593
191	0xbc628951	-0.013826684
192	0xbf30f306	-0.69120824
193	0x3e12cbd4	0.14335567
194	0x3f1436fb	0.57896394
195	0x3d6e29f8	0.058145493
196	0xbdc2b89c	-0.09507868
197	0xbe2bceb4	-0.1677807
198	0xbfd320ad	-1.6494347
199	0xbea81c86	-0.32834262
200	0xbeac4d3d	-0.33652678
201	0x3e69ab0d	0.22819157
202	0x3eeda2cc	0.46413267
203	0x3da92959	0.082598396
204	0x3f2d78c2	0.67762387
205	0x3d89f373	0.067358874
206	0x3f2a8464	0.6660826
207	0x3c1fab33	0.009745407
208	0xbd92bffb	-0.071655236
209	0x3eb4a1f3	0.35279807
210	0x3f3d3925	0.7391532
211	0x3ee50745	0.4473211
212	0x3f078527	0.5293755
213	0x3b8ef073	0.00436216
214	0xbf49393b	-0.7860295
215	0xbe35c9f1	-0.17752816
216	0x3e5b6930	0.21426845
217	0xbe63077f	-0.22170828
218	0xbf2f8804	-0.6856692
219	0xbcc98fab	-0.024604639
220	0x3eceadde	0.40367025
221	0x3e861dd7	0.2619464
222	0x3fa6643e	1.2999341
223	0x3e396766	0.1810585
224	0xbe85e218	-0.26149058
225	0x3dac3431	0.08408392
226	0x3f552f65	0.83275443
227	0x3e1db2b1	0.15400197
228	0xbeb3ad4b	-0.3509315
229	0x3e8a326b	0.2699159
230	0x3d32f52a	0.043690838
231	0x3e908bca	0.2823165
232	0xbda8bb24	-0.08238819
233	0xbdea79d7	-0.1144902
234	0xbfe19d8a	-1.7626202
235	0xbea96ce4	-0.3309089
236	0x3f2bdb91	0.67131907
237	0xbbcbed28	-0.0062233396
238	0x3e76bd16	0.24095568
239	0x3d9b98e6	0.075975224
240	0xbe2aabe7	-0.16667138
241	0x3eb0f806	0.34564227
242	0x3ef11e1f	0.47093293
243	0x3eed25cb	0.46317896
244	0x3e645fc4	0.22302157
245	0xbc39d6f9	-0.011342757
246	0x3e801b2c	0.2502073
247	0xbdfafd73	-0.12255373
248	0xbd5b35d1	-0.05351812
249	0x3eb01750	0.34392786
250	0x3f07975b	0.52965325
251	0xbda37d8c	-0.079829305
252	0xbe558a7d	-0.2085361
253	0x3b829ab8	0.003985729
254	0x3f2058fa	0.6263577
255	0x3e289b77	0.16465555

bias f4 [256]
0	0x3e37daff	0.17954634
1	0xbeae731e	-0.34072202
2	0xbee57f10	-0.44823503
3	0xbeeda9fc	-0.4641875
4	0x3ee2aeb6	0.4427392
5	0xbedc9c0a	-0.43087798
6	0xbe9a1630	-0.30095053
7	0x3d843102	0.0645466
8	0x3ea03e78	0.3129766
9	0x3ee27ff8	0.44238257
10	0xbbe07620	-0.006850019
11	0x3f03b8b2	0.514537
12	0xbf0286c1	-0.5098687
13	0xbf01e91a	-0.5074631
14	0x3e77b402	0.24189761
15	0xbec0cc0b	-0.37655672
16	0xbea431a6	-0.3206913
17	0xbedf0780	-0.4356041
18	0xbebffa8d	-0.37495843
19	0x3dcf37c5	0.10118059
20	0xbeac29fa	-0.33625776
21	0x3e4c8b91	0.19975115
22	0x3ecc5094	0.39905226
23	0xbec89b56	-0.39181012
24	0x3f10b3dd	0.5652445
25	0x3e481a02	0.19541171
26	0x3e07637c	0.13221544
27	0x3e6cfba5	0.2314287
28	0xbeaade06	-0.33372515
29	0x3e209318	0.15681112
30	0x3f052d0b	0.52021855
31	0x3f05d291	0.52274424
32	0x3e4d995a	0.2007803
33	0xbf00402e	-0.5009793
34	0x3dc48319	0.095953174
35	0xbeb5a3df	-0.35476586
36	0x3eeef0e8	0.46668172
37	0xbebff874	-0.37494242
38	0x3ee64b44	0.44979298
39	0x3e5b3fe8	0.21411097
40	0x3ea442bc	0.32082164
41	0xbf22a418	-0.6353164
42	0xbe8f749b	-0.2801865
43	0x3f0d72f6	0.5525354
44	0xbe624799	-0.22097625
45	0xbe72f9e3	-0.23728137
46	0x3d05f6b8	0.032705992
47	0xbe5714a6	-0.2100397
48	0xbc285889	-0.010275015
49	0xbeb140c5	-0.34619728
50	0x3da57d9b	0.08080598
51	0xbe79e547	-0.24403869
52	0xbec65825	-0.38739124
53	0xbeedf73a	-0.4647768
54	0x3ed46476	0.41482896
55	0xbe7ccebc	-0.24688238
56	0xbd968d62	-0.073511854
57	0xbf02686d	-0.5094059
58	0xbed46ef1	-0.41490892
59	0x3e01acc2	0.12663558
60	0xbf11479a	-0.5674988
61	0x3e4ea287	0.20179187
62	0x3eacfb5e	0.33785528
63	0x3ef37abe	0.47554582
64	0x3ea4cf43	0.32189378
65	0xbee2d7df	-0.44305322
66	0x3f0ea2f1	0.5571738
67	0xbe9b4005	-0.3032228
68	0xbedbf309	-0.4295886
69	0xbed46f0e	-0.41490978
70	0x3effec6f	0.49985072
71	0xbec56e4a	-0.38560706
72	0xbdb8cb52	-0.09023155
73	0x3eefedd3	0.46861133
74	0x3e8310bb	0.25598702
75	0xbee1c010	-0.44091845
76	0xbf0c3d83	-0.5478136
77	0xbeef30df	-0.46716973
78	0xbe3a73b3	-0.18208198
79	0x3ebb6b22	0.36605173
80	0x3e39f7ec	0.18160981
81	0xbeb7e2e7	-0.359153
82	0xbf1b9232	-0.6076995
83	0xbeb9bf66	-0.36278838
84	0x3f0cbfb8	0.5498004
85	0x3ea4ef93	0.3221403
86	0xbf1e3e9b	-0.6181428
87	0xbead9adb	-0.33907208
88	0x3e17c000	0.14819336
89	0x3e9fd6ef	0.3121867
90	0x3e6f6e07	0.23381816
91	0x3e880268	0.26564336
92	0x3e4817c5	0.19540317
93	0x3e93a23e	0.28834718
94	0xbefcdf4a	-0.49389106
95	0xbec2cbc6	-0.38046092
96	0x3f069172	0.5256568
97	0xbe5e1efc	-0.21691507
98	0xbe73be4d	-0.23803063
99	0xbe945273	-0.28969154
100	0xbef258a1	-0.47333243
101	0x3f1c7038	0.6110873
102	0xbec79011	-0.389771
103	0xbe369686	-0.17830858
104	0x3e906ccc	0.28208005
105	0xbedf30b6	-0.4359185
106	0xbeaf8692	-0.34282357
107	0xbec2f1da	-0.38075143
108	0x3e92afb0	0.28649664
109	0xbe6344c4	-0.22194201
110	0x3ebe7783	0.37200555
111	0xbebefc6f	-0.37301967
112	0xbf2d8a1c	-0.67788863
113	0xbf283703	-0.6570894
114	0xbf29ac26	-0.662783
115	0xbf08e5d7	-0.5347571
116	0xbf08ff4e	-0.53514564
117	0xbea92d18	-0.33042216
118	0xbe635eb4	-0.22204095
119	0xbebbd114	-0.3668295
120	0xbea80ed3	-0.3282381
121	0xbf13f981	-0.5780259
122	0xbe9c0bad	-0.30477658
123	0x3f10937c	0.56475043
124	0xbea16db8	-0.3152902
125	0x3efae3dc	0.49001968
126	0x3ef9b6e2	0.4877234
127	0x3e84cd1f	0.25937745
128	0x3f14d5e8	0.58138895
129	0x3e56c718	0.20974386
130	0xbea4cfe4	-0.32189858
131	0xbeaad66a	-0.3336671
132	0xbf0c5438	-0.5481601
133	0x3e98e6fc	0.29863727
134	0x3f1916e1	0.59800535
135	0x3f05ad26	0.5221733
136	0xbf01a174	-0.5063698
137	0x3ec18476	0.37796372
138	0x3dcc7413	0.09983077
139	0xbe8cb7ce	-0.27483982
140	0x3e6377ae	0.22213623
141	0xbebf66fc	-0.37383258
142	0x3ec4d572	0.38444096
143	0x3ebd582b	0.3698133
144	0xbea2b10a	-0.31775695
145	0x3ef6e2e3	0.48219976
146	0x3e404d75	0.18779548
147	0xbd3b90cd	-0.04579239
148	0x3e3ec078	0.18628109
149	0x3cdb56f4	0.02677486
150	0xbf172b3d	-0.5905035
151	0x3e8b17a8	0.27166486
152	0xbf0d38d3	-0.5516483
153	0x3ebf7348	0.3739264
154	0xbf36712b	-0.7126643
155	0xbf3260dd	-0.6967905
156	0x3e981e4b	0.29710612
157	0xbee55ac8	-0.44795823
158	0xbeffcdb5	-0.4996163
159	0x3ec41899	0.38300017
160	0x3ea02754	0.31280005
161	0x3f0dd5bb	0.5540425
162	0x3e79ea31	0.24405743
163	0x3dbd0266	0.09228973
164	0xbf187cc4	-0.5956538
165	0xbf3870c5	-0.7204707
166	0x3ec385a9	0.38187912
167	0xbf0ca7ad	-0.5494335
168	0x3edcf728	0.43157315
169	0x3f1be3ce	0.6089448
170	0xbf228841	-0.63489157
171	0xbefa6023	-0.48901471
172	0xbee8ae8b	-0.45445666
173	0xbeb284ba	-0.34866887
174	0xbe4f63d1	-0.2025292
175	0x3eb82c8f	0.35971496
176	0xbd2fca27	-0.042917397
177	0x3e31dfc9	0.17370524
178	0xbf0e627d	-0.5561903
179	0xbedf61cd	-0.43629304
180	0xbe9f9c6c	-0.31174028
181	0x3eae9c2b	0.34103522
182	0xbea6bcf0	-0.32566023
183	0xbe895d6b	-0.26829085
184	0x3efc070c	0.49224126
185	0x3eda1903	0.42597207
186	0x3ecae912	0.39630944
187	0x3ef273d3	0.47353992
188	0x3ed73eb8	0.42040038
189	0x3ea349ba	0.31892186
190	0x3e5480cb	0.20752256
191	0xbc27bb0c	-0.010237467
192	0x3dc6febf	0.09716558
193	0x3e825488	0.25455117
194	0xbec58731	-0.38579705
195	0xbf29fa32	-0.6639739
196	0x3ed78f9b	0.4210175
197	0xbeff0c3a	-0.49814016
198	0x3ea03941	0.3129368
199	0x3ec00eac	0.37511194
200	0x3e5df2e4	0.21674687
201	0xbd9f167f	-0.07767963
202	0xbd30da07	-0.043176677
203	0xbf0ae168	-0.5425019
204	0x3ea7f30a	0.32802612
205	0xbeb24aa3	-0.34822568
206	0x3f14d611	0.5813914
207	0x3f1a9136	0.60377824
208	0x3ed7cffc	0.42150867
209	0x3e75c833	0.24002151
210	0xbefc60dd	-0.4929265
211	0xbec428ca	-0.3831237
212	0x3ecfaccb	0.40561518
213	0xbec7c6c8	-0.39018846
214	0x3f04a5d6	0.51815546
215	0xbefde952	-0.49592072
216	0xbe66f17f	-0.22553061
217	0xbed9047b	-0.4238623
218	0x3e6814fd	0.22664256
219	0xbe8f1e81	-0.2795296
220	0x3eee7439	0.46573046
221	0xbe79a05f	-0.24377583
222	0xbf080917	-0.5313887
223	0x3ec3ea00	0.38264465
224	0xbeffdb5d	-0.49972048
225	0xbef95f7d	-0.48705664
226	0xbc25dbdd	-0.01012322
227	0xbeddc233	-0.43312225
228	0xbf118ea6	-0.5685829
229	0xbefe9024	-0.49719346
230	0x3e7295cf	0.2368996
231	0xbee74c64	-0.4517547
232	0xbf1123ac	-0.56695056
233	0xbea89ea6	-0.3293354
234	0xbf1025fb	-0.56307954
235	0xbf0ff714	-0.56236386
236	0xbeea2b01	-0.45735934
237	0xbeb7b0f5	-0.35877195
238	0x3eafe449	0.34353855
239	0x3eacb0ad	0.33728543
240	0x3e4c5d63	0.19957499
241	0xbee33b04	-0.44380963
242	0xbed8648c	-0.4226421
243	0x3ec89049	0.3917258
244	0xbe96d0bf	-0.29456136
245	0xbe0f0fed	-0.13970919
246	0xbf184fca	-0.5949675
247	0xbec2d0e6	-0.38050002
248	0x3ebb07cc	0.36529386
249	0xbea53468	-0.32266545
250	0x3dad0791	0.08448709
251	0xbc238bab	-0.00998203
252	0x3eb3fcad	0.35153714
253	0xbe1ca90e	-0.15298864
254	0x3eaea763	0.3411208
255	0x3e812a76	0.25227708

weight f4 [512, 256]
0	0x3e17818d	0.14795513
1	0xbf710dd8	-0.9416175
2	0xbea24952	-0.31696564
3	0xbea6a56c	-0.32548082
4	0x3de85423	0.11344173
5	0xbecc8394	-0.39944136
6	0x3de34a12	0.11098112
7	0x3dc1dd54	0.09466043
8	0x3dfb219e	0.12262271
9	0x3e3533b3	0.17695503
10	0x3d8dfa5f	0.0693252
11	0x3e35437a	0.17701522
12	0xbe652444	-0.22377115
13	0x3d415689	0.047201667
14	0x3df7f433	0.12107124
15	0xbd613f76	-0.05499216
16	0xbc1d4798	-0.009599589
17	0xbda524d7	-0.08063667
18	0xbf83c746	-1.0295188
19	0x3d3d1133	0.04615898
20	0xbe141f5a	-0.14465085
21	0x3ddf74d4	0.10910955
22	0x3e4307ce	0.19045946
23	0xbea9cb7a	-0.33163053
24	0x3e24c9fb	0.16092674
25	0x3d717129	0.05894581
26	0x3e284c0f	0.16435264
27	0x3dec47d2	0.11537136
28	0xbf5772e4	-0.84159684
29	0x3d72f7c2	0.05931831
30	0x3e3f2b63	0.18668894
31	0x3def467c	0.11683366
32	0x3e31389a	0.17306748
33	0xbec76872	-0.38946873
34	0x3e002692	0.12514713
35	0xbd033312	-0.032031126
36	0x3dbf44d5	0.093393005
37	0xbc5db1ec	-0.013531189
38	0x3dd7a530	0.10529554
39	0x3dd9ae8e	0.10628997
40	0x3ca591ef	0.020211188
41	0xbe558f29	-0.20855393
42	0xbf51a34d	-0.818898
43	0x3db09eab	0.086240135
44	0xbc8eb76c	-0.017421447
45	0xbda01214	-0.07815948
46	0x3d560ecd	0.05226021
47	0xbd9f5132	-0.07779159
48	0x3d4ff8a0	0.050774217
49	0xbe75fbc6	-0.24021825
50	0x3dac786b	0.084214054
51	0xbe65f92e	-0.22458336
52	0xbebe2853	-0.3714014
53	0xbe943c3a	-0.289522
54	0x3da5d87c	0.08097932
55	0xbea01d1f	-0.31272218
56	0xbcf21817	-0.029552503
57	0xbe52f760	-0.20602179
58	0xbf8c2ca1	-1.095112
59	0x3d9f6029	0.07782013
60	0xbeb2dbef	-0.3493342
61	0x3db61912	0.088915005
62	0x3e14d12e	0.1453292
63	0x3dea8cca	0.11452635
64	0x3dc33bca	0.09532888
65	0xbe131c8c	-0.14366359
66	0x3e49223d	0.19641967
67	0xbe0ed3c5	-0.13947971
68	0xbdbb74a0	-0.09153104
69	0xbb085718	-0.0020803865
70	0x3e2b2618	0.1671375
71	0x3d01f2a7	0.031725552
72	0x3cd2b8bf	0.02572286
73	0x3d2ec672	0.04266972
74	0x3e20bb16	0.15696368
75	0xbf48130e	-0.78154075
76	0xbc34fa14	-0.011045951
77	0xbe98b07e	-0.29822153
78	0xbe79f139	-0.24408425
79	0x3e06e616	0.13173708
80	0x3dee3a3e	0.116322026
81	0xbf02b249	-0.5105329
82	0xbdc52f9a	-0.0962822
83	0xbf26ab74	-0.65105367
84	0x3db61815	0.08891312
85	0x3db02ed6	0.08602683
86	0xbe62a175	-0.22131903
87	0xbda046d0	-0.078260064
88	0x3d2caef5	0.04215904
89	0x3e27b1f1	0.16376473
90	0x3e0b0fb4	0.13580209
91	0x3e0bd77d	0.13656421
92	0x3d6307d5	0.05542739
93	0x3dcecfe2	0.10098244
94	0xbe1e22f0	-0.15443015
95	0xbe67a18c	-0.22620219
96	0x3e260dab	0.16216151
97	0xbe2e65d5	-0.17031033
98	0x3db3a5fc	0.087718934
99	0xbe74eafa	-0.23917761
100	0xbef0471c	-0.46929252
101	0x3e4057b3	0.18783455
102	0xbf18f5a3	-0.5974981
103	0xbcaf5f10	-0.021407634
104	0x3dce0685	0.10059837
105	0x3c8a4928	0.016880587
106	0xbeaa4801	-0.3325806
107	0xbca331b3	-0.01992116
108	0x3d3484ed	0.04407208
109	0xbdbc6e30	-0.09200704
110	0x3d436491	0.04770333
111	0xbec2c2ee	-0.38039345
112	0xbea074f0	-0.31339216
113	0xbdd52229	-0.10406906
114	0xbf2deee6	-0.67942655
115	0xbe98e68b	-0.2986339
116	0xbef3b468	-0.47598577
117	0x3d4991c4	0.04921128
118	0xbe5d562f	-0.21614908
119	0xbfb1fd94	-1.3905511
120	0xbfc0b052	-1.5053809
121	0xbcd9dd87	-0.02659489
122	0x3e73cbe0	0.23808241
123	0x3e3b64f9	0.18300237
124	0xbed83a51	-0.42231992
125	0x3de10fda	0.109893516
126	0x3dc545b1	0.09632433
127	0x3d8c66a4	0.06855515
128	0x3e14f9af	0.14548372
129	0x3d9ef82b	0.07762178
130	0xbe8c998b	-0.27460894
131	0xbe8f2fec	-0.2796625
132	0xbea730d5	-0.32654443
133	0x3cf0009c	0.029297166
134	0x3e14f42e	0.14546272
135	0x3df7b775	0.120955385
136	0xbd2ac44f	-0.04169112
137	0x3de820c5	0.11334375
138	0x3d6f2009	0.05838016
139	0xbea67bc2	-0.32516295
140	0x3e23f336	0.16010746
141	0xbe30a0be	-0.17248818
142	0x3e1ffc0e	0.15623495
143	0x3d3bcd7b	0.04585026
144	0xbddc8280	-0.107670784
145	0x3e441a27	0.19150601
146	0x3d7e1d44	0.06203963
147	0x3db084d9	0.08619089
148	0x3d9ae7f9	0.075637765
149	0xbe485ec0	-0.19567394
150	0xbdc4de8c	-0.0961276
151	0x3d549b57	0.051905956
152	0xbe4e309a	-0.20135728
153	0x3dbfbb80	0.09361935
154	0xbe8ac9da	-0.27107126
155	0xbe7c65bb	-0.24648182
156	0x3d9d7e83	0.07690146
157	0xbe9805b8	-0.29691863
158	0xbdc046cf	-0.09388506
159	0x3e258e79	0.1616763
160	0x3de21779	0.11039633
161	0x3e45b1eb	0.19306152
162	0x3d6e4d0b	0.058178943
163	0x3e9733f7	0.29531834
164	0xbe8986e8	-0.26860738
165	0xbde87ae5	-0.11351565
166	0x3dd2b89a	0.10289116
167	0xbd1e9128	-0.03871265
168	0x3e3aafd7	0.1823114
169	0x3ddac669	0.10682375
170	0xbed493e2	-0.41519076
171	0x3ca9bd58	0.020720169
172	0xbf7905fd	-0.9727476
173	0xbd76ebc5	-0.06028344
174	0xbeb09222	-0.3448649
175	0x3d99b014	0.07504287
176	0xbb92019a	-0.0044557573
177	0x3d24a482	0.04019595
178	0xbee99e04	-0.4562837
179	0xbe6ab103	-0.22919087
180	0xbf250554	-0.64461255
181	0x3dc5737c	0.096411675
182	0xbef8076f	-0.4844317
183	0xbd476d79	-0.048688386
184	0x3e0e25ff	0.13881682
185	0x3e4c442e	0.19947883
186	0x3d4feb0b	0.050761264
187	0x3e26b176	0.16278633
188	0x3da78473	0.081795596
189	0x3d8ad6c3	0.06779244
190	0x3d97372e	0.073835716
191	0x3dee4fe5	0.116363324
192	0x3c54b18a	0.012981782
193	0x3d857a65	0.065174855
194	0xbdfb0105	-0.12256054
195	0xbebf531e	-0.373681
196	0x3e203ce0	0.15648222
197	0xbe004929	-0.12527908
198	0x3dcc05d5	0.0996205
199	0x3e0ff472	0.14058092
200	0x3cbc43fd	0.022981638
201	0xbc8977ea	-0.016780812
202	0xbcf15ead	-0.02946409
203	0xbf0e3e0d	-0.5556343
204	0x3da0d4e7	0.07853108
205	0xbe1b07b9	-0.15139665
206	0x3ddad447	0.1068502
207	0x3e3739ed	0.1789319
208	0x3e332dd2	0.17497948
209	0x3cb1758e	0.0216625
210	0xbee55da0	-0.44797993
211	0x3b1f2520	0.0024283603
212	0x3e1cdc9c	0.15318531
213	0xbe5443e9	-0.2072903
214	0x3d9d8c66	0.076927945
215	0x3d55b34c	0.052172944
216	0x3d0cb974	0.03435655
217	0xbea4cb44	-0.3218633
218	0x3e1603fc	0.14649957
219	0xbe189c96	-0.14903483
220	0x3dd80ee3	0.105497144
221	0xbee8d760	-0.45476818
222	0xbe71e8e3	-0.23623995
223	0x3d410ea6	0.04713311
224	0xbee76cd4	-0.45200217
225	0xbece77a6	-0.4032566
226	0x3d204528	0.039128453
227	0x3c9ce074	0.019149996
228	0x3d4bb8c6	0.04973676
229	0xbe73db80	-0.23814201
230	0x3dee8276	0.11645977
231	0x3d5e33e7	0.054248717
232	0xbe7eb591	-0.2487395
233	0x3df1de41	0.1180997
234	0xbed45f32	-0.41478878
235	0x3d86c602	0.06580736
236	0xbe8d62be	-0.27614397
237	0xbe22f59f	-0.1591401
238	0x3e2329eb	0.15933959
239	0x3d7cbe66	0.061705016
240	0x3e3cb241	0.18427373
241	0xbe9b7ad6	-0.30367154
242	0x3d194b90	0.037425578
243	0x3de3e061	0.11126781
244	0xbde43914	-0.11143699
245	0x3d40fd1b	0.04711638
246	0xbddeddaf	-0.108821265
247	0xbe97cb24	-0.29647171
248	0x3daa83dd	0.08325932
249	0xbed4e83b	-0.41583428
250	0xbcad8689	-0.021182315
251	0xbd8d1e77	-0.06890576
252	0x3e040253	0.12891512
253	0xbe150548	-0.14552796
254	0x3e249261	0.16071464
255	0x3d5beede	0.0536946

bias f4 [512]
0	0x3e2a4371	0.1662729
1	0x3c00197d	0.007818577
2	0xbcf20746	-0.029544484
3	0x3dd9d649	0.10636575
4	0xbd0e0860	-0.034675956
5	0x3dad7d7e	0.08471201
6	0x3e3c9128	0.18414748
7	0x3cf965fe	0.030444141
8	0xbd5aa27d	-0.053377617
9	0xbcbf87f0	-0.02338025
10	0x3e3d8ea6	0.18511447
11	0x3e59f048	0.21283066
12	0x3e3d1939	0.18466653
13	0x3bd6e191	0.0065576513
14	0x3dcb21ce	0.09918557
15	0x3e4b6596	0.1986297
16	0x3cf6b6ab	0.0301164
17	0x3ce8f58b	0.028437397
18	0x3e01136d	0.12605067
19	0x3e338952	0.17532852
20	0xbd141d2f	-0.036160644
21	0x3c58d4d5	0.013234337
22	0x3cab8df4	0.020941712
23	0xbceae244	-0.028672345
24	0x3e2a0c9b	0.16606371
25	0x3def42c0	0.116826534
26	0x3cf2ed23	0.029654091
27	0x3e303e53	0.17211275
28	0xbd89b099	-0.067231365
29	0x3da774d7	0.08176582
30	0xbcd477b1	-0.02593598
31	0x3c7635f1	0.015027509
32	0xbd1e1b30	-0.038600147
33	0xbb87d3d3	-0.0041451245
34	0x3db979bd	0.09056423
35	0x3c26d9c4	0.010183755
36	0xbccb8012	-0.024841342
37	0xbd3a61d3	-0.04550345
38	0x3df21666	0.118206784
39	0xbd2ca266	-0.042147063
40	0xbd8849a0	-0.06654668
41	0xbc204244	-0.009781424
42	0x3e186cf1	0.14885308
43	0x3a970681	0.0011522324
44	0xbbcfcd12	-0.006341585
45	0xbd821f90	-0.06353676
46	0x3e27a53c	0.16371626
47	0xbd5a8b46	-0.053355478
48	0xbc85dff4	-0.01634214
49	0x3e14fa35	0.14548571
50	0x3cff65c8	0.031176463
51	0x3ceb2b60	0.028707206
52	0xbd579f5b	-0.052642208
53	0x3e1398ea	0.14413801
54	0x3caf437a	0.02139448
55	0xbcc1d36c	-0.023660384
56	0x3e456554	0.19276935
57	0xbc8feb14	-0.017568149
58	0xbc563520	-0.013074189
59	0xbd55366e	-0.05205386
60	0x3db115c5	0.0864673
61	0xbccb5784	-0.024822004
62	0xbb94f400	-0.0045456886
63	0xbdae467d	-0.08509538
64	0x3d73f97e	0.059564106
65	0xbd6e1443	-0.05812479
66	0x3e047cb7	0.129382
67	0x3d07e103	0.033173572
68	0x3addea3e	0.0016930772
69	0xbd06b6b8	-0.032889098
70	0xbc3fe5ad	-0.011712474
71	0xbd8c966f	-0.068646304
72	0x3e16758b	0.14693277
73	0x3e2c3fff	0.16821288
74	0x3ca34202	0.019928936
75	0xbc0e861b	-0.008698965
76	0x39c25211	0.00037063708
77	0x3e41b34e	0.18916056
78	0x3e39e391	0.18153216
79	0xbd078d89	-0.033093963
80	0x3b5c46c0	0.0033611506
81	0x3d1366ab	0.035986584
82	0x3c5bee12	0.01342346
83	0xbd154cf9	-0.03645036
84	0x3e437f36	0.19091496
85	0x3d3f3991	0.04668576
86	0x3e3c88fd	0.18411632
87	0x3cac63dc	0.02104371
88	0x3de3c2bc	0.11121127
89	0xbd3068ba	-0.043068625
90	0x3e33b9d3	0.17551355
91	0x3db8e219	0.090275
92	0xbd3fb636	-0.04680463
93	0x3e20a5dd	0.15688272
94	0xbd8e1ce0	-0.06939101
95	0xbde7d924	-0.11320713
96	0xbd804343	-0.06262829
97	0x3e30353c	0.17207807
98	0x3e3128c4	0.17300707
99	0x3d587caa	0.052853264
100	0xbd49326a	-0.049120344
101	0x3c9309d7	0.017949028
102	0xbdb0030c	-0.08594331
103	0x3dc82419	0.0977251
104	0x3e06a3ad	0.13148375
105	0xbd85d89e	-0.06535457
106	0xbd89dc92	-0.067315236
107	0x3e3cf528	0.18452895
108	0x3e2c6fa4	0.16839463
109	0xbd6c42e2	-0.057680972
110	0x3e132e58	0.14373147
111	0xbcb1a281	-0.021683933
112	0x3ce79a8b	0.028271934
113	0xbb35f580	-0.0027764738
114	0xbd7197e1	-0.058982734
115	0x3e4c9f9e	0.19982764
116	0x3b6a1155	0.0035715897
117	0xbc2468c9	-0.010034748
118	0x3d58ac43	0.052898657
119	0x3d64d1f8	0.055864304
120	0x3e34fd25	0.17674692
121	0x3cdaac28	0.026693419
122	0x3abf9bb6	0.0014618549
123	0x3dfd7f64	0.123778135
124	0x3d2a985b	0.041649204
125	0xbd5a01a7	-0.053224232
126	0xbd949199	-0.07254333
127	0xbcbb51d5	-0.022866169
128	0xbcff1e39	-0.031142341
129	0x3d532242	0.051546343
130	0xbd8157b2	-0.06315555
131	0x3e3a39fb	0.1818618
132	0x3e18b204	0.14911658
133	0x3e35eb05	0.17765434
134	0x3e125d03	0.14293294
135	0x3d25da57	0.04049143
136	0x3d6b67b8	0.05747196
137	0xbd1fa6c7	-0.03897741
138	0xbde43bb6	-0.111442015
139	0xbd84bfd9	-0.064819045
140	0xbd74ff47	-0.059813764
141	0x3d2899f2	0.04116244
142	0x3c57005f	0.013122647
143	0x3d7a0e98	0.061049074
144	0xbd3309ea	-0.043710627
145	0x3dbfb90d	0.093614675
146	0x3d125a43	0.03573061
147	0xbcd57989	-0.026058929
148	0x3d5965e6	0.053075694
149	0x3e19df9a	0.15026703
150	0xbd3e53a6	-0.046466492
151	0xbdba9a43	-0.09111454
152	0x3cd01e76	0.02540515
153	0x3e08db15	0.13364823
154	0x3c8ca7cd	0.017169857
155	0xbd3cfdbc	-0.046140417
156	0x3da98470	0.082772136
157	0xbc598ce0	-0.013278216
158	0xbc4c3e47	-0.01246602
159	0x3b8e2840	0.0043382943
160	0x3e29b06d	0.16571207
161	0x3a5b52e4	0.00083665387
162	0x3e45c0f2	0.19311884
163	0xbdafb2d0	-0.08579028
164	0x3e57e783	0.21084408
165	0xbd4b0f0e	-0.049574904
166	0x3e3817e1	0.17977859
167	0x3e4f0b36	0.2021912
168	0xbaddff80	-0.0016937107
169	0x3e5c1b54	0.214948
170	0xbdd7b969	-0.10533411
171	0xbd52e14a	-0.051484384
172	0x3e1afd32	0.15135649
173	0xbd99d220	-0.07510781
174	0x3c1cff81	0.009582401
175	0xbc89f268	-0.016839221
176	0x3d62de40	0.055387735
177	0xbd01381b	-0.031547647
178	0x3e1be755	0.15224965
179	0x3e1a08e1	0.1504245
180	0x3e4cae60	0.19988394
181	0x3bb9dc80	0.0056720376
182	0x3de4b957	0.11168163
183	0x3e4d928a	0.20075431
184	0xbc85e148	-0.016342774
185	0xbc5c8c38	-0.013461165
186	0xbcbb6250	-0.022874027
187	0xbd3c3d3c	-0.045956835
188	0x3d2b0662	0.041754134
189	0x3d7113e3	0.058856856
190	0x3e110f10	0.14165902
191	0x3d6a118b	0.057145637
192	0x3e436c94	0.19084388
193	0x3e1a2622	0.15053609
194	0xbd8ed282	-0.06973745
195	0xbda536ad	-0.08067069
196	0x3ddb79f9	0.10716624
197	0x3df0f132	0.11764754
198	0xb9b77a27	-0.0003499549
199	0x3dd78a1c	0.10524389
200	0x3c9fa6ff	0.01948881
201	0xbd5ecfe0	-0.054397464
202	0x3ddd0b0c	0.10793123
203	0x3e2836a5	0.16427095
204	0x3e0af509	0.13570036
205	0x3d66da27	0.05636039
206	0x3e0dfea8	0.13866675
207	0xbd17cc88	-0.03706029
208	0x3cfb175d	0.030650789
209	0xbd57a1ea	-0.052644648
210	0xbd464fd2	-0.048415966
211	0x3e35a28b	0.17737786
212	0xbcacadec	-0.021079026
213	0xbcf0db67	-0.029401494
214	0xbdf3a0bc	-0.11895892
215	0xbdaaeb7e	-0.08345698
216	0x3ddcc9c7	0.107806735
217	0x3d51581b	0.051109415
218	0x3d79cd06	0.06098654
219	0x3e1dd2f6	0.15412506
220	0xbd336f94	-0.04380758
221	0x3e4e339f	0.2013688
222	0x3d517a72	0.051142164
223	0x3e2cfe27	0.16893826
224	0xbccfbb31	-0.025357815
225	0xbdaba1ea	-0.08380492
226	0x3ca866bc	0.0205568
227	0x3c89dc7e	0.016828772
228	0xbc304c4a	-0.010760376
229	0xbd0c3869	-0.034233484
230	0x3d3ff2e8	0.046862513
231	0x3be5dff9	0.007015225
232	0x3d3f46e8	0.04669848
233	0xbcdca9d4	-0.02693645
234	0x3e2f5699	0.17122878
235	0xbd23458c	-0.039861247
236	0x3e3401b4	0.17578775
237	0xbb9de81b	-0.004818929
238	0xbc1856c7	-0.009298033
239	0x3e58c1d3	0.21167688
240	0x3d045445	0.03230693
241	0x3caafe50	0.020873219
242	0x3e51318f	0.20429061
243	0x3e3f95bd	0.18709464
244	0xbbdcea03	-0.0067417636
245	0x3e0647ac	0.13113278
246	0xbd4788e2	-0.048714526
247	0xbd03b6c9	-0.03215674
248	0x3d30b36c	0.04313986
249	0x3c1ddd55	0.009635289
250	0xbd8ce816	-0.068802044
251	0xbd86bf08	-0.06579405
252	0xbd81b0b7	-0.06332534
253	0xbc161140	-0.009159386
254	0x3d455e73	0.048185777
255	0x3d3417d9	0.043968055

weight f4 [2, 512]
0	0x3e21e0ed	0.15808459
1	0xbc9a16ff	-0.018809794
2	0xbd016538	-0.03159067
3	0x3e3e0e20	0.18560076
4	0x3c4bc4fb	0.0124371005
5	0x3e2b05ee	0.16701481
6	0x3e27fd80	0.16405296
7	0x3c5125fc	0.012765404
8	0x3c41d867	0.0118313795
9	0xbc60d12a	-0.013721744
10	0x3e37a25b	0.17933027
11	0x3e512000	0.20422363
12	0x3d89e2d6	0.06732719
13	0xbce8c6d1	-0.028415116
14	0x3e31c0fb	0.17358772
15	0x3dc7b52d	0.097513534
16	0xbbb91660	-0.0056484193
17	0xbcea225e	-0.02858084
18	0x3e47e3b1	0.19520451
19	0x3e46f7ef	0.19430517
20	0x3be04017	0.0068435776
21	0x3d240d7d	0.040051926
22	0x3acdbac5	0.001569592
23	0xbceacd62	-0.028662387
24	0x3e3d0e38	0.18462455
25	0x3e0f8ec0	0.14019299
26	0xbc8758c5	-0.01652182
27	0x3dea21ad	0.114322044
28	0x3cc5e4e3	0.024156993
29	0x3df3acae	0.118981704
30	0x3d17650f	0.03696161
31	0xbbc09d49	-0.005878125
32	0xbc704781	-0.014665485
33	0xbd3be650	-0.04587394
34	0x3e19cb9f	0.15019082
35	0xbc2a4ce0	-0.010394305
36	0xbc97a844	-0.018512852
37	0xbd0e53cb	-0.03474788
38	0x3d23d598	0.03999862
39	0xbd300809	-0.042976413
40	0x3c939c68	0.018018916
41	0x3cd4b8eb	0.025967082
42	0x3ded0e37	0.11574977
43	0xbf06c589	-0.52645165
44	0x3cfe2482	0.031023268
45	0x3cb6223e	0.022233125
46	0x3e52d46d	0.20588847
47	0xbaf74077	-0.0018863817
48	0xbcb8635c	-0.022508316
49	0x3e30b1e3	0.17255358
50	0xbb4fb090	-0.0031690933
51	0x3b239a70	0.0024963878
52	0xbccb03b2	-0.024782035
53	0x3de51f2c	0.11187586
54	0x3ca3f425	0.020013878
55	0x3ce93ef6	0.028472405
56	0x3e3343dc	0.17506355
57	0xbd0d7ea3	-0.0345446
58	0xbd220f43	-0.039565336
59	0x3b91e8dd	0.0044528083
60	0x3e3fe437	0.18739401
61	0x3ce1531a	0.027505446
62	0xbc8afac6	-0.016965281
63	0x3ba3ca35	0.00499847
64	0x3de7fc5c	0.113274306
65	0xbc1d0c75	-0.0095854895
66	0x3e3aac4b	0.18229787
67	0xbb044fe8	-0.002018923
68	0xbb988d05	-0.0046554827
69	0xbc53914f	-0.012913062
70	0xbc0b2c73	-0.008494484
71	0xbbb060d3	-0.005382636
72	0x3e2de6ea	0.16982618
73	0x3e2fc3e2	0.17164567
74	0x3bf6f772	0.007536822
75	0xbd0791ef	-0.033098157
76	0x3c22567a	0.009908313
77	0x3e2c2592	0.16811207
78	0x3d8ac6c5	0.067761935
79	0x3c5489d7	0.012972317
80	0xbd2bfb13	-0.04198749
81	0xbc912c19	-0.017721223
82	0xbc12d563	-0.008962008
83	0x396d9b68	0.00022659975
84	0x3e3be21e	0.18347976
85	0xbc90587f	-0.017620323
86	0x3e464998	0.19364011
87	0xbce81006	-0.028327953
88	0x3e37700c	0.17913836
89	0xbcbc60b9	-0.02299534
90	0x3cd849fd	0.026402468
91	0x3dc98073	0.09838953
92	0xbb953d26	-0.0045544086
93	0x3e1a834d	0.1508915
94	0xbcb3940b	-0.021921178
95	0xbef2d11a	-0.47425157
96	0xbbf427ec	-0.007451048
97	0x3e461d51	0.19347121
98	0x3d2c9d29	0.042142067
99	0xbd01d087	-0.031693008
100	0xbb4378b0	-0.0029826574
101	0xbd00842e	-0.031376056
102	0xbc93fb04	-0.01806403
103	0x3e31c4e3	0.17360263
104	0x3e037d66	0.12840804
105	0x3d3a314e	0.045457177
106	0xbc67ffef	-0.01416014
107	0x3d9a1d8a	0.075251654
108	0x3d90a19c	0.070620745
109	0xbcf996ad	-0.030467356
110	0xbb0d760c	-0.0021585254
111	0xbc4acfc2	-0.012378635
112	0x3ce05b36	0.027387243
113	0xbc0f1984	-0.008734111
114	0xbc670eb2	-0.014102625
115	0x3e1c31b1	0.15253331
116	0xba8ae42a	-0.0010596563
117	0xbd026a4e	-0.03183966
118	0x3d12a1f5	0.035798986
119	0x3d2ec115	0.042664606
120	0x3e330b3f	0.17484759
121	0x3ce7822e	0.028260317
122	0xbca74ccb	-0.02042236
123	0x3e405cac	0.18785352
124	0x3c54f03e	0.012996731
125	0x3ccbdbac	0.024885021
126	0x3cba1258	0.022713825
127	0x3c4590fa	0.012058491
128	0x3cb0ea6a	0.021596152
129	0x3c94b0f3	0.018150782
130	0xbcf666ac	-0.030078255
131	0x3e1ea3aa	0.1549212
132	0x3e3f46a3	0.1867929
133	0x3d14691b	0.03623305
134	0x3e438c47	0.1909648
135	0xbcc04b20	-0.023473322
136	0x3e20223d	0.15638061
137	0xbf271741	-0.6526986
138	0xbba30007	-0.0049743685
139	0x3b006ad3	0.0019594922
140	0xbc7df489	-0.015500196
141	0x3deeb19a	0.116549686
142	0xbc9e3a37	-0.019314868
143	0x3dc82222	0.09772135
144	0xba967cb6	-0.0011481259
145	0x3dc80c50	0.097679734
146	0xbcac4ecb	-0.021033665
147	0x3d32f9e7	0.043695357
148	0x3ad0dcf2	0.0015934987
149	0x3df4b833	0.11949196
150	0xbc61cf34	-0.013782311
151	0xbbc59cd0	-0.0060306564
152	0xbce01487	-0.027353538
153	0x3e3debc9	0.18546976
154	0xbaf26660	-0.0018493645
155	0xbcddd86d	-0.027080739
156	0x3dbcfa64	0.09227446
157	0xbcdf27ad	-0.027240599
158	0x3c8e03fd	0.017335886
159	0xbd1160a6	-0.03549256
160	0x3e329776	0.1744059
161	0x3caecc89	0.021337764
162	0x3e34f32f	0.17670892
163	0xbd31debe	-0.043425314
164	0x3e34ed64	0.17668682
165	0x3bc5106a	0.0060139196
166	0x3e3432b3	0.17597465
167	0x3e2725aa	0.16322961
168	0xbcf5c2c8	-0.030000106
169	0x3e14428c	0.1447851
170	0xbf10a6b7	-0.56504387
171	0x3ca1b92e	0.01974162
172	0x3e288991	0.16458727
173	0xbc598e05	-0.013278489
174	0xbb04b59e	-0.0020249854
175	0xbba33f90	-0.0049819425
176	0x3e568135	0.20947726
177	0x3c0ff798	0.008787058
178	0x3e482d4b	0.19548528
179	0x3df9ee71	0.12203682
180	0x3dc8a65a	0.09797354
181	0xbbef0128	-0.007293839
182	0x3e3b6506	0.18300256
183	0x3e349d84	0.17638212
184	0x3cdd00b6	0.026977878
185	0x3c9ed26a	0.019387443
186	0xbd069bc3	-0.03286339
187	0xbc0e10fd	-0.0086710425
188	0xbc2ac791	-0.010423557
189	0x3e61b9e9	0.22043575
190	0x3d8d5c03	0.069023155
191	0x3df1a070	0.11798179
192	0x3e39895c	0.18118805
193	0x3d33c1e1	0.04388607
194	0x3d28dbc1	0.0412252
195	0xbb807df3	-0.0039212643
196	0x3e3d4edd	0.18487115
197	0x3e1c904c	0.1528942
198	0xbc6f72a9	-0.014614739
199	0x3dcc0bc7	0.09963184
200	0x3d493b4a	0.049128808
201	0xbc1347a2	-0.008989247
202	0x3e3b4871	0.18289353
203	0x3d4da7a9	0.05020872
204	0x3e0e99c7	0.13925849
205	0xbd7bfb6f	-0.061519083
206	0x3d12e105	0.035859127
207	0xbce0bf7e	-0.02743506
208	0xbac842d3	-0.0015278704
209	0xbc56fb4e	-0.013121439
210	0x3bafe2b1	0.0053676
211	0x3e0d1bb4	0.13780099
212	0x3ba233f5	0.0049500414
213	0x3c982980	0.018574476
214	0xbc1b5e5d	-0.009482947
215	0xbbe90036	-0.007110621
216	0x3def8a6b	0.11696323
217	0xbcca7d24	-0.024717875
218	0x3e228864	0.15872341
219	0x3dd2357d	0.10264108
220	0x3b8cb9ed	0.004294625
221	0x3e31a100	0.17346573
222	0xbd1177b6	-0.035514556
223	0x3e34f539	0.1767167
224	0x3c7caf0f	0.015422597
225	0x3c33cd6c	0.010974269
226	0xbd0fe980	-0.035134792
227	0xbc540ed8	-0.012942992
228	0x3cc2323c	0.023705594
229	0x393a874d	0.00017788746
230	0xbcb7af34	-0.02242241
231	0xbcc70d37	-0.024298294
232	0xbca7edb9	-0.020499097
233	0x3d5ae48d	0.05344062
234	0x3e11d5c7	0.14241706
235	0x3ca8175e	0.020518955
236	0x3db10870	0.086441875
237	0xbb8ac6fb	-0.004235146
238	0x3d198d42	0.03748823
239	0x3e1dcf3c	0.15411085
240	0x3bbe5846	0.005808863
241	0xbc297ba0	-0.010344416
242	0x3bbf1036	0.00583079
243	0x3e4d60a2	0.20056394
244	0xbc19b0ec	-0.00938056
245	0x3de2fd2b	0.11083444
246	0x3cecd9e8	0.0289125
247	0x3c4d6534	0.012536336
248	0xbc58d8b4	-0.01323526
249	0xbc7c2779	-0.01539027
250	0x3d324595	0.04352339
251	0xbc2f34c9	-0.010693737
252	0xbc1c36fb	-0.009534593
253	0x3b2c4df7	0.0026291588
254	0xbc423b24	-0.011854921
255	0xbca83a10	-0.020535499

bias f4 [2]
0	0x3e05143d	0.12996002
1	0x3e366834	0.17813188
