save/model/cartpole_dqn_noisy_mod_hid_128_128.pth (torch_old, 208711 bytes, 18 tensors)

weight f4 [128, 4]
0	0xbed30561	-0.4121504
1	0xbe9357ec	-0.28778017
2	0xbfa9548f	-1.322893
3	0xbe968ca3	-0.29404172
4	0x3e45dfc3	0.1932364
5	0xbea26fbf	-0.3172588
6	0xbddf6600	-0.10908127
7	0xbea4c88d	-0.32184258
8	0xbe4637d4	-0.19357234
9	0xbcc6afa7	-0.02425368
10	0xbe1b9927	-0.15195142
11	0x3dbac3ec	0.091194004
12	0xbd1f1afe	-0.0388441
13	0xbd03e141	-0.03219724
14	0xbe5bf974	-0.21481878
15	0xbe215fbe	-0.15759179
16	0xbdc853dd	-0.09781621
17	0x3ebadd10	0.36496782
18	0xbe2329e6	-0.15933952
19	0x3da5acfb	0.08089634
20	0xbd860413	-0.06543746
21	0xbd684aa5	-0.05671181
22	0xbe0fd579	-0.14046277
23	0x3d692a93	0.056925368
24	0x3df0338e	0.11728583
25	0xbded940a	-0.11600502
26	0xbee229f5	-0.44172636
27	0xbd86d9f8	-0.06584543
28	0xbeebc630	-0.46049643
29	0x3d89d4bf	0.06730031
30	0xbf00e0e8	-0.5034318
31	0x3cffb426	0.031213831
32	0x3df3fb04	0.11913112
33	0xbe93cbef	-0.28866526
34	0x3ed61f94	0.41820967
35	0xbdfd0aa1	-0.12355543
36	0xbec53e46	-0.38524073
37	0xbe56d733	-0.2098053
38	0xbf8194d9	-1.012355
39	0xbe881b2d	-0.26583233
40	0xbe5d62ae	-0.21619675
41	0xbd106f0a	-0.035262145
42	0x3d28f087	0.04124501
43	0x3dc3ec94	0.09566608
44	0x3e1b6be5	0.15177877
45	0xbe9df28e	-0.30849117
46	0x3cd5815a	0.026062656
47	0xbeb04115	-0.34424654
48	0xbedb32f3	-0.4281231
49	0xbeccc15f	-0.3999128
50	0xbf197ced	-0.59956247
51	0xbe9e4ca6	-0.30917853
52	0xbe499cc1	-0.19688703
53	0xbf0c5c31	-0.5482817
54	0xbf192d39	-0.5983463
55	0xbefbde31	-0.49192956
56	0x3e458349	0.19288363
57	0x3e2edfe4	0.17077595
58	0x3f655fc3	0.89599246
59	0x3e405cdf	0.18785428
60	0xbe74ad43	-0.23894219
61	0x3eae09b5	0.3399178
62	0x3f64bba8	0.8934884
63	0x3ecdc3fd	0.4018859
64	0xbe3078c6	-0.17233571
65	0x3e64d9a6	0.22348651
66	0xbf1598bb	-0.58436173
67	0x3e9736b6	0.2953393
68	0x3df380a1	0.118897684
69	0x3e1635f7	0.14669023
70	0xbe973bde	-0.29537863
71	0x3d6cef76	0.057845555
72	0xbc1ab08b	-0.009441505
73	0xbb967b53	-0.004592338
74	0x3e249040	0.16070652
75	0x3cf5c8f0	0.030003041
76	0x3ee1ad69	0.44077614
77	0x3eb4b104	0.35291302
78	0x3cce6e3e	0.025199052
79	0x3e57adb9	0.21062364
80	0x3ba8ec5c	0.0051551294
81	0x3d5d5cb5	0.05404349
82	0x3f04142b	0.51593274
83	0xbe2d4747	-0.16921721
84	0xbf40a937	-0.752582
85	0xbdf3d54c	-0.119059175
86	0xbf1c497e	-0.6104964
87	0xbde58c2d	-0.11208377
88	0xbe32a486	-0.17445573
89	0xbe1a7a8e	-0.15085813
90	0xbdab2ee9	-0.08358557
91	0xbc89ba1d	-0.016812379
92	0x3e13573e	0.14388749
93	0xbe7542d6	-0.23951277
94	0x3fce60c9	1.6123286
95	0x3e6677d3	0.22506647
96	0x3e28ff5e	0.16503665
97	0xbea47ac8	-0.32124925
98	0xbe42b23d	-0.19013305
99	0xbeb0d725	-0.34539142
100	0xbd40a3ff	-0.0470314
101	0x3da5c325	0.080938615
102	0xbffbe62f	-1.9679621
103	0xbe0cdf79	-0.13757123
104	0xbe84874c	-0.25884473
105	0xbefa2d01	-0.4886246
106	0xbea54d00	-0.3228531
107	0xbece450e	-0.4028706
108	0xbe57b6b9	-0.21065797
109	0x3e04b944	0.12961298
110	0xbf4bec6a	-0.79657614
111	0xbe3e9339	-0.18610848
112	0x3e67a0c9	0.22619928
113	0xbcebef29	-0.028800564
114	0xbf2256e0	-0.6341381
115	0x3ceb5c81	0.028730633
116	0x3d3c8936	0.046029292
117	0xbf021dc4	-0.5082667
118	0xbf848fc7	-1.0356377
119	0xbf004659	-0.5010734
120	0xbbd4a1d8	-0.00648902
121	0x3e2750bc	0.16339391
122	0xbec77bb0	-0.38961554
123	0x3e05c634	0.1306389
124	0x3db71958	0.08940381
125	0xbea2fac3	-0.3183194
126	0xbf8a1af5	-1.0789477
127	0xbee7659b	-0.45194706
128	0xbd656a3b	-0.056009512
129	0x3e9c7435	0.3055741
130	0xbeaf4ae9	-0.3423684
131	0x3eb87ba0	0.36031818
132	0xbf20c441	-0.6279946
133	0xbdc58f34	-0.096464545
134	0xbb5f6b2e	-0.0034090984
135	0x3e3458e1	0.1761203
136	0x3ed1905f	0.4093046
137	0xbf1587c2	-0.58410275
138	0xbf304981	-0.6886216
139	0xbf1ab6ff	-0.6043548
140	0x3d894446	0.06702475
141	0xbe14aecd	-0.14519806
142	0xbf1bd5cb	-0.608731
143	0xbe29c151	-0.1657765
144	0x3df0f37b	0.1176519
145	0x3e5acd50	0.21367383
146	0x3dfeb3ab	0.12436613
147	0x3e5d50c1	0.21612836
148	0xbd6c3068	-0.05766335
149	0xbe9ae95f	-0.30256173
150	0xbfb42217	-1.4072903
151	0xbedd9c1d	-0.43283167
152	0x3eaf6ec1	0.34264186
153	0x3e9e26aa	0.30888873
154	0x3eaea749	0.34112003
155	0x3e23246d	0.15931864
156	0x3e5a7a38	0.21335685
157	0x3bb89fd3	0.005634287
158	0x3e85d89c	0.26141822
159	0xbe22dc3d	-0.15904327
160	0x3ee53c44	0.44772542
161	0xbdbad813	-0.09123244
162	0xbf77218d	-0.9653557
163	0xbe38d186	-0.18048677
164	0xbe942a41	-0.28938487
165	0xbe0772a5	-0.13227327
166	0xbe2561ae	-0.16150543
167	0x3b87a825	0.0041399174
168	0xbf4f348c	-0.80939555
169	0xbe446904	-0.19180685
170	0xbf4c2233	-0.79739684
171	0xbdda1e2e	-0.106502876
172	0x3d58144b	0.052753728
173	0xbe5d9064	-0.21637112
174	0x3e70580c	0.23471087
175	0x3e0b9084	0.13629347
176	0xbe4bc436	-0.19899067
177	0x3ed4ac96	0.41537923
178	0xbeb241ff	-0.34815976
179	0x3e3d5a14	0.18491393
180	0x3ea5d204	0.32386792
181	0xbebdb662	-0.3705321
182	0x3e83cffc	0.25744617
183	0xbe3c8899	-0.18411483
184	0x3e5e0f0c	0.21685427
185	0x3e5cdd02	0.21568683
186	0xbf4002fa	-0.7500454
187	0x3dca0ec6	0.09866099
188	0x3cd105ac	0.0255154
189	0x3e8548f4	0.2603222
190	0xbe37deda	-0.17956105
191	0x3b642f79	0.0034818335
192	0xbf59a09d	-0.850107
193	0xbb81407b	-0.0039444542
194	0xbf288dfb	-0.65841645
195	0xbd2d7dab	-0.042356174
196	0xbee10736	-0.43950814
197	0xbe83e25c	-0.25758636
198	0xbe804ee7	-0.25060198
199	0xbe267a08	-0.16257489
200	0xbdf36ea2	-0.11886336
201	0x3d469ffc	0.048492417
202	0x3fe5967d	1.793655
203	0x3e504e2e	0.20342323
204	0x3e515cf0	0.20445609
205	0x3e939d7c	0.2883109
206	0xbecc4f73	-0.39904365
207	0x3eaa6fc6	0.332884
208	0x3e9ff7a4	0.31243622
209	0x3e92cf44	0.28673756
210	0xbeb842f0	-0.3598857
211	0x3e4dbd0c	0.20091647
212	0xbd739ac1	-0.059473757
213	0xbcd4a46f	-0.025957314
214	0x3e848fbd	0.25890914
215	0x3d237b1e	0.039912336
216	0xbe8639d2	-0.26215988
217	0xbeaf87db	-0.34283337
218	0xbf679a5b	-0.904699
219	0xbea6c346	-0.32570857
220	0xbe7ca65b	-0.24672835
221	0xbe642297	-0.2227882
222	0xbdf30a8e	-0.118672475
223	0xbe5a3232	-0.2130821
224	0xbe0cd9d0	-0.13754964
225	0x3e944ab4	0.28963244
226	0xbee57bf2	-0.44821125
227	0xbe6c96e7	-0.2310444
228	0x3e61cfb7	0.22051893
229	0x3e5b4460	0.21412802
230	0xbf4e9cff	-0.8070831
231	0xbe05cceb	-0.13066451
232	0xbd90a478	-0.0706262
233	0xbe9ba242	-0.3039723
234	0xbef237b9	-0.47308138
235	0xbef69eb1	-0.48167947
236	0xbe896e41	-0.2684193
237	0x3e6fbcda	0.23411885
238	0xbe47ea8c	-0.19523066
239	0x3dededb5	0.11617605
240	0xbdd69620	-0.10477853
241	0x3e538f88	0.20660222
242	0x3e05b30a	0.13056579
243	0x3e46abaf	0.1940143
244	0x3d39b4d0	0.04533845
245	0x3dc75fd8	0.097350776
246	0xbea12b84	-0.31478512
247	0x3d9032d0	0.07040942
248	0xbddf69a6	-0.10908823
249	0xbe52f62f	-0.20601724
250	0xbf23bc9e	-0.6395968
251	0xbe512ccd	-0.20427246
252	0xbe0910e8	-0.13385355
253	0xbe84a6fd	-0.25908652
254	0x3e363993	0.177954
255	0xbe1e46be	-0.15456674

bias f4 [128]
0	0xbe0bc12f	-0.13647912
1	0x3e61fc11	0.22068812
2	0x3f2db47f	0.6785354
3	0x3e61b06f	0.2203996
4	0x3f2bf412	0.67169297
5	0x3f089c86	0.53363836
6	0xbe074082	-0.13208202
7	0x3f06f77c	0.5272138
8	0x3f08f85d	0.5350397
9	0x3d001de1	0.031278495
10	0x3f3b7e1c	0.732393
11	0x3f118518	0.5684371
12	0xbe80042f	-0.25003192
13	0xbeab0c06	-0.3340761
14	0xbf07bb43	-0.53020114
15	0xbeb4fb1b	-0.35347828
16	0x3eb764ba	0.35819036
17	0x3f26457a	0.6494976
18	0x3e83ff0f	0.25780532
19	0xbf28662a	-0.6578089
20	0x3ee031df	0.4378805
21	0xbe9bd8f7	-0.3043897
22	0x3f0a718f	0.54079527
23	0xbea77d79	-0.32712916
24	0x3f19ba0d	0.60049516
25	0xbed67c47	-0.4189169
26	0xbe972c72	-0.29526097
27	0xbe826afd	-0.2547225
28	0x3ec647d5	0.38726678
29	0xbecb4573	-0.39701423
30	0xbecde1e7	-0.40211412
31	0xbe407f46	-0.18798551
32	0x3f316556	0.6929525
33	0xbef15201	-0.47132877
34	0xbf046940	-0.517231
35	0x3e3f6cd4	0.18693858
36	0xbf01ac54	-0.50653577
37	0xbe013be4	-0.12620503
38	0xbf0d1249	-0.55106026
39	0x3f1b78c9	0.6073118
40	0xbf17ec4e	-0.5934495
41	0x3f1595f6	0.5843195
42	0xbdf81449	-0.12113244
43	0x3f178154	0.59181714
44	0x3f12708b	0.57202977
45	0x3f09bf71	0.5380774
46	0xbedabb24	-0.42720902
47	0x3f30e717	0.69102615
48	0xbe0029e5	-0.12515981
49	0xbe800698	-0.2500503
50	0xbeddb229	-0.43299988
51	0x3e58383b	0.211152
52	0xbf00c77e	-0.503044
53	0x3edb8e4d	0.42882004
54	0x3c98b0f4	0.018639065
55	0xbe59c653	-0.21267061
56	0xbf38afa9	-0.72143036
57	0xbf001f23	-0.5004751
58	0xbf0b3148	-0.5437207
59	0x3e8a3199	0.26990965
60	0xbeb88e37	-0.36046
61	0xbeba0c98	-0.36337733
62	0xbe4f5d6d	-0.20250483
63	0x3ef99282	0.4874459
64	0xbe972d07	-0.2952654
65	0x3e317181	0.17328455
66	0x3f022bc0	0.5084801
67	0xbecf28f3	-0.4046093
68	0xbe794292	-0.24341801
69	0x3ec25800	0.37957764
70	0xbe12a085	-0.14319046
71	0x3ed5cda2	0.41758448
72	0x3e79fc5e	0.24412677
73	0xbf34d10a	-0.7063147
74	0x3e5488f4	0.20755368
75	0x3f145b19	0.57951504
76	0xbf17be16	-0.59274423
77	0xbf132aaa	-0.57486975
78	0x3ef451c4	0.47718632
79	0x3e90fee0	0.28319454
80	0xbebc0f2b	-0.36730322
81	0x3f2da261	0.67825896
82	0xbe5fce7b	-0.2185611
83	0x3e3f3274	0.1867159
84	0x3e311128	0.17291701
85	0xbf092cea	-0.5358416
86	0xbe8928bd	-0.26788893
87	0x3ebdca10	0.37068224
88	0xbe8215b6	-0.2540719
89	0x3f29aa1d	0.662752
90	0x3ecd83ea	0.40139705
91	0xbf1634a5	-0.5867408
92	0x3e933b33	0.28756103
93	0x3f001161	0.5002652
94	0xbdcfe480	-0.10151005
95	0xbe5feb28	-0.21867049
96	0x3eda3316	0.426171
97	0xbf057532	-0.5213195
98	0xbd1f390c	-0.038872764
99	0x3e98c5cb	0.29838404
100	0x3f0397f3	0.5140373
101	0x3f34a69c	0.70566726
102	0x3ede836c	0.43459642
103	0xbebb5fe5	-0.365966
104	0xbf18f66b	-0.59751004
105	0xbed45b4f	-0.41475913
106	0x3ec79bc9	0.38986042
107	0x3ea544ab	0.32278952
108	0x3f05cf1a	0.52269137
109	0xbf117925	-0.56825477
110	0x3eb46b89	0.35238293
111	0xbebc71cd	-0.36805573
112	0x3eccc7fa	0.3999632
113	0xbefd7c01	-0.4950867
114	0xbf10ab38	-0.5651126
115	0xbe7034d0	-0.23457646
116	0xbf06e315	-0.5269025
117	0x3f053432	0.5203277
118	0xbe866508	-0.26248956
119	0xbe9f612d	-0.31128827
120	0xbf03153a	-0.51204264
121	0x3eb7ca7a	0.35896665
122	0xbf0975ae	-0.5369519
123	0xbe862338	-0.26198745
124	0xbee31934	-0.44355166
125	0x3f24092d	0.640765
126	0xbe953543	-0.29142198
127	0x3ecb4fa0	0.39709187

weight_mu f4 [128, 128]
0	0xbdfe17a5	-0.124068536
1	0xbe185e9f	-0.14879845
2	0xbdb38d7d	-0.08767221
3	0xbdacb986	-0.08433823
4	0xbe253b60	-0.16135931
5	0xbe04e8b7	-0.12979399
6	0x3d8981ba	0.067141965
7	0xbc3dfd66	-0.011596059
8	0xbe29fe1e	-0.16600844
9	0xbcb1685a	-0.021656204
10	0xbe223b1f	-0.15842865
11	0xbdc0b2ca	-0.09409101
12	0xbd9bb5ca	-0.07603033
13	0xbd89b524	-0.06724003
14	0xbd819678	-0.06327528
15	0xbe08aa57	-0.1334623
16	0xbdc97b41	-0.09837962
17	0xbdb0d0d1	-0.086335786
18	0xbe20cc0a	-0.15702835
19	0xbdcbfb26	-0.09960012
20	0xbe6b9e4b	-0.23009603
21	0xbdc16c5c	-0.09444496
22	0xbe0c3187	-0.13690768
23	0xbd85a7de	-0.06526159
24	0xbcf4c9ba	-0.029881347
25	0xbce02fa9	-0.027366476
26	0xbda72995	-0.08162228
27	0xbd7f6213	-0.06234939
28	0xbd904b24	-0.07045582
29	0xbdb47e1c	-0.08813116
30	0x3d137947	0.03600433
31	0xbd64f33f	-0.05589604
32	0xbcf7f53f	-0.03026831
33	0xbdd0125a	-0.1015975
34	0xbdca3274	-0.098729044
35	0x3c990d66	0.018683147
36	0xbd99caac	-0.0750936
37	0xbb52a497	-0.003214156
38	0x3d4f91f4	0.0506763
39	0xbdfebdb0	-0.12438524
40	0xbde312d6	-0.11087577
41	0xbe31916b	-0.17340629
42	0xbaedc661	-0.0018140787
43	0xbdf95316	-0.121740505
44	0xbe366214	-0.17810851
45	0xbd17c292	-0.03705079
46	0xbd8b449b	-0.06800195
47	0xbd7e973d	-0.06215595
48	0xbd968fa9	-0.0735162
49	0xbd96cab2	-0.0736288
50	0xbe131dc4	-0.14366823
51	0xbd14798e	-0.036248736
52	0xbd3988c3	-0.04529644
53	0xbdd52c8f	-0.104088895
54	0xbe179426	-0.14802608
55	0xbdfe4ac6	-0.12416606
56	0xbe038b61	-0.12846138
57	0xbe484868	-0.19558871
58	0xbd9bb417	-0.07602709
59	0xbe43c5af	-0.19118379
60	0xbc8c363c	-0.017115705
61	0x3da50e8d	0.08059416
62	0xbd6cd085	-0.057816047
63	0xbd8666d1	-0.065625794
64	0xbdd6e143	-0.10492184
65	0xbe61ef03	-0.22063832
66	0xbe2b5ab7	-0.16733824
67	0xbc52c499	-0.012864255
68	0xbbef2b7f	-0.0072988863
69	0xbd6b2c9e	-0.057415597
70	0xbca1b598	-0.019739911
71	0xbd8ac3d8	-0.067756355
72	0xbe1192d4	-0.14216167
73	0x3e0231be	0.12714288
74	0xbd991017	-0.07473772
75	0xbdbf6805	-0.09346012
76	0xbd4fcbf8	-0.05073163
77	0xbd0d2512	-0.03445918
78	0xbe3b155c	-0.18269867
79	0xbdc4c091	-0.096070416
80	0xbda97168	-0.08273584
81	0xbdfa1c22	-0.12212397
82	0xbdd60998	-0.104510486
83	0xbe990e09	-0.2989352
84	0xbd4c49c5	-0.04987504
85	0xbd7ec3f8	-0.06219861
86	0xbe099107	-0.1343423
87	0xbbf51051	-0.0074787517
88	0xbe056b86	-0.13029298
89	0xbdaf7841	-0.085678585
90	0xbd9084f4	-0.07056609
91	0x3c6bf372	0.014401304
92	0xbcb70b7e	-0.022344347
93	0xbd0b9375	-0.034076173
94	0xbdc4d260	-0.09610438
95	0xbded16ec	-0.115766376
96	0xbdcafcc4	-0.099114925
97	0x3dae63b1	0.085151084
98	0xbd9a9678	-0.07548231
99	0xbd9110e5	-0.070833005
100	0xbe31f866	-0.17379913
101	0xbdc251dc	-0.0948827
102	0xbe1f8b05	-0.15580375
103	0xbcd682cb	-0.026185414
104	0xbb8bd1b8	-0.004266944
105	0xbdd2b51d	-0.10288451
106	0xbd6da77b	-0.05802105
107	0xbe3c0f29	-0.18365158
108	0xbda2b32a	-0.07944329
109	0x3d9161e6	0.07098751
110	0xbda97305	-0.08273891
111	0xbe02d999	-0.1277832
112	0xbe260446	-0.16212568
113	0xbe785a58	-0.24253213
114	0xbd19d1b1	-0.037553493
115	0xbdbf9003	-0.0935364
116	0xbc0df736	-0.008664897
117	0xbd44aa2a	-0.048013844
118	0xbdd5c84d	-0.10438595
119	0xbd80ac93	-0.06282916
120	0xbb93a7c8	-0.004506085
121	0xbe1e4c91	-0.15458895
122	0x3cb55f6b	0.022140225
123	0xbdb878ae	-0.09007393
124	0xbd9b5c43	-0.07585957
125	0xbd1638ca	-0.036675252
126	0xbe0c675e	-0.13711306
127	0xbdc97887	-0.09837442
128	0x3c556c94	0.013026375
129	0x3adf90ab	0.0017056664
130	0xbd1468d4	-0.036232784
131	0x3c907475	0.017633656
132	0xbe0b41c9	-0.13599314
133	0x3d5a434f	0.053286847
134	0xbd0ecd47	-0.034863736
135	0xbd6681f8	-0.05627629
136	0x3d9746bc	0.073865384
137	0xbe0941fa	-0.13404074
138	0xbcd60be0	-0.02612871
139	0xbd4811ae	-0.048844986
140	0xbd0a455e	-0.03375756
141	0xbdf8e9c0	-0.12153959
142	0x3caa6954	0.020802177
143	0xbd2d1e8e	-0.042265467
144	0x3a36bee4	0.0006971194
145	0xbda53ab6	-0.08067839
146	0xbe03aa0c	-0.12857836
147	0xbd228802	-0.03968049
148	0x3c582918	0.013193391
149	0xbdce087d	-0.10060213
150	0xbe13d496	-0.14436564
151	0xbdbb323f	-0.09140443
152	0xbda53df1	-0.08068455
153	0x3bbf3af5	0.0058358856
154	0xbe0d488c	-0.13797206
155	0x3c4bde48	0.012443133
156	0xbd72cbcc	-0.059276387
157	0xbd185ca1	-0.037197713
158	0x3bff4010	0.0077896193
159	0x3df27924	0.11839512
160	0x3d8adc99	0.06780357
161	0xbe1e12aa	-0.15436807
162	0xbce75b6f	-0.028241841
163	0xbdc85574	-0.09781924
164	0x3d7714ce	0.060322575
165	0xbd6bb512	-0.05754573
166	0xbd4a156f	-0.049336847
167	0xbda81bf2	-0.08208455
168	0xbcc7de60	-0.024398029
169	0xbdfaf4a3	-0.12253692
170	0x3bdaab99	0.006673288
171	0xbcdf6008	-0.027267471
172	0xbc7a0cdb	-0.015261854
173	0xbd468c8a	-0.048473872
174	0x3d9be5c7	0.07612186
175	0xbe122126	-0.14270458
176	0xbd7c21bd	-0.061555613
177	0x3bd0b9fc	0.0063698273
178	0xbdd02d8d	-0.10164938
179	0xbd8ba875	-0.0681924
180	0x3d15be20	0.03655827
181	0xbc93e106	-0.018051635
182	0xbd5d4e27	-0.05402961
183	0xbdb12e09	-0.08651359
184	0xbdd31963	-0.103075765
185	0x3d742a16	0.05961045
186	0xbde53d1f	-0.111932985
187	0xbdd4fde4	-0.10399988
188	0xbd2b14d6	-0.041767918
189	0xbd0f7ff4	-0.035034135
190	0xbcb69606	-0.022288334
191	0xba57b9f0	-0.0008229306
192	0xbca720d6	-0.0204014
193	0x3d1c18fd	0.03810977
194	0xbd924569	-0.07142145
195	0xbd962911	-0.073320515
196	0xbd2dbcc2	-0.04241634
197	0x3c05bfa0	0.008163363
198	0xbddac629	-0.10682327
199	0xbcf410e1	-0.029793205
200	0xbbb9377a	-0.0056523653
201	0xbda8d32b	-0.08243402
202	0xbdbc3715	-0.091901936
203	0xbc5027bc	-0.012704786
204	0xbc537fcb	-0.012908886
205	0x3d16cbe6	0.036815546
206	0xbda04561	-0.07825733
207	0xbd8746b0	-0.066052794
208	0xbe1bcc0d	-0.15214558
209	0xbda91099	-0.08255119
210	0xbc813994	-0.015774526
211	0xbdab6641	-0.08369113
212	0xbce05f8f	-0.027389316
213	0x3d898db3	0.0671648
214	0xbd08b79c	-0.03337823
215	0xbd6f2859	-0.058388088
216	0xbdaf6817	-0.085647754
217	0xbe0e0ab9	-0.13871278
218	0x3bb81413	0.0056176274
219	0xbd952186	-0.07281785
220	0xbe1aac5a	-0.1510481
221	0xbdeb2b3f	-0.11482858
222	0xbd9d5d98	-0.07683867
223	0xbdf87e36	-0.12133448
224	0xbd88aeed	-0.066739894
225	0x3d96c39d	0.07361529
226	0xbe149ac8	-0.1451217
227	0xbda8a7b9	-0.082351156
228	0xbb57a4ac	-0.0032904549
229	0xbe13f63b	-0.14449398
230	0xbc5c271f	-0.013437062
231	0x3d31c025	0.043396134
232	0xbdd87bac	-0.105704635
233	0x3d9ce419	0.07660694
234	0xbd3981e3	-0.045289885
235	0xbe064565	-0.1311241
236	0xbd508bba	-0.050914504
237	0xbca5f320	-0.020257533
238	0xbde7869c	-0.113049716
239	0xbdac282e	-0.08406101
240	0xbdac76bb	-0.084210835
241	0x3ae582a7	0.0017510251
242	0xbbdd92fb	-0.006761906
243	0xbbb3a24c	-0.005481994
244	0xbd49c34c	-0.049258515
245	0x3d687e88	0.056761295
246	0xbb2cf29d	-0.0026389726
247	0xbc379560	-0.011205047
248	0xbd5407fe	-0.051765434
249	0x3d3ec43d	0.046573866
250	0x3c3c6bcb	0.011500309
251	0xbd2fb15d	-0.042893756
252	0x3ca4a674	0.020098902
253	0x3c9dc8dc	0.019260816
254	0xbd579508	-0.05263236
255	0xbdb8b94d	-0.09019718

weight_sigma f4 [128, 128]
0	0x3e715195	0.23566277
1	0x3e91f43b	0.28506646
2	0x3e944c38	0.289644
3	0xbdc84d8b	-0.09780415
4	0x3e4b9697	0.19881664
5	0x3d915710	0.07096684
6	0x3dac915f	0.08426165
7	0x3d9d276e	0.07673536
8	0x3e4f2015	0.20227082
9	0x3e6eb58e	0.23311445
10	0x3d47345e	0.048633926
11	0x3e3d27ee	0.18472263
12	0xbc8b0b78	-0.016973242
13	0xbdbc484d	-0.09193478
14	0x3dbf6ffa	0.0934753
15	0xbd551954	-0.052026108
16	0x3d6ea711	0.058264796
17	0xbcda21b7	-0.026627405
18	0x3e881aff	0.26583096
19	0xbcc60764	-0.024173446
20	0x3da927c1	0.082595356
21	0x3d4e7b72	0.050410695
22	0xbccdda2e	-0.02512845
23	0xbd3182ed	-0.04333775
24	0x3dd38f92	0.10330118
25	0x3dcd6c23	0.10030391
26	0x3d1b737f	0.037951943
27	0xbde58012	-0.11206068
28	0x3dae3d77	0.08507817
29	0x3e30456b	0.17213981
30	0x3c5f0c8f	0.013613834
31	0x3e440071	0.19140793
32	0xbde31254	-0.1108748
33	0x3c5c6da0	0.013453871
34	0x3e89af2f	0.26891467
35	0x3dea4277	0.114384584
36	0x3c782a20	0.015146762
37	0x3c1892ec	0.009312373
38	0xbdd70beb	-0.1050032
39	0x3da863bc	0.08222148
40	0xbd33de86	-0.043913387
41	0x3e671ad4	0.22568828
42	0x3e3fb09e	0.18719718
43	0x3ea4738b	0.32119402
44	0x3ebd1de1	0.36936858
45	0x3e0bd21a	0.13654366
46	0xbd841c54	-0.06450716
47	0x3e4164c0	0.1888609
48	0x3e4c2232	0.1993492
49	0x3ea5f8ba	0.32416326
50	0x3d7c931e	0.06166374
51	0x3ded3687	0.11582666
52	0x3d4c5b3b	0.04989169
53	0xbd4e6406	-0.05038836
54	0xbe51fa75	-0.20505698
55	0xba0430cc	-0.00050426717
56	0x3cf73a58	0.030179188
57	0x3e77083d	0.24124236
58	0xbd3b9ee4	-0.045805827
59	0x3e2dbbb3	0.16966133
60	0x3dc6700d	0.09689341
61	0x3d3504f3	0.044194173
62	0x3dfdb44c	0.123879045
63	0x3e0292f2	0.12751368
64	0xbe09910f	-0.13434242
65	0x3bb85ae0	0.0056260675
66	0x3e3fa336	0.18714604
67	0xbdd365a3	-0.1032212
68	0x3eb525a9	0.35380295
69	0x3e3a94e6	0.18220863
70	0xbe39a159	-0.18127955
71	0xbc86d31c	-0.016458087
72	0xbc651823	-0.013982805
73	0x3c5778ed	0.01315139
74	0xbd06e130	-0.0329296
75	0x3e8f3c81	0.27975848
76	0xbd7d3093	-0.061813902
77	0x3df8d77e	0.12150477
78	0x3e1caccb	0.1530029
79	0xbd1ed7bb	-0.038779955
80	0x3d4c6a8f	0.04990631
81	0x3cf0d9f0	0.029400796
82	0x3e4ff747	0.20309173
83	0xbd9b8f3f	-0.075956814
84	0xba5432bf	-0.000809472
85	0x3d3504f3	0.044194173
86	0x3e58d7bf	0.2117605
87	0x3d805523	0.062662385
88	0x3e362461	0.17787315
89	0x3e075e5f	0.13219593
90	0x3dc4845d	0.09595559
91	0x3ded8664	0.115978986
92	0x3dae63db	0.0851514
93	0xbd070610	-0.032964766
94	0xbdb12d2c	-0.08651194
95	0x3cde76e9	0.02715631
96	0x3d1c5b7e	0.03817319
97	0x3d3504f3	0.044194173
98	0xbdc7e754	-0.09760919
99	0xbe8c1d06	-0.27365893
100	0x3e175ade	0.14780757
101	0x3d0702cf	0.032961663
102	0x3e4724ca	0.19447628
103	0x3e561e1c	0.20909923
104	0x3e131c16	0.14366183
105	0x3de973bb	0.11399027
106	0x3c5d2bd4	0.013499219
107	0xbde5adb2	-0.112147704
108	0x3e5c7453	0.21528749
109	0x3bb3fc2b	0.0054927072
110	0x3e30c24a	0.17261615
111	0x3cfd37f7	0.030910475
112	0xbd948dda	-0.072536185
113	0x3e6d9a0e	0.23203298
114	0xbd8883ad	-0.0666574
115	0x3d93bff0	0.072143435
116	0xbd5a7285	-0.05333187
117	0x3e0fb889	0.14035238
118	0x3e61b685	0.22042282
119	0x3d6d2da2	0.057904847
120	0xbc452bf1	-0.012034402
121	0x3da0d35d	0.07852814
122	0xbcd2ec53	-0.025747454
123	0xbdeb2201	-0.11481095
124	0x3d8983d6	0.06714599
125	0x3e15191e	0.14560363
126	0xbc980c0c	-0.018560432
127	0x3d7b8d9f	0.061414357
128	0x3d5437ec	0.051811144
129	0x3dfbc917	0.12294214
130	0xbccc8c1b	-0.024969151
131	0x3e041fe8	0.12902796
132	0x3cb5f9a1	0.022213759
133	0x3d0198e5	0.031639952
134	0xbcb392f7	-0.021920664
135	0x3b0412aa	0.0020152726
136	0x3df67af4	0.1203517
137	0xbcd04f95	-0.025428573
138	0xbb0058ff	-0.0019584296
139	0x3e00f20c	0.12592334
140	0x3d2c6f22	0.042098172
141	0x3d6d13ca	0.0578802
142	0x3d3504f3	0.044194173
143	0x3c58ac80	0.013224721
144	0xbd38a79b	-0.045081716
145	0x3d4750a0	0.048660874
146	0x3d2d6c67	0.04233971
147	0x3d3504f3	0.044194173
148	0xbd1421ff	-0.036165234
149	0xba911d33	-0.0011071324
150	0x3aeae123	0.0017919879
151	0xbbbd7a26	-0.0057823835
152	0x3d0e859f	0.0347954
153	0x3cf13a11	0.029446634
154	0x3d4ddd5b	0.05025993
155	0xbb714d0f	-0.0036819612
156	0x3d3d8b1c	0.046275243
157	0x3d374764	0.044745818
158	0x3d3504f3	0.044194173
159	0x3c525f6b	0.012840132
160	0x3dcbee81	0.099576004
161	0x3d243939	0.040093634
162	0x3dd5e560	0.104441404
163	0x3c616ca3	0.013758811
164	0x3d3504f3	0.044194173
165	0x3d812114	0.06305137
166	0x3d3504f3	0.044194173
167	0x3c6d8963	0.014498088
168	0x3d3504f3	0.044194173
169	0x3d5d1b23	0.053980958
170	0xbc4f8d57	-0.012667975
171	0x3de74db2	0.11294116
172	0x3c047114	0.008083601
173	0x3dbea4d6	0.09308784
174	0x3d3504f3	0.044194173
175	0x3dc9af0d	0.098478414
176	0x3d8df9b7	0.06932395
177	0x3d6ace21	0.057325486
178	0x3c574b09	0.013140448
179	0x3de019a6	0.10942392
180	0x3d3504f3	0.044194173
181	0xbd037ed9	-0.032103393
182	0xbbb0a832	-0.005391144
183	0x3d31049d	0.04321729
184	0x3c4e2557	0.012582145
185	0x3d3504f3	0.044194173
186	0x3c96cb46	0.018407475
187	0x3cd9625e	0.026536163
188	0x3d3504f3	0.044194173
189	0x3d3504f3	0.044194173
190	0x3d748c7e	0.059704296
191	0x3c04c38a	0.008103261
192	0x3d0706bf	0.032965418
193	0x3c913859	0.017727064
194	0xbcdbe718	-0.026843593
195	0x3a0af229	0.0005300367
196	0x3d65211e	0.055939786
197	0x3dbe9dd6	0.093074486
198	0x3d4facfb	0.050702076
199	0x3d6cc3a6	0.057803772
200	0x3d5ee2e8	0.054415613
201	0x3dcce789	0.10005099
202	0xbc79c0aa	-0.015243689
203	0x3e033a87	0.12815295
204	0x3daec1d6	0.08533065
205	0x3c4d8fc5	0.012546484
206	0x3a918ae8	0.0011104019
207	0x3df63e16	0.12023561
208	0xbcf1f8cb	-0.029537579
209	0x3ca24359	0.019807504
210	0x3c4d4ce6	0.012530541
211	0x3da72c78	0.081627786
212	0x3c2b8871	0.010469542
213	0x3d3504f3	0.044194173
214	0xbcb153da	-0.021646429
215	0x3d117474	0.03551145
216	0x3d3db8ca	0.046318807
217	0x3df4a7a2	0.11946036
218	0xbc6a2db7	-0.014293126
219	0x3d3504f3	0.044194173
220	0xbc4b808d	-0.012420786
221	0xbc91afa8	-0.017783955
222	0x3c02ef0b	0.007991563
223	0x3d129940	0.03579068
224	0x3b84c56c	0.004051855
225	0x3d3504f3	0.044194173
226	0x3d812d8a	0.06307514
227	0x3bccac0e	0.0062460965
228	0x3cacd8d7	0.021099491
229	0x3d1499e8	0.03627959
230	0x3cef89b1	0.029240461
231	0x3cd3f58e	0.025873926
232	0x3c338f66	0.010959482
233	0x3d3504f3	0.044194173
234	0x3d2d7ace	0.042353444
235	0x3cb128ea	0.021625955
236	0x3d38a8dd	0.045082916
237	0x3d3504f3	0.044194173
238	0x3da690ad	0.081330635
239	0x3c61589b	0.013754035
240	0x3d66d8d2	0.05635912
241	0x3d3250fb	0.04353426
242	0x3d7f4ffb	0.062332135
243	0x3d97ac92	0.07405962
244	0x3a5ee720	0.0008503068
245	0x3cf9f265	0.03051109
246	0x3daab719	0.08335704
247	0x3d856670	0.06513679
248	0x3d3504f3	0.044194173
249	0x3dfe3080	0.124115944
250	0x3dea75d9	0.11448259
251	0x3ab2f3e9	0.0013653013
252	0xbc987381	-0.018609764
253	0x3d03b394	0.03215368
254	0xbc17bf7a	-0.00926196
255	0xbc8d1043	-0.017219668

bias_mu f4 [128]
0	0xbde6c618	-0.11268252
1	0xbdb41e21	-0.08794809
2	0xbd77c5ba	-0.0604913
3	0xbe277987	-0.16354953
4	0x3ed8d884	0.42352688
5	0xbbd5a123	-0.006519453
6	0xbe1b6baa	-0.1517779
7	0x3eb544fe	0.354042
8	0xbe2c13d1	-0.16804434
9	0x3e98a5cd	0.29813996
10	0xbdcc62d5	-0.09979788
11	0x3e720d2f	0.23637842
12	0x3c60df47	0.0137251085
13	0xbd54bf18	-0.051940054
14	0x3dcf9239	0.10135312
15	0xbdcd1f23	-0.100157045
16	0x3ee7cb84	0.45272458
17	0x3ee1402e	0.43994278
18	0x3d3f88fc	0.046761498
19	0xbdd492b2	-0.103795424
20	0x3eb4fd52	0.35349518
21	0xbe28fad7	-0.16501938
22	0x3eb27452	0.3485437
23	0xbcdf3179	-0.02724527
24	0x3ee50fdb	0.4473866
25	0x3c492cd1	0.0122787515
26	0x3ed54e03	0.4166108
27	0xbd87ef02	-0.06637384
28	0xbc33cdf2	-0.010974394
29	0xbcac498b	-0.021031162
30	0xbe0bb94e	-0.13644907
31	0x3ec407b1	0.38287118
32	0xbb962aed	-0.004582754
33	0xbb5f754e	-0.0034097019
34	0xbdc3003a	-0.095215276
35	0xbd596e74	-0.053083852
36	0xbe075fd6	-0.13220152
37	0xbdfff593	-0.124980114
38	0x3ea8622e	0.32887405
39	0x3ebad0e1	0.36487487
40	0x3cf8ecc5	0.030386338
41	0x3ec311cd	0.38099518
42	0xbc8625a7	-0.016375376
43	0x3ed66044	0.4187032
44	0x3ec4df8a	0.38451797
45	0xbde855fe	-0.11344527
46	0x3e92b7b8	0.2865579
47	0xbe02bea7	-0.1276804
48	0xbe236ffd	-0.15960689
49	0xbe0101b0	-0.125983
50	0xbd1408b4	-0.036141112
51	0x3d238101	0.03991795
52	0x3ec1b52c	0.37833536
53	0xbd0b70e4	-0.034043208
54	0x3ea89a1b	0.32930073
55	0xbaa04ce0	-0.0012229942
56	0xbd65449c	-0.055973634
57	0x3e10152f	0.14070581
58	0xbd256a72	-0.040384717
59	0x3ed2fd7b	0.41209015
60	0xbcef6d77	-0.029227002
61	0x3ecd1ccf	0.40061042
62	0xbcfb3330	-0.030664057
63	0xbe0c88df	-0.13724087
64	0x3eb95237	0.36195537
65	0x3eb5f34a	0.35537177
66	0xbd905e9d	-0.07049296
67	0x3ea27ca2	0.31735712
68	0xbd8e6afc	-0.069539994
69	0xbd1aec8f	-0.037823256
70	0xbcb45ab6	-0.02201591
71	0xbde7374c	-0.11289844
72	0xbe0606de	-0.13088557
73	0x3e8ca6ba	0.27470952
74	0x3c685f80	0.014182925
75	0xbd4aff1e	-0.049559705
76	0xbc6ad16e	-0.0143321585
77	0x3edbd5b7	0.4293649
78	0xbe1be8a8	-0.1522547
79	0xbe181510	-0.14851785
80	0xbe257e65	-0.16161497
81	0x3d09ea97	0.033670988
82	0xbd98dff1	-0.074645884
83	0x3eb90a94	0.36140883
84	0xbc7b28c5	-0.015329544
85	0xbd30ca0d	-0.04316144
86	0x3eca8e89	0.3956187
87	0xbdf101c0	-0.11767912
88	0xbd789340	-0.060687304
89	0xbdfb3f90	-0.12267983
90	0xbe24359a	-0.16036072
91	0xbe0edfd7	-0.13952576
92	0x3ec2c86e	0.3804354
93	0xbe582e84	-0.21111494
94	0x3ea7ddd4	0.3278643
95	0xbba4b3ae	-0.0050263023
96	0xbdc9652f	-0.09833752
97	0x3ee1b3e3	0.44082555
98	0x3e85597b	0.2604483
99	0x3d397263	0.045275103
100	0x3e9dfc7c	0.30856693
101	0x3ecff793	0.40618572
102	0xbcaf84c6	-0.021425616
103	0x3eded04e	0.435183
104	0xbdc271c3	-0.094943546
105	0xbe0676d3	-0.13131265
106	0xbd44770d	-0.0479651
107	0x3ec204b8	0.37894225
108	0xbc993cbd	-0.01870572
109	0x3ee598f2	0.4484325
110	0x3b0eea62	0.0021807184
111	0x3ee363ce	0.44412082
112	0x3c10a07b	0.008827324
113	0xbdc55706	-0.09635739
114	0x3ee2f596	0.44327992
115	0x3ebf60db	0.37378582
116	0xbd7e0b57	-0.062022533
117	0xbd152980	-0.03641653
118	0xbcb2823f	-0.021790622
119	0xbcabb1d0	-0.020958811
120	0x3eae8bba	0.34090978
121	0xbd5e45ed	-0.054265905
122	0xbc8b43f3	-0.017000174
123	0x3c27a192	0.010231392
124	0x3ec11b51	0.37716153
125	0x3ecbb11f	0.3978357
126	0x3cb61a0e	0.02222922
127	0xbd729ece	-0.05923348

bias_sigma f4 [128]
0	0x3dc2715f	0.0949428
1	0x3d6f6783	0.058448326
2	0x3c9c3d19	0.019072102
3	0xbd0cebef	-0.03440469
4	0xbd84e1b2	-0.064883605
5	0xbb94341c	-0.0045228135
6	0xbcaefc30	-0.021360487
7	0xbd19d416	-0.037555777
8	0x3d5db264	0.054125205
9	0x3b3464ca	0.0027525895
10	0x3c6e3716	0.014539501
11	0x3d00d93b	0.031457167
12	0xbca2e177	-0.0198829
13	0x3b1705c0	0.0023044199
14	0xbd11aca9	-0.035565052
15	0x3da2ad2d	0.07943187
16	0xbccccc2c	-0.0249997
17	0x3d0b8cc1	0.03406978
18	0x3c89185d	0.01673525
19	0x3d1d9927	0.038476136
20	0xbd3fe00a	-0.04684452
21	0x3dc1338a	0.094336584
22	0x3d0c3aa8	0.034235626
23	0x3cc0d5cf	0.023539452
24	0xbd547920	-0.051873326
25	0xbc3a4cd8	-0.01137086
26	0xbce20c54	-0.02759377
27	0xbc117ac5	-0.008879368
28	0x3ca6441a	0.020296145
29	0x3e14b288	0.1452123
30	0xbd64f87d	-0.05590104
31	0xbd6c8729	-0.057746086
32	0x3d0343ad	0.032046963
33	0x3e36deef	0.1785848
34	0x3c7c1146	0.015384978
35	0x3d9e5101	0.07730294
36	0x3d678f15	0.056532938
37	0x3c3b4950	0.011431053
38	0xbc632062	-0.013862701
39	0x3c90ee43	0.017691737
40	0x3bfde86c	0.007748654
41	0xbcef42eb	-0.029206714
42	0xbb44b4db	-0.0030015025
43	0xbd00d8ae	-0.03145664
44	0x3d04a8d1	0.03238756
45	0x3d3f5db6	0.04672023
46	0x3d09f2cf	0.033678826
47	0xbc049027	-0.008091009
48	0x3ce5045c	0.02795618
49	0xbd455066	-0.048172377
50	0x3dc6d0e4	0.097078115
51	0x3df39c43	0.11895039
52	0x3cb6a96b	0.022297582
53	0x3d85c0e9	0.06530935
54	0x3ce2833a	0.027650464
55	0x3bb905c6	0.00564644
56	0x3d715591	0.058919493
57	0x3d3e3af4	0.04644294
58	0x3d691a42	0.056909807
59	0x39f60288	0.00046922662
60	0x3db11939	0.08647389
61	0xbb800e21	-0.0039079343
62	0x3dd43a06	0.103626296
63	0x3d28f7bb	0.04125188
64	0x3dfe15b5	0.12406484
65	0xbc71b5e1	-0.014752836
66	0x3c7e31cf	0.015514805
67	0xbbc34f46	-0.005960378
68	0x3ce87394	0.028375424
69	0x3e0f28b0	0.13980365
70	0xbd201548	-0.039082795
71	0xbcf62399	-0.030046271
72	0x3e2d8ec3	0.1694899
73	0x3b843af3	0.0040353476
74	0xbd402107	-0.046906497
75	0x3d9aab1a	0.07552166
76	0xbdc98688	-0.09840113
77	0x3c518505	0.012788062
78	0x3e150e43	0.14556222
79	0xbbd5a226	-0.0065195737
80	0xbd421bbf	-0.047389742
81	0x3d6f31ab	0.058396976
82	0x3db4b840	0.088242054
83	0x3d318f2b	0.043349426
84	0x3d21ed1c	0.039532766
85	0x3db9f060	0.09079051
86	0xbd9a340e	-0.0752946
87	0x3c785559	0.015157067
88	0x3d79681f	0.060890313
89	0x3dfea882	0.12434484
90	0x3e17c6e9	0.14821972
91	0x3cf73538	0.030176744
92	0x3d3dca32	0.046335407
93	0x3da1c070	0.07898033
94	0xbc4c16fb	-0.012456651
95	0x3d956e91	0.072964795
96	0x3d575d6e	0.052579336
97	0x3dc3d014	0.09561172
98	0x3c05e549	0.008172342
99	0xbddce2ad	-0.107854225
100	0x3d1a3d22	0.037655957
101	0x3ce5f6d2	0.028071795
102	0x3d07820c	0.033083007
103	0x3cfa4fbb	0.030555597
104	0x3c1b92ab	0.009495418
105	0xbd888d6e	-0.066676006
106	0xbc6c9db8	-0.0144419
107	0x3c3f69f5	0.011682977
108	0xbcc37ea8	-0.023864105
109	0xbc9787cc	-0.01849737
110	0xbb533027	-0.0032224746
111	0x3d14d291	0.036333624
112	0xbd8c1f9f	-0.06841969
113	0x3cf66b32	0.030080412
114	0x3bd06700	0.006359935
115	0x3ccb9e6f	0.02485582
116	0x3d248fc9	0.040176187
117	0x3cb3e402	0.021959309
118	0x3a6a4886	0.00089371984
119	0x3c2574ba	0.010098631
120	0x3cec760f	0.028864888
121	0x3e115fb0	0.14196658
122	0x3d6b782a	0.057487644
123	0x3dc676a7	0.096906
124	0xbc45290f	-0.012033715
125	0xbd5f966d	-0.054586817
126	0x3bff90b3	0.007799232
127	0x3c2f4397	0.010697267

weight_epsilon f4 [128, 128]
0	0x3e9f1f60	0.31078625
1	0x3f0933c8	0.53594637
2	0x3ecca1be	0.3996715
3	0xbf0deec6	-0.55442464
4	0x3f2669ee	0.65005386
5	0xbf06ec03	-0.52703875
6	0x3ecfaf59	0.40563467
7	0xbe66d6c1	-0.2254286
8	0xbe7527c0	-0.23940945
9	0xbecedf3e	-0.40404695
10	0xbf15ee8b	-0.5856711
11	0x3ee4a203	0.44654855
12	0xbef72154	-0.48267615
13	0x3efc55e3	0.49284276
14	0xbf2319d1	-0.6371127
15	0xbecc1c52	-0.39865357
16	0x3e27eb3d	0.1639833
17	0xbf340b52	-0.70329773
18	0x3ef07538	0.4696443
19	0x3f157e0c	0.5839546
20	0x3f0fcc12	0.5617076
21	0x3e9a4e4b	0.30137858
22	0xbede9429	-0.43472412
23	0xbf0e9d3b	-0.55708665
24	0xbf370614	-0.7149365
25	0xbf5c9541	-0.86165243
26	0xbed5994e	-0.41718525
27	0x3ed5cba3	0.41756925
28	0xbed85f51	-0.4226022
29	0xbe2d784e	-0.16940424
30	0xbea38039	-0.31933764
31	0xbf6f595a	-0.93495715
32	0xbf068a68	-0.5255494
33	0x3e358ead	0.17730208
34	0xbee426ec	-0.44560945
35	0xbf4474c6	-0.7674068
36	0x3f1cf31f	0.61308473
37	0xbeb42485	-0.35184112
38	0xbeb1dfee	-0.34741157
39	0x3f51fc0c	0.8202522
40	0xbe214a09	-0.15750898
41	0xbe800eab	-0.2501119
42	0x3f618918	0.88099813
43	0x3f365290	0.7121973
44	0x3e552457	0.20814644
45	0xbed7cc53	-0.42148075
46	0x3e63df85	0.22253235
47	0xbed4ee44	-0.41588032
48	0x3e9ae66b	0.3025392
49	0x3f387894	0.7205899
50	0x3f18685d	0.59534246
51	0xbf01445c	-0.50494933
52	0x3eee78c0	0.465765
53	0xbef875ec	-0.48527467
54	0x3f1788b7	0.59192985
55	0x3f15e9d0	0.58559895
56	0x3efe89ce	0.49714512
57	0xbe57986f	-0.21054243
58	0xbf31a795	-0.69396335
59	0xbe905207	-0.28187582
60	0xbf248b6d	-0.64275247
61	0xbf62b2a9	-0.88553864
62	0x3e7ad904	0.24496847
63	0x3eb6a568	0.3567307
64	0xbec887cf	-0.39166114
65	0xbf2c233c	-0.67241263
66	0xbe8c7d18	-0.2743919
67	0x3f0e38a7	0.55555195
68	0xbf03679e	-0.5132998
69	0xbf078d33	-0.5294983
70	0x3f06c407	0.52642864
71	0xbeec0ff0	-0.4610591
72	0xbf09a3af	-0.53765386
73	0x3e82abd1	0.2552171
74	0x3f140ff3	0.57836837
75	0xbf0b5048	-0.54419374
76	0xbec98419	-0.39358595
77	0x3f529589	0.8225942
78	0xbec67a91	-0.38765386
79	0xbeedd18f	-0.46448943
80	0xbe4ad951	-0.19809462
81	0x3e4163f9	0.18885793
82	0x3f2a2c93	0.66474265
83	0xbebe3449	-0.37149265
84	0x3ed20d72	0.41025883
85	0x3e976843	0.29571733
86	0x3f095e0d	0.53659135
87	0x3edc0e68	0.4297974
88	0x3f44d0c1	0.76881033
89	0x3de84e00	0.11343002
90	0x3ee895dc	0.45426834
91	0xbf10b981	-0.56533056
92	0x3f30e090	0.69092655
93	0x3ec07761	0.3759108
94	0x3f1e3557	0.6180014
95	0x3efbd5bd	0.49186507
96	0x3f0d28ab	0.5514018
97	0xbf37135d	-0.7151392
98	0xbef281c8	-0.4736464
99	0xbf0ebd6e	-0.55757797
100	0x3e0013c1	0.12507536
101	0xbee5ae21	-0.44859412
102	0x3edd57be	0.43231004
103	0xbe66e546	-0.22548398
104	0x3f0043e1	0.50103575
105	0xbea43257	-0.32069656
106	0x3f0fd404	0.56182885
107	0x3e0136d6	0.12618575
108	0xbe9254ee	-0.2858042
109	0x3ebc8b7c	0.36825168
110	0x3e2d40d9	0.16919269
111	0xbefa0bd2	-0.48837143
112	0xbec7d736	-0.3903138
113	0x3f114b72	0.56755745
114	0x3f004d05	0.5011752
115	0xbf050048	-0.51953554
116	0x3e0eafbe	0.13934228
117	0x3f3b22a9	0.7309976
118	0xbf1da55d	-0.6158045
119	0xbf0f11fb	-0.5588681
120	0xbf08b515	-0.5340131
121	0xbdea304b	-0.114349924
122	0x3f314ea2	0.6926061
123	0xbebb8f17	-0.36632606
124	0x3f007fc5	0.5019496
125	0x3ed69b5b	0.41915402
126	0xbf57de08	-0.8432317
127	0xbf0c0b78	-0.54705
128	0x3ef3adfb	0.47593674
129	0x3f521c69	0.820746
130	0x3f1cafa7	0.61205524
131	0xbf595aec	-0.8490436
132	0x3f7ed86a	0.9954897
133	0xbf4e9e6e	-0.80710495
134	0x3f1f0620	0.6211872
135	0xbeb0c0ba	-0.3452204
136	0xbebbb702	-0.3666306
137	0xbf1e66c7	-0.61875576
138	0xbf659ade	-0.89689434
139	0x3f2f104e	0.68384254
140	0xbf3d3a21	-0.7391682
141	0x3f413677	0.7547373
142	0xbf79c59e	-0.97567165
143	0xbf1c497e	-0.6104964
144	0x3e80933d	0.25112334
145	0xbf89dc07	-1.0770272
146	0x3f381e3c	0.71921134
147	0x3f64ee96	0.89426553
148	0x3f5c35da	0.8601967
149	0x3eec4da5	0.46152988
150	0xbf2a6d97	-0.6657347
151	0xbf5a6615	-0.85312015
152	0xbf8c2411	-1.0948507
153	0xbfa8e663	-1.3195308
154	0xbf238d5c	-0.6388757
155	0x3f23b3e6	0.6394638
156	0xbf25ad04	-0.64717126
157	0xbe84d358	-0.25942492
158	0xbefa6271	-0.4890323
159	0xbfb744e0	-1.4317894
160	0xbf4e08f5	-0.8048242
161	0x3e8b04a0	0.27151966
162	0xbf2eb20f	-0.68240446
163	0xbf966d12	-1.1752036
164	0x3f705a23	0.9388754
165	0xbf09ef52	-0.538808
166	0xbf0832c4	-0.5320246
167	0x3fa0c8e4	1.2561307
168	0xbe76ff62	-0.24120858
169	0xbec41b3e	-0.38302034
170	0x3facb12c	1.3491569
171	0x3f8b9a9d	1.0906559
172	0x3ea333cc	0.31875455
173	0xbf253c77	-0.6454539
174	0x3eae7b62	0.3407851
175	0xbf230a65	-0.63687736
176	0x3eed369b	0.46330723
177	0x3f8d3fc3	1.1035084
178	0x3f69657e	0.9117049
179	0xbf45f57f	-0.7732772
180	0x3f3698e6	0.71327055
181	0xbf3e3eeb	-0.74314755
182	0x3f680f00	0.9064789
183	0x3f65939f	0.89678377
184	0x3f42e641	0.7613259
185	0xbea514bb	-0.3224238
186	0xbf88079f	-1.0627326
187	0xbedd02fd	-0.43166342
188	0xbf7bfba3	-0.9843084
189	0xbfad9504	-1.3561101
190	0x3ec012d5	0.37514368
191	0x3f0bda0c	0.5462959
192	0xbf198bb9	-0.59978825
193	0xbf83ce30	-1.0297298
194	0xbed724cc	-0.4202026
195	0x3f59cc0f	0.85076994
196	0xbf493b92	-0.7860652
197	0xbf4f9545	-0.8108714
198	0x3f4e6132	0.8061706
199	0xbf34c09b	-0.7060639
200	0xbf52c7c7	-0.82336086
201	0x3ec81bf8	0.39083838
202	0x3f62bdf3	0.8857109
203	0xbf555821	-0.833376
204	0xbf1a4ce6	-0.6027359
205	0x3fa13e6a	1.2597172
206	0xbf17f98b	-0.5936515
207	0xbf3618e2	-0.7113172
208	0xbe9b522b	-0.30336127
209	0x3e941427	0.28921625
210	0x3f824d4d	1.017984
211	0xbf11a394	-0.56890225
212	0x3f20d637	0.62826866
213	0x3ee7dd4d	0.45286027
214	0x3f525d24	0.8217337
215	0x3f287f23	0.65818995
216	0x3f96b380	1.1773529
217	0x3e31e00e	0.17370626
218	0x3f321714	0.69566464
219	0xbf5da175	-0.8657449
220	0x3f876f3b	1.058082
221	0x3f135efe	0.5756682
222	0x3f724795	0.94640476
223	0x3f40d458	0.7532401
224	0x3f582b8a	0.84441435
225	0xbf8c2e3e	-1.0951612
226	0xbf39afe4	-0.7253401
227	0xbf5a9763	-0.8538725
228	0x3e442307	0.19153987
229	0xbf2fdd9b	-0.6869752
230	0x3f297b4f	0.6620378
231	0xbeb0cbd9	-0.34530523
232	0x3f446cba	0.76728404
233	0xbefb7336	-0.49111336
234	0x3f5c4204	0.8603823
235	0x3e45e0cb	0.19324033
236	0xbee01782	-0.43767935
237	0x3f105e4f	0.56393903
238	0x3e84a8e2	0.25910097
239	0xbf3f75b7	-0.74788994
240	0xbf190480	-0.5977249
241	0x3f5e80f3	0.8691551
242	0x3f447ab9	0.7674976
243	0xbf4bad64	-0.7956145
244	0x3e5a826e	0.21338817
245	0x3f8f4a07	1.1194466
246	0xbf716b18	-0.9430404
247	0xbf5b18e0	-0.8558483
248	0xbf515a62	-0.8177854
249	0xbe335158	-0.17511499
250	0x3f87c383	1.060654
251	0xbf0f9d0d	-0.56099015
252	0x3f44c871	0.7686835
253	0x3f2452f3	0.6418907
254	0xbfa54a05	-1.2913214
255	0xbf5676ca	-0.8377501

bias_epsilon f4 [128]
0	0x3f1672c5	0.58768874
1	0x3f66655b	0.89998406
2	0x3f9596ba	1.1686623
3	0xbf9ffd2a	-1.2499135
4	0xbf4eb307	-0.80741924
5	0x3f6c5622	0.9231893
6	0xbeef3ef7	-0.46727726
7	0xbf8f98a6	-1.121846
8	0x3fa76541	1.3077775
9	0x3e0b8e2c	0.13628453
10	0x3f232d20	0.6374073
11	0xbf834012	-1.0253928
12	0xbf9ed30d	-1.2408158
13	0x3f893bff	1.0721434
14	0x3f1ef8b7	0.6209826
15	0x3e9a7e29	0.30174378
16	0xbf8edb0e	-1.11606
17	0xbe3dc1b9	-0.1853093
18	0xbf91cb9a	-1.1390259
19	0xbf0b1ffa	-0.5434567
20	0xbf33145d	-0.69952947
21	0x3f3c2003	0.73486346
22	0xbf219f9f	-0.6313419
23	0x3fa0ba37	1.2556828
24	0x3f7fb1e2	0.998808
25	0xbe67dffa	-0.22644034
26	0xbf0cc9eb	-0.549956
27	0xbfc2ab4d	-1.5208527
28	0x3f49d1a3	0.78835505
29	0xbf2f278d	-0.68419725
30	0x3f210ab1	0.6290694
31	0xbfda59bc	-1.7058635
32	0x3f89f75d	1.0778614
33	0x3f486873	0.78284377
34	0xbf8418f9	-1.0320121
35	0x3eb7c716	0.35894078
36	0xbfa1fe37	-1.2655705
37	0xbefc2b70	-0.4925189
38	0xbf7fd9ad	-0.9994152
39	0xbf237ecd	-0.6386536
40	0xbf71a1c4	-0.9438746
41	0xbf55a447	-0.8345379
42	0xbed68f81	-0.4190636
43	0xbf848a4d	-1.0354706
44	0x3ebddf07	0.3708422
45	0xbfaa05bd	-1.3283001
46	0xbf16b438	-0.5886874
47	0x3f891246	1.0708702
48	0xbf19c30f	-0.6006326
49	0x3ebd22df	0.36940667
50	0x3f55471b	0.83311623
51	0xbf0bc03e	-0.54590213
52	0x3ece5628	0.40300107
53	0x3f287413	0.65802115
54	0x3f51f896	0.8201994
55	0x3f60071b	0.8751084
56	0xbf8b8795	-1.0900751
57	0xbf5a3512	-0.8523723
58	0xbf10724e	-0.56424415
59	0xbe8a33f6	-0.26992768
60	0x3f4189b4	0.75600743
61	0x3f60708d	0.8767174
62	0x3f42d309	0.76103264
63	0x3f7dab75	0.9908975
64	0x3fc67eb1	1.5507413
65	0x3f3a0a66	0.72672117
66	0xbd89abc0	-0.06722212
67	0xbee27c6e	-0.44235557
68	0xbf87b5a3	-1.0602306
69	0xbf5e9f98	-0.8696227
70	0xbf99693a	-1.1985238
71	0xbf026ebe	-0.5095023
72	0xbf01c3ee	-0.5068959
73	0xbf77e870	-0.96839046
74	0xbf556d0b	-0.8336951
75	0x3ec06614	0.3757788
76	0xbee83e4d	-0.45360032
77	0xbfbf2d73	-1.4935745
78	0xbfa7b17f	-1.3101043
79	0x3f7c8c7e	0.98651874
80	0x3fac9987	1.3484353
81	0x3fa346a7	1.2755936
82	0xbf88d0a8	-1.0688677
83	0x3eef0667	0.46684572
84	0xbf81e4d7	-1.0147961
85	0xbf7b48b9	-0.9815784
86	0x3f8f2ce2	1.1185572
87	0x3f0fb0e9	0.5612932
88	0xbef96418	-0.48709178
89	0xbf1147ca	-0.56750166
90	0xbe61e709	-0.22060789
91	0x3f685704	0.90757775
92	0xbf5dba1f	-0.86612123
93	0x3f2ec801	0.6827393
94	0xbf57e27d	-0.8432997
95	0x3edf45e3	0.43608007
96	0xbf775bd0	-0.9662447
97	0xbf566e30	-0.8376188
98	0xbf870cd0	-1.0550785
99	0xbfb054f1	-1.3775922
100	0xbf013e4f	-0.504857
101	0xbf20aca6	-0.6276344
102	0xbed96569	-0.42460182
103	0xbf75af05	-0.95970184
104	0xbf3873cb	-0.72051686
105	0xbf5d74d7	-0.8650641
106	0x3f6604cb	0.89851063
107	0x3f8cbf68	1.0995913
108	0x3f7570f5	0.95875484
109	0xbfa338eb	-1.2751745
110	0x3faedddb	1.3661455
111	0xbf90cd6b	-1.1312689
112	0xbed3a0d4	-0.4133364
113	0xbf101f2c	-0.56297565
114	0xbef1be3d	-0.47215453
115	0x3fd034a7	1.6266068
116	0x3f256ade	0.6461619
117	0x3f4aa148	0.79152346
118	0xbf97324a	-1.1812222
119	0xbf706316	-0.93901193
120	0x3fc0e766	1.5070617
121	0x3daa3008	0.083099425
122	0x3f0e65cc	0.5562408
123	0x3f344613	0.70419425
124	0xbf1175dc	-0.56820464
125	0x3eb01f25	0.3439876
126	0x3f5bbd27	0.858355
127	0x3f7197d4	0.94372296

epsilon_in f4 [128]
0	0x3f076145	0.52882797
1	0x3f6975f5	0.91195613
2	0x3f2e194b	0.68007344
3	0xbf718290	-0.9433985
4	0x3f8d9551	1.1061193
5	0xbf6594a1	-0.89679915
6	0x3f30b246	0.69022024
7	0xbec46541	-0.383585
8	0xbed09366	-0.40737456
9	0xbf300138	-0.6875186
10	0xbf7f1f02	-0.9965669
11	0x3f4284c7	0.7598385
12	0xbf52418a	-0.82131255
13	0x3f56af45	0.8386119
14	0xbf8ac3c0	-1.0840988
15	0xbf2da7c7	-0.6783413
16	0x3e8edd22	0.27903086
17	0xbf992e0f	-1.1967181
18	0x3f4c944c	0.79913783
19	0x3f7e5f95	0.99364597
20	0x3f74aeb9	0.95579106
21	0x3f03482d	0.51282007
22	0xbf3d5e2e	-0.7397183
23	0xbf72ab6a	-0.9479281
24	0xbf9bb701	-1.2165223
25	0xbfbbab81	-1.4661714
26	0xbf35ba56	-0.7098745
27	0x3f35e528	0.7105279
28	0xbf381668	-0.7190919
29	0xbe93962a	-0.28825504
30	0xbf0b1ae0	-0.54337883
31	0xbfcba2c9	-1.5909053
32	0xbf64ee8c	-0.89426494
33	0x3e9a779e	0.30169386
34	0xbf421c0e	-0.7582406
35	0xbfa7249d	-1.3058048
36	0x3f858804	1.0432134
37	0xbf19437f	-0.59868616
38	0xbf175589	-0.5911489
39	0x3fb2a722	1.3957255
40	0xbe89392b	-0.26801428
41	0xbed9e65e	-0.4255857
42	0x3fbfe22c	1.4990897
43	0x3f9b1e46	1.2118614
44	0x3eb556d2	0.354178
45	0xbf379959	-0.71718365
46	0x3ec1df4e	0.3786568
47	0xbf3528d1	-0.70765406
48	0x3f03c99a	0.51479495
49	0x3f9cf239	1.226142
50	0x3f81aac0	1.0130234
51	0xbf5bf554	-0.85921216
52	0x3f4ae3b2	0.79253685
53	0xbf536350	-0.82573414
54	0x3f80ec79	1.0072166
55	0x3f7f16f5	0.99644405
56	0x3f588f0b	0.84593266
57	0xbeb76d33	-0.358255
58	0xbf972599	-1.1808349
59	0xbef592a8	-0.47963452
60	0xbf8bfe36	-1.0936954
61	0xbfc0df56	-1.5068157
62	0x3ed56b3a	0.4168337
63	0x3f1b64c2	0.6070062
64	0xbf2a9c05	-0.66644317
65	0xbf9273fc	-1.1441646
66	0xbeef0d86	-0.46690005
67	0x3f720046	0.9453167
68	0xbf5f9889	-0.87342125
69	0xbf66a6e7	-0.9009842
70	0x3f655097	0.89576095
71	0xbf48d6eb	-0.7845294
72	0xbf6a345f	-0.9148616
73	0x3ede58f9	0.43427256
74	0x3f7bf0a4	0.98414063
75	0xbf6d0daa	-0.92598975
76	0xbf2b72aa	-0.6697184
77	0x3fb329b8	1.3997107
78	0xbf28dd26	-0.65962446
79	0xbf4a5574	-0.7903664
80	0xbeac94f8	-0.33707404
81	0x3ea488ea	0.32135707
82	0x3f90c853	1.1311134
83	0xbf21d2ef	-0.63212484
84	0x3f32b5f0	0.69808865
85	0x3f00d0dd	0.503187
86	0x3f69bde2	0.91305363
87	0x3f3b38c7	0.7313351
88	0x3fa772df	1.3081931
89	0x3e45a483	0.19301037
90	0x3f45e1a6	0.7729744
91	0xbf7642bc	-0.9619558
92	0x3f967c46	1.1756675
93	0x3f23bf9f	0.63964266
94	0x3f869a28	1.0515795
95	0x3f56423e	0.8369483
96	0x3f703177	0.9382548
97	0xbf9bc24f	-1.2168673
98	0xbf4e5297	-0.8059477
99	0xbf72e233	-0.948764
100	0x3e59ef05	0.21282585
101	0xbf4368e4	-0.76331925
102	0x3f3c50f9	0.73561054
103	0xbec4719c	-0.38367927
104	0x3f5a40e8	0.8525529
105	0xbf0bb26b	-0.5456912
106	0x3f74bc3d	0.9559973
107	0x3e5bde52	0.21471527
108	0xbef8fece	-0.486319
109	0x3f206984	0.62661004
110	0x3e9366fb	0.28789505
111	0xbf54bca6	-0.83100355
112	0xbf2a05c5	-0.66415054
113	0x3f773b10	0.965745
114	0x3f5a5076	0.85279024
115	0xbf624fe8	-0.8840318
116	0x3e72cae9	0.23710217
117	0x3f9f3688	1.2438517
118	0xbf861fa9	-1.0478412
119	0xbf737213	-0.9509594
120	0xbf689e5e	-0.9086665
121	0xbe473ed7	-0.19457565
122	0x3f96d9eb	1.1785253
123	0xbf1f92c8	-0.62333345
124	0x3f5aa6d1	0.8541079
125	0x3f3695e2	0.71322453
126	0xbfb7a869	-1.434827
127	0xbf6e4c2e	-0.9308499

epsilon_out f4 [128]
0	0x3f1672c5	0.58768874
1	0x3f66655b	0.89998406
2	0x3f9596ba	1.1686623
3	0xbf9ffd2a	-1.2499135
4	0xbf4eb307	-0.80741924
5	0x3f6c5622	0.9231893
6	0xbeef3ef7	-0.46727726
7	0xbf8f98a6	-1.121846
8	0x3fa76541	1.3077775
9	0x3e0b8e2c	0.13628453
10	0x3f232d20	0.6374073
11	0xbf834012	-1.0253928
12	0xbf9ed30d	-1.2408158
13	0x3f893bff	1.0721434
14	0x3f1ef8b7	0.6209826
15	0x3e9a7e29	0.30174378
16	0xbf8edb0e	-1.11606
17	0xbe3dc1b9	-0.1853093
18	0xbf91cb9a	-1.1390259
19	0xbf0b1ffa	-0.5434567
20	0xbf33145d	-0.69952947
21	0x3f3c2003	0.73486346
22	0xbf219f9f	-0.6313419
23	0x3fa0ba37	1.2556828
24	0x3f7fb1e2	0.998808
25	0xbe67dffa	-0.22644034
26	0xbf0cc9eb	-0.549956
27	0xbfc2ab4d	-1.5208527
28	0x3f49d1a3	0.78835505
29	0xbf2f278d	-0.68419725
30	0x3f210ab1	0.6290694
31	0xbfda59bc	-1.7058635
32	0x3f89f75d	1.0778614
33	0x3f486873	0.78284377
34	0xbf8418f9	-1.0320121
35	0x3eb7c716	0.35894078
36	0xbfa1fe37	-1.2655705
37	0xbefc2b70	-0.4925189
38	0xbf7fd9ad	-0.9994152
39	0xbf237ecd	-0.6386536
40	0xbf71a1c4	-0.9438746
41	0xbf55a447	-0.8345379
42	0xbed68f81	-0.4190636
43	0xbf848a4d	-1.0354706
44	0x3ebddf07	0.3708422
45	0xbfaa05bd	-1.3283001
46	0xbf16b438	-0.5886874
47	0x3f891246	1.0708702
48	0xbf19c30f	-0.6006326
49	0x3ebd22df	0.36940667
50	0x3f55471b	0.83311623
51	0xbf0bc03e	-0.54590213
52	0x3ece5628	0.40300107
53	0x3f287413	0.65802115
54	0x3f51f896	0.8201994
55	0x3f60071b	0.8751084
56	0xbf8b8795	-1.0900751
57	0xbf5a3512	-0.8523723
58	0xbf10724e	-0.56424415
59	0xbe8a33f6	-0.26992768
60	0x3f4189b4	0.75600743
61	0x3f60708d	0.8767174
62	0x3f42d309	0.76103264
63	0x3f7dab75	0.9908975
64	0x3fc67eb1	1.5507413
65	0x3f3a0a66	0.72672117
66	0xbd89abc0	-0.06722212
67	0xbee27c6e	-0.44235557
68	0xbf87b5a3	-1.0602306
69	0xbf5e9f98	-0.8696227
70	0xbf99693a	-1.1985238
71	0xbf026ebe	-0.5095023
72	0xbf01c3ee	-0.5068959
73	0xbf77e870	-0.96839046
74	0xbf556d0b	-0.8336951
75	0x3ec06614	0.3757788
76	0xbee83e4d	-0.45360032
77	0xbfbf2d73	-1.4935745
78	0xbfa7b17f	-1.3101043
79	0x3f7c8c7e	0.98651874
80	0x3fac9987	1.3484353
81	0x3fa346a7	1.2755936
82	0xbf88d0a8	-1.0688677
83	0x3eef0667	0.46684572
84	0xbf81e4d7	-1.0147961
85	0xbf7b48b9	-0.9815784
86	0x3f8f2ce2	1.1185572
87	0x3f0fb0e9	0.5612932
88	0xbef96418	-0.48709178
89	0xbf1147ca	-0.56750166
90	0xbe61e709	-0.22060789
91	0x3f685704	0.90757775
92	0xbf5dba1f	-0.86612123
93	0x3f2ec801	0.6827393
94	0xbf57e27d	-0.8432997
95	0x3edf45e3	0.43608007
96	0xbf775bd0	-0.9662447
97	0xbf566e30	-0.8376188
98	0xbf870cd0	-1.0550785
99	0xbfb054f1	-1.3775922
100	0xbf013e4f	-0.504857
101	0xbf20aca6	-0.6276344
102	0xbed96569	-0.42460182
103	0xbf75af05	-0.95970184
104	0xbf3873cb	-0.72051686
105	0xbf5d74d7	-0.8650641
106	0x3f6604cb	0.89851063
107	0x3f8cbf68	1.0995913
108	0x3f7570f5	0.95875484
109	0xbfa338eb	-1.2751745
110	0x3faedddb	1.3661455
111	0xbf90cd6b	-1.1312689
112	0xbed3a0d4	-0.4133364
113	0xbf101f2c	-0.56297565
114	0xbef1be3d	-0.47215453
115	0x3fd034a7	1.6266068
116	0x3f256ade	0.6461619
117	0x3f4aa148	0.79152346
118	0xbf97324a	-1.1812222
119	0xbf706316	-0.93901193
120	0x3fc0e766	1.5070617
121	0x3daa3008	0.083099425
122	0x3f0e65cc	0.5562408
123	0x3f344613	0.70419425
124	0xbf1175dc	-0.56820464
125	0x3eb01f25	0.3439876
126	0x3f5bbd27	0.858355
127	0x3f7197d4	0.94372296
