save/model/cartpole_dqn_noisy_mod_hid_64_128.pth (torch_old, 108871 bytes, 18 tensors)

weight f4 [64, 4]
00000000: dfd6 b5bd 7d5e 5e3e 69dc 2abe bae0 873d
00000010: 85f1 96be 4234 0a3e 6025 ab3e 55ce 04be
00000020: 134e 43be d416 b6bd 28fa 493f 4c7c a93e
00000030: f385 593e 6bd8 2f3c 04c5 26bf 01f0 f5bc
00000040: c8ae 2d3e 51ac 863e 07dd 623c fbdf 283d
00000050: 8175 893e a39a 5c3e aa60 923e 0993 e03d
00000060: c225 aa3e 7965 103e c9cd 393d b476 f23d
00000070: 4171 f63d 3790 e9bd 1b73 233e ba6f 2f3e
00000080: 72ec 86be c314 883e 4af9 c33e 6878 293e
00000090: 8bff 7c3e f8e3 36bd add2 623f 0587 bc3c
000000a0: 99fc a8be 2736 963e 2323 843e d3b7 7c3e
000000b0: 4767 92be f3c2 bc3e 45ae 073f 85ca aa3e
000000c0: a316 ab3e ce0e 1cbe fe60 8a3d 04d9 253e
000000d0: c043 06bf 2696 033e ec87 a2bf afa8 87be
000000e0: 58ab 473d f5b9 7abc 6792 7b3e b85d 2e3e
000000f0: acbd abbb 016f ce3e 0be8 283e 61e9 c23e
00000100: 0b74 1639 166f 26be 9a28 a7bf 4233 51be
00000110: ea17 09bf 14cc 4cbe 9a61 8bbe 50b3 fdbd
00000120: f838 cabb e5c3 2e3d 9add 2cbc 403e c9bd
00000130: e1a2 b63e 64f8 ccbe 15fe 1e3f 3142 503d
00000140: ca90 99bd 3172 b93d 0aaf b23f c7cb 5a3e
00000150: 2f15 0dbe 2a2b 783e 0368 1f3f ba82 7cbd
00000160: d1e5 853c b354 6abe ea7e a3bf d688 a2be
00000170: 9b36 4abe 4029 04bc e6b6 c23f 0612 ad3e
00000180: 5553 b23e 09bd e8be dfae 8bbd dedd d1be
00000190: 95e1 ea3e 5a2f 90be d537 aebe 5f5c 91be
000001a0: 4c0d 25be 4f70 f93d 4f29 08bf b31a dbbb
000001b0: 664c 10bf 84b9 223d 8681 503f 2845 743e
000001c0: 1476 563e e2f5 dcbe 8ecb 40bf f689 aebe
000001d0: 5ec5 733e 3142 b8bd 2939 11bf 0e53 b43d
000001e0: e829 00be 2ca2 153e a05f 6abd 37df 2c3e
000001f0: a2bb e23d ad1a 9b3e 4247 a13f e597 a23e
00000200: 8a00 3abd 1e33 dd3d 8e01 b03c 39bc 693e
00000210: 8b62 9f3e c9c8 523d df5a 76be a89e 0c3e
00000220: 7528 96be 44a3 6a3e ce42 3d3f 0904 4fbd
00000230: 7484 6b3d 8dbf b43e 7bf1 953f 346d c83e
00000240: 3fe6 083f 7609 6d3e c8c0 6e3f 69f6 5c3e
00000250: e6a4 493e 3d20 a1be 9407 12be beed 85be
00000260: 71aa acba 1d2a 8e3c 28d5 0d3f 4d36 6bbe
00000270: 2db8 0cbc 277b 88bd 8e30 323d eb6a f6bd
00000280: 6871 35be 2c2f 953d c763 8e3e 2343 e7bd
00000290: bf82 013e e8ac 61be 643b ce3e a1da a1be
000002a0: 1181 623e 3ba8 34be 5674 92be 2a6b b83d
000002b0: 82a8 b2bd c02e 5cbe 8c70 e63e 403f 6fbe
000002c0: fc15 033c 22f8 943d f31b 0ebe 4424 2f3e
000002d0: 50eb 63be adee c53e 6aec 6b3f 2d0c e33e
000002e0: f8d5 de3e 8f0d babe eeba 6ebc 497f cd3d
000002f0: 205d 98be 32c8 81be 51ed a83e 1466 57be
00000300: 0d24 59be 6315 4f3e c556 d43d cb48 be3d
00000310: 210e b13e bd23 36be 5773 f7be e134 3e3e
00000320: d9d6 8b3e dbba a63e 0f07 c2bd c954 383e
00000330: e960 363e bd0b 213e 9e6a 97bd b101 73be
00000340: 879c 923d e84f c53d 04cb 26bf 60f5 a4bd
00000350: 6021 633e 979d a3be ba3d 183e 67a2 6fbd
00000360: 665e 05bf 54eb 2ebe c5f9 fdbe ad8f 4dbd
00000370: 6593 55be 2b26 59bd f3a7 823e 171b 9b3e
00000380: c0b8 803e cfa8 d6be ceab 9dbf ce6e b1be
00000390: cef5 29bf fcaa 5bbe ff64 30bf 5939 a1bd
000003a0: e2c9 2bbf 8dc8 d83d 0418 793f e578 513e
000003b0: 5da2 e4be 201b 0cbe b6f1 ad3f 3b63 d93d
000003c0: bee7 1ebe 1ac6 acbb 3347 82be e24b 4e3d
000003d0: 5487 36be f6cb 053d 397b 93be 1824 3d3d
000003e0: 5eaa 833e 94eb 6f3e b4d4 653e 1d4e 2e3e
000003f0: c7e3 8abe a511 2dbe d2e1 2c3e ef1d f4bd
-0.08878874 0.21715732 -0.16685642 0.0663466 -0.2948114 0.13496497 0.33426952 -0.12969334
-0.19072752 -0.08891073 0.78897333 0.33102643 0.21242504 0.01073275 -0.6514437 -0.03002167
0.16961205 0.26303342 0.013846642 0.04122923 0.2684746 0.21543364 0.28589374 0.10965545
0.33231932 0.14101209 0.045362268 0.11839047 0.1203332 -0.1140446 0.15961878 0.17132464
-0.26352268 0.2657834 0.3827613 0.16549838 0.24706857 -0.044651 0.88602716 0.023013601
-0.33005217 0.2933819 0.25808057 0.24679498 -0.2859442 0.36867484 0.5300029 0.33357635
0.33415708 -0.15240023 0.06756781 0.16196066 -0.5244713 0.12850246 -1.269773 -0.26495883
0.04874739 -0.015303125 0.24567567 0.17027938 -0.0052411165 0.40319064 0.16494767 0.3806868
0.00014348344 -0.16253313 -1.3059266 -0.2042971 -0.53552115 -0.19999725 -0.27222902 -0.12387717
-0.006171342 0.04266729 -0.010550881 -0.09826326 0.35671142 -0.40033257 0.6210645 0.050844375
-0.074983194 0.090549834 1.3959668 0.21366797 -0.13777612 0.24235216 0.62268084 -0.061648108
0.016344937 -0.22883873 -1.2773106 -0.31745023 -0.19747393 -0.008066475 1.5212066 0.33802813
0.34829202 -0.45456722 -0.068204634 -0.40989584 0.4587523 -0.28161126 -0.3402697 -0.28390786
-0.16118354 0.12179624 -0.5318803 -0.0066865324 -0.56366575 0.039727703 0.8144764 0.23854506
0.2094348 -0.43156344 -0.753106 -0.3408963 0.23805758 -0.08997 -0.56727844 0.08804904
-0.12515986 0.14612645 -0.0572201 0.16882025 0.11070944 0.3029379 1.2599871 0.3175651
-0.04541067 0.108007655 0.021485116 0.22825707 0.3112987 0.051461015 -0.24058102 0.13732398
-0.2932774 0.22913843 0.7393006 -0.050540958 0.057499364 0.35302392 1.1714319 0.39145815
0.5347633 0.2314814 0.9326291 0.21578373 0.1969181 -0.31469908 -0.14260703 -0.26157945
-0.0013173354 0.017354066 0.55403376 -0.22969933 -0.008588833 -0.066641144 0.043503337 -0.12032112
-0.17719042 0.07284388 0.278105 -0.11292102 0.12647532 -0.22038615 0.40279686 -0.31612113
0.22119547 -0.176423 -0.28604382 0.09004815 -0.087235466 -0.21502209 0.4500774 -0.23363972
0.008000847 0.0727389 -0.1387785 0.17103678 -0.22257733 0.38658658 0.92157614 0.44345227
0.4352262 -0.3633847 -0.014570935 0.10034043 -0.2975855 -0.2534805 0.32993558 -0.21035033
-0.21205159 0.20223002 0.103681125 0.09291228 0.34581092 -0.1778707 -0.48330185 0.18574859
0.27312353 0.32564434 -0.094740026 0.18001093 0.17810406 0.15727134 -0.073933825 -0.23731114
0.071587615 0.096343815 -0.6515353 -0.08054614 0.221807 -0.3195617 0.14867297 -0.05850449
-0.52097166 -0.17081958 -0.49604622 -0.050185848 -0.20857008 -0.053014915 0.2551876 0.30294105
0.25140953 -0.41925666 -1.2318056 -0.3465485 -0.66390693 -0.21451944 -0.6890411 -0.07872266
-0.67104924 0.10585127 0.9730227 0.20456274 -0.44655123 -0.13682222 1.3589389 0.1061463
-0.1551809 -0.005272639 -0.25444946 0.050365336 -0.17825061 0.032665215 -0.2880495 0.046177
0.25715917 0.2342971 0.22444421 0.17021985 -0.27126905 -0.16901262 0.16883019 -0.11919772

bias f4 [64]
00000000: 4363 0c3f a4d8 95be 7489 25bf 7b43 233f
00000010: 468f fbbe c703 25bf bd95 29bf 6a6f e63e
00000020: b876 b7be 02f7 a6be d3bf 9c3e f6a5 1e3f
00000030: 7efc 23bf c8d9 a0be 1aec dd3e b3b0 08bf
00000040: d16b c9be 2d88 05be ccaa 283f e377 a5be
00000050: 7d23 bdbe c3a1 1a3f d65d 61be 6ac5 44be
00000060: ee28 053f 9f52 04bf 5703 083f d20c 56be
00000070: 140b bb3e effb 043f c834 b73e e462 bdbe
00000080: 6ce6 82be 2bf2 c53e a63d c33e ece4 45be
00000090: df4d d5be 7b8f af3e b7c4 103f b6a2 92be
000000a0: 125d 373f eefa d53e b4d8 a73e e809 f93e
000000b0: 1293 3f3f 9960 18be 7ef5 06bf f086 d2be
000000c0: f792 033f 0c6d 3b3f 0d9d 7ebe 1122 30bf
000000d0: f26d 1ebf 3dec ef3e c209 82be 4d19 1e3f
000000e0: 9557 28be 9d24 81be dac9 c0be aa7b 92be
000000f0: cefb 393f 4c26 273f 3130 f73e e36a bcbe
0.5483896 -0.29266846 -0.6466286 0.6377484 -0.49132746 -0.6445889 -0.6624411 0.45006877
-0.35832763 -0.32610327 0.306151 0.61971986 -0.6405715 -0.31416154 0.43344194 -0.5339462
-0.3934007 -0.13040228 0.65885615 -0.3231803 -0.36941138 0.6040308 -0.22008452 -0.19215932
0.5201558 -0.5168857 0.53130096 -0.20903328 0.3653189 0.5194692 0.35782456 -0.3698951
-0.25566423 0.38661322 0.38132972 -0.19325608 -0.41660973 0.34289154 0.56550163 -0.28639764
0.7162639 0.41793007 0.3278252 0.4864037 0.74833786 -0.14880599 -0.5271834 -0.41118574
0.51396126 0.7321327 -0.24864598 -0.6880198 -0.61886513 0.46859923 -0.2539807 0.61757356
-0.1643966 -0.25223246 -0.37654 -0.28609973 0.7264985 0.6529281 0.48278955 -0.36800298

weight_mu f4 [128, 64]
00000000: 6c2b de3e 87fd fcbd eaba 8bbe 647f 813e
00000010: 1b72 9fbc f80c 0bbf 4879 0fbf ef6c 9d3e
00000020: 6a6d 3dbd 1ca2 fabe 4903 bf3e f806 d03e
00000030: ce55 39be 707f c5be b29d d03e 906d 1fbe
00000040: d674 b7bf a738 21bf 8858 dd3e 652c 87bd
00000050: 104d f5bf fbf3 da3e 9ac5 e2be 75fd 8d3c
00000060: 8737 c43e 0c5b 31bf 22a8 a33e a537 dfbd
00000070: 22bc 863e 6439 da3e 83af 953e 9377 2abf
00000080: e39e 56bc 7c42 ac3e 1816 b03e c54d 55be
00000090: c5f6 b2be 2351 a63e c41b 8b3e 7a17 07bd
000000a0: 4a7b d13e a2f7 673e f920 683e 8538 cd3e
000000b0: e9c9 893e 1a2a 5a3c c4da 81be fc38 a3bc
000000c0: 451b 8f3e a350 9d3e cb13 2bbe 3933 acbe
000000d0: 270e 9abe bc31 ba3e 4245 04be 1016 873e
000000e0: 3e84 e73c 7f3c 35bf e9b9 62bf d4bf 2abe
000000f0: 4831 ce3e 67b6 c23e c50c 5c3e 2ecb 14be
00000100: 822c a03e 3bae 063b 4cda 49be 462f dc3e
00000110: a600 48be 4a93 f6be d7b7 b1be b797 923e
00000120: f774 fabd c372 d3be c8c1 d13e 94ff 033f
00000130: 8662 6dbc eef1 0dbe 977e 993e 7fa0 b3be
00000140: 466f abbf d22a 1ebf a990 893e c623 c0bd
00000150: bc55 ffbf 0019 e83e 427f cabe fb90 1b3d
00000160: 6538 b83e c4e0 1fbf ed86 843e 8f21 70be
00000170: 766e bd3e e5d2 a33e fec9 b23e e884 31bf
00000180: 86ed 2bbe f367 983e 6fbe b13e 6a0c bebe
00000190: 8b71 febe fc40 8a3e d4d7 933e de71 fcbd
000001a0: 52dd f13e 0e77 843e d322 3e3e 1552 523e
000001b0: bb9f d73e 2b11 2cbd 1dd2 60bd 225b 1abe
000001c0: bce8 9e3e 2f81 bf3e 5abb 2fbe c621 8dbe
000001d0: dcaa ddbe 844d e23e 331b 97bd a9fc c53e
000001e0: 5b67 d93c 0fe4 22bf 0049 72bf ae7b 43be
000001f0: 9b2f 853e 017a ba3e c68a 983e e5b7 96bd
00000200: 3efb 9a3e d865 573d a5be 4bbe 7dc0 a63e
00000210: 838e 3dbe ca14 b5be a428 bebe 4713 833e
00000220: 6084 8ebd fe59 e6be 1529 843e 4079 063f
00000230: 07b7 ed3b 1b5d 2abe 3e23 ec3e 9f21 32be
00000240: a6d8 a6bf a53a 07bf dcab dc3e de1d bfbd
00000250: 94bd 02c0 4e1c f23e 850a eabe c7b3 c2bd
00000260: 6cf4 943e d62c 1fbf 5cd0 f53e 4524 58be
00000270: 2dbf a03e 4bea 9f3e 919c 8d3e cd4f 50bf
00000280: 9e41 29be 7da3 a83e c8b1 c23e 6937 e9be
00000290: 9f5f 19bf bb20 453e 7080 eb3e 2061 21bc
000002a0: b614 f43e a378 4c3e cdc8 803e 943b bf3e
000002b0: d95a aa3e ec96 103c d7c1 80be 2f03 debc
000002c0: e8e9 cf3e 85fa c33e 3d2a 5fbe da26 5dbe
000002d0: 3cd2 98be 69d4 5e3e 5e62 40be eda1 913e
000002e0: 04fb c93d 8f1f d9be 173e 96bf ad12 00bc
000002f0: 80b0 c93e fdb5 8f3e 50fb a03e 18c9 f9b9
00000300: c337 c13e 49ce 92bd 7b91 2bbe f145 e23e
00000310: 555c 2abe 2c37 10bf 6db5 00bf 9091 823e
00000320: eb2f c33d 9f85 04bf 33f1 9d3e 8a9f f53e
00000330: 3ce4 b0bd 93d8 87be e541 b63e ec4e 75be
00000340: e018 c4bf 8ceb 14bf 0d7c 6e3e 5aa6 553d
00000350: f2f9 ddbf e1ff db3e 05a6 07bf 3ef2 e1bc
00000360: 7aa9 ad3e 7b69 25bf 9531 7e3e 4cf1 39be
00000370: 91bb a33e 91a4 993e 14f7 b13e 800f 21bf
00000380: 8a87 8ebd 12e7 483e 2f98 9a3e 6f97 c1be
00000390: d648 0ebf 4401 c53e b557 e83e b081 c0bd
000003a0: 6497 f83e d32f 8f3e a8a2 1a3e 9df8 853e
000003b0: 83c8 cb3e 354c b6bc 5a1c a4bd b961 a0bd
000003c0: 094f 813e 2bf2 a43e c5ee c0be a1a5 d0be
000003d0: b555 f8be 1083 a53e 7d9a 77be 11dc 573e
000003e0: 5737 79be 109e f1be 8bfe 5dbf cd33 86bd
000003f0: 98a3 cd3e f4ae a03e a1c8 e33e 7aa1 55be
0.43392503 -0.12353044 -0.27291042 0.25292504 -0.01946359 -0.54316664 -0.56044436 0.30747172
-0.046246924 -0.48951805 0.37307194 0.40630317 -0.18099138 -0.3857379 0.40745312 -0.15569139
-1.433253 -0.6297707 0.43231606 -0.066002645 -1.9164143 0.42764267 -0.44291383 0.017332772
0.38323614 -0.6927955 0.31964213 -0.10899285 0.2631541 0.4262191 0.29235467 -0.66588706
-0.013099405 0.33644474 0.34391856 -0.20830448 -0.34953895 0.32483777 0.2716962 -0.032981373
0.40914375 0.22653058 0.22668828 0.40082183 0.26911858 0.013315702 -0.25362217 -0.019924633
0.27950493 0.30725583 -0.16706769 -0.3363283 -0.30088922 0.3636607 -0.12917045 0.2638402
0.0282613 -0.70795435 -0.88564926 -0.16674739 0.40271974 0.38029787 0.21489246 -0.14530632
0.31283957 0.0020550627 -0.1971218 0.43004817 -0.19531497 -0.48159248 -0.3471057 0.28631374
-0.122293405 -0.41298494 0.40968156 0.51561856 -0.014488822 -0.1386182 0.29979393 -0.35083386
-1.3393333 -0.6178409 0.2686818 -0.09381823 -1.9948039 0.45331573 -0.39550215 0.03798006
0.35980526 -0.6245234 0.2588419 -0.23450302 0.36998338 0.31996837 0.34919733 -0.69343424
-0.16789827 0.29766807 0.34715602 -0.37118846 -0.49696 0.27002704 0.288756 -0.12326406
0.47239166 0.25872082 0.18567972 0.20539124 0.42114052 -0.04200856 -0.05488788 -0.15073827
0.31036937 0.37403247 -0.17161313 -0.2756483 -0.43294418 0.44199765 -0.07378235 0.38669327
0.026538542 -0.6362924 -0.9464264 -0.19090149 0.26012883 0.36421207 0.29793376 -0.07359294
0.30269808 0.05258736 -0.19896944 0.32568732 -0.18511395 -0.35367423 -0.3714038 0.25600645
-0.06958842 -0.44990534 0.25812593 0.5252876 0.0072544846 -0.1663708 0.46120638 -0.17395638
-1.3034866 -0.5282386 0.43099868 -0.093318686 -2.042821 0.4728722 -0.4571115 -0.09506946
0.2909273 -0.6217779 0.48010528 -0.21107586 0.31395856 0.3123344 0.27658513 -0.81371766
-0.16528937 0.32937232 0.3802626 -0.45550087 -0.5991153 0.19250767 0.45996428 -0.009849817
0.4767205 0.19967894 0.251532 0.37350142 0.33272436 0.008825045 -0.25147888 -0.027101127
0.40608144 0.3827707 -0.21793456 -0.21596852 -0.29847896 0.21760716 -0.18787524 0.28443852
0.098623306 -0.4240689 -1.1737698 -0.007816953 0.3939247 0.28068534 0.31441736 -0.00047642807
0.37737855 -0.07168252 -0.16754715 0.44193986 -0.16636784 -0.56334186 -0.50276834 0.2550168
0.09530624 -0.5176639 0.30848083 0.4797328 -0.08637282 -0.2653242 0.3559715 -0.23955888
-1.5320091 -0.58171916 0.23289509 0.0521606 -1.7341902 0.42968658 -0.529877 -0.02758133
0.33918363 -0.64614075 0.24823602 -0.18158454 0.3197904 0.30008367 0.34758818 -0.62914276
-0.06959446 0.19619396 0.30194232 -0.37810847 -0.5557989 0.38477528 0.45379415 -0.09399736
0.48553002 0.27966174 0.15101111 0.2616624 0.39801416 -0.022253135 -0.0801322 -0.07831139
0.25255612 0.3221601 -0.37682167 -0.40751365 -0.4850289 0.32326555 -0.24180026 0.21080042
-0.24337517 -0.47190905 -0.86716527 -0.06552849 0.40163875 0.3138348 0.44489005 -0.2086238

weight_sigma f4 [128, 64]
00000000: 60b0 473d a084 6c3d c1d0 b03e cd4c b83d
00000010: 86fd 9a3d a350 123d e2db e53d 96fd 423d
00000020: 0555 cb3d ecc1 d2bd 08d5 debc b178 45bc
00000030: 454d b23d 8edb 26bd aac7 05be d978 833c
00000040: c3b5 29be eaf5 abbd 95fe c8bc 6182 3c3c
00000050: 7765 2a3f 6909 c1ba 0632 27bd b92b 083e
00000060: bc64 64bb e36f ff3c a5f8 9bbc 34f7 393d
00000070: 0257 febb bd01 193d b042 ae3b 709c 83be
00000080: 5338 c93d a15d d73c de97 143d 64f1 683d
00000090: 9692 50bc da85 42bd 2a31 56bd ecc1 963d
000000a0: b7fa 9abc be15 a63b 280f 9bbd d7ad 31bc
000000b0: 8288 be3d 0924 2fbe c6bf 993e 82dd 8bbd
000000c0: 1ca6 0bbd 94e4 303d e8c2 f9bd af20 8fbd
000000d0: a9cd 6cbe 8631 37bc 9b6d 38bd c365 c73c
000000e0: bdda 3bbd 5e70 323d 851a 5dbd 3e16 e5bd
000000f0: a6b1 8a3c 8cfe b8bc 02e8 10bd 1c17 003d
00000100: 370e 163d dd76 403b a9bd 433e 842f 2fbd
00000110: 081d cc3d 6b9e ee3c eb04 c8bd 8f8c 81bd
00000120: 5cdd 233d f50c 123e f1ff 15bd cec0 fb3c
00000130: 5bcf 48bc 2bba 3c3e c4f6 233c fd1f 30be
00000140: 01f3 c0be 934b 22bc 5e6d 943c 86f5 64bc
00000150: a57b cd3e 9ea3 7bbc 014b 0fbe 80a5 3a3e
00000160: e464 8e3d 5199 3d3e e7dd 1f3d cd9a df3d
00000170: 6d92 8f3d 73b5 cebc 7a03 96bd 4a2c 1fbd
00000180: b333 013d 6b16 283b 3324 d2bd 847e f0bd
00000190: 9281 343d e8ce b43d 528b 593d e713 dc3d
000001a0: 3c1c 48bc 21f1 703d cf93 07bc 09bd 0f3c
000001b0: 03df 8ebd 9d72 a53d 5277 cdbc 0cac 613a
000001c0: 71ce 0b3c 9c57 6cbb 4f5f f9bd 9350 003e
000001d0: bab6 abbd d37a 85bd 80ac e7bc d7f3 91bd
000001e0: 9d80 bbbd 2ab7 01bd 9b0d e7be 47f7 953d
000001f0: 6ee0 7b3a 918e 4bbd 7fbd 35ba 3b77 f9bc
00000200: 8100 d9bc 7cac 0c3e 414c 43bd 9861 383d
00000210: 1291 76bc 29f7 1c3d 972e 263d 4509 bf3d
00000220: ca4d 713d a96c edbc 8e7d 94ba cffd 49bc
00000230: 7729 fcbc 1813 373d a8f2 363d 8790 213e
00000240: 5530 f53d c814 23bd ca8f 8b3d b83d a23d
00000250: 888c b8be d9fd 87bd 3d79 833e 12d7 1b3c
00000260: 54f5 653d 11c3 0a3d 34d9 1c3d e511 103d
00000270: d5dc aabc b7ab 8f3c 8a7b 163e 4133 483e
00000280: 4e9a 74bd 8b14 14bd 7c55 f4bd 1ccb 313d
00000290: 6f55 b3bd a57d 40bd ba02 39bd 118d 8f3d
000002a0: ea01 183d 6d1f d6bc 8a0b 9f3d 4c57 9a3a
000002b0: de13 5f3d eed7 673d d2cb 613e 3923 1d3e
000002c0: 9d37 7d3d f48a dfbc e69e 4a3d 2614 aa3d
000002d0: e86e da3d 8e25 433d aabc b03c 26c2 ac39
000002e0: cf93 b53c 3956 893d 4665 cb3e 7e16 11be
000002f0: ec1b eabc 3770 dcbd b3a7 053b 2144 c23d
00000300: f83c 13b9 e0f1 213e 6f9f 263e 1266 93bb
00000310: e46b 20be 42f3 883d cfc1 07bd 7c89 e9bd
00000320: a82b 77bd 046b ac3d 5ef1 a53d 1aa4 79bd
00000330: 6288 e1bd 55e9 01be 3a2e 30bd bf0e bebd
00000340: f559 e2bd 8b1e 043d ba60 8abc b81f ab3d
00000350: 6024 343f 1999 8bbd 1ab1 c8bd c21d 54bd
00000360: 75da d9bc 5ca0 7f3e ec68 81bc 077b 433e
00000370: 1e7a b0bc 90a8 87bc dfe1 7abd 4bd7 23be
00000380: 1e7a 0fbd 0379 05bc d79e 7ebd aa0e 46be
00000390: 395c a53c 87ee 5c3b bb69 d13c f937 6d3b
000003a0: c0de 383d f4c1 313d 6d68 febd 8280 9fbd
000003b0: 9d79 8d3c 1856 68bb 86d1 8f3d dd5e ce3d
000003c0: c613 e4bc 587d 703d 9490 90bd 129d 02be
000003d0: c78d d6bd 1522 e83c c8f2 2cbd 3869 9bbb
000003e0: edc0 94bd 4a7e fe3c c50d bfbe f27c b2bd
000003f0: 231f 9b3d 18f5 16bd 516c 9f3d 2170 2bbe
0.04875219 0.05774367 0.34534267 0.089990236 0.07567887 0.035721432 0.1122358 0.04760512
0.099283256 -0.10290894 -0.02720119 -0.012052701 0.08706144 -0.040736727 -0.13064447 0.016048836
-0.16573243 -0.08396514 -0.024535457 0.011505694 0.66561073 -0.0014727536 -0.04081919 0.13297929
-0.0034850081 0.031181281 -0.019039461 0.045401767 -0.007761837 0.037355173 0.0053180084 -0.2570529
0.09825196 0.026289763 0.036277644 0.056870833 -0.012730261 -0.047490932 -0.05229298 0.073612064
-0.018918378 0.00506851 -0.0757125 -0.010844669 0.093033805 -0.1710359 0.30029124 -0.06829359
-0.03409396 0.04318674 -0.121953785 -0.06988656 -0.23125328 -0.011181241 -0.045026403 0.024340516
-0.045862902 0.043564193 -0.05398037 -0.11185883 0.016930413 -0.022582315 -0.03537751 0.03127204
0.03663465 0.0029367723 0.19115318 -0.042769924 0.09966475 0.029128274 -0.09766563 -0.063256375
0.040006027 0.14262755 -0.036621038 0.030731585 -0.012256469 0.18430392 0.010007564 -0.17199703
-0.37685397 -0.009905714 0.018118557 -0.013974553 0.40133396 -0.015358834 -0.13993455 0.18227196
0.06952837 0.18515517 0.039029982 0.10918198 0.070103504 -0.025233006 -0.07324882 -0.038860597
0.031543445 0.0025648128 -0.10260811 -0.11742881 0.04406888 0.08828527 0.05311138 0.107459836
-0.012213763 0.05882371 -0.008274986 0.008773097 -0.0697613 0.080785014 -0.02508131 0.0008608706
0.008533106 -0.0036062961 -0.12176382 0.12530737 -0.08384462 -0.065175675 -0.028280497 -0.07126587
-0.091553904 -0.03166882 -0.45127568 0.07322555 0.0009608333 -0.04969651 -0.0006932839 -0.030452361
-0.026489498 0.13737673 -0.047680143 0.045014948 -0.015049236 0.038321648 0.040571775 0.0932794
0.058912076 -0.028982477 -0.0011328922 -0.012328579 -0.03078149 0.044695944 0.04466501 0.15777789
0.11972109 -0.03981474 0.06814535 0.07921928 -0.36044717 -0.066402145 0.25678435 0.009511726
0.056142166 0.033877436 0.03829308 0.035173316 -0.020857254 0.017537935 0.14695564 0.19550802
-0.05971747 -0.036152404 -0.11930367 0.04340659 -0.087565295 -0.046994824 -0.045168616 0.07009328
0.0371112 -0.026138032 0.07765873 0.0011775284 0.054462306 0.05660241 0.22050408 0.15345468
0.061820615 -0.027287938 0.049467944 0.08304624 0.10665685 0.047643237 0.021574337 0.00032951048
0.022165207 0.06705899 0.39725703 -0.14168736 -0.028577767 -0.10763591 0.0020394146 0.09485651
-0.00014041725 0.15814924 0.16271757 -0.0044982517 -0.15666157 0.06687023 -0.033143815 -0.11403176
-0.06034437 0.08418849 0.08102678 -0.060947515 -0.11012341 -0.12686665 -0.043012835 -0.09280156
-0.11052314 0.03225569 -0.016891826 0.08355659 0.70368004 -0.068163104 -0.097994044 -0.05178619
-0.026593426 0.24963516 -0.015797101 0.190899 -0.021542605 -0.016559869 -0.061250564 -0.16000096
-0.03502857 -0.008146527 -0.0621632 -0.19341531 0.020185577 0.003371151 0.025563112 0.0036196692
0.045134306 0.04339786 -0.124222614 -0.07788183 0.017269904 -0.0035451706 0.07022385 0.100766875
-0.02784146 0.058713287 -0.07058826 -0.1275523 -0.10476261 0.028336564 -0.04222372 -0.0047427677
-0.0726336 0.031066079 -0.37315193 -0.08715238 0.07574298 -0.036854833 0.077843316 -0.16741993

bias_mu f4 [128]
00000000: 6a49 c23e 7d8b ce3e 1944 aa3e a4a7 df3e
00000010: 6a16 a63e e8ca a23e f6ea 703c d3cf ed3e
00000020: 0466 54be ab91 c13e 3bbb f6bd cdc7 723e
00000030: 4fbe df3d 67de a8bd e2fe df3e 25ab debd
00000040: 94a7 933e 51de ca3e 6271 eb3e 087c a03e
00000050: 5869 0ebe 9f06 00be e19f 05be 34d4 10bd
00000060: 8506 fc3e 5c55 923e fb01 bb3e 5ffb 18be
00000070: b1e7 f13e d250 b03d d4e9 ce3e a143 9f3e
00000080: 677d 33be 87d2 903e 0951 47be d1f4 d13e
00000090: 42bf 993e 4329 f9bb 7d03 2bbe b3d6 f63e
000000a0: a08e b83e 8a68 ab3e 6279 54be b86a b23e
000000b0: 385c 8cbd 6e7e 823e c32f e7bd 359d 7ebe
000000c0: 82a0 6cbe bc1f 023f ab18 9fbd 006e 8bbd
000000d0: 8017 07be 0b63 73bd 8e18 ae3e fda8 c4bd
000000e0: f33f ef3e a6fe 0ebd c2b7 10be 266a f13e
000000f0: 1f14 003f 4407 f83e 2fcc fb3e 530a 14be
00000100: 0ed7 f13e b071 ee3e e00b a03e 0415 c0bd
00000110: 8337 9dbd d42c dd3e 3871 cd3e 838c 48be
00000120: 19aa edbd 7c08 01be 2cae d6bd 40b8 f7bd
00000130: 3443 c6bd 3424 14be d84f e43e 01cc fd3e
00000140: a8cf febc edbf 013f ca26 553e bc1d f03e
00000150: 6b5f 69bd 0380 e53e 3830 85bd 49c4 45be
00000160: faab cfbd f2b7 da3e 5016 e63e e301 85bb
00000170: 2afb f83e b2a0 4bbe c4ad 28be f4da 19be
00000180: c2e2 073f b793 2abe 31cf 6ebe bb42 35be
00000190: e66c 9c3e 775a 4a3e e06a 68be 8840 6dbe
000001a0: ec71 0d3b 9573 3c3c 604b b53e 396c e53e
000001b0: a8fe b53e 55f4 ba3e dc6a ca3e f2ac ee3e
000001c0: 8b16 3bbe b690 a2bd 62bf 7abe b2f4 c6bd
000001d0: 7030 cebd 34ad 083e f7b3 f63e ffdc fc3e
000001e0: ff21 58be 1e1f 063f 808a 443e d3f9 7e3e
000001f0: e3f1 45be a4f9 9a3e 6d65 cf3e c121 9c3e
0.37946635 0.40340796 0.3325508 0.43682587 0.32438976 0.3179543 0.014704457 0.4644762
-0.20742041 0.37806448 -0.1204743 0.2370903 0.1092497 -0.08245545 0.43749148 -0.10872487
0.2883879 0.3962274 0.45984942 0.31344628 -0.13907373 -0.12502526 -0.1304927 -0.035358623
0.49223724 0.2858075 0.36524948 -0.1493964 0.4724708 0.08609165 0.40412772 0.31106284
-0.17528306 0.2828562 -0.19464506 0.41007093 0.3002873 -0.0076037957 -0.1670055 0.48210678
0.36046314 0.33478194 -0.20749429 0.34847045 -0.06853527 0.25487083 -0.11288407 -0.24864657
-0.23108104 0.5082967 -0.07768377 -0.0680809 -0.13192558 -0.059420627 0.3400311 -0.096025445
0.46728477 -0.03491082 -0.14132598 0.47151297 0.500307 0.48443043 0.49179217 -0.14457063
0.47234386 0.46571112 0.3125906 -0.093790084 -0.07676604 0.43198264 0.40125442 -0.19584851
-0.11604709 -0.12600893 -0.104824394 -0.1209569 -0.09680787 -0.14466935 0.44592166 0.49569705
-0.031104878 0.5068348 0.20815578 0.46897686 -0.056975763 0.44824228 -0.065033376 -0.19313158
-0.10140224 0.42718464 0.44938898 -0.004059063 0.48629123 -0.19885519 -0.16472536 -0.1502493
0.5308038 -0.16657911 -0.23321225 -0.17701237 0.30551833 0.19761072 -0.2269702 -0.23169148
0.0021582795 0.011502166 0.3540907 0.4480913 0.3554585 0.36514536 0.39534652 0.46616322
-0.18270318 -0.07937758 -0.24487069 -0.09714641 -0.100678325 0.13347322 0.48184177 0.49387357
-0.21106718 0.5239123 0.19193459 0.24899988 -0.19330554 0.30268586 0.4050707 0.30494502

bias_sigma f4 [128]
00000000: 92b0 3a3d 620d ecbc c1ca 00bd c81e 47bb
00000010: 3c40 35bc eab2 2d3d 9817 9f3b 8379 1cbc
00000020: a25a c9bc 2384 aa3b 388e 623d c532 d43b
00000030: fd33 88bc 27f3 703d c467 90bb caf8 a23c
00000040: 12f1 963c 83fc b8bd 2ca2 e73c eec9 13bd
00000050: 64c5 3e3e 0c76 ffbb 25db 44be 51e7 c73b
00000060: 9b23 173d 8a64 58ba cc57 d1bb 8ffc 973d
00000070: b3b2 5cbc 1eec 28bd dad2 303d 796d 56bd
00000080: b90a 023d 5743 2cbb 66ec e43c e6d5 babc
00000090: 793c 7fbd a990 c03d b288 b73c 2d81 343d
000000a0: ebdb f03a 4984 2fbd bdd7 6c3c cb68 0cbd
000000b0: 61b2 96bb e303 513c 9dec 26bc cb91 9cbc
000000c0: 7de8 a93b 395e 953c e2ac 0dbc bf86 0ebc
000000d0: 0e90 cabd ba6b d43c 1399 01bd bf6a ff3d
000000e0: 3e96 483c 0284 1c3d 4f04 333d 3126 78bd
000000f0: 57cf 0f3c 72f5 773d 5874 8c3d df6b 8ebd
00000100: 315c 39bc 2712 843b 9746 88bb 2a34 343d
00000110: 82eb f2bd 747d 38bd a0b9 e6bc 05d0 a73d
00000120: 47ab 593c 098a 423d a420 8fbc 98d7 a2bc
00000130: f28a 4b3b 3a27 fb3c 7cae b13c 2a2f f23c
00000140: dacc 103d 4840 9abd c135 af3c 5cee 29bd
00000150: acd7 763e 2430 84bd 1772 313e a30e 77ba
00000160: 115a c03c 8504 66bc 3597 c9bc d6fb 43bd
00000170: 665f 923c bec0 b3bb 94d4 d73c 3125 bcbd
00000180: 0f58 a7bc 3970 043d c6d6 113d d157 2c3d
00000190: 2586 643d d0c7 133d 6d8f ce3d e8cb 463d
000001a0: 4192 cc3d 1a1a 363e 9c0a 54bb 6c22 a83c
000001b0: ed0f 0cbc 373b fbbc 500a 743d 53f3 bc3b
000001c0: c260 8b3c 7a61 773e a199 c13d b398 4d3d
000001d0: 51e3 87bc d42c bc3d 543f 50bc 41a1 bf3d
000001e0: 9626 ad3c 4a0f b2bc 9df4 263b 8f44 f63c
000001f0: fe49 203d 9ca6 dd3c b3df 9e3d bd37 5c3d
0.045578547 -0.028814975 -0.03144336 -0.0030383337 -0.011062678 0.042406954 0.0048551075 -0.009550455
-0.02457935 0.00520374 0.05531141 0.0064757788 -0.016626352 0.05882564 -0.004406901 0.019894022
0.018425498 -0.09032538 0.028275572 -0.036081247 0.18629986 -0.0077960547 -0.19224222 0.006100573
0.03689919 -0.00082547276 -0.00638864 0.074212186 -0.01347034 -0.041240804 0.043169834 -0.052350495
0.031748507 -0.0026285255 0.027944755 -0.022807073 -0.06231353 0.09402592 0.022404049 0.044068504
0.0018376088 -0.042850766 0.014455733 -0.034279626 -0.004598901 0.012757274 -0.010188249 -0.019112488
0.0051851855 0.018233405 -0.0086471755 -0.008699118 -0.098907575 0.025930274 -0.031640124 0.12471532
0.012242852 0.03821183 0.04370528 -0.060583297 0.008777461 0.06053681 0.06858128 -0.069541685
-0.011313484 0.0040304842 -0.0041588056 0.04399506 -0.11861326 -0.045041516 -0.028164685 0.081939735
0.013285465 0.04749492 -0.017471619 -0.019878194 0.003105816 0.030658353 0.021689646 0.029563505
0.03535161 -0.07531792 0.021387937 -0.041487083 0.2410571 -0.064544946 0.17328678 -0.0009424483
0.023480447 -0.0140391635 -0.024608234 -0.04784759 0.017867755 -0.005485623 0.026346482 -0.09186781
-0.020427732 0.032333586 0.035605215 0.042075936 0.055791993 0.036079228 0.1008595 0.048534304
0.09988833 0.17783394 -0.0032354956 0.020524226 -0.008548719 -0.030667884 0.059580147 0.005766311
0.017013911 0.24158278 0.094531305 0.050194453 -0.016587885 0.09188238 -0.012710411 0.093569286
0.021136563 -0.021735806 0.002547539 0.030061988 0.039133064 0.027056985 0.07757511 0.053764094

weight_epsilon f4 [128, 64]
00000000: 82a1 803f 6af8 903f 1f3c 593e 0cf7 52bf
00000010: 1db1 5f3f 3219 903f 3959 973f 5b32 1a3f
00000020: e2f3 52bf b4e5 5f3f be9b cb3e c00b 0a3f
00000030: 2ec7 8cbf 75cc 0ebf 65ce 913f eb0d 90be
00000040: bae0 053f b566 8bbf e31a 763f aa05 893f
00000050: 55fe 1ebe 394c a6be 3dd7 333f 1183 f83e
00000060: 6eda 06bf 1120 7abf a033 203f 0f74 5fbf
00000070: 5ec3 36bf 7f33 6a3f f24e 9b3f b0f7 073f
00000080: 9700 8ebf 3f31 a33f 27b4 31be 9c78 c83e
00000090: 1fb1 623f eddc 003e 2dcf bfbf 27bb 57bf
000000a0: 0d3d 06bf 6f5d a4bf b948 3e3f 0231 343f
000000b0: b07a 973f 49a6 1e3f d0fd 0b3f d5e3 51bf
000000c0: 562f 6e3f 44fa c4bd 41d7 7b3f ee5a 28bf
000000d0: cde6 31bf 2214 8f3e 15b2 ddbe d692 a1be
000000e0: 6cf5 8abf 5f72 d63e d539 99be aa97 3e3f
000000f0: 2327 a8bf a67f cfbe e370 2b3f ccb0 f7be
00000100: 2332 a83f a48f bd3f ca06 8e3e 68ed 89bf
00000110: 813f 923f c36b bc3f aee6 c53f 14a0 493f
00000120: 56eb 89bf e361 923f 1e1e 053f bb81 343f
00000130: 4b14 b8bf aeb8 3abf 70a7 be3f 045d bcbe
00000140: 820e 2f3f 6847 b6bf d2e6 a03f 082b b33f
00000150: c3e5 4fbe ce72 d9be 3a28 6b3f ac79 223f
00000160: 0455 30bf b087 a3bf 317a 513f 9617 92bf
00000170: 78fa 6ebf 751e 993f 3514 cb3f 03ca 313f
00000180: 1cae b9bf 4e63 d53f dd5c 68be 0911 033f
00000190: a035 943f d47f 283e 94ce fabf 1a0b 8dbf
000001a0: 3b87 2fbf d3eb d6bf 07d0 783f 9a9d 6b3f
000001b0: 6f12 c63f a372 4f3f fd0c 373f 7939 89bf
000001c0: 39b9 9b3f 51c8 00be d3a6 a43f 8523 5cbf
000001d0: 179f 68bf 6616 bb3e 66f1 10bf 6e45 d3be
000001e0: 47b3 b5bf 2534 0c3f 1d5b c8be 4037 793f
000001f0: ccdf dbbf 3ba9 07bf 742c 603f 33f0 21bf
00000200: 0e4c 5f3f 61a9 7b3f fd8d 3c3e d31c 37bf
00000210: c028 423f e125 7a3f ee5d 833f ccd6 053f
00000220: 141a 37bf 6556 423f 2aba b03e 1da4 ef3e
00000230: 4b62 74bf 43e4 f7be d61c 7d3f 4d12 7abe
00000240: d167 e83e 6bfe 71bf 009d 553f 26dd 6d3f
00000250: a700 0abe ac57 90be f618 1c3f d4b3 d73e
00000260: 4a19 eabe 4e1a 59bf 1c0d 0b3f c1f3 41bf
00000270: 51a2 1ebf f047 4b3f d1cd 863f 7b08 ec3e
00000280: 5d82 76bf a7a5 8d3f 1a3e 1abe 1001 ae3e
00000290: 5dc3 443f 33b3 df3d 627c a6bf d93f 3bbf
000002a0: 1608 e9be 35aa 8ebf 7a29 253f e066 1c3f
000002b0: f97a 833f 3bb4 093f bb04 f33e f22d 36bf
000002c0: 22bd 4e3f cbf8 aabd 8297 5a3f d820 12bf
000002d0: 106a 1abf af60 783e 306d c0be f43d 8cbe
000002e0: c339 71bf 7922 ba3e 16ff 84be ff6d 253f
000002f0: e3f3 91bf 961a b4be 81ce 143f 52fd d6be
00000300: 73d7 803f 3535 913f 3797 593e 834f 53bf
00000310: ea0e 603f 9f55 903f b198 973f 0473 1a3f
00000320: 584c 53bf 9743 603f 20f1 cb3e a345 0a3f
00000330: 3602 8dbf 5608 0fbf 890b 923f 534a 90be
00000340: de18 063f 2aa1 8bbf 1782 763f 1f3f 893f
00000350: 0141 1fbe f591 a6be a722 343f 47eb f83e
00000360: fb12 07bf f488 7abf ce76 203f c3d1 5fbf
00000370: 0210 37bf b595 6a3f 1390 9b3f b430 083f
00000380: 233c 8ebf ae75 a33f acfe 31be adcc c83e
00000390: 2f10 633f f712 013e 9b1f c0bf 9e15 58bf
000003a0: 5875 06bf 5ba2 a4bf 8498 3e3f 927c 343f
000003b0: 35ba 973f d1e8 1e3f 8438 0c3f d93b 52bf
000003c0: 3793 6e3f dd4c c5bd dc40 7c3f 87a1 28bf
000003d0: 6731 32bf 2150 8f3e 0c0f debe 97d6 a1be
000003e0: b22f 8bbf 4ccc d63e 167a 99be 96e7 3e3f
000003f0: a76d a8bf a9d6 cfbe c7b8 2b3f aa18 f8be
1.0049288 1.132581 0.2121434 -0.82408214 0.8737963 1.1257689 1.1824104 0.60233086
-0.82403386 0.87459874 0.3976726 0.5392418 -1.0998285 -0.55780727 1.1391112 -0.2813562
0.5229603 -1.0890719 0.96134776 1.0704854 -0.15526707 -0.32480028 0.702503 0.48537496
-0.5267705 -0.9770518 0.62578773 -0.87286466 -0.71391857 0.91484827 1.2133467 0.53112316
-1.109393 1.2749404 -0.17353879 0.39154518 0.88551515 0.12584276 -1.49851 -0.84269947
-0.52436906 -1.2841014 0.74329716 0.7038728 1.1834316 0.6197248 0.5468416 -0.8198827
0.9304098 -0.09618047 0.98375326 -0.6576375 -0.694928 0.27945048 -0.43299928 -0.3155734
-1.0856147 0.41884133 -0.29926935 0.7445017 -1.3136944 -0.40527076 0.66969126 -0.48377073
1.31403 1.4809461 0.27739555 -1.0775576 1.142563 1.4720386 1.5461023 0.78759885
-1.0774944 1.1436123 0.5199908 0.70510453 -1.4381193 -0.7293805 1.4894848 -0.36789715
0.6838151 -1.4240541 1.2570441 1.3997507 -0.20302491 -0.42470402 0.91858256 0.63466907
-0.68879724 -1.2775784 0.81827074 -1.1413448 -0.93350935 1.196242 1.5865542 0.6944887
-1.4506259 1.667093 -0.22691675 0.5119787 1.1578865 0.16455013 -1.9594293 -1.1019013
-0.6856572 -1.6790718 0.97192425 0.92037356 1.5474375 0.81034297 0.71504194 -1.0720664
1.21659 -0.12576415 1.2863411 -0.859917 -0.9086775 0.36540526 -0.56618345 -0.41263908
-1.4195336 0.54767066 -0.39132014 0.9734993 -1.7177672 -0.529926 0.8756783 -0.6325714
0.87225425 0.98305327 0.18413539 -0.7152836 0.7584343 0.9771405 1.026304 0.5228088
-0.7152417 0.7591308 0.34517032 0.46804896 -0.95462483 -0.48416337 0.98872125 -0.24421044
0.45391706 -0.94528836 0.8344269 0.9291557 -0.13476811 -0.28191888 0.6097559 0.42129385
-0.4572242 -0.8480576 0.5431688 -0.75762564 -0.61966425 0.7940664 1.053156 0.4610022
-0.9629267 1.1066178 -0.15062752 0.33985186 0.768606 0.109228514 -1.3006709 -0.731443
-0.45513982 -1.1145693 0.64516413 0.61094475 1.0271903 0.53790635 0.47464547 -0.71163857
0.80757344 -0.08348235 0.8538743 -0.57081366 -0.6031809 0.24255632 -0.37583303 -0.27391016
-0.9422876 0.36354426 -0.25975865 0.64620966 -1.1402553 -0.35176533 0.581276 -0.41990143
1.006575 1.1344362 0.2124909 -0.825432 0.8752276 1.127613 1.1843473 0.6033175
-0.82538366 0.87603134 0.398324 0.5401251 -1.10163 -0.55872095 1.140977 -0.28181705
0.52381694 -1.0908558 0.9629225 1.0722388 -0.15552141 -0.3253323 0.70365375 0.48617002
-0.52763337 -0.97865224 0.6268128 -0.87429446 -0.715088 0.91634685 1.2153343 0.53199315
-1.1112102 1.2770288 -0.17382306 0.39218655 0.8869657 0.12604891 -1.5009645 -0.84407985
-0.525228 -1.2862047 0.7445147 0.7050258 1.1853701 0.62074 0.54773736 -0.8212257
0.9319338 -0.09633801 0.9853647 -0.6587147 -0.6960663 0.2799082 -0.43370855 -0.31609032
-1.087393 0.4195274 -0.29975957 0.7457212 -1.3158463 -0.4059346 0.6707882 -0.48456317

bias_epsilon f4 [128]
00000000: 3452 743f 3ebc 9f3f 9c10 543f a8b8 743f
00000010: 31f4 513f db3f 4b3f 1dae 9ebf e41b 4ebf
00000020: c0d8 c2bf 5a2c ab3e f898 0a3f d6f0 1d3f
00000030: 4c19 673f d9d0 65be b457 123f 8d45 643e
00000040: 919b 723f f315 293f 5c5f ca3f 2e7b 82bf
00000050: 66dd 5ebf abf6 ea3e 0ac0 a5bf 9dec 563f
00000060: 706b 743f 732e 903f e40a 7b3e 4cfa 4dbf
00000070: c168 273f 20a5 83bf 0760 9b3f 7e65 9dbf
00000080: 7e25 4d3f d1b4 943f 18a7 833f 6ed4 adbf
00000090: 8df2 62bf 22e1 363f 2f02 5a3f 6e34 fbbe
000000a0: f41d 013f f097 813f 9242 a23f b313 fc3f
000000b0: 4cae 5ebf 4250 45bf 3b78 8e3e ebc8 cabe
000000c0: 8693 5b3f db47 843f e90c 66bf e320 08bf
000000d0: 3ac2 343f 3269 2b3f 3169 47bf 2baf 6ebf
000000e0: a2dd 823f 015c 7f3f 7fdb 6e3e 398e 003f
000000f0: 72d4 2fbf 467e 63be c381 14bf 2b21 aa3f
00000100: 8900 d83e 2796 65bf 1fdb 5a3f 723a bc3f
00000110: 84a3 2dbf 4476 a1bf 74f4 47bf 36a8 56bf
00000120: b72d 3bbf 3017 7a3f f23f 543f f50e 9bbf
00000130: f5fc b83f 073a 9ebf f775 733f 050f 9dbf
00000140: d98d 8c3f ab5b ab3f 581f 17bf 9524 7f3f
00000150: f821 5b3e c667 273f 6f04 50bf 2e53 b03f
00000160: 7a9a a53f 69b9 e13e 13f1 b93f e3bc ec3e
00000170: 45ae cdbf f3cf 353f a28e cebe d5dc 213f
00000180: b1af 9bbf 3c73 193f f891 06bf a0b2 773f
00000190: 8c6d e33e 0897 4a3f e3c6 963f 2aad 7bbf
000001a0: e71e 813f cfc7 86bf e2aa 55bf aaa8 a1be
000001b0: 24e2 85bf 6d26 7ebf e631 5bbf 8c68 b2bf
000001c0: f5a9 273f cbd1 423f 022d 7abf fc02 8bbf
000001d0: a4cd 863f f13e c2be 51aa 873f 7184 583f
000001e0: 86cc 58bf 3b9d 2c3f 98da 3bbf 9d6a b0bf
000001f0: 6c24 8d3f 1e50 dc3e e3b3 6b3e 3f3a b13f
0.9543793 1.2479322 0.82837844 0.95594263 0.8201323 0.7939431 -1.2396885 -0.8051131
-1.5222397 0.33432275 0.5413966 0.6169561 0.90272975 -0.2244295 0.57165074 0.22292157
0.94768625 0.66049117 1.5810351 -1.0193841 -0.8705658 0.45891318 -1.2949231 0.83954793
0.95476437 1.1264175 0.24515873 -0.8046005 0.65394217 -1.0284767 1.213868 -1.2296598
0.80135334 1.1617681 1.0285368 -1.3580453 -0.88651353 0.71437275 0.8515958 -0.49063438
0.5043633 1.0124493 1.2676566 1.9693512 -0.86984706 -0.7707559 0.27826104 -0.39606413
0.8577198 1.0334429 -0.8986345 -0.5317518 0.70608866 0.6695739 -0.77894884 -0.93236035
1.0223887 0.9974976 0.23325919 0.50217015 -0.6868354 -0.22216138 -0.580105 1.3291372
0.42187908 -0.8968224 0.854906 1.4705336 -0.6782763 -1.2614217 -0.7810738 -0.8385042
-0.7311663 0.9769163 0.8291007 -1.211394 1.4452196 -1.2361459 0.95101875 -1.2270209
1.0980788 1.338735 -0.590322 0.99665195 0.21399677 0.6539272 -0.81256765 1.3775384
1.2937768 0.4408677 1.4526695 0.4623786 -1.6068808 0.7102043 -0.40343195 0.6322759
-1.2162992 0.5994146 -0.5256648 0.96756935 0.44419515 0.79136705 1.1779445 -0.983111
1.0087556 -1.0529727 -0.8346387 -0.31573993 -1.0459638 -0.99277383 -0.85623014 -1.3938155
0.6549371 0.7610137 -0.97724926 -1.0860286 1.0531507 -0.37938645 1.0598851 0.8457709
-0.8468708 0.67427415 -0.7338042 -1.3782536 1.102674 0.43029875 0.2301784 1.38459

epsilon_in f4 [64]
00000000: 96c7 863f 71e6 973f 759e 633e a90c 5dbf
00000010: 7762 6a3f 8dfc 963f 4d95 9e3f 4991 213f
00000020: 5809 5dbf 9299 6a3f 5557 d53e 0aa5 103f
00000030: e781 93bf e89f 15bf a6c6 983f bcf0 96be
00000040: 0347 0c3f 9510 92bf 42ef 803f 6d92 8f3f
00000050: f697 26be 3c3f aebe fb6f 3c3f 1332 023f
00000060: a74c 0dbf 720a 83bf 0adc 273f 7e22 6abf
00000070: df7f 3fbf 7465 753f 7bbb a23f 8b77 0e3f
00000080: 4cca 94bf 42fe aa3f be32 3abe cf0d d23e
00000090: 3087 6d3f d805 073e 60fa c8bf 170b 62bf
000000a0: c0a7 0cbf cb38 acbf 4261 473f 0ace 3c3f
000000b0: 5db8 9e3f b53b 263f e9ae 123f 4aec 5bbf
000000c0: 0b92 793f b664 cebd 89f0 833f 1f67 30bf
000000d0: d067 3abf 02eb 953e 024b e8be 0a4c a9be
000000e0: e299 91bf 97b2 e03e e28c a0be f9b3 473f
000000f0: da30 b0bf d86a d9be d6a2 333f eac3 01bf
1.0529659 1.18672 0.22228415 -0.8634744 0.91556495 1.1795822 1.2389313 0.6311231
-0.8634238 0.9164058 0.41668192 0.5650183 -1.1524018 -0.5844712 1.1935623 -0.2948054
0.54795855 -1.141131 1.0073016 1.1216561 -0.16268906 -0.3403262 0.7360837 0.5085766
-0.5519509 -1.0237563 0.6557013 -0.9145888 -0.7480449 0.9585793 1.2713464 0.5565116
-1.1624236 1.3358843 -0.18183419 0.4102616 0.92784405 0.13185823 -1.5701408 -0.8829817
-0.54943466 -1.3454832 0.7788278 0.7375189 1.2400013 0.64934856 0.5729814 -0.85907423
0.9748847 -0.10077803 1.030778 -0.6890735 -0.72814655 0.2928086 -0.45369726 -0.33065826
-1.1375086 0.43886253 -0.31357485 0.7800899 -1.3764908 -0.42464328 0.7017034 -0.50689566

epsilon_out f4 [128]
00000000: 3452 743f 3ebc 9f3f 9c10 543f a8b8 743f
00000010: 31f4 513f db3f 4b3f 1dae 9ebf e41b 4ebf
00000020: c0d8 c2bf 5a2c ab3e f898 0a3f d6f0 1d3f
00000030: 4c19 673f d9d0 65be b457 123f 8d45 643e
00000040: 919b 723f f315 293f 5c5f ca3f 2e7b 82bf
00000050: 66dd 5ebf abf6 ea3e 0ac0 a5bf 9dec 563f
00000060: 706b 743f 732e 903f e40a 7b3e 4cfa 4dbf
00000070: c168 273f 20a5 83bf 0760 9b3f 7e65 9dbf
00000080: 7e25 4d3f d1b4 943f 18a7 833f 6ed4 adbf
00000090: 8df2 62bf 22e1 363f 2f02 5a3f 6e34 fbbe
000000a0: f41d 013f f097 813f 9242 a23f b313 fc3f
000000b0: 4cae 5ebf 4250 45bf 3b78 8e3e ebc8 cabe
000000c0: 8693 5b3f db47 843f e90c 66bf e320 08bf
000000d0: 3ac2 343f 3269 2b3f 3169 47bf 2baf 6ebf
000000e0: a2dd 823f 015c 7f3f 7fdb 6e3e 398e 003f
000000f0: 72d4 2fbf 467e 63be c381 14bf 2b21 aa3f
00000100: 8900 d83e 2796 65bf 1fdb 5a3f 723a bc3f
00000110: 84a3 2dbf 4476 a1bf 74f4 47bf 36a8 56bf
00000120: b72d 3bbf 3017 7a3f f23f 543f f50e 9bbf
00000130: f5fc b83f 073a 9ebf f775 733f 050f 9dbf
00000140: d98d 8c3f ab5b ab3f 581f 17bf 9524 7f3f
00000150: f821 5b3e c667 273f 6f04 50bf 2e53 b03f
00000160: 7a9a a53f 69b9 e13e 13f1 b93f e3bc ec3e
00000170: 45ae cdbf f3cf 353f a28e cebe d5dc 213f
00000180: b1af 9bbf 3c73 193f f891 06bf a0b2 773f
00000190: 8c6d e33e 0897 4a3f e3c6 963f 2aad 7bbf
000001a0: e71e 813f cfc7 86bf e2aa 55bf aaa8 a1be
000001b0: 24e2 85bf 6d26 7ebf e631 5bbf 8c68 b2bf
000001c0: f5a9 273f cbd1 423f 022d 7abf fc02 8bbf
000001d0: a4cd 863f f13e c2be 51aa 873f 7184 583f
000001e0: 86cc 58bf 3b9d 2c3f 98da 3bbf 9d6a b0bf
000001f0: 6c24 8d3f 1e50 dc3e e3b3 6b3e 3f3a b13f
0.9543793 1.2479322 0.82837844 0.95594263 0.8201323 0.7939431 -1.2396885 -0.8051131
-1.5222397 0.33432275 0.5413966 0.6169561 0.90272975 -0.2244295 0.57165074 0.22292157
0.94768625 0.66049117 1.5810351 -1.0193841 -0.8705658 0.45891318 -1.2949231 0.83954793
0.95476437 1.1264175 0.24515873 -0.8046005 0.65394217 -1.0284767 1.213868 -1.2296598
0.80135334 1.1617681 1.0285368 -1.3580453 -0.88651353 0.71437275 0.8515958 -0.49063438
0.5043633 1.0124493 1.2676566 1.9693512 -0.86984706 -0.7707559 0.27826104 -0.39606413
0.8577198 1.0334429 -0.8986345 -0.5317518 0.70608866 0.6695739 -0.77894884 -0.93236035
1.0223887 0.9974976 0.23325919 0.50217015 -0.6868354 -0.22216138 -0.580105 1.3291372
0.42187908 -0.8968224 0.854906 1.4705336 -0.6782763 -1.2614217 -0.7810738 -0.8385042
-0.7311663 0.9769163 0.8291007 -1.211394 1.4452196 -1.2361459 0.95101875 -1.2270209
1.0980788 1.338735 -0.590322 0.99665195 0.21399677 0.6539272 -0.81256765 1.3775384
1.2937768 0.4408677 1.4526695 0.4623786 -1.6068808 0.7102043 -0.40343195 0.6322759
-1.2162992 0.5994146 -0.5256648 0.96756935 0.44419515 0.79136705 1.1779445 -0.983111
1.0087556 -1.0529727 -0.8346387 -0.31573993 -1.0459638 -0.99277383 -0.85623014 -1.3938155
0.6549371 0.7610137 -0.97724926 -1.0860286 1.0531507 -0.37938645 1.0598851 0.8457709
-0.8468708 0.67427415 -0.7338042 -1.3782536 1.102674 0.43029875 0.2301784 1.38459

weight_mu f4 [2, 128]
00000000: 0a11 ba3e bd6e c03e ca1b c83e 9aa9 b93e
00000010: 9b00 d53e 2bc3 773e db95 323c 74b6 b53e
00000020: e695 0bbd 15a2 c73e 8900 853d 9996 b13e
00000030: aade 7c3e 1c8d efba 46c6 993e 3531 e4bc
00000040: 65dc bd3d 75f5 4f3e 6a81 c93e d0d5 b13e
00000050: 925f d03d faeb 573c f51c e33c fc50 b93d
00000060: 4d8d d23e 3b90 8d3e 428f 3b3e fefd 72bd
00000070: e8ae d03e 6e21 4b3e b0b5 c43e f610 a83e
00000080: 24ec abbe df87 833e 2da4 2dbf bf54 bb3e
00000090: e081 493e d9d8 c2ba b2c0 86bc aeaa ab3e
000000a0: 1cef d13e 366b 123e 5689 063d e28e a33e
000000b0: bf6d cfbd f836 b93e 3445 a23d 1940 0cbf
000000c0: 35fc ccbc 7c1c ce3e cb41 303d d8e6 4a3d
000000d0: 5410 4abf cf73 19bd a415 bc3e 0c52 1e3b
000000e0: 355f b73e 588c f7bc 5967 c0bd 1b3c c53e
000000f0: e48f 953e f0d9 993e d24e a33e 8266 c33c
00000100: ae70 c63e 96b5 cf3e f0c0 893e fe55 3b3d
00000110: 42af 5a3d ad54 c33e ed64 a53e f38b 563b
00000120: 08d4 e2bc 205a ee3c ebea 42be f9f1 0d3a
00000130: 5861 383d b71d 0d3d 0b13 a03e 3b87 c33e
00000140: d5f8 0abd 85bd a93e ef61 ed3d 44af cf3e
00000150: ffd8 f2bd ab75 ba3e 8db8 2d3d c18f 43be
00000160: 87e5 26bd c8af c33e 6869 c13e 4f01 d5bd
00000170: 41a6 d23e efcb 02bc 766f ea3c 4de3 a03d
00000180: 1e23 db3e b7d5 18bd 4d31 633d d6a5 973d
00000190: 1f68 c23e 6f84 303e 8baa 47bd 0908 6a3d
000001a0: 263a 563d 1ad9 dc3b 7299 b13e 0c4a bd3e
000001b0: 58bb c13e b836 953e ba88 b83e 1474 9d3e
000001c0: 9436 8d3d e83c bcbd 7e34 023c 54d9 ae3c
000001d0: 42e6 a33c 3e50 7c3e 7928 c23e 8cf9 b83e
000001e0: 26d7 aa3c bcf6 af3e db2b 9c3e 1089 983e
000001f0: 25a7 293d 1f9b d33e 2d3b bb3e e9c5 7b3e
00000200: d989 c53e 0012 ba3e 9135 bc3e fd84 c63e
00000210: 95a7 bb3e 3eaf b83e 6f11 ed3c 997a ad3e
00000220: ac42 1e3c 26c2 a43e aeac fbbc 48f4 403e
00000230: 34bd f13c a786 3dbc e064 a33e c29b 3a3d
00000240: 0bea 6d3e 1d43 a53e 5dde a83e a00b 1f3e
00000250: 3702 ca3b cfdb 7f3d 8131 593c 30cd 86bb
00000260: a88e cd3e d05d b13e 91e4 b23e b1fb c4bc
00000270: a42d b83e 4e26 c93d db71 de3e f39f b03e
00000280: 00e5 a8be 73c9 b53e 9af0 ddbe 6973 ce3e
00000290: 51a8 853e 5e84 f9ba 0efc 3dbd 87e1 cb3e
000002a0: 9a3d 9f3e a825 543e 5e76 94bd 53cb 9f3e
000002b0: 2a03 26bb fb6a 8a3e d6fc 9dbe 9413 c23d
000002c0: 77f8 6ebd 4b64 bb3e 2000 89bd 03d2 0fbe
000002d0: 6eb4 34bf 3c77 42bc 2e13 343e 0151 2d3d
000002e0: b1cf d33e 1f57 453c f7c8 a73a 1404 a33e
000002f0: eb17 d03e e3fb ca3e 1e26 ad3e 6dc1 9bbd
00000300: 4765 cb3e 1786 c93e 9300 933e 7b05 8bbd
00000310: febd 0f3c 7560 a73e b540 c53e 6b27 b03c
00000320: 7337 98bc eb69 963d b38f 06bf 5ce7 6cbd
00000330: 2157 b2bd b1c5 abbd 7fe6 ce3e 2a94 ce3e
00000340: 9e1b c73c 6922 c63e 18d7 8f3e 6ff1 9a3e
00000350: c21e f6bd f700 7a3e 0182 a43c d62d 903d
00000360: a3d9 81bc f814 c03e 0c8f d73e 7486 34bd
00000370: 99d6 a13e e56b 3fbd eca4 56bc 48f0 a0bd
00000380: 8883 bb3e 5348 70bd c9e5 bcbd 94d7 ed3b
00000390: 44a0 a63e e2d0 0b3e d911 92bd b529 30be
000003a0: e153 91bb 9c33 95bd f213 b03e 10b2 823e
000003b0: dc6e c83e 63f8 ab3e 3a27 d53e 1bd8 ba3e
000003c0: 586e 0f3d 790e 3ebe 8dea 66bb 0ac7 01bd
000003d0: 21e7 993a 69e9 b63d 2596 e23e 21fd b03e
000003e0: 6430 153d a047 d23e d0eb 26be c575 623e
000003f0: a635 c6bd ddcd cf3e d456 a93e c313 bc3e
0.36341125 0.37584487 0.390837 0.36262208 0.41602024 0.24195544 0.010899986 0.35490763
-0.0340785 0.38990846 0.06494243 0.3468521 0.24694315 -0.0018276307 0.30034083 -0.027855495
0.092705525 0.20308478 0.39356548 0.34733438 0.101744786 0.01317882 0.027723769 0.0904865
0.4112343 0.27649102 0.18316367 -0.059324257 0.40758443 0.19836971 0.38419867 0.3282544
-0.33578598 0.256896 -0.6782864 0.36588094 0.1967845 -0.0014865651 -0.016449306 0.33528656
0.41002738 0.1429871 0.032845818 0.31944948 -0.10128354 0.3617475 0.07923356 -0.54785305
-0.025022605 0.40256107 0.043031495 0.049536556 -0.78931165 -0.03746396 0.3673526 0.002415779
0.35814825 -0.030218288 -0.09394712 0.3852242 0.29211342 0.30049086 0.31896073 0.02385259
0.38757843 0.40568227 0.26905012 0.045736305 0.053389795 0.3815054 0.32303563 0.0032737225
-0.027688995 0.02909571 -0.19034927 0.000541478 0.04501471 0.034452166 0.3126453 0.3818911
-0.03392871 0.33152404 0.11590945 0.40563405 -0.11857795 0.364179 0.04241233 -0.19097807
-0.040746238 0.38220048 0.3777573 -0.1040064 0.41142467 -0.007983192 0.028617602 0.07855854
0.4280023 -0.03731319 0.05546694 0.074046776 0.37970063 0.1723802 -0.048746627 0.05713657
0.05230155 0.0067397477 0.34687382 0.36970556 0.37838244 0.2914331 0.36041814 0.30752623
0.068951756 -0.091913044 0.007947085 0.021343865 0.020007256 0.24639985 0.37921503 0.3612789
0.020854544 0.3436793 0.3050221 0.2979207 0.041419167 0.41329286 0.36568585 0.24587215
0.38581732 0.36341858 0.36759618 0.38773337 0.36651292 0.360712 0.028938977 0.33882597
0.0096594505 0.32179374 -0.030721989 0.18843186 0.029509164 -0.011567748 0.319129 0.0455587
0.23233812 0.32277766 0.3298215 0.15531778 0.006164815 0.062465485 0.013256432 -0.0041138157
0.401479 0.34641886 0.34940007 -0.024045797 0.3597232 0.09821759 0.4344624 0.34497032
-0.32987213 0.35505256 -0.43347627 0.40322426 0.26104978 -0.0019036641 -0.046382956 0.398205
0.31101686 0.2071749 -0.07249139 0.31209812 -0.0025331476 0.27034745 -0.3085696 0.094763905
-0.058342423 0.36599955 -0.06689477 -0.14044957 -0.70587814 -0.011869248 0.17585441 0.04231358
0.41369393 0.012044697 0.0012800981 0.3183905 0.40643248 0.396453 0.33818144 -0.076052524
0.39725706 0.39360115 0.28711376 -0.06788155 0.008773325 0.32690778 0.3852593 0.021503171
-0.018581128 0.07344421 -0.5256302 -0.05783783 -0.08708025 -0.08387316 0.4041023 0.40347415
0.024305161 0.38698128 0.2809379 0.30262324 -0.12017585 0.2441443 0.020081522 0.070399925
-0.015850848 0.37515998 0.42101324 -0.044073537 0.31609038 -0.046733756 -0.013100844 -0.0785833
0.36623788 -0.058662724 -0.092235155 0.007258365 0.32544148 0.13653901 -0.071323104 -0.1720341
-0.004435048 -0.07285234 0.34390217 0.25526476 0.3914708 0.33587942 0.4163149 0.36493
0.03501734 -0.18560208 -0.0035235018 -0.03168396 0.0011741855 0.08931238 0.44255176 0.34568122
0.036423102 0.4107027 -0.16300893 0.22115238 -0.096782014 0.4058675 0.33074057 0.36733827
