save/model/cartpole_dqn_hid_64_128.pth (torch_old, 37477 bytes, 6 tensors)

weight f4 [64, 4]
0.506282 -0.19931467 -0.4033779 0.661849 0.06271112 0.41389254 1.0288072 0.38034907
-0.86875194 0.13247058 -0.041488845 0.1343761 0.23769568 -0.42940524 -0.91620547 -0.22704116
-0.5264673 -0.23309177 0.06530442 -0.01367373 0.56183827 -0.0032481875 0.5828729 0.039393052
0.4873202 0.557625 0.6964623 0.3089799 0.12505701 0.37542823 0.1299546 0.085984856
-0.04264891 0.18449575 -0.10198146 0.058049798 -0.027136844 -0.38929868 -0.8215102 -0.35889092
0.093597785 0.13001168 -0.5212574 0.12753928 0.4080174 -0.3668854 -0.34143138 -0.3048742
0.27758348 -0.1177438 -0.07816389 0.17246018 0.3408571 0.5720211 1.0976278 0.46186727
0.66229224 0.24791801 0.5305003 0.21007325 0.4940378 0.49280453 0.7595202 0.28453368
0.8504177 0.11876449 0.31893268 0.046427928 -0.1890402 -0.37497553 -1.1685886 -0.30066523
-0.54317856 -0.13822627 0.15672049 0.14282347 -0.3434046 0.16857205 -0.4640697 0.18582426
-0.5035044 -0.42041326 -0.36569762 -0.29520416 -0.044666827 -0.5109939 -1.0273247 -0.39596578
0.11108229 0.1706602 0.4353862 0.16332383 -0.0020013312 -0.31988376 0.24659905 -0.049677167
0.44915095 0.42890167 0.98477304 0.36107966 0.5890444 0.26264742 0.1620764 0.09560042
-0.2914173 -0.102816604 -0.558705 0.14906238 -0.4900151 0.2074022 0.009885701 -0.35576203
0.1763761 -0.08480367 0.35470366 -0.0044949446 -0.6773222 -0.2001361 -0.3811905 -0.0054603
-0.47728023 0.083933614 -0.42025468 0.05533319 0.4470868 -0.2053959 -0.44568464 -0.14003564
-0.328277 -0.12974456 0.20728813 -0.06466644 -0.102901995 -0.117917314 0.30398124 0.1288911
0.09482308 -0.120319165 0.63800085 -0.26649266 -0.29054075 -0.26159686 -0.55046093 -0.19988237
0.056281924 -0.1589763 -0.4518874 -0.056759782 0.25384286 0.15685806 0.16349559 0.17061226
0.1670069 -0.391439 -0.16705643 -0.40008086 -0.117764935 -0.23476148 -0.8881531 -0.5235016
0.32510763 -0.040627055 0.41224477 0.037225906 -0.43097925 -0.20652862 -0.9290024 -0.038638983
0.8549511 0.035118144 0.56399983 0.015233087 -0.12923978 0.018657215 0.85771555 0.47357956
0.20837158 -0.2922599 -0.962225 -0.14659673 -0.07936094 -0.43678072 -1.0984964 -0.37990662
-0.25000408 -0.079557836 -1.9763064 -0.3593877 -0.061937135 0.15558445 -0.090126224 0.15029196
-0.26316398 0.36579156 0.34567654 0.2194998 0.5247858 0.377143 -0.09219477 0.20031723
-0.7309726 -0.1609142 -0.45582 -0.11917169 -0.25491714 -0.1947466 1.6911905 0.08883836
0.0328742 0.24034482 0.37145293 -0.05810674 -0.20177719 -0.25170204 -0.8475366 -0.16214061
0.60361296 0.35977823 -1.1883883 0.15563677 -0.39940348 0.04186765 1.5162057 0.4842159
-0.6469341 -0.23664068 -0.22359169 -0.2174202 -0.5041338 0.41756737 0.06810363 0.10215901
-0.18086284 -0.04187368 -0.4640415 0.05928344 -0.49458662 0.0080461735 0.42399517 -0.20277339
0.18555704 0.081148826 0.43872973 -0.087778434 0.39939365 0.58708453 0.8555044 0.53826106
0.21480338 0.18515149 0.8911252 0.10165954 0.24828345 -0.13759628 0.04680998 -0.25220233
00000000: b29b 013f 2519 4cbe 8c87 cebe f06e 293f
00000010: b06e 803d b9e9 d33e f4af 833f 1dbd c23e
00000020: 8766 5ebf 5ea6 073e 35f0 29bd e399 093e
00000030: 7f66 733e 01db dbbe 718c 6abf 7a7d 68be
00000040: 90c6 06bf 9caf 6ebe 53be 853d c807 60bc
00000050: a2d4 0f3f 8bdf 54bb 2937 153f 9c5a 213d
00000060: 0982 f93e 83c0 0e3f 5a4b 323f 9d32 9e3e
00000070: f20e 003e 2138 c03e d212 053e d418 b03d
00000080: a0b0 2ebd 74ec 3c3e a8db d0bd a0c5 6d3d
00000090: 164e debc 2852 c7be 7e4e 52bf 8dc0 b7be
000000a0: 32b0 bf3d c821 053e 2071 05bf a899 023e
000000b0: a8e7 d03e 67d8 bbbe 18d0 aebe 7918 9cbe
000000c0: 6c1f 8e3e a923 f1bd 6414 a0bd 6799 303e
000000d0: d284 ae3e fa6f 123f 117f 8c3f de79 ec3e
000000e0: fc8b 293f 38de 7d3e dece 073f 711d 573e
000000f0: 86f2 fc3e e050 fc3e ea6f 423f 66ae 913e
00000100: f9b4 593f cc3a f33d 254b a33e 362b 3e3d
00000110: c193 41be cbfc bfbe 5094 95bf cbf0 99be
00000120: c00d 0bbf 308b 0dbe 567b 203e 5140 123e
00000130: bad2 afbe 279e 2c3e 8b9a edbe b748 3e3e
00000140: aae5 00bf 6840 d7be b83c bbbe 0025 97be
00000150: 90f4 36bd 7fd0 02bf 607f 83bf 07bc cabe
00000160: 1d7f e33d 8cc1 2e3e f1ea de3e 5d3e 273e
00000170: c428 03bb cec7 a3be 7684 7c3e 497a 4bbd
00000180: 1df7 e53e 0099 db3e 161a 7c3f 6fdf b83e
00000190: 9dcb 163f b979 863e 5bf7 253e 27ca c33d
000001a0: a634 95be 8391 d2bd 4a07 0fbf cfa3 183e
000001b0: 42e3 fabe 3e61 543e a3f7 213c 7126 b6be
000001c0: f09b 343e 8cad adbd b89b b53e 544a 93bb
000001d0: fd64 2dbf 7af0 4cbe 672b c3be 51ec b2bb
000001e0: 135e f4be 63e5 ab3d 9f2b d7be 0ea5 623d
000001f0: 90e8 e43e 4e53 52be c730 e4be 8165 0fbe
00000200: ec13 a8be c2db 04be 5743 543e d76f 84bd
00000210: 48be d2bd a27e f1bd 6ea3 9b3e 07fc 033e
00000220: 9a32 c23d e569 f6bd 0654 233f ba71 88be
00000230: c2c1 94be 06f0 85be 02eb 0cbf f7ad 4cbe
00000240: e087 663d afca 22be c95d e7be f27c 68bd
00000250: b1f7 813e 669f 203e 636b 273e fbb4 2e3e
00000260: db03 2b3e b16a c8be d710 2bbe 66d7 ccbe
00000270: be2e f1bd 5065 70be 005e 63bf 3304 06bf
00000280: 8274 a63e 8e68 26bd bf11 d33e 317a 183d
00000290: 50a9 dcbe 3d7c 53be 1ad3 6dbf e943 1ebd
000002a0: 13de 5a3f 0bd8 0f3d 4b62 103f 3394 793c
000002b0: 6f57 04be 04d7 983c 3f93 5b3f 0579 f23e
000002c0: 5c5f 553e 17a3 95be 6154 76bf 741d 16be
000002d0: fd87 a2bd b9a1 dfbe 889b 8cbf 1f83 c2be
000002e0: 8900 80be 38ef a2bd 9cf7 fcbf aa01 b8be
000002f0: cbb1 7dbd 8851 1f3e 1994 b8bd 23e6 193e
00000300: 6ebd 86be 0849 bb3e 84fc b03e 8ec4 603e
00000310: 5d58 063f e318 c13e 9dd0 bcbd f61f 4d3e
00000320: 0521 3bbf b1c6 24be 3d61 e9be 4910 f4bd
00000330: 8084 82be a76b 47be ee78 d83f e3f0 b53d
00000340: 19a7 063d f41c 763e 142f be3e 5501 6ebd
00000350: ae9e 4ebe 17df 80be 29f8 58bf 3008 26be
00000360: 6186 1a3f da34 b83e 1c1d 98bf 3f5f 1f3e
00000370: 9d7e ccbe 6a7d 2b3d 0713 c23f 25eb f73e
00000380: 799d 25bf ef51 72be 38f5 64be 67a3 5ebe
00000390: ea0e 01bf 64cb d53e ea79 8b3d be38 d13d
000003a0: 1c34 39be bc83 2bbd d996 edbe 31d3 723d
000003b0: 753a fdbe 19d4 033c e515 d93e d4a3 4fbe
000003c0: aa02 3e3e 5b31 a63d 2fa1 e03e 2ec5 b3bd
000003d0: 537d cc3e 2c4b 163f 5602 5b3f 7acb 093f
000003e0: 6bf5 5b3e 5a98 3d3e c820 643f e032 d03d
000003f0: 043e 7e3e 0ae6 0cbe d2bb 3f3d aa20 81be

bias f4 [64]
-0.43891612 -0.34169325 -0.1222317 0.30185318 0.5405899 -0.09742053 0.36329606 -0.5551829
-0.42494935 -0.17548363 0.63511217 -0.15979134 0.6605802 0.009291928 -0.22355457 0.38184145
-0.31467566 -0.47321045 0.60524493 0.63385016 -0.014765239 -0.15215924 0.5589831 0.7446403
-0.085885115 -0.20273902 0.79442483 0.28993246 0.49518663 0.07091016 -0.031982303 0.31405845
-0.22119357 0.40974164 0.5068271 -0.7257558 0.43220752 0.8117641 0.51560605 -0.6892032
0.75825125 -0.017917302 -0.15719646 -0.84591687 0.4222593 -0.20589398 -0.38455647 0.54182804
0.48946565 0.5338266 0.012585147 -0.5534547 0.6833012 -0.5426015 -0.47345564 -0.85480684
0.63529474 0.7746571 0.74888873 0.41981536 0.7040321 -0.4656688 -0.23247519 0.5797668
00000000: 9db9 e0be 6bf2 aebe 9d54 fabd 808c 9a3e
00000010: 1a64 0a3f 6a84 c7bd f101 ba3e 7720 0ebf
00000020: f692 d9be fbb1 33be b696 223f 57a0 23be
00000030: c91b 293f 2c3d 183c 7deb 64be b980 c33e
00000040: 2b1d a1be a448 f2be 55f1 1a3f 0144 223f
00000050: e7e9 71bc a2cf 1bbe 8419 0f3f bfa0 3e3f
00000060: 89e4 afbd d19a 4fbe 6d5f 4b3f 0772 943e
00000070: 1a89 fd3e 5939 913d e0ff 02bd 45cc a03e
00000080: 9180 62be a8c9 d13e 6cbf 013f 22cb 39bf
00000090: 4e4a dd3e c6cf 4f3f c2fe 033f 9f6f 30bf
000000a0: c11c 423f 4ec7 92bc 1cf8 20be 028e 58bf
000000b0: 5f32 d83e dfd5 52be 96e4 c4be 3eb5 0a3f
000000c0: 3e9b fa3e dca8 083f ef31 4e3c 35af 0dbf
000000d0: d4ec 2e3f efe7 0abf c768 f2be 9fd4 5abf
000000e0: ada2 223f ed4f 463f 2cb7 3f3f 0af2 d63e
000000f0: 733b 343f 246c eebe fa0d 6ebe 996b 143f

weight f4 [128, 64]
-0.084893316 -0.020549253 -0.066973135 0.021462409 -0.14069974 -0.05409479 -0.14656806 0.063001424
0.07713434 -0.077437356 0.079095736 0.0929992 -0.092953555 0.10810204 0.12339857 -0.10263656
0.027012333 -0.06246029 -0.041441187 0.08072643 0.10782716 -0.019083738 -0.06266068 -0.030657442
-0.11693561 0.07408646 -0.111834176 -0.043692857 -0.085742265 -0.038379777 -0.045169592 0.079971425
-0.07827618 0.03299846 -0.07209863 0.07517606 0.018012997 0.046299107 -0.034286354 0.091442674
-0.011997452 0.09794869 -0.08937324 -0.07088417 0.09560278 -0.026134342 -0.0042501837 0.041645356
0.067415625 -0.009625617 -0.09348421 0.08533144 0.006626174 -0.050906293 -0.074937195 -0.14703262
0.016383959 -0.14421365 -0.075240426 -0.008672178 -0.003947134 0.04185997 0.07152443 0.0043211104
-0.12960832 0.057048503 -0.12943013 0.09223692 -0.040091567 0.053517446 -0.036598045 -0.1265157
-0.016380355 0.05759191 -0.11969313 0.030722823 -0.031658664 0.007915592 -0.05848013 -0.035211466
-0.0591381 -0.122907594 -0.062056385 0.002591831 0.123791754 -0.07965456 -0.054260362 -0.052682772
-0.093867406 0.011454679 -0.089412436 -0.06569626 -0.031608894 -0.029296689 0.08405404 0.07928882
-0.0052865203 -0.013539175 0.058864046 0.0886476 -0.11472771 0.08292289 -0.105075195 -0.11088646
-0.09523196 0.07480403 -0.04914473 0.09953341 0.094716474 0.00287503 -0.06027613 0.04165987
-0.05625777 0.10321715 -0.078306995 -0.13186389 0.016738258 0.051760487 -0.0921112 -0.006713617
-0.13227409 0.014611148 0.0506553 -0.14050175 0.027937451 -0.058957756 0.048982125 -0.09193068
-0.10426517 0.81051934 0.37659082 0.106268354 0.07927908 -0.17269182 -0.20764604 0.21014193
-0.044092372 0.39923522 0.10200985 -0.4340446 0.02726753 0.20309596 -0.22559059 0.074668825
-0.119350635 -1.9536443 0.115877055 0.12209067 0.33180147 -0.57307094 0.17146698 0.19881235
-0.113138564 -0.6322836 0.038669724 0.31206056 0.10419339 0.2532809 -0.12542446 -0.22957236
-0.2790425 -0.057101924 0.37162468 -0.5076089 -0.088569365 0.088000454 0.17003313 -0.88841546
0.07982089 -0.051723514 -0.7631324 0.1874615 0.16441964 0.72889256 -0.64264697 0.1503918
0.16796723 0.017408516 0.3022592 0.83315456 0.16074051 -0.38235167 -1.6850686 0.11786171
-0.021687603 0.0980911 0.11286713 0.45483422 0.103130646 0.23133065 0.6858791 0.05936543
0.029577214 -0.3436857 -0.24716866 0.25302613 0.3445871 -0.012935244 0.30223247 -0.16941218
0.045165688 0.08316256 0.24567647 0.28068534 0.31372726 -0.18108618 -0.20965397 0.31903195
-0.14541674 -1.0316522 0.2958863 0.38595068 -0.2873575 -0.6665405 0.3710511 0.25083566
-0.18839401 -0.16993533 0.29657674 0.15048526 0.3753527 0.054047093 -0.17998336 0.24194652
-0.16000903 0.12355118 0.36689305 -0.9037619 0.17733204 0.23699942 0.377133 -0.66252524
0.26005808 0.053735442 -0.7259025 -0.3571808 0.3008376 0.6325425 -0.21211168 0.35150573
0.2905148 0.25889066 -0.104793005 -0.3417931 0.18861519 -0.7942119 -0.2480406 -0.18562922
0.21953936 0.37141728 0.38001803 0.22638826 0.33692327 -0.15168276 0.052931357 0.22603425
00000000: 8cdc adbd e856 a8bc 3629 89bd efd1 af3c
00000010: 9813 10be 8092 5dbd f015 16be e406 813d
00000020: 9cf8 9d3d 7a97 9ebd f2fc a13d 5d76 be3d
00000030: 6f5e bebd 9a64 dd3d 64b8 fc3d 1e33 d2bd
00000040: f848 dd3c 5cd6 7fbd 3cbe 29bd e653 a53d
00000050: 7cd4 dc3d 8055 9cbc 3e54 80bd 5125 fbbc
00000060: f07b efbd a4ba 973d 5109 e5bd 48f7 32bd
00000070: a499 afbd 1d34 1dbd c003 39bd 0fc8 a33d
00000080: 434f a0bd 6529 073d 72a8 93bd e8f5 993d
00000090: fe8f 933c 22a4 3d3d d96f 0cbd 4c46 bb3d
000000a0: f690 44bc 5399 c83d 5109 b7bd b82b 91bd
000000b0: 64cb c33d b017 d6bc 2045 8bbb 5294 2a3d
000000c0: 3411 8a3d c4b4 1dbc a674 bfbd 40c2 ae3d
000000d0: 6020 d93b 1e83 50bd ac78 99bd b88f 16be
000000e0: a737 863c beac 13be a717 9abd c015 0ebc
000000f0: f656 81bb 5c75 2b3d 667b 923d 1a98 8d3b
00000100: 0bb8 04be b1ab 693d 5589 04be b6e6 bc3d
00000110: 0e37 24bd 1c35 5b3d d5e7 15bd 558d 01be
00000120: 1830 86bc 7fe5 6b3d ac21 f5bd 6eae fb3c
00000130: 84ac 01bd 66b0 013c dc88 6fbd e639 10bd
00000140: cb3a 72bd fab6 fbbd d62e 7ebd b5db 293b
00000150: 8886 fd3d ee21 a3bd 1d40 5ebd e4c9 57bd
00000160: 8e3d c0bd 68ac 3b3c de1d b7bd c38b 86bd
00000170: 5478 01bd 9cff efbc 8624 ac3d 2d62 a23d
00000180: 8c3a adbb 6ad3 5dbc 6d1b 713d df8c b53d
00000190: 5df6 eabd 7ad3 a93d aa31 d7bd 7118 e3bd
000001a0: f908 c3bd db32 993d fc4b 49bd 2cd8 cb3d
000001b0: b6fa c13d 006b 3c3b 1ae4 76bd 8aa3 2a3d
000001c0: 8c6e 66bd 8363 d33d 6b5f a0bd 5407 07be
000001d0: ac1e 893c ce02 543d cca4 bcbd e7fd dbbb
000001e0: dc72 07be 9963 6f3c ef7b 4f3d b1df 0fbe
000001f0: 15dd e43c b07d 71bd 7ba1 483d 2746 bcbd
00000200: fa88 d5bd 327e 4f3f 83d0 c03e 39a3 d93d
00000210: 125d a23d 20d6 30be 2aa1 54be 722f 573e
00000220: 349a 34bd 8f68 cc3e 8aea d03d 183b debe
00000230: 2860 df3c 63f8 4f3e 3801 67be f8eb 983d
00000240: 1b6e f4bd 0411 fabf f350 ed3d ac0a fa3d
00000250: e2e1 a93e c7b4 12bf 0a95 2f3e 7795 4b3e
00000260: 31b5 e7bd 57dd 21bf 2564 1e3d 67c6 9f3e
00000270: 5863 d53d 09ae 813e 456f 00be 0415 6bbe
00000280: a9de 8ebe b5e3 69bd 9745 be3e a8f2 01bf
00000290: db63 b5bd 9539 b43d 2a1d 2e3e 326f 63bf
000002a0: 2379 a33d 09dc 53bd a55c 43bf e8f5 3f3e
000002b0: 9f5d 283e b498 3a3f 8384 24bf 4f00 1a3e
000002c0: 9aff 2b3e 4e9c 8e3c b8c1 9a3e 9e49 553f
000002d0: 2999 243e 99c3 c3be 54b0 d7bf 7b61 f13d
000002e0: 33aa b1bc fde3 c83d e226 e73d 08e0 e83e
000002f0: 2936 d33d f1e1 6c3e c695 2f3f 2a29 733d
00000300: ea4b f23c 92f7 afbe c819 7dbe a48c 813e
00000310: b86d b03e 58ee 53bc 37be 9a3e 637a 2dbe
00000320: a8ff 383d 2251 aa3d 9d92 7b3e fdb5 8f3e
00000330: dca0 a03e a86e 39be 88af 56be 2858 a33e
00000340: 20e8 14be 2e0d 84bf 697e 973e 549b c53e
00000350: 8620 93be 66a2 2abf 69fa bd3e 886d 803e
00000360: 5cea 40be 8703 2ebe e8d8 973e cf18 1a3e
00000370: 3b2e c03e 7c60 5d3d 8f4d 38be d4c0 773e
00000380: 68d9 23be 6708 fd3d 68d9 bb3e f15c 67bf
00000390: 8896 353e faaf 723e 9417 c13e 419b 29bf
000003a0: 5526 853e b219 5c3d bfd4 39bf 67e0 b6be
000003b0: 6307 9a3e 4eee 213f ce33 59be 8ff8 b33e
000003c0: 5bbe 943e 518d 843e b79d d6bd 81ff aebe
000003d0: 5724 413e 7951 4bbf 5bfe 7dbe 9615 3ebe
000003e0: edce 603e 682a be3e b991 c23e 53d2 673e
000003f0: 3581 ac3e ba52 1bbe 8dce 583d 8675 673e

bias f4 [128]
-0.10196003 0.1050624 0.056723952 0.2458256 0.37773216 -0.009988113 0.41443366 -0.09202932
0.22151287 -0.12980846 0.06769413 0.33667418 0.038369916 0.36030364 0.42032287 0.4085352
0.3272768 0.45408762 0.29918757 -0.13338576 0.4212101 0.36681876 0.40869537 -0.26549712
-0.10397727 0.24607109 0.36270297 0.31148687 -0.06616229 0.41013226 0.34204033 0.008869609
-0.124345526 -0.118571304 0.24346364 0.052139085 0.40799278 0.38992012 0.054499827 -0.08083484
0.26174194 0.31704342 -0.09319029 -0.05740665 -0.008709505 0.3178271 -0.10298448 -0.020067913
0.052571625 0.36047474 -0.044973046 0.0698017 0.090237916 0.30445278 0.36302146 -0.11032834
0.07511716 0.08715325 -0.09914998 -0.043244775 -0.0866703 -0.20520946 0.15672597 0.24344258
0.38484773 0.049310494 -0.059893563 0.0016790471 0.04426989 -0.03719702 -0.19991311 0.4388407
0.10585062 0.3683666 0.29393965 0.0029979425 0.32957193 0.3206449 0.28084078 0.20605363
0.28033426 0.028349997 0.29602915 0.028106518 -0.16936007 0.4417014 0.06911011 -0.008992033
0.03560695 -0.14971611 0.38592955 0.40715683 -0.23210959 0.22957377 -0.09515364 -0.05887858
-0.21329664 0.34260476 0.2624524 -0.04128994 -0.005464539 -0.11517403 0.2395624 0.38044992
0.35102123 0.20082451 0.41449255 -0.092915505 0.37464276 0.07340122 0.33850947 -0.03728591
0.38776264 -0.05713072 -0.19492 0.3675302 0.30980003 0.31461534 0.40651706 0.03806944
0.032124598 -0.02106005 0.24708885 0.15567353 0.26636723 0.39987603 -0.047172386 0.37880105
00000000: 6cd0 d0bd f52a d73d 6057 683d b5b9 7b3e
00000010: 1c66 c13e 2fa5 23bc a630 d43e de79 bcbd
00000020: 45d4 623e 82ec 04be 38a3 8a3d 8f60 ac3e
00000030: c629 1d3d b879 b83e 8f34 d73e 872b d13e
00000040: d390 a73e 2c7e e83e 1d2f 993e 4796 08be
00000050: daa8 d73e abcf bb3e 8540 d13e 3def 87be
00000060: 09f2 d4bd 0ffa 7b3e 34b4 b93e 357b 9f3e
00000070: 1880 87bd dbfc d13e e91f af3e d651 113c
00000080: dea8 febd 83d5 f2bd 884e 793e cb8f 553d
00000090: 6ee4 d03e 9ca3 c73e 363b 5f3d bd8c a5bd
000000a0: 0a03 863e 8453 a23e 8dda bebd 3c23 6bbd
000000b0: 50b2 0ebc 3cba a23e 87e9 d2bd 7765 a4bc
000000c0: 5855 573d 2590 b83e a835 38bd 32f4 8e3d
000000d0: a8ce b83d 3ce1 9b3e f3dd b93e d3f3 e1bd
000000e0: 07d7 993d 677d b23d 250f cbbd 6f21 31bd
000000f0: 3380 b1bd 6e22 52be c67c 203e 0349 793e
00000100: c30a c53e cdf9 493d f452 75bd 7913 dc3a
00000110: 5854 353d e75b 18bd 06b6 4cbe baaf e03e
00000120: 36c8 d83d 8c9a bc3e 427f 963e 2179 443b
00000130: a7bd a83e 912b a43e 5dca 8f3e b9ff 523e
00000140: f987 8f3e 413e e83c 2291 973e a43f e63c
00000150: ba6c 2dbe b026 e23e 9a89 8d3d 5253 13bc
00000160: 98d8 113d 2e4f 19be 8f98 c53e dc76 d03e
00000170: 23ae 6dbe 6315 6b3e e9df c2bd aa2a 71bd
00000180: 6f6a 5abe e469 af3e 2960 863e a41f 29bd
00000190: e00f b3bb 5de0 ebbd d94f 753e 55ca c23e
000001a0: 0eb9 b33e f1a4 4d3e 5e38 d43e 7c4a bebd
000001b0: 2dd1 bf3e 6153 963d 1d51 ad3e 1cb9 18bd
000001c0: d388 c63e e701 6abd 1c99 47be eb2c bc3e
000001d0: 1c9e 9e3e 4315 a13e 0123 d03e b3ee 1b3d
000001e0: 1595 033d 2086 acbc dc04 7d3e e268 1f3e
000001f0: 4961 883e 8dbc cc3e d537 41bd 36f2 c13e

weight f4 [2, 128]
0.04371365 0.0026305185 -0.021184633 0.27476737 0.31469256 0.37789598 0.35947657 -0.44986802
0.34237242 -0.04921295 -0.039674282 0.3685065 -0.059113737 0.20408386 0.3568984 0.3778699
0.35507482 0.34428173 0.33700162 -0.10202963 0.36354402 0.32782263 0.3975286 -0.3359065
0.09462797 0.31646767 0.32367262 0.374127 0.032103233 0.35960332 0.28505427 -0.01924621
0.06990041 -1.1433085 0.38693643 0.027076887 0.40375596 0.3754628 0.06698046 -0.034900583
0.32813057 0.070745595 -0.006051578 -0.03880319 -0.05348351 0.40701568 -0.058969952 -0.045086537
-0.8128374 0.32661495 0.04838036 0.32129157 -0.07324277 0.37139627 0.3386397 -0.030997744
0.0038071086 0.015564604 -1.2634068 -1.193557 -0.049321562 -0.65599 0.23187874 0.32225057
0.40627572 -0.034138687 -0.022358483 -0.07556728 -0.02410566 -0.07711198 -0.38260764 0.41521466
0.06951494 0.2701769 0.10897505 0.4778572 0.2958585 0.33194014 0.37950823 0.3412322
0.055208303 -0.036874104 0.33500424 0.04192746 0.15515137 0.41937467 0.00012200758 -1.2466011
-0.06917363 -0.3823235 0.36928734 0.2514987 -0.805332 0.38992384 0.10597581 0.029983968
-0.9806478 0.34145293 0.36878434 -0.013728179 -0.15763241 -0.0070694345 0.32401657 0.36020702
0.33558744 0.38488483 0.30185485 -0.38464418 0.30303025 -0.057287183 0.36580127 -0.014752448
0.348896 0.022136513 -1.1368055 0.31248522 0.28788084 0.30911815 0.28500184 -0.0005736533
0.00046364928 -0.0672429 0.26335475 0.2101999 0.37176567 0.37800413 0.012556359 0.3692244
0.044148795 -0.00900949 0.2330107 0.33408085 0.30279553 0.104687445 0.34890172 0.030048886
0.3613927 0.05933892 0.032869563 0.37835562 0.0076529994 0.37127998 0.2889012 0.2953966
0.3721281 0.3275429 0.32136008 -0.8148521 0.3396808 0.37278906 0.25768787 -0.87945527
-0.0128429355 0.3116236 0.3996091 0.35794932 -0.041871767 0.26127896 0.3287028 0.02691137
-0.04059172 -1.3409882 0.34885332 -0.05826442 0.37984493 0.32426274 -0.050343763 -0.04807565
0.31985325 0.4215698 -0.051545016 0.034004845 -0.011121914 0.31016216 -0.06792451 -0.066971414
-0.5095352 0.37621263 -0.06545459 0.3267251 0.048324954 0.27245468 0.3801237 -0.035974722
-0.02964998 -0.02797378 -1.3120354 -0.922608 -0.038182 -0.49916774 0.27276486 0.39061397
0.32881936 0.030859917 -0.054653652 0.035754696 0.018176407 -0.034718957 -0.33564943 0.28073886
-0.07078533 0.3672279 0.3891893 -0.15686531 0.31768858 0.3172684 0.3764842 0.33282357
0.3097251 0.044060376 0.3105088 -0.045574922 -0.1718789 0.4078482 -0.011315954 -0.7006001
0.028807122 -1.2959906 0.36702582 0.34723538 0.37116057 0.37906286 -0.16713418 0.0626299
-0.27132252 0.272029 0.30989563 -0.029507007 0.25379494 0.008221728 0.2688045 0.34063053
0.36155853 0.39025995 0.3104216 0.48696968 0.40036124 0.0066679125 0.31492198 0.017237552
0.26822412 -0.0091791 0.07755112 0.32759333 0.35513496 0.33615178 0.37968022 -0.30548134
-0.038981963 -0.0037112639 0.34752682 -0.18956003 0.047641035 0.3496425 -0.06304614 0.243559
00000000: 160d 333d c764 2c3b 658b adbc 4fae 8c3e
00000010: 621f a13e 957b c13e 500d b83e 1a55 e6be
00000020: 704b af3e 8593 49bd 8081 22bd e2ac bc3e
00000030: 3f21 72bd 5cfb 503e 63bb b63e 2a78 c13e
00000040: 5ecc b53e b245 b03e 7a8b ac3e e9f4 d0bd
00000050: 7122 ba3e 5ed8 a73e de88 cb3e f0fb abbe
00000060: 4fcc c13d 0d08 a23e 6bb8 a53e 938d bf3e
00000070: ae7e 033d ed1d b83e a2f2 913e 3aaa 9dbc
00000080: f227 8f3d ef57 92bf 881c c63e 59d0 dd3c
00000090: 1ab9 ce3e a93c c03e 0d2d 893d eaf3 0ebd
000000a0: bb00 a83e 11e3 903d 514c c6bb 18f0 1ebd
000000b0: 8611 5bbd 5c64 d03e 7a8a 71bd a9ac 38bd
000000c0: 1d16 50bf 133a a73e 7c2a 463d 5480 a43e
000000d0: 4e00 96bd a727 be3e 2f62 ad3e fbee fdbc
000000e0: af80 793b ae02 7f3c 50b7 a1bf 7ac6 98bf
000000f0: 6805 4abd f6ee 27bf 9f71 6d3e 07fe a43e
00000100: 5f03 d03e 02d5 0bbd 2329 b7bc 05c3 9abd
00000110: 3c79 c5bc e3ec 9dbd 26e5 c3be 0497 d43e
00000120: d95d 8e3d a054 8a3e 502e df3d b3a9 f43e
00000130: c47a 973e 0ff4 a93e e74e c23e fdb5 ae3e
00000140: 1a22 623d 4d09 17bd ad85 ab3e 21bc 2b3d
00000150: 00e0 1e3e 47b8 d63e 52de ff38 a090 9fbf
00000160: e7aa 8dbd e8bf c3be 3b13 bd3e 70c4 803e
00000170: 3d2a 4ebf 19a4 c73e d809 d93d f0a0 f53c
00000180: bc0b 7bbf ebd2 ae3e 4dd1 bc3e 28ec 60bc
00000190: 646a 21be b7a6 e7bb 80e5 a53e 0e6d b83e
000001a0: 1ed2 ab3e a00f c53e b88c 9a3e 15f0 c4be
000001b0: c826 9b3e f7a5 6abd 4e4a bb3e 40b4 71bc
000001c0: 7fa2 b23e a257 b53c d882 91bf 10fe 9f3e
000001d0: 1e65 933e bc44 9e3e c3eb 913e 3961 16ba
000001e0: f415 f339 a5b6 89bd 6fd6 863e a53e 573e
000001f0: 1258 be3e c289 c13e 30b9 4d3c fb0a bd3e
00000200: 5ed5 343d 8a9c 13bc 5b9a 6e3e a50c ab3e
00000210: 0408 9b3e 5f66 d63d 3fa3 b23e 1529 f63c
00000220: 7708 b93e 5e0d 733d 3ca2 063d d4b7 c13e
00000230: 03c6 fa3b 6918 be3e dcea 933e 393e 973e
00000240: 9387 be3e b4b3 a73e 4f89 a43e 269a 50bf
00000250: a4ea ad3e 35de be3e aaef 833e fb23 61bf
00000260: 2d6b 52bc 218d 9f3e 9099 cc3e 2245 b73e
00000270: bb81 2bbd 5bc6 853e bc4b a83e 3c75 dc3c
00000280: 8143 26bd 80a5 abbf e79c b23e aca6 6ebd
00000290: 097b c23e c405 a63e 4335 4ebd f9ea 44bd
000002a0: cec3 a33e ffd7 d73e de20 53bd aa48 0b3d
000002b0: b038 36bc 93cd 9e3e 011c 8bbd 4f28 89bd
000002c0: e670 02bf f19e c03e 0e0d 86bd 8348 a73e
000002d0: 63f0 453d 2e7f 8b3e 939f c23e 3b5a 13bd
000002e0: 84e4 f2bc 4529 e5bc c7f0 a7bf 0a30 6cbf
000002f0: bb64 1cbd ea92 ffbe d6a7 8b3e 8efe c73e
00000300: 035b a83e f0cd fc3c 82dc 5fbd 8473 123d
00000310: b0e6 943c 7735 0ebd 3eda abbe 01bd 8f3e
00000320: e6f7 90bd 4c05 bc3e d243 c73e 4da1 20be
00000330: 14a8 a23e 0171 a23e 89c2 c03e da67 aa3e
00000340: 4a94 9e3e a778 343d 02fb 9e3e c5ac 3abd
00000350: 0601 30be 7bd1 d03e 8d66 39bc 875a 33bf
00000360: eafc eb3c 05e3 a5bf cfea bb3e d6c8 b13e
00000370: c208 be3e 8714 c23e 3925 2bbe 1b44 803d
00000380: c9ea 8abe 6347 8b3e a4aa 9e3e aeb8 f1bc
00000390: 69f1 813e 6db4 063c bea0 893e 2067 ae3e
000003a0: 331e b93e 27d0 c73e 94ef 9e3e 1754 f93e
000003b0: 26fc cc3e 817e da3b 743d a13e c435 8d3c
000003c0: ac54 893e f063 16bc 1fd3 9e3d 50ba a73e
000003d0: 40d4 b53e 161c ac3e 7265 c23e 0d68 9cbe
000003e0: 8dab 1fbd ad38 73bb 09ef b13e 061c 42be
000003f0: 3f23 433d 5704 b33e 561e 81bd 8867 793e

bias f4 [2]
0.30126375 0.2823937
00000000: 3e3f 9a3e e895 903e
