save/model/cartpole_dqn_dueling_noisy_hid_128_256.pth (torch_old, 815909 bytes, 30 tensors)

weight f4 [128, 4]
0	0x3edf7798	0.4364593
1	0xbeb9d370	-0.36294127
2	0xbc23c459	-0.009995543
3	0xbe590d46	-0.2119647
4	0xbe886128	-0.26636624
5	0x3e3867e3	0.1800838
6	0x3e0837f2	0.13302591
7	0xbdb83d31	-0.08996046
8	0xbef3a7b4	-0.47588885
9	0x3d3fa264	0.046785727
10	0xbf238a59	-0.63882977
11	0xbe510f9c	-0.20416111
12	0xbe41b5a4	-0.18916947
13	0x3e525ef1	0.2054403
14	0x3ea6084b	0.32428202
15	0x3d995f55	0.07488886
16	0x3da09391	0.07840646
17	0x3d9447d4	0.07240263
18	0xbe6a6a71	-0.22892167
19	0x3ccf799b	0.02532654
20	0xbe2589d6	-0.16165861
21	0x3e87363d	0.26408568
22	0xbe591af0	-0.21201682
23	0x3e323706	0.17403802
24	0x3d020881	0.03174639
25	0x3c1a379c	0.009412672
26	0xbd85cbd7	-0.0653302
27	0xbd5a9003	-0.053359997
28	0x3e8baa00	0.27278137
29	0xbde81701	-0.11332513
30	0x3ec813d8	0.3907764
31	0xbe0245b9	-0.1272191
32	0x3edbc433	0.42923126
33	0xbe8276fa	-0.25481397
34	0xbd109c76	-0.035305463
35	0xbe6da960	-0.23209143
36	0xbe6943b5	-0.22779734
37	0xba64c3aa	-0.0008726666
38	0xbf545d35	-0.8295472
39	0xbea7879c	-0.3272065
40	0xbe855011	-0.26037648
41	0xbe98273e	-0.2971744
42	0xbe0975cc	-0.13423842
43	0xbe3a3eea	-0.18188062
44	0xbec98621	-0.39360145
45	0x3e5bbbe9	0.21458401
46	0xbf3fa2a2	-0.7485753
47	0xbc36554c	-0.011128735
48	0xbe2bf72a	-0.16793504
49	0xbe7e6f1f	-0.24847077
50	0x3f20d37d	0.62822706
51	0xbca315df	-0.01990789
52	0x3e24f6c4	0.16109759
53	0x3da9ec9e	0.08297084
54	0x3f1e2d1c	0.6178758
55	0x3dab5c08	0.08367163
56	0x3e70d3c7	0.23518287
57	0xbeada2d8	-0.33913302
58	0xbf4243b6	-0.7588457
59	0xbec6fb37	-0.38863537
60	0xbecfeca4	-0.4061023
61	0x3ed8395b	0.4223126
62	0xbe8b76ea	-0.27239162
63	0x3ee28679	0.4424322
64	0x3e95c7f7	0.29254124
65	0xbe5df520	-0.21675539
66	0x3ee8ed50	0.45493555
67	0x3d1d54c6	0.038410924
68	0x3e855f2d	0.26049176
69	0xbd7e187c	-0.06203507
70	0x3eb2a7ed	0.34893742
71	0x3d8f8e8a	0.07009609
72	0x3ea6b3b2	0.32558972
73	0xbdf24ec1	-0.11831427
74	0xbf328988	-0.69741106
75	0x3e04965c	0.12947983
76	0xbe7b8760	-0.2456336
77	0x3ec3b175	0.38221326
78	0xbe780926	-0.2422224
79	0x3eaf9826	0.34295768
80	0x3e8b1f53	0.27172336
81	0xbd54a88b	-0.051918548
82	0x3d3223f5	0.043491323
83	0x3c1cf066	0.0095788
84	0x3acd52fb	0.0015664989
85	0x3e4950fb	0.19659798
86	0x3d4cb149	0.04997376
87	0x3bf39035	0.0074329623
88	0xbefcce79	-0.49376276
89	0xbd052745	-0.032508153
90	0x3ef585e1	0.47953704
91	0x3ec3b647	0.38225004
92	0x3deec040	0.116577625
93	0xbe1dc768	-0.15408099
94	0xbe8045a5	-0.25053135
95	0x3df07147	0.11740356
96	0x3ebb3024	0.36560166
97	0xbe005d79	-0.12535657
98	0x3dfc45ad	0.12317977
99	0xbc19fc92	-0.009398596
100	0xbe99fe66	-0.30076903
101	0x3e008495	0.12550576
102	0x3ebc9cbc	0.3683833
103	0x3e77761b	0.24166147
104	0xbd78b416	-0.06071862
105	0xbe031fe8	-0.1280514
106	0x3e0b022b	0.13575046
107	0x3e0f5f27	0.14001141
108	0x3e9fc0e6	0.31201857
109	0xbd7d1c28	-0.06179443
110	0xbe68599a	-0.2269043
111	0xbde98947	-0.11403137
112	0x3eff3e69	0.49852303
113	0xbe71fb04	-0.23630911
114	0xbd26e80d	-0.040748645
115	0xbe6583d7	-0.22413574
116	0x3e0a05a9	0.13478722
117	0xbe8039a8	-0.25043988
118	0x3e60e074	0.21960622
119	0xbe73fd4e	-0.23827097
120	0x3df2d535	0.11857072
121	0x3de5467d	0.11195085
122	0x3f5054c2	0.8137933
123	0x3e972fd1	0.2952867
124	0xbf053e51	-0.5204821
125	0xbec51285	-0.38490692
126	0xbe462458	-0.19349802
127	0xbe01a0d9	-0.12659015
128	0xbe2d87b6	-0.16946301
129	0x3e9f627d	0.31129828
130	0xbee7387a	-0.45160276
131	0x3e647db6	0.2231358
132	0x3e84e7ca	0.2595809
133	0xbe96f1d7	-0.29481384
134	0x3e0ade56	0.13561377
135	0x3d92e769	0.07173044
136	0xbea43271	-0.32069734
137	0xbe98fa0a	-0.29878265
138	0x3f07e1ed	0.5307911
139	0xbe6b499f	-0.22977303
140	0xbc582276	-0.01319181
141	0x3e0535d7	0.1300882
142	0xbefaca72	-0.4898258
143	0x3b8795be	0.0041377237
144	0x3f0bd1f8	0.5461726
145	0x3e40bfab	0.18823116
146	0x3dda766e	0.1066712
147	0xbd49328d	-0.049120475
148	0x3e8b73b0	0.272367
149	0xbe35bc31	-0.1774757
150	0x3e03b410	0.12861657
151	0xbd5e1e77	-0.054228272
152	0x3d989a49	0.074513026
153	0x3e673a72	0.22580889
154	0x3e85d6b6	0.26140374
155	0xbdadf17a	-0.084933236
156	0x3e82a961	0.2551985
157	0x3e2b7c61	0.16746666
158	0x3ea8e4b0	0.32986975
159	0xbcbb59c1	-0.022869946
160	0x3df552ab	0.11978658
161	0x3e41e8eb	0.18936507
162	0x3ee9464a	0.4556144
163	0x3ec79a96	0.38985127
164	0x3f1a9768	0.6038728
165	0x3e0bd5d3	0.13655786
166	0xbea5abb2	-0.32357556
167	0x3d4e6366	0.050387762
168	0x3ea525a8	0.32255292
169	0x3f010274	0.5039437
170	0xbd94f856	-0.07273929
171	0x3e8f66b2	0.28008038
172	0x3e971355	0.29506937
173	0xbec99757	-0.39373276
174	0xbf1514a5	-0.58234626
175	0xbe589c66	-0.21153411
176	0x3e7a36a4	0.24434906
177	0xbd93f27a	-0.07223983
178	0xbe559d7e	-0.2086086
179	0x3ccd30cc	0.025047682
180	0xbebd2ab4	-0.36946642
181	0x3e2e2528	0.17006361
182	0x3e4e6a8b	0.2015783
183	0x3e73a171	0.23792054
184	0x3f29278c	0.6607597
185	0xbe52da52	-0.20591095
186	0x3e519db9	0.20470323
187	0xbd124dd7	-0.035718765
188	0x3ea02b12	0.3128286
189	0xbe9e256b	-0.30887923
190	0x3e61c3fb	0.22047417
191	0xbec07507	-0.37589285
192	0x3dae056f	0.0849713
193	0xbe5028d0	-0.20328069
194	0xbcf0c157	-0.029389067
195	0xbe6ccdcc	-0.2312538
196	0x3d33877c	0.04383038
197	0x3dfaa8d7	0.12239235
198	0xbefe8f9e	-0.49718946
199	0xbe2e5396	-0.17024073
200	0xbe95779a	-0.2919281
201	0xbc7739ec	-0.015089493
202	0x3fb1ca86	1.388993
203	0x3e6319bb	0.22177784
204	0xbdacbcaf	-0.08434426
205	0x3e44e8ab	0.19229381
206	0x3f5231e5	0.82107383
207	0x3e4bd40a	0.19905105
208	0x3e845011	0.25842336
209	0xbe40de3c	-0.18834776
210	0x3f30ce67	0.69064945
211	0xbe868b8c	-0.2627834
212	0xbc1a75ed	-0.00942753
213	0xbddfbe57	-0.10924976
214	0xbe6954bb	-0.22786228
215	0xbe7b4989	-0.2453977
216	0xbe11976a	-0.14217916
217	0xbde92629	-0.113842316
218	0xbf1d9437	-0.6155428
219	0xbdd423dc	-0.10358402
220	0xbf01dcd2	-0.5072757
221	0x3eaf1017	0.34191963
222	0x3f6e60dc	0.93116546
223	0x3ecbf284	0.39833462
224	0xbe78653f	-0.24257372
225	0xbdb70bf3	-0.08937826
226	0x3ea6752c	0.3251127
227	0x3da68a73	0.08131876
228	0xbea27e62	-0.31737047
229	0xbe60a3e5	-0.21937521
230	0xbef2cc7b	-0.4742163
231	0xbd21024e	-0.03930884
232	0x3e4929d1	0.19644858
233	0x3c2109ce	0.009828998
234	0xbf359c8f	-0.70942014
235	0xbd8f721b	-0.07004186
236	0x3f2ecc04	0.68280053
237	0xbd2b03ff	-0.041751858
238	0xbee99273	-0.45619544
239	0xbdccea2f	-0.100056045
240	0xbd9cdd29	-0.076593705
241	0x3e7c6a11	0.24649836
242	0x3e1dca65	0.15409239
243	0xbdd31622	-0.10306956
244	0xbd66b87c	-0.05632828
245	0xbddff85c	-0.10936043
246	0xbe098808	-0.13430798
247	0x3dc03e6b	0.09386905
248	0x3c97bb64	0.018521972
249	0xbf03dd12	-0.515092
250	0x3e256cdf	0.16154812
251	0xbe97c886	-0.29645175
252	0x3e4efa5e	0.20212695
253	0xbe800ba9	-0.25008896
254	0xbdefe48e	-0.11713515
255	0xbe8be629	-0.27324036

bias f4 [128]
0	0x3eac53f7	0.3365781
1	0x3e9d8f1c	0.30773246
2	0xbeb8a51b	-0.36063465
3	0x3e9fa111	0.3117757
4	0x3e2e24a7	0.1700617
5	0x3e736433	0.23768692
6	0x3ee4e61f	0.44706818
7	0x3eea67a0	0.45782185
8	0x3eb833e6	0.35977095
9	0xbf0325cc	-0.5122955
10	0x3e51555c	0.20442718
11	0xbed1a8f4	-0.40949214
12	0x3ef8200a	0.48461944
13	0xbee264f6	-0.44217652
14	0xbe546518	-0.20741689
15	0x3e8b1ac3	0.27168855
16	0x3f276ceb	0.6540057
17	0xbeccd8bc	-0.40009105
18	0x3ec44743	0.38335618
19	0x3eddd5de	0.4332723
20	0x3f0c9997	0.5492186
21	0x3e9efa92	0.31050545
22	0xbf1b3ece	-0.6064271
23	0xbe07401d	-0.13208051
24	0x3f154920	0.58314705
25	0x3e11eca8	0.14250433
26	0x3f146ea8	0.5798135
27	0x3f1e4892	0.61829484
28	0xbf0f3279	-0.5593639
29	0xbef26a6c	-0.47346818
30	0xbde8d347	-0.11368423
31	0x3f0a906e	0.5412663
32	0xbec6e806	-0.38848895
33	0xbf3150b3	-0.6926376
34	0xbe66f669	-0.22554936
35	0x3e267e89	0.16259207
36	0xbee78527	-0.45218775
37	0x3e82d4a6	0.25552863
38	0x3f08a76c	0.53380466
39	0x3eff1aa8	0.49825025
40	0xbeb85a77	-0.3600652
41	0xbe96adf8	-0.29429603
42	0xbe885149	-0.26624516
43	0xbe86fbc2	-0.2636395
44	0x3eca1a78	0.3947332
45	0xbebce0c4	-0.36890233
46	0x3eda74c9	0.42667225
47	0x3f14b500	0.58088684
48	0xbf00712e	-0.501727
49	0xbf10f3bb	-0.56621903
50	0xbe93cd50	-0.28867579
51	0xbe96b994	-0.2943846
52	0x3e6d80e7	0.23193704
53	0xbebcd75b	-0.36883053
54	0x3e114b4f	0.14188884
55	0xbe05507a	-0.1301898
56	0xbf0e25bc	-0.5552633
57	0xbf1c6692	-0.6109401
58	0xbeda78b2	-0.42670208
59	0xbdaab2ed	-0.08334909
60	0x3eaf760e	0.34269756
61	0x3f00095a	0.5001427
62	0xbe9c32e5	-0.3050758
63	0xbf007c5e	-0.5018977
64	0xbe436fd1	-0.19085623
65	0xbe586c37	-0.2113503
66	0x3ee069cf	0.43830726
67	0x3ecb1932	0.3966766
68	0x3ef41b98	0.47677302
69	0x3f1da391	0.6157771
70	0x3f1903a5	0.59771186
71	0xbe8445c7	-0.25834486
72	0xbf17d49b	-0.59308785
73	0xbf07f0b5	-0.53101665
74	0xbe1497b0	-0.14510989
75	0x3ec167da	0.37774545
76	0x3f024a83	0.50894946
77	0xbee781c0	-0.4521618
78	0x3e2157a5	0.1575609
79	0xbe423c7f	-0.1896839
80	0x3ef6046e	0.48050255
81	0x3f245519	0.6419235
82	0xbecbdff7	-0.3981931
83	0xbf020ec4	-0.5080378
84	0x3e1e6d96	0.15471491
85	0x3efd28a4	0.4944507
86	0xbe169b4c	-0.14707679
87	0x3e4826c6	0.19546041
88	0x3ed4f084	0.4158975
89	0x3e08d939	0.13364114
90	0x3ede88c0	0.43463707
91	0xbf05c56d	-0.5225437
92	0xbeac51ac	-0.3365606
93	0xbeb2dea3	-0.34935483
94	0x3e906dc6	0.2820875
95	0xbf1afcdc	-0.6054208
96	0xbf07592e	-0.5287045
97	0xbea27cc9	-0.3173583
98	0x3e4ffb7e	0.2031078
99	0xbe7862f1	-0.24256493
100	0xbec2d0e6	-0.38050002
101	0xbe7ee3da	-0.24891606
102	0x3f07bd65	0.5302337
103	0xbed22e99	-0.41051176
104	0x3e9dc87c	0.3081702
105	0xbf050358	-0.5195823
106	0x3e2ffeb8	0.17187011
107	0x3f07e34b	0.53081197
108	0x3f1a303a	0.6022984
109	0x3ebd1e80	0.36937332
110	0xbf0e5b16	-0.55607736
111	0xbf097c78	-0.5370555
112	0xbe96ecb8	-0.29477477
113	0xbe8d5159	-0.27601126
114	0xbea9ac05	-0.33139053
115	0xbe8feabe	-0.28108782
116	0x3ef42764	0.47686303
117	0xbee4001f	-0.44531342
118	0xbe89c417	-0.26907417
119	0xbf03bb91	-0.5145808
120	0xbf05bb80	-0.5223923
121	0xbeaa2d42	-0.33237654
122	0xbf0d9b6d	-0.55315286
123	0xbf0b1c72	-0.5434028
124	0x3e757df5	0.2397383
125	0xbe9531c9	-0.29139546
126	0x3ef78df4	0.4835049
127	0x3e85ca6c	0.26130998

weight_mu f4 [256, 128]
0	0xbe6c5dbe	-0.23082635
1	0xba9d41ad	-0.0011997722
2	0x3daeff3f	0.08544778
3	0xbd93c7c0	-0.07215834
4	0xbdf3d3f1	-0.11905659
5	0xbb2e971a	-0.0026640357
6	0xbda7002c	-0.0815433
7	0xbe004f8b	-0.12530343
8	0xbdfe11cd	-0.12405739
9	0xbc589c62	-0.013220878
10	0xbdf11b71	-0.11772812
11	0xb853ae64	-5.0468734e-05
12	0xbd5056ad	-0.05086391
13	0x3dba4d58	0.090967834
14	0xbe69e59f	-0.228415
15	0xbdc5aae3	-0.09651735
16	0xbe47cd21	-0.19511844
17	0x3d4b11bc	0.04957746
18	0xbdf5f147	-0.120089106
19	0xbdfc08f2	-0.12306394
20	0xbe2b7997	-0.16745602
21	0xbd86d171	-0.065829165
22	0x3d3768fe	0.044777863
23	0xbbe8c41a	-0.0071034553
24	0xbd47509f	-0.04866087
25	0x3aaeb6f8	0.0013329675
26	0xbde5402d	-0.11193881
27	0xbe2a9a87	-0.1666051
28	0xbdc9a69b	-0.098462306
29	0xbd060a2a	-0.032724537
30	0x3e391842	0.1807566
31	0xbd8d8616	-0.069103405
32	0xbb9a6410	-0.0047116354
33	0x3d369427	0.044574883
34	0xbc1bd270	-0.009510621
35	0xbd8cdfcb	-0.068786226
36	0xbd4ba1ab	-0.049714725
37	0xbe30d8ca	-0.17270198
38	0x3d73fce2	0.05956734
39	0x3c915fed	0.017745936
40	0x3d89e864	0.06733778
41	0xbcaa2fae	-0.020774689
42	0x3dcfb364	0.10141638
43	0xbe72dbf4	-0.23716718
44	0xbcf8a88c	-0.030353807
45	0xbc9a7aac	-0.018857323
46	0x3c1da60c	0.009622108
47	0xbd573852	-0.052543946
48	0x3d21b412	0.03947837
49	0xbe0fb3f2	-0.14033487
50	0x3e45f0be	0.19330117
51	0xbdb4ae69	-0.088223286
52	0xbd89a964	-0.06721762
53	0x3dc6bf73	0.09704485
54	0xbe677abe	-0.22605416
55	0x3dd95aa9	0.10612995
56	0xbca889f8	-0.020573601
57	0xbd962a02	-0.07332231
58	0xbd71eef5	-0.059065778
59	0xbe9a4a49	-0.301348
60	0x3da6e4ff	0.08149146
61	0xbe1e6171	-0.15466858
62	0xbccd43cf	-0.025056748
63	0xbd921e2b	-0.0713466
64	0x3d300bd2	0.042980023
65	0x3dd41893	0.1035625
66	0xbdbecd6c	-0.09316525
67	0xbc1102d5	-0.008850773
68	0x3ccfe741	0.025378825
69	0x3d1e7c40	0.038692713
70	0xbba21157	-0.0049459147
71	0xbda9c5cc	-0.0828968
72	0x3dd41c27	0.10356932
73	0x3e35853f	0.1772661
74	0xbe724be2	-0.2366176
75	0xbdd0f205	-0.102024116
76	0x3d76e362	0.060275443
77	0x3df40221	0.119144686
78	0xbd37191e	-0.044701688
79	0xbe6eb32f	-0.2331054
80	0x3d220fdc	0.039565906
81	0xbdbc177c	-0.09184167
82	0x3e8135a9	0.25236252
83	0x3db1da3f	0.08684205
84	0x3d3d7d4f	0.04626208
85	0xbe4faa93	-0.20279913
86	0xbc10a3fc	-0.008828159
87	0xbe3b0bb8	-0.18266189
88	0x3aa947d3	0.0012915082
89	0xbe64d49c	-0.22346729
90	0xbd684181	-0.056703094
91	0xbd3b55c2	-0.045736082
92	0xbcf09c9c	-0.029371552
93	0xbba2e24f	-0.0049708257
94	0x3da05518	0.0782873
95	0x3c861731	0.01636848
96	0xbc301bfb	-0.010748859
97	0xbd7f541d	-0.062336076
98	0xbd93f3ba	-0.072242215
99	0xbc07c714	-0.00828721
100	0x3e20bf23	0.15697913
101	0xbd6ff64e	-0.058584504
102	0xbd579e36	-0.052641116
103	0xbd5cb129	-0.05387989
104	0xbc0598d3	-0.008154112
105	0x3d1f92d6	0.038958393
106	0x3d015ca9	0.03158251
107	0xbe350f67	-0.17681657
108	0xbd228060	-0.03967321
109	0x3d447c68	0.047970206
110	0x3ccead0d	0.025229001
111	0xbdb510dc	-0.08841106
112	0x3e0b41d2	0.13599327
113	0x3d45ed03	0.048321735
114	0xbe03687c	-0.12832826
115	0x3d26eac4	0.040751234
116	0xbd6364b7	-0.05551597
117	0xbd55783f	-0.05211663
118	0x3de05982	0.10954572
119	0xbc961fe6	-0.018325757
120	0x3ddf1c04	0.108940154
121	0x3de5d234	0.11221734
122	0xbdfa223f	-0.12213563
123	0xbc1193de	-0.008885352
124	0xbe138161	-0.14404823
125	0x3e487fc4	0.19579989
126	0xbdccf8a9	-0.10008366
127	0xbd5dd581	-0.05415869
128	0xbd62354a	-0.0552266
129	0xbccdb9ab	-0.025112947
130	0x3d303bef	0.043025907
131	0xbca4f72b	-0.02013739
132	0xb95e31b4	-0.00021190086
133	0xbd55876c	-0.0521311
134	0xbda6f1b6	-0.081515715
135	0xbccf7ef9	-0.0253291
136	0xbd884485	-0.06653694
137	0xbdb23803	-0.0870209
138	0xbcb06f09	-0.02153732
139	0x3cf6cf6a	0.0301282
140	0xbdb5aec5	-0.08871225
141	0x3bde8208	0.0067904033
142	0xbda054c0	-0.07828665
143	0xbeaabdce	-0.33347934
144	0xbcb9b638	-0.022669896
145	0xbb42e4fa	-0.0029738531
146	0xbd058406	-0.03259661
147	0xbda76113	-0.08172812
148	0xbde6693a	-0.11250539
149	0xbd8c0464	-0.06836775
150	0xbe1abfff	-0.15112303
151	0xbdbcd997	-0.092211895
152	0xbe1cc2a0	-0.15308619
153	0xbdf5c3c5	-0.12000231
154	0xbcd59cbe	-0.026075717
155	0xbe1fb31f	-0.15595673
156	0xbcb5d43a	-0.022195924
157	0xbd54b14c	-0.051926896
158	0xbd469cee	-0.048489504
159	0xbc0442a8	-0.008072533
160	0xbd7965be	-0.060888045
161	0x3ce06ef2	0.027396653
162	0xbdc50527	-0.09620123
163	0xbdc61f5b	-0.09673949
164	0xbdec8c9c	-0.115502566
165	0xbd8468f4	-0.06465331
166	0xbdcc0397	-0.09961622
167	0x3c75f0cd	0.015011025
168	0x3d22a32b	0.03970639
169	0xbd1a9c7e	-0.0377469
170	0xbdbf6f0b	-0.09347352
171	0xbca7fa48	-0.020505086
172	0xbdb389db	-0.08766528
173	0xbda72396	-0.08161084
174	0xbe3ce55f	-0.18446873
175	0xbddc8d68	-0.107691586
176	0x3d675966	0.05648174
177	0xbd8b9d7f	-0.06817149
178	0x3d2aa899	0.041664694
179	0xbe008e59	-0.12554301
180	0xbdadb5aa	-0.08481915
181	0xbd0cb7b4	-0.03435488
182	0xba6e7437	-0.0009096297
183	0xbe588e13	-0.21147947
184	0xbe3aa95b	-0.18228666
185	0xbdafef67	-0.08590584
186	0xbcb90b7c	-0.022588484
187	0xbcf2b3b6	-0.029626708
188	0xbafab1b7	-0.001912645
189	0xbd1659db	-0.036706787
190	0xbd1aabc7	-0.037761476
191	0xbda8ef54	-0.08248773
192	0xbd855183	-0.06509688
193	0xbd91bce3	-0.071161054
194	0xbdfc2831	-0.123123534
195	0xbdbdbfcc	-0.09265098
196	0xbd056da5	-0.03257527
197	0xbd395836	-0.04525014
198	0xbdcc6e50	-0.09981978
199	0xbd81dbef	-0.06340777
200	0xbd1da512	-0.0384875
201	0x3b4770bf	0.0030432192
202	0x3d8a130c	0.06741914
203	0xbcaec135	-0.021332363
204	0x3bf7c56a	0.0075613754
205	0xbd81e24d	-0.063419916
206	0xbe32d163	-0.17462687
207	0x3be689c1	0.0070354645
208	0xbde2fe44	-0.110836536
209	0xbdf60ed6	-0.120145485
210	0xbdb97724	-0.090559274
211	0xbdcf1838	-0.10112041
212	0xbd97b0bf	-0.074067585
213	0xbdce5b33	-0.100759886
214	0xbce21b6b	-0.027600965
215	0xbe2817fc	-0.164154
216	0xbdb71c26	-0.08940916
217	0xbe45f2fe	-0.19330975
218	0xbd80d35d	-0.06290314
219	0x3ccdd714	0.025126971
220	0x3c80e955	0.015736261
221	0xbdf2cf6c	-0.11855969
222	0xbd85458b	-0.06507405
223	0xbd3d2282	-0.046175487
224	0x3d3f972a	0.04677502
225	0xbe26f482	-0.1630421
226	0x3ca4c2bf	0.020112393
227	0xbde1461e	-0.10999702
228	0xbdc32a6f	-0.09529578
229	0xbd265dd4	-0.040616825
230	0xbd3c2778	-0.045936078
231	0xbe0e98c4	-0.13925463
232	0xbdeb40e6	-0.11486988
233	0xbca49598	-0.020090863
234	0x3c2571df	0.01009795
235	0xbdff7e30	-0.1247524
236	0xbd0cd7ab	-0.034385365
237	0xbcdbecce	-0.026846316
238	0xbb1496c5	-0.0022672873
239	0xbddfaec7	-0.10922008
240	0xbde180eb	-0.11010917
241	0xbdab74fd	-0.08371923
242	0xbd85ea7e	-0.065388665
243	0xbdee06a6	-0.11622362
244	0xbe1bf810	-0.15231347
245	0xbd7f5c8a	-0.06234411
246	0xbdd5d74b	-0.104414545
247	0xbbcb2866	-0.006199884
248	0x3bdaad3a	0.0066734822
249	0xbd6c39e8	-0.05767241
250	0xbafe3471	-0.0019394291
251	0xbe0be33e	-0.13660905
252	0xbe597b51	-0.21238448
253	0xbe2abd0c	-0.16673678
254	0x3c9018eb	0.017590007
255	0xbe11dc10	-0.14244103

weight_sigma f4 [256, 128]
0	0xbd219c5e	-0.039455764
1	0x3e1c5084	0.1526509
2	0x3dd6a389	0.104804106
3	0x3e53be7e	0.20678136
4	0x3bddaf8c	0.0067653116
5	0x3e4711ae	0.19440338
6	0x3dbe64cc	0.09296569
7	0xbd2695d6	-0.04067024
8	0x3d92edaa	0.07174237
9	0x3c994194	0.018708028
10	0x3c077cbd	0.008269486
11	0x3e26b543	0.16280083
12	0xb9c4c563	-0.00037531098
13	0x3d533100	0.051560402
14	0x3d8f3cc9	0.06994016
15	0x3cc047f4	0.02347181
16	0xbd6f0e84	-0.058363453
17	0xbca92a3a	-0.020650018
18	0xbc037ca2	-0.00802532
19	0x3c0d1726	0.008611476
20	0x3e121676	0.1426638
21	0x3d3f44a9	0.04669634
22	0x3e336fa1	0.17523052
23	0x3dbcdc7d	0.09221742
24	0x3c9c5275	0.019082287
25	0x3dbd7492	0.0925075
26	0xbcdb67d3	-0.026782906
27	0x3d186804	0.037208572
28	0xbba19d86	-0.0049321083
29	0x3de0c72e	0.109754905
30	0x3d89a212	0.067203656
31	0x3ce1f1ee	0.027581181
32	0x3d3504f3	0.044194173
33	0x3db2f83a	0.08738752
34	0xbb050515	-0.0020297219
35	0x3d35835f	0.04431474
36	0x3d470580	0.04858923
37	0x3e3f1bbf	0.18662928
38	0xbcac62a6	-0.021043133
39	0x3ccbad33	0.024862861
40	0x3d2f70d3	0.042832207
41	0x3dcdfce4	0.10058001
42	0x3c8bb51e	0.017054137
43	0x3e30a943	0.17252068
44	0x3dff06b6	0.12452452
45	0x3d81314f	0.06308233
46	0x3dbd7204	0.092502624
47	0xbc528194	-0.012848277
48	0x3d3504f3	0.044194173
49	0x3b86c7af	0.0041131596
50	0x3dc7f63e	0.09763764
51	0x3daf2487	0.08551889
52	0x3e1beeca	0.1522781
53	0x3ce04e4d	0.027381087
54	0x3dd42714	0.10359016
55	0x3dc838b5	0.09776441
56	0x3d3221ba	0.043489195
57	0x3dac5f28	0.08416587
58	0x3e14c6ba	0.14528933
59	0x3d209771	0.039206926
60	0x3c6cd943	0.014456096
61	0x3c504c2b	0.012713472
62	0x3cd4214d	0.025894785
63	0x3d3504f3	0.044194173
64	0xbd502337	-0.050814833
65	0x3db348e2	0.08754136
66	0x3b49e2b8	0.00308053
67	0x3dc218d0	0.09477389
68	0x3d827cde	0.06371473
69	0x3da17012	0.07882704
70	0x3d8ba26d	0.0681809
71	0xbd42c9a4	-0.04755558
72	0x3e1a7bfb	0.15086357
73	0x3c98e2bd	0.018662805
74	0x3d26f49c	0.04076062
75	0xbd496653	-0.04916985
76	0x3db8423f	0.089970104
77	0x3ca540d7	0.02017252
78	0xbd1f4d84	-0.038892284
79	0x3d393f7f	0.04522657
80	0x3d900638	0.07032436
81	0xbc0dc4b1	-0.008652852
82	0xbd8f7a6a	-0.070057705
83	0x3dab3fef	0.08361804
84	0xbc86d9c8	-0.016461268
85	0x3dbaa8a1	0.09114195
86	0x3d876b1e	0.06612228
87	0x3c927f4f	0.017882971
88	0xbd27291a	-0.040810682
89	0x3d81719f	0.063205
90	0xbd26a50d	-0.04068475
91	0xbc361223	-0.011112723
92	0xbc45dbf7	-0.0120763695
93	0x3b9dc303	0.004814507
94	0x3d857679	0.065167375
95	0x3d29a493	0.041416716
96	0x3d8c9739	0.06864781
97	0x3d2ee2c0	0.042696714
98	0x3d01a40c	0.031650588
99	0x3d9eb9da	0.07750292
100	0x3e120acf	0.14261936
101	0x3d6971a9	0.05699316
102	0x3da96022	0.08270289
103	0x3db4b39b	0.088233195
104	0xbd052130	-0.032502353
105	0x3d3504f3	0.044194173
106	0x3d9f40de	0.07776044
107	0x3d6fedd0	0.058576405
108	0x3c04f0c4	0.008114044
109	0x3ca62082	0.020279173
110	0x3cdb669a	0.026782323
111	0xbdd1f0a2	-0.10250975
112	0x3d908ae7	0.070577435
113	0xbc0a025d	-0.008423415
114	0xbda4b453	-0.080422066
115	0xbd13b6b2	-0.036062904
116	0x3d9c48a6	0.07631044
117	0x3bc10222	0.005890147
118	0x3e7495fe	0.23885342
119	0xbb4a2617	-0.0030845457
120	0x3cc20e9f	0.023688613
121	0xbd50b868	-0.050957114
122	0x3ce35614	0.027751006
123	0xbd855bf0	-0.06511676
124	0x3be0c4e9	0.006859411
125	0xbbb54721	-0.005532161
126	0xbd07af84	-0.03312637
127	0x3c9c0259	0.019044088
128	0xbbccf9ff	-0.006255388
129	0x3db7896e	0.089617595
130	0x3e010b6b	0.12602012
131	0x3b2158ab	0.00246195
132	0xbc369867	-0.011144734
133	0x3dc4b54a	0.09604891
134	0x3d9f85e6	0.07789211
135	0x3db32a15	0.08748261
136	0x3d22f5e3	0.039785277
137	0x3d4b5704	0.04964353
138	0x3d39e124	0.045380726
139	0x3e2cf705	0.16891105
140	0x3e257eb5	0.16161616
141	0x3d81dd65	0.06341056
142	0x3d9b3b57	0.075796776
143	0xbccd94a8	-0.025095299
144	0x3d98d305	0.07462124
145	0x3d4f80bc	0.05065988
146	0x3dcd63ea	0.10028823
147	0x3d7568be	0.059914343
148	0xbcd6d404	-0.026224144
149	0x3cf54d30	0.029944032
150	0x3d9177e0	0.071029425
151	0x3d06e0af	0.03292912
152	0x3de1a169	0.11017115
153	0x3d114786	0.0354686
154	0xbb7c1e70	-0.003847029
155	0x3c2d0d82	0.010562303
156	0x3caf061c	0.021365218
157	0x3d0b77bd	0.03404974
158	0x3c77b180	0.015118003
159	0x3ba233df	0.004950031
160	0x3d3504f3	0.044194173
161	0x3d112583	0.035436165
162	0x3b661a3c	0.0035110852
163	0x3c8e2719	0.017352628
164	0x3c820db6	0.015875679
165	0xbced6196	-0.028977197
166	0x3d047037	0.03233358
167	0x3d9e8c78	0.07741636
168	0x3bf8b772	0.0075902278
169	0x3d5cdf28	0.053923756
170	0x3d5a2545	0.0532582
171	0xbd5f1cef	-0.054470953
172	0xbc5b711d	-0.0133936675
173	0xbd08707b	-0.033310395
174	0x3de1f637	0.1103329
175	0x3d822e95	0.06356541
176	0x3d3504f3	0.044194173
177	0x3d1a0d1d	0.037610162
178	0x3c6e7da4	0.014556322
179	0x3d13d19f	0.036088582
180	0xbd1144b1	-0.0354659
181	0x3dbf5534	0.09342423
182	0x3d5a5b6a	0.053309835
183	0x3d73b417	0.05949792
184	0xbc30b17f	-0.010784506
185	0x3d2e9df7	0.042631116
186	0x3cfce380	0.0308702
187	0x3ccee7f4	0.025257088
188	0x3d8beba0	0.06832051
189	0x3d97480d	0.073867895
190	0x3cef2df7	0.029196722
191	0x3d3504f3	0.044194173
192	0x3d5d6863	0.05405463
193	0xbc3878e3	-0.01125929
194	0x3d0feb6a	0.035136618
195	0xbd830836	-0.063980505
196	0x3b5fe113	0.0034161254
197	0x3dad4075	0.0845956
198	0x3d434546	0.047673486
199	0x3e4d7e86	0.20067796
200	0x3d650d77	0.055921044
201	0x3d9f9988	0.07792956
202	0x3d12e3d1	0.035861794
203	0xbcca556f	-0.024698941
204	0x3d71e96d	0.059060503
205	0x3e344b25	0.1760679
206	0x3baa82ea	0.0052035945
207	0x3d669897	0.056297865
208	0x3d956411	0.07294477
209	0x3d3f07aa	0.04663817
210	0xbd594119	-0.053040598
211	0x3d06f0bc	0.032944426
212	0x3d244bac	0.04011123
213	0xbcdd7411	-0.027032884
214	0x3dbfb752	0.093611374
215	0x3d00f26b	0.031481188
216	0x3db34ef5	0.08755294
217	0xbc288d34	-0.010287572
218	0x3d86f6fd	0.06590078
219	0x3d8c0154	0.06836191
220	0xbdec9b3e	-0.115530476
221	0x3d8c7345	0.068579234
222	0xbd82430a	-0.06360443
223	0x3d2c0add	0.042002548
224	0x3ced7d9a	0.028990556
225	0x3e12c4a1	0.1433282
226	0xbb86299b	-0.004094315
227	0xbde030db	-0.109468184
228	0x3d535f93	0.05160482
229	0x3cfa0ddc	0.030524187
230	0x3d153345	0.036425848
231	0xbd002a93	-0.031290602
232	0x3d758f26	0.05995097
233	0x3d3504f3	0.044194173
234	0x3da75cea	0.08172019
235	0x3d9a7305	0.075414695
236	0xbc3a5210	-0.011372104
237	0x3b668201	0.0035172703
238	0x3d97fa50	0.0742079
239	0x3d43e257	0.047823276
240	0x3d630204	0.055421844
241	0xbcc1adb5	-0.0236424
242	0x3d3504f3	0.044194173
243	0x3cd2d7f6	0.025737744
244	0xbbb7381c	-0.0055914056
245	0x3d3504f3	0.044194173
246	0x3cb29221	0.021798195
247	0x3d042616	0.032262884
248	0x3cec1763	0.028819745
249	0x3ca80cd0	0.020513922
250	0x3d476ae6	0.04868593
251	0x3ceff4ee	0.029291596
252	0x3e2676b1	0.16256215
253	0xbdc9e478	-0.0985803
254	0xbd1d1252	-0.03834755
255	0xbc87287d	-0.016498799

bias_mu f4 [256]
0	0xbe3b485f	-0.18289326
1	0xbe089220	-0.13336992
2	0xbd91f9d5	-0.0712773
3	0xbdc8c3d3	-0.098029755
4	0xbd4623a6	-0.04837384
5	0xbd28270b	-0.04105286
6	0xbc2e3fff	-0.010635375
7	0xbcb73662	-0.022364799
8	0xbd24c695	-0.040228445
9	0xbe14de97	-0.14538036
10	0xbcfdd0c1	-0.03098333
11	0xbdff8797	-0.124770336
12	0xbdfeaf9a	-0.12435837
13	0x3c32f14a	0.010921786
14	0xbcae9601	-0.021311762
15	0xbe095b46	-0.13413724
16	0x3ce5267c	0.027972452
17	0x3d3c6e33	0.04600353
18	0xbd3910ef	-0.045182165
19	0xbdb60b0d	-0.088888265
20	0xbdaec201	-0.08533097
21	0xbd226042	-0.03964258
22	0xbdb460b1	-0.08807505
23	0xbe280267	-0.16407166
24	0xbdff3ae5	-0.12462405
25	0xbe3cfae9	-0.1845509
26	0xbdf8fdc6	-0.121577784
27	0xbd06c090	-0.032898486
28	0xbd62f402	-0.055408485
29	0xbd90fa87	-0.07079034
30	0xbe0f21c8	-0.1397773
31	0xbdbd39b2	-0.0923952
32	0xbd30e6c8	-0.04318884
33	0xbbf181db	-0.0073702163
34	0xbd5945a8	-0.053044945
35	0x3b3c41a3	0.0028725646
36	0xbdf41792	-0.11918558
37	0xbe0dbbb0	-0.13841128
38	0xbcae7431	-0.021295639
39	0xbd07e5e2	-0.033178218
40	0xbd5cec8f	-0.053936537
41	0xbc105d39	-0.0088112885
42	0xbcb97bed	-0.0226421
43	0xbde131de	-0.109958395
44	0x3c10f44a	0.008847306
45	0xbe095c64	-0.1341415
46	0xbd699a72	-0.057032056
47	0xbe07180e	-0.1319277
48	0xbcf105c4	-0.029421695
49	0xbdcef9e8	-0.101062596
50	0xbe04cb18	-0.12968099
51	0xbc00deeb	-0.007865648
52	0x3d6ee5ff	0.05832481
53	0xbe172d57	-0.1476339
54	0xbb75027e	-0.0037385519
55	0xbe1f5835	-0.15560992
56	0xbd1e4c35	-0.038646895
57	0xbe00f313	-0.12592725
58	0xbdbbdec0	-0.091733456
59	0xbd011e45	-0.031523008
60	0xbb8fdc3e	-0.0043902686
61	0xbdeba0dd	-0.115052916
62	0xbe2b0968	-0.16702807
63	0xbe1c8682	-0.15285686
64	0xbd9772fd	-0.07394979
65	0xbdd65f28	-0.10467368
66	0xbe24636f	-0.16053556
67	0xbddb3f54	-0.10705438
68	0x3caf7935	0.0214201
69	0xbdde50d1	-0.10855258
70	0x3c853549	0.01626076
71	0xbd9ff4ed	-0.07810388
72	0xbdc3d10c	-0.09561357
73	0xbd25396d	-0.04033797
74	0xbd801310	-0.06253636
75	0xbdd2be0d	-0.102901556
76	0xbdeee41f	-0.116646044
77	0xbe2752b6	-0.16340145
78	0xbdab1ae6	-0.0835474
79	0xbe53d969	-0.20688404
80	0xbe12af17	-0.14324604
81	0xbd6948a3	-0.056954037
82	0xbddfe1d5	-0.10931746
83	0xbe179070	-0.14801192
84	0xbcf1fec4	-0.029540427
85	0xbe1df161	-0.1542411
86	0xbb564175	-0.0032692824
87	0xbc704a8c	-0.014666211
88	0xbe3ebb86	-0.18626222
89	0xbd3b3653	-0.045706104
90	0x3bea5f8b	0.007152503
91	0xbd3b1349	-0.04567269
92	0xbdf370c3	-0.11886742
93	0xbe24f1e0	-0.16107893
94	0xbe0056fc	-0.12533182
95	0xbdf8052a	-0.1211036
96	0xbcecb4e6	-0.028894853
97	0xbd4372b8	-0.047716826
98	0xbdb2bbda	-0.08727236
99	0xbe0c5d7d	-0.13707538
100	0xba9bf541	-0.0011898653
101	0xbe0de235	-0.13855822
102	0xbe1692e6	-0.14704475
103	0xbe2735cb	-0.16329114
104	0xbd8f6e2a	-0.07003434
105	0xbdb98a8b	-0.09059628
106	0xbe2d5731	-0.16927792
107	0xbd6c72c3	-0.057726633
108	0xbd836f31	-0.064176925
109	0xbbacce87	-0.0052736434
110	0xbb8bf395	-0.0042709806
111	0xbc3888a0	-0.011263043
112	0xbe0101a3	-0.1259828
113	0xbcd6db5e	-0.02622765
114	0xbd5f5dc4	-0.05453278
115	0xbc951205	-0.018197069
116	0xbd9d5490	-0.07682145
117	0xbd5b2ad9	-0.05350766
118	0xbda03140	-0.07821894
119	0xbd77d703	-0.060507786
120	0xbc3b0139	-0.011413866
121	0xbe236e89	-0.15960135
122	0xbd5a7611	-0.053335253
123	0xbcd65f0e	-0.026168372
124	0xbd511af8	-0.05105111
125	0xbd472bbc	-0.048625693
126	0x3d852215	0.06500641
127	0xbe2c6805	-0.16836555
128	0xbd8be618	-0.06830996
129	0xbd8da4f9	-0.06916232
130	0xbd877f03	-0.066160224
131	0xbd506507	-0.050877597
132	0xbe102e1b	-0.14080088
133	0xbe26af84	-0.16277891
134	0xbe4e42d4	-0.2014268
135	0x3c192197	0.009346387
136	0xbe084087	-0.13305865
137	0xbd54cee2	-0.05195511
138	0xbdeeaffe	-0.116546616
139	0xbce595fb	-0.028025618
140	0xbd96acc6	-0.07357173
141	0xbda01fb4	-0.07818547
142	0xbe075241	-0.13214971
143	0xbdd3bc9a	-0.10338707
144	0xbd7e0b69	-0.0620226
145	0xbd7e4bcb	-0.062084
146	0xbd0e7f0d	-0.034789134
147	0xbe1b4c85	-0.15165909
148	0xbda24ad9	-0.07924432
149	0xbcb105e8	-0.021609262
150	0xbdd79f64	-0.10528448
151	0xbe1eb8ec	-0.1550023
152	0xbd1521d6	-0.03640922
153	0xbc5c9dd7	-0.013465366
154	0xbdc9bf05	-0.09850887
155	0xbd18c106	-0.037293456
156	0xbe168349	-0.14698519
157	0x3c1b60ce	0.009483529
158	0xbdd34386	-0.103156134
159	0xbd60bfcf	-0.054870423
160	0xbde0bc77	-0.10973447
161	0xbc4d057f	-0.012513517
162	0x3c446474	0.0119868405
163	0x3c1e5fe3	0.009666416
164	0xbda81f02	-0.08209039
165	0xbd6d0249	-0.057863507
166	0xbdc6a0b8	-0.096986234
167	0xbdee1316	-0.11624734
168	0xbad06fb9	-0.0015902437
169	0xbdc98fa1	-0.09841848
170	0xbe04de07	-0.12975322
171	0xbe1c8788	-0.15286076
172	0xbdd4c7cf	-0.10389673
173	0xbd3da525	-0.046300072
174	0xbe045309	-0.129223
175	0xbe021d17	-0.1270641
176	0x3cbb248a	0.022844572
177	0xbda3a67e	-0.0799074
178	0xbd074d37	-0.033032622
179	0xbd0b47f2	-0.03400416
180	0xbd50b0f0	-0.05094999
181	0xbd232d0b	-0.03983788
182	0xbd4bb577	-0.049733605
183	0xbcca3d5d	-0.024687463
184	0xbe09d26e	-0.13459179
185	0xbdb0dd99	-0.086360164
186	0xbd789d3a	-0.060696818
187	0xbdb4d645	-0.08829931
188	0xbddf4f9e	-0.10903858
189	0xbd963d01	-0.07335854
190	0xbe2fbf10	-0.17162728
191	0xbd1d2d16	-0.038373075
192	0xbad53779	-0.0016267142
193	0x3d0a6412	0.03378684
194	0x3c16898e	0.009188069
195	0xbd6e59d3	-0.05819113
196	0xbdb3d600	-0.08781052
197	0x3c21b1a8	0.009869017
198	0xbdb1fa08	-0.08690268
199	0x3d8091d9	0.06277818
200	0xbcfa9e64	-0.030593105
201	0xbe0276f0	-0.12740684
202	0xbba784c3	-0.005112262
203	0xbd45d336	-0.04829713
204	0xbdd516ee	-0.10404764
205	0xbcc50839	-0.024051772
206	0xbcf81047	-0.0302812
207	0x3e80ef10	0.2518239
208	0xbe477c4d	-0.1948101
209	0xbdd95e62	-0.10613705
210	0xbdbf0910	-0.093279004
211	0xbdbb007b	-0.09130951
212	0xbd6b4eed	-0.057448316
213	0xbd44a1d9	-0.048005912
214	0xbd864652	-0.06556381
215	0xbdf9bd78	-0.121943414
216	0xbdb855c2	-0.09000732
217	0xbe0995c2	-0.13436034
218	0xbe3d2067	-0.18469392
219	0xbe10b518	-0.14131582
220	0xbd8645c0	-0.065562725
221	0xbd7a70fb	-0.061142903
222	0xbd49e1ec	-0.04928772
223	0xbd198304	-0.03747846
224	0xbd63a4ac	-0.055576965
225	0x3c5aa417	0.013344786
226	0xbdad6936	-0.08467333
227	0xbdf84267	-0.1212204
228	0xbe28bab9	-0.16477479
229	0xbd569625	-0.052389283
230	0xbddf2c4d	-0.108971216
231	0xbd3e1397	-0.0464054
232	0xbdf98035	-0.12182657
233	0xbd54106f	-0.051773485
234	0xbd6655c4	-0.056234136
235	0xbdbe821b	-0.093021594
236	0xbe2130db	-0.15741293
237	0xbdca65ee	-0.09882723
238	0xbd6a0cd1	-0.05714113
239	0xbd825756	-0.06364314
240	0xbd6ee168	-0.058320433
241	0xbd118acc	-0.035532758
242	0xbdce0a24	-0.10060528
243	0xbd973772	-0.07383622
244	0xbe2027d2	-0.1564019
245	0xbd7920d4	-0.060822323
246	0xbe14fb6b	-0.14549033
247	0xbe000c10	-0.12504601
248	0xbe365e52	-0.17809418
249	0xbbfe85c5	-0.0077674114
250	0xbdc4637f	-0.0958929
251	0xbd65f244	-0.056139246
252	0xbd763c99	-0.060116384
253	0xbd53eb27	-0.05173793
254	0xbdba45b6	-0.090953276
255	0xbe0c9a40	-0.13730717

bias_sigma f4 [256]
0	0xbccdbd14	-0.025114574
1	0x3d2567ac	0.040382072
2	0x3c9cb65c	0.019129924
3	0x3c239837	0.009985021
4	0xbc81e6e7	-0.015857173
5	0xba8ad3c5	-0.0010591677
6	0x3d166e69	0.03672639
7	0x3d017f68	0.031615645
8	0xbb9bbbb0	-0.0047525987
9	0xbc144329	-0.009049215
10	0x3dfb878d	0.12281714
11	0x3d809101	0.06277657
12	0xbdf5d6cd	-0.120038606
13	0x3d684cd9	0.056713913
14	0x3db1d6ca	0.08683546
15	0x3dff0ec5	0.12453989
16	0x3cacf152	0.021111164
17	0x3dcfc177	0.10144322
18	0xbd4cd7f8	-0.05001065
19	0xbd5248b3	-0.051338863
20	0xbc65637c	-0.01400077
21	0x3cfb33e9	0.030664401
22	0x3d32f140	0.043687105
23	0xbdde1ebc	-0.10845706
24	0xbcd7eb02	-0.026357178
25	0xbe116c9e	-0.1420159
26	0x3e18e3de	0.14930674
27	0x3db37ea7	0.087643914
28	0x3e1c8238	0.1528405
29	0xbbc1a5ad	-0.0059096427
30	0x3b00fa2b	0.0019680362
31	0x3dbd8cd1	0.09255374
32	0x3d0870b7	0.03331062
33	0x3d780c61	0.06055868
34	0xbcfc4c00	-0.030797958
35	0xbc97d69d	-0.018534953
36	0xbc07eb07	-0.008295781
37	0x3ddd2088	0.107972205
38	0x3c712ce8	0.014720179
39	0x3dd0d481	0.10196782
40	0xbd10d691	-0.035360876
41	0x3d9f4e02	0.07778551
42	0x3c9e307b	0.019310227
43	0x3ce6b98b	0.028164646
44	0xbcb79e8c	-0.022414468
45	0x3d2a3c69	0.041561518
46	0x3c295609	0.010335454
47	0x3df5649e	0.11982082
48	0x388f6c24	6.838914e-05
49	0x3c5fa8fb	0.013651128
50	0x3caf20b6	0.021377902
51	0x3d1ab2f0	0.037768304
52	0xbc3b0b9a	-0.01141634
53	0x3e214737	0.15749823
54	0xb9f5e1f7	-0.00046898398
55	0x3bc52fb3	0.006017649
56	0x3d922e9f	0.071377985
57	0xbd8668b4	-0.06562939
58	0xbd136b76	-0.035991155
59	0xbd7e1495	-0.062031347
60	0x3d6919fd	0.05690955
61	0x3cd34ead	0.025794351
62	0x3d825888	0.06364542
63	0x3debeb15	0.11519448
64	0x3d6a16ac	0.057150528
65	0x3e07ce4d	0.13262291
66	0xbdb9d81f	-0.09074425
67	0x3d01ed2a	0.031720318
68	0xbbb63d9b	-0.005561543
69	0xbb010340	-0.0019685775
70	0xbb03048f	-0.001999173
71	0xbcf6d72c	-0.030131899
72	0x3d84e079	0.06488127
73	0x3cb42dc8	0.021994486
74	0xbcb5b6af	-0.022181837
75	0x3d833479	0.06406493
76	0x3b492a15	0.003069525
77	0x3dafadc3	0.08578064
78	0x3da11944	0.07866147
79	0xbdc87b38	-0.09789127
80	0xbc248d63	-0.010043475
81	0xbd48ecaf	-0.049053844
82	0x3cc45e92	0.023970876
83	0xbbb94b9a	-0.0056547644
84	0x3d980640	0.07423067
85	0x3dba290d	0.09089861
86	0xbacdc310	-0.0015698392
87	0x3a69d6ef	0.0008920272
88	0x3e25ff48	0.16210663
89	0x3dcfcec0	0.10146856
90	0x3c759af8	0.014990561
91	0x3d204e80	0.039137363
92	0x3d069921	0.03286088
93	0xbd37b265	-0.044847865
94	0xbd7b8b7e	-0.061412327
95	0xbd9a9c35	-0.075493254
96	0x3c5e970d	0.013585818
97	0x3c0209e8	0.007936932
98	0x3e3cdaa3	0.18442778
99	0x3cc03333	0.023461914
100	0x3c471313	0.012150544
101	0x3ccd2afa	0.025044907
102	0x3d4bd08b	0.04975943
103	0xbd20d623	-0.039266717
104	0x3d9e1ed0	0.07720721
105	0xbba02762	-0.0048875073
106	0xbb0537b8	-0.00203274
107	0x3db1e7f4	0.0868682
108	0xbd00ce2a	-0.031446613
109	0x3c6e58ac	0.014547508
110	0xbc5a54a8	-0.013325848
111	0xbd58c2a1	-0.052919988
112	0x3da9b696	0.08286779
113	0x3d1a3de0	0.037656665
114	0x3df9e697	0.12202185
115	0x3d4256bd	0.047446
116	0xbc10096e	-0.008791311
117	0xbbcf8b31	-0.0063337316
118	0x3e01fcd9	0.1269411
119	0x3dd481aa	0.10376294
120	0x3d8ee5a1	0.06977392
121	0x3ce535e4	0.027979799
122	0xbccfc044	-0.025360234
123	0x3c231501	0.009953738
124	0x3d00e600	0.031469345
125	0xbda08859	-0.07838506
126	0xbdc3feac	-0.09570059
127	0x3dacce3a	0.08437772
128	0x3c7fb8fb	0.015608068
129	0xbdd038cb	-0.101670824
130	0x3dccd98e	0.10002433
131	0x3b941274	0.0045188013
132	0xbc35d18b	-0.011097322
133	0xbd9443b4	-0.07239476
134	0xbb2987da	-0.0025868327
135	0xbc5cb175	-0.013470043
136	0x3d92a08f	0.0715953
137	0xbbb8dfb3	-0.0056419014
138	0xbcae5f59	-0.0212857
139	0x3db7401e	0.08947776
140	0xbd1b17a4	-0.037864342
141	0xbc3a0c6f	-0.011355503
142	0x3e180adc	0.14847893
143	0x3baab57d	0.0052096234
144	0x3da39c6c	0.079888195
145	0xbb11fecb	-0.0022277113
146	0x3d4ece6c	0.050489828
147	0xbce8195c	-0.028332405
148	0x3db4561b	0.08805486
149	0x3d9ea76a	0.077467754
150	0x3dedff14	0.11620918
151	0x3d38b2ad	0.045092274
152	0x3e1108d0	0.14163518
153	0xbc67976c	-0.014135223
154	0x3d999dc7	0.07500797
155	0x3d8d3ce1	0.06896377
156	0xbc124589	-0.008927711
157	0x3c6260cc	0.0138170235
158	0x3b7439a2	0.0037265797
159	0x3cc5e986	0.024159204
160	0xbd4b672e	-0.049658947
161	0xbc43ec4f	-0.011958196
162	0x3c1f8a5f	0.00973758
163	0xbccaac05	-0.024740228
164	0xbd992548	-0.07477814
165	0xbc2ace13	-0.0104251085
166	0x3d8138d0	0.06309664
167	0xba8d6684	-0.0010787998
168	0x3cd3c216	0.025849383
169	0xbd2c6980	-0.0420928
170	0xbcd082b5	-0.025452951
171	0x3d94001e	0.07226585
172	0x3de92bb7	0.11385291
173	0xbcabfd86	-0.020994913
174	0x3de358f4	0.11100951
175	0xbbd71661	-0.006563947
176	0xbad76bcc	-0.0016435324
177	0x3d109fd5	0.035308678
178	0x3c88e29a	0.016709615
179	0xbc99505b	-0.018715074
180	0xbd521de0	-0.051298022
181	0xbd2e1b3a	-0.042506434
182	0xbc828e05	-0.01593686
183	0x3d2c9932	0.042138286
184	0xbcbf5353	-0.023355162
185	0xba91f4e7	-0.0011135609
186	0x3e3c52ab	0.1839091
187	0x3d85fe98	0.065427005
188	0x3ca3196f	0.019909589
189	0x3db206a6	0.08692674
190	0x3d9f7c52	0.07787384
191	0x3d02533f	0.03181767
192	0x3c3f8b39	0.011690908
193	0x3d35ebed	0.04441445
194	0x3ca5c271	0.020234318
195	0x3d406b2c	0.046977207
196	0x3e059b4e	0.13047525
197	0x3b24f7d4	0.002517213
198	0x3c477d20	0.012175828
199	0x3d2df259	0.04246745
200	0x3d3878ec	0.045037195
201	0x3d4fe288	0.050753146
202	0x3d1c26d5	0.03812297
203	0x3d72edd5	0.059308846
204	0x3e033712	0.12813976
205	0x3cc83b86	0.024442445
206	0x3db2856f	0.08716857
207	0xbac262ff	-0.0014830529
208	0xbc608910	-0.013704553
209	0xbd9be4e2	-0.07612015
210	0x3b9d97bc	0.004809348
211	0xbc4f4b3d	-0.012652216
212	0xbe23ed0d	-0.16008396
213	0x3dda8f7a	0.10671897
214	0xbd0cc532	-0.034367748
215	0x3cc10c1b	0.023565343
216	0x3bf97ee0	0.0076140016
217	0x3cf0dda4	0.029402561
218	0xbcbfb794	-0.023402967
219	0x3d369842	0.044578798
220	0x3c4c7a67	0.012480355
221	0x3d7139b7	0.05889293
222	0x3c87c085	0.016571293
223	0x3c8455ff	0.016154287
224	0x3d48da4d	0.049036313
225	0x3c27e8bd	0.01024836
226	0x3d839895	0.06425587
227	0xbbfc55ce	-0.0077006584
228	0x3d2e6f77	0.04258677
229	0xbd2beacf	-0.041971978
230	0xbb6c78b2	-0.0036082682
231	0xbd881faf	-0.06646668
232	0x3d8cc53f	0.06873559
233	0x3ae4aa18	0.0017445711
234	0xbd8a7556	-0.06760661
235	0x3d94987f	0.07255649
236	0x3cb67f6f	0.022277562
237	0x3da8c449	0.082405634
238	0xbd0ed2ba	-0.034868933
239	0xbc9fca60	-0.01950568
240	0x3e43f83d	0.19137664
241	0x3ac4cb72	0.0015014245
242	0xba8a230c	-0.0010539009
243	0x3d3dc2a8	0.046328217
244	0x3de266c8	0.1105476
245	0x3cc1da3f	0.023663638
246	0xb99ccd36	-0.00029907533
247	0xbd712409	-0.058872256
248	0x3de172a6	0.110081956
249	0x3b001283	0.0019542284
250	0x3bbbe1b0	0.005733691
251	0x3dcdf66f	0.10056769
252	0x3db97ff6	0.0905761
253	0x3da2b1bf	0.079440586
254	0xbd564fc5	-0.052322168
255	0xbc6a1a30	-0.01428847

weight_epsilon f4 [256, 128]
0	0x3f0d63f9	0.5523067
1	0xbd14daec	-0.036341593
2	0x3f7bd4b9	0.98371464
3	0x3f388acd	0.72086793
4	0xbf47eb1b	-0.7809312
5	0xbeac1c6b	-0.3361543
6	0x3f663801	0.89929205
7	0xbf30c759	-0.6905418
8	0xbf04bf96	-0.51854837
9	0x3ec78a04	0.38972485
10	0xbf0af95f	-0.5428676
11	0xbf110a21	-0.5665608
12	0x3ef095f7	0.46989414
13	0xbf3573bc	-0.7087972
14	0x3f220fdb	0.63305444
15	0xbf88345a	-1.0640976
16	0x3ed76891	0.42071965
17	0xbf1b7d15	-0.60737735
18	0x3e51af79	0.20477094
19	0x3dbc118d	0.09183035
20	0xbf767ce3	-0.9628431
21	0x3f125265	0.57156974
22	0x3e957bf7	0.2919614
23	0x3f762b09	0.96159416
24	0x3f4fc246	0.8115581
25	0xbec545ca	-0.38529807
26	0xbf2fca61	-0.6866818
27	0x3e942fcc	0.28942716
28	0xbeaaf5ca	-0.33390647
29	0xbedd6910	-0.4324422
30	0xbf122eb2	-0.571025
31	0xbf2a79f2	-0.66592324
32	0xbf5ec013	-0.8701183
33	0x3e9b65e7	0.30351183
34	0x3f39c1a7	0.72561115
35	0x3f2c7f3c	0.67381644
36	0x3e823bd9	0.25436285
37	0x3e38b20c	0.1803667
38	0x3f00d656	0.5032705
39	0xbf38b2e8	-0.7214799
40	0xbf789a6c	-0.9711063
41	0xbe5be881	-0.21475412
42	0xbe70e7e4	-0.23525959
43	0x3f65cc41	0.8976479
44	0x3ee4efe3	0.4471427
45	0x3f44731c	0.7673814
46	0xbf12ee5f	-0.57394975
47	0xbefccf63	-0.49376974
48	0x3f503074	0.81323934
49	0xbef6cdc0	-0.4820385
50	0xbf01bfef	-0.5068349
51	0x3ee6f893	0.45111522
52	0x3e14e26b	0.14539497
53	0xbf34c48d	-0.7061241
54	0x3f431211	0.7619944
55	0x3ef6a224	0.48170578
56	0xbee249ac	-0.44196832
57	0xbef1fd1a	-0.47263414
58	0x3f9082ec	1.1289954
59	0xbf4649d7	-0.7745642
60	0xbde2f97b	-0.11082741
61	0xbf4c3551	-0.79768854
62	0xbf413b32	-0.7548095
63	0x3f81d746	1.0143821
64	0x3f3ff717	0.74986404
65	0x3f25ff55	0.6484273
66	0x3f1c755f	0.61116594
67	0xbea72cb9	-0.32651308
68	0xbe361261	-0.17780448
69	0x3e9b96a4	0.30388367
70	0x3f94d73a	1.1628182
71	0xbf7235be	-0.94613254
72	0xbf9efed3	-1.2421516
73	0xbf49faee	-0.78898513
74	0x3f384fa2	0.7199651
75	0xbf27144a	-0.65265334
76	0x3e05af95	0.1305526
77	0x3f57f1bb	0.84353226
78	0xbf9d450c	-1.2286696
79	0x3ec0f59d	0.37687388
80	0x3f0a8922	0.541155
81	0xbf36b8cf	-0.71375746
82	0xbecd63a5	-0.40115085
83	0x3f28fd64	0.66011643
84	0x3eb86e67	0.3602173
85	0xbf7127ab	-0.94201154
86	0x3f70982a	0.93982184
87	0x3f95bb01	1.1697694
88	0x3e699187	0.2280942
89	0x3f32c498	0.6983123
90	0xbe90cc7a	-0.28281003
91	0xbf0765f9	-0.5288997
92	0xbf705e1a	-0.9389359
93	0xbf148a6b	-0.5802371
94	0xbf52d652	-0.82358277
95	0x3e1b7f96	0.15185389
96	0xbe5804d5	-0.21095593
97	0xbf212566	-0.6294769
98	0xbe409b5a	-0.18809262
99	0xbed52d60	-0.4163618
100	0x3f816354	1.0108438
101	0xbf6b29e7	-0.9186081
102	0x3d96c2fd	0.0736141
103	0x3f156032	0.5834991
104	0x3f1a7879	0.60340077
105	0xbf40c76e	-0.75304306
106	0x3f21b76a	0.6317049
107	0x3f51d05c	0.81958556
108	0xbea2c8d8	-0.31793857
109	0x3ee5c3fc	0.44876087
110	0xbe96a55c	-0.29423034
111	0x3f36af36	0.713611
112	0xbf217bd3	-0.63079566
113	0x3ec79e61	0.3898802
114	0xbeb9f4ab	-0.3631948
115	0xbef1a685	-0.47197357
116	0xbf570c8f	-0.8400354
117	0x3f4655f0	0.7747488
118	0xbf6516ed	-0.89488107
119	0x3f1f1d9e	0.6215457
120	0x3f784f16	0.96995676
121	0x3f08b44b	0.53400105
122	0xbf825af7	-1.018401
123	0x3ebd17ef	0.36932322
124	0xbf606964	-0.87660813
125	0x3f81d1b6	1.0142124
126	0xbf54feb9	-0.83201176
127	0xbed46ca7	-0.41489145
128	0xbef68dfd	-0.48155203
129	0x3d01c923	0.03168596
130	0xbf5b91ca	-0.8576933
131	0xbf20e6a4	-0.6285193
132	0x3f2e4eac	0.68088794
133	0x3e960ff1	0.29309037
134	0xbf48b9db	-0.7840859
135	0x3f1a21cb	0.60207814
136	0x3ee77c0f	0.45211837
137	0xbeadfa05	-0.33979812
138	0x3ef25747	0.47332212
139	0x3efceaf5	0.49398008
140	0xbed1c3d3	-0.40969715
141	0x3f1e34ea	0.6179949
142	0xbf0d4cf3	-0.5519554
143	0x3f6d82e7	0.92777866
144	0xbebbd021	-0.36682227
145	0x3f0791c0	0.5295677
146	0xbe36d2b9	-0.17853822
147	0xbda3f9bd	-0.08006618
148	0x3f56e92f	0.8394956
149	0xbeff2761	-0.4983473
150	0xbe82558c	-0.25455892
151	0xbf56a1d2	-0.8384067
152	0xbf3524b6	-0.7075914
153	0x3eac0020	0.33593845
154	0x3f19453c	0.5987127
155	0xbe8133ef	-0.25234935
156	0x3e950f0f	0.2911305
157	0x3ec10bca	0.37704307
158	0x3efee922	0.4978724
159	0x3f14a315	0.58061343
160	0x3f4236dc	0.7586496
161	0xbe877d8a	-0.26462966
162	0xbf21f5ab	-0.63265485
163	0xbf16661a	-0.58749545
164	0xbe631986	-0.22177705
165	0xbe2108db	-0.15726034
166	0xbee0aa19	-0.43879774
167	0x3f21099c	0.6290529
168	0x3f58c158	0.8467002
169	0x3e3fbc7f	0.1872425
170	0x3e520b41	0.20512106
171	0xbf485be8	-0.7826524
172	0xbec79bc6	-0.38986033
173	0xbf2b4870	-0.66907406
174	0x3f001baf	0.5004224
175	0x3edc6c58	0.4305141
176	0xbf3584c6	-0.7090572
177	0x3ed72fb0	0.4202857
178	0x3ee24171	0.44190553
179	0xbec961c2	-0.39332396
180	0xbe01cfac	-0.12676877
181	0x3f1d9c2c	0.61566424
182	0xbf2a149f	-0.66437715
183	0xbed709ab	-0.41999564
184	0x3ec54c71	0.38534883
185	0x3ed2fcf3	0.4120861
186	0xbf7bff30	-0.9843626
187	0x3f2ce2dd	0.67533666
188	0x3dc5e5ba	0.096629575
189	0x3f320c32	0.6954986
190	0x3f287a13	0.6581127
191	0xbf626a23	-0.884432
192	0xbf275f7d	-0.6538008
193	0xbf10bb5c	-0.5653589
194	0xbf086a3b	-0.53287095
195	0x3e91c223	0.28468427
196	0x3e1ebf3c	0.15502638
197	0xbe87a808	-0.26495385
198	0xbf81c5ea	-1.0138524
199	0x3f532e56	0.8249258
200	0x3f8aa07c	1.0830226
201	0x3f301ae1	0.68791014
202	0xbf20b30d	-0.6277321
203	0x3f11acd5	0.56904346
204	0xbde91e90	-0.113827825
205	0xbf3c47b8	-0.73546934
206	0x3f891f4d	1.0712677
207	0xbea83d67	-0.32859346
208	0xbef19390	-0.47182894
209	0x3f1f5058	0.6223197
210	0x3eb313cb	0.34976038
211	0xbf135747	-0.5755505
212	0xbea0cde1	-0.31407073
213	0x3f5242dc	0.8213327
214	0xbf51c5be	-0.81942356
215	0xbf828c83	-1.0199131
216	0xbe4ba586	-0.19887361
217	0xbf1bddce	-0.6088532
218	0x3e7c7f73	0.24657993
219	0x3eec1b05	0.46114364
220	0x3f51931e	0.8186511
221	0x3f0182f2	0.5059043
222	0x3f37d3cd	0.7180756
223	0xbe0793ee	-0.13240024
224	0x3e3c5860	0.18393087
225	0x3f0c8087	0.5488362
226	0x3e27eeb5	0.16399653
227	0x3eb9de1d	0.3630227
228	0xbf619ff6	-0.88134706
229	0x3f4d0995	0.80092746
230	0xbd8372ae	-0.06418358
231	0xbf023d56	-0.5087484
232	0xbf06ae87	-0.5261006
233	0x3f281523	0.6565725
234	0xbf0cffd6	-0.55077875
235	0xbf36ef66	-0.71459043
236	0x3e8dee3d	0.27720824
237	0xbec854b3	-0.3912712
238	0x3e8358d8	0.2565372
239	0xbf1f47fa	-0.622192
240	0x3f0ccbe1	0.54998595
241	0xbeae0bc7	-0.3399336
242	0x3ea22226	0.31666678
243	0x3ed2b176	0.41151017
244	0x3f3b7fe9	0.7324205
245	0xbf2ced69	-0.6754976
246	0x3f47bdd0	0.78024006
247	0xbf0abb55	-0.54192096
248	0xbf587fa9	-0.84569794
249	0xbeee6201	-0.46559146
250	0x3f634fc8	0.8879361
251	0xbea4de82	-0.3220101
252	0x3f43a9b0	0.764308
253	0xbf626070	-0.884284
254	0x3f39b570	0.72542477
255	0x3eb93614	0.3617407
