save/model/lunarlander_dqn_noisy_hid_64_64.pth (torch_old, 59495 bytes, 18 tensors)

weight f4 [64, 8]
0	0xbe3a64b7	-0.18202482
1	0xbf969d03	-1.1766666
2	0xbe0e0b8b	-0.13871591
3	0xbee962bd	-0.45583144
4	0x3e1e29be	0.15445611
5	0x3f6dd33b	0.9290044
6	0x3f03874b	0.51378316
7	0xbec4bbd6	-0.38424557
8	0xbec3df4a	-0.38256294
9	0x3e825f7b	0.2546347
10	0x3f2a38fe	0.66493213
11	0xbe31a181	-0.17346765
12	0xbf064020	-0.52441597
13	0x3f74951f	0.9554004
14	0x3f3e9cc7	0.74457973
15	0xbe93f59f	-0.28898332
16	0x3f89a7df	1.0754355
17	0xbfa4ac47	-1.2865075
18	0x3e5a1b0b	0.21299379
19	0x3ec0595c	0.37568176
20	0x3f755f4b	0.9584853
21	0x3e310d1f	0.17290162
22	0xbd04e37b	-0.032443505
23	0xbebfc8a2	-0.37457758
24	0xbea91ba6	-0.33028907
25	0x3e532d9c	0.20622867
26	0x3e309bbc	0.17246908
27	0x3f7e06f6	0.9922937
28	0xbe963074	-0.29333842
29	0x3fc34877	1.525649
30	0x3e92d1ec	0.28675783
31	0x3ec7e8cb	0.39044794
32	0xbe28b2a3	-0.16474395
33	0xbd4b38f6	-0.04961487
34	0xbf49d3ed	-0.78839
35	0x3edd0914	0.4317099
36	0x3f5cb170	0.8620825
37	0x3db30f99	0.087432094
38	0x3efe8cf3	0.4971691
39	0xbef28129	-0.47364166
40	0xbe5c6094	-0.21521217
41	0x3e6c7627	0.23091947
42	0x3e4c2eb6	0.19939694
43	0xbeca71f1	-0.39540055
44	0xbf011ac0	-0.5043144
45	0x3e80c492	0.2514997
46	0x3ee319c4	0.44355595
47	0xbf8c4509	-1.0958568
48	0x3f361478	0.7112498
49	0xbe3e4b55	-0.18583424
50	0xbe5cdbf5	-0.21568282
51	0x3eeb5b90	0.45968294
52	0xbeb8f7e4	-0.36126626
53	0xbf2d83c6	-0.67779195
54	0xbe1ad329	-0.15119614
55	0xbf98c3ed	-1.1934792
56	0x3e2f9115	0.17145188
57	0x3e577a97	0.21042858
58	0x3e97aa72	0.29622227
59	0x3f0b075c	0.54308105
60	0xbedc872d	-0.4307188
61	0xbf3a4dab	-0.7277476
62	0x3ea97233	0.3309494
63	0xbeb3387b	-0.3500403
64	0xbe9a5120	-0.30140018
65	0x3ef56681	0.47929767
66	0xbe5981d6	-0.21240935
67	0xbf11ce21	-0.5695515
68	0x3eefe5bc	0.4685496
69	0x3f0acff9	0.5422359
70	0xbce8e65f	-0.028430162
71	0x3cc61c29	0.02418335
72	0x3d1c53c3	0.03816582
73	0x3d308c80	0.04310274
74	0x3dcaa6e1	0.09895111
75	0x3ed908e3	0.42389593
76	0xbd53ab91	-0.05167729
77	0x3e836968	0.25666356
78	0x3e607132	0.2191818
79	0xbf9d545c	-1.229137
80	0xbf64b7bc	-0.89342856
81	0xbed79eb6	-0.42113274
82	0xbf376c35	-0.71649486
83	0x3fd0601e	1.6279333
84	0xbf94ad77	-1.1615437
85	0xbe0a7797	-0.13522182
86	0xbe1a7d9d	-0.1508698
87	0xbf100c1e	-0.5626849
88	0xbf4c87b8	-0.7989459
89	0x3ed61c61	0.41818526
90	0x3ef26fc9	0.4735091
91	0xbf1b19cb	-0.6058623
92	0x3f312930	0.6920347
93	0xbce82a67	-0.028340532
94	0xbf8fa3aa	-1.1221821
95	0x3ed2f8d0	0.41205454
96	0xbe56a62d	-0.20961829
97	0x3da285c1	0.07935668
98	0x3e2da70d	0.16958256
99	0xbed62d76	-0.4183156
100	0x3f2e8f16	0.6818708
101	0x3e662d71	0.22478272
102	0x3ef87bc4	0.48531926
103	0xbf5817d5	-0.84411365
104	0xbea31311	-0.31850484
105	0xbc9845da	-0.018587995
106	0x3f97c088	1.1855631
107	0xbef2353f	-0.4730625
108	0x3f4fd57c	0.81185126
109	0x3e1e851a	0.15480462
110	0x3db7331c	0.08945295
111	0xbf89c6ee	-1.0763834
112	0xbe3c2a66	-0.18375549
113	0xbf0f0042	-0.5585977
114	0x3eb705c2	0.3574658
115	0xbf3a3a67	-0.72745365
116	0xbf825073	-1.0180801
117	0xbfdcc355	-1.7247111
118	0xbe75688e	-0.23965666
119	0x3eda4743	0.42632493
120	0x3dbfddfd	0.09368513
121	0x3df4b63a	0.119488195
122	0x3de4f80a	0.11180122
123	0xbf41b9f3	-0.7567436
124	0x3fd91ba8	1.6961565
125	0xbd0be95b	-0.034158092
126	0x3d9debf5	0.07711021
127	0xbdadc5ee	-0.08485018
128	0xbe4970ee	-0.19671986
129	0xbef63c14	-0.4809271
130	0x3e153d5a	0.14574185
131	0xbf9937f1	-1.1970197
132	0xbe378eb6	-0.17925534
133	0x3eddf161	0.4334822
134	0x3e97aef9	0.2962568
135	0x3f2cd610	0.67514133
136	0xbdb9be19	-0.090694614
137	0xbe5875c8	-0.2113868
138	0xbeca58aa	-0.3952077
139	0xbe4822aa	-0.19544473
140	0x3e076b89	0.13224615
141	0xbface83d	-1.3508373
142	0x3e32e265	0.17469175
143	0xbf00d540	-0.50325394
144	0xbf723a3f	-0.94620126
145	0xbe3d8b9a	-0.18510285
146	0xbe611559	-0.219808
147	0x3e5d2a56	0.21598181
148	0x3fbfca7b	1.4983667
149	0x3f63c01b	0.88965005
150	0x3e1123e8	0.14173853
151	0xbd558430	-0.052128017
152	0x3f42f404	0.7615359
153	0x3f40cde4	0.75314164
154	0xbe04827c	-0.12940401
155	0xbf3b48bb	-0.7315785
156	0x3f819a64	1.0125241
157	0x3f718b0b	0.9435279
158	0x3f62046a	0.88287985
159	0xbf342a4f	-0.7037706
160	0x3e21239e	0.15736243
161	0x3eac63d3	0.3366991
162	0x3f1d8b12	0.6154033
163	0xbd0d13de	-0.034442775
164	0xbf2ac6ff	-0.66709894
165	0x3eda2d48	0.42612672
166	0xbf2c1c1b	-0.67230386
167	0xbeb7aa08	-0.3587191
168	0x3e930d7e	0.2872123
169	0xbeca5cef	-0.39524028
170	0x3f2aaa9d	0.66666585
171	0xbebfe78d	-0.37481347
172	0xbf362748	-0.7115369
173	0xbe7954f1	-0.24348809
174	0x3eebc489	0.46048382
175	0x3db2a3e5	0.08722667
176	0xbf055f48	-0.5209851
177	0x3de57292	0.11203493
178	0x3f1eb5dc	0.61996245
179	0x3eb5ed1b	0.3553246
180	0xbf8aeded	-1.0853859
181	0x3f0a0370	0.53911495
182	0xbf0f5cd1	-0.56001
183	0xbee6ad59	-0.4505413
184	0xbe8bcbb7	-0.2730386
185	0xbe072f1c	-0.13201565
186	0xbe6a6f9e	-0.22894141
187	0xbd6591bd	-0.05604719
188	0xbf85122c	-1.0396171
189	0x3f33c640	0.7022438
190	0xbeaced16	-0.33774632
191	0xbf2ffc85	-0.6874469
192	0xbcdb64d4	-0.026781477
193	0x3ca87d8d	0.02056768
194	0xbfe1cddd	-1.764095
195	0x3ffe1d2d	1.9852654
196	0x3d0c572b	0.034262817
197	0x3e241aa9	0.16025795
198	0xbf3cfe8c	-0.7382591
199	0x3f5814d6	0.84406793
200	0xbe49a491	-0.19691683
201	0xbf93884d	-1.1525971
202	0xbc9b94fc	-0.01899194
203	0x3f3753f4	0.7161248
204	0x3f2d580e	0.67712486
205	0x3f533a2f	0.82510656
206	0x3dc36b80	0.095419884
207	0x3ed39693	0.41325817
208	0xbf464a36	-0.77456987
209	0x3f153834	0.58288884
210	0x3f873ce7	1.0565461
211	0xbe85c100	-0.2612381
212	0xbf9a5e87	-1.2060097
213	0xbd3b3ab3	-0.045710277
214	0xbea4b58a	-0.32169753
215	0xbef26593	-0.4734312
216	0xbdc30b71	-0.09523667
217	0x3e72e72f	0.23721002
218	0xbf0bb9bc	-0.54580283
219	0x3dde5714	0.108564526
220	0xbd0f7d62	-0.035031684
221	0x3fd7258d	1.6808335
222	0x3f20dea0	0.628397
223	0xbec1bb0e	-0.37838024
224	0x3e31b74d	0.1735508
225	0x3e5c885b	0.2153639
226	0x3eae52a2	0.3404742
227	0xbe9dc600	-0.30815125
228	0xbe88a0b4	-0.26685107
229	0xbef0df2c	-0.47045267
230	0xbd1149b0	-0.035470665
231	0xbf5592dc	-0.83427215
232	0xbd920174	-0.071291834
233	0x3d974efa	0.073881105
234	0x3e5a441e	0.21315047
235	0x3e86707a	0.26257688
236	0xbf95b525	-1.1695906
237	0xbfb3858d	-1.4025131
238	0xbefe7612	-0.49699455
239	0x3ee09682	0.43864828
240	0x3db5ce9c	0.08877298
241	0xbf0c68f6	-0.5484766
242	0xbe4b4d82	-0.19853786
243	0x3fd76715	1.6828333
244	0xbeb2fa7a	-0.34956723
245	0xbe199d37	-0.15001379
246	0xbc647191	-0.013943092
247	0xbefb76a7	-0.49113962
248	0xbd9b50dc	-0.07583782
249	0xbf758d03	-0.9591829
250	0x401ca4ee	2.4475665
251	0xbe9c9a5b	-0.30586514
252	0xbefad8e4	-0.489936
253	0x3f24a08e	0.64307487
254	0xbf305a54	-0.6888783
255	0x3f1128f0	0.5670309

bias f4 [64]
0	0xbe4c4224	-0.19947106
1	0xbf238b5e	-0.6388453
2	0x3cdbabd8	0.02681534
3	0xbf0273bd	-0.5095785
4	0x3ec95b3f	0.39327428
5	0xbde5d5a2	-0.11222388
6	0xbdea2b3d	-0.11434028
7	0x3ea25774	0.31707346
8	0xbe827f0a	-0.25487548
9	0x3e99e307	0.3005602
10	0xbf0034c6	-0.50080526
11	0xbe5a2d53	-0.21306352
12	0xbe033bac	-0.12815732
13	0x3c802047	0.015640391
14	0xbe3293dc	-0.17439216
15	0xbbd7a1ff	-0.0065805907
16	0xbf03095d	-0.5118616
17	0xbf45fa06	-0.7733463
18	0x3e19f07f	0.15033148
19	0xbe935fc8	-0.28784013
20	0xbe028fac	-0.12750119
21	0x3e75cad8	0.2400316
22	0xbf3aff53	-0.73045844
23	0x3ddceb86	0.1078711
24	0x3b32098b	0.0027166333
25	0xbe6e42a3	-0.23267607
26	0xbd2c1cc2	-0.042019613
27	0xbd406d32	-0.046979137
28	0xbdb44eb1	-0.08804072
29	0x3df145d2	0.11780895
30	0x3e2dc584	0.16969877
31	0xbd1dadb5	-0.038495738
32	0x3e36f96a	0.17868581
33	0x3cca41b4	0.024689533
34	0x3d820c73	0.06350031
35	0x3ea9ef43	0.33190355
36	0xbc914013	-0.017730748
37	0x3da3d920	0.08000398
38	0x3eb30b52	0.34969574
39	0xbe0e7b3e	-0.139142
40	0x3e7ecae0	0.24882078
41	0x3e0f6b0b	0.14005677
42	0x3c2fc678	0.010728471
43	0x3dda9a6b	0.10673984
44	0xbf20ffc0	-0.62890244
45	0xbcf76b1e	-0.030202445
46	0xbcc6e84f	-0.024280695
47	0xbebeba7d	-0.37251654
48	0xbdbf6060	-0.09344554
49	0x3db265b2	0.08710803
50	0x3ef01652	0.4689203
51	0x3e812c8c	0.252293
52	0x3da2ef39	0.07955784
53	0xbf118b69	-0.5685335
54	0x3d4ba233	0.049715232
55	0x3d0bd5dd	0.034139503
56	0x3df2b717	0.11851328
57	0xbd0d1714	-0.034445837
58	0xbb4421f0	-0.0029927455
59	0xbc58ffbf	-0.013244568
60	0x3eafbf3f	0.34325597
61	0xbe0ae6d5	-0.13564618
62	0xbd7d4935	-0.061837394
63	0xbe130796	-0.14358363

weight_mu f4 [64, 64]
0	0x3e74de59	0.23912944
1	0xbf1d3d28	-0.6142144
2	0xbfba8b48	-1.4573755
3	0xbf1d4270	-0.614295
4	0x3ed9a7c6	0.42510813
5	0x3eae41d3	0.34034595
6	0xbcc1fce0	-0.02368015
7	0x3ef5ba21	0.47993568
8	0x3ee12d9d	0.43980113
9	0x3ea54e9f	0.32286546
10	0xbdba63e7	-0.09101086
11	0x3f0fe1ac	0.5620372
12	0x3c6ac385	0.014328842
13	0xbf323280	-0.69608307
14	0x3e8cf86f	0.2753329
15	0xbecb8400	-0.39749146
16	0x3abdc83a	0.0014479228
17	0x3f5b7f96	0.85741556
18	0x3cbf6609	0.023364084
19	0xbc22ebf2	-0.009943949
20	0x3f1a86a9	0.60361725
21	0xbc828a6b	-0.015935143
22	0xbedb6a14	-0.4285437
23	0x3f09642b	0.5366847
24	0xbf9c9be5	-1.2235075
25	0xbdca327e	-0.09872912
26	0x3e83258e	0.2561459
27	0xbd2e2860	-0.042518973
28	0x3ebd1c03	0.36935434
29	0x3ecebe4f	0.4037957
30	0x3e90449c	0.28177345
31	0xbd93328f	-0.07187378
32	0x3e5b2822	0.21402028
33	0xbf50912d	-0.8147152
34	0xbe9c46c0	-0.30522728
35	0x3dc0de27	0.09417372
36	0xbfb2afaf	-1.3959864
37	0xbdb07c83	-0.08617499
38	0x3e608e99	0.21929397
39	0xbe844a09	-0.25837734
40	0x3e915d34	0.2839142
41	0xbec34066	-0.3813507
42	0xbe7a8d88	-0.24468052
43	0xbe3bf74a	-0.18356052
44	0x3e0b3faa	0.13598505
45	0x3e7c81ee	0.24658939
46	0xbead5cba	-0.33859807
47	0x3cba8dd7	0.022772713
48	0xbf800a0b	-1.0003065
49	0xbc1ea57a	-0.009683007
50	0xbfe42706	-1.7824409
51	0x3f9d4af9	1.2288505
52	0xbf00e5be	-0.5035056
53	0xbe93458c	-0.28763998
54	0xbf9de3ab	-1.2335104
55	0x3e3b67c4	0.18301302
56	0xc00955b8	-2.1458569
57	0xbf4b8607	-0.79501384
58	0xbefaea77	-0.49007007
59	0x3d8917d4	0.06693998
60	0x3e5477b1	0.20748784
61	0x3c50227a	0.012703532
62	0xbd0da0ed	-0.0345773
63	0xbec55744	-0.3854314
64	0x3f489315	0.7834943
65	0xbf4acdb5	-0.79220134
66	0xbfab0741	-1.3361589
67	0xbe931e52	-0.2873407
68	0x3e727f38	0.23681343
69	0xbbf6ea9a	-0.007535291
70	0xbe67c60d	-0.22634144
71	0x3ea2e103	0.31812295
72	0x3e1edfc4	0.15515047
73	0x3e364e2b	0.17803256
74	0x3b044c09	0.0020186922
75	0x3f4dc338	0.80376005
76	0x3dfb9b3f	0.1228547
77	0xbf04cc92	-0.5187465
78	0x3f2a3083	0.66480273
79	0xbd63a130	-0.055573642
80	0x3f680fcb	0.906491
81	0x3f8b0ec1	1.0863878
82	0x3e9f7a66	0.3114807
83	0x3db19198	0.08670348
84	0xbdd7664d	-0.10517559
85	0x3ebfd412	0.37466484
86	0xbeaa44dc	-0.3325566
87	0x3ed6f32b	0.41982397
88	0xbfc045b8	-1.5021276
89	0xbc3eca50	-0.011644915
90	0xbeeeb9bd	-0.46626082
91	0x3d0b982c	0.03408067
92	0xbdbb55dd	-0.091472365
93	0x3ead8a35	0.33894506
94	0x3c0d4c00	0.008624077
95	0xbf08a453	-0.5337574
96	0xbe2b1fb6	-0.16711316
97	0xbf5e00b8	-0.86719847
98	0x3e6e11d8	0.23248994
99	0x3f42e17d	0.7612532
100	0xbf2e9d59	-0.68208843
101	0x3edd28ec	0.43195283
102	0x3ed20e23	0.4102641
103	0xbe9cb423	-0.30606183
104	0x3ecef4c3	0.40421113
105	0xbf949b76	-1.1609943
106	0xbe4fe5f0	-0.20302558
107	0x3ed1b9b7	0.40962002
108	0x3e8e849f	0.27835557
109	0x3f03f4ab	0.5154521
110	0x3e2ede99	0.17077102
111	0x3f29ecf3	0.6637718
112	0x3e9e3a74	0.3090397
113	0x3e088ae0	0.13334227
114	0xbf0f120a	-0.558869
115	0x3f85ede3	1.0463222
116	0xbe8b0b40	-0.2715702
117	0xbf94be65	-1.1620604
118	0xbf6e106f	-0.92993826
119	0x3e97d112	0.29651695
120	0xbf872401	-1.0557863
121	0xbfd71540	-1.680336
122	0xbf05566c	-0.52084994
123	0xbf29e6b5	-0.66367656
124	0x3ed1dde2	0.40989596
125	0xbe3a3230	-0.18183208
126	0xbeda6f2e	-0.42662948
127	0x3ecdcc6e	0.4019503
128	0xbda14704	-0.07874873
129	0xbf930219	-1.1485015
130	0xbe4b92a8	-0.19880164
131	0x3dd45f2e	0.103697166
132	0x3efb2d70	0.49058104
133	0xbf226a6a	-0.63443625
134	0xbec06e54	-0.37584174
135	0x3f1d3ddd	0.6142252
136	0x3e3863b1	0.18006779
137	0x3d3dcb4c	0.046336457
138	0xbee1a5ac	-0.4407171
139	0x3f95b5a4	1.1696057
140	0xbea42b2d	-0.3206419
141	0xc00bc4eb	-2.183894
142	0x3e5c8744	0.21535975
143	0x3d740197	0.05957183
144	0x3e005788	0.1253339
145	0x3f97606b	1.18263
146	0x3e726c96	0.23674235
147	0x3cbbc223	0.02291972
148	0xbefdaed7	-0.49547455
149	0x3d8fd55d	0.07023118
150	0xbfa5f379	-1.2964927
151	0xbdc4d00a	-0.09609993
152	0xbf4cc55b	-0.7998864
153	0x3d974d25	0.07387761
154	0xbf863d1c	-1.0487399
155	0x3f17b5c8	0.5926175
156	0xbeed651b	-0.463662
157	0x3f5bfb5d	0.85930425
158	0x3f4beb46	0.79655874
159	0xbbde01b5	-0.006775106
160	0x3dbba068	0.091614544
161	0xbfd0f9ce	-1.6326234
162	0x3f2111c1	0.62917715
163	0x3f52a041	0.8227578
164	0xbf67fa49	-0.9061628
165	0xbbed9632	-0.0072505707
166	0x3ea0e1d9	0.31422308
167	0xbe0699a9	-0.13144554
168	0x3e80b55e	0.25138372
169	0xbff4d47d	-1.9127346
170	0x3f27a214	0.65481687
171	0x3f1aa1a9	0.60402924
172	0x3cf1ea0a	0.029530544
173	0x3e96f8ef	0.29486796
174	0xbe3218f4	-0.17392331
175	0xbe1ccab3	-0.15311699
176	0x3f4988c3	0.78724307
177	0xbe397bd9	-0.1811365
178	0xbe0c499e	-0.13699958
179	0x3df7f556	0.12107341
180	0xbe8e0b3c	-0.27742946
181	0xbf219250	-0.6311388
182	0xc002aee0	-2.0419235
183	0x3e0b43dd	0.13600107
184	0xbe6e7d2e	-0.2328994
185	0xbff55f22	-1.9169657
186	0xbf1f1be8	-0.62151957
187	0x3d71eece	0.059065633
188	0x3f526f03	0.8220064
189	0xbec709a1	-0.38874534
190	0xbf7f1592	-0.9964229
191	0x3dda6e86	0.10665612
192	0xbf234549	-0.63777596
193	0xbf010f27	-0.50413746
194	0x3f89ade5	1.0756193
195	0xbe938b0f	-0.2881703
196	0xbe4d6628	-0.20058501
197	0x3e68b8ac	0.22726697
198	0x3e86482a	0.26226932
199	0xbdad6fa7	-0.084685616
200	0x3f0babb9	0.545589
201	0xbeae6a45	-0.34065452
202	0xbd87fc73	-0.06639948
203	0x3eee7a43	0.46577653
204	0x3e854fcc	0.26037443
205	0x3fa78620	1.3087807
206	0x3e9e389c	0.30902565
207	0x3f10a9ef	0.565093
208	0xbf8af70b	-1.0856642
209	0xbf1dd75b	-0.6165673
210	0xbf039186	-0.51393926
211	0x3f2975d0	0.6619539
212	0x3ef38a63	0.47566518
213	0xbf075305	-0.5286105
214	0x3f1f6d66	0.62276304
215	0x3ef3f65c	0.47648895
216	0x3e90fa9d	0.28316203
217	0xbf9743cb	-1.1817564
218	0x3f532234	0.82474065
219	0x3e202e3c	0.15642637
220	0x3e4207f4	0.18948346
221	0xbe8c120e	-0.27357525
222	0xbf4686ed	-0.7754963
223	0x3e769587	0.24080478
224	0xbe8412fa	-0.25795728
225	0x3fc24be8	1.5179415
226	0xbf112c94	-0.56708646
227	0xbd8dbd0f	-0.06920826
228	0xbb1fdb3a	-0.0024392144
229	0x3eba99a6	0.3644535
230	0xbea9bcab	-0.33151755
231	0x3e61158b	0.21980874
232	0xbe093b34	-0.1340149
233	0x3f818c56	1.0120952
234	0xbde112c5	-0.10989908
235	0xbf88364d	-1.0641571
236	0xbef56cc9	-0.4793456
237	0x3eae438b	0.34035906
238	0x3f108a58	0.56461096
239	0x3ed91023	0.42395124
240	0x3e438c17	0.19096409
241	0x3f0e4b1f	0.55583376
242	0x3e4057d3	0.18783502
243	0xbf7875e7	-0.97054905
244	0x3ea077a1	0.3134127
245	0x3ed275d1	0.41105512
246	0x3f2121bb	0.62942094
247	0xbd6459ce	-0.055749707
248	0x4002be66	2.042871
249	0x3fbc42e0	1.4707909
250	0x3ea17032	0.3153091
251	0x3f1485f8	0.5801692
252	0xbe7e4ad9	-0.2483324
253	0x3eb6a800	0.3567505
254	0x3f49dad1	0.7884951
255	0xbf302498	-0.6880584

weight_sigma f4 [64, 64]
0	0x3db787bd	0.08961437
1	0x3ea6c942	0.32575423
2	0xbdd465d2	-0.10370983
3	0x3deab02b	0.114593826
4	0x3c32c7fa	0.010911936
5	0xbbafdc43	-0.0053668334
6	0xbd02a112	-0.03189189
7	0x3cc32b2a	0.023824293
8	0xbd832a60	-0.06404567
9	0xbc4a1876	-0.0123349335
10	0x3e0ac135	0.13550265
11	0x3ac60d71	0.0015110207
12	0x3d2c1316	0.04201039
13	0x3d28704a	0.041122712
14	0x3e0a6692	0.1351569
15	0x3cc775a2	0.024348084
16	0x3bea0f4f	0.007142938
17	0x3e95aaae	0.2923178
18	0xbd578c9a	-0.052624322
19	0x3cb080fc	0.02154588
20	0x3db3b805	0.08775333
21	0x3b903c3f	0.004401713
22	0x3d1a9098	0.03773555
23	0xbda173f3	-0.07883444
24	0x3d548fd6	0.051894985
25	0xbe35c056	-0.17749152
26	0xbd6851da	-0.056718685
27	0x3d45a071	0.048248712
28	0xbd73bc27	-0.059505608
29	0xbd97d7d8	-0.07414216
30	0x3ca23943	0.019802695
31	0x3d3f887d	0.046761025
32	0x3d191c48	0.037380487
33	0xbd58646c	-0.052830145
34	0x3d74f8f2	0.059807725
35	0xbb825961	-0.00397794
36	0xbd818fbf	-0.063262455
37	0x3cb101f1	0.021607371
38	0x3d0f51df	0.034990188
39	0x3cfa84da	0.030580927
40	0x3d1729fa	0.036905266
41	0xbd89df05	-0.06731991
42	0x3ab266e9	0.0013610992
43	0xbdb41cc6	-0.087945506
44	0xbecab76e	-0.3959307
45	0xbca15173	-0.019692158
46	0xbd74d833	-0.059776496
47	0xba78b74e	-0.0009487764
48	0xbba835ac	-0.0051333513
49	0xbd1fb7c1	-0.0389936
50	0x3c0c691b	0.008569981
51	0xbad428dd	-0.0016186495
52	0x3d1dfad2	0.03856928
53	0xbe37bf45	-0.17944057
54	0x3d8dd08a	0.06924541
55	0xbd3030f0	-0.04301542
56	0x3b6146ab	0.0034374397
57	0xbc23b9e9	-0.009993055
58	0x3d6daa35	0.05802365
59	0xbcfa36ea	-0.030543763
60	0x3b228eee	0.002480443
61	0xbb4e8143	-0.0031510151
62	0x3ca35250	0.01993671
63	0x3da50a4f	0.08058607
64	0x3d643b9c	0.05572091
65	0xbd5779f8	-0.052606553
66	0xbd8de8c0	-0.06929159
67	0xbd9d20c1	-0.07672263
68	0x3c410a75	0.011782278
69	0xbc01f48b	-0.007931839
70	0xbce4584e	-0.027874138
71	0x3d493b65	0.04912891
72	0xbc5eec7f	-0.01360619
73	0x3bec5152	0.0072118426
74	0xbda3a49b	-0.079903804
75	0x3d455487	0.048176315
76	0x3d0d14bd	0.034443606
77	0x3bfe37f6	0.007758136
78	0x3dbe35f5	0.09287635
79	0xbd60d165	-0.054887194
80	0x3d9b011b	0.0756857
81	0xbc9a8877	-0.0188639
82	0x3c904742	0.017612103
83	0x3b2508c6	0.0025182231
84	0x3c96d2f8	0.018411145
85	0x3b610dc1	0.0034340473
86	0xbde5ec27	-0.11226683
87	0xbd0e3549	-0.034718785
88	0x3c740ca2	0.01489559
89	0xbca659c3	-0.020306474
90	0x3cfa56fe	0.03055906
91	0xbd85f1aa	-0.065402344
92	0x3bb5345f	0.0055299248
93	0x3ce5a049	0.028030531
94	0xbc9354e3	-0.017984813
95	0xbd1446df	-0.0362004
96	0xbd06bd10	-0.032895148
97	0x3ba4dc7c	0.0050311666
98	0x3bf7fe41	0.007568151
99	0x3cf80539	0.030275928
100	0xbcd17331	-0.025567623
101	0x3d806d43	0.0627084
102	0x3c25efcc	0.010127973
103	0xbe50665d	-0.20351548
104	0xbd83e3ea	-0.064399555
105	0xbd1cc8ad	-0.038277317
106	0xbdf5b33e	-0.11997078
107	0x3cfa672f	0.03056678
108	0x3ebd8ef6	0.37023133
109	0xbd59bda9	-0.05315939
110	0xbd116805	-0.03549959
111	0xbce90a20	-0.02844721
112	0x3a7c0374	0.00096135517
113	0x3c13f6fc	0.009031054
114	0xbd0a2709	-0.033728633
115	0x3ca7de74	0.020491816
116	0xbe5a62ae	-0.21326706
117	0x3dbba3f7	0.09162133
118	0x3d2095c7	0.03920534
119	0x3d13ac36	0.036052905
120	0x3d144354	0.03619702
121	0x3da9308f	0.08261215
122	0x3d8bec3d	0.06832168
123	0x3cb308ec	0.02185484
124	0x3caa02a4	0.020753212
125	0xbce71253	-0.02820698
126	0xbcf02ca7	-0.029318167
127	0xbc442e46	-0.011973923
128	0xbea538e1	-0.32269958
129	0x3d89d6da	0.06730433
130	0x39bbd341	0.00035824816
131	0xbd937299	-0.07199592
132	0x3c843c1d	0.016141945
133	0xbd568a88	-0.052378207
134	0xbcdea296	-0.027177136
135	0x3bf9690d	0.0076114
136	0xbb5e3e51	-0.0033911655
137	0xbb22de04	-0.002485157
138	0xbd7adefe	-0.06124782
139	0x3ddf9442	0.1091695
140	0x3d2cb4c0	0.042164564
141	0xbb56ba7a	-0.0032764957
142	0x3e0d439d	0.13795324
143	0xbd87ef66	-0.066374585
144	0xbd12e053	-0.035858463
145	0x3d6d1ab8	0.05788681
146	0xbd32aeec	-0.04362385
147	0x3d38ba3d	0.045099486
148	0xbd245f90	-0.040130198
149	0xb950f1b4	-0.00019926467
150	0x3dbcede4	0.092250615
151	0x3e10ca6d	0.1413972
152	0x3df8937f	0.12137508
153	0x3cd3be09	0.025847452
154	0x3bd13415	0.0063843825
155	0x3d0c9ef3	0.034331273
156	0xbd0f95d2	-0.03505499
157	0x3cf9b6d6	0.03048269
158	0xbdbf7d1c	-0.093500346
159	0xbd27d96b	-0.04097883
160	0x3cafe459	0.02147119
161	0x3cbc20b4	0.022964813
162	0x3c6d8016	0.01449587
163	0x3cd3487b	0.025791397
164	0x3da7b5d4	0.08188978
165	0x3c896538	0.016771898
166	0xb94cbc2b	-0.00019525054
167	0x3ceb943c	0.028757207
168	0xbda89092	-0.082306996
169	0x3dc63834	0.09678689
170	0x3bbd816d	0.005783251
171	0xbd32e9d1	-0.043680016
172	0x3d0ffced	0.03515332
173	0xbe0a6465	-0.1351486
174	0x3d3867d2	0.045020886
175	0x3da8ffd9	0.08251924
176	0x3dc852b1	0.09781397
177	0x3cf2c2e4	0.029633947
178	0xbc0d6cfe	-0.008631943
179	0xbd25573e	-0.040366404
180	0x3e19dd79	0.15025891
181	0x3d8cf439	0.06882519
182	0xbcb5ca71	-0.022191258
183	0xbd1d37bd	-0.038383234
184	0xbccb6262	-0.024827186
185	0xbd078611	-0.03308684
186	0xbd634628	-0.055486828
187	0x3d297f18	0.04138097
188	0x3c8d266a	0.017230231
189	0xbc20ed4a	-0.009822199
190	0x3e06fa6b	0.13181464
191	0xbb5f2b78	-0.003405301
192	0xbdff2d98	-0.12459868
193	0xbd166200	-0.036714554
194	0x3c12e1d7	0.008964977
195	0x3d370e2c	0.04469125
196	0x3d7e1a85	0.06203701
197	0xbc63704c	-0.013881754
198	0xbdc0b313	-0.09409156
199	0x3c06231f	0.008187084
200	0xbc12274a	-0.0089205
201	0xbd1c4b74	-0.038157895
202	0xbdd2699b	-0.10274049
203	0x3d4378b0	0.04772252
204	0x3c0f6b9f	0.008753686
205	0xbce60f0e	-0.02808335
206	0xbc8d517b	-0.017250767
207	0xbbb0c18e	-0.0053941673
208	0x3e1fb011	0.15594508
209	0x3e4c5a94	0.19956428
210	0x3b8d09c0	0.004304141
211	0x3c62a635	0.013833572
212	0xbd3a1cca	-0.04543761
213	0x3cf9c7b7	0.03049074
214	0xbe761c07	-0.24034129
215	0x3e02d274	0.12775594
216	0xbb867042	-0.0041027376
217	0xbcf6ca76	-0.030125838
218	0xbc7e7276	-0.015530219
219	0x3d55d1d3	0.052202057
220	0xbdd6e5d7	-0.10493057
221	0xbc800d33	-0.015631294
222	0xbb8794b6	-0.004137601
223	0x3cd3fc0e	0.025877025
224	0x3c79cdee	0.015246851
225	0x3c9f4637	0.01944266
226	0x3d54f80d	0.051994372
227	0xbc9b227d	-0.018937344
228	0xba58d209	-0.0008271044
229	0xbb0b9544	-0.0021298686
230	0x3cc19fa8	0.0236357
231	0xbd17723c	-0.036974177
232	0xbdd2881e	-0.102798685
233	0xba6669c4	-0.0008789564
234	0xbc74fc7d	-0.014952776
235	0x3c1a9dc7	0.009437031
236	0xbddb3716	-0.10703866
237	0x3ce0d79f	0.027446566
238	0x3d2cc566	0.04218044
239	0x3d1cf517	0.038319673
240	0xbcaf5ea7	-0.021407438
241	0xbcac7f93	-0.021056926
242	0x3ccbed93	0.024893558
243	0xbc1a7f6f	-0.009429797
244	0x3c605c78	0.013693921
245	0xbc975ba2	-0.018476311
246	0xbd4680fe	-0.04846286
247	0x3c32ff32	0.010925101
248	0x3c1e2432	0.009652184
249	0xbc96033a	-0.018312085
250	0x3c6972ba	0.014248544
251	0x3ce592de	0.028024133
252	0x3cb1b4ca	0.021692652
253	0x3c6e4600	0.0145430565
254	0xbc66e0eb	-0.014091711
255	0xbb1901ec	-0.0023347093

bias_mu f4 [64]
0	0x3ead75ad	0.33878842
1	0x3e2f4b2d	0.17118521
2	0x3e266162	0.16248086
3	0x3e1684c8	0.1469909
4	0x3e087f90	0.13329911
5	0xbea1cb01	-0.31600192
6	0x3e58c93b	0.21170513
7	0x3eafc2bf	0.34328267
8	0xbe9fb3ed	-0.3119196
9	0x3d472b6d	0.0486254
10	0x3df1f7c6	0.11814837
11	0x3d167054	0.03672822
12	0xbd6e86b1	-0.05823392
13	0xbdd783fe	-0.105232224
14	0x3da561c2	0.080752864
15	0x3ecd58b8	0.4010675
16	0x3d9c5a8c	0.07634458
17	0x3e799c78	0.24376094
18	0xbec6ff20	-0.3886652
19	0x3debb1b5	0.11508504
20	0xbd10a41e	-0.035312764
21	0x3ea1975e	0.31560796
22	0x3ebaa0c1	0.3645077
23	0x3e7d2db6	0.24724469
24	0x3e1ef145	0.15521725
25	0x3e12d446	0.14338788
26	0x3e4b4cf5	0.19853576
27	0xbdd76955	-0.10518137
28	0x3e460448	0.1933757
29	0xbdcfc323	-0.10144641
30	0x3e668e16	0.22515139
31	0xbc27a74f	-0.010232761
32	0x3e84b964	0.25922692
33	0x3e991d83	0.29905328
34	0x3d412d9b	0.047162633
35	0x3d9e7840	0.077377796
36	0x3e8fa260	0.2805357
37	0xbeb52f39	-0.3538759
38	0x3f34bc18	0.7059951
39	0x3df3656f	0.11884581
40	0x3e472d1e	0.19450805
41	0xbe49f2da	-0.19721547
42	0x3ee50366	0.44729155
43	0x3cda7b12	0.026670013
44	0x3eaac6cc	0.33354795
45	0xbdf64950	-0.12025702
46	0xbcd14c45	-0.025549063
47	0xbf27fd34	-0.6562073
48	0x3e568ba3	0.20951705
49	0xbd0a2e75	-0.03373571
50	0x3ea0eadb	0.3142918
51	0x3eaf83d5	0.34280267
52	0xbe972ed6	-0.2952792
53	0xbd8cd48f	-0.0687648
54	0x3e974230	0.29542685
55	0xbe4a4dfe	-0.19756314
56	0x3f0d7743	0.55260104
57	0x3e1a325c	0.15058273
58	0xbe485e61	-0.19567253
59	0x3ea2f5a2	0.31828028
60	0x3eb14eb1	0.3463035
61	0x3e2cdddd	0.16881509
62	0x3e72d345	0.23713405
63	0x3e9a2772	0.3010822

bias_sigma f4 [64]
0	0x3d1acf1b	0.037795167
1	0xbca11389	-0.019662635
2	0x3c3c7423	0.0115022985
3	0x3a53d4fd	0.0008080749
4	0x3b730c79	0.0037086292
5	0x3d58bd5f	0.052914973
6	0xbaf1271b	-0.0018398495
7	0x3b3770ac	0.0027990742
8	0x3d927cd6	0.07152717
9	0x3d7860f1	0.060639326
10	0x3ce89c00	0.0283947
11	0x3d1c8cd2	0.038220234
12	0x3d0c8040	0.034301996
13	0xba2e2d01	-0.00066442793
14	0xbc1fee95	-0.009761472
15	0xbc344808	-0.011003502
16	0xbc7eca95	-0.015551229
17	0x3c36aceb	0.011149625
18	0x3baad9b0	0.0052139387
19	0x3b8fe221	0.0043909703
20	0xbca71308	-0.020394817
21	0x3ceb274a	0.028705258
22	0x3cdc39d0	0.026883036
23	0xbc8a77b1	-0.016902776
24	0xbb9df2e8	-0.0048202164
25	0xbc034925	-0.0080130445
26	0xbd0e0c7e	-0.034679882
27	0xbb8eacc3	-0.004354091
28	0x3c2a6421	0.010399849
29	0x3c507ce4	0.012725089
30	0x3c891907	0.016735567
31	0xbca9f9a1	-0.020748915
32	0xbc0a2848	-0.008432455
33	0x3812f984	3.5041492e-05
34	0xbba2abc1	-0.0049643223
35	0x3b9b30c7	0.0047360393
36	0x3c1a6975	0.009424557
37	0xbdfb9602	-0.12284471
38	0xbba2aba2	-0.004964308
39	0x3ce94bb1	0.028478475
40	0x3bcb1814	0.0061979387
41	0x3c4aa99e	0.012369541
42	0xbc8a8f82	-0.016914133
43	0x3d3008a1	0.04297698
44	0x3c7e85e0	0.015534848
45	0x3be4b1b1	0.0069791903
46	0x3d6a46e1	0.0571965
47	0x3a4df1f0	0.0007856181
48	0x3b64a246	0.0034886762
49	0x3ccb5f0c	0.024825595
50	0x3d18feb7	0.03735229
51	0x3c812902	0.015766624
52	0xbd0f6665	-0.03500976
53	0xbc7a42ac	-0.015274685
54	0xbbf0a783	-0.0073441877
55	0xbbe9a00a	-0.007129674
56	0x3b51b4bc	0.0031998595
57	0xbcaa2b01	-0.020772459
58	0x3cfe6c16	0.031057399
59	0x3c8d9d18	0.017286822
60	0x3d17925a	0.037004806
61	0x3c4d31ba	0.012524063
62	0x3c5da7d6	0.013528785
63	0x3c9aa377	0.018876774

weight_epsilon f4 [64, 64]
0	0xbf0ca69e	-0.5494174
1	0xbf36fafd	-0.7147673
2	0xbeb3955a	-0.35074884
3	0x3e2380a4	0.15967041
4	0xbf990b71	-1.1956617
5	0xbf1935e4	-0.59847856
6	0xbf1c800d	-0.6113289
7	0x3f0cf6c2	0.5506402
8	0x3f3d0e9c	0.7385042
9	0xbf0ae2bb	-0.54252213
10	0xbefd4833	-0.49469146
11	0xbf3fd252	-0.749303
12	0x3f2745d6	0.65340936
13	0x3f2e508f	0.6809167
14	0x3f579cd1	0.8422366
15	0x3ef43037	0.47693035
16	0x3f0a5d61	0.54048735
17	0xbf66cf48	-0.90160036
18	0xbe778b4f	-0.24174236
19	0x3eae1c2a	0.34005862
20	0x3f2d9b82	0.6781541
21	0x3ed49320	0.41518497
22	0x3ec66905	0.38752
23	0xbe978a4a	-0.29597694
24	0x3f22d9ec	0.6361377
25	0xbecb90b0	-0.39758825
26	0x3f3f5c0b	0.7474982
27	0xbf8252d2	-1.0181525
28	0x3f430511	0.76179606
29	0xbefbee19	-0.49205092
30	0xbeb940f6	-0.36182374
31	0x3f4f4bea	0.8097521
32	0x3f2b22a6	0.66849744
33	0xbf4db35a	-0.80351794
34	0x3f392dcb	0.723355
35	0xbef2f2c5	-0.47450843
36	0xbf14bbcb	-0.5809905
37	0x3f0955b9	0.5364643
38	0xbe86b3cb	-0.26309046
39	0xbeff90fa	-0.49915296
40	0xbe38ba77	-0.1803988
41	0xbef2d873	-0.47430763
42	0x3f1da0ac	0.6157329
43	0x3f0dad66	0.5534271
44	0xbf2aba01	-0.6669007
45	0x3f391443	0.7229654
46	0xbf11df9c	-0.56981826
47	0xbf3ac561	-0.72957426
48	0xbf552aa7	-0.8326821
49	0xbe95f927	-0.2929165
50	0x3defd104	0.117097884
51	0x3f5b8c0f	0.8576059
52	0x3f7ac135	0.9795106
53	0xbf41c8fa	-0.7569729
54	0xbf4019f7	-0.7503962
55	0x3f56d3d8	0.83917
56	0x3f128709	0.572373
57	0x3f8540ae	1.0410364
58	0xbf3ba2c4	-0.73295236
59	0xbe9f3fdf	-0.31103417
60	0xbe6b4297	-0.22974621
61	0xbf8c446f	-1.0958384
62	0x3f6faab2	0.93619835
63	0xbeaf47ec	-0.3423456
64	0xbf1b6711	-0.6070414
65	0xbf4a2bfa	-0.7897335
66	0xbec66b22	-0.3875361
67	0x3e34a6a7	0.17641698
68	0xbfa918aa	-1.3210652
69	0xbf294790	-0.6612482
70	0xbf2cea0d	-0.67544633
71	0x3f1bbf9d	0.60839254
72	0x3f50e2c2	0.81596005
73	0xbf1973c9	-0.599423
74	0xbf0bec63	-0.5465757
75	0xbf53f0b2	-0.82789147
76	0x3f38d115	0.72194034
77	0x3f4098e0	0.7523327
78	0x3f6e39fa	0.93057215
79	0x3f06e650	0.5269518
80	0x3f18e073	0.5971748
81	0xbf7f047b	-0.9961621
82	0xbe88c0ea	-0.26709682
83	0x3ec05efd	0.3757247
84	0x3f3fd0d6	0.74928033
85	0x3eeadeb7	0.45873043
86	0x3edb384c	0.4281639
87	0xbea76f1e	-0.32701963
88	0x3f33ee73	0.7028572
89	0xbee0ea60	-0.43928814
90	0x3f536e03	0.8258974
91	0xbf8ffdfc	-1.1249385
92	0x3f577950	0.84169483
93	0xbf0b2d30	-0.54365826
94	0xbeccaefe	-0.39977258
95	0x3f6509ca	0.8946806
96	0x3f3d159a	0.73861086
97	0xbf634660	-0.8877926
98	0x3f4c99d0	0.799222
99	0xbf0636f2	-0.5242759
100	0xbf245543	-0.641926
101	0x3f17bd24	0.5927298
102	0xbe94d487	-0.29068395
103	0xbf0d2f71	-0.55150515
104	0xbe4c1a63	-0.1993194
105	0xbf062867	-0.524054
106	0x3f2e28f1	0.6803122
107	0x3f1c8969	0.6114717
108	0xbf3ca1fb	-0.7368466
109	0x3f4c7d9a	0.7987915
110	0xbf212c49	-0.629582
111	0xbf4e5c25	-0.8060935
112	0xbf6b8623	-0.9200155
113	0xbea5b3e9	-0.32363823
114	0x3e047c06	0.12937936
115	0x3f7292dc	0.9475534
116	0x3f8a86f7	1.0822438
117	0xbf561c12	-0.8363658
118	0xbf543fda	-0.8290993
119	0x3f6d5bec	0.92718387
120	0x3f21e545	0.6324046
121	0x3f933a7d	1.1502224
122	0xbf4f50c0	-0.8098259
123	0xbeaff3b1	-0.3436561
124	0xbe81f7a4	-0.25384247
125	0xbf9afa96	-1.2107723
126	0x3f8466da	1.0343888
127	0xbec1aa2e	-0.3782515
128	0x3efa2764	0.48858178
129	0x3f22b82e	0.63562286
130	0x3e9fb2d6	0.31191128
131	0xbe1165f6	-0.14199051
132	0x3f881933	1.063269
133	0x3f083ef2	0.53221047
134	0x3f0b2bdb	0.54363793
135	0xbefab5ec	-0.4896692
136	0xbf281f8d	-0.6567314
137	0x3ef703b1	0.48245004
138	0x3ee13c9b	0.4399155
139	0x3f2a94e7	0.66633457
140	0xbf14c048	-0.581059
141	0xbf1b0364	-0.6055205
142	0xbf3fbd03	-0.74897784
143	0xbed92664	-0.42412102
144	0xbef61685	-0.48064056
145	0x3f4d40b2	0.8017684
146	0x3e5c225d	0.21497484
147	0xbe9ad4cd	-0.3024048
148	0xbf1a6264	-0.6030638
149	0xbebd096e	-0.36921257
150	0xbeb070d6	-0.34461087
151	0x3e86c2b2	0.26320416
152	0xbf10d1b3	-0.56569976
153	0x3eb50661	0.3535643
154	0xbf2a2bb8	-0.6647296
155	0x3f67c947	0.905415
156	0xbf2d6cfd	-0.6774443
157	0x3ee008d3	0.43756732
158	0x3ea4bdb7	0.3217599
159	0xbf3857d6	-0.72009027
160	0xbf182f9b	-0.5944764
161	0x3f36ec83	0.7145464
162	0xbf24acab	-0.6432597
163	0x3ed80c19	0.4219673
164	0x3f0443c1	0.51665884
165	0xbef44198	-0.47706294
166	0x3e6f92fa	0.23395911
167	0x3ee344a2	0.443883
168	0x3e24461c	0.1604237
169	0x3ed7f4b1	0.42178872
170	0xbf0c2c85	-0.5475543
171	0xbefbfac1	-0.49214748
172	0x3f17d28c	0.59305644
173	0xbf2495f6	-0.6429132
174	0x3f01b8a5	0.5067237
175	0x3f26171f	0.6487903
176	0x3f3d902e	0.74048126
177	0x3e855dfa	0.2604826
178	0xbdd5431f	-0.10413193
179	0xbf433cba	-0.76264536
180	0xbf5efd41	-0.87105185
181	0x3f2c53e6	0.6731552
182	0x3f2ad49c	0.66730666
183	0xbf3f0a4a	-0.74625075
184	0xbf024d88	-0.50899553
185	0xbf6cfeef	-0.925765
186	0x3f26dbfe	0.6517943
187	0x3e8d9dbf	0.27659413
188	0x3e5135d9	0.20430698
189	0x3f7978c4	0.974499
190	0xbf55210b	-0.83253545
191	0x3e9bdf5d	0.3044385
192	0xbf10eb95	-0.5660947
193	0xbf3c88e2	-0.73646367
194	0xbeb908d9	-0.36139563
195	0x3e28772e	0.16451713
196	0xbf9db0b7	-1.2319554
197	0xbf1ddc73	-0.61664504
198	0xbf21402c	-0.62988544
199	0x3f113e27	0.5673546
200	0x3f42cbba	0.7609211
201	0xbf0f19fa	-0.5589901
202	0xbf027c32	-0.50970757
203	0xbf45a4ec	-0.77204776
204	0x3f2c59ac	0.6732433
205	0x3f339b1d	0.7015856
206	0x3f5e284a	0.86780226
207	0x3efb99be	0.49140733
208	0x3f0e9094	0.5568936
209	0xbf6dd0d9	-0.928968
210	0xbe7f0eea	-0.24908033
211	0x3eb36522	0.35038096
212	0x3f32e092	0.6987392
213	0x3edb06fd	0.4277877
214	0x3ecc6ed1	0.39928296
215	0xbe9c23df	-0.30496117
216	0x3f27cb66	0.65544736
217	0xbed1be8a	-0.40965682
218	0x3f452b0d	0.77018815
219	0xbf864789	-1.0490581
220	0x3f48f084	0.78492
221	0xbf01c9e4	-0.50698686
222	0xbebee086	-0.37280673
223	0x3f5596c3	0.8343317
224	0x3f305480	0.68878937
225	0xbf53f1cd	-0.82790834
226	0x3f3eccc6	0.7453121
227	0xbefa52aa	-0.48891193
228	0xbf193f90	-0.59862614
229	0x3f0d80eb	0.5527484
230	0xbe8aca88	-0.27107644
231	0xbf03a976	-0.5143045
232	0xbe3e55f2	-0.18587473
233	0xbefa378b	-0.488705
234	0x3f22698e	0.63442314
235	0x3f11fa56	0.5702261
236	0xbf2fe8ad	-0.6871441
237	0x3f3eb277	0.74491066
238	0xbf164d28	-0.5871148
239	0xbf4070bb	-0.75172013
240	0xbf5ba31e	-0.8579577
241	0xbe9a868f	-0.30180785
242	0x3df71892	0.12065233
243	0x3f62361b	0.8836381
244	0x3f812ee1	1.0092431
245	0xbf47aad5	-0.77995044
246	0xbf45eebd	-0.7731741
247	0x3f5d5937	0.86464256
248	0x3f16f9aa	0.5897471
249	0x3f894c27	1.0726365
250	0xbf4154d6	-0.75520074
251	0xbea4155c	-0.32047546
252	0xbe7266bd	-0.23672004
253	0xbf90866b	-1.1291021
254	0x3f76f116	0.9646162
255	0xbeb499fc	-0.3527373

bias_epsilon f4 [64]
0	0x3f435a79	0.76309925
1	0x3f57d7ad	0.8431347
2	0xbf2db8f0	-0.6786032
3	0x3f494884	0.78626275
4	0xbf191c47	-0.5980877
5	0x3f5dc4dd	0.86628515
6	0xbe328ea0	-0.1743722
7	0xbf4f62ca	-0.81010115
8	0xbedf9842	-0.4367085
9	0xbeef60a3	-0.46753415
10	0x3f985ce0	1.1903343
11	0xbe9b272f	-0.30303332
12	0xbf94cc00	-1.1624756
13	0xbe999d8c	-0.3000301
14	0x3fac1c2b	1.3446096
15	0xbf7ec8a0	-0.9952488
16	0x3eac35db	0.33634838
17	0x3ea8dd6d	0.32981434
18	0xbf8b6430	-1.088995
19	0x3fb9f79e	1.4528692
20	0xbe677f33	-0.22607116
21	0xbf2f87b1	-0.68566424
22	0x3f929fe7	1.1455048
23	0x3f97b433	1.1851867
24	0xbeb5034f	-0.35354087
25	0xbec6f966	-0.3886215
26	0xbfc4c37d	-1.5372158
27	0x3ec25c5d	0.37961093
28	0xbf3dbbca	-0.7411467
29	0x3f022719	0.5084091
30	0x3eb6a811	0.356751
31	0xbfabe91b	-1.3430513
32	0x3f69b2fc	0.91288733
33	0xbfbe7402	-1.4879153
34	0xbf3d96b0	-0.74058056
35	0x3f92d71b	1.1471895
36	0x3f0319ef	0.51211447
37	0xbf8acf78	-1.0844564
38	0xbf0ce3ac	-0.550349
39	0xbf7a71a4	-0.9782965
40	0xbf419a7b	-0.75626343
41	0xbead4d80	-0.3384819
42	0xbf2a18fd	-0.6644438
43	0xbf44b226	-0.7683433
44	0x3f90dfc3	1.1318287
45	0x3f62749d	0.8845919
46	0xbf369ac4	-0.71329904
47	0xbfe5bafe	-1.794769
48	0x3f75baaa	0.9598795
49	0xbf392510	-0.7232218
50	0x3f72e423	0.9487936
51	0x3f1c92d4	0.6116154
52	0xbeeaa675	-0.45830122
53	0x3efef7cd	0.49798432
54	0xbf32b78e	-0.6981133
55	0xbf9b75b8	-1.21453
56	0xbf9b9015	-1.2153345
57	0xbf6b1bdd	-0.9183939
58	0xbf78c19d	-0.9717043
59	0xbfa3d697	-1.2799863
60	0x3f9825d5	1.1886545
61	0xbf5c1f82	-0.8598558
62	0x3fa1fc96	1.2655208
63	0x3dad2596	0.084544346

epsilon_in f4 [64]
0	0xbf3850b6	-0.71998155
1	0xbf6fc92f	-0.93666357
2	0xbeeb5592	-0.45963722
3	0x3e5642d9	0.20923938
4	0xbfc88e86	-1.5668495
5	0xbf48c626	-0.7842735
6	0xbf4d15c1	-0.8011132
7	0x3f38b9bb	0.721584
8	0x3f77bfbe	0.9677695
9	0xbf36008a	-0.7109457
10	0xbf25f4c6	-0.6482662
11	0xbf7b5f29	-0.9819208
12	0x3f5b33af	0.8562574
13	0x3f646e0d	0.89230424
14	0x3f8d4636	1.1037052
15	0x3f1fff6d	0.62499124
16	0x3f3551ca	0.70827925
17	0xbf973b55	-1.1814982
18	0xbea23253	-0.3167902
19	0x3ee42965	0.44562832
20	0x3f6380cc	0.88868403
21	0x3f0b48a6	0.5440773
22	0x3f0200be	0.5078238
23	0xbec695ce	-0.38786167
24	0x3f55685f	0.8336238
25	0xbf05616b	-0.52101773
26	0x3f7ac429	0.97955567
27	0xbfaac829	-1.3342334
28	0x3f7f9014	0.9982922
29	0xbf251200	-0.6448059
30	0xbef2c3d4	-0.4741503
31	0x3f87d34e	1.061136
32	0x3f604378	0.8760295
33	0xbf86c79b	-1.0529665
34	0x3f72aab6	0.94791734
35	0xbf1f2f6e	-0.62181747
36	0xbf42e840	-0.76135635
37	0x3f33f848	0.7030072
38	0xbeb08522	-0.34476572
39	0xbf2773ef	-0.65411276
40	0xbe721394	-0.23640281
41	0xbf1f1e2f	-0.6215543
42	0x3f4e8ffa	0.8068844
43	0x3f39a912	0.72523606
44	0xbf5fba56	-0.873937
45	0x3f728940	0.94740677
46	0xbf3f28c4	-0.7467158
47	0xbf74c0d4	-0.9560673
48	0xbf8babef	-1.0911845
49	0xbec48823	-0.38385114
50	0x3e1d221a	0.1534504
51	0x3f8fda2e	1.1238458
52	0x3fa44cda	1.2835953
53	0xbf7df1dc	-0.99197173
54	0xbf7bbd0b	-0.9833533
55	0x3f8cc287	1.0996865
56	0x3f40042b	0.7500636
57	0x3fae9ecf	1.3642215
58	0xbf75e2f1	-0.9604941
59	0xbed0b013	-0.40759334
60	0xbe9a25d5	-0.3010699
61	0xbfb7d00c	-1.4360366
62	0x3f9d08fe	1.2268369
63	0xbee5b235	-0.44862524

epsilon_out f4 [64]
0	0x3f435a79	0.76309925
1	0x3f57d7ad	0.8431347
2	0xbf2db8f0	-0.6786032
3	0x3f494884	0.78626275
4	0xbf191c47	-0.5980877
5	0x3f5dc4dd	0.86628515
6	0xbe328ea0	-0.1743722
7	0xbf4f62ca	-0.81010115
8	0xbedf9842	-0.4367085
9	0xbeef60a3	-0.46753415
10	0x3f985ce0	1.1903343
11	0xbe9b272f	-0.30303332
12	0xbf94cc00	-1.1624756
13	0xbe999d8c	-0.3000301
14	0x3fac1c2b	1.3446096
15	0xbf7ec8a0	-0.9952488
16	0x3eac35db	0.33634838
17	0x3ea8dd6d	0.32981434
18	0xbf8b6430	-1.088995
19	0x3fb9f79e	1.4528692
20	0xbe677f33	-0.22607116
21	0xbf2f87b1	-0.68566424
22	0x3f929fe7	1.1455048
23	0x3f97b433	1.1851867
24	0xbeb5034f	-0.35354087
25	0xbec6f966	-0.3886215
26	0xbfc4c37d	-1.5372158
27	0x3ec25c5d	0.37961093
28	0xbf3dbbca	-0.7411467
29	0x3f022719	0.5084091
30	0x3eb6a811	0.356751
31	0xbfabe91b	-1.3430513
32	0x3f69b2fc	0.91288733
33	0xbfbe7402	-1.4879153
34	0xbf3d96b0	-0.74058056
35	0x3f92d71b	1.1471895
36	0x3f0319ef	0.51211447
37	0xbf8acf78	-1.0844564
38	0xbf0ce3ac	-0.550349
39	0xbf7a71a4	-0.9782965
40	0xbf419a7b	-0.75626343
41	0xbead4d80	-0.3384819
42	0xbf2a18fd	-0.6644438
43	0xbf44b226	-0.7683433
44	0x3f90dfc3	1.1318287
45	0x3f62749d	0.8845919
46	0xbf369ac4	-0.71329904
47	0xbfe5bafe	-1.794769
48	0x3f75baaa	0.9598795
49	0xbf392510	-0.7232218
50	0x3f72e423	0.9487936
51	0x3f1c92d4	0.6116154
52	0xbeeaa675	-0.45830122
53	0x3efef7cd	0.49798432
54	0xbf32b78e	-0.6981133
55	0xbf9b75b8	-1.21453
56	0xbf9b9015	-1.2153345
57	0xbf6b1bdd	-0.9183939
58	0xbf78c19d	-0.9717043
59	0xbfa3d697	-1.2799863
60	0x3f9825d5	1.1886545
61	0xbf5c1f82	-0.8598558
62	0x3fa1fc96	1.2655208
63	0x3dad2596	0.084544346

weight_mu f4 [4, 64]
0	0xbefc507a	-0.4928015
1	0xbf225edd	-0.63426
2	0xbf0c2f13	-0.5475933
3	0x3f285a64	0.65762925
4	0x3f1675c2	0.58773434
5	0x3e6d3f7a	0.23168746
6	0x3eec93b8	0.4620645
7	0xbf55e06a	-0.83545554
8	0xbefc256b	-0.49247298
9	0xbde31883	-0.110886596
10	0x3f35f350	0.7107439
11	0x3efabd1c	0.48972404
12	0x3f626089	0.8842855
13	0x3e82fdfb	0.25584397
14	0x3f22b6f1	0.63560396
15	0x3f854f14	1.0414758
16	0xbf2b895c	-0.6700647
17	0xbf149bbf	-0.5805015
18	0x3cf1f63a	0.029536355
19	0x3edec1e8	0.43507314
20	0x3da41130	0.08011091
21	0x3f6fe8de	0.937147
22	0xbde586cf	-0.11207353
23	0xbe87494e	-0.26423115
24	0x3f86e355	1.0538126
25	0xbf3414fd	-0.70344526
26	0x3f46a5dc	0.7759683
27	0x3f9d9315	1.2310511
28	0x3f7885d1	0.9707919
29	0x3f2e2125	0.68019325
30	0x3f1153ec	0.5676868
31	0x3f28f2fa	0.6599575
32	0xbe86e513	-0.26346645
33	0xbc3a5ba3	-0.011374387
34	0xbf8d994f	-1.1062411
35	0x3f10aa62	0.56509984
36	0xbf998463	-1.1993526
37	0xbf992765	-1.1965147
38	0xbfd00631	-1.625189
39	0xbeca88d1	-0.39557508
40	0x3f561fb3	0.8364212
41	0x3f8b4a00	1.0881958
42	0xbed9764a	-0.4247306
43	0x3f1e3f69	0.61815506
44	0xbf577792	-0.84166825
45	0x3f05ecb2	0.52314293
46	0xbf897ab9	-1.0740577
47	0xbee63fd0	-0.4497056
48	0x3f0f42f8	0.5596156
49	0x3f25520b	0.6457831
50	0xbf6bebee	-0.92156875
51	0xbec3dfd3	-0.38256702
52	0x3f81226b	1.0088629
53	0x3dac1658	0.08402699
54	0xbeea822d	-0.4580244
55	0xbd5168a2	-0.051125176
56	0xbf2b7da7	-0.66988605
57	0xbf54243c	-0.8286779
58	0xbf025009	-0.50903374
59	0x3f4b9821	0.79529005
60	0x3f1f7bb3	0.62298125
61	0xbf6db2fd	-0.9285124
62	0x3f3da541	0.7408028
63	0xbefea5e7	-0.49735948
64	0xbecd793d	-0.4013156
65	0xbf8f22e2	-1.118252
66	0xbf5b76c5	-0.857281
67	0x3f5d6794	0.8648617
68	0x3f477eba	0.77927744
69	0xbe488418	-0.1958164
70	0x3ea77c57	0.3271205
71	0xbf7d71bf	-0.9900169
72	0xc002de26	-2.0448089
73	0xbf508d56	-0.8146566
74	0x3ea52753	0.32256564
75	0x3e98f822	0.2987681
76	0x3f1d7d48	0.6151929
77	0x3e0cd29b	0.13752215
78	0x3f6f15fd	0.93392926
79	0x3f81213e	1.008827
80	0xbed24f82	-0.41076285
81	0xbf230b88	-0.6368947
82	0x3e81ee49	0.2537711
83	0x3d46a0fa	0.048493363
84	0xbfbbf8aa	-1.4685261
85	0x3f9f5278	1.2447042
86	0x3e968961	0.29401687
87	0xbed04481	-0.40677264
88	0x3f3e5488	0.74347734
89	0x3cde516f	0.02713844
90	0x3f418fec	0.7561023
91	0x3fa3f83a	1.2810128
92	0x3fb89127	1.4419297
93	0x3f4d0423	0.8008444
94	0x3f468ca0	0.77558327
95	0x3f2d42de	0.67680156
96	0xbf5ec5ba	-0.87020457
97	0xbee2567f	-0.44206616
98	0xbfa5afcc	-1.2944274
99	0x3e7ff01d	0.2499394
100	0xbfbbc2d2	-1.466883
101	0xbe867fe9	-0.26269463
102	0xbfc0f192	-1.5073721
103	0xbeed77dd	-0.4638051
104	0x3f614eb4	0.88010716
105	0x3f7256d3	0.94663733
106	0xbf603bec	-0.87591434
107	0x3f8895f1	1.0670758
108	0xbf835550	-1.026041
109	0x3eaed777	0.34148762
110	0xbda43d5e	-0.08019517
111	0xbf609dc1	-0.87740713
112	0x3f0af090	0.5427332
113	0x3f3e1289	0.7424703
114	0xbf260baa	-0.6486155
115	0xbefcadb1	-0.49351266
116	0x40018047	2.0234544
117	0x3d0b4da1	0.03400958
118	0xbd39b6ec	-0.045340464
119	0xbe108f13	-0.14117078
120	0xbf0fc4e2	-0.56159794
121	0xbf8687b2	-1.0510161
122	0x3f4c81ef	0.7988576
123	0x3f3740f7	0.71583503
124	0x3f361a7b	0.71134156
125	0xbf3b464d	-0.73154145
126	0x3f5a4873	0.852668
127	0xbe9a498c	-0.30134237
128	0xbe6b15e7	-0.22957574
129	0xbf06c5a3	-0.5264532
130	0xbf9f1b34	-1.2430177
131	0x3f5098b5	0.8148301
132	0x3f35042a	0.7070948
133	0x3f1e8771	0.6192542
134	0x3fc78398	1.5587034
135	0x3d57df41	0.052703146
136	0xbfddfd01	-1.7342836
137	0x3f857c41	1.0428544
138	0x3eb29ce4	0.34885323
139	0x3f23c6d4	0.6397526
140	0x3f3b8f4d	0.73265535
141	0x3f0453d0	0.5169039
142	0x3f4e210c	0.80519176
143	0x3f484ebe	0.7824515
144	0x3f17e451	0.5933276
145	0xbf01dc56	-0.5072683
146	0x3f35b8e8	0.7098527
147	0x3f3f0e9e	0.7463168
148	0xbf60eb36	-0.87858903
149	0xbf00d83d	-0.50329953
150	0xbe6ca980	-0.23111534
151	0xbf466d03	-0.7751009
152	0x3f01bf1c	0.50682235
153	0xbfa47c4e	-1.2850435
154	0x3f30a2df	0.6899852
155	0xbdd92abf	-0.10603856
156	0x3f14b9ce	0.58096015
157	0x3f5acd88	0.85469866
158	0x3f5479ea	0.82998526
159	0x3f2580e7	0.64649814
160	0xbf8c6220	-1.0967445
161	0xbeaa081c	-0.33209312
162	0xbf858267	-1.0430421
163	0x3e3cc9c1	0.18436338
164	0xbf22e660	-0.63632774
165	0xbfb2221a	-1.3916657
166	0xbf95f40f	-1.1715106
167	0xbea7e67b	-0.3279303
168	0x3f6413a5	0.89092475
169	0x3f861683	1.047562
170	0xbf222a7a	-0.63346064
171	0x3f58b84c	0.84656215
172	0xbf114217	-0.5674147
173	0xbf72c3da	-0.94830096
174	0x3df05587	0.11735063
175	0xbf963517	-1.1734952
176	0x3f1935af	0.5984754
177	0x3f53bc2d	0.8270901
178	0xbf701ced	-0.9379414
179	0xbf78158e	-0.9690789
180	0x400e9e88	2.228426
181	0x3b91263a	0.004429606
182	0xbf4a1e24	-0.7895224
183	0x3f0c62ae	0.54838073
184	0xbf84bf08	-1.0370798
185	0xbfaa8eba	-1.3324807
186	0xbfabf765	-1.3434874
187	0x3f1999f2	0.60000527
188	0x3ed481f5	0.415054
189	0xbf8c6a03	-1.0969852
190	0x3f2f4146	0.68458974
191	0xbf333017	-0.69995254
192	0xbf03fefd	-0.51560956
193	0xbe79a3f1	-0.24378945
194	0xbe1158b2	-0.14193991
195	0x3f2adf00	0.6674652
196	0x3ef3806d	0.4755892
197	0x3f0cc1c2	0.5498315
198	0x3f656ebc	0.8962209
199	0xbf9c6e6d	-1.2221199
200	0xbfdbb410	-1.7164326
201	0xbf1b1984	-0.6058581
202	0x3f731c56	0.9496511
203	0x3f3eb99e	0.7450198
204	0x3f4c7bec	0.7987659
205	0x3e89f37d	0.2694358
206	0x3f1dd77c	0.6165693
207	0x3f836b2c	1.0267081
208	0xbf5fa20c	-0.8735664
209	0xbf4b1b9e	-0.79339015
210	0x3f2b3a95	0.66886264
211	0x3f055f84	0.5209887
212	0xbf6e1b57	-0.9301047
213	0x3ea7a4b1	0.32742837
214	0xbf398254	-0.7246449
215	0xbebce395	-0.3689238
216	0x3f8d7916	1.1052577
217	0xbf910ab5	-1.1331393
218	0x3f4e51f6	0.8059381
219	0xbe509601	-0.20369722
220	0x3f0664a9	0.52497345
221	0x3f1fa39f	0.6235904
222	0x3ebb1675	0.3654057
223	0x3ef8d9b6	0.486036
224	0x3f04ebe9	0.5192247
225	0x3e85011a	0.25977403
226	0xbf428ab5	-0.759929
227	0x3ed83929	0.4223111
228	0xbfb6999e	-1.426563
229	0xbec76ce1	-0.38950256
230	0xbfd714ae	-1.6803186
231	0xbeabaf90	-0.3353238
232	0x3f8601ab	1.0469259
233	0x3f998f42	1.1996844
234	0xbee20c17	-0.4414985
235	0x3f1761b5	0.59133464
236	0xbeff4718	-0.49858928
237	0x3ebd5d60	0.36985302
238	0xbf8a00d9	-1.0781509
239	0x3ead6aad	0.3387045
240	0x3f37f666	0.7186035
241	0x3ee770e3	0.45203313
242	0xbf8cc0e1	-1.0996362
243	0xbf3335ed	-0.7000416
244	0x3f37fb6e	0.71868026
245	0x3dae5455	0.08512179
246	0xbf46a35d	-0.7759302
247	0x3e19c6b4	0.15017205
248	0xbf3b0893	-0.7305996
249	0xbec7625e	-0.38942236
250	0xbeda5698	-0.4264419
251	0x3f5199e8	0.8187547
252	0x3f26b228	0.65115595
253	0xbf10c64f	-0.56552595
254	0x3f039d00	0.5141144
255	0xbf0f0a56	-0.55875146

weight_sigma f4 [4, 64]
0	0xb832f2ea	-4.266474e-05
1	0xbc3b632f	-0.011437221
2	0xbd10d11b	-0.03535567
3	0xbc2a38d5	-0.010389526
4	0xbc196e5c	-0.009364691
5	0xbccf13c6	-0.025277983
6	0x3b96ba5a	0.0045998516
7	0x3c1afffe	0.009460447
8	0xbdcc33f7	-0.09970849
9	0x3cb54ca2	0.022131268
10	0xbc7532fb	-0.014965768
11	0x3c0b2b50	0.008494213
12	0x3c2b6411	0.010460869
13	0x3c4c1603	0.01245642
14	0xbbf82015	-0.007572184
15	0xbbd1cd9f	-0.006402686
16	0xbd7e60d7	-0.062104072
17	0x3d2851eb	0.041093748
18	0xbce28b33	-0.027654266
19	0x3c110033	0.008850145
20	0x3d165af1	0.036707822
21	0xbc9d7e67	-0.019225312
22	0x3d4d4a54	0.050119713
23	0xbcf6ffb4	-0.030151226
24	0xba25e97f	-0.0006329044
25	0x3c444abd	0.01198071
26	0x3c17156c	0.009221416
27	0xbdcff190	-0.10153496
28	0xbb86788e	-0.0041037267
29	0x3b8641a8	0.0040971823
30	0xba2be79e	-0.0006557646
31	0xbb351641	-0.0027631673
32	0xbb695a89	-0.0035606942
33	0x3d201eb2	0.039091773
34	0xbcb8dbe5	-0.022565791
35	0xbc878e57	-0.016547365
36	0x3c92f971	0.017941209
37	0xbd59677d	-0.05307721
38	0x3ce39439	0.027780639
39	0xbbeab189	-0.007162277
40	0xbaed220e	-0.0018091814
41	0xbb5ea131	-0.003397059
42	0xbd0fffb3	-0.035155963
43	0x3c4ed5f4	0.012624253
44	0x3bb22560	0.0054365844
45	0xbca98535	-0.0206934
46	0x3cf3b43e	0.029749032
47	0x3d5e1cdc	0.05422674
48	0x3b623927	0.0034518929
49	0xb9d85146	-0.00041259284
50	0xbadb84f9	-0.0016748003
51	0xbcedd1d0	-0.02903071
52	0xbdf8d854	-0.12150636
53	0xbd904ef5	-0.0704631
54	0xbc8e8aa7	-0.017400099
55	0x3d0a1bf6	0.033718072
56	0x3cc646f9	0.024203764
57	0xbbe59f6a	-0.007007529
58	0xbd6b4b0e	-0.057444625
59	0xba475ce3	-0.0007605089
60	0xbc3527b8	-0.011056833
61	0x3cebfdf0	0.02880761
62	0xbb6c4156	-0.0036049685
63	0x3c5334cd	0.012891007
64	0xba7933c3	-0.0009506309
65	0x3cd7e188	0.026352659
66	0xbd31b213	-0.043382715
67	0x3ad371bb	0.0016131917
68	0xbc0116da	-0.007878983
69	0xbcce728b	-0.025201103
70	0xbc0e77b5	-0.008695533
71	0xbcc6303c	-0.024192922
72	0xbc3a0207	-0.011353022
73	0x3e2b1b54	0.16709644
74	0xbc4b7461	-0.012417884
75	0x3b3b5214	0.0028582858
76	0x3bded300	0.0068000555
77	0xbc7e2eea	-0.015514115
78	0x3c188f74	0.009311546
79	0x3a54fcac	0.0008124809
80	0xbc81c168	-0.015839294
81	0xbc62e9a0	-0.013849646
82	0xba3e9d32	-0.0007271349
83	0x3ae58b88	0.0017512897
84	0xbd4a040c	-0.049320266
85	0xbc654378	-0.013993137
86	0xbdb5c5f8	-0.0887565
87	0xbdb86886	-0.09004311
88	0x3c3f314f	0.011669471
89	0xbe115768	-0.14193499
90	0x3c08f020	0.0083580315
91	0xbb22027d	-0.0024720721
92	0x3cb3c4c2	0.021944407
93	0xbb8216ca	-0.003970002
94	0xbadd3613	-0.0016877077
95	0xbba1de82	-0.004939855
96	0xba1a61e4	-0.00058892206
97	0x3cde8e16	0.027167361
98	0xbb8b515d	-0.0042516426
99	0xbc1eb2f4	-0.00968622
100	0x3d373665	0.04472961
101	0x3d8c7419	0.06858081
102	0x3cff9c76	0.031202536
103	0x3ce2264b	0.02760615
104	0x3af0d7e9	0.0018374893
105	0x3c9d3e33	0.019194698
106	0x3d0062a5	0.031344075
107	0xbc126241	-0.008934558
108	0xbd33b27d	-0.04387139
109	0x3ce18500	0.02752924
110	0x3ccd9caa	0.025099117
111	0x3d948e8b	0.072537504
112	0x39d1d248	0.00040020258
113	0x3c611d44	0.013739888
114	0x3c0055d2	0.007832961
115	0xbb5c75b1	-0.0033639485
116	0x3de5cb94	0.1122047
117	0xbd409bb2	-0.047023483
118	0xb96b846f	-0.00022460682
119	0xbb5715e4	-0.0032819444
120	0xbbf991cf	-0.0076162587
121	0x3dc1b91e	0.094591364
122	0xbc1ab0a0	-0.009441525
123	0x3c2f2509	0.010689982
124	0x3aff277d	0.0019466724
125	0xbd8862a5	-0.0665944
126	0x3c633e61	0.013869853
127	0x3bd8e0ba	0.0066185864
128	0x3a388f2c	0.0007040377
129	0xbcda528f	-0.026650695
130	0x3d1b17ab	0.03786437
131	0xbc1be24b	-0.009514402
132	0xbc0870c2	-0.008327665
133	0xbc9ec051	-0.019378813
134	0xbc47cb98	-0.012194537
135	0xba837e0f	-0.0010032075
136	0x3d1dd32c	0.038531467
137	0x3d0fa3b0	0.035068214
138	0x3bc08943	0.005875738
139	0x3c2106af	0.009828254
140	0xba885a46	-0.001040288
141	0x3c876c4d	0.016531134
142	0x3c141e2b	0.009040396
143	0xba8d2861	-0.001076948
144	0x3b672c83	0.0035274334
145	0x3de6d86a	0.112717465
146	0x3cb92e06	0.022604953
147	0xb9ca93b5	-0.00038638493
148	0xbab270f9	-0.0013613991
149	0x3ca9fdeb	0.02075096
150	0xbac584b8	-0.001506946
151	0x3c938d93	0.018011844
152	0xb85c9f89	-5.2600666e-05
153	0xbc420ab8	-0.011843376
154	0xba8c6572	-0.0010711385
155	0x3c5f7442	0.013638558
156	0xbc93d3d0	-0.018045336
157	0xbc4084a1	-0.011750371
158	0xbae5a464	-0.0017520306
159	0xbb624aa8	-0.0034529362
160	0xbc6d65e0	-0.014489621
161	0x3be30c68	0.006928969
162	0xbd08f5d3	-0.03343756
163	0x3c843afb	0.016141405
164	0x3b53252d	0.0032218203
165	0x3b8008ff	0.0039073224
166	0xbc2d35ad	-0.010571879
167	0x3d6ee425	0.058323044
168	0xbbd184f3	-0.0063940226
169	0xbbe154fa	-0.006876585
170	0x3bc1bbee	0.0059122955
171	0xbbad2cf9	-0.005284902
172	0x3c2b06af	0.010438605
173	0xbb2f6b17	-0.0026766711
174	0xbca06675	-0.019580105
175	0xbd539f27	-0.05166545
176	0x3b341a10	0.0027481355
177	0x3c4febb9	0.012690478
178	0xbab3f0cb	-0.0013728378
179	0xbc6eeecf	-0.014583304
180	0xbcfa2534	-0.030535318
181	0x3db0d983	0.08635237
182	0xbc5092e5	-0.012730335
183	0x3c358391	0.011078731
184	0x3ce1989c	0.02753859
185	0xbd9ff208	-0.07809836
186	0x3d27e0b3	0.040985774
187	0x3b41cf30	0.0029572956
188	0x3c1dcfca	0.00963206
189	0xbd11a333	-0.03555603
190	0xbb81ffb0	-0.003967248
191	0xbc9f29aa	-0.019429047
192	0xbd6d68d3	-0.057961296
193	0x3c7e4f28	0.015521802
194	0x3c30033d	0.01074296
195	0xbae54140	-0.001749076
196	0x3baa0447	0.005188498
197	0x3c545d81	0.012961746
198	0xbcce0902	-0.02515078
199	0x3cddc87c	0.027073137
200	0xbc9d992a	-0.019238073
201	0x3d10f561	0.03539026
202	0xbc2ca4e9	-0.0105373645
203	0xbbd6d9c7	-0.006556723
204	0xbc31c7cf	-0.010850861
205	0xbcc2baa0	-0.02377063
206	0xb9dffb9b	-0.00042721335
207	0x3c12ebb6	0.008967331
208	0x3d9854dd	0.074380614
209	0x3cd0d1a0	0.025490582
210	0x3b15e79a	0.002287364
211	0xb96f0751	-0.00022795542
212	0xbd1f169a	-0.038839914
213	0x3df33fa9	0.118773766
214	0xbc4f4905	-0.012651687
215	0x3c1285c1	0.008943022
216	0x398d86de	0.000269941
217	0x3d220ae4	0.039561167
218	0xb8d6275a	-0.00010211645
219	0xbdad9793	-0.08476176
220	0x3a96d88d	0.0011508629
221	0xbb4fad56	-0.003168901
222	0xbb8f4991	-0.0043727835
223	0xbc63e146	-0.01390869
224	0xbc9c1098	-0.019050881
225	0xbc11780a	-0.008878717
226	0x3d2edd1f	0.042691346
227	0xbc3e6a2f	-0.011621996
228	0x3c47bd0d	0.012191069
229	0xbc402d13	-0.0117294965
230	0x3c205959	0.009786927
231	0xbabb27ee	-0.0014278868
232	0xbb09f42e	-0.0021050083
233	0x3c2c18b5	0.0105039375
234	0xbc06067c	-0.008180257
235	0x3b6b0fba	0.0035867528
236	0xbb8deb0a	-0.0043309974
237	0xbbe30fa1	-0.0069293533
238	0xbd6fa901	-0.058510784
239	0x3db89d79	0.090144105
240	0xbb9c7897	-0.0047751176
241	0xbbcccab2	-0.006249749
242	0xbbadbe2d	-0.0053022117
243	0xbca654af	-0.020304052
244	0x3e9ddc7b	0.30832276
245	0x3d615ced	0.05502026
246	0x3c3ba633	0.011453199
247	0x3d252916	0.040322386
248	0xbc9cca3f	-0.019139407
249	0x3ce3e0ef	0.027817218
250	0x3e180e67	0.14849244
251	0xbbf58662	-0.0074928263
252	0xbc4d1ead	-0.012519521
253	0x3cb3581e	0.021892603
254	0x3bf322ca	0.0074199187
255	0x3d09688f	0.03354698

bias_mu f4 [4]
0	0x3e24f065	0.16107328
1	0x3e132c15	0.14372285
2	0x3d862102	0.065492645
3	0xbd6672df	-0.056261893

bias_sigma f4 [4]
0	0xbbb0495a	-0.005379838
1	0xbb104e4f	-0.0022019332
2	0x3b35c2d8	0.0027734544
3	0xbc7af0e0	-0.015316218
