save/model/lunarlander_dqn_noisy_hid_256_256.pth (torch_old, 817551 bytes, 18 tensors)

weight f4 [256, 8]
000000 e7 1f 72 be f5 89 9b 3e 64 c3 47 3f ba 0b 3a bf
       -0.23644982 0.3037869 0.7803252 -0.72674143
000010 54 24 ec be 6e 0e b6 be dc 86 a4 3e af 9b 46 be
       -0.46121466 -0.35557884 0.3213414 -0.19395326
000020 87 31 76 3e b0 c2 2f 3e d3 26 62 be 95 0b ad be
       0.2404233 0.17164111 -0.22085123 -0.337979
000030 32 67 d7 3f 5e 17 bf bc ef 21 1a be 6e 33 65 bf
       1.6828368 -0.023326572 -0.15052007 -0.895316
000040 f3 87 96 3d e3 8b c6 be 72 3e 1a bf 1f f7 f9 3e
       0.07350149 -0.387786 -0.60251534 0.4882135
000050 07 1c 67 bf bf d9 c0 3e 15 f2 9c bc 18 6b 17 bf
       -0.9027714 0.37666127 -0.019158402 -0.5914779
000060 5c 05 cb bc 87 4e 86 be ac 3f d6 be 6c d8 b7 3e
       -0.024782829 -0.26231787 -0.41845453 0.35907304
000070 3e b9 92 bf f1 08 41 3e 36 91 8f be a0 80 0a bf
       -1.1462781 0.18851067 -0.28040475 -0.54102516
000080 24 b1 17 bf af 77 9b be ce 4f 4d bf 1f 1c 00 bf
       -0.5925467 -0.3036475 -0.801999 -0.5004291
000090 a2 42 7a 3f 7d 7a 29 3e 7e 84 5f bd 3e f8 fa 3d
       0.97757924 0.16550632 -0.054569714 0.1225438
0000a0 aa 14 bb 3a 29 e3 32 3c 60 ee d5 3c 49 a4 37 3b
       0.0014273126 0.010918417 0.026114643 0.0028021506
0000b0 4c fb 22 c0 e4 26 ee 3d f0 9c 97 3d 7c ca 8d bd
       -2.546588 0.116285115 0.0740298 -0.069233865
0000c0 f0 03 44 3f b9 90 8c be 7f ba 36 bf 11 5b 0a bf
       0.7656851 -0.27454165 -0.7137832 -0.54045206
0000d0 a6 21 e3 3e 21 d1 23 3e 5a bc 0e 3e c7 a3 f8 be
       0.4436161 0.15997745 0.13939038 -0.48562452
0000e0 99 52 b0 be c0 64 91 3e 37 44 7f 3e 53 ad 8b 3f
       -0.34438017 0.2839718 0.24928366 1.0912269
0000f0 02 11 f9 be ca c9 ad be 60 fe 53 bd 24 aa 7f 3d
       -0.48645788 -0.33943015 -0.051756263 0.062418118
000100 32 48 38 be 13 7d a5 3b 9f 75 c2 3e 5a ae ab be
       -0.1799629 0.0050503104 0.37980363 -0.33531457
000110 f1 85 90 be 7c b2 f1 bd 81 af 78 3e 15 26 72 bf
       -0.2822719 -0.11801621 0.242857 -0.9458936
000120 d0 94 0f 3f 75 02 6b bf eb 49 8e bd 2f 31 72 be
       0.56086445 -0.91800624 -0.069476925 -0.23651575
000130 fe 32 c1 3e d6 a0 5a 3e d5 97 e6 be 51 c8 9f 3e
       0.37734216 0.21350417 -0.45037714 0.31207517
000140 a6 04 c9 3e c8 ba 4d bf 8d ff 2f bf 7e bb a0 be
       0.3926136 -0.8036313 -0.68749315 -0.31393045
000150 0d 24 f5 3e f3 77 52 bd e0 6c eb be d2 8b a8 3e
       0.47879067 -0.051383924 -0.45981503 0.32919174
000160 6d cc 05 3e 7f 96 44 3e 90 70 6c be ca 3a 63 be
       0.13066263 0.19198035 -0.23089814 -0.22190395
000170 d7 79 2e bf 88 75 db 3e 47 60 df 3e ea bb 10 bf
       -0.6815466 0.42863107 0.4362814 -0.56536734
000180 f5 76 6e 3d b8 93 fb bd 36 3e d5 3e 48 96 3f bf
       0.058218915 -0.122840345 0.41649026 -0.74838686
000190 95 75 bc 3d 70 9b d2 3c 5c bb f6 bd 9d 60 3c 3e
       0.092021145 0.025708884 -0.12047455 0.1839623
0001a0 ad 5c 58 3d 0f 8a 19 be 49 d7 f5 be ab 0c cc be
       0.052822758 -0.14994071 -0.48015812 -0.39853415
0001b0 ad ec 39 3f 00 1e 89 be 78 8d 67 3e ec ce 5a bc
       0.72626764 -0.267807 0.2261256 -0.013354998
0001c0 43 4b c4 3e cb c1 ef be 07 dc 2c bf ca 1b b9 3f
       0.3833867 -0.4682754 -0.67523235 1.4461606
0001d0 f5 ad 3f 3e 28 4f 47 3e 50 7d bc bd de 09 77 3e
       0.18718703 0.1946379 -0.09203589 0.24124858
0001e0 e0 fc 95 be ec 81 00 bf 46 86 24 bf 86 58 e6 3e
       -0.2929449 -0.50198245 -0.64267385 0.44989413
0001f0 57 70 81 be 8f 02 69 3e 73 05 de 3e d4 9d 41 bd
       -0.2528102 0.22754882 0.43363532 -0.047269657
000200 51 06 d3 3b f0 14 6f be ce 04 e8 be 81 96 43 bf
       0.006439962 -0.23347831 -0.45316166 -0.76401526
000210 72 2e b7 3e 55 37 56 3f 91 f8 14 3f fb 52 19 bf
       0.35777622 0.8367818 0.5819178 -0.59892243
000220 64 bb 43 3c 69 43 a6 3d 38 ac 99 3e 07 69 21 40
       0.011946533 0.08118326 0.30014205 2.5220354
000230 1f ac b8 3d 06 56 57 bd d7 16 0c 3f b6 47 4b bf
       0.090172045 -0.052572273 0.5472235 -0.794063
000240 3d 65 04 bd cd 2b 16 3b d4 a0 34 bf ee e3 0e 40
       -0.03232311 0.002291429 -0.70557904 2.2326617
000250 1e 51 4c 3d 1e d1 75 3e d2 39 d2 bd b9 b2 b7 bc
       0.049882047 0.24005553 -0.102649346 -0.022424089
000260 63 f4 42 bf 4a 8c d1 bd c0 8a 9f bc 63 35 62 3e
       -0.76154155 -0.10231836 -0.01947534 0.22090678
000270 32 7d 74 3e ed 1d 42 be 22 75 9b bd ac 61 b3 bc
       0.23875883 -0.18956728 -0.07590701 -0.02189716
000280 b7 70 14 3e 60 35 69 3d 6e 29 01 3d 76 21 26 3f
       0.14496122 0.056935668 0.03153365 0.6489481
000290 05 b0 55 3e bb aa f8 3e 9e 46 93 be 44 54 86 be
       0.20867927 0.48567757 -0.28764814 -0.26236165
0002a0 a8 31 47 3e c8 1e 6c be 4e df 4b bd 60 33 04 3f
       0.19452536 -0.23058617 -0.049773507 0.5164089
0002b0 82 0c 8e 3d 56 3d db 3e 66 fd ba bc 68 9f 46 be
       0.069359794 0.42820233 -0.022825908 -0.19396746
0002c0 40 5d 8f 3e 70 41 20 3f 54 f4 36 3e 7c 56 1f bf
       0.28000832 0.6259985 0.17866641 -0.6224134
0002d0 6c 6d 6c 3e fa 91 dd be 28 94 74 be ef b4 57 bf
       0.23088616 -0.43275434 -0.23884642 -0.8426046
0002e0 29 87 37 3e 7e d8 8f be 8e 52 b1 3f e8 bd 02 3f
       0.17922653 -0.28094858 1.3853319 0.51071024
0002f0 2d 85 62 bf ba ed c9 bd 7c 9e 57 3e b3 d3 ff bd
       -0.8848446 -0.09859796 0.2105655 -0.1249155
000300 72 1e 4b 3e 83 02 c0 bd 73 b4 48 bf 0d 0a 3b bf
       0.19835833 -0.09375479 -0.78400344 -0.7306221
000310 e1 b8 9e be 4f 62 26 3e 38 c0 c8 bd be f3 aa 3d
       -0.31000426 0.16248439 -0.09802288 0.083472714
000320 9b 69 58 3f c2 27 38 bf b6 7c 5f bf a1 be 55 3e
       0.8453614 -0.71935666 -0.8729967 0.208735
000330 6e d0 50 be d6 a5 6d bf 12 0c d3 3c 10 4e 85 3e
       -0.2039201 -0.9283117 0.025762592 0.2603612
000340 70 b8 83 3d a6 e7 d3 3e 75 b5 a6 bd a2 e5 f8 be
       0.06431663 0.4138767 -0.08140079 -0.48612696
000350 e0 81 05 3d da 1a 07 bd a2 a9 bf be 2a b8 0f bf
       0.03259456 -0.032984592 -0.37434107 -0.5614039
000360 2e 01 06 bc 15 28 f7 bb 1a 69 c3 3c 08 78 f4 bb
       -0.008178992 -0.00754262 0.023853827 -0.007460598
000370 1c c1 0d c0 8c e1 57 3d 1d b9 59 3d 5d 54 b5 be
       -2.2149115 0.052705333 0.053155053 -0.35415927
000380 7a 78 85 be 87 86 18 3e c8 08 04 3f 54 aa 59 be
       -0.2606848 0.14895068 0.515759 -0.21256381
000390 18 13 18 3f 1e 73 54 3e 9d 11 22 be dc 3c 79 bf
       0.59404135 0.20747039 -0.15827031 -0.9735849
0003a0 b3 98 ab bc 26 36 9d be ca ad 11 3f 5e bb 01 be
       -0.020946836 -0.30705374 0.56905806 -0.12669131
0003b0 94 75 0e bf 32 a7 b8 3e 46 b7 ee 3d fe 95 a4 3e
       -0.5564816 0.3606506 0.116560504 0.32145685
0003c0 01 3c 7c be c5 fe ef 3d 9f f8 1b 3f 93 e3 5d 3e
       -0.24632265 0.11718515 0.6092624 0.21668844
0003d0 12 70 12 3f 7f 97 49 bf b8 c1 13 3f 5a ba b8 be
       0.57202256 -0.7874679 0.57717466 -0.36079675
0003e0 73 43 32 3c 3f 45 d3 be cf 8e 76 bf 48 97 7e 3d
       0.010880339 -0.41263768 -0.9631166 0.06215599
0003f0 40 5a e5 3c a1 ca 64 3e 26 47 83 3e be 3a ab be
       0.027997136 0.22342922 0.2564022 -0.33443254

bias f4 [256]
000000 f3 39 61 be 8a f5 89 bd 1e c0 0f 3e a9 ff 9a bd
       -0.21994762 -0.06736286 0.1403813 -0.075682946
000010 74 f3 f2 bd 8c dc 4f bc 06 0f 3f be 32 c6 3c bd
       -0.11862841 -0.01268686 -0.18658075 -0.04608745
000020 fa 30 e3 bd e3 af e9 be 4c 12 2f bf 5e 73 bb be
       -0.11093326 -0.45642003 -0.68387294 -0.36611456
000030 d0 4e 06 3d 1d cd 9b be a9 db a4 3e de e0 c9 3d
       0.032790005 -0.30429927 0.32198837 0.09857343
000040 51 b9 d7 be 36 4b 91 3b 8d ca 05 3e 63 f1 d4 3d
       -0.42133573 0.0044340147 0.13065548 0.10397603
000050 e0 48 e4 be d7 eb 9b be 13 e1 d5 bd 00 0d 40 3e
       -0.4458685 -0.3045337 -0.1044332 0.18754959
000060 41 7b 6a 3c 4c 4e 4e be 45 ea cb bd c4 02 dd bb
       0.014311613 -0.20147055 -0.09956793 -0.0067447145
000070 06 7b c7 bc 04 c9 40 be 42 70 2d be af 9a 82 3e
       -0.024350654 -0.18826681 -0.16937354 0.2550864
000080 43 e0 8a be 1f 5b 64 bc 74 90 2f be 9f 98 c7 3c
       -0.27124223 -0.013937741 -0.17144948 0.024364768
000090 07 9d 3a bd f5 47 b8 be 8c 66 e8 bd 09 c8 93 be
       -0.04555991 -0.359924 -0.11347684 -0.28863552
0000a0 10 33 5f bd 70 67 25 be 30 5e 5b 3e 0b 2e 65 3e
       -0.054492056 -0.1615274 0.21422648 0.22380845
0000b0 c4 26 6a 3d 56 09 7e be 9d 4f 1f bd 82 87 27 3c
       0.057165876 -0.24808249 -0.038894285 0.010225179
0000c0 a8 a9 8c 3d bd 77 a6 bd fb 38 0b be 54 07 c3 bd
       0.06868297 -0.08128307 -0.13595955 -0.09522882
0000d0 4c 24 c7 bc 42 71 87 3e c7 10 54 3d 50 01 89 be
       -0.0243093 0.26453596 0.051773813 -0.26758814
0000e0 38 02 7d 3c a9 45 e7 be 02 14 cd bb 00 ab 8f be
       0.0154424235 -0.45170334 -0.0062584886 -0.2806015
0000f0 b3 23 54 be 8e a5 e7 be b5 ff 29 be 32 83 9e bd
       -0.20716743 -0.45243496 -0.1660145 -0.07739867
000100 4c 01 05 bf 3c e1 d0 bd b4 b5 ad bc c3 4e 90 be
       -0.51955104 -0.1019921 -0.021204807 -0.2818509
000110 cc cf 2d 3e 22 f8 a6 be 18 b2 06 be a1 82 66 3b
       0.169738 -0.32611185 -0.13153875 0.0035173076
000120 d8 77 21 bc ec c1 d9 be 62 46 2e be 8e f8 58 be
       -0.009855233 -0.42530763 -0.17019036 -0.21188566
000130 83 e0 81 3b 74 aa 03 3e 3f eb 20 bc 34 b1 34 3c
       0.0039635315 0.12857991 -0.009821712 0.011028577
000140 98 5f ea bd be bf 08 be d6 59 aa be 8c 52 af bc
       -0.11444014 -0.13354394 -0.33271664 -0.021401666
000150 d4 df 1a 3e aa 99 39 3e fc 2f 6c be fb 33 38 be
       0.15124446 0.18125024 -0.2306518 -0.17988579
000160 db 90 f7 bc 40 4c 01 bd f8 86 94 3d 05 a8 84 bc
       -0.03022044 -0.03156686 0.07252306 -0.0161934
000170 54 98 7d be df 80 8d bd 2a c8 f0 bc dc 35 bb 3b
       -0.2476514 -0.06909346 -0.02939232 0.0057132076
000180 98 83 fa bd 30 3f 1a be 65 65 c7 bc 2f 7d 84 3c
       -0.12232131 -0.15063167 -0.02434034 0.016172973
000190 50 0e e2 be 0d a4 62 bb 6f 6a 25 bd 13 81 24 bd
       -0.44151545 -0.0034582645 -0.040384706 -0.040162157
0001a0 e8 6a 54 3c a1 86 4a 3d 5d 64 04 3d c5 dc eb bd
       0.012964942 0.0494448 0.032322276 -0.11516718
0001b0 ec 5c 95 3e f6 f0 c9 bc 0f e3 1b 3e c8 66 b5 3e
       0.29172456 -0.024651032 0.15223335 0.35429978
0001c0 ba 34 e2 3e bd da ec bd 93 09 c3 bd fb 4b 52 be
       0.44180852 -0.115651585 -0.095233105 -0.20536797
0001d0 86 8a 6c be 3a eb 3e be 45 fe a5 3c 31 ca 0e bf
       -0.23099717 -0.1864442 0.020262847 -0.5577727
0001e0 d6 5e 9d be 2b 5e e6 bd a2 db 1b bc 04 09 a4 be
       -0.30736417 -0.1124843 -0.009512814 -0.32038128
0001f0 84 e8 25 bf a3 c6 53 bd 81 25 d2 be 39 30 68 be
       -0.64807916 -0.051703107 -0.41044238 -0.22674645
000200 42 6d 14 bf b8 cb 30 be 36 22 0f 3d 1c 8e 4b 3e
       -0.57979214 -0.17265213 0.034944735 0.19878429
000210 77 2f 38 bc 17 54 18 3e 85 f9 44 be 45 76 86 be
       -0.011241785 0.14875828 -0.19235809 -0.26262107
000220 cc e4 63 3d 7c cb a6 bd f8 ae 41 be a8 29 27 be
       0.05563812 -0.0814428 -0.18914402 -0.16324484
000230 21 22 17 3c e5 19 19 be af 1b df bc 64 d5 b7 be
       0.009224446 -0.14951284 -0.02723488 -0.35904992
000240 da 0e a4 3d 6c 51 79 3d 04 e7 98 3e 18 3a c2 bd
       0.08010645 0.060868666 0.2986375 -0.09483737
000250 18 58 7b bd ef 53 69 be 77 cc 60 3c f9 c1 cf bc
       -0.06136331 -0.22785924 0.013720623 -0.025361048
000260 c2 dc c7 bd 07 74 e4 bc 69 e5 81 3c 2d 76 b4 bd
       -0.09758903 -0.027887357 0.015856462 -0.08811603
000270 3b 70 24 bf 65 70 18 bd 3d 0d 90 bc 02 92 1b 3e
       -0.6423375 -0.037216563 -0.017584438 0.15192416
000280 de d8 c5 bb e4 5b 87 be 50 72 d8 bd fa 7e b5 be
       -0.0060378155 -0.26437294 -0.105686784 -0.35448438
000290 76 6e 96 be 4f 84 b0 3d 17 26 85 be 43 82 a4 3d
       -0.2938115 0.08618986 -0.26005623 0.08032658
0002a0 bd 5a 8f be 2d 69 ba bc 73 26 a2 be 8a 7c ab 3e
       -0.27998915 -0.02275523 -0.3166996 0.33493453
0002b0 46 c7 18 be 6d a2 e9 be 34 46 80 be b2 30 0f 3e
       -0.14919767 -0.45631734 -0.2505356 0.1398342
0002c0 57 2f 9d bd d9 d7 a3 bd 12 4d 41 be f5 7c a9 be
       -0.07675045 -0.08000154 -0.18877056 -0.33103147
0002d0 a3 e8 4f 3e f4 30 b3 3d eb de a4 be ff 25 1c be
       0.20303588 0.087495714 -0.32201323 -0.1524887
0002e0 c5 82 71 3e f8 d0 12 3d f4 67 52 bd 70 9f 8f 3d
       0.23585041 0.03584382 -0.05136867 0.07012832
0002f0 01 e6 dd bd 5c 85 20 be fc b6 37 3d 48 2d da bc
       -0.108348854 -0.15675873 0.044852242 -0.02663292
000300 17 2c b9 be 7c 8c ce be 8a 73 39 3c 02 fd e4 be
       -0.3616645 -0.40341556 0.011319051 -0.4472428
000310 7f 57 06 3d 18 cf 75 be 6a e0 6f be a6 98 5e be
       0.032798287 -0.24004781 -0.23425451 -0.21737918
000320 9c 67 a7 bd d0 c5 de bb f3 09 d4 3c f0 3c 0f be
       -0.08174059 -0.0067984834 0.02588365 -0.1398809
000330 96 ad a6 3d f0 d5 f2 bc cb ef 48 3d 2e 93 9f bd
       0.08138578 -0.029643029 0.04905681 -0.07791744
000340 03 ac cd bc ed e0 e2 be bc fa 09 bf be e4 0b bf
       -0.025106436 -0.4431223 -0.53898215 -0.5464591
000350 d6 f6 b7 be b8 6a a0 bd e1 63 cd 3d a0 f9 02 3e
       -0.35930508 -0.07832855 0.10028816 0.12790537
000360 44 1b e4 be 9b 40 05 be 9d 2d df be 32 62 d5 be
       -0.44552052 -0.13012926 -0.43589488 -0.4167648
000370 10 ef a2 be 2a f1 9d be d2 c2 4b be f9 07 dc be
       -0.31823015 -0.30848056 -0.19898537 -0.42974833
000380 79 91 3d be d2 7f de be 2a c4 0b bf e4 7c 4e be
       -0.18512525 -0.43456894 -0.545962 -0.2016483
000390 0c 30 3f bd 33 8e ef bd 87 8c c6 be 9a fb 8b be
       -0.04667668 -0.11697044 -0.3877909 -0.27340394
0003a0 00 ec f1 bc ae 18 d9 bd 22 76 c6 3d 66 a8 48 3d
       -0.029531479 -0.106004104 0.09690501 0.048988722
0003b0 c4 45 bf bd e7 e1 9a bd 7a 09 ca be 2d fb 03 3e
       -0.093394786 -0.07562619 -0.39460355 0.12888785
0003c0 13 09 37 bd e7 a0 49 be c8 43 85 be fb 09 80 bd
       -0.04468639 -0.19690286 -0.26028275 -0.062519036
0003d0 30 33 9c bd 08 77 89 be 02 fb 83 3d 16 9c 94 be
       -0.07626951 -0.26848626 0.0644436 -0.29025334
0003e0 f5 61 ef bd 9a 07 1d be f9 99 2a 3e e6 71 76 be
       -0.11688606 -0.15334931 0.16660298 -0.24066886
0003f0 83 91 04 be 04 f5 79 bd d8 f9 8d bd 16 f3 af 3d
       -0.12946133 -0.06102468 -0.069324195 0.08591287

weight_mu f4 [256, 256]
000000 bf 1c 98 3c f8 e5 3f bd 05 50 76 bd 2c 97 c7 bd
       0.018568395 -0.046850175 -0.060134906 -0.097456306
000010 26 c7 f4 bb 23 26 55 bd 28 7f d8 bd 66 fa ba bd
       -0.0074700294 -0.052038323 -0.10571128 -0.09129791
000020 63 fa b4 bd 70 af 0c bd cf 8b c2 bd e5 1a 50 bb
       -0.0883682 -0.034346998 -0.094993226 -0.0031754312
000030 f7 d9 b6 bd 91 46 a5 bd df 94 da 3c 20 2e af bc
       -0.08928292 -0.080701 0.026682315 -0.021384299
000040 56 0e f8 3c 0a 49 96 bd 31 02 59 bd bd 9a 38 bc
       0.030280273 -0.0733815 -0.052980606 -0.011267361
000050 2b 6f c6 bc 54 23 cb bd 6b a1 a9 bd 9a db e5 bd
       -0.02422293 -0.09918848 -0.08282741 -0.11223526
000060 18 07 1a be 89 2a 7e bc 21 f4 87 bd a4 55 91 bd
       -0.15041769 -0.015513071 -0.06638361 -0.07096413
000070 86 f5 cb bb b9 57 30 3d 15 9a ac 3a b3 5d e9 bd
       -0.006224337 0.04305241 0.0013168479 -0.11394825
000080 cb 7a 56 bd b3 91 b8 bd e2 6d 17 bd 90 a0 11 3d
       -0.0523632 -0.09012165 -0.036970027 0.035553515
000090 54 c6 ad bc b5 f5 05 3c cd 04 bd bd 0c 1f 16 3b
       -0.021212734 0.008176257 -0.09229431 0.002290669
0000a0 8b 52 ce 3c aa ad fe bd c7 70 b6 bc c0 4b c1 bd
       0.025185844 -0.124354675 -0.022270573 -0.09438276
0000b0 43 f8 bd bd 1f d5 e7 ba ec 1d c2 bd 72 4a 01 be
       -0.09275868 -0.0017687416 -0.094783634 -0.12626055
0000c0 9f 56 a6 bc fb b3 83 bd d2 cd ee bb 76 a5 10 3d
       -0.020304976 -0.06430813 -0.0072877193 0.035314046
0000d0 e7 92 5b 3b 2a cd 42 bd 7a 1f c3 bc 15 68 10 bd
       0.0033504309 -0.04755894 -0.02381872 -0.03525551
0000e0 87 f4 a2 bd 6c 87 95 bc c1 97 ec bc bd 46 96 bd
       -0.07956796 -0.01825305 -0.028880956 -0.07337711
0000f0 65 7f cb 3b 43 e9 4a bd 2f 45 74 bc c4 7f 7c bd
       0.006210255 -0.049538862 -0.014909073 -0.061645284
000100 b9 41 94 bd 36 81 28 bd b0 83 cf bd b6 1c c6 bc
       -0.07239098 -0.04113885 -0.10132539 -0.024183612
000110 e5 e1 37 bd b6 1e 88 bd 57 ff 31 bd 19 79 e9 bc
       -0.044893164 -0.06646483 -0.0434564 -0.028500127
000120 7c 82 fe bd b9 dc 8d bd d0 5f 60 bd 53 4e 63 bc
       -0.12427232 -0.06926865 -0.054778874 -0.013873654
000130 e6 d3 c1 bd db 65 8f 3c f5 49 fc bd 35 60 76 bd
       -0.094642445 0.017504623 -0.12318794 -0.060150344
000140 7a c3 8a bd 75 51 10 bc c6 92 79 3a a5 dc c4 bd
       -0.067755654 -0.008808483 0.0009520467 -0.09612397
000150 03 32 21 bd 71 19 84 bd f0 40 8d ba eb 07 69 bd
       -0.039354336 -0.06450165 -0.0010776799 -0.056892317
000160 50 a1 11 3c bc c4 5a bb 00 51 07 be 2b 1f 1b bd
       0.008888558 -0.0033381423 -0.13214493 -0.03787152
000170 30 81 33 bd 34 9c 82 bd af ee d3 bd 5f 74 13 bd
       -0.043824375 -0.0637745 -0.1034826 -0.035999652
000180 08 00 9c 3c 43 59 21 bd f4 ba 5c 3d eb 83 8f bd
       0.019042984 -0.039391767 0.05388923 -0.07007583
000190 cc 8e a6 bd 54 a3 4d 3d 88 9f 6b bd a1 8f 9f bc
       -0.08132705 0.05020459 -0.057525188 -0.019477667
0001a0 5d 29 46 bd d8 ee 5f bc 2a 8e dc 3b 82 60 c8 bd
       -0.04837929 -0.013667785 0.0067308145 -0.097840324
0001b0 e5 c5 ed bd 48 77 e1 bc 1a d1 11 bd c6 c3 03 be
       -0.11610011 -0.027522698 -0.035599805 -0.1286765
0001c0 b9 8c c3 bd cd 21 47 3c 1c 3b f7 bc b0 f7 64 3d
       -0.09548325 0.012154055 -0.030179553 0.055900276
0001d0 90 e2 82 bb 40 24 7d bd 25 79 fd bd 7f 29 83 3b
       -0.0039942935 -0.06180215 -0.12376622 0.0040027495
0001e0 25 b3 0a be f6 6a 02 be 66 cf fa bc ff 6c 58 bc
       -0.135449 -0.12736115 -0.030616473 -0.01320958
0001f0 da 45 c3 bc ac e4 85 bd 5b 09 37 bc 28 30 97 bc
       -0.023837019 -0.06537756 -0.011171664 -0.01845558
000200 23 06 d9 bc cd 60 dd bc c6 14 4f bd 9e ac 92 bd
       -0.026492184 -0.027023697 -0.05055692 -0.0716183
000210 e2 db 0f bd d9 68 ae 3c c0 d0 51 bd b9 10 b3 bd
       -0.035121806 0.02129023 -0.05122447 -0.08743424
000220 89 67 b3 3a 14 03 b0 bd ad 8b c2 bd de 0d 46 3c
       0.0013687472 -0.08594337 -0.09499297 0.012088267
000230 00 dd 82 bd 5b b3 54 bd 0c 2d a5 bd 12 6b c7 bc
       -0.06389809 -0.05192886 -0.08065233 -0.024343047
000240 70 4e ac bd 84 1e 13 be 8f e4 ab bd b9 c2 d8 bc
       -0.08413398 -0.1436711 -0.083932035 -0.026460038
000250 84 f8 08 be 2d 8f 33 3c db 7e 8c bd f8 69 01 3d
       -0.13376051 0.010959429 -0.06860133 0.0315952
000260 60 ad b7 bd 95 52 ef bd eb 37 0c be 60 92 2e 3d
       -0.089686155 -0.11685673 -0.13693206 0.042620063
000270 d3 94 3f bd a1 d9 24 bd e2 3a ff bd 38 2e 3f bd
       -0.04677279 -0.04024661 -0.12462403 -0.046674937
000280 df 71 39 bd 83 ce 57 bd bf fd 03 3b 99 ce 18 3d
       -0.04527461 -0.05268718 0.0020140258 0.037306402
000290 47 d4 06 bc c5 51 d2 bd 6d fd 32 bd 94 e2 c3 bd
       -0.008229322 -0.102695026 -0.043698717 -0.09564701
0002a0 0f ba b4 bc 33 21 1e bc 12 89 64 bd 95 40 93 bd
       -0.022061376 -0.00965147 -0.055794783 -0.071900524
0002b0 5f c5 cf bd f0 a8 9a 3c f1 51 ee bd 25 30 90 bd
       -0.101450674 0.018879384 -0.11636723 -0.07040433
0002c0 0a 64 b2 bd cd b9 ad bd c8 e4 20 3d 91 98 97 bd
       -0.08710487 -0.08482704 0.039280683 -0.074021466
0002d0 f0 78 ae bd 10 d4 24 bd 06 eb 85 bd f3 a5 c3 3c
       -0.08519161 -0.0402413 -0.06538968 0.023882842
0002e0 60 fa f2 3c 10 d9 82 3a e8 b4 c0 bd 06 3b 94 bd
       0.029660404 0.0009982903 -0.09409505 -0.0723782
0002f0 81 b6 c2 bd 1c 9d 51 bd 3c 9e 5d bc c9 55 8e bd
       -0.09507466 -0.05117522 -0.013526496 -0.06949956
000300 7d c5 56 3c e5 bd 83 bd eb 61 28 bd 94 c6 e0 bd
       0.013108608 -0.06432704 -0.041109007 -0.10975376
000310 cd 05 79 bd 36 b4 99 bd bd 3f 9f bc 35 9a b7 3d
       -0.060796548 -0.07505076 -0.019439572 0.089649595
000320 c4 5e 61 3c 00 3e 30 bd a3 c1 ab 3b a3 47 e7 3b
       0.013755504 -0.043027878 0.005241589 0.0070581003
000330 4e 09 64 bd d0 e6 f8 bd bf 59 51 bd 80 af 05 be
       -0.055672936 -0.12153399 -0.05111098 -0.13055229
000340 68 1f 97 bd 44 7b 86 bd 05 4e c7 bd a5 f9 09 bd
       -0.07379037 -0.0656648 -0.09731678 -0.033685345
000350 63 ee d6 bc 3d f3 01 bd 93 a1 e6 bc 7f 88 15 bd
       -0.026236719 -0.03172611 -0.028153216 -0.036507126
000360 65 f9 04 bc b5 e9 56 bd 73 d8 31 bd 1f 87 84 3b
       -0.008116101 -0.052468974 -0.043419313 0.004044428
000370 5c a0 75 bd 30 2c 6d bd d1 f6 2f bd a9 e2 2a bd
       -0.059967384 -0.05790347 -0.04295999 -0.041720066
000380 2d 16 b5 bd 36 7e 6b bd 3a 4a 4b bd 4b e7 cb bd
       -0.0884212 -0.05749341 -0.049631335 -0.09956225
000390 cd bd 2b 3d be 3a 79 bd 41 57 c6 bb 3e e0 1a 3d
       0.041929055 -0.060847037 -0.006052882 0.03781151
0003a0 fd 86 a3 bd 3b 38 f9 3c e6 38 7b 3c a6 e1 b3 bd
       -0.07984731 0.03042232 0.01533339 -0.087832734
0003b0 6c 62 3f bd a2 26 44 bd ae 26 8e bc ea 90 11 be
       -0.04672472 -0.047888406 -0.017352428 -0.14215437
0003c0 e9 c1 cb bd e4 2a 70 bd 40 89 4f bb 17 69 02 be
       -0.09949095 -0.058634654 -0.00316675 -0.12735401
0003d0 77 37 a4 3b 35 5e c2 bc c7 93 bc bd 44 cb fa bc
       0.0050114947 -0.023726562 -0.09207874 -0.030614503
0003e0 55 7a 08 3c fd 11 67 3d 06 47 e0 bd b4 48 a6 bd
       0.0083299475 0.05641364 -0.10951047 -0.08119336
0003f0 2a 1b d5 bd f8 8c a1 bd 2f 70 83 bd d1 20 a5 bd
       -0.10405572 -0.07888216 -0.06417882 -0.080629

weight_sigma f4 [256, 256]
000000 56 6a 62 3d 71 8d 19 bd cf c3 84 3d a5 2a 83 b9
       0.05527719 -0.037488405 0.0648266 -0.0002501804
000010 2b 0a af 3c 8d 4f da bc c1 37 f5 3b a5 84 b0 3d
       0.021367153 -0.02664926 0.007483453 0.0861905
000020 1f af 58 3d 2f 68 d2 3b 13 5f b3 3d 01 a0 93 3c
       0.052901383 0.006421111 0.08758368 0.018020632
000030 0b c5 5d bd a7 16 7c 3d d5 64 1a 3d c2 62 5a 3d
       -0.054142993 0.06154504 0.037693817 0.05331684
000040 ea e2 a1 3c 06 8e f8 3c ec 74 94 3d d3 ac 62 3d
       0.019761521 0.03034116 0.072488636 0.0553406
000050 e2 7c 10 3d 9d 1c d8 3c d4 1f eb 3c a6 17 82 3d
       0.035275348 0.026380831 0.0287017 0.06352167
000060 1e 74 c3 3d c0 92 c3 bd 44 71 13 3d af 1d 89 3d
       0.09543632 -0.09549475 0.03599669 0.06695115
000070 5b ad a3 bb 6a 94 72 3d 37 8e ef bc 2c ec ab bc
       -0.004995031 0.05922357 -0.029242618 -0.020986639
000080 95 c6 3a 3d 83 3f 29 3d 82 56 71 bb 2e bf ca 3c
       0.04559954 0.041320335 -0.0036825244 0.024749365
000090 d2 49 7b 3d da 4b 71 3b b6 3b f9 bc f7 51 af 3a
       0.061349697 0.0036818893 -0.03042398 0.0013375868
0000a0 e1 47 8c 3d c4 46 50 bd eb 2c 40 3d 8c 71 0f 3d
       0.06849647 -0.050848737 0.046917837 0.035020396
0000b0 db de 99 bc 7b 32 3d 3d a0 4e 5d 3b 67 13 01 3e
       -0.018783024 0.04619072 0.0033768788 0.12605058
0000c0 77 19 d6 3c 53 51 74 3b c4 06 85 3d e8 e6 d7 3c
       0.02613519 0.0037279918 0.06495431 0.026355222
0000d0 8a 01 f1 bd 90 89 e4 bc b9 42 a0 3d dc 73 96 3d
       -0.11767872 -0.027897626 0.07825226 0.07346317
0000e0 38 1d 9f bc 3f 01 ae 3c c2 ce 61 3d 0c 98 23 3d
       -0.019423112 0.021240829 0.05512882 0.039939925
0000f0 6f f4 bf 3d 9c 9c 13 3d b0 29 a4 3c 23 61 1f 3d
       0.09372794 0.036038026 0.02003941 0.038910996
000100 84 0c 9a 3d 82 df 98 3d f7 43 3c 3d 9a 54 60 3d
       0.075219184 0.07464506 0.045963254 0.054768182
000110 f5 63 1c 3d c4 b2 ef 3c 9f 47 a9 3c 99 20 8b bd
       0.038181264 0.029260047 0.020664034 -0.06793327
000120 de 6a 5b 3d f0 1b 2f 3d 4a 62 f0 ba 5c 7e 5e 3d
       0.053568713 0.042751253 -0.0018339839 0.054319724
000130 6a da 48 bd 36 cc 8f bc 19 ac 82 3b 70 90 47 3d
       -0.04903642 -0.01755343 0.003987801 0.04872173
000140 a8 02 be 3d b2 da b2 3d 13 fb 02 3d 94 5f 63 3d
       0.092778504 0.08733119 0.031977724 0.055511072
000150 3e a2 1e 3c 10 5b cc 3c 87 9c 2c bb 85 f8 76 3d
       0.009682236 0.024945766 -0.0026338415 0.0602956
000160 f7 e5 d3 bc 8a 50 d2 3c 74 54 33 bb 85 4b f9 bb
       -0.025866492 0.02567317 -0.002736357 -0.0076078796
000170 ba e9 a8 3d e1 d8 25 3d f2 d5 d0 3d 68 c6 7e 3d
       0.08247705 0.040490035 0.10197057 0.062200934
000180 f9 99 7a 3d 43 c4 9c 3c c0 6a 97 3d 11 2b 80 3d
       0.061181996 0.019136554 0.07393408 0.06258214
000190 7a 28 da 3c ae cb e4 bc e6 4d ca 3c 4a 45 94 3c
       0.026630629 -0.027929153 0.024695348 0.018099446
0001a0 ef 6d 54 3d 31 c9 14 3d a8 92 88 3d 2c ee b9 3c
       0.051862653 0.036324684 0.066685975 0.022696577
0001b0 de 18 40 bb d8 4f ab 3d f1 f3 c3 3d 9d b2 a1 ba
       -0.0029311697 0.08364838 0.095680125 -0.0012336556
0001c0 cf 9f 99 3c e6 e5 00 bd a7 01 0a 3d 00 00 00 3d
       0.01875296 -0.03146925 0.033692982 0.03125
0001d0 55 b5 90 bb 06 08 64 3d 74 41 06 3e 7d b2 cf 3d
       -0.0044161477 0.055671714 0.13110906 0.10141466
0001e0 8f ce 9c bc 42 9e 24 bc 6f 0b e0 3c 26 9e e4 3c
       -0.019141464 -0.010047497 0.027349202 0.027907442
0001f0 3e c2 ab 3c e7 8b b9 3c 15 ec 6b 3b b7 1a 8d 3d
       0.020966645 0.022649718 0.003599887 0.06889861
000200 89 0a 37 bc 85 fd b9 3d c6 ab 54 bd 84 54 0b 3d
       -0.011171945 0.09081558 -0.05192163 0.034016147
000210 51 28 55 3c a7 ed a6 3d 22 1c 06 bd 8c ac b3 39
       0.0130101 0.08150797 -0.032741673 0.00034270098
000220 de ab 1f 3c 8c 94 a3 3d b4 92 b2 3c 33 e8 aa 3d
       0.009745566 0.079873174 0.02179847 0.0834507
000230 7b f2 81 3c 3f e1 91 bd a8 35 9e 3c 47 02 aa bd
       0.015862694 -0.071230404 0.019312695 -0.083012156
000240 4c de a4 bc 59 34 93 bc 1a 1f 28 3c a6 27 48 3d
       -0.02012553 -0.017969297 0.010261321 0.048865937
000250 95 93 61 3c fa 39 13 3d 9d 51 38 bd 91 ec 33 bc
       0.013768096 0.035943963 -0.044999707 -0.010981695
000260 da d7 c3 3d c7 fd b9 3d 80 03 92 bd 09 10 9e 3c
       0.09562655 0.09081607 -0.07129574 0.019294756
000270 a1 eb c7 3c 41 ed 1c 3d 03 45 82 3d f7 91 9f 3d
       0.024404349 0.0383122 0.06360819 0.077915125
000280 c7 f4 ce 3c 46 4e 09 bd 41 19 94 3d 0c 6f 08 3d
       0.025263203 -0.033521913 0.07231379 0.033309028
000290 4b a7 c2 3c d2 bc e6 3d 51 d4 8d 3d b0 72 b3 3d
       0.023761412 0.11266483 0.06925262 0.08762109
0002a0 a9 37 09 3d 04 b3 a6 3c 00 00 00 3d da ce 51 3d
       0.033500347 0.020349033 0.03125 0.05122266
0002b0 e0 d0 27 3e 54 60 64 3d 4f 94 51 3d 20 9c 04 3e
       0.16388273 0.05575593 0.05116683 0.12950182
0002c0 51 ea 5c 3d e5 8d 87 ba 98 7f 7e 3d 86 da e7 3c
       0.0539344 -0.001034197 0.0621334 0.028302442
0002d0 d2 cc 19 ba 05 d2 e9 3d 00 49 69 3d d8 27 32 3d
       -0.00058670074 0.11417011 0.056954384 0.04349503
0002e0 90 21 9d bc 5e 50 22 bd d7 1d 29 bd fd 70 94 bd
       -0.019181043 -0.039627425 -0.041288223 -0.07248113
0002f0 b7 79 41 bd 9f 6b 95 3d b6 95 e7 3d d7 91 03 3d
       -0.047235217 0.07295918 0.11307852 0.032121506
000300 ed 25 5d 3d 2a 33 be 3d 36 39 77 3c a6 b9 a3 bc
       0.053991247 0.092871025 0.015089324 -0.019985985
000310 8c 28 d8 bc bb 62 32 3d 73 02 5d 3c b8 e4 b9 3d
       -0.026386522 0.043551188 0.0134893535 0.09076828
000320 50 63 2e 3d a3 cd ad bb 93 d9 9c 3d 29 c9 f3 3d
       0.04257518 -0.005304055 0.076586865 0.11903603
000330 0c 3f 8f 3d 71 f2 00 3c 32 23 9f 3c 97 b2 1c 3d
       0.06994447 0.007870303 0.019425962 0.038256254
000340 65 1b b9 3c 1f db 0f 3d 92 3e 95 3d d3 4d a6 bc
       0.02259607 0.03512108 0.07287325 -0.020300781
000350 81 9a 06 3d e3 58 7d 3d 95 24 0a 3e fc 51 76 3b
       0.03286219 0.061852347 0.13490517 0.0037585488
000360 d0 74 fb 3c 56 06 66 3d 48 56 c5 bb ca 7e 97 3d
       0.030695349 0.056158386 -0.0060222484 0.0739723
000370 00 00 00 3d 7f df 30 3c 5b 00 69 3d f4 a0 37 3d
       0.03125 0.010795473 0.056885105 0.04483123
000380 74 ca 7c 3d 48 2f 92 3c 9e 8b 5e bc 9b 19 9d 3c
       0.06171651 0.017844811 -0.013583092 0.019177249
000390 ae 93 83 3d 89 31 e3 3d ee 15 73 3d 88 54 1a 3b
       0.06424652 0.110934325 0.059347086 0.002354892
0003a0 f0 38 84 3d b0 ac 04 3d 69 4b c3 3d 6e d2 5a bb
       0.064561725 0.03239125 0.09535868 -0.0033389586
0003b0 27 6b 06 bc 39 3c ab 3c 30 1a 4d 3d 87 f4 87 3c
       -0.008204258 0.02090274 0.050073802 0.016596092
0003c0 52 b2 91 bd a6 42 5d 3d 00 00 00 3d 46 52 b3 3d
       -0.0711409 0.05401864 0.03125 0.08755927
0003d0 de ed 5f 3d c0 e3 37 3b b0 46 c9 3c da ca 40 3d
       0.054670207 0.0028059334 0.02456984 0.047068454
0003e0 84 e4 17 3d 1d 07 ea bc 69 b8 a0 3d 47 60 a5 3d
       0.037083164 -0.028567845 0.078476734 0.08075004
0003f0 f6 56 69 3c 52 e1 a2 3c 43 10 9f bd 70 13 09 3c
       0.0142419245 0.019882832 -0.077667736 0.008366451

bias_mu f4 [256]
000000 b0 68 94 bd 89 1e 8f 3e 45 0d 04 be 84 0c 8d 3e
       -0.0724653 0.27952984 -0.12895687 0.2754861
000010 80 f9 6f be 67 7c af bd 35 3d b9 bd ca 1e 4a be
       -0.2343502 -0.0856865 -0.090448774 -0.19738308
000020 30 fd 2c be 65 35 3f 3e b2 c5 9e bd 6c cc cb be
       -0.16893458 0.18672712 -0.07752551 -0.398044
000030 3f 50 7c be c1 6d 7e bd c0 44 60 3e 11 c3 63 be
       -0.24639986 -0.06211639 0.21901226 -0.2224238
000040 b8 f2 63 be 30 77 bc be 36 2d bf bd 80 17 45 3c
       -0.22260559 -0.36809683 -0.09334795 0.012029529
000050 73 bc a6 3e ab 0f cd be f7 2f e4 3d 19 1d bf be
       0.3256565 -0.40051016 0.11141961 -0.37326887
000060 63 46 da bd c8 36 79 be 9f d7 48 3d 9c 62 ea bc
       -0.106579565 -0.24337304 0.049033757 -0.028611474
000070 17 a2 e6 bd 6c b2 f7 bd f8 27 78 be 5d 79 42 bd
       -0.11261385 -0.12094578 -0.24233997 -0.047479022
000080 41 3d a6 be a2 82 05 bf d4 5e 59 bd 07 cf b5 be
       -0.32468608 -0.52152455 -0.05306895 -0.35509512
000090 aa df f1 be 14 a7 c6 be 01 bb a4 bd 32 2e 98 be
       -0.47240955 -0.38799345 -0.08043481 -0.29722744
0000a0 c1 59 47 bd 92 19 8e 3e 7b 8e 1c be 02 bb bf be
       -0.04866958 0.27753884 -0.15288727 -0.37447363
0000b0 bf 26 f6 bd d1 aa 8e be 21 72 d1 be 44 35 9d be
       -0.12019109 -0.27864698 -0.40907386 -0.307047
0000c0 b1 8c f1 bd 61 78 c1 be db c3 fa 3c a1 22 0d be
       -0.11794413 -0.37787154 0.03061097 -0.13782741
0000d0 2a 75 aa 3e 96 77 e9 bd 87 c5 7a be 3c 56 5b 3e
       0.33292514 -0.11399762 -0.24489413 0.21419615
0000e0 8e 30 a5 3d 0c dc fc bd 86 06 4e be fd 7e 97 be
       0.08065902 -0.12346658 -0.20119676 -0.29589072
0000f0 fa 76 c0 3d e2 f0 32 be 67 20 94 be d3 ab 6f be
       0.09397693 -0.17474702 -0.2893097 -0.2340539
000100 a4 23 80 bd a1 b0 d0 bd d0 bb e4 be 0d 90 ad be
       -0.06256798 -0.10189939 -0.4467454 -0.33898965
000110 03 5e dc be d3 b3 92 bd b5 c4 14 be 64 b1 b2 be
       -0.43040475 -0.07163205 -0.14528163 -0.34900963
000120 a6 6d b4 3d 3c ba 43 3e 39 47 b5 be 18 2c a6 be
       0.08809976 0.19114012 -0.354059 -0.32455516
000130 8b 2b 59 be ca 88 8b be 27 c5 00 3e 34 8c 38 3e
       -0.21208017 -0.272528 0.12575208 0.18022233
000140 55 da 9c 3d e1 5c f0 3d 62 0c 89 3e e6 de 37 bd
       0.07658831 0.11736465 0.2676726 -0.044890307
000150 d0 fa 00 3f 23 c5 ac be 96 f3 9b be 18 9c 90 bd
       0.5038271 -0.33744153 -0.3045928 -0.070610225
000160 f6 8d ab 3d b9 90 cd be d4 fd e3 be 42 14 9a bd
       0.08376686 -0.40149477 -0.44529593 -0.07523395
000170 66 22 7d bd 71 d7 9f be da 63 88 bd ed 5d d5 bd
       -0.061800383 -0.31219056 -0.0665967 -0.104183055
000180 c4 4d cc 3d e4 72 5d bd 4b a0 95 be 02 2e 9b 3e
       0.0997577 -0.054064646 -0.29223856 0.3030854
000190 9c c1 cf be e5 eb ab be 7a 60 92 bd 82 04 e9 bd
       -0.405774 -0.3357841 -0.07147308 -0.11377813
0001a0 aa a6 c1 3d b4 34 3b be 2c 66 bf 3e 1c fe ae bd
       0.09455617 -0.18281823 0.37382638 -0.08544561
0001b0 3e fa 91 3e 29 f6 b5 3e 92 9d d0 be 47 d1 d6 be
       0.28511232 0.35539368 -0.40745217 -0.4195654
0001c0 21 0d 9f be bf 71 82 3d a1 52 93 3e 9f 53 8d bc
       -0.31064704 0.063693516 0.28773978 -0.017251788
0001d0 ff 36 1b bd aa 9b 44 3b be 8b 88 be 4d a1 fe 3d
       -0.037894245 0.003000001 -0.26669115 0.124331094
0001e0 77 9b 16 3f b1 49 68 be 75 28 77 3e 67 5a c3 be
       0.5883097 -0.22684361 0.24136527 -0.3815491
0001f0 3b 10 8b bd 6b 2d 13 be f5 e7 1c 3d f0 11 9b bd
       -0.06790205 -0.14372794 0.03830715 -0.07571781
000200 68 e3 09 be 0b 7b b0 bd 74 61 6b be 4e b6 02 be
       -0.13465655 -0.086172186 -0.22986394 -0.12764856
000210 c0 ca c7 be ac 7c 95 be 62 fa 7a 3b 2f b2 99 3d
       -0.39021873 -0.2919668 0.0038296212 0.07504689
000220 54 19 d5 3e 7c d3 30 3e 8f 5b 65 be 26 5f 75 3e
       0.41620886 0.17268175 -0.22398208 0.23962077
000230 27 5a 14 3d c9 41 3c be fc 8f 99 bd 65 1b 2a be
       0.03621879 -0.1838447 -0.07498166 -0.16612013
000240 47 86 b0 bd 27 be 7f 3e 71 a4 26 be 13 cb 08 be
       -0.08619361 0.24974881 -0.16273667 -0.13358717
000250 1f ed 19 3f 58 d2 a9 3e f3 80 9e 3e 0a e0 06 bd
       0.60127443 0.33168292 0.30957755 -0.032928504
000260 bc 23 a9 be 7f c0 71 3e 85 00 a1 3e 32 ea b7 be
       -0.33035076 0.23608588 0.3144571 -0.35920864
000270 b2 2c c3 3e b0 e5 53 bd bb 21 a0 be 32 6f 9d 3e
       0.38120037 -0.05173272 -0.31275734 0.30748898
000280 df 0f b8 be 69 ae 80 be df 84 63 3e 45 31 51 be
       -0.3594961 -0.25133064 0.22218655 -0.20428951
000290 d7 e9 9d be da 17 10 bd 6e 06 65 3e b3 9e c8 be
       -0.30842468 -0.035178997 0.22365734 -0.39183578
0002a0 f3 10 ff be d8 8f 60 bd 99 49 c7 bd 85 2c b9 bd
       -0.4981762 -0.05482468 -0.097308345 -0.090416946
0002b0 0c 5d 83 bd 3a 59 30 bd 5f aa bb bd ff 5e a9 be
       -0.06414232 -0.043053843 -0.09163355 -0.3308029
0002c0 39 bf 9d be 4d e8 98 bd 74 d8 7b 3e 1b 2c 23 be
       -0.30809954 -0.07466183 0.24594289 -0.15934794
0002d0 39 9b 41 bd a8 bf 9c be fa 25 7f bd 98 db 75 be
       -0.047267172 -0.30614972 -0.062292077 -0.2400955
0002e0 4a 5c 06 be f7 d1 25 3e 0b 46 fc be 4a eb d4 be
       -0.13121143 0.16193376 -0.4927219 -0.4158576
0002f0 05 6c ce be 2c 56 26 bd 75 df 13 be 75 c5 07 be
       -0.40316787 -0.040609524 -0.14440711 -0.13258918
000300 a8 c0 24 3e b8 45 81 be ae 04 01 be de 64 c1 3e
       0.16089118 -0.25248504 -0.12599441 0.37772268
000310 90 4f d1 be 9a a4 0f 3e 7c f9 1d 3d f7 a1 8f be
       -0.40881014 0.14027634 0.038568005 -0.28053257
000320 42 2e 3a bd a4 6e b4 be 55 e2 35 3e d9 f4 9a be
       -0.04545427 -0.35240662 0.1776212 -0.3026493
000330 b6 ac 96 be 0e 37 0b be d7 4f 89 3e 9a da a0 bd
       -0.29428643 -0.1359522 0.26818725 -0.07854195
000340 cd a5 a1 be f0 d4 55 be f0 79 c2 be 8f 12 f8 3d
       -0.31571808 -0.2088201 -0.37983656 0.12112915
000350 29 ec 35 be b8 25 73 3e 66 d0 bd be 20 bc 8f 3e
       -0.17765869 0.23744857 -0.37073058 0.28073215
000360 6b 6a 8b be 05 c8 be be 24 2e 22 be 9a 2c 38 3d
       -0.27229628 -0.37261978 -0.15837914 0.04496441
000370 00 a1 1a be 1c 17 6d be 7f f1 6c be 4b ed df bd
       -0.15100479 -0.23153347 -0.23138998 -0.10933932
000380 fe 61 7e bd 0b 6c ee bd 11 60 f9 bd c2 ac 74 bc
       -0.06210517 -0.11641701 -0.12176526 -0.014933767
000390 89 c5 a5 3e fc 86 d5 be 95 6d 7e be 7c 5f ad be
       0.3237727 -0.41704547 -0.2484649 -0.3386191
0003a0 3e fc 24 3e 2f 86 43 be 4e d9 0a be 57 38 8e be
       0.16111848 -0.19094156 -0.13559458 -0.2777736
0003b0 ac 73 2d bd 69 0e 91 be 06 e2 8c bc 19 ed a5 be
       -0.04234664 -0.28331307 -0.01719762 -0.32407454
0003c0 a4 79 d0 bd 5f 9e 69 be f1 b8 2b be 47 a8 af 3d
       -0.10179451 -0.2281432 -0.16769768 0.08577018
0003d0 68 f3 82 be 2c 92 7d be 10 8b 9c be d3 a2 93 be
       -0.2557633 -0.24762791 -0.30574846 -0.28835163
0003e0 d5 4a 92 bd 51 7d 36 be 8d fd 91 be 05 4e aa be
       -0.07143179 -0.17821242 -0.28513756 -0.3326265
0003f0 00 95 a3 bd 88 06 de be 76 c4 b1 bd 6d 04 0c be
       -0.07987404 -0.43364358 -0.0868005 -0.13673563

bias_sigma f4 [256]
000000 96 ef 48 bb 7a f6 ba bb f6 69 d4 3d de 40 20 3c
       -0.0030660382 -0.005705652 0.10371773 0.009781091
000010 98 a4 63 bd d6 d6 63 3d 23 b2 94 3d ec 79 1a 3c
       -0.05557689 0.055624805 0.072605394 0.0094284825
000020 10 57 61 3d 35 ba 8c bc b0 50 f5 bc db 57 9a 3d
       0.05501467 -0.017178634 -0.029945701 0.07536288
000030 67 40 71 bd 5b aa b7 bc 73 a5 bd bc 69 c8 12 bd
       -0.05889931 -0.022420099 -0.023150181 -0.035835657
000040 8d bf 6b 3d 10 8b 59 bd c8 b1 b7 3c 2d 1f 79 bd
       0.057555724 -0.053111136 0.02242364 -0.060820747
000050 a1 32 47 ba c9 cf 0f bd db fe 0a 3d 37 e4 2d 3d
       -0.0007598792 -0.03511027 0.033934455 0.04245397
000060 35 80 dc 3d 9f de 6a 3e 18 ca bb bb 7b fb 41 3d
       0.10766641 0.22936486 -0.0057308786 0.04735897
000070 ae 44 b5 3d 38 83 6b bc c2 1a 30 bd cc 2b 94 bc
       0.0885099 -0.014374547 -0.04299427 -0.01808729
000080 4b 27 e3 b9 0c 5e b1 bd a3 d7 b8 bb 87 3b 13 bd
       -0.0004332609 -0.08660516 -0.0056409403 -0.03594544
000090 5c 36 b9 3c bf 45 30 3e 29 f2 b5 3b 22 b3 a0 3d
       0.022608928 0.17214106 0.0055525494 0.07846667
0000a0 08 e6 02 bd 8d 98 22 3c 74 6d 43 3d f9 ea 03 be
       -0.031957656 0.009924066 0.047711805 -0.12882604
0000b0 60 d9 c2 bd ab 00 42 3d ea 3f 85 bd 44 54 86 3c
       -0.09514117 0.04736392 -0.06506331 0.016397603
0000c0 4d f0 9c bd eb 6d 6b be 8d 14 df 3c 1f e5 48 3d
       -0.07663021 -0.22991149 0.027231479 0.049046632
0000d0 03 40 4b 3c 84 07 6f bc bf ef 89 3d f8 c6 ea 3b
       0.012405398 -0.014589194 0.06735181 0.007164832
0000e0 2f 36 96 3b ba 53 83 3d 51 48 da bc a2 36 8d 3d
       0.004584096 0.06412454 -0.026645811 0.06895186
0000f0 8f 75 02 bb fa a5 b1 3d ad 90 8a 3b 54 24 6a 3d
       -0.0019906496 0.08674236 0.0042286725 0.05716355
000100 db a2 f8 3c 16 b5 22 be b5 99 88 3e 65 c2 84 3c
       0.030351093 -0.15889391 0.2667977 0.016205976
000110 77 5f 62 3d e4 2e 0f bd 85 b7 89 3d 3b de b2 bd
       0.055266824 -0.034956828 0.06724457 -0.08733793
000120 b9 c9 e6 3b 48 b2 90 bc 5c fb 91 3d 37 72 97 3d
       0.00704309 -0.017663136 0.07128021 0.07394832
000130 7c 2b 1a bc 41 a5 15 3d 59 d4 4b bd de c5 24 3d
       -0.009409782 0.03653455 -0.049763057 0.040227763
000140 a5 ac bf bd 48 95 cd bb 62 45 7a bb 8b a2 5b 3c
       -0.09359101 -0.006273899 -0.0038188328 0.0134054525
000150 10 2a 1b bd ec a6 1c 3e 0e 9f 6d 3c 48 d4 b0 3c
       -0.03788191 0.1529805 0.014503254 0.021585599
000160 da 69 83 3d 20 ff 3e bc fa 3a 64 bc 55 23 34 3d
       0.06416674 -0.011657506 -0.013930077 0.043979008
000170 af df d0 3c 65 ff 0a be c5 02 4d 3c 1d d2 25 3c
       0.025497286 -0.13573988 0.012512867 0.010120896
000180 5f 8b 11 bd 2e 26 79 bc 1c f9 22 3e f8 2d eb 3c
       -0.035533305 -0.015206857 0.1591534 0.028708443
000190 b2 2a 28 bc e8 b8 97 bb 51 74 54 3d d9 ec 16 3c
       -0.010264086 -0.004630197 0.05186874 0.009211742
0001a0 28 02 b5 3c 31 20 27 bd da fd af bc 08 24 79 3d
       0.022095755 -0.040802184 -0.02148335 0.060825378
0001b0 34 df c4 bb 73 5d 92 bb 8a 43 17 3e 1b 3d 03 3d
       -0.006008053 -0.0044667064 0.14771858 0.032040697
0001c0 5f 97 36 bc 4d e2 d8 3c 6b fa 2a 3d d6 ce 1f 3d
       -0.011144488 0.026475096 0.041742723 0.039015613
0001d0 8f 68 bc bb e0 ae a6 3c 11 54 aa bd 76 c0 5d 3c
       -0.005749769 0.020347059 -0.08316816 0.013534656
0001e0 20 af 0b bd 40 51 52 bd 70 67 66 bc 15 fa 76 3d
       -0.03410256 -0.051347017 -0.014062747 0.06029709
0001f0 97 23 82 bc 2a 3d 5f 3c 88 3a a1 3c 83 8b df 3c
       -0.015886111 0.0136254225 0.01968123 0.027288204
000200 da 44 6d bb cd f0 9b bb 58 f5 1e bd e4 b6 18 3e
       -0.0036204369 -0.0047589303 -0.038808197 0.14913517
000210 81 a3 1b bd dd eb 2b bd f1 da 70 3c 77 31 ce 3b
       -0.037997726 -0.041972984 0.014700637 0.0062925178
000220 7c 07 8b 39 01 94 52 3c 14 5b a3 3c ac dd d2 3b
       0.00026517722 0.01285267 0.01994089 0.0064351168
000230 b2 16 54 bb 4e 62 8e 3d 48 12 de bb 77 78 43 3c
       -0.003236216 0.06952344 -0.0067770816 0.0119305765
000240 46 24 0c bd b5 ac a8 bc 53 86 e8 3c 7f 6f 76 bc
       -0.03421428 -0.020590166 0.028384363 -0.015041231
000250 34 d4 91 bb fa 8b 96 3c 6c 12 11 3c 0b bd 6d 3d
       -0.0044503454 0.018377293 0.00885449 0.058041614
000260 8f 29 8c 3d b3 3c ba bc c6 aa e4 bb b0 4a 3e 3e
       0.06843864 -0.022734022 -0.0069783656 0.18583179
000270 5b 02 bc bd ee 40 8a bc a3 86 3d bc 72 a6 c0 3c
       -0.09180137 -0.016876664 -0.011567744 0.023516867
000280 49 8c 95 3d de 43 b9 3d 86 9d 29 bd ea 76 0c bd
       0.07302148 0.09046148 -0.04140999 -0.034293093
000290 36 80 03 3e db 56 86 bc 3d 9e 57 bc 77 31 42 bb
       0.12841877 -0.016398838 -0.013160286 -0.0029631534
0002a0 c2 7e a2 bd 58 20 33 bc 55 80 0a bd 11 55 19 bc
       -0.079343334 -0.010933004 -0.033813793 -0.00935866
0002b0 0d c6 e4 3c 16 31 04 3d 83 fe 67 3d 36 ec 55 be
       0.02792647 0.032273374 0.056639206 -0.20890889
0002c0 23 b1 81 3c b4 fd 9f 3c 5c 62 b1 ba 98 d4 ec 3d
       0.015831536 0.019530155 -0.0013533342 0.115639865
0002d0 dd 2e f4 3b 74 97 85 3c 41 3b 41 3c d0 b8 05 3c
       0.0074518756 0.01630757 0.011793912 0.0081617385
0002e0 62 ba 10 bb 1f 95 e7 3c 24 df a1 3c 95 cc 0e 3d
       -0.002208375 0.028269349 0.019759722 0.034863073
0002f0 f5 06 2e bd ec 90 94 3b 12 46 c3 3d a3 22 cc bd
       -0.042487103 0.0045338776 0.09534849 -0.09967544
000300 e1 56 b8 bc 18 ee 5d 3d 77 ab 30 3d b1 de 33 3c
       -0.022502365 0.054182142 0.04313227 0.010978387
000310 60 8e 32 bc 95 53 38 bc c1 66 1f 3c e6 a1 24 3d
       -0.010898203 -0.011250396 0.009729088 0.04019346
000320 7d 63 2e be b4 98 be 3b be 28 e0 b9 a3 bd 90 3d
       -0.1703014 0.0058165435 -0.00042754965 0.0706742
000330 68 81 b9 bc 07 6c 50 3d cc c4 e5 bc 1e 05 42 3c
       -0.022644714 0.050884273 -0.028047942 0.01184204
000340 44 3c 69 3d 7a 25 30 bd a3 07 a7 bc 25 b9 7f bb
       0.05694224 -0.04300449 -0.020389384 -0.0039020267
000350 1b 32 1e bc 4d 61 75 bb 9f 12 34 bd 89 f5 5b bb
       -0.009655501 -0.003744203 -0.04396307 -0.0033563098
000360 76 ef f4 bb 7d bc b9 3d 5d 09 fa bd fe c8 e8 bc
       -0.007474835 0.090691544 -0.12208817 -0.028416153
000370 74 da 2a 3a ac b0 71 3d fc f3 1b bc 2c 8d 38 bc
       0.00065175374 0.059006378 -0.00951862 -0.011264127
000380 5f 09 79 3d ce 8b 13 3d e0 f6 a0 bd 5e 16 24 3b
       0.060799953 0.036022 -0.07859588 0.0025037746
000390 c3 50 2e 3c fa f6 ac bb c4 06 8f bd 3b 02 b8 bd
       0.010639372 -0.0052784653 -0.06983712 -0.089848004
0003a0 c9 0d f8 bc 23 24 1e 3e f2 b6 d5 bd ad 7b 79 bd
       -0.03028001 0.15443473 -0.10435285 -0.060908962
0003b0 bf 1f 11 3d 50 c6 1f 3d 79 e1 df bb 95 5e 88 bb
       0.035430666 0.039007485 -0.0068322984 -0.0041616657
0003c0 c6 07 b2 3d 2a 1c 08 3d e3 b6 ca bd 3b 65 92 3c
       0.08692889 0.033229984 -0.09898164 0.017870536
0003d0 95 51 b4 bd fc 6f 0e bd 53 49 12 bc 04 13 15 3e
       -0.08804623 -0.034774765 -0.008928615 0.14558035
0003e0 45 d6 05 bc 27 c7 90 3d 5b c7 29 bc fe 90 a5 bd
       -0.008168762 0.07069235 -0.010362471 -0.08084296
0003f0 06 ca 47 3c 86 9f 7a bd 06 0d c1 3c 94 b4 00 bc
       0.012194162 -0.06118729 0.02356578 -0.007855553

weight_epsilon f4 [256, 256]
000000 bd f1 0e be 27 33 ed be b8 ec c0 bd 4e 50 36 bf
       -0.13959403 -0.4632809 -0.094201505 -0.71216285
000010 0c 20 75 3e fe c9 c6 3d 86 63 0c bf f5 ad 44 bf
       0.23938006 0.09706496 -0.5483936 -0.7682794
000020 43 09 59 be 60 ab 07 bf 8a 84 19 3f 47 ce d2 3e
       -0.2119494 -0.5299587 0.59967864 0.41173002
000030 3a 71 7b 3e 90 fb 5d be d2 0d 0d 3f 36 a4 23 bf
       0.24554911 -0.21677995 0.55099213 -0.6392244
000040 7a ec 47 3f 6a 1a 39 bf 2d f5 42 be b6 d8 70 bf
       0.7809521 -0.7230593 -0.1903884 -0.94080675
000050 df 95 03 bf 7c 0d e9 3e f3 70 d7 be 30 81 e4 3d
       -0.5140056 0.455181 -0.4207836 0.11157453
000060 cd 6f 11 3f 15 b2 7e 3e 2b a4 15 bf a8 d4 c7 be
       0.5681122 0.2487262 -0.58453625 -0.3902943
000070 fb 4e d9 be c9 76 2a 3f 3a 3b 0f 3f 69 52 f0 3e
       -0.4244307 0.665875 0.5594975 0.46937874
000080 a7 6a eb be 75 51 8a 3e c6 68 40 3f f4 f2 68 3e
       -0.45979807 0.27015272 0.7515987 0.2274893
000090 00 42 34 3f 30 9a 00 3f 89 c8 0b 3e 3f 31 8a 3d
       0.7041321 0.5023527 0.13650717 0.06747674
0000a0 b5 c5 c6 be 72 26 05 3f 03 ee 41 3f 56 c2 36 3f
       -0.38822713 0.5201179 0.757538 0.71390283
0000b0 d1 ec 0c 3f a7 c4 96 be 4f 98 60 3f f7 80 a8 be
       0.55048853 -0.2944691 0.87732404 -0.32910892
0000c0 36 f1 48 3e 6e 9b 09 bf f8 a2 fb be 3b ed 31 3f
       0.19623265 -0.5375279 -0.49147773 0.6950261
0000d0 04 ae b8 3e b6 6d 18 bf 4f 58 da 3e ec 3b 6e 3e
       0.36070263 -0.59542406 0.426455 0.23265046
0000e0 28 d9 dc 3e 5a bb a4 be ed 0d da be fd f0 a5 be
       0.43134427 -0.32174188 -0.4258875 -0.32410422
0000f0 63 a0 20 3f 9b b1 4e bf 27 66 03 3f 95 38 e5 bd
       0.6274473 -0.80739754 0.5132775 -0.11192433
000100 ba 11 c1 be f9 52 f9 3e 3a 0c 0b 3f 6c 57 81 3e
       -0.37708837 0.48696116 0.5431553 0.2526201
000110 c9 84 ee 3e cf 25 b1 3e aa 7b 2c bd b9 62 8e be
       0.46585682 0.34599158 -0.042110123 -0.27809694
000120 62 51 0c 3f 00 0b 05 3f 73 17 0c 3f 5d ca 7f 3e
       0.5481168 0.5196991 0.5472328 0.24979539
000130 26 ef f3 3d 12 d8 f5 3e 4f bb c7 be 1c 83 c7 be
       0.11910848 0.4801641 -0.39010093 -0.38967216
000140 8f 05 3e 3e 38 fd 43 bf f5 da 3a 3f 3d ac c5 be
       0.18556808 -0.76558256 0.7299035 -0.3860797
000150 75 af 0d bf 5a 23 3c bf d5 0f 2c 3f bc e0 0e 3f
       -0.5534585 -0.7349144 0.6721166 0.5581167
000160 9d 3e 0f 3f af ab 0f 3f d7 c8 ef be 22 b0 9c 3e
       0.55954915 0.56121343 -0.46832916 0.3060313
000170 f7 d8 dd 3e 69 cf 1d 3e d7 81 81 be 01 43 d7 3e
       0.43329594 0.15411152 -0.25294372 0.42043307
000180 88 4f 74 be 66 dd 35 3f 5a 6c a8 3e 60 49 76 be
       -0.23858464 0.7104095 0.32895166 -0.24051428
000190 25 2c 18 3f e1 ed 1f 3f d3 ed 10 bf 2c 0f 6d be
       0.5944236 0.6247235 -0.5661289 -0.23150319
0001a0 4a 23 2b 3f 68 f3 49 bf 7e 4b 9b 3e e9 0c 19 bf
       0.6685072 -0.78887033 0.30331033 -0.59785324
0001b0 fd f2 1f 3f d2 37 2b 3f 27 a2 7f be f9 0d cf be
       0.62480146 0.6688205 -0.249642 -0.40440348
0001c0 10 ca 40 bf 40 c9 cf 3e 96 c8 02 3f d2 ee 77 be
       -0.7530832 0.4058323 0.5108732 -0.24212196
0001d0 d1 ab 4c 3e fc 9b 1d bf d4 50 19 bf c9 7e 3b bf
       0.19987418 -0.6156614 -0.5988896 -0.73240334
0001e0 18 2a 6f be ea 94 09 3f a5 d9 28 3e 24 78 25 be
       -0.23355901 0.5374285 0.16489275 -0.16159111
0001f0 e8 b2 f9 be 5f fc 46 bf 75 68 89 3e 48 1f 5a 3e
       -0.48769307 -0.7772884 0.26837507 0.21300995
000200 4e 46 55 bf 30 cb 98 be 18 87 e9 be 0d 40 fa 3e
       -0.833104 -0.2984252 -0.4561088 0.48876992
000210 ab ed 52 3d d5 61 b5 3e 40 57 f3 be b8 83 76 3e
       0.05149619 0.35426202 -0.47527504 0.24073684
000220 ce 13 8c 3e 55 e4 4c bf ca fa 05 bf 89 76 45 3e
       0.2735886 -0.8003591 -0.523358 0.19283499
000230 b5 8f 0d 3f 38 11 53 bd a5 ba a2 3d 4d 7c 9b be
       0.55297405 -0.051530093 0.07945756 -0.3036827
000240 84 0e 1e bf 3b b5 01 bf ca 6c 22 3f ac 96 87 be
       -0.617409 -0.5066716 0.6344725 -0.2648214
000250 91 ef 06 bf a9 eb 41 bf 5f d6 1e bf 63 82 b4 3e
       -0.527093 -0.75750214 -0.62045854 0.35255727
000260 15 ba 24 be 56 af fd be 55 83 7b be de 61 6e 3e
       -0.1608661 -0.49547833 -0.24561818 0.23279521
000270 2b d8 90 3e d4 5b e3 be 0c fd 54 3e b3 76 0a bf
       0.28289923 -0.44405997 0.20799655 -0.5408737
000280 53 27 ae 3e be 6f e7 3e 56 fb 8d be 75 56 30 bf
       0.34014377 0.4520244 -0.27730817 -0.6888192
000290 96 f5 d8 3e 62 77 fc be 8a 9f 26 3f e2 28 71 3e
       0.42374867 -0.49309832 0.6508719 0.23550752
0002a0 2c eb 53 3e 0a 7d 0c bf 0c 84 9c 3e 33 f1 ea be
       0.2069518 -0.54878294 0.30569494 -0.45887145
0002b0 f2 83 82 be da cc bd be c4 a3 1b 3f d8 53 1b bf
       -0.2549129 -0.37070352 0.6079676 -0.6067481
0002c0 07 c2 17 3f c9 ac b2 be 6c 98 db be 5c b3 31 be
       0.5928044 -0.3489745 -0.42889726 -0.17353576
0002d0 4c 4a b3 3e 0a 7b e7 bd 5b 49 f8 3e 5c fc c0 3e
       0.35017622 -0.11302765 0.48493466 0.37692535
0002e0 31 76 0c 3f 9c d1 0f bf a1 4d 28 be 2f a5 03 bf
       0.54867846 -0.56179214 -0.16435863 -0.51423925
0002f0 a9 92 18 bf b8 38 02 3f 2b b9 53 3e 82 b6 90 be
       -0.59598786 0.50867796 0.20676105 -0.28264242
000300 4c ec 09 3f 1b 8a d3 be ea 2f da bd f1 90 cc 3e
       0.53876185 -0.41316304 -0.1065367 0.39954332
000310 56 1e 35 3e f2 16 da 3e 68 63 24 3f 12 b5 e5 be
       0.17687353 0.4259563 0.6421418 -0.44864708
000320 b8 c7 7a 3e c3 bd 1c bf ba ac 72 be 87 c0 43 bf
       0.24490249 -0.61227053 -0.23698702 -0.7646565
000330 e6 c3 b4 be c0 96 36 bf 3d e5 cb be d5 3e a5 3e
       -0.3530571 -0.71323776 -0.39823332 0.322745
000340 88 e6 6d be b8 cf 03 be 38 7e 11 bf 6a 2f cb 3e
       -0.23232472 -0.12872207 -0.5683322 0.39684612
000350 d1 72 d9 3e 51 f0 34 3f e9 a6 f2 be 72 48 1a bf
       0.4247041 0.70679194 -0.47392967 -0.6026679
000360 47 5e c8 be f1 97 81 be 94 3c 10 bf 63 c5 f5 be
       -0.39134428 -0.25311235 -0.56342435 -0.48002157
000370 00 f7 ab be 09 84 19 bf 3b 9c 19 3f ac d0 e1 be
       -0.33586884 -0.59967095 0.60004014 -0.44104517
000380 f3 db 39 bf ea 7e 0f bf 05 ac e9 be ff 5b 04 3f
       -0.7260124 -0.5605303 -0.45639053 0.51702875
000390 1e e6 3f 3f 9f 84 d4 be e0 91 e7 be 70 74 f9 3e
       0.74960506 -0.41507432 -0.4522848 0.48721647
0003a0 a2 ef 1a bf 4b 52 47 3e 6e 7b cc be 8e 12 3c bf
       -0.605219 0.19464986 -0.3993792 -0.7346581
0003b0 e6 50 8b 3e cf 9a 08 bf 5f 45 c2 be 6e 67 24 bf
       0.27210158 -0.5336122 -0.3794355 -0.6422032
0003c0 89 16 a6 3e c9 55 ce 3e 66 aa bd be 26 8d b6 be
       0.32439068 0.40299824 -0.37044066 -0.35654563
0003d0 39 30 05 3f cd 0d 0e 3e 2f a8 a6 be b7 46 87 3e
       0.52026707 0.13872452 -0.3255019 0.2642114
0003e0 70 d3 2c bf b0 08 17 bf 6e b7 50 be 09 97 3b bf
       -0.6751013 -0.5899763 -0.20382473 -0.73277336
0003f0 ee d2 b7 be aa 8c 22 bf 19 67 f4 be 3f ea 9e 3e
       -0.35903114 -0.63495886 -0.47734907 0.3103809
