save/model/lunarlander_dqn_noisy_hid_128_256.pth (torch_old, 419196 bytes, 18 tensors)

weight f4 [128, 8]
00000000: 7826 9ebe 622f df3c 6c7b 02bf f143 27bf
00000010: 6072 8d3f a5ba 163e 7e17 0d3e 6bc2 643e
00000020: 751e bd3b de1c a3bd 6bdc 33bd ce2c 24be
00000030: 20ed d63f 4965 4fbe 5bea 0dbf 85fc 153e
00000040: faaf 26bd 1441 983e edcf 673e ab86 0bbf
00000050: 3915 563e bab0 dbbc 7254 17bf 6ea6 4fbf
00000060: d79d 293d 36e1 673d 7b67 e0bd 3bce b2be
00000070: 4beb aebf add0 fa3e 66d2 d13d 2419 75bf
00000080: 9c2c 9b3d 8d60 81be de72 3a3f 7f92 323f
00000090: c130 193f 85d5 0a3f 3390 963d 209c 663d
000000a0: 5388 d23d 4d81 38bd 5a15 f8be 4d26 36bf
000000b0: 7926 26bf da75 db3e dbbd 063f 67cd 5ebf
000000c0: e5d5 6abd e198 e53d 36b0 5e3e bcc2 1dbe
000000d0: c7a2 d33f b444 9ebc 0608 633e 6357 293d
000000e0: 4c4e bb3d c070 adbc f48f c5bf bf8e 0640
000000f0: bb7a b53e 8a29 873e c0e1 d1be 4ef5 febe
00000100: 549a 41bf 58c1 a0be a230 edbd 7f1a 793d
00000110: fcb1 333e cdb2 de3e 745a 883e 0e7e 13be
00000120: 14ca a2bd cea8 9cbd b15e b93e 1bf6 663b
00000130: 47c7 c6bf 08a4 c4be f3bf f33e 5f45 74bf
00000140: 6e18 03bf 41b3 8bbf 31d5 57bf 8724 93be
00000150: d13b 183f 535d 0d3e 9da2 9dbd 5ba5 f6be
00000160: 8030 f0bd 768e ef3d 87b9 5e3e f7c2 18bf
00000170: 901a ad3d f9a4 073f f231 97bf 844d 8a3d
00000180: 26e8 063e 9967 53bd 4ddb b13f e183 883f
00000190: 1556 08bf c927 dcbe a11c 463e a89f 3c3e
000001a0: 49b8 cdbe 1351 01bd 5db1 26bf d861 693e
000001b0: 2ae1 bc3e 0bd6 5e3e 9c34 28bf 1468 043c
000001c0: 2d0b cbbc 9314 febe 4401 78be 3e90 e9be
000001d0: 84b9 afbe b447 0b3f 37ba 0bbf 9818 703d
000001e0: 81f0 4c3e 101f 6cbf 22db 0040 b853 d13d
000001f0: 50bd 813e a5ed 9ebd 9a70 d13c 7f5c 903e
00000200: 0a66 6b3d 87ff b73e f4b6 d13e 34e7 32bf
00000210: 0e09 683e 4811 52be 90e8 2dbf 852b 93bf
00000220: ba87 4cbe bc2e ec3d 7e26 85be 74e8 59bf
00000230: f709 4f3f 1c4b a63d 1ef7 cabd db6f 313e
00000240: d799 c23c 8079 82bf 443b cfbe 0493 97bf
00000250: e4ed 48bd 0f93 3fbe 6778 ffbc 27a7 b83e
00000260: 2704 963e 152c b6be 3deb 9e3f ec8a 763e
00000270: af8a 99bf f148 cbbe 4356 50be 3de1 233e
00000280: fcb7 833e b3f7 5dbe 6482 4d3f 6aa4 a33e
00000290: a94f ae3f 1aeb e43e 7626 dfbd 7e0f 803e
000002a0: 8ad1 0cbf aece 70bf 8dbc 43be c71a 0fbf
000002b0: 71fa 67bf 1678 223f 7781 5d3e adb9 a63d
000002c0: aa8f db3e d847 02bf d356 8e3e 96a5 a23f
000002d0: 4217 303f 4921 f53e b5cb be3e 11ac 6cbe
000002e0: 30bc 81bf 5ceb bbbe 10af 87be aa3a 61be
000002f0: 44d6 053f ae91 153f 26a4 33bd 084c d7bc
00000300: 3f5b 6fbf 3080 16be 54f0 473e a01d 11bf
00000310: ba58 3bbf bd0a 6b3e 0bba 88bd b1cc de3e
00000320: bbbf 76bf e6c7 dbbe 01d0 a83e 4355 e33e
00000330: c179 8e3e 811e 313f 7777 c93d 299a a53d
00000340: 1095 8abe e1f0 513e a124 d63e d5f0 39bf
00000350: 654b ec3e 7adb 683d 5fe5 a9be 4e35 bb3e
00000360: 2082 653f e025 65be 0a21 dabe 96a4 313f
00000370: 4703 35bf f270 653f 07b7 65bf ecff 293f
00000380: 29d4 423e 7593 dc3d 6430 71be 8d65 6fbd
00000390: b188 44bf 0987 78bf 301a 7abf 6f67 2e3e
000003a0: fce7 34bf 19d7 a2be 90db c4bf 66a0 3c3f
000003b0: 1ae9 2e3e 486c 4d3e 4cc6 623f 4337 f0bd
000003c0: 885f 153d 6115 44bd 110a edbe c4a5 d5be
000003d0: 217a ea3e f563 07bf 49e7 e0be 5d45 573e
000003e0: 99a5 a43d 0ec0 94be b554 0d3f a506 e63e
000003f0: 9ded 323f af4f c83e 7d0b 1a3f 0855 d0be
-0.30888724 0.027244274 -0.50969577 -0.65338045 1.105053 0.14719637 0.13778493 0.2233979
0.005771453 -0.0796449 -0.04391138 -0.16032717 1.6791115 -0.20253481 -0.55435723 0.1464711
-0.040695168 0.2973715 0.22637911 -0.5450236 0.20906533 -0.026817668 -0.5911323 -0.81113327
0.041410293 0.056611262 -0.10957237 -0.34922966 -1.3665556 0.48987332 0.102452084 -0.95741487
0.07576868 -0.25268975 0.72831523 0.69754785 0.5984002 0.54232055 0.073517226 0.056301236
0.10279908 -0.045045186 -0.4845379 -0.7115219 -0.64902455 0.4286335 0.52633446 -0.8703217
-0.057332892 0.112108 0.21746907 -0.15406317 1.6534051 -0.01931987 0.2217103 0.041343104
0.09145793 -0.021171927 -1.5434556 2.1024625 0.35445198 0.2639888 -0.40992546 -0.49796528
-0.7562611 -0.3139751 -0.115815416 0.060816284 0.17548364 0.4349579 0.2663151 -0.14403555
-0.079486996 -0.076493844 0.36205056 0.0035241905 -1.5529565 -0.38406396 0.47607383 -0.9541835
-0.5120915 -1.0914079 -0.8430968 -0.28738806 0.5946627 0.13805132 -0.07697032 -0.4817303
-0.11728001 0.11697094 0.2175046 -0.5967249 0.08452332 0.52986103 -1.1812117 0.06753066
0.13174495 -0.05161247 1.389505 1.0665246 -0.5325635 -0.42999104 0.19346859 0.18420279
-0.4017966 -0.03157146 -0.65114385 0.2279123 0.36890537 0.21761338 -0.65705276 0.008081455
-0.024785602 -0.49625072 -0.24219233 -0.4561786 -0.34321225 0.54406285 -0.54581016 0.058617204
0.2001362 -0.922349 2.0133748 0.10221046 0.25339746 -0.07760171 0.025566388 0.2819557
0.05747036 0.3593714 0.40959895 -0.6988404 0.22659704 -0.20514405 -0.6793299 -1.1497656
-0.1997365 0.115323514 -0.2600593 -0.8512032 0.8087458 0.08119795 -0.09910415 0.17327826
0.023754997 -1.0193329 -0.40474904 -1.1841741 -0.049054995 -0.18708442 -0.031185342 0.36065027
0.29300043 -0.35580507 1.2415539 0.24076432 -1.1995448 -0.39704087 -0.20345406 0.1600389
0.25726306 -0.21676521 0.80277085 0.31961375 1.361806 0.44710618 -0.10896008 0.2501182
-0.5500723 -0.9406537 -0.19114895 -0.55900234 -0.9061652 0.63464487 0.21631418 0.081408836
0.42883044 -0.50890875 0.27800617 1.2706783 0.6878549 0.47876957 0.3726479 -0.23112513
-1.0135555 -0.36703002 -0.2650075 -0.21995035 0.5228007 0.58425415 -0.043857716 -0.026281372
-0.93498605 -0.14697337 0.19525272 -0.5668583 -0.7318226 0.22953315 -0.0667611 0.43515542
-0.9638631 -0.42925948 0.32971194 0.44400987 0.27827266 0.6918717 0.09837239 0.08086044
-0.2706685 0.20502044 0.4182482 -0.72633106 0.4615127 0.056849934 -0.3318281 0.36564106
0.8965168 -0.2237773 -0.42603332 0.69391763 -0.70708126 0.89625466 -0.897324 0.6640613
0.19026245 0.10770313 -0.23553616 -0.058446456 -0.76771075 -0.9708105 -0.9769621 0.17031644
-0.7066648 -0.3180473 -1.5379505 0.7368225 0.17081109 0.20060837 0.88583827 -0.1172929
0.03646806 -0.04787195 -0.46296743 -0.41728032 0.45796302 -0.528869 -0.43926457 0.21022554
0.08039398 -0.29052776 0.5520738 0.44926944 0.6989382 0.39123294 0.6017378 -0.40689874

bias f4 [128]
00000000: a798 b3bd c77b 9d3d cdf4 0abd 7c86 a83d
00000010: cb1c 60be c267 bf3d f64d 6b3b 0894 a63a
00000020: 73b2 ed3d 6253 a53d be55 8bbe 4e7c e83d
00000030: b70a b23e 969a 06bf f311 7e3e f0fc 51be
00000040: 06ce 18bd a4b1 debb 6ad4 a3be 8eee 063e
00000050: 058a dc3d fb17 c8be 7252 b43d faa0 24be
00000060: 6af9 6fbe 67ce 573e bf96 443d 1403 abbe
00000070: 532a 2abe 4923 d8be 836a 923d 31f7 cebe
00000080: 9a2a 3cbe 3ad0 393c 5676 24bd 1a08 aabe
00000090: 3ad2 30bf 4b19 31be 9607 b73e 5a14 7d3d
000000a0: 8d75 e53b 4859 91be bf53 e7be ceb6 1e3e
000000b0: 1a0e 823d a6a3 08be df83 1dbf 10dd 373e
000000c0: f18c f3bc 877a 0fbf 5715 17bd d851 4a3d
000000d0: 1a8c fbbe 8e06 553d 108c 443c 43be b13e
000000e0: 094d 33be deb5 9abe 94cf 82be 154b 353e
000000f0: 57b7 a5be aa2b debe 7e14 5cbe b2d0 a03c
00000100: d936 663d 2712 c53b 894d c2bc 5235 183e
00000110: a123 12bf 6c3b 7abd 7f12 5fbe 11a1 2ebd
00000120: e9e6 a03c abfd 9ebe f5db 1bbf 79e3 b3bd
00000130: 5975 81bb f864 843c bcb3 b4be 5f97 e13d
00000140: 5998 083e 0903 f2be a4cd 22be e8db 42bc
00000150: 10d9 05be db68 afbe f607 cabe 1e50 4e3e
00000160: 416c bd3e 28ce 53be c516 f0be ed0f f3bc
00000170: 42a4 33be 13d9 c9be fd59 c5be 8338 febd
00000180: 2acf c7bb 58dc d6bb 409e a13e 3d7f a0be
00000190: 102e 8f3e 026f 8d3c 7f35 753d 006f 42be
000001a0: d53b 5e3e d16f afbe 41d2 8e3e 1af4 6f3d
000001b0: d9e6 463e deb5 94bd 21c5 813e 272a 8bbe
000001c0: d1cb 513c 1584 c8bc 612f 053e e064 1bbf
000001d0: 3054 ebbe 556c d8be b007 0f3d d901 cfbe
000001e0: 7ccb 76bc 1734 61be 1f6c cbbd 14f7 28bd
000001f0: fac9 0fbf 2cde b93d 2eb9 2abe 581d 17be
-0.087693505 0.07689624 -0.033924866 0.08228776 -0.21885984 0.09345962 0.0035904623 0.0012708912
0.11606302 0.08072545 -0.27213854 0.11351834 0.347738 -0.5257963 0.24811535 -0.20506644
-0.037305854 -0.0067960788 -0.31997997 0.13176939 0.10768513 -0.39080796 0.08804788 -0.16077033
-0.23434988 0.2107483 0.047995325 -0.33400786 -0.16617708 -0.4221442 0.07149222 -0.40422967
-0.18375626 0.011341149 -0.040151916 -0.33209306 -0.6907078 -0.17294805 0.35747975 0.061786987
0.0070025385 -0.2838843 -0.4518108 0.15499422 0.06350346 -0.13343677 -0.61529344 0.17955422
-0.029730292 -0.56046337 -0.036885586 0.04939446 -0.49130327 0.052008204 0.011996284 0.3471547
-0.17509855 -0.3021688 -0.25548995 0.17704423 -0.3236644 -0.43392688 -0.21492192 0.019630764
0.05620465 0.006014127 -0.023718612 0.1486409 -0.57085615 -0.061091825 -0.217844 -0.042634074
0.019641357 -0.31052908 -0.608825 -0.08783621 -0.0039507565 0.016161427 -0.35293376 0.110152
0.13339366 -0.4726794 -0.15898758 -0.01189325 -0.13071084 -0.34259686 -0.394592 0.2014775
0.36996654 -0.20684111 -0.46892372 -0.02967068 -0.17543128 -0.39423427 -0.38545218 -0.124131225
-0.006097694 -0.0065570287 0.31566048 -0.31347075 0.2796483 0.017264847 0.05986547 -0.18987656
0.21702512 -0.34264997 0.27894786 0.058582403 0.19423999 -0.07261251 0.2534571 -0.27180597
0.012804941 -0.024477044 0.13006355 -0.607008 -0.45962667 -0.4227015 0.03491944 -0.40431097
-0.015063163 -0.21992527 -0.09932732 -0.041251257 -0.56167567 0.09075579 -0.16672203 -0.14757288

weight_mu f4 [256, 128]
00000000: b686 a33e 898e a23d 8497 ebbe e313 8dbe
00000010: 69de 8e3c c2cf d2be 5a08 86bd 412a 5ac0
00000020: 06cc dbbe 0457 173f d22b 393d c2b6 26be
00000030: 1a86 893e 695c d53d 488c 563e bbd6 4c3e
00000040: 15a7 44be 5751 45be 826e af3e 2bb4 0f3e
00000050: abe5 563e 8435 03bf fa59 e73b b383 673e
00000060: cb35 b7be 9d55 30bf 4da4 f0bd d2a2 7b3e
00000070: a47a c83e 8fa5 f8be ed78 6d3e 48a1 6abe
00000080: 66e0 ee3d 04ce 933e f624 293f 3209 24bc
00000090: a60b aebe 1218 2bbe 6722 41bf 5200 0f3e
000000a0: b91c 673d b912 39be 99cd b53e b9e3 913e
000000b0: 4a89 643d 18da 23bf c4c1 413e c15f 2b3e
000000c0: 58a8 ff3d e319 223e 7f33 94bb b06f 8abe
000000d0: f115 0d3e 90d4 10bd 9d70 a23e abeb 6fbd
000000e0: d91c a13d c2aa c0be ce88 3f3f cd7a a2be
000000f0: ec1b 39be a93e 68bf 931e be3f a68a 94bd
00000100: 7089 173e b3e9 743d 3903 253f 72ee 40be
00000110: 5b4a 1c3d 32d2 e2be 7bf2 e9bd b86d 22bf
00000120: 2409 f33b 06d4 a73e 5958 163f ba13 fd3d
00000130: 2ed7 f53c 022a adbe ca14 e9be c974 973d
00000140: 8e43 6cbe adf6 6c3d 37d1 efbb bb72 28c0
00000150: 5874 5cbe 0dff c03e 33d8 c93e c592 60bf
00000160: 229c f2be 7ef8 7e3e 2259 6a3e 79ef 4abe
00000170: d53e 813e e9d9 343e ef09 aebe 7168 0b3f
00000180: 01ea 99bf 2017 15bf 2109 4dbb 91ca 8e3e
00000190: efa6 c6be 227f c23e 479c c1be 13a4 8fbe
000001a0: 0d7f 3fbf 2c67 23bf 744e 5c3e 05b3 ce3d
000001b0: e0b7 0f3f 44fa 89bd 818f c53d 58a6 2dbd
000001c0: 10c4 03be c7ab 4ebf a1b9 d33e 5afd cfbe
000001d0: 43ff 8fbd d760 183f ff30 0c3f 87c0 303f
000001e0: ac64 ba3e e3c5 9f3d 8908 653e 24d1 2c3e
000001f0: 2099 043e 4188 72bf 6528 46be c906 9ebe
00000200: 1de4 2e3f 48e4 b7bf 28c4 8dbe e38b aabe
00000210: 699c 75bd a34e a13e 4dd6 b13c 0aee b1be
00000220: 7510 ea3d 4323 1dbe d448 ce3e 0e27 2ebe
00000230: 86cb d1bf 0f15 32bf 9cf1 b23e c0dc 4cbc
00000240: 6316 c2be 9388 333f ec92 5c3f 6aac 13be
00000250: 3aca adbe 7474 163f d449 d2bd ae08 2a3f
00000260: e4d7 183f 26d3 033d d0ae b43e 8a57 113f
00000270: 8723 fcbd 58fa 4b3e 6a22 15bd f885 e13e
00000280: 5fc9 cfbe 2295 fd3c 1a1c 9ebd b1db bc3e
00000290: acb7 093f b85d 2bbd 8239 bfbf d661 8cbf
000002a0: e65d 2b3e 56a9 2d3f 3507 9abe e398 48be
000002b0: 7d70 3c3d 5dd0 26be 58c5 18bf b41e 78be
000002c0: 7074 98be fc8e 97bd b673 0dbe 40c5 c33e
000002d0: 9ab3 1a3f c132 ba3e bdd2 83bf 0752 3cbd
000002e0: 86e4 4cbe 71a2 15bf 0cdb 793e dbc3 c23c
000002f0: 0af6 bfbe 1517 3dbf 271d 193d 5a29 0cbd
00000300: 4cde 67bf ba33 8c3d 84c8 23be 3a85 a2be
00000310: 1d66 a7be 30e4 3abf 5971 26be e980 2fbd
00000320: 938e dbbe a128 483f 5c2f 4b3e ea4c c43e
00000330: 0649 1fbf e566 173f aa73 a23e fd8a babd
00000340: dff5 8dbe 5f04 54be 6366 293f dc9e b0bf
00000350: 3754 ae3e 73fb 623f 55e5 0fbd 7013 46bd
00000360: 0559 28bd 18a5 e2bd 7332 10be e303 07bf
00000370: dec6 a53d 6057 96bf 18af c0be 175f bfbe
00000380: 58fc 63bd 83b5 2ebd 97dc 55bf 2560 e53e
00000390: 921c be3d 601a 95be 274a 30bf 5d78 313e
000003a0: b5e9 fc3e c65a 4a3f 7fe9 ac3e c34a abbe
000003b0: 05ef 15bf 7b2b 3a3e 57fe 98be 1335 583e
000003c0: 13e9 cfbe 0742 18bf 008b adbd 513d ba3c
000003d0: 1ec7 76be 3fb7 4dbe e567 79be 2e87 7c3f
000003e0: e2f7 67bf 23f2 7f3f 9ad8 243f 4c81 943d
000003f0: e209 1d3f 85f1 42bf 744f 1cbe 8ed1 84be
0.31938714 0.07937343 -0.46014035 -0.27554235 0.017440038 -0.41174132 -0.06544562 -3.408829
-0.42929095 0.5911715 0.045207806 -0.16280654 0.26860124 0.104180165 0.2095195 0.20003788
-0.19204362 -0.1926931 0.34263998 0.14033572 0.20986049 -0.51253533 0.0070602866 0.22608833
-0.35783228 -0.68880635 -0.11750088 0.2457383 0.39156067 -0.4856381 0.23190661 -0.22913086
0.11663894 0.28868115 0.6607202 -0.010011958 -0.33993262 -0.16708401 -0.7544312 0.13964966
0.056423876 -0.18073548 0.3550842 0.2849405 0.05579499 -0.6400466 0.18921572 0.16735746
0.12483281 0.15830187 -0.0045227404 -0.27038336 0.13777901 -0.035358965 0.31726542 -0.05857436
0.078668304 -0.37630278 0.7481812 -0.31734315 -0.18077058 -0.9072061 1.485308 -0.072530076
0.14798522 0.059793185 0.6445804 -0.1884096 0.03815685 -0.4430099 -0.114232026 -0.6344867
0.007416861 0.3277895 0.5872856 0.12357278 0.030009832 -0.33821112 -0.45523673 0.07395322
-0.23072645 0.057852436 -0.0073186415 -2.6320026 -0.21528757 0.37694588 0.3942276 -0.8772395
-0.47384745 0.2489948 0.22885564 -0.19817914 0.2524325 0.17661251 -0.33991954 0.5445624
-1.2024537 -0.5823841 -0.0031285959 0.2788892 -0.38799235 0.3798762 -0.37814543 -0.28054866
-0.7480324 -0.638293 0.21514302 0.10092739 0.56139946 -0.067371875 0.09646512 -0.042394966
-0.1286776 -0.8073086 0.4135256 -0.4062298 -0.07031109 0.59522766 0.5476226 0.69043773
0.36404932 0.07801416 0.22366537 0.16876656 0.12949038 -0.94739157 -0.19351347 -0.30864552
0.68316823 -1.4366541 -0.27688718 -0.3330985 -0.059963617 0.31505308 0.021708632 -0.34751922
0.1142892 -0.15345483 0.40289938 -0.17007086 -1.6390235 -0.6956338 0.34949958 -0.012503803
-0.37907705 0.7013027 0.86161685 -0.1442124 -0.3394335 0.58771443 -0.10267988 0.66419494
0.5970442 0.03218379 0.3528962 0.567742 -0.12311464 0.19919717 -0.036409773 0.44047523
-0.4058332 0.030954901 -0.07720204 0.3688636 0.53795886 -0.041837424 -1.4939425 -1.0967357
0.16735038 0.6783651 -0.30083624 -0.19589572 0.046005715 -0.16290422 -0.5967612 -0.24230462
-0.29776335 -0.07400319 -0.13813671 0.38236427 0.604303 0.36366847 -1.0298687 -0.045976665
-0.2000905 -0.5845099 0.24399966 0.023775032 -0.374924 -0.73863345 0.037381317 -0.034219123
-0.90573573 0.068458036 -0.1599446 -0.3174227 -0.32695094 -0.73004436 -0.16254176 -0.042847548
-0.42882213 0.78186995 0.19842285 0.3833993 -0.622208 0.5914138 0.3172887 -0.09108541
-0.27726647 -0.20704792 0.66171855 -1.379848 0.34048626 0.8866493 -0.035130817 -0.04835838
-0.04110052 -0.110666454 -0.14081745 -0.52740306 0.080945715 -1.1745415 -0.37633586 -0.37377235
-0.055660576 -0.04265357 -0.8353972 0.44799915 0.09282793 -0.29121685 -0.6886315 0.17331071
0.49397054 0.7904476 0.33771893 -0.33455476 -0.5856784 0.18180649 -0.29881546 0.21113996
-0.4060751 -0.5947575 -0.08473778 0.022734316 -0.24099395 -0.20089434 -0.24356039 0.9864377
-0.90612614 0.99978846 0.6439301 0.07251224 0.61343205 -0.7614978 -0.15264684 -0.25941128

weight_sigma f4 [256, 128]
00000000: 23d7 263e f310 96bc b321 123e a612 033d
00000010: 3718 a73e 274f 243e a57c 1c3e 634f 003e
00000020: 33b6 883e 4f3b fa3b ec19 ca3d 719b e23d
00000030: 8d5f 91bd 537f 0b3e 7114 f9bd 2ee3 703e
00000040: 8da1 663e a17c 033d 259d 50be 2c09 9fbd
00000050: 9425 6c3e 863d b3bd 617e a33d 9589 8e3e
00000060: b194 06be c00d 5a3d 7d9a a93d aba6 1cbe
00000070: 238e fb3d 8aa2 213d f73b 753d 6e48 dfbe
00000080: a761 a83d 3edc 0f3d 8f31 603d 4cdd 3c3e
00000090: c2dd 333d 6087 4b3e cfa6 e83c 8304 233e
000000a0: a524 59bd c6dd 503d d07b d3bd e4c7 293e
000000b0: c84e 46bd 244d 493e 4050 e5be dc7c 1cbe
000000c0: 721c 6cbe ad28 0ebd 714c ab3c 4988 c33d
000000d0: d9c0 b63d 2fad f3bc 96e8 2fbc 9d96 423e
000000e0: 83df bfbd d5c3 03bb 4f38 f6bd 5d4f 993d
000000f0: a7c3 5a3d 4589 043d 32f5 ecbd 97e5 24bd
00000100: 69ef 5ebe 2540 3cbd 5ca0 983d d20c cbbd
00000110: 9bcc 01be 40c8 b6bd 12e9 293c 4c54 7a3e
00000120: 3c82 06be 364f a23c 1e3c aa3c 2ca6 953c
00000130: 20b8 983d 9870 163e 82ae 9c3e df0b e23d
00000140: 9ee6 bd3d c13d 96bd 67e6 1dbe 68be 8cbe
00000150: d9b9 ccbd 9445 a8be 8d21 8cbd efc5 1ebd
00000160: 0bed d53c 333e 0ebe 00c4 2d3b 8a15 f83d
00000170: 159f 273e a41d a3bc 7b3a e1bd 2c40 95bd
00000180: ef11 a53d 9260 8abd a792 cfbc c550 873d
00000190: 2768 8a3d f253 223d bb47 9a3c a534 ab3d
000001a0: a598 b1bc 8d78 613e fb3e cbbd baed 40be
000001b0: 3ac4 1bbd bff3 37bd 20d8 45bc 89a5 fbbd
000001c0: a34d 1b3e 0a2d 603d e77a 87bc e720 7e3e
000001d0: 4467 583e 37d1 aabd f5c1 2b3d d0ac 45be
000001e0: 1733 d23d e18c 26be 519a 1abe 6aab c33d
000001f0: 5d04 783e 190c 8cbd 6e9f 73bd efc6 343e
00000200: 39d3 9a3d 3942 123c f1ea 42bd 5295 e63d
00000210: cc0a 683d 3ef5 40bd 6f06 843b 4073 7f3e
00000220: ac53 72be f0c4 9c3b ee75 e33d 6594 80bd
00000230: 8176 43bd 9753 69bd 5bff 0abd 4120 a7bd
00000240: 29cf 5f3e 7903 4fbe 8f3f 9abd 2663 19be
00000250: 39b7 15bd 2e9a 543e 790e 43be 088c b03d
00000260: a0d7 833e 3b78 0ebe 53af 573e 4349 c13e
00000270: 545c 463c accb 50bd d6de ae3d b205 31be
00000280: 55c0 03be 8f97 27bd baae b33d 7e68 28bd
00000290: 9835 00be af22 263d 4f9b 113d d72e 6d3e
000002a0: 2126 2a3d 3189 233e 4b62 d03a 850b 8f3e
000002b0: 31d6 47be 896f 013e 526c 0fbe 62b4 2f3e
000002c0: 2704 36be 0728 8d3d 105b 88bd 61d6 fd3c
000002d0: 4580 303e d1b4 17be 6c39 1cbb fe6e 47be
000002e0: 8cd5 6e3d da9c e23c b582 553e eb30 3c3d
000002f0: 4269 553d fd28 503e de05 62be b009 71be
00000300: 4d97 743d 521e ffbd 737a 153c 26a8 073e
00000310: ab0d 863c a568 8abd 7535 2fbe e1cd d9bb
00000320: 58b8 c43d 3eda 8cbc 60bb 4f3e 4717 4cbe
00000330: 0224 263d e1f0 97bd 4bb3 32bb a9c3 3ebe
00000340: 8c5e 6abe a706 fb3d d952 253e 4fdc 95bd
00000350: 0b0a 803e 690f 143e 8133 1f3e 4859 133f
00000360: cda4 433e fd5e 67be 6d22 363c f853 e13d
00000370: 5c59 4bbe 7b72 473e 6e23 55bd 5d8d 4dbb
00000380: 9d9b 923e bce7 2d3d ba90 aa3d febe 97be
00000390: 39b1 073e 41e4 c33d 484a d73c 0871 0b3e
000003a0: 8339 09be 939b 06be 3013 ecbd 6ee0 8a3c
000003b0: 58f1 25be 31f6 38bd 8508 07bd 16cf 053d
000003c0: 215d c7bd 505b febd b9f5 aabc 7c8c b2be
000003d0: 2e19 8abd dff9 5bbe ee61 723d abdf c1bd
000003e0: 74ed bcbd 0ba0 4bbb 61c8 6abe c585 e53d
000003f0: 4b9c 74bc 8645 e1bb 1784 4e3e b63e 153e
0.16293006 -0.018318629 0.14270668 0.032000206 0.32635662 0.16045819 0.15281923 0.12530284
0.26701507 0.0076364647 0.098682255 0.11064804 -0.07098303 0.13622789 -0.12162102 0.23524162
0.22522564 0.032101277 -0.20372446 -0.07765421 0.2306121 -0.08751969 0.07983089 0.27839342
-0.13142659 0.05323577 0.082814194 -0.15297954 0.1228297 0.03946165 0.05987164 -0.43609947
0.08221751 0.03512215 0.054734763 0.18443793 0.043912657 0.1987586 0.028399853 0.1591969
-0.053013463 0.05099275 -0.1032635 0.16580158 -0.048414975 0.19658333 -0.44787788 -0.15282005
-0.23057726 -0.03470676 0.020910474 0.09547479 0.089235015 -0.029745666 -0.010736605 0.19002767
-0.09368803 -0.0020105739 -0.12022459 0.074858405 0.053409245 0.032357473 -0.11570205 -0.040258016
-0.21771015 -0.04595961 0.07452461 -0.09914555 -0.12675707 -0.089249134 0.01037051 0.24446219
-0.13135618 0.019813161 0.02078062 0.018267713 0.07456994 0.14691389 0.3060189 0.110374205
0.09272502 -0.073359974 -0.15419923 -0.27489018 -0.09996385 -0.32865584 -0.06842337 -0.038762983
0.026114007 -0.13890915 0.002651453 0.12113483 0.16369279 -0.019911595 -0.109974824 -0.072876304
0.08060061 -0.067567006 -0.025338484 0.066072024 0.06758147 0.039630838 0.018833032 0.083596505
-0.021679232 0.22018643 -0.09924122 -0.18840685 -0.038028933 -0.04491019 -0.012075454 -0.12287433
0.15166335 0.054730453 -0.016538097 0.24817239 0.21133143 -0.08340686 0.04193302 -0.19304204
0.10263651 -0.16264679 -0.1509793 0.09554179 0.24220414 -0.06838245 -0.059478216 0.17654012
0.07559819 0.0089269215 -0.04758734 0.11258949 0.05665092 -0.04710888 0.0040290873 0.24946308
-0.23664731 0.004784219 0.11106478 -0.06278304 -0.047720436 -0.056964483 -0.033934932 -0.08160449
0.21856369 -0.20216168 -0.07531654 -0.14979228 -0.036551688 0.2076194 -0.1904849 0.08620459
0.25750446 -0.13913052 0.21062975 0.37751207 0.012106974 -0.050975487 0.08538596 -0.17287329
-0.12866338 -0.040916022 0.08773561 -0.041115277 -0.12520444 0.04056042 0.035548504 0.23162399
0.04154027 0.15970303 0.0015898434 0.27938476 -0.19515301 0.12640204 -0.14006165 0.17158654
-0.17775021 0.068924 -0.06657994 0.030986013 0.17236431 -0.1481507 -0.0023837937 -0.19475934
0.058309123 0.027662683 0.20850642 0.04594509 0.052102335 0.20328136 -0.2207255 -0.23538852
0.059714604 -0.12456955 0.009123432 0.13247737 0.01636394 -0.067582406 -0.17110236 -0.006646857
0.09605473 -0.01719391 0.20286322 -0.19930755 0.040561683 -0.07418991 -0.0027267511 -0.18629326
-0.2288763 0.12257128 0.16144885 -0.07317411 0.25007662 0.14459004 0.15546991 0.5755811
0.19105835 -0.22594829 0.011116606 0.11002344 -0.19858307 0.19477265 -0.05203574 -0.0031364777
0.2863435 0.042457327 0.08328386 -0.29637903 0.13251199 0.0956502 0.026280537 0.13617337
-0.13400845 -0.13145284 -0.11527097 0.01695272 -0.16205347 -0.04515666 -0.03296711 0.032668196
-0.0973456 -0.1241976 -0.020869123 -0.34872806 -0.06743084 -0.21482037 0.059175424 -0.094664894
-0.09224978 -0.0031070735 -0.22928001 0.11207155 -0.014929841 -0.006874743 0.20167576 0.14574704

bias_mu f4 [256]
00000000: 1696 003d 9764 f6be 711c 27bf 3e14 f33d
00000010: ad47 c7be 8593 553e 6daf b8be 8b74 3b3e
00000020: 5bae 68be cd01 02be ba98 833e 543b 1e3e
00000030: 5ac8 c0be 9752 f43d 0d2f 6ebe 8b42 77be
00000040: 4c2b b5be 1c0b 0cbf 85bc 87be 19e2 fc3d
00000050: 3155 b3be 596f 863c 5ec9 04be 1313 68bc
00000060: 120d 06bf 4d6b 11be 318d dc3d e941 acbe
00000070: ece9 553e e494 ddbe a28c 0e3e 94e5 bebe
00000080: f76c a7bd d70c b13d 7b99 74be c7a3 5cbe
00000090: a688 623d 2635 2f3d c5eb 0cbe b0fd c03c
000000a0: c6cd 383d 68da 81be 6484 93be 13e5 703e
000000b0: 387a e53e 8c02 293e 4c1c 953e bf08 edbe
000000c0: f4bb c93e e937 d7be e128 d13b 33c7 9abe
000000d0: d9d8 65be 24c3 4dbe 012a 3dbe c1dd b6bb
000000e0: b3e9 febe c7c0 0f3e 1ea9 7f3e 316d 823e
000000f0: 86ce e33e 8fe8 acbd 5aed 883e b205 fd3d
00000100: 0bb9 02be d9d7 d9be bbfd e03e a053 efbe
00000110: 6b6c 35be 467b 66be bdc4 94be cd7f 0a3d
00000120: fee9 b23e 807f e9be 6e0a 6d3e d0f3 e4bd
00000130: f042 c4be 3289 38be 8e27 9cbe 5924 c7be
00000140: 822a 5fbe 5d30 c63b ea90 3fbe 26f2 1fbf
00000150: 45dd a7be a712 f5be 8cd8 fa3d 673c 7f3e
00000160: a944 3abe 4ad6 a73e 5222 87bd 7703 ad3e
00000170: 69ae dabe 9537 0cbf e040 8f3e 47c6 62be
00000180: 2db8 b5be e563 9cbe 0188 69be fcbf c8be
00000190: 4592 72be eaef 95be 6fdf a33d 42e6 a3bc
000001a0: 689f e3be d39a 9d3e f0c3 983e 1eaa c7be
000001b0: 3f84 173e 1692 3bbe c4f5 10bf 495f 033e
000001c0: 269b be3d f5ce a8bd abc3 1d3e 81bc ca3c
000001d0: 47de b4be 07db 6cbe 76fd d9bb 8fc3 60be
000001e0: 9034 4b3e d869 4abc bf71 fdbe a372 fa3e
000001f0: 8c9d d33e 9815 c2bd 1444 593e 75af 4bbd
00000200: 6352 bcbe 5451 96bd d843 b1be a9a7 7c3c
00000210: 95fa 13bd f076 dcbd 2916 50be 31d0 953e
00000220: 149a 0dbf 0974 48be 8c6d 113e e18d 92be
00000230: 7af6 d3bd 4b02 cc3e 9e0b ecbd 4114 0cbe
00000240: 6bfb 713e c25a 893e 9e13 0abf ca39 54be
00000250: e9bb fbbe 0dc8 d93e 1f32 e3be 86ab 983d
00000260: 8d8a 1d3e 2042 d53e fa3b 773e 5463 efbe
00000270: 866d 023f 9f8f 2c3d 0419 f63e ae4a a1be
00000280: 9431 5bbe a9df 0c3d 5d39 c2be 9594 ef3e
00000290: 894c 113e d1a2 a5be e886 97be 4766 98bd
000002a0: 1656 67be 09bb e1bc 8494 6dbe 61a4 443e
000002b0: 0e62 4bbe 1307 c0be 12f2 e13d 700e f83d
000002c0: 11e7 27be ffe9 03be 375b c3be 998d 15be
000002d0: 03a6 083e 7c9a 9ebe b626 7dbe ceb3 d3be
000002e0: 1343 813e 11d5 dbbd 3e4f e03d cb91 853d
000002f0: 5437 eabe d222 f9be ea93 bbbe 18fe 3dbe
00000300: 58a3 81be dd98 f73d 3b26 a13e 1f54 e6be
00000310: 6e31 d1be 2fad 09bf 5c0d 3b3e e722 553e
00000320: 1bdd fcbe b7b2 b6be 7045 733e 734f a8be
00000330: b4a9 81be f544 b6be 240a 47be 3543 f2be
00000340: e27b 1c3e d8f4 833e fd67 0b3f b3d8 f5be
00000350: 61c0 bebe 1679 8dbe 1a82 9b3e 9123 adbe
00000360: 92e0 c5bd 559c edbe 04a4 18bf 368a 59be
00000370: aba9 eabe bcc3 f2bd 9607 9c3e 7f97 b5bd
00000380: 0a86 853c 62a4 88bd 1937 5abe e267 e9bd
00000390: 68d0 45bf c9ec cabd f565 8c3e 5611 87bb
000003a0: 3440 753e 1f0f ab3d 9d88 85bd d8bd 09be
000003b0: 2edc e2be f9fc 39be ff00 bcbe 3c91 ebbe
000003c0: 79f0 833e e76b edbd e46f 963e ca6f babe
000003d0: 7389 1ebd 1ae2 02bf aded 153e 528b 57be
000003e0: 4945 c3be 46fc f4be 2a82 ccbc a74d edbd
000003f0: c69c 3b3e 8746 a53d 3ef6 2b3e c0da 9ebe
0.031393133 -0.4812362 -0.65277773 0.11869095 -0.38921872 0.20857055 -0.3607134 0.18306176
-0.22722761 -0.12696 0.2570246 0.1545232 -0.37652856 0.11929815 -0.23260136 -0.24146478
-0.35384595 -0.5470445 -0.26511016 0.12347812 -0.35025933 0.016410517 -0.1296744 -0.014164704
-0.52363694 -0.14201088 0.107691176 -0.33644035 0.20890015 -0.43277657 0.13920835 -0.3728453
-0.0817508 0.08645027 -0.23886673 -0.21546851 0.0553061 0.042775296 -0.13761814 0.023558468
0.045118116 -0.25361943 -0.28811944 0.23524885 0.44819808 0.16504878 0.2912315 -0.46295735
0.3940121 -0.42034844 0.006383047 -0.30230102 -0.22446002 -0.20093971 -0.18473054 -0.0055806343
-0.49787673 0.14038382 0.24966857 0.2547393 0.44493502 -0.084427945 0.26743585 0.12354602
-0.12765901 -0.4254749 0.4394358 -0.46743488 -0.1771714 -0.22507963 -0.2905635 0.033813287
0.34944147 -0.45605087 0.2314851 -0.11179316 -0.3833232 -0.18021086 -0.30498928 -0.3889492
-0.21793559 0.006048246 -0.18707624 -0.62478864 -0.32786003 -0.47865793 0.12248334 0.24925385
-0.18190254 0.32780677 -0.06598343 0.33791706 -0.4271119 -0.5477231 0.27979183 -0.2214595
-0.35492077 -0.30544963 -0.22805788 -0.39208972 -0.2368861 -0.29284602 0.08001601 -0.020007256
-0.44457555 0.30782184 0.29836988 -0.38996977 0.14796542 -0.18317446 -0.5662501 0.12829317
0.09306936 -0.08242599 0.15406673 0.024748089 -0.35325834 -0.23130427 -0.0066525294 -0.219496
0.1984427 -0.012354337 -0.49500844 0.48915586 0.41331136 -0.09476775 0.21217376 -0.049727876
-0.36781606 -0.07339731 -0.34622073 0.015420833 -0.036127646 -0.10764873 -0.20320953 0.292604
-0.5531323 -0.19575514 0.14201945 -0.2862387 -0.10349746 0.398455 -0.11525653 -0.13679601
0.23631065 0.26827055 -0.53936183 -0.2072517 -0.49166802 0.4253544 -0.44374177 0.074545905
0.15384884 0.41652012 0.24143973 -0.4675547 0.5094837 0.042129155 0.4806596 -0.3150229
-0.21405631 0.034392986 -0.3793439 0.46793047 0.14189352 -0.32350782 -0.29595113 -0.07441383
-0.22591433 -0.027555006 -0.23201185 0.1920333 -0.19861624 -0.37505397 0.110324994 0.12112129
-0.16396739 -0.12882231 -0.3815553 -0.14604796 0.13344578 -0.30977237 -0.24721798 -0.41348118
0.25246486 -0.107339986 0.10952614 0.065219484 -0.45745337 -0.48659378 -0.36636287 -0.1855396
-0.25319934 0.12089703 0.3147448 -0.44986054 -0.40858024 -0.5377988 0.18266815 0.20814095
-0.4938744 -0.35683224 0.23756957 -0.32873115 -0.25324786 -0.35599485 -0.19437462 -0.473169
0.15281633 0.25772738 0.5445555 -0.4801689 -0.37256148 -0.27631444 0.30372697 -0.33816198
-0.09661974 -0.46408334 -0.5962527 -0.2124413 -0.4583257 -0.118537396 0.30474538 -0.08866786
0.016299266 -0.066719785 -0.2131008 -0.11396767 -0.7727113 -0.099084444 0.27421537 -0.0041219397
0.23950273 0.083524935 -0.065201975 -0.13451326 -0.4430861 -0.18162908 -0.3671951 -0.46009243
0.25769404 -0.11592846 0.2938224 -0.36413413 -0.0387053 -0.51126254 0.14641447 -0.2104924
-0.38138798 -0.4784872 -0.02496441 -0.11587077 0.18321523 0.08070093 0.16793153 -0.31026268

bias_sigma f4 [256]
00000000: 3222 39bd ca62 a03d e2b0 48be 91c8 b9ba
00000010: 93ac 7b3c 4e1a 1fbc 966b 68be 81ef ec3b
00000020: af69 dbbb 2f9d 9a3c 4d44 39bd 483d 6fbc
00000030: fdac 18be 31de 5c3c 2318 bb3c b8f5 36be
00000040: ede1 203e bc06 893d 7f72 0b3e 8f81 16bd
00000050: 297b 24bb c60c b4bb fa3b 0c3d 66db 353b
00000060: c6df 003e fa95 b73d 7c7f 123b 18be 1fbe
00000070: c94f d4bc ca48 6d3d 1fcc 243d 4458 df3c
00000080: 637a 3cbc 2059 603b 362f 73bd a7e9 413d
00000090: e401 d6ba 7777 86bc 3794 1c3c 8afd 59be
000000a0: ec0c 8f3d ba5f 8b3d 9284 d0bc 0b05 df3c
000000b0: 3d10 503b c8c2 57bd ea0a 293d a2ce babd
000000c0: 403b 0fbc 134a b8bc 0ab0 2fbd 7987 d63d
000000d0: 44b0 56bb 1f2f aebc fcda 03bc 2eb0 99bd
000000e0: de70 6ebd 9870 babc 0968 dd3c ac3e b9bb
000000f0: 3cd4 323c 6aa9 8aba 1311 c03b 4d9c 94bc
00000100: d82d 633c 6454 13bc fa9a 313c afbb 2c3e
00000110: b100 9b3d 85d2 993b 0051 ee3b ece9 bebc
00000120: a8dc 4f3c e8fd ebbd 407a c7bc 5c6c 13bd
00000130: de69 0bbe 2d63 be3c 86af fcbd 5425 603d
00000140: 8538 11bd a1d7 eb3c 03fb 1d3d 698c 003e
00000150: 9404 c4bc be1b 0d3e 7350 27bc 1a27 db3c
00000160: ce0f 123e c999 7d3a 18c4 8a3c c99f 55ba
00000170: d166 223d e23b 933b 85be 0bbc a2b3 6b3e
00000180: e6ea 273d 41a1 02be 8322 893d a4aa 8e3d
00000190: 7770 d13d 646e a63d 7d89 8fbc bc24 38bc
000001a0: ee5a a1bc 7870 8f3c dde9 e83c 71c2 0b3d
000001b0: dccc 96bc 68a2 fd3d 0dae 313b 8a16 773d
000001c0: e274 31bc f57a 043c bbed ba3b f2f9 20bd
000001d0: 0b8f 2c3d 8bfb 0bbe 8456 143d 5345 98bd
000001e0: fada 543d 991d 8b3d e7fa 06be 2752 9f3a
000001f0: dcb1 10ba 5201 063c 4233 ef3b 4d2c 68b9
00000200: f66e 2bbd e49d cbba 0e8e 123e d576 adbc
00000210: c453 46bb 5287 80bb dc8c eb3c 34d3 bf3b
00000220: f5dd 1bbb a1a5 9abd 5166 e3bb 9425 da3d
00000230: 3230 173d 236a b53b ae08 443a d84c 3939
00000240: d4a8 603d 9577 da3b 968d 66bd 8492 1abd
00000250: 2a2a 803c c9ef 5ebd aea0 e53d 2014 a3bc
00000260: 7fac 51b8 0d2f 473c a74f 06bd 84c2 9b3d
00000270: 6d99 dcbb d32c 153d 6945 513c c629 89bb
00000280: e09f 10bd 2d2c 803c ed14 17be 780c 363c
00000290: 8af8 d5bd ccf1 febc ca93 c63d 9bea 0abd
000002a0: e96d 5dbd 6f87 5bbc a031 ff3d f84c 073c
000002b0: ea23 5c3d d73f 9d3d e3c3 c8bc 02ac ebbc
000002c0: ed59 b13c 02e3 4f3c 12fb 1c3c f32d 6a3d
000002d0: 33b3 b03d 6ab6 993d ddeb 573e 710d b63d
000002e0: 9b18 0c3d 2607 8bbc fcc5 813c d691 53bd
000002f0: 069e 85bc 2ebe a83d 78fe 8ebd b69c 2cbd
00000300: 8bef a73c c921 023a 99bb b4bc 3ef5 e63d
00000310: 6dcf de3b 1d8e a23d fc10 97bc 00ff bbbc
00000320: 7bc8 08be 0b45 a439 5ff3 0abd 7ded d8bd
00000330: 51ed db3c f886 d23b 721f 87bc c6ca dd3d
00000340: e283 cfbb e2b3 ad3b ee3e dd3b 4b76 27bd
00000350: 4515 56bd ac89 da3d 4e4f 31bc 797c 903e
00000360: f1c1 363d 2937 3ebd 7fc0 113e 17fb 84bd
00000370: b569 0a3d 13ed 253c 3303 94ba 3fed 93bd
00000380: 5b27 6e3c f069 7b3c b777 b4bc ebba 2d3d
00000390: 9b46 b93c 77d0 a33d ff91 763d 539b 08bc
000003a0: b7bb eebb 1c40 813d 2067 333d 36ba 593d
000003b0: bffc 9cbd c293 8fbc 0e30 3cbd ea6a d0bd
000003c0: f493 c2bc 8d7a ddbb a37a a5bc d035 a73d
000003d0: 9ce5 f53c 8b60 b8bd 37ac 81bd 685f 3bbc
000003e0: 52be 12be fe45 a73c c71d 12be 4f50 3c3d
000003f0: 16ef 8cbb 3596 a13d fdc1 b53c 202c 803d
-0.045198627 0.078313425 -0.19598725 -0.0014174153 0.015360969 -0.009710861 -0.22697291 0.0072306995
-0.006695948 0.01887378 -0.045231152 -0.014602013 -0.1490974 0.013480709 0.022838658 -0.17867172
0.15711184 0.066907376 0.13617896 -0.03674465 -0.0025097823 -0.005494687 0.034236886 0.002774918
0.12585363 0.08964153 0.0022353819 -0.15599859 -0.02591695 0.057930745 0.040233728 0.027263768
-0.011503789 0.003423281 -0.059371196 0.04734197 -0.0016327468 -0.016414387 0.009556822 -0.21288124
0.069848865 0.06805368 -0.02545384 0.027224084 0.003174796 -0.052675992 0.041270174 -0.09121443
-0.008742154 -0.022496259 -0.042892493 0.10475058 -0.003275887 -0.021262703 -0.008047815 -0.07504307
-0.058213107 -0.022758767 0.027027147 -0.005653223 0.010914858 -0.0010579054 0.0058614104 -0.018140936
0.0138659105 -0.008992288 0.010840172 0.1686847 0.07568491 0.0046942853 0.0072728395 -0.023304902
0.012686886 -0.11523038 -0.024350286 -0.03599201 -0.13614604 0.02324065 -0.12338166 0.0547231
-0.03545429 0.028789343 0.03856946 0.12553562 -0.023927964 0.13780114 -0.010212052 0.026752044
0.14263842 0.00096741 0.016939208 -0.0008149115 0.039648835 0.0044932226 -0.00852931 0.23017743
0.0409955 -0.12756826 0.06696036 0.06966141 0.10226529 0.08126524 -0.017521614 -0.011239227
-0.019696679 0.017509684 0.028431827 0.03412098 -0.018408231 0.12384492 0.00271118 0.06032423
-0.01083109 0.008085956 0.005704609 -0.039300866 0.042128604 -0.13670175 0.03621532 -0.074350975
0.051966645 0.06792755 -0.13181649 0.0012155221 -0.0005519667 0.008179026 0.0072998116 -0.00022141747
-0.041853867 -0.0015534726 0.14312002 -0.021174828 -0.003026233 -0.0039223814 0.02875369 0.005854035
-0.002378342 -0.075511225 -0.0069396873 0.10651699 0.036911197 0.005536334 0.00074781 0.00017671601
0.054848507 0.0066670873 -0.05628737 -0.037737384 0.015645105 -0.054427896 0.11212288 -0.019907057
-4.9990133e-05 0.012157214 -0.032790806 0.0760546 -0.006732157 0.0364197 0.012772896 -0.004185888
-0.03530872 0.015646065 -0.14754076 0.011111371 -0.10447796 -0.031121157 0.09696157 -0.033915143
-0.054059897 -0.013398989 0.12460637 0.008258097 0.053745188 0.07678192 -0.024507469 -0.028768543
0.021649325 0.0126884 0.009581344 0.057172727 0.086279295 0.07505496 0.21086068 0.088892825
0.034203153 -0.016971182 0.015841477 -0.051652752 -0.016310703 0.08239399 -0.0698213 -0.04214164
0.020499965 0.0004964141 -0.02206211 0.11277245 0.0067996294 0.07937262 -0.018440716 -0.022948742
-0.13357727 0.0003133196 -0.033923503 -0.10592172 0.02684656 0.006424781 -0.016494486 0.108296916
-0.0063328603 0.0053009847 0.0067518866 -0.040884297 -0.052266378 0.1067079 -0.01082213 0.28219965
0.04461855 -0.046439324 0.14233588 -0.06493204 0.033792216 0.010127324 -0.0011292457 -0.072229855
0.01453575 0.015345082 -0.02202974 0.042414587 0.022616675 0.07998746 0.060197826 -0.008337813
-0.007285561 0.06311056 0.04379952 0.0531561 -0.07665395 -0.017526511 -0.045944266 -0.10176642
-0.02375219 -0.006758994 -0.02020008 0.08164561 0.030016713 -0.09002789 -0.063316755 -0.011436321
-0.14330414 0.020419117 -0.14269172 0.045975026 -0.004300962 0.07889978 0.022187227 0.06258416

weight_epsilon f4 [256, 128]
00000000: d429 1f3f 1eec 0dc0 86f2 9bbf ff03 473f
00000010: e1c5 b63f 1390 d53f 489c d13f 493b 56bf
00000020: 6110 e4bf 19fe 95bf 53ec e43f 564b 5d3f
00000030: 0693 aa3f 0411 073f ba0b 263f 0a16 45bf
00000040: 5df7 56bf e407 8a3f 6217 b8bf b7c6 adbf
00000050: e951 e63f ca8a a93f 0f47 b53f ced5 523f
00000060: c14b d83e f19d 6c3f c9f9 8f3f 8488 c1bf
00000070: 9361 3bbf 04c1 bebf b930 673f e7ec 11bf
00000080: ef44 ae3f 3ce5 593f 4258 bb3f 52c7 903f
00000090: 031b a4bf c66a d03f 2124 c33f 7b49 823f
000000a0: c9ef 3e3f fd8e 4cbf 1168 82bf 9a7d 90bf
000000b0: 4fb2 bc3f 3a23 123f 3f4a 0440 0c94 4b3e
000000c0: e5c4 123f 9d8a a23e 3b32 c1bf 7939 2d3f
000000d0: 1d17 00c0 ed00 9abf fe56 86be fe50 a6bf
000000e0: 8cb6 07bf 50aa 303f 1bff 883f 54eb 6ebf
000000f0: 38a5 963f a074 58bf adfc a23f d7e4 e83e
00000100: c6cb ac3f 954b 473f a8ca 0b3f 3c77 8c3f
00000110: bee1 f63f 115d abbf b948 93bf 9a27 23bf
00000120: 8d9b 9a3f e00e 22bf aabf 09bf 5d03 a3be
00000130: 8189 aabf 9a1b 75bf b3d7 d23f 7797 573f
00000140: 15f9 dabf 8a97 a8bf 27e8 713f 8e9f 2f3f
00000150: e09c cdbf 07d4 72bf af2d d53f 0cca 22bf
00000160: 1e52 c9bf b005 c1be b523 5abf c1fe cfbf
00000170: 3065 fcbf 9fe1 b5bf 7369 6f3f 2895 22bf
00000180: 0542 ffbe 25d6 2b3f 7e73 a93f bd28 b33f
00000190: 1897 e63f c56d e03f 9faa a53f 429d e4bf
000001a0: 5cf9 dd3f 3757 8ebf 29bc f13e 0a1a ec3f
000001b0: f576 98bf 8803 86bf 37f3 afbf 752c 09bf
000001c0: 211d 09bf a4ec e13f e35b a93f cbfc 6e3f
000001d0: cabe a03f 2c49 9b3f 583f aa3f a3e1 ddbe
000001e0: ddf3 753f 0430 3abf 6fe1 9b3f d298 3e3f
000001f0: 0be5 65bf 143b 28bf 34ed d13f 07d9 963f
00000200: 6053 04bf c9fb eb3f e5a6 813f 4875 25bf
00000210: 4cf4 97bf 6b8d b1bf 3a44 aebf c21b 323f
00000220: c39b bd3f 0767 793f 9f52 bebf f0fa 37bf
00000230: 02d0 8dbf 7795 e0be 300c 0abf 9eda 233f
00000240: 1fb8 323f 4c83 65bf e40c 993f 7c79 903f
00000250: e97b bfbf 54f4 8cbf 07b6 96bf e348 2fbf
00000260: 1ed3 b3be 21b8 44bf d965 6fbf 74e6 a03f
00000270: 13c9 1b3f ec96 9e3f 2835 40bf c4a3 f23e
00000280: 6ce2 90bf 8e27 35bf 54c1 9bbf 9bbb 70bf
00000290: 3b6f 883f 3c46 adbf a93c a2bf 03a3 58bf
000002a0: cfbd 1ebf 0211 2a3f dfd5 583f 0841 703f
000002b0: 08e1 9cbf 17fe f2be 9ff7 dbbf 6140 29be
000002c0: e90a f4be 5822 87be b89e a03f 0f04 10bf
000002d0: eefb d43f 3309 803f 2760 5f3e c645 8a3f
000002e0: b5a8 e13e 5fe0 12bf 06cb 63bf 22a2 463f
000002f0: ea7c 7abf 19f5 333f 2d81 87bf bc9f c1be
00000300: dca8 8fbf ccb0 25bf d170 e8be c58f 69bf
00000310: d640 cdbf fc77 8e3f 1ce6 743f dda4 073f
00000320: c189 80bf 78bb 063f 330b e53e bc86 873e
00000330: 18c8 8d3f 45c7 4b3f 774a afbf 3b3d 33bf
00000340: e30c b63f 182a 8c3f ff1d 49bf 9802 12bf
00000350: 63f1 aa3f 19e2 493f 9e3b b1bf 1557 073f
00000360: e65f a73f af79 a03e 7e5b 353f 6eec ac3f
00000370: 49d6 d13f 8736 973f fd0a 47bf 1c2b 073f
00000380: 8d37 d43e a5dc 0ebf f5e0 8cbf 27f3 94bf
00000390: 6eb5 bfbf 1296 babf 75bb 89bf e310 be3f
000003a0: 9f8b b8bf dead 6c3f 6bf9 c8be 774a c4bf
000003b0: 5483 7d3f 61d5 5e3f 2648 923f 6e16 e43e
000003c0: f1fc e33e 62d4 bbbf 56cd 8cbf a7b0 46bf
000003d0: 0ea4 85bf 1a1a 81bf 708a 8dbf e677 b83e
000003e0: 117b 4cbf 0acb 1a3f b098 81bf 8275 1ebf
000003f0: 6721 3f3f 39dd 0b3f 8287 aebf 0ed3 7abf
0.621732 -2.2175364 -1.2183387 0.7774047 1.4279138 1.6684593 1.6375818 -0.8368421
-1.7817498 -1.171817 1.788462 0.8644308 1.3326118 0.5276034 0.64861643 -0.76986754
-0.83971196 1.0783658 -1.4382136 -1.3576268 1.7993747 1.324548 1.416231 0.8235749
0.42245296 0.924285 1.1248103 -1.5119786 -0.7319576 -1.4902654 0.9030872 -0.5700211
1.3614787 0.8511541 1.4636309 1.1310828 -1.2820743 1.6282585 1.5245401 1.0178674
0.74584633 -0.7990568 -1.0188009 -1.128833 1.4741915 0.57085 2.0670316 0.19880694
0.5733169 0.3174638 -1.5093454 0.6766582 -2.0014107 -1.2031533 -0.26238245 -1.2993467
-0.5301292 0.69009876 1.0702852 -0.9332783 1.1769171 -0.84552956 1.273336 0.4548709
1.3499687 0.77849704 0.54606104 1.0973887 1.9287641 -1.3387777 -1.1506568 -0.637323
1.207872 -0.6330395 -0.5380808 -0.31838503 -1.3323213 -0.9574524 1.6472076 0.8421549
-1.7107264 -1.3171246 0.9449486 0.68602836 -1.60635 -0.9485478 1.6654567 -0.6358955
-1.5728185 -0.37699652 -0.85210735 -1.624962 -1.971838 -1.4209479 0.9352028 -0.63508844
-0.49855056 0.67123634 1.323837 1.3996807 1.801486 1.7533499 1.2942694 -1.7860491
1.7341723 -1.1120366 0.47213867 1.8445446 -1.1911303 -1.0469828 -1.3746098 -0.5358346
-0.5356007 1.7650342 1.3231167 0.9335448 1.2558224 1.2131705 1.3300581 -0.4333621
0.9607523 -0.72729516 1.2178172 0.74451935 -0.89802617 -0.65715146 1.6400514 1.1784981
-0.5168972 1.8436214 1.0129057 -0.6463208 -1.1871428 -1.3871282 -1.3614571 0.69573605
1.481316 0.9742283 -1.4868964 -0.71867275 -1.1079104 -0.43864033 -0.53924847 0.6400546
0.69812196 -0.8965347 1.1957059 1.1287074 -1.4959689 -1.1012063 -1.17743 -0.6847059
-0.35122007 -0.7684346 -0.9351478 1.2570329 0.6085369 1.2389808 -0.7508111 0.47390568
-1.1319098 -0.7076348 -1.2168374 -0.94036263 1.0658945 -1.3537059 -1.2674762 -0.84623736
-0.62008375 0.664322 0.8470134 0.9384923 -1.2256174 -0.4745948 -1.7184943 -0.16528465
-0.47664574 -0.2639339 1.2548437 -0.5625619 1.6639383 1.0002807 0.21814023 1.0802543
0.44074026 -0.57373613 -0.88981664 0.77591145 -0.97846854 0.70295864 -1.0586296 -0.3781718
-1.1223407 -0.64722896 -0.45398572 -0.91235 -1.6035411 1.1130366 0.9566362 0.52985936
-1.0042039 0.52629805 0.44735107 0.26469982 1.1076689 0.79600936 -1.36946 -0.70015305
1.4222683 1.0950346 -0.78561395 -0.5703521 1.3354915 0.7886062 -1.3846319 0.5286725
1.3076141 0.31342837 0.7084273 1.3509653 1.639352 1.1813515 -0.7775114 0.52800155
0.41448632 -0.55805427 -1.1006151 -1.1636704 -1.4977243 -1.4577048 -1.0760332 1.4848903
-1.4417609 0.924528 -0.3925279 -1.5335225 0.99028516 0.8704434 1.1428268 0.44548362
0.44528916 -1.4674189 -1.1000164 -0.776133 -1.044069 -1.008609 -1.1057873 0.36028975
-0.79875284 0.60466063 -1.0124722 -0.6189805 0.7466034 0.54634434 -1.3635104 -0.97978294

bias_epsilon f4 [256]
00000000: bba8 a6bf b88e 8a3f a0f9 fcbe 1a24 b73f
00000010: 2ca5 193f 155b 26bf a250 953f 1bfe 793f
00000020: cfad 063f 5a70 b93f ee6d 313f b14c 353f
00000030: c2a6 1fbf e91d 09bf 0ad5 2fbe 99f9 4d3f
00000040: c61d 81bf aa7d e2be 97ab ae3f fea6 7d3f
00000050: a4a0 46bf 0071 733f e24f 443f 2128 463f
00000060: 7b7a 893f af0d 8a3f f5b8 e9be c1be a23e
00000070: a40f e53e 8af1 4a3f d7a0 283f 9c50 a1bf
00000080: d26f 88bf 100b 793f 22da bfbf 1709 9fbf
00000090: 05cf b8bf 1650 483f 714e 303f 0e79 c93e
000000a0: df4c 96bf 2e65 8e3f 92aa 703f dc25 8a3e
000000b0: 8dc5 513f 1d62 dcbe a655 02bf 2ba5 5cbf
000000c0: ed25 b43f aa0c a93e 9bec 773e c371 40bf
000000d0: 2dd5 15bf cb4f 8bbf 2d0a 90bf 51bf a53f
000000e0: b3e3 2cbf 67ce 6a3f 80bc 88bf 601e 333f
000000f0: 990d 55bf 3c01 983e 9d29 b53f 386b 653f
00000100: 4b89 2b3f 8f59 05bf e6e2 933f 231b 8b3f
00000110: ae48 073f a3c0 75bf bca5 18bf b0d7 7bbf
00000120: fc78 9bbf 27e3 24bf 2618 0f3f fbc1 a63f
00000130: b21c 2b3f 0bf5 9cbf 1014 12bf d4cb b7bf
00000140: 453f 933f a992 b13f 52a6 1ebf 579a ac3f
00000150: 2b66 ab3f fb40 e8be e7e1 2cbf 2e61 c2be
00000160: 0c60 90bf e01e 493f 53f5 683f d7e7 f23e
00000170: 406c 2fbf 5b02 3fbf 08a2 b0bf 0ca6 99bf
00000180: 18a8 d2be 3a22 6d3f ddc9 6a3f edc9 87bf
00000190: f49a eebe d4d3 56bf ef0f 34bf cd3d 5e3f
000001a0: c1ad c13f f128 93bf 14ed 9d3f 0f55 32be
000001b0: f48c 6ebf 9db1 10bf 5596 65bf 5463 093f
000001c0: 651d 4abf 9bfd 88be 1bf3 a43f 3053 4b3f
000001d0: a357 ad3f 9f32 17bf 1ae9 44bf 736b 6a3f
000001e0: af30 613f f433 0abf 3355 dabe d2c9 7c3f
000001f0: 25b2 253f e63d f0be f653 39bf 1fbb dfbe
00000200: 4020 53bf f6a5 473f b3bd aa3f 764b 19bf
00000210: db13 43bf be79 c33e 1b02 5abf 43a1 83bf
00000220: b73e 143f 63bc 36bf baf4 883f 9532 d1be
00000230: 956f 743f ea5a 243f fe97 853f a49f df3e
00000240: 7ccb 72bf 46a8 8c3f 8daa 98be 6baf 853f
00000250: ab3a 62bf 249d 4fbf e847 57be a776 3abf
00000260: d70f 25bf e07f 4d3f 5cad 0bbf f2d1 983f
00000270: 555a 43bf 41b8 893f b0d5 a33f 308b 16bf
00000280: 3d89 a03f 831b 3bbf 5a57 e03e af5c c0be
00000290: 3a9d 1f3f fb87 cbbf 888f 833f c9bf 603f
000002a0: 22cd f9be 045b 1f3f 610e 0d3f c28c bebe
000002b0: 2179 d4bf bb53 87bf b25e 063e 5312 86bf
000002c0: 5052 433f 9969 973f d3cc 80bf 0e33 62bf
000002d0: 8cf6 58bf 6118 55bf c78c 3b3f c630 04bf
000002e0: 7a49 abbf 811b a23f 18b9 9fbf 44d3 96be
000002f0: 6430 8bbf 9bd3 443f 99d8 fa3e 352c 9fbf
00000300: c799 cc3e 232d 62bf c8c1 c1be 1ad1 54bf
00000310: 4cae 35bf 6e31 253f 451d 0cbf 0424 9cbf
00000320: 37be 9ebf aa4e 903f 9246 12bf f0b0 613e
00000330: 7006 17bf d481 9abf 3c3c dd3e 98e1 553f
00000340: bf46 c9be d357 8b3f ff26 6a3f 64db 39be
00000350: 32e5 423f f436 273f a45b 05bf 5601 56bf
00000360: 0cb6 a63f a0ae 683f 97c6 8ebf 9c67 bf3f
00000370: 145d 633f 58c8 39bf f2e3 313f 3acd 9b3e
00000380: 50a4 a6bf cdb6 693f 43a3 6c3f bcc7 90bf
00000390: 8c0d f1be 65d9 b13f 1fb8 8e3f d9df 73bf
000003a0: af36 a83f a5ca fd3e 8120 b2be 35ec f1be
000003b0: 5fae fe3e c864 833f 8d2c b0bf 8c3d 4f3f
000003c0: def0 aabf 6da0 d2be 0b42 a03e 293a 05bf
000003d0: d84d 853f dbb7 dd3e f645 73bf 9d1b 5dbf
000003e0: 1597 4d3f 0a3c 60bf e496 853f 2c77 a7bf
000003f0: ce8e 55bf d2d1 ec3e 9eed 9f3f 9146 e0be
-1.3020242 1.0824804 -0.494092 1.4307892 0.6001766 -0.6498273 1.1665232 0.9765336
0.5260896 1.4487412 0.69308364 0.70820147 -0.6236383 -0.53561264 -0.17171112 0.8045898
-1.0087211 -0.442365 1.3646115 0.99082935 -0.7758887 0.950943 0.7668439 0.7740498
1.0740503 1.0785426 -0.45648924 0.3178616 0.44738495 0.7927481 0.6587042 -1.2602725
-1.0659125 0.97282505 -1.4988444 -1.2424649 -1.4438177 0.782472 0.6886969 0.3935017
-1.1742209 1.1124628 0.9401027 0.2698201 0.81942064 -0.43043604 -0.5091194 -0.86189526
1.4074074 0.33017474 0.24211352 -0.75173587 -0.58528405 -1.0883726 -1.1253105 1.294901
-0.6753494 0.91721195 -1.0682526 0.69968224 -0.83223873 0.29688442 1.4153324 0.8961673
0.6700637 -0.5208978 1.1553619 1.0867656 0.52845275 -0.95997065 -0.5962789 -0.9837599
-1.2146297 -0.64409107 0.5589622 1.3027948 0.6684066 -1.2262281 -0.5706186 -1.4359078
1.1503683 1.3872882 -0.61972535 1.3484601 1.3390554 -0.45362076 -0.675322 -0.37964767
-1.1279311 0.78562737 0.90999335 0.47442505 -0.6852455 -0.7461297 -1.3799448 -1.2003798
-0.4114387 0.9263035 0.9171427 -1.0608498 -0.46602595 -0.83916974 -0.7033681 0.8681305
1.513115 -1.1496869 1.2337976 -0.1741526 -0.9318383 -0.56521016 -0.89682513 0.5366719
-0.789511 -0.26755986 1.288669 0.7942381 1.354237 -0.59061617 -0.76918185 0.91570204
0.8796491 -0.53985524 -0.42643127 0.98745453 0.6472495 -0.46922225 -0.7239374 -0.4369745
-0.82471085 0.7798761 1.3339142 -0.5988077 -0.7620217 0.3817882 -0.8515946 -1.0283588
0.57908195 -0.71381205 1.0699685 -0.40858904 0.9548276 0.64201224 1.0437009 0.43676484
-0.9484174 1.0988853 -0.2981762 1.0444158 -0.8837077 -0.8109915 -0.21023524 -0.728373
-0.64477295 0.80273247 -0.545614 1.193907 -0.7630971 1.0759355 1.2799587 -0.58806133
1.2541882 -0.73088855 0.43816644 -0.37570712 0.62349284 -1.5900873 1.0278177 0.8779264
-0.48789316 0.62248254 0.55100065 -0.37216765 -1.6599466 -1.0572428 0.13122061 -1.0474342
0.76297474 1.1829101 -1.0062507 -0.88359153 -0.847512 -0.83240324 0.73261684 -0.5163692
-1.3381798 1.2664644 -1.2478361 -0.29458058 -1.0874143 0.76885384 0.48993376 -1.2435366
0.39961073 -0.88350123 -0.37843156 -0.83131564 -0.7096908 0.6452855 -0.5473216 -1.2198491
-1.2401799 1.1274006 -0.5713893 0.22040153 -0.589942 -1.207087 0.43210018 0.83547354
-0.39311787 1.0886177 0.91465753 -0.18150097 0.76130974 0.65318227 -0.5209296 -0.8359579
1.3024306 0.90891457 -1.1154355 1.4953494 0.888139 -0.72571325 0.6948844 0.30430013
-1.3018894 0.91294557 0.9243662 -1.1310954 -0.47080648 1.3894469 1.1149939 -0.9526344
1.3141688 0.49568668 -0.34790424 -0.47250524 0.4974241 1.0265131 -1.3763596 0.8095329
-1.3354757 -0.4113802 0.31300387 -0.5204187 1.0414381 0.43304333 -0.95028627 -0.8637026
0.8030866 -0.8759161 1.0436673 -1.3083243 -0.8342103 0.4625383 1.249439 -0.43803838

epsilon_in f4 [128]
00000000: 6e7c f4be aa00 da3f c78b 6f3f d6d9 18bf
00000010: 4260 8cbf 0f06 a4bf f7fc a0bf 8e89 243f
00000020: 3d29 af3f 2766 663f 2ad2 afbf 33f6 29bf
00000030: cc01 83bf b578 cfbe d50e ffbe 765e 173f
00000040: 011a 253f 6406 54bf 7963 8d3f 5977 853f
00000050: cde4 b0bf db36 82bf 3d3a 8bbf c3ed 21bf
00000060: 701f a6be e6ba 35bf 2028 5dbf eaa3 943f
00000070: 4eea 0f3f 7581 923f ee8f 31bf cf26 e03e
00000080: 4ad8 85bf ef59 27bf 26e3 8fbf d863 5ebf
00000090: d813 7c3f 5312 a0bf 0ce0 95bf 4521 48bf
000000a0: 61a5 12bf ac1b 1d3f 4150 483f 9cf2 5d3f
000000b0: eeec 90bf 407a e0be ea34 cbbf f15a 1cbe
000000c0: 9672 e1be cdac 79be a561 943f de0a 05bf
000000d0: 70c1 c43f 6f8f 6c3f f65a 4e3e 3a79 7f3f
000000e0: fa76 d03e 62af 07bf aa6f 52bf 917f 373f
000000f0: de66 67bf d43e 263f 035c 7abf e2de b2be
00000100: 9eb6 84bf d110 19bf cdba d6be e4c3 57bf
00000110: 249d bdbf f99c 833f 153d 623f f39d fa3e
00000120: f37c 6dbf bbee f83e 7297 d33e 4866 7a3e
00000130: 7cfa 823f 5840 3c3f 38ef a1bf f894 25bf
00000140: cb2d a83f 087c 813f fbca 39bf 81e2 06bf
00000150: f4ea 9d3f 2480 3a3f 7eba a3bf 3e0e fa3e
00000160: 129f 9a3f 6f3f 943e ea89 273f 5dbf 9f3f
00000170: 2ed9 c13f f3b0 8b3f 6fe0 37bf 00bd f93e
00000180: 050c c43e f7f9 03bf f624 82bf b899 89bf
00000190: f019 b1bf 7f5e acbf ab79 7ebf 7095 af3f
000001a0: db7b aabf 2da5 5a3f 31a9 b9be 9855 b5bf
000001b0: 4632 6a3f c3da 4d3f c222 873f 53b5 d23e
000001c0: c89d d23e 8e84 adbf d512 82bf fb8c 37bf
000001d0: 7bea 76bf a587 6ebf 87c1 82bf a369 aa3e
000001e0: 71e6 3cbf a0ff 0e3f 8771 6fbf 9662 12bf
000001f0: 3091 303f 0435 013f 1e3b a1bf 72b6 67bf
-0.47751182 1.7031453 0.9357266 -0.5970739 -1.0966876 -1.2814349 -1.2577199 0.6427239
1.368446 0.8999962 -1.3736012 -0.66391295 -1.0234923 -0.4052178 -0.49816003 0.5912851
0.64492804 -0.8282225 1.1045982 1.0427047 -1.3819824 -1.017299 -1.0877148 -0.6325342
-0.3244586 -0.7098831 -0.8638935 1.1612523 0.56216896 1.1445757 -0.69360244 0.4377961
-1.0456631 -0.653716 -1.1241195 -0.868711 0.9846778 -1.2505592 -1.1708999 -0.78175765
-0.572836 0.6137035 0.7824746 0.8669832 -1.1322305 -0.4384327 -1.5875523 -0.15269066
-0.44032735 -0.24382325 1.1592299 -0.51969707 1.5371532 0.9240636 0.20151886 0.9979435
0.40715772 -0.5300199 -0.82201636 0.71679026 -0.9039134 0.6493962 -0.9779665 -0.3493567
-1.036823 -0.59791285 -0.41939393 -0.8428328 -1.481358 1.0282279 0.88374454 0.4894863
-0.9276878 0.48619637 0.4132648 0.2445308 1.0232692 0.7353568 -1.2651129 -0.64680433
1.3138975 1.0115976 -0.7257535 -0.5268937 1.2337327 0.7285178 -1.2791288 0.4883899
1.2079794 0.28954646 0.65444815 1.2480274 1.5144403 1.0913376 -0.71826833 0.48777008
0.3829042 -0.5155329 -1.016753 -1.0750036 -1.383604 -1.3466338 -0.994044 1.371748
-1.3319048 0.8540829 -0.36261895 -1.4166746 0.9148296 0.8041193 1.0557482 0.41153964
0.41136003 -1.3556077 -1.0161997 -0.71699494 -0.9645154 -0.9317573 -1.021531 0.3328372
-0.73789126 0.558588 -0.93532604 -0.5718168 0.6897154 0.5047152 -1.2596166 -0.90512764
