save/model/lunarlander_dqn_dueling_noisy_hid_64_64.pth (torch_old, 113944 bytes, 30 tensors)

weight f4 [64, 8]
00000000: e17a 2d3e a190 aa3e f3da 103f 3c30 92be
00000010: 7931 f13f e05f a43d 8216 723d c078 95bd
00000020: d7e3 94bd 5f10 23bf bbcb 9abf a5d2 6b3e
00000030: 831b 43bf 76a1 27bf 367d 063f 8992 0abf
00000040: 023b 0bbe 5246 c4be d01a bdbe c1d0 9e3f
00000050: 14ab 27bf 6e1d b33e 1a94 0b3f ffb1 75be
00000060: 5a40 68bd 97c4 e73e e8f8 43bf 83d6 4040
00000070: 907a eb3e 4250 013c 4ac9 3e3f d3b8 bebd
00000080: 74bd ad3d e46f b0be b4e4 e53f cc97 df3f
00000090: 07bd 7bbf 3db3 663e 93a4 ddbe 6103 3f3f
000000a0: 59fd 04be 795f 42bc 71aa d13f 5f89 0a40
000000b0: 3561 393e f8de de3d a6df febe 349b eb3e
000000c0: 4cf9 363d 9a07 50be 0077 67be 1ec0 2ebd
000000d0: 4a6d 8e3d 39fb 93bf 9449 583e 4638 66bd
000000e0: 4323 3e3e 2218 bcbe 8022 303f c6d1 763f
000000f0: a212 a5be 3b40 66bf 01db 9e3e be72 1f3e
00000100: ca95 d03d 2e49 883d 0f21 acbd 752d 4dbf
00000110: 4010 17bf 3451 f7be 526e 773e 39f4 34bf
00000120: 5545 1fbf 584b ad3e e9b8 0fbf b867 203f
00000130: 8c6f 8abe 932e 23bf 7294 8a3e 3c71 4cbe
00000140: a697 183c 03dc eebd a628 94bf 2206 94bf
00000150: c82f 94bd e363 ee3d 487e e73e 94e1 8fbf
00000160: 9971 233f 7c13 b03e 48a9 c3bf 69b5 a93e
00000170: bb31 0c3f 4748 9dbe 46e8 82bf 56a3 173f
00000180: ad05 c33d 79f5 8d3d 5c5d 45bf b2fd b83c
00000190: a932 b13f c60e 383f a679 80be a5f8 6a3e
000001a0: 3e92 b5bf 175b 143e 2684 673f 5e86 aa3e
000001b0: 5e58 27bf 0137 983c c873 72bf 413a 1cbf
000001c0: 2787 363e c820 62be d5b3 9abe 2f0b 783f
000001d0: 598e 30bf 00f2 cdbe 7e4a 293d abd2 143e
000001e0: c392 813e 805e aa3e 4381 193f 7706 c6be
000001f0: 489a afbe b642 343f e6fc 00bf 0207 1cbe
00000200: 1f57 2ebe 8af7 213d 1a84 803f 9be5 d53e
00000210: 428b 183f 968c 26bf d290 933e 8251 5dbf
00000220: d105 d5bd 8570 a93d 028c 29bf 94a8 07bf
00000230: 2359 1a3e 1c26 a5bf bc5e dc3e e9a4 843d
00000240: c1ff ae3c b8bd eb3e 8036 e3be 20f4 80bf
00000250: 8ae2 a0be 965c 42bd 71b1 493e 952a fcbe
00000260: 9828 9b3f 5f20 7ebf 2d7a 76be 2768 9cbf
00000270: 3487 aa3c d83e 8d3e bcc0 903e 5975 653e
00000280: 5825 b13e 9900 b0bf b217 133d e3b1 8bbe
00000290: 0253 a8be bdf1 f5be b884 fe3e c69d d8bd
000002a0: af17 c1be 3f23 fd3e 7dea 103d d857 8cbf
000002b0: d4cf 053e 8e80 0c3f c682 bfbd 8515 93bf
000002c0: 30b1 373e 28cb 6fbd 8f10 dfbf 02bf 6cbc
000002d0: 77e2 0c3e 56a8 a7bc 7748 053f 11fb afbe
000002e0: e509 57be 2770 0e3e 9773 913f 2e41 83bf
000002f0: be48 c83d dff4 b73d cf85 1a3f 91e0 49bf
00000300: 6ebf c63e 2e17 cd3e f45d c2be 56cc 3dbf
00000310: 281e e93d b2a8 f2bd bc15 0b3f 3e5f 17bf
00000320: 9112 06bf bc99 3dbe 5418 883f 73b9 603d
00000330: 96b0 be3d cc95 983e f5e4 fcbe 491a 0a3f
00000340: 7109 793d 3f03 353c 5c49 0cbd c562 9dba
00000350: 6185 15c0 1541 b13c 1687 1dbf 91cb 08be
00000360: 5629 cf3d 38eb 6b3e 6815 fbbb 3a2a 0b3e
00000370: f2f3 d63f f3cc 883e c9c0 a33e 31e3 54be
00000380: 8093 eebd 1a1f be3e 82d7 203e d4c2 32bf
00000390: ade5 bb3e a9ed d2be ed74 cbbf 7025 8c3f
000003a0: 42ce 32bf 1a84 20bf b6ac 1840 5e24 503e
000003b0: b827 8e3c 6d3f 52bd 30d1 4bbf 36fa 5a3e
000003c0: c66a 8abe d4ac 013e 8a47 2e3f a7a9 b8be
000003d0: d4d3 923f a41b 44bf 2bc6 55be 1413 d93e
000003e0: bfcb 5bbd 42e4 c5bd 5c25 21c0 f81e b53f
000003f0: 3a1f c2be ae8c 0cbe d45f 80bf 80fa 9a3f
0.16941406 0.33313468 0.5658409 -0.28552425 1.8843223 0.08026099 0.059103496 -0.07298422
-0.072700195 -0.63696855 -1.2093424 0.23029573 -0.76213855 -0.65480745 0.52534807 -0.54129845
-0.13596728 -0.383349 -0.3693452 1.2407457 -0.6549542 0.3498339 0.5452286 -0.23993681
-0.056701995 0.45267174 -0.76551676 3.0130928 0.45991945 0.00789267 0.7452589 -0.09312596
0.08483401 -0.34460366 1.796042 1.74682 -0.9833531 0.22529311 -0.43289623 0.7461453
-0.1298727 -0.011863583 1.638014 2.1646345 0.18103488 0.10882372 -0.49780005 0.46016848
0.04467134 -0.203154 -0.22603989 -0.042663686 0.06954439 -1.1561042 0.21121818 -0.05620601
0.18568139 -0.36737162 0.6880264 0.9641384 -0.32240778 -0.8994176 0.31026462 0.15571114
0.1018482 0.06654583 -0.08404743 -0.80147487 -0.5900917 -0.4830414 0.24163178 -0.70685154
-0.6221517 0.33846545 -0.56141526 0.6265826 -0.2703823 -0.6374294 0.2706638 -0.1996507
0.0093135 -0.11663058 -1.1574905 -1.1564372 -0.07235676 0.11640146 0.45213532 -1.1240716
0.6384521 0.34389865 -1.5286036 0.33146217 0.5476338 -0.30719206 -1.0227134 0.59233606
0.09522567 0.06931586 -0.7709558 0.022581909 1.3843585 0.7189754 -0.2509281 0.22946413
-1.4185255 0.14487873 0.9043602 0.3330564 -0.6536921 0.018580915 -0.9470792 -0.6102639
0.17824994 -0.22082818 -0.30215326 0.96892065 -0.68967205 -0.40223694 0.041330807 0.14533488
0.25307283 0.33275223 0.5996286 -0.38676807 -0.34297395 0.7041429 -0.5038589 -0.15237048
-0.17025422 0.039542712 1.0040314 0.41776738 0.5958749 -0.6505827 0.28821427 -0.86452496
-0.104015 0.082734145 -0.6622926 -0.52991605 0.15073065 -1.2902255 0.43041027 0.064767666
0.021362187 0.4604318 -0.44377518 -1.0074501 -0.31422836 -0.047451578 0.19696595 -0.49251238
1.2121763 -0.99268144 -0.24070044 -1.2219285 0.020816423 0.27587008 0.28272045 0.22408046
0.34598804 -1.3750182 0.03591127 -0.27284154 -0.3287583 -0.48035994 0.4971063 -0.10576968
-0.37713382 0.49440953 0.035379875 -1.0964308 0.13067561 0.5488366 -0.09351115 -1.1490942
0.17938685 -0.058543354 -1.7426928 -0.014449837 0.13758264 -0.020466011 0.520637 -0.34371236
-0.20999868 0.1390997 1.13634 -1.0254266 0.097794995 0.08982252 0.60360426 -0.78858286
0.38817924 0.40056747 -0.37962306 -0.74139917 0.11382705 -0.11848582 0.5433004 -0.59129703
-0.5237208 -0.18515676 1.0632424 0.05486436 0.09311025 0.29801786 -0.4939343 0.5394636
0.06080002 0.011048137 -0.03424965 -0.0012007585 -2.3362658 0.021637479 -0.6153425 -0.13358904
0.10115306 0.23038948 -0.007662464 0.13590327 1.6793196 0.26718864 0.3198302 -0.20789792
-0.11649227 0.37133104 0.1570721 -0.69828534 0.36698666 -0.41196945 -1.5895058 1.0948925
-0.69845974 -0.6270157 2.3855414 0.20326373 0.017352924 -0.05133002 -0.7961607 0.2138451
-0.27034587 0.12663585 0.6807791 -0.36066934 1.1470895 -0.76604676 -0.20876376 0.42397368
-0.053661104 -0.09662677 -2.5179052 1.4150076 -0.3791445 -0.1372554 -1.0029244 1.2107697

bias f4 [64]
00000000: 7bf7 2d3c 5951 eebd 697b 89be 7228 a93d
00000010: 90f5 333e a43f e63c a43c 50bd d320 3a3e
00000020: 9281 5e3d 15a6 01be d08e 063e bedf 00bf
00000030: 9a1c 66be bbfc b8be 6811 9a3e 96b1 9dbe
00000040: 2d98 613d 7a02 ffbe b415 86be ee97 4ebe
00000050: 8dc1 45bf f202 21be 9912 b53b 0b08 72bc
00000060: 605d 393d 1c20 fdbe 58cd d13a ecc5 52be
00000070: ff13 49bd 91ec 7abc a3bd 69be 1e14 713e
00000080: 0033 4ebe 861d 063e dcbb ebbd 3158 0c3d
00000090: 42c1 a7be 2c6d 05bf fc14 9b3e 6dd0 4dbd
000000a0: 0653 863d f4dc 8abd 1c5a ef3d 9104 273e
000000b0: 254e aa3e 2ee7 273e 5420 09bf f3da 93bd
000000c0: ffa1 093f eb35 97be fd02 15bf e8bd db3e
000000d0: b09a a33c b939 dcbe f9dc 71be 23c5 283a
000000e0: 2134 c3bd ab68 2b3e 4fb0 7cbe 9775 7d3d
000000f0: 74d0 12bf 9b45 1cbf 7e70 e73e 4ac9 b7be
0.010618086 -0.116366096 -0.26851967 0.082596675 0.17574143 0.028106518 -0.05083908 0.18176584
0.054322787 -0.12661012 0.13140416 -0.50341403 -0.22471848 -0.36130318 0.30091405 -0.3079955
0.055076767 -0.49806577 -0.26188433 -0.20175144 -0.7724846 -0.1572378 0.0055258987 -0.014772425
0.045255065 -0.4943856 0.0016006632 -0.20583314 -0.049091335 -0.015315191 -0.22826247 0.2354283
-0.20136642 0.130972 -0.11510441 0.034263793 -0.32764632 -0.5211971 0.30289447 -0.0502476
0.06558804 -0.06780425 0.11687109 0.16310336 0.33262745 0.16396782 -0.53564954 -0.072194956
0.5376281 -0.29533324 -0.58207685 0.42918324 0.019971222 -0.4301279 -0.2361945 0.0006438067
-0.09531427 0.16739146 -0.24676631 0.06187972 -0.57349324 -0.6104371 0.45203012 -0.3589576

weight_mu f4 [64, 64]
00000000: 48f1 f7be b68e b5be 954c 30bf 1746 21bf
00000010: dabe a03d ec45 293e bfc8 d3bd aa62 45be
00000020: 52aa 2fbe 8ad0 99bd 6b1a 2cbf ceff dbbd
00000030: 1aae 64be 1090 4b3e e32f 3dbe 32b9 6fbd
00000040: 9afe 1ebd 1ae9 583c a824 44be dbd3 42bc
00000050: afcb 3f3e ddff 8e3d 0a5a 5abf 9e46 0fbd
00000060: c902 acbe 41c1 b93b c615 a1bd 09d9 2dbf
00000070: 1e34 ca3d 24a6 1cbd f67e 8dbd 9773 38bf
00000080: 5685 8a3d 4375 c5be f257 49bf 69b8 f13c
00000090: e204 25be 4e32 a7bd 0cdb 46bf 6fe1 8b3e
000000a0: 4752 7fbe 8c38 4b3e a395 90be 44db 23be
000000b0: 7751 53bf bbbe 22be c158 cc3c e828 97bc
000000c0: 0a8c cebd 788c e2bd 807b f5bd 5a25 503e
000000d0: d315 bfbe 4a5d b9be b737 8a3d 7434 893e
000000e0: ac56 44bd 960a 07be 657b babe f805 63bd
000000f0: 0a1c e9be 660f 1fbc 69a5 13bf 5413 20be
00000100: 0304 1bbf 2920 04be 0aa4 52be 5aa5 8dbf
00000110: d856 83be bef3 a2bf 2cce ebbe 611f 62bf
00000120: 8ba8 f0be 820f 83bf 5a72 28bf 3959 6c3e
00000130: f8b3 813f 2e07 ebbe 3557 b4bf 7c2f 41be
00000140: 38f1 1bbd 8ebf b8bd 7d27 0abf 9efa 6d3f
00000150: 90ea 43bf b1fa 79bf b403 5dbe a36a 0ebf
00000160: 6e4d c3be 5e7a 4c3f a921 843e 4637 1a3e
00000170: f634 013f fd30 d33e 4d62 1f3f eb0e 703e
00000180: aee9 c8be d32c 5abf e540 b7be b536 003e
00000190: 7a30 513f 809a c73c 0e56 493e e0e8 44bd
000001a0: 92f1 c9be 4056 80be 754a 753f 6e8d 393f
000001b0: cae4 b73e c020 dbbf 6e26 c4bf 3534 703e
000001c0: af91 68bf b67d 983d f80d 99be ba42 4abe
000001d0: 90b2 65bc abc8 0abf 002d 0bbf e859 68bc
000001e0: 9767 3f3f 8d2c c3be 725c 883f d40f 53bf
000001f0: 6aec 1abd 147b 123e c94b 8bbf ab71 e3bd
00000200: 1db8 8a3d 943b 16be 9028 743e 53c3 013e
00000210: 7559 23c0 1525 3ac0 5a78 4e3e 6171 213f
00000220: 7d5f 0cbf fe91 b23d 5b44 523e 11ae 6bbf
00000230: fec9 493f 7eb8 8ebf 2cbf 2b3e b3e8 7cbf
00000240: 6f91 dcbe 85e9 c03e 8ea6 25be 8747 8cbf
00000250: 1912 9e3e cdf6 85be 2bc4 cf3e b9fd 7f3e
00000260: e489 ba3e 3773 453d b260 97be cbba 613e
00000270: 6071 94bf 8fac 19c0 cdce 25be f852 003f
00000280: 746b cfbe db42 68be 2a16 a63d faac 233f
00000290: e7bc 4fbf 7262 043f 5396 03bf 3e3f 91be
000002a0: 6ce1 a83e 5c6d 523e 1314 f63e 4284 943c
000002b0: 03b5 28bf 2fbb 4f3f bcff 26bd c927 133f
000002c0: 0111 2ebf 26bc a03e 873e 15bf 7588 e33e
000002d0: 7bd4 8bbd 00af a93f 5914 9f3d ccae a5be
000002e0: c22e bcbf 176b a9be 54e7 17bd 4b5c 19bf
000002f0: c0de 0cbf 51cb 923d e685 edbf 62f9 68be
00000300: d799 abbf 08d8 85bf 3b98 e8be 45ca 9bbf
00000310: 5f71 3c3f 9619 843f 84b9 b13e 1150 aebe
00000320: 5121 d23e 973a e5be cc88 7cbe 12eb c33d
00000330: aa26 42bf 9f89 23bc 2895 71bb df36 64bd
00000340: aae1 16bf 4594 e63d 7cec 2b3e 4d00 1cbe
00000350: 1371 cfbe 150c d4be 2760 81bf ff75 1b3e
00000360: b67e 023f 9a42 3f3e a337 0b3f e0e3 80bf
00000370: ca21 76bc 66d9 87be d04b 8cbd af81 7dbe
00000380: 9d70 f5be 3779 9c3e f145 1f3e cf2d e2be
00000390: 6780 ebbc 9608 33bf 9ec9 8b3d ba67 163e
000003a0: d7fd a0bf a446 ed3e 9888 4ebf fe0a 343e
000003b0: df42 89bd 255f 813d b64e 7abf 3e94 24bf
000003c0: 212f d03e 5210 47bf 3921 e33e 53ed b23e
000003d0: 3f07 893e 836c 573d 2fbc a73e 1270 d13e
000003e0: 1f32 9dbf 6f42 a03e a89e 3abd decf 053f
000003f0: 97a9 a8be 270b ab3e 4706 61bf f877 c13e
-0.4842627 -0.35460442 -0.68866855 -0.62997574 0.07848902 0.1653058 -0.10341024 -0.19275919
-0.17154816 -0.07510479 -0.6722781 -0.1074215 -0.2233204 0.19879174 -0.18475299 -0.058526225
-0.038817026 0.0132391695 -0.19154608 -0.011891331 0.18730043 0.06982396 -0.8529364 -0.034979455
-0.33595875 0.0056687896 -0.07865481 -0.67909294 0.09873222 -0.03824438 -0.069089815 -0.72051376
0.06763713 -0.38566026 -0.7864982 0.029506879 -0.16115144 -0.08163892 -0.7767799 0.2732043
-0.2493373 0.1984579 -0.28239164 -0.16001612 -0.8254618 -0.1589307 0.024944665 -0.018452123
-0.10085304 -0.110619485 -0.119864464 0.20326748 -0.37321338 -0.36203986 0.06748908 0.2679783
-0.04793422 -0.13187632 -0.36422268 -0.055425614 -0.45529205 -0.009708261 -0.5767427 -0.15632373
-0.60552996 -0.12902893 -0.20570388 -1.1066086 -0.25652194 -1.2730634 -0.46055734 -0.8832913
-0.47003588 -1.0239108 -0.65799487 0.2308091 1.0133047 -0.45903915 -1.4089113 -0.1886577
-0.03807184 -0.09020911 -0.53966504 0.92960536 -0.7652979 -0.9764815 -0.21583444 -0.55631465
-0.38145012 0.7987422 0.2580693 0.15060148 0.50471437 0.41248313 0.6225937 0.23443191
-0.39240783 -0.85224646 -0.35791698 0.12520869 0.81714594 0.024365664 0.19661734 -0.04807365
-0.39442116 -0.25065804 0.9581674 0.7248143 0.3591674 -1.711937 -1.5324228 0.23457415
-0.90847296 0.074458525 -0.2989347 -0.19752017 -0.014019623 -0.54212445 -0.5436554 -0.014181592
0.7476744 -0.38119927 1.0653212 -0.82446027 -0.03782312 0.14304763 -1.0882503 -0.11105665
0.06773398 -0.14671165 0.23843598 0.12672167 -2.552335 -2.9085133 0.20163098 0.6306363
-0.54833204 0.08719252 0.20533888 -0.9206248 0.7882384 -1.1150053 0.16772145 -0.9879257
-0.43079707 0.3767816 -0.16176817 -1.0959328 0.30873182 -0.26164857 0.40579352 0.24999131
0.36433327 0.04820558 -0.2956596 0.22043912 -1.1597099 -2.4011571 -0.1619217 0.501266
-0.40511668 -0.22681753 0.08109696 0.63935816 -0.8114762 0.51712716 -0.5140125 -0.28368562
0.32984483 0.2054953 0.4806219 0.018129472 -0.659012 0.81144994 -0.04077123 0.5748258
-0.67994696 0.31393546 -0.58298534 0.44440046 -0.06827637 1.3256531 0.07767553 -0.32359922
-1.4701769 -0.33089516 -0.037085846 -0.5990645 -0.5502739 0.07167686 -1.8556488 -0.22751382
-1.3406323 -1.0456553 -0.45428643 -1.2171103 0.7361049 1.0320308 0.3471185 -0.3404546
0.41041043 -0.44771263 -0.24661559 0.095663205 -0.75840247 -0.009981542 -0.0036862586 -0.05571639
-0.58938086 0.11258749 0.1678943 -0.1523449 -0.40515956 -0.41415468 -1.0107468 0.1518173
0.50974596 0.1867775 0.5438177 -1.0069542 -0.015022704 -0.2653305 -0.068503976 -0.24756502
-0.4793748 0.3056123 0.15554024 -0.44175574 -0.02874775 -0.69934976 0.06825565 0.14688006
-1.2577466 0.46342957 -0.80677176 0.17582318 -0.06702208 0.063169755 -0.97776353 -0.642887
0.40660957 -0.7775928 0.44361284 0.3494669 0.2676334 0.05259372 0.3276076 0.40905815
-1.2280921 0.31300685 -0.045561463 0.52270305 -0.32941887 0.33406946 -0.87900203 0.3778684

weight_sigma f4 [64, 64]
00000000: a0cc a2bc 89e8 8d3d d22a d3bc dea9 163c
00000010: bd8b 393d 0e36 e23a b243 40bd 2bb3 04bd
00000020: ddf6 efbc f534 ab3d 6d00 0fbe ed72 ee3d
00000030: ec74 c53d 88df afbc 7b13 85bd 470d 353e
00000040: 21d1 c5bd 247a f83a 454e 6d3c 8314 183e
00000050: 6c51 9f3d 37a6 4cbd 76c0 073e 684b cbbd
00000060: 2c47 593d a696 8f3d 3695 193c d564 12bc
00000070: 1f5e 113e c442 e73b b01f 023d a521 80bd
00000080: 9d61 d43d 8bc0 15bc b547 54be 31e0 fa3c
00000090: 9fa0 5abd 4094 af3d 9081 22bd 3084 37bc
000000a0: 9547 13bd 803c 8a3d ad30 b5bc fe43 d03d
000000b0: 7b34 81bd d8bb cdbd 9ed8 2bbb 13df 0b3d
000000c0: 72d9 88bc e5eb e63d b1c8 d73c 164d 0d3d
000000d0: cda5 b93d 44b3 f33d 7a18 343d 45c2 923d
000000e0: b6b4 37bd 1bea 99bd 9345 65bd 4b9c a33d
000000f0: c28f ed3d c9f0 2b3c e013 043e 2ebf bb3d
00000100: 5c1e 1fbc 29b0 893c 0650 e2bd f063 f23d
00000110: 35fd 64bc 96b6 2abe 93fd cc3d ba8e 9e3e
00000120: c5aa 3a3d e4eb bb3d 3eb5 a1bd 73c8 9f3d
00000130: b468 803d a8e2 ea3d 0df0 4abd 9127 fd3d
00000140: 6fef fdbc c236 b83e 7f64 0dbd 2941 9cbd
00000150: 4bed 633d de29 9dbd ee53 ff3d 2643 adbd
00000160: e89a 52bd 2278 40bd 1c89 d2ba b594 0ebd
00000170: 5af2 133d 5aad 60bc 167b 89bc 1924 c3bd
00000180: aed3 8b3b 07be 023e 045d 6abe a323 b9bc
00000190: 1e5b ed3d 9534 723d 1d36 56bd a50b dc3d
000001a0: 62ee e139 cd48 a83d fd92 8d3c 5b0a ae3d
000001b0: 057e b83b 93a5 12bd 8a57 c2bd 214a a93e
000001c0: a769 853d 084b 983e 750d 033d 731a 58be
000001d0: bbe4 01bd f416 443d 7d00 b23d f1fe 64bd
000001e0: cc2e 99bd 2c5d 033e 7402 bf3d 12c6 34be
000001f0: 1af3 03be bdea 9dbd 42bf 29bd 9782 ac3e
00000200: 90bd 1cbd cc3c ff3c 8b17 3dbd eb73 87bc
00000210: 84df 253c 7c68 68bc 4f73 ea3b 2b46 23bd
00000220: eb2f 86bc 93ff d9bc a9ff 82bc d5d7 433d
00000230: 7fff a8bc 89f4 27be 8e9f 953c 8cb7 00be
00000240: 9174 c2bd 4d25 9ebd 2337 1c3a 113b e0bc
00000250: 3061 113d 2d23 5abd 3da6 b5bc af73 9b3c
00000260: f4da 8fba bc3f 22be 45e4 67bd 0693 f2bd
00000270: 2516 3abc 4fce e4bd bfa2 1a3d 4998 da3b
00000280: a75f 393e 5a48 153d 0c02 073d 41e7 023d
00000290: 830e a2bd 7a24 ad3d 788c e2bc 1d31 ba3c
000002a0: bb13 a23c b9d0 87bd cd53 16bc 3bc4 f43b
000002b0: 391d bdbc 9205 b73b 8ec0 77bc 88a2 80be
000002c0: 0834 893c f8fa dbbb 47a5 0d3c 6dc4 993c
000002d0: 66fd aabb c085 323b f45e 563b 17cb ddbc
000002e0: 2103 c23c 5c34 643b 2cf2 22bd 0a58 4bbd
000002f0: f127 173d a991 3f3e 80ce b73c a236 f63d
00000300: e694 083d 0a8d 36bd f17a a63d 83cd 9d3d
00000310: a33c 39bd 54ea 863d d0c0 fcbc da6a 71bb
00000320: bc6a c83c 04b0 e8bb 4cd5 953c 7464 11be
00000330: b5f4 2d3c 4582 1f3a 9256 e13b 7f5c 743a
00000340: 2ecf f83d fb27 e73c 7cf7 35bd 47fb 69bb
00000350: d496 293c 396e 30bc 6137 933d b68b f33b
00000360: 6918 283d 33f1 613e 5df0 393b d13d fd3d
00000370: 6e25 9fbc 7200 893c 5fd8 21bd a4e8 053d
00000380: 6349 a3bb a284 67bd d81e 603d ac9a 873c
00000390: eaeb 823e 9625 c6bd b3f3 ae3c f059 36bd
000003a0: 97f2 f4bc 5d54 d2bb 5b7e 003b cc22 1fbc
000003b0: 2769 99bc 6d1f 3c3c 87cf 00be 453b 023e
000003c0: c90c 063c 227c 083d f7d8 fabc 7ceb e03b
000003d0: bd70 fbbc 3a30 353d 4dbc c33d 1e14 03bd
000003e0: fb95 59be 5456 50bd 1d21 d33d 93d4 5bbd
000003f0: f1d9 37bd 5b85 90be 67a4 e73c 5b5b f6bc
-0.019872963 0.06929118 -0.025777254 0.009195773 0.04529928 0.0017258541 -0.04693956 -0.03239743
-0.029292518 0.0835971 -0.13965006 0.11643014 0.09641442 -0.021468893 -0.06497856 0.17680846
-0.09659029 0.0018957299 0.014483993 0.14851575 0.07779202 -0.049963202 0.13257012 -0.09926492
0.05304639 0.07011156 0.009373954 -0.008935173 0.1419606 0.0070575196 0.0317685 -0.06256417
0.10370181 -0.009140144 -0.20730479 0.03062448 -0.053375836 0.08573198 -0.03967434 -0.01120095
-0.035956938 0.06749821 -0.022117937 0.101692185 -0.06308838 -0.10045594 -0.0026221643 0.034148287
-0.016705249 0.11275462 0.026340814 0.034497343 0.09064827 0.118994266 0.043968655 0.0716596
-0.044850074 -0.07515355 -0.055974554 0.07988795 0.11599685 0.010494419 0.12898207 0.09167324
-0.009711828 0.016807633 -0.110504195 0.11835468 -0.013976385 -0.16671214 0.10009303 0.30968267
0.045573015 0.09175852 -0.07895897 0.078019045 0.062699705 0.114690125 -0.049545337 0.12361062
-0.03099796 0.35979277 -0.03451967 -0.07629616 0.055646222 -0.07674001 0.1246718 -0.08460073
-0.05141726 -0.046989568 -0.001606259 -0.034809787 0.036119796 -0.013713205 -0.016782325 -0.095283695
0.0042671775 0.12767802 -0.22887045 -0.0226 0.11589645 0.059132177 -0.0522977 0.107444085
0.00043092953 0.08217011 0.017282004 0.08498069 0.005630257 -0.035802435 -0.09489353 0.33064368
0.06514292 0.29744744 0.031995256 -0.2110384 -0.031712275 0.047873452 0.086914994 -0.055907194
-0.07479629 0.12828511 0.0932664 -0.17653683 -0.12885705 -0.077107884 -0.041442163 0.33693382
-0.03826672 0.03115692 -0.04616503 -0.016534766 0.010124091 -0.014185067 0.007154859 -0.03986184
-0.016380271 -0.026611125 -0.015991049 0.047813255 -0.020629643 -0.16401877 0.018264558 -0.12570018
-0.094948895 -0.07721958 0.0005959144 -0.027371915 0.035493076 -0.053256202 -0.022173995 0.01897606
-0.0010975287 -0.15844625 -0.05661418 -0.11844449 -0.011357819 -0.11172163 0.037752863 0.006670986
0.18102895 0.036445953 0.032960936 0.031958822 -0.07912924 0.08454223 -0.027654871 0.022728497
0.019784799 -0.066316076 -0.009175253 0.0074696816 -0.023085224 0.005585381 -0.015121592 -0.25124002
0.016748443 -0.0067132674 0.008645362 0.01877042 -0.0052181957 0.0027240366 0.0032710405 -0.02707438
0.023683133 0.0034821248 -0.039781734 -0.049644507 0.036903325 0.18707909 0.022437334 0.12022139
0.033345126 -0.0445681 0.08128918 0.07705214 -0.045223843 0.06587663 -0.030853659 -0.003683737
0.024464957 -0.007101061 0.018290184 -0.14198476 0.010617425 0.00060847803 0.006876775 0.00093216443
0.121488914 0.028217306 -0.044425473 -0.0035702751 0.010350902 -0.010768467 0.07188297 0.0074324263
0.041038904 0.22064666 0.0028372027 0.12365306 -0.019427028 0.016723845 -0.03951299 0.032692567
-0.0049831136 -0.056522973 0.054716915 0.016553245 0.25570613 -0.09675138 0.02135644 -0.044519365
-0.029900832 -0.0064187483 0.0019606564 -0.009712886 -0.018726898 0.011482102 -0.12579165 0.12717922
0.008181759 0.033321507 -0.030621035 0.0068640094 -0.030693406 0.044235446 0.095574 -0.032001607
-0.2124862 -0.05086358 0.1030905 -0.053669523 -0.04488558 -0.28226742 0.028276635 -0.030072859

bias_mu f4 [64]
00000000: e9b5 93be e59f 8e3d b8f4 1e3f 64b5 693e
00000010: b81f 53be 8916 f4bc a8e7 813d 36fb 783e
00000020: b20a 2c3e c083 5bbd 12ee ebbd b921 103f
00000030: a109 033e 284b 54be b211 0c3e e996 c6be
00000040: 0bac e63e 7139 0b3f a949 1c3c 4e15 11bf
00000050: 1ed7 83be 66bc 77be e44e 88be 13f9 0dbf
00000060: b054 b6bb ef9e f2be ab48 493e 429c 89be
00000070: 71b2 b2be 99dd 22be ab32 883e 8b13 14bd
00000080: 9cf1 06bf b679 283d 5d1c 193f d753 0cbf
00000090: ebe6 e6bd 67f2 d93d ef0f 833d c05d a0be
000000a0: 81a6 58be 6987 01bc b102 8b3e 667d 56be
000000b0: 9043 22bd fe45 0abf 5195 233f 24a9 2b3e
000000c0: c564 013d 336c 4dbe 9634 e1bc d8b7 25be
000000d0: 72e6 91be a5a1 1a3e 9a85 25bc e120 93be
000000e0: 0cef 29be 3b93 74be c28d 263e 8064 3abe
000000f0: f158 a1be af8f bdbd f096 f6bd 037c 7abe
-0.28849724 0.06964091 0.6209216 0.22823101 -0.20617568 -0.029795902 0.06343013 0.2431458
0.16800955 -0.053592443 -0.11520018 0.56301457 0.12796642 -0.20731795 0.13678625 -0.3878701
0.45053133 0.54384524 0.009539046 -0.56673133 -0.2575006 -0.24192962 -0.2662269 -0.5545818
-0.0055642948 -0.47386882 0.19656627 -0.26877028 -0.34901765 -0.15904845 0.26601157 -0.03615145
-0.52712417 0.041131698 0.59808904 -0.5481543 -0.11274513 0.10641938 0.063995235 -0.31321526
-0.21157266 -0.007905819 0.2715049 -0.20946273 -0.039615214 -0.5401305 0.63899714 0.16763741
0.031590242 -0.20060806 -0.027490895 -0.16183412 -0.28496128 0.15100725 -0.010102654 -0.28736022
-0.16595095 -0.23884289 0.16265014 -0.182024 -0.3151317 -0.09255921 -0.12040508 -0.24461369

bias_sigma f4 [64]
00000000: 74a0 e3bd e1ef 17bd bd42 03bc 7981 933c
00000010: 25d4 c3bb 4cc3 b43b 7175 79bc f253 863c
00000020: 8333 633b fed2 b73c cc0e 503c 3b9e 1dbc
00000030: b7ba 19bc 2a66 253c e11b a3bb d239 c3bb
00000040: 3414 713d bb61 68ba 367c 40bc a273 0abd
00000050: 6d6a 00bd b61c 373d a951 103c 67f5 ee3c
00000060: 92de 293c b063 6dbd 50ce 703c 8af9 643c
00000070: 33fd ee3b a41b 3cbd ac71 bcba 43d7 a8bd
00000080: a1c9 523b 0eb6 e03d 5583 db3b 5b36 9ebd
00000090: f7d2 b3bb 079b 42bd 9fb8 043c 50d3 9e3c
000000a0: 1d61 84bc 8803 f23c d1e4 1ebc e456 ba3b
000000b0: 7b9b e63c 2126 223c d5c3 653b 0a37 273c
000000c0: 593a 41bc 54d6 133d 9e0c 873c cb16 08bc
000000d0: 1305 96bc 260b 4dbc c4df 323d 545f 18bd
000000e0: 1882 79bc 38d3 023c a28d f63c e9ab c5bc
000000f0: cb40 3cbd 70ef 683d b51f 7bbd 3f75 36bc
-0.111145884 -0.037094 -0.008011517 0.018006073 -0.0059762173 0.0055164453 -0.015225754 0.01639745
0.0034668155 0.022439476 0.01269884 -0.009620245 -0.009382895 0.010095159 -0.0049776887 -0.0059578205
0.058857158 -0.00088646606 -0.011748364 -0.033801682 -0.031351496 0.044705115 0.008808532 0.029169751
0.010368006 -0.057956398 0.014697626 0.01397551 0.0072933673 -0.045924798 -0.0014377139 -0.08244183
0.0032163637 0.10972224 0.0066990056 -0.07725211 -0.0054877955 -0.047511127 0.008100658 0.019387871
-0.016159588 0.0295427 -0.009698109 0.0056866277 0.02815031 0.009896786 0.0035059352 0.010205993
-0.011793696 0.03609307 0.016485509 -0.0083062155 -0.018312966 -0.012514865 0.04367043 -0.037200287
-0.015228771 0.007984929 0.030096833 -0.024129825 -0.04596023 0.05686897 -0.061309535 -0.011136352

weight_epsilon f4 [64, 64]
00000000: edef 55bf cf60 963f 3d76 c73f 0995 b03f
00000010: bca0 46bf 19c7 b1bf 2c1d 7f3f 3d30 61bf
00000020: 54b6 2abf 4147 c0bf 27ba adbf d057 09bf
00000030: ea86 5e3f d91f a13f 7bd6 85bf 9fd1 863e
00000040: bfa1 97bf be0a a8bf 30c2 b03f b1a0 a03f
00000050: ce11 b43e 0a55 9d3f 0996 e2bf ad70 43bf
00000060: 2ee7 c03f 8b40 aa3f 1861 c33f 2c53 bf3f
00000070: 8332 3ebf b87a 9cbf 65ba b2bf 7754 803e
00000080: 2eeb ba3f d652 76bf 9539 92bf 4f51 523f
00000090: 43f9 ba3f 776f 67bf 3091 ce3f 5eff bfbd
000000a0: 85b9 403f 6b6b 8abf 57dd a6bf 9299 cebf
000000b0: 20d6 613f 2b5f 96bf abb9 74bf 6bdf efbf
000000c0: 716b 273f 5ef7 3a3f 11f5 703f 32e0 9abe
000000d0: 8bb8 2dbf 3942 623f 97ee 093f f587 5fbf
000000e0: 7855 973f f8b2 f6bf b16e 56be 411a 8bbf
000000f0: 3a70 43be 4c5f a1bf 24e2 833e 8841 7d3f
00000100: 3827 e9be 9ee2 233f ae60 593f 6171 403f
00000110: 0078 d8be efbe 41bf a403 0b3f 3e6a f5be
00000120: b30b babe 858c 51bf d954 3dbf e3ad 95be
00000130: b883 f23e c298 2f3f f5db 11bf a8ed 123e
00000140: 6240 25bf b722 37bf 96a2 403f 2e0e 2f3f
00000150: 563e 443e c076 2b3f 2cf0 76bf a4fe d4be
00000160: cf3a 523f 558b 393f a9ed 543f 8382 503f
00000170: ec47 cfbe d288 2abf 16c8 42bf 4bdb 0b3e
00000180: 34b5 4b3f 6939 06bf e45b 1fbf 5e35 e53e
00000190: 8dc4 4b3f 1c39 fcbe 021f 613f 2d3e 51bd
000001a0: 0c09 d23e 40da 16bf 3dda 35bf 2528 61bf
000001b0: 071f f63e d5e0 23bf 735a 05bf 89b5 82bf
000001c0: 1a75 b63e 7cc2 cb3e d44c 033f 6cc9 28be
000001d0: 1953 bdbe d694 f63e 3652 963e da9b f3be
000001e0: 41ed 243f cb6d 86bf 5fb1 e9bd ca98 17bf
000001f0: 27fe d4bd e7dd 2fbf adba 0f3e 7600 0a3f
00000200: 7cd2 593f e41b 99bf 8015 cbbf f0c9 b3bf
00000210: 1f3c 4a3f 8f01 b53f 94df 81bf 1a47 653f
00000220: f1cf 2d3f 20c5 c33f c8e1 b03f 4cd6 0b3f
00000230: 6891 62bf e40c a4bf ac44 883f 5e44 89be
00000240: a862 9a3f f117 ab3f e8f7 b3bf 6c8b a3bf
00000250: ea56 b7be 7330 a0bf 65b3 e63f 3efd 463f
00000260: f467 c4bf 0458 adbf 61ed c6bf 9ccc c2bf
00000270: b5a6 413f 2b52 9f3f 46f9 b53f 0ca9 82be
00000280: 2250 bebf f4cb 7a3f 5be1 943f 0a23 56bf
00000290: 785e bebf 5ea3 6b3f 7b51 d2bf ee7b c33d
000002a0: 7639 44bf e8ee 8c3f 11e5 a93f 055a d23f
000002b0: 00f0 65bf 391a 993f 5b2b 793f 8c3a f43f
000002c0: bf75 2abf 8b5c 3ebf 3c55 75bf 30b0 9d3e
000002d0: 25e0 303f 105e 66bf d06f 0cbf 1e97 633f
000002e0: ff14 9abf d52d fb3f 8e53 5a3e eba0 8d3f
000002f0: c9fc 463e 7d4d a43f 3e47 86be 70ed 80bf
00000300: 9065 35bf a902 7f3f 851f a93f 37b9 953f
00000310: 7d6a 28bf babc 96bf 744f 583f c5ef 3ebf
00000320: 13bf 10bf 4008 a3bf 804d 93bf cce7 e8be
00000330: 14ae 3c3f ee9d 883f 1cf6 62bf fd9f 643e
00000340: 7491 80bf 777b 8ebf 80df 953f 1d32 883f
00000350: 31ae 983e c866 853f 251f c0bf 8eb6 25bf
00000360: da8f a33f 345b 903f 58a9 a53f 4b39 a23f
00000370: 8a44 21bf abad 84bf 048b 97bf 039f 593e
00000380: df7c 9e3f 66db 50bf a5f7 77bf e253 323f
00000390: d088 9e3f c03b 44bf cd25 af3f 4ccb a2bd
000003a0: 2269 233f 2bbb 6abf e87b 8dbf e92c afbf
000003b0: 6d7c 3f3f e1ff 7ebf 7780 4fbf 2b63 cbbf
000003c0: 64f4 0d3f 3587 1e3f 954e 4c3f 9651 83be
000003d0: 234c 13bf 15d8 3f3f 7de7 e93e 0688 3dbf
000003e0: c750 803f e92c d1bf 0cd1 35be a8e3 6bbf
000003f0: 2db6 25be b9d3 88bf a2a5 5f3e 29bc 563f
-0.8356922 1.1748294 1.5582958 1.3795482 -0.7758901 -1.3888885 0.9965389 -0.8796423
-0.6668446 -1.5021745 -1.3572434 -0.53649616 0.8692461 1.2587844 -1.0456079 0.26331803
-1.1846236 -1.3128278 1.3809261 1.2549039 0.35169834 1.2291577 -1.7702037 -0.76343805
1.507055 1.3300947 1.5264006 1.4947257 -0.74295825 -1.2224951 -1.3963133 0.25064442
1.4603021 -0.9622015 -1.1423823 0.8215532 1.4607319 -0.90404457 1.6138058 -0.09374879
0.7528308 -1.0814031 -1.3036298 -1.6140616 0.88217354 -1.1747793 -0.95595807 -1.8740057
0.6539832 0.730337 0.9412394 -0.30249172 -0.67859715 0.883823 0.53879684 -0.8731683
1.1822958 -1.9273367 -0.20940663 -1.0867387 -0.1908578 -1.2607207 0.2575847 0.9892812
-0.45537734 0.64017665 0.84913146 0.75173 -0.42279053 -0.75681967 0.5430243 -0.4793262
-0.3633705 -0.8185504 -0.7395759 -0.29234228 0.47366118 0.68592465 -0.5697625 0.14348471
-0.64551365 -0.71537346 0.75248086 0.6838101 0.19164404 0.66978073 -0.96460223 -0.41600525
0.82120985 0.7247823 0.8317514 0.81449145 -0.4048456 -0.6661502 -0.76086557 0.13657872
0.7957337 -0.5243135 -0.6224959 0.44767278 0.7959679 -0.4926232 0.8793794 -0.051084686
0.41022527 -0.58926773 -0.7103613 -0.8795188 0.48070547 -0.6401494 -0.5209114 -1.021165
0.35636216 0.39796817 0.51289105 -0.16483086 -0.3697746 0.48160428 0.29359597 -0.47579843
0.6442452 -1.0502256 -0.11410784 -0.5921751 -0.10400038 -0.6869797 0.14036055 0.53906953
0.850868 -1.1961637 -1.5865936 -1.4046001 0.7899799 1.4141101 -1.0146356 0.8956162
0.6789542 1.5294533 1.3818903 0.54623866 -0.8850312 -1.2816434 1.0645957 -0.26809973
1.2061357 1.3366681 -1.406003 -1.2776923 -0.35808498 -1.2514786 1.8023497 0.77730167
-1.5344224 -1.3542485 -1.5541192 -1.5218692 0.75645 1.2446951 1.4216697 -0.25519598
-1.4868205 0.9796746 1.1631273 -0.83647215 -1.487258 0.92046154 -1.6431116 0.09545122
-0.7665018 1.1010408 1.327303 1.6433722 -0.89819336 1.1961128 0.9733178 1.9080367
-0.66585916 -0.7435996 -0.9583318 0.30798483 0.6909202 -0.8998728 -0.5485811 0.8890246
-1.2037657 1.9623362 0.21320936 1.1064733 0.19432367 1.2836148 -0.26226228 -1.007246
-0.708581 0.99613434 1.3212744 1.1697148 -0.6578749 -1.1776345 0.84496236 -0.7458461
-0.56541556 -1.2736893 -1.1508026 -0.45489347 0.7370312 1.0673196 -0.88656783 0.22326656
-1.0044389 -1.1131428 1.1708832 1.0640293 0.29820397 1.0421991 -1.5009505 -0.6473168
1.2778275 1.1277833 1.2942305 1.2673734 -0.6299521 -1.0365499 -1.1839299 0.21252064
1.2381858 -0.81584775 -0.9686225 0.69659245 1.2385502 -0.7665367 1.3683411 -0.07948932
0.63832295 -0.91691846 -1.1053438 -1.368558 0.74799234 -0.9960919 -0.81055397 -1.5889639
0.55451035 0.6192506 0.79807407 -0.25648183 -0.5753805 0.7493909 0.45684424 -0.7403568
1.0024651 -1.634183 -0.17755526 -0.9214425 -0.16182776 -1.0689613 0.21840528 0.8388086

bias_epsilon f4 [64]
00000000: bc6c 9a3f 974b 283f a13a 9dbf b0ef 823f
00000010: d114 3bbe 6f54 74bf a446 16bf 2c8e 863f
00000020: 3afa 263f e66b fcbe 7889 33bf fff6 13bf
00000030: eb53 91bf 0245 c1be dac4 5b3f a76b 6f3f
00000040: 4b41 053f 5be2 053f 664d efbe 5e94 5bbf
00000050: 7124 dcbe a263 68bf c373 3b3e 2689 c3be
00000060: 91e2 553f b56b 6abf 8205 e0be c727 a1bf
00000070: 1ee5 18bf f62f 643f 4abd b4bf 7cfd e13e
00000080: da71 713f 9bb5 3d3f eee2 f6be ff4f c1be
00000090: 8530 a2bf 198e 2dbf 2f23 1ebf 1546 153f
000000a0: 0807 bfbf 9f78 373f 7d61 6dbf fe9b dfbe
000000b0: 2a75 1bbf 30b6 883f 7c94 423f dd03 a73e
000000c0: 686e 47bf d556 e9be 789e 08be 2725 36bf
000000d0: ff8c 63bf 8eee 99bf ed20 d63e 0b83 12bf
000000e0: 917a 213f e559 b03f 6000 2c3f b3c2 503f
000000f0: 1c06 28bf 40b0 ae3e aa93 7e3f 0270 1b3f
1.2064433 0.6574034 -1.2283517 1.0229397 -0.1826966 -0.95441335 -0.5870154 1.0512137
0.65225565 -0.4930107 -0.70131636 -0.5779876 -1.1353735 -0.3774796 0.85847247 0.9352364
0.52052754 0.52298516 -0.46738738 -0.85773265 -0.42996553 -0.9077703 0.18305878 -0.38190573
0.8354884 -0.915706 -0.43754202 -1.2590264 -0.59724605 0.8913568 -1.4120266 0.44138706
0.9431435 0.7410523 -0.4822001 -0.37756345 -1.2671057 -0.6779495 -0.61772436 0.5831006
-1.4924021 0.7166843 -0.9272688 -0.436737 -0.60725653 1.0680599 0.7600782 0.32620135
-0.7790284 -0.4557406 -0.13341701 -0.7115044 -0.8888702 -1.2025926 0.41821995 -0.57231206
0.63077646 1.3777434 0.6718807 0.8154709 -0.6563432 0.34118843 0.9944407 0.60717785

epsilon_in f4 [64]
00000000: 3054 31bf ae4a 793f 9b54 a53f ac5d 923f
00000010: a3a3 24bf 5d5b 93bf a575 533f a1a7 3abf
00000020: 1b80 0dbf 4e60 9fbf dbff 8fbf b8ae e3be
00000030: e472 383f a18d 853f 28df 5dbf 7c7f 5f3e
00000040: b85e 7bbf 7e49 8bbf 1983 923f 3b24 853f
00000050: ac41 953e f168 823f 33d0 bbbf 38ff 21bf
00000060: dde4 9f3f 791e 8d3f 4ef2 a13f fd95 9e3f
00000070: b9a6 1dbf fbb3 81bf 0725 94bf aebd 543e
00000080: 04ef 9a3f 612c 4cbf 1968 72bf 2154 2e3f
00000090: b0fa 9a3f 33d5 3fbf 4d38 ab3f b824 9fbd
000000a0: 04bf 1f3f 9c77 65bf aa4f 8abf 403f abbf
000000b0: 2131 3b3f f647 79bf 3ad9 4abf 8cd3 c6bf
000000c0: 73c5 0a3f 1ef9 1a3f afb9 473f b45f 80be
000000d0: 86fe 0fbf bb8a 3b3f ada8 e43e f347 39bf
000000e0: 45e0 7a3f 107c ccbf 43bd 31be 7399 66bf
000000f0: d9fe 21be 38c2 85bf b5a1 5a3e 65eb 513f
-0.69269085 0.9737958 1.2916445 1.1434836 -0.6431219 -1.1512257 0.82601386 -0.7291203
-0.552736 -1.2451265 -1.1249956 -0.44469237 0.7205031 1.0433847 -0.86668634 0.21825975
-0.98191404 -1.0881803 1.1446258 1.0401682 0.29151666 1.0188276 -1.4672912 -0.6328006
1.2491719 1.1024925 1.265207 1.2389523 -0.61582524 -1.0133051 -1.15738 0.20775482
1.2104192 -0.79755217 -0.9469009 0.6809712 1.2107754 -0.7493469 1.3376557 -0.077706754
0.6240084 -0.89635634 -1.0805562 -1.3378677 0.7312184 -0.9737543 -0.7923771 -1.5533309
0.54207534 0.6053637 0.78017706 -0.25073016 -0.56247747 0.7325856 0.4465994 -0.7237541
0.9799846 -1.5975361 -0.17357354 -0.90077895 -0.15819873 -1.0449896 0.21350749 0.8199981

epsilon_out f4 [64]
00000000: bc6c 9a3f 974b 283f a13a 9dbf b0ef 823f
00000010: d114 3bbe 6f54 74bf a446 16bf 2c8e 863f
00000020: 3afa 263f e66b fcbe 7889 33bf fff6 13bf
00000030: eb53 91bf 0245 c1be dac4 5b3f a76b 6f3f
00000040: 4b41 053f 5be2 053f 664d efbe 5e94 5bbf
00000050: 7124 dcbe a263 68bf c373 3b3e 2689 c3be
00000060: 91e2 553f b56b 6abf 8205 e0be c727 a1bf
00000070: 1ee5 18bf f62f 643f 4abd b4bf 7cfd e13e
00000080: da71 713f 9bb5 3d3f eee2 f6be ff4f c1be
00000090: 8530 a2bf 198e 2dbf 2f23 1ebf 1546 153f
000000a0: 0807 bfbf 9f78 373f 7d61 6dbf fe9b dfbe
000000b0: 2a75 1bbf 30b6 883f 7c94 423f dd03 a73e
000000c0: 686e 47bf d556 e9be 789e 08be 2725 36bf
000000d0: ff8c 63bf 8eee 99bf ed20 d63e 0b83 12bf
000000e0: 917a 213f e559 b03f 6000 2c3f b3c2 503f
000000f0: 1c06 28bf 40b0 ae3e aa93 7e3f 0270 1b3f
1.2064433 0.6574034 -1.2283517 1.0229397 -0.1826966 -0.95441335 -0.5870154 1.0512137
0.65225565 -0.4930107 -0.70131636 -0.5779876 -1.1353735 -0.3774796 0.85847247 0.9352364
0.52052754 0.52298516 -0.46738738 -0.85773265 -0.42996553 -0.9077703 0.18305878 -0.38190573
0.8354884 -0.915706 -0.43754202 -1.2590264 -0.59724605 0.8913568 -1.4120266 0.44138706
0.9431435 0.7410523 -0.4822001 -0.37756345 -1.2671057 -0.6779495 -0.61772436 0.5831006
-1.4924021 0.7166843 -0.9272688 -0.436737 -0.60725653 1.0680599 0.7600782 0.32620135
-0.7790284 -0.4557406 -0.13341701 -0.7115044 -0.8888702 -1.2025926 0.41821995 -0.57231206
0.63077646 1.3777434 0.6718807 0.8154709 -0.6563432 0.34118843 0.9944407 0.60717785

weight_mu f4 [4, 64]
00000000: 327d 983e 524e 3a3f 918e 73bf 4392 9bbe
00000010: e03f 05bd 0860 003f 5d97 fb3e 9950 9a3e
00000020: 5f74 37bf d0f6 0cbe 7f0a 993f fbd7 1dbe
00000030: fae3 37bf e737 f3be 3f9d 94be 0bd1 78bf
00000040: 1825 76bf 00e7 863e 8b23 a1bf 8605 ef3d
00000050: 70bd bcbd 02ef 6bbf 0f9e 6cbf 5f77 41be
00000060: b49a 8ebf b41c 45be e734 133d 759f fe3e
00000070: 7d23 9fbf 9df1 623f 15c6 56be 1ed6 a6be
00000080: 3029 943f 0ba4 a43f 3216 43bf e597 633c
00000090: ad93 773e 9761 043f cc83 a13d 8a37 013f
000000a0: 8bfc b7bd 4439 a93c 0f51 e4be 64b8 42bf
000000b0: d93e 723d b6bb fd3d 4f8c 13be 65dd b53e
000000c0: 344d 163f 5759 2bbf d71b eebe 2cc1 db3e
000000d0: b2cb 9f3e 1eaf 02bf 4c26 543b ce6e f4bf
000000e0: f0d0 78bf 0bfb 833e cdd8 cbbe 73be 173f
000000f0: a016 91be e839 873e 53b2 33bf 00c5 8dbf
00000100: 77d3 14bd 9e37 65bf 417e 1f3f d840 d93e
00000110: 4843 95bf fa87 bbbe c7cb 8f3f ebae 88bd
00000120: 9e67 ea3f c479 56bf 2f14 d7be 3b62 e33e
00000130: 5667 6fbe f24c 813f 9cac 093f c1ca 8f3f
00000140: 9c83 93bf 0e04 4c3f 5f4d 213d 8adb 7cbf
00000150: c9e0 c23e 25bf 393f fc6c 263f 9dda ed3e
00000160: 41c1 81be 794b 2bbf b4b1 88be 95c2 13bb
00000170: de67 153f f1f7 8fbe 7635 43bd fcec 92be
00000180: ee58 74bf ee38 b0be f910 d23e 5766 843d
00000190: 028d d2bf cb49 f03d 369b 56be 0c19 f7bf
000001a0: b7e5 e93d 15ba 55bd 2737 bdbd 370d 3abe
000001b0: 4e84 12bf a1d7 eb3d 76d6 7f3e 378e 003d
000001c0: 9b66 333f 1632 373e d7ac 6dbe e6b6 d7bf
000001d0: ae88 dd3e b18e b6bf 93d6 823e 0ccb 16bf
000001e0: 6c87 2a3e d0c5 503e 6a9f a33f 774d 063f
000001f0: 8dd8 d23e 3970 9f3c 599c 753f 641e b1be
00000200: 9808 bdbe ffad 7e3f 38ce 4dbf 1365 e83d
00000210: 30d1 913f 9c0d 56bf 5ac1 95bf f078 10be
00000220: 5b49 adbe ae49 593d 35d7 0b3e a179 41be
00000230: 418b 3c3f 8c49 3b3f 0cbe b0be 0414 35bf
00000240: e3b1 883f 1bea 68bd 7731 323f c28e a43e
00000250: cd7d 0f3f 2aa7 733f 1d6f 443f 4912 bebe
00000260: 8d83 1f3f b79e 193f bf1e 35be ef33 a3be
00000270: d6ea ab3f 30fb 91bf 2f2a ca3e 6f1e 263f
00000280: 7dbc 543f 15b6 8fbf acca c8be f6e6 933d
00000290: e61b 9a3f 8c92 9fbc a5d3 143d 4d97 983f
000002a0: c08f 89bd 576e 86be 59ff 8b3d e2bd 3c3e
000002b0: 7dd4 97bd fd46 80bd 84b0 333d a111 40be
000002c0: 991d 1a3e d2aa 8c3d 4fc6 58bd a02a 25bf
000002d0: 3929 a2bf df89 2a3f 1add 503e 3fc8 553f
000002e0: ca00 113f 4312 b03e 64cc 39bf db75 4fbf
000002f0: 8131 76be c559 4fbe 8da9 3abf d169 3b3f
00000300: c6c7 053e 663b d6bf f788 a23f b468 cdbe
00000310: f97f 73bf fd39 403f eb4b 78bf b488 9d3c
00000320: bc3a 03c0 2f9c 8f3f dac7 36bf 3b94 50be
00000330: 3095 33bf 2894 bfbf 561e ea3d c6ce 5c3f
00000340: bf0e e23d e58f 72bf f20a 3e3e 112f 523f
00000350: 9603 74be 2d26 7bbf b7a9 a2bf 7af5 5a3e
00000360: 1895 0a3f aba9 273f 461e 213f 36c3 263e
00000370: 248f 3dbf de9c cd3e 674c ccbe 74ab aa3e
00000380: c9ed 10bf dee4 f43d 7ab9 443f bbb8 68bd
00000390: 29ba 4bbf ed46 24bf 9520 c33e c650 62bf
000003a0: 676e 1f3c 68e0 303e be2a 3a3f 65f8 963e
000003b0: 77d8 0f3f d30d a33e 4e90 8ebe ed91 6ebe
000003c0: afd7 7fbf 3114 18be fdfd ed3e f329 923f
000003d0: baef 803f 5499 243f d419 1cbf 23aa 4e3f
000003e0: 8fec 5e3e 98ac ccbe 6650 98bf 9305 b2bc
000003f0: 38a3 043e d780 793c b358 53be b570 5b3e
0.29783016 0.7277576 -0.95139414 -0.30385026 -0.03253162 0.5014653 0.4913892 0.30139616
-0.71661943 -0.13766026 1.1956328 -0.15414421 -0.7183224 -0.47503588 -0.2902622 -0.97193974
-0.9615035 0.26348114 -1.2588972 0.116709754 -0.0921582 -0.9216157 -0.9242868 -0.18893193
-1.1140962 -0.1924923 0.035939123 0.4973103 -1.2432705 0.8864992 -0.20974 -0.32585233
1.157507 1.2862562 -0.7620574 0.013891195 0.24177428 0.5171141 0.078864664 0.5047537
-0.089837156 0.02065719 -0.44593093 -0.7606261 0.059141967 0.12389319 -0.14408992 0.35520473
0.5871155 -0.66933197 -0.46505615 0.42920816 0.31210095 -0.5104846 0.003237146 -1.9096315
-0.97193813 0.25777468 -0.39813843 0.5927498 -0.28337574 0.26411366 -0.70193976 -1.1075745
-0.03633448 -0.8953799 0.62302023 0.42432284 -1.1661158 -0.3662718 1.1234063 -0.06673988
1.8312871 -0.8377955 -0.42007586 0.4441088 -0.23379263 1.0101607 0.53779006 1.123375
-1.1524539 0.79693687 0.039380427 -0.9877249 0.38062122 0.7255729 0.65010047 0.4645585
-0.25342754 -0.6691204 -0.26698077 -0.00225464 0.58361614 -0.28118852 -0.047658406 -0.2869643
-0.95448196 -0.34418434 0.41028574 0.06464832 -1.6449282 0.11732825 -0.20957646 -1.9304519
0.11420768 -0.052179415 -0.09239035 -0.18169104 -0.5723313 0.11515737 0.24984154 0.031385627
0.7007844 0.178902 -0.23210464 -1.6852691 0.4326834 -1.4262296 0.25554332 -0.58903575
0.16653222 0.2038796 1.2783024 0.5246195 0.4118084 0.019462692 0.9594169 -0.345935
-0.3692062 0.99484247 -0.8039279 0.113474034 1.1391964 -0.83614516 -1.1699631 -0.14108634
-0.33845028 0.053048782 0.13656314 -0.18894054 0.73649985 0.731591 -0.34519994 -0.70733666
1.0679287 -0.056863885 0.6960673 0.32140166 0.5605133 0.9517695 0.76732045 -0.37123325
0.62310106 0.60007805 -0.1768751 -0.3187556 1.3431041 -1.1404781 0.3948531 0.6489019
0.8310011 -1.1227442 -0.39217126 0.07221787 1.2039764 -0.019479059 0.036334652 1.1921173
-0.06716871 -0.26256058 0.06835813 0.1843181 -0.07413576 -0.0626354 0.04386951 -0.18756725
0.15050353 0.06868519 -0.052923497 -0.64518166 -1.266883 0.66616625 0.20396844 0.83508676
0.5664183 0.34388933 -0.725775 -0.8103921 -0.24042322 -0.20249088 -0.72914964 0.7320834
0.13064489 -1.6736877 1.2698048 -0.40118945 -0.95117146 0.75088483 -0.9699084 0.019230224
-2.0504599 1.1219538 -0.713987 -0.20369045 -0.7014952 -1.4967089 0.11431567 0.8625301
0.11037969 -0.94750816 0.18558863 0.8210307 -0.23829493 -0.98105127 -1.2708043 0.21382704
0.5413375 0.6549327 0.6293682 0.16285405 -0.7404654 0.40158743 -0.3990204 0.33333933
-0.5661283 0.119577155 0.76845515 -0.056816798 -0.7958093 -0.64170724 0.38110796 -0.884045
0.009730912 0.17273104 0.7272147 0.29486385 0.56189674 0.31846485 -0.2784447 -0.23297854
-0.9993848 -0.14851452 0.4648284 1.1419052 1.0073159 0.6429646 -0.6097691 0.8072836
0.21769927 -0.3997543 -1.1899536 -0.021731174 0.12952888 0.015228472 -0.20639305 0.21429713

weight_sigma f4 [4, 64]
00000000: 04da a43d 580f 17bd 9b9f 17bd 2a17 c63b
00000010: 53bd ffbd c1e5 933c 1c62 8dbb 5bb0 e63b
00000020: acdb 7dbc d992 a93c dda9 fd3c 6458 edbc
00000030: 13fc 16be c061 a4bd 4ed8 40bd 53cf 69bd
00000040: a95f 0f3c 32b6 8a3c 29cf 2ebd 2a76 893d
00000050: e838 adbd 9adc f63c e1f1 b1bc 4c77 11bd
00000060: d751 8dbd b88d 1ebe f25e 5f3a 0644 d6bd
00000070: f2af 47bc 8514 b0bc fd4c c6bc 4857 06be
00000080: c6a6 333c b077 263e b09d c1bb 105a ce3c
00000090: 7154 b0bd 141c 67bd 8002 49bb e8ba 8c3d
000000a0: 1183 6ebe 7d70 c4bd ae17 da38 5b04 9d3c
000000b0: 7485 ba3a 4305 4c3e 2d49 2b3c 82d2 85bc
000000c0: cc62 213d 909d 57bd ec6b 5cbc 0141 37bd
000000d0: acb8 6cbd 9c72 dcbb 23ad c8bb 8149 403e
000000e0: a537 26bc a07d 12bc a16c 8a3d 04be b23c
000000f0: ca43 1dbb be58 4b3e 97ed 073c 87af efbc
00000100: f0c7 08bd 7bd1 31bc f3ec 173d bb67 213c
00000110: aabf 483c b176 e13b 19c8 323c 3a22 4bb8
00000120: aa89 78bc fb38 d23c 83b1 d5bc 5293 ebbc
00000130: 7b01 b8bb b226 5a3d 4f6d b2ba 73dd f23b
00000140: ab60 edbd 49cc a53c a850 88bc 87f5 5fbd
00000150: a6c1 953c b75d d93d cefa 79bc ca8a 053b
00000160: 96f6 353c bc3f 43bd 05e2 aabc 154b 4b3e
00000170: a32e a2bc 9ac2 66bd 5696 a339 4ffd c9bd
00000180: 08a7 0e3a b42c 33be 498e 77bc 0917 183d
00000190: 5f45 9fbc 4bf8 aabc d496 eabc a536 433d
000001a0: 8e57 ae3d d702 afbb f623 ddbc 9628 c53c
000001b0: ea2a 143b a5cb 2a3e 21a9 593c cbc8 5aba
000001c0: 097c d13c c4d8 22bc 9a8e 5dbc a558 dfbd
000001d0: 3e6e d8ba 5ee5 e93d e84b 37bc 5906 8a3d
000001e0: 0fe0 8e3c d0f7 55bc 92c0 61bc f591 1f3d
000001f0: 7645 013a 9831 0abd 4cb3 0ebe 822f 2e3d
00000200: c562 1dbe a073 9fbd 97a9 4d3c 8ed8 c23c
00000210: ea2f 06bc 80fe f2bc fe14 e5bc 4705 cd3c
00000220: 201d 25bd d3f8 333c aee0 09bd 1d9c efba
00000230: 5ba0 b7bb 1eab acbd fea7 6bbc d3b9 c5bc
00000240: fe0c 08be 2aed 0f3c 9cbb 80bc a528 9abd
00000250: 8105 60bd 078d 1bbd 25a2 1cbd 8ec0 2cbc
00000260: 00ee fabc 452d 81bd 54dc 84bc a56d 53bc
00000270: 8c15 a0bd 1268 9cbd 3e39 5cbc d9d7 943d
00000280: 1576 033d b867 06be 0495 b0bb cb51 e43a
00000290: 78e9 b23d 0238 ed3c b47f a2ba 0131 78bc
000002a0: 4b5e 873c e8dd a1bd d982 adbc 5c37 78bc
000002b0: 3f77 c33c 1b36 10bd 73a3 36bc d6dd 3dbc
000002c0: 1492 a23d bbf3 47bd e508 173b 8480 b6bc
000002d0: a88a cd3c a1e4 073d 8423 123b 5765 3fbd
000002e0: 5160 58bc 957b 42bc 44d2 e43d dfb4 5cbc
000002f0: 4d2f 7f3d 19be 45be 1324 ae3d b2c5 34bc
00000300: 402b 213e 314b 2b3c 74d7 0cbd 4a16 073c
00000310: 02ed b7bd 0213 643c cd69 ac3d 2069 ce3b
00000320: 4834 fbbc 1f2e 373c be0e 053d d3f7 e33a
00000330: b0ce 883d 8c89 ad3d 4974 293d 8422 843c
00000340: 04cc 4a3e 6822 b6bb f11a efbb 58a1 dabc
00000350: 88a9 13be 97b1 813d da25 8d3c 3b84 28be
00000360: f33b 6fbd 6e2b 1bbd df4d 753c 79bb 4b3d
00000370: 7aaf ad3d 9c67 723c 27a5 943c 8bbb 513d
00000380: bf8f a7b9 6d88 5d3e 1211 963c c5a5 aebc
00000390: bdff d4bd d8ac 493c e3e6 1eba c517 c4bc
000003a0: 68fd 303e cd7d 29bb ba23 79bb f8e4 9bbb
000003b0: 310d 233d 2d64 56bd 4709 2dbc 35ab 14bc
000003c0: f356 833c 6674 17bd 25c4 45bc cbcc 14bd
000003d0: d791 173c c47e 91bc f8f1 bf3c 055c 62bd
000003e0: 7f31 ecbc 5b7c f1bc e1fa 3d3e dd9a 8a39
000003f0: 9fa1 d73c 1db4 02bd 5e00 333e d381 023d
0.08049396 -0.036879867 -0.037017446 0.006045242 -0.124872826 0.018053891 -0.004314674 0.007040066
-0.015494268 0.020699905 0.030964786 -0.028972812 -0.14744596 -0.08026457 -0.047081284 -0.057082485
0.0087508345 0.01693258 -0.042678032 0.06711991 -0.0845812 0.030134488 -0.021721782 -0.03551416
-0.06900375 -0.15483749 0.0008520923 -0.10462193 -0.012187945 -0.02149416 -0.024206633 -0.13119233
0.010965055 0.16256595 -0.0059086904 0.02518943 -0.08609856 -0.05642326 -0.0030671656 0.06871587
-0.23292185 -0.09591768 0.00010399461 0.019167116 0.0014230446 0.19923882 0.010454458 -0.01633573
0.03940086 -0.052640498 -0.013453465 -0.044739727 -0.057793304 -0.0067275297 -0.006124155 0.1877804
-0.010145103 -0.008941084 0.067590006 0.021819122 -0.0023996704 0.19858071 0.008296392 -0.029258503
-0.0333938 -0.010853167 0.037091207 0.009851391 0.0122527275 0.006880604 0.010911965 -4.8430848e-05
-0.01516954 0.025661936 -0.02608562 -0.028756771 -0.005615411 0.05325956 -0.0013612899 0.0074116527
-0.115907036 0.020239012 -0.016640022 -0.054677512 0.018280815 0.10613578 -0.01525755 0.0020376914
0.011106154 -0.047668204 -0.020859728 0.1985286 -0.019797629 -0.05633793 0.00031201792 -0.09862768
0.000544176 -0.17497522 -0.015109607 0.037131343 -0.019442258 -0.020870348 -0.028636374 0.047659535
0.085127935 -0.0053409147 -0.026994687 0.024067204 0.0022608587 0.16679247 0.013284952 -0.00083459605
0.02557184 -0.009939376 -0.013522768 -0.109055795 -0.0016512347 0.114207014 -0.011187531 0.06739492
0.017440824 -0.013059571 -0.0137788225 0.038957555 0.000493131 -0.033738703 -0.13935584 0.042525776
-0.15369709 -0.077857256 0.01255264 0.023784902 -0.008190135 -0.02966237 -0.027964111 0.02502693
-0.04031098 0.010984617 -0.033661537 -0.0018280778 -0.0056038327 -0.084310755 -0.014383314 -0.02413646
-0.13286206 0.008784572 -0.01571446 -0.075272836 -0.05469275 -0.03797629 -0.03824057 -0.0105439555
-0.030631065 -0.063074626 -0.016218342 -0.012904559 -0.0781661 -0.07637037 -0.013441382 0.07267732
0.032095034 -0.13125503 -0.005388858 0.0017419396 0.08735937 0.02895737 -0.0012397678 -0.015148402
0.016524455 -0.079036534 -0.021180557 -0.015149917 0.023860572 -0.03520785 -0.011147368 -0.011588534
0.079380184 -0.048816424 0.0023046073 -0.022278078 0.02509053 0.033177022 0.0022299 -0.046727505
-0.013206557 -0.011870285 0.111729175 -0.013470857 0.06230097 -0.19310798 0.08502974 -0.011033462
0.15739155 0.010454939 -0.03438516 0.00824506 -0.089807525 0.013920547 0.084186174 0.006299153
-0.030664578 0.01118043 0.032484762 0.0017392583 0.066800475 0.084735006 0.041370664 0.01612974
0.19804388 -0.0055583008 -0.007296913 -0.026688263 -0.1442014 0.06332701 0.017229963 -0.16456692
-0.05840678 -0.037883215 0.014972179 0.049739335 0.08480735 0.01479521 0.018145157 0.051204246
-0.0003195982 0.21634074 0.018318687 -0.02131928 -0.10400341 0.012309276 -0.00060616265 -0.023937115
0.17284167 -0.0025862337 -0.003801568 -0.00475752 0.039807502 -0.05234163 -0.010561294 -0.009074022
0.016032672 -0.03697624 -0.01207069 -0.03632812 0.0092510795 -0.017760642 0.02343081 -0.055263538
-0.028832195 -0.029478243 0.18552734 0.00026436793 0.026322184 -0.03191005 0.17480609 0.03186209

bias_mu f4 [4]
00000000: 629f 3abe 5fd5 45be 636a 193e c5ad 5f3e
-0.18224862 -0.19319676 0.1498199 0.21843632

bias_sigma f4 [4]
00000000: 7583 03bc d258 65bc 8551 233c ddc7 98bc
-0.008026947 -0.013998227 0.009968166 -0.01864999
