save/model/lunarlander_dqn_noisy_mod_hid_128_256.pth (torch_old, 419196 bytes, 18 tensors)

weight f4 [128, 8]
-0.10784663 -0.5672185 0.05644244 0.9505093 0.51712906 0.923448 0.09096638 -0.33009788
-0.06895922 -0.5419874 -0.8786076 0.01018316 -0.23740625 -0.34696546 -0.058963604 -0.24335697
-0.3711756 0.25903174 -0.05939037 -0.66125447 0.44180197 -0.03274804 -0.56856894 -0.8809367
0.046181105 0.038250558 -0.12600933 -0.5652401 0.03503141 -0.124359846 -0.5017976 0.65093875
-0.06334626 -0.4114794 -0.11758913 -0.46153197 -0.15248129 -0.9780697 -0.34019443 0.6290058
-0.0050275824 0.18143725 -0.82659304 -0.6253986 -0.07190373 -0.47323385 -0.14119554 0.5708571
-0.30824 -0.024792982 -0.00028316 -0.18991624 -0.28592098 -0.23824108 -0.6483992 0.74947864
0.09157894 -0.2231884 0.20088659 0.3720355 -0.30969578 -0.8487167 -0.32685858 0.30073136
-0.65602505 -0.31345013 0.13163455 -0.75613505 -0.41128203 -0.10954751 0.45862702 0.11080775
-0.15178679 -0.53048635 -0.77258825 -0.21737109 0.38770437 1.1130548 0.59914225 0.020230277
-0.2427235 -0.3883069 0.25258693 -0.5730926 -0.64276165 -0.23324656 0.22468528 -0.27072474
0.020960271 -0.41600367 -0.094902694 -0.49627483 0.009495506 -0.20490323 0.3561411 0.4046094
-0.1990815 -0.013586492 0.17918377 0.6903891 -0.8135981 0.49842212 0.58201826 -0.5018823
0.28786469 -0.2285863 -0.11710759 -0.2143186 -0.5064031 -0.6179708 -0.035032365 0.5130112
-0.1882113 0.11576682 0.36121428 0.6570397 0.8903433 -0.882637 0.09667399 -0.09264707
0.18943603 0.06650855 -0.11477567 -0.009580672 0.5706762 -0.82223296 -0.07713211 0.33362216
-0.8029934 -0.08628824 1.1424797 0.6492899 0.062003363 0.096732475 0.4731548 0.12865837
-0.028629225 -0.6152452 -0.6619137 -0.4863035 0.45203242 0.768925 0.16554448 0.09598367
-0.3080672 0.26105198 -0.06345171 -0.7106594 -0.0030704152 0.07313397 -0.34881565 -0.19933595
0.5639575 -0.98772883 -0.08306146 -0.62509537 0.76404387 0.50371176 0.75580275 -0.09719198
0.28008467 -0.24878177 -0.7160583 -0.48549798 1.2405623 -0.09288331 0.039483152 -1.3576605
0.20850554 -0.37927973 -0.47240084 1.1706591 0.18016697 0.22593848 0.64836377 0.19664365
-0.4348501 0.329695 0.18479194 -0.54122776 0.3471675 0.35001984 0.55609894 -0.47557527
0.17653845 -0.076664865 -0.04787901 -0.29478228 -1.2127255 0.0629824 0.07206667 -0.09656225
-0.0979394 0.15003256 0.7630846 -0.93223554 0.010668096 0.08669429 0.15636191 0.09130395
-0.63175285 -0.10345803 0.46094936 -0.34630463 -0.456584 0.17881954 -0.40647238 0.26666164
0.45088997 -0.0898564 0.15056238 -0.115963034 -0.2694003 0.013117114 0.7109804 -0.7237318
0.09393816 -0.4684707 0.7008314 -0.4200014 -0.5498182 -0.44213456 0.31443012 0.3322958
0.026884144 -0.006762612 -0.23502079 -0.4909079 0.51412654 0.593215 -0.17161076 0.030979123
0.2169587 0.22683464 -0.34485674 -0.47337708 0.12741752 0.8474693 0.42679334 -0.51803416
-0.40209082 -0.08576215 0.69511706 -0.38164702 -0.16414441 -0.24531314 0.65179604 -0.66495794
-0.18675049 -0.021114185 -0.3884222 -0.28932947 0.9930465 0.8946649 0.43407065 -1.1339912
00000000: b2de dcbd 3b35 11bf 3030 673d 9454 733f
00000010: 9262 043f 1767 6c3f 954c ba3d 9702 a9be
00000020: 7e3a 8dbd b0bf 0abf 6dec 60bf 45d7 263c
00000030: a01a 73be 75a5 b1be d283 71bd 9232 79be
00000040: ba0a bebe cf9f 843e 5143 73bd f947 29bf
00000050: de33 e23e cf22 06bd bc8d 11bf 1185 61bf
00000060: 6628 3d3d 9eac 1c3d 9708 01be 93b3 10bf
00000070: 197d 0f3d 60b0 febd cf75 00bf eca3 263f
00000080: afbb 81bd 6ead d2be 92d2 f0bd eb4d ecbe
00000090: 0e24 1cbe c762 7abf f72d aebe 8606 213f
000000a0: 6bbe a4bb b0ca 393e 9a9b 53bf 1f1a 20bf
000000b0: 4342 93bd b54b f2be 9095 10be b123 123f
000000c0: a2d1 9dbe a71a cbbc 1875 94b9 6779 42be
000000d0: 3c64 92be 78f5 73be 7dfd 25bf d5dd 3f3f
000000e0: bd8d bb3d 808b 64be 37b5 4d3e 707b be3e
000000f0: 7290 9ebe 7f45 59bf 025a a7be 76f9 993e
00000100: 42f1 27bf 897c a0be 35cb 063e 1192 41bf
00000110: 8f93 d2be 725a e0bd 29d1 ea3e 2cef e23d
00000120: ff6d 1bbe f4cd 07bf 58c8 45bf 8796 5ebe
00000130: 3081 c63e 9478 8e3f 6361 193f f7b9 a53c
00000140: 828c 78be 29d0 c6be 1353 813e 32b6 12bf
00000150: 078c 24bf 30d8 6ebe e613 663e 6f9c 8abe
00000160: e0b4 ab3c 6ffe d4be 585c c2bd bc17 febe
00000170: 0a93 1b3c 27d2 51be 2058 b63e f728 cf3e
00000180: 05dc 4bbe e199 5ebc f37b 373e 57bd 303f
00000190: f747 50bf 2f31 ff3e 26ff 143f 5c7b 00bf
000001a0: 0063 933e 8712 6abe 1bd6 efbd 5676 5bbe
000001b0: a2a3 01bf 5633 1ebf 197e 0fbd b454 033f
000001c0: 77ba 40be 2817 ed3d 14f1 b83e c133 283f
000001d0: 8aed 633f 80f4 61bf 03fd c53d bfbd bdbd
000001e0: 85fb 413e a235 883d 820f ebbd 40f8 1cbc
000001f0: d617 123f dc7d 52bf 71f7 9dbd 86d0 aa3e
00000200: fa90 4dbf e4b7 b0bd c63c 923f dd37 263f
00000210: 3df7 7d3d ad1b c63d 5941 f23e 05bf 033e
00000220: d687 eabc b680 1dbf 2d73 29bf c6fc f8be
00000230: cb70 e73e 45d8 443f 7e84 293e 1693 c43d
00000240: fcba 9dbe 9ba8 853e f8f2 81bd c6ed 35bf
00000250: 0539 49bb 43c7 953d f797 b2be b91e 4cbe
00000260: 855f 103f ccdb 7cbf 201c aabd 4006 20bf
00000270: 6198 433f 41f3 003f 4a7c 413f 970c c7bd
00000280: 4267 8f3e a6c0 7ebe 994f 37bf 3193 f8be
00000290: bfca 9e3f 9b39 bebd 16b9 213d d2c7 adbf
000002a0: 7a82 553e f430 c2be 86de f1be 28d8 953f
000002b0: b17d 383e 6b5c 673e 2bfb 253f f45c 493e
000002c0: aca4 debe c8cd a83e 193a 3d3e e78d 0abf
000002d0: f0bf b13e cd35 b33e 805c 0e3f 9a7e f3be
000002e0: 7fc6 343e 7802 9dbd c81c 44bd b4ed 96be
000002f0: 973a 9bbf ebfc 803d b197 933d 6ec2 c5bd
00000300: 7494 c8bd 23a2 193e 8359 433f fda6 6ebf
00000310: 3dc9 2e3c c78c b13d 561d 203e 91fd ba3d
00000320: 8eba 21bf cee1 d3bd 8e01 ec3e d74e b1be
00000330: 61c5 e9be 781c 373e 261d d0be e087 883e
00000340: 0ddb e63e a206 b8bd 062d 1a3e 077e edbd
00000350: d6ee 89be 2ae9 563c d002 363f 7d46 39bf
00000360: a662 c03d 64db efbe b069 333f 6c0a d7be
00000370: e3c0 0cbf 765f e2be fcfc a03e ad22 aa3e
00000380: 233c dc3c e798 ddbb 4aa9 70be 4858 fbbe
00000390: cc9d 033f f0dc 173f bbba 2fbe eec7 fd3c
000003a0: 6c2a 5e3e 5747 683e 1091 b0be 7b5e f2be
000003b0: bd79 023e bff3 583f a884 da3e e39d 04bf
000003c0: d9de cdbe 11a4 afbd 31f3 313f 3d67 c3be
000003d0: 7915 28be 5e33 7bbe 1bdc 263f af3a 2abf
000003e0: 853b 3fbe a8f7 acbc 46df c6be fe22 94be
000003f0: 4c38 7e3f c208 653f 823e de3e a026 91bf

bias f4 [128]
-0.39022735 0.30202395 0.005284687 -0.17233804 -0.30138648 -0.06920798 -0.29830268 0.017788144
-0.023699632 -0.28764728 0.08038018 0.4858882 -0.30632454 -0.31129888 0.0014747867 -0.1696409
-0.122520454 -0.06893642 -0.029861758 -0.2716344 0.041564316 -0.46410352 -0.08085797 -0.08558014
-0.031772237 -0.145192 -0.46161422 -0.419839 -0.123352796 -0.067182414 0.041691408 -0.32654896
-0.42536727 0.02465343 -0.016860338 0.4584446 -0.016939132 0.11954042 -0.34377635 -0.032632455
-0.29849717 -0.27479586 -0.22767411 0.008466076 -0.0058035823 -0.46227342 -0.025869565 0.11609195
-0.20863503 -0.027232623 -0.015442219 -0.31359142 0.24569727 -0.4658086 -0.03348274 0.12431517
-0.2490829 -0.13790189 0.09115512 -0.31745955 -0.08671383 -0.39367798 0.042364076 -0.015759854
0.2823742 0.098838136 0.0068585756 -0.028128808 -0.24990134 -0.15711801 0.026518088 -0.09194931
0.028552987 -0.5323171 0.26827684 -0.009778425 0.007337992 -0.4752473 0.2157498 -0.58555406
-0.11863793 -0.080317706 0.011764134 0.27104518 -0.4381787 -0.43832284 0.045857992 -0.44786543
-0.0073796376 0.024778308 -0.48131427 -0.28397638 -0.11498095 -0.090961225 -0.17299888 -0.39280438
0.032747578 -0.34234473 -0.38389114 -0.40465638 -0.33928242 0.13098894 0.26064232 -0.54128104
-0.17653935 0.008730031 -0.12123651 -0.66081715 -0.10943357 -0.25363672 -0.14321856 -0.051398683
-0.20548454 0.09735986 -0.3024107 -0.47026226 0.0836281 -0.10157064 -0.12409622 -0.45710558
-0.27155316 -0.024522033 0.011008106 -0.58881956 0.050080363 -0.123180814 -0.060498603 0.003467928
00000000: e1cb c7be e2a2 9a3e 2b2b ad3b 6279 30be
00000010: 544f 9abe eabc 8dbd 21bb 98be 71b8 913c
00000020: bb25 c2bc 8146 93be 5d9e a43d 57c6 f83e
00000030: 92d6 9cbe 9162 9fbe a14d c13a 58b6 2dbe
00000040: 01ec fabd 8a2e 8dbd a5a0 f4bc aa13 8bbe
00000050: 583f 2a3d fa9e edbe dd98 a5bd a444 afbd
00000060: 9b23 02bd 36ad 14be b358 ecbe 23f5 d6be
00000070: 64a0 fcbd ef96 89bd 9cc4 2a3d 6d31 a7be
00000080: bdc9 d9be fdf5 c93c b11e 8abc 40b9 ea3e
00000090: efc3 8abc 9cd1 f43d 7403 b0be 9ca9 05bd
000000a0: 9fd4 98be 0bb2 8cbe 6723 69be 4cb5 0a3c
000000b0: fa2b bebb 1aaf ecbe 69ec d3bc 9ec1 ed3d
000000c0: 6ca4 55be f316 dfbc 5c01 7dbc 0e8f a0be
000000d0: 1198 7b3e 777e eebe 3325 09bd f498 fe3d
000000e0: 960f 7fbe 2736 0dbe 89af ba3d 0f8a a2be
000000f0: 0597 b1bd 2990 c9be f485 2d3d cf1a 81bc
00000100: 5a93 903e a66b ca3d e7bd e03b 636e e6bc
00000110: 23e6 7fbe 8be3 20be 763c d93c eb4f bcbd
00000120: f4e7 e93c ef45 08bf 955b 893e b035 20bc
00000130: 8a73 f03b 9d53 f3be 84ed 5c3e dfe6 15bf
00000140: 71f8 f2bd 9c7d a4bd 5bbe 403c 6fc6 8a3e
00000150: f558 e0be da6b e0be 97d5 3b3d 9e4e e5be
00000160: e3d0 f1bb e1fb ca3c d36e f6be 5a65 91be
00000170: 227b ebbd e149 babd 9e26 31be a81d c9be
00000180: 5322 063d cf47 afbe 618d c4be 1f2f cfbe
00000190: 6db6 adbe f721 063e e972 853e 6591 0abf
000001a0: bbc6 34be 6708 0f3c d94a f8bd 502b 29bf
000001b0: b51e e0bd acdc 81be e3a7 12be 6d87 52bd
000001c0: 8a6a 52be 9b64 c73d 93d5 9abe 37c6 f0be
000001d0: 3645 ab3d 4504 d0bd 2926 febd be09 eabe
000001e0: 0409 8bbe 6ee2 c8bc 585b 343c e1bc 16bf
000001f0: 1121 4d3d 3946 fcbd 62cd 77bd 2d46 633b

weight_mu f4 [256, 128]
-0.33308128 -0.24896847 -0.25216565 -0.07982966 -0.37506709 -0.40043488 -0.18202838 -0.63280016
-0.07851578 -0.772953 -0.25151834 -0.314515 -0.34263957 0.13075194 -0.35989463 -0.030419644
0.061810393 -0.43080544 -0.62725097 -0.32811666 -0.28261057 -0.71466416 -0.075553544 -0.1825718
-0.40991378 -0.025917597 -0.026881572 0.016232712 0.02758111 -0.44104344 -0.42205 -0.17008221
0.10597967 -0.09812063 -0.17083031 -0.2675835 -0.27483907 -0.24988584 -0.43202925 -0.5312441
-0.5622842 0.14425862 -0.03752531 -0.11297124 -0.4013643 -0.4000579 -0.3641344 -0.4994226
-0.13426116 -0.61514485 -0.4187083 -0.19427745 -0.19748612 0.26122698 -0.15457228 -0.07394342
-0.16289145 -0.714448 -0.28536466 -0.43081632 -0.49024093 -0.55696976 -0.3975691 -0.33273256
0.20776379 -0.062209435 0.19402903 0.096650705 -0.49379194 0.013698922 -0.29434544 -0.18846321
-0.15954173 -0.51691836 -0.11028571 -0.43376714 -0.45586893 -0.5786094 -0.45869157 -0.11734059
0.30520684 0.24678074 -0.82405186 -0.27256802 -0.67129034 -0.70126814 -0.18505672 -0.059653755
-0.3767638 -0.16618618 -0.2410346 -0.061379686 -0.17309764 -0.60760015 -0.7499338 0.15358582
-0.61225635 -0.52341795 -0.56730217 -0.4397146 -0.069144234 -0.55167943 -0.4833748 -0.027218318
-0.5725068 -0.44080874 -0.2992951 -0.10165314 -0.080434926 0.0016839809 0.16283904 -0.02190999
-0.29567248 -0.113863565 -0.07175522 0.19650136 -0.6942063 -0.35380134 -0.1354226 -0.047055505
-0.085062675 -0.3343456 -0.2942749 -0.012799506 -0.32897878 -0.3026778 -0.38204592 -0.3139779
-0.052543692 -0.8415378 -0.14161311 -0.025128424 -1.0325389 0.052831102 -0.16916804 -0.89222574
-0.45510742 -0.13980176 0.083265156 -0.35992214 -0.35319614 -0.21932635 0.3715755 -0.3393117
-0.78351116 -0.5585316 0.0019648804 -1.0227649 -0.67671967 0.08594127 -0.08088899 -0.19223501
0.12699884 -0.27046567 -0.18286921 -0.66546106 0.08340237 -0.066672996 -0.19881478 -0.7513864
-0.07385049 -0.38490307 0.12679124 -0.0701569 -0.0109592965 -0.5606425 -0.29522455 -1.2611585
0.38204274 -0.12780213 -0.40537038 -0.07029785 -0.5916286 -1.0484341 -0.30734962 -0.68368477
-0.631545 -0.62067485 -0.030392155 -0.94023705 -0.7517938 -0.63056433 -0.004592822 -0.40867487
-0.013600215 0.053788576 -0.7268243 -0.51724976 -0.2714347 -0.1008014 -0.18341492 -0.24317051
0.2526095 -0.17238271 -0.8103478 -0.0819856 0.017674567 -0.087429956 -0.0575578 -0.3083243
-0.40312976 -0.41890126 -0.0800018 -0.204442 -0.31977496 -0.097674504 0.05396442 -0.22350651
-0.111137584 0.10720541 -0.26496595 -0.23154588 -0.1828156 -0.073419064 -0.20704742 -0.2553695
-0.5329438 -0.089540675 0.06618276 0.09010042 -0.42494717 0.2674726 -0.22403179 -1.1771508
0.48054278 -0.2864878 -0.24305108 -0.982859 -0.24047078 -0.3413634 -1.4615163 -0.8609456
-0.29460645 0.33982867 -0.329116 -0.8743748 -0.16966604 -0.20581836 -0.17574978 -0.44734702
-0.0019651756 -0.42411125 -0.743863 -0.22572307 -1.4245394 -0.33941388 -0.10693698 0.06461239
0.20991847 -0.028248703 -0.42591193 -0.9707344 -0.36758828 -0.27335092 0.40073964 -0.104875125
00000000: a189 aabe 97f1 7ebe db1b 81be bc7d a3bd
00000010: cb08 c0be cd05 cdbe a665 3abe 31ff 21bf
00000020: e2cc a0bd 3fe0 45bf 03c7 80be 1c08 a1be
00000030: 746e afbe d6e3 053e 1c44 b8be 9e32 f9bc
00000040: e52c 7d3d 8892 dcbe 8593 20bf e8fe a7be
00000050: 55b2 90be 3bf4 36bf d1bb 9abd 1af4 3abe
00000060: 38e0 d1be 2451 d4bc be36 dcbc 77fa 843c
00000070: c8f1 e13c 72d0 e1be f016 d8be 082a 2ebe
00000080: df0b d93d 78f3 c8bd 24ee 2ebe b400 89be
00000090: b5b7 8cbe 13e2 7fbe f032 ddbe 9dff 07bf
000000a0: dbf1 0fbf 88b8 133e 24b4 19bd 775d e7bd
000000b0: 9f7f cdbe 64d4 ccbe d36f babe 52b4 ffbe
000000c0: c27b 09be 227a 1dbf ef60 d6be abf0 46be
000000d0: cd39 4abe 8bbf 853e 3248 1ebe a66f 97bd
000000e0: 04cd 26be 10e6 36bf 511b 92be f593 dcbe
000000f0: dc00 fbbe 9295 0ebf 2d8e cbbe ec5b aabe
00000100: 08c0 543e 52cf 7ebd 8caf 463e cef0 c53d
00000110: 4cd2 fcbe 7171 603c 72b4 96be 80fc 40be
00000120: e85e 23be c354 04bf 79dd e1bd ba16 debe
00000130: a767 e9be bf1f 14bf 9fd9 eabe 4350 f0bd
00000140: 1244 9c3e 17b4 7c3e 10f5 52bf 098e 8bbe
00000150: afd9 2bbf 4f86 33bf 827f 3dbe 7f57 74bd
00000160: 2fe7 c0be b62c 2abe c6d1 76be 4469 7bbd
00000170: 8240 31be af8b 1bbf a9fb 3fbf 9a45 1d3e
00000180: d5bc 1cbf b8fe 05bf b73a 11bf 4622 e1be
00000190: 7e9b 8dbd dd3a 0dbf e77c f7be f3f8 debc
000001a0: ce8f 12bf afb1 e1be 353d 99be 852f d0bd
000001b0: 11bb a4bd 06b9 dc3a 47bf 263e 947c b3bc
000001c0: 6262 97be 4d31 e9bd 67f4 92bd a737 493e
000001d0: 81b7 31bf 7325 b5be 39ac 0abe 46bd 40bd
000001e0: 5735 aebd 592f abbe 33ab 96be 05b5 51bc
000001f0: e86f a8be 96f8 9abe 869b c3be b6c1 a0be
00000200: 0e38 57bd 056f 57bf 0703 11be 20da cdbc
00000210: 3c2a 84bf 6d65 583d 633a 2dbe e868 64bf
00000220: d703 e9be 3128 0fbe ec86 aa3d b747 b8be
00000230: 20d6 b4be 1697 60be 253f be3e 43ba adbe
00000240: 3094 48bf edfb 0ebf 39c5 003b f6e9 82bf
00000250: 803d 2dbf fa01 b03d 20a9 a5bd 41d9 44be
00000260: fc0b 023e 7a7a 8abe 1142 3bbe a85b 2abf
00000270: ddce aa3d da8b 88bd 1a96 4bbe dc5a 40bf
00000280: ed3e 97bd 0412 c5be 90d5 013e 6cae 8fbd
00000290: 9f8e 33bc 4486 0fbf ac27 97be a46d a1bf
000002a0: 1b9b c33e 90de 02be b58c cfbe 52f8 8fbd
000002b0: f974 17bf 1733 86bf ee5c 9dbe f705 2fbf
000002c0: efac 21bf 8ce4 1ebf f8f8 f8bc 60b3 70bf
000002d0: 8f75 40bf aa6c 21bf 627f 96bb d53d d1be
000002e0: 70d3 5ebc 6951 5c3d 2811 3abf 7b6a 04bf
000002f0: 7df9 8abe f770 cebd 1fd1 3bbe b101 79be
00000300: 0856 813e 1885 30be f472 4fbf 11e8 a7bd
00000310: 41ca 903c 7a0e b3bd bac1 6bbd afdc 9dbe
00000320: 0667 cebe 3a7a d6be fcd7 a3bd 3e59 51be
00000330: 8bb9 a3be 9209 c8bd cc09 5d3d e4de 64be
00000340: 1a9c e3bd 838e db3d 9ea9 87be 5d1a 6dbe
00000350: 0334 3bbe bc5c 96bd 3d04 54be cbbf 82be
00000360: 016f 08bf 1a61 b7bd d48a 873d 9286 b83d
00000370: ad92 d9be 2bf2 883e 9768 65be e1ac 96bf
00000380: b409 f63e 87ae 92be 62e2 78be a69c 7bbf
00000390: f93d 76be 2fc7 aebe f712 bbbf ee66 5cbf
000003a0: a8d6 96be 06fe ad3e e481 a8be 07d7 5fbf
000003b0: efbc 2dbe 0cc2 52be c0f7 33be ab0a e5be
000003c0: 2dca 00bb 1c25 d9be ce6d 3ebf f323 67be
000003d0: 4f57 b6bf a8c7 adbe c601 dbbd 8053 843d
000003e0: def4 563e d369 e7bc 2111 dabe 0d82 78bf
000003f0: 8834 bcbe a7f4 8bbe bf2d cd3e c5c8 d6bd

weight_sigma f4 [256, 128]
0.15560332 -0.06683977 -0.16766724 0.15723911 -0.013031898 0.10591709 0.06059666 0.04398658
0.06077717 -0.40761366 -0.04003635 0.0029408075 -0.0521269 -0.09102542 -0.31619653 -0.018243734
-0.1267953 0.4125766 0.72980994 0.23385316 -0.22943948 -0.40427193 -0.29377192 0.26860598
0.067484796 0.0017322805 -0.028754562 0.08471756 -0.18710154 -0.16763785 -0.031084238 0.23683259
-0.2122498 0.08252873 -0.2566381 -0.005632745 0.10128523 0.065308884 -0.26142415 0.4564136
-0.21432818 0.34057796 0.03966648 0.014286903 -0.10574013 -0.18195227 0.26256117 0.4088255
0.0831294 -0.46792233 0.09369449 0.06484432 0.13916387 0.5558526 -0.12406826 -0.16651076
0.04946933 -0.31426278 0.24151346 0.16096647 0.22475623 -0.20408 0.012436694 0.01374441
-0.21498424 -0.12733845 0.56532663 -0.27786738 -0.4104979 0.104700945 0.0013934773 -0.13813066
-0.08629473 -0.20468144 0.15387519 0.13763978 -0.21416233 0.49599114 -0.2193128 -0.09200428
0.41257632 0.52656853 0.5329067 0.15845464 -0.26761863 -0.54761183 0.081030644 -0.0037957265
-0.31635913 -0.05815582 -0.2807909 -0.035880603 -0.11724983 0.70677745 -0.43729493 0.06263213
0.67209566 -0.3629195 0.49798456 0.30685684 0.32785344 -0.34376872 0.0089642955 0.124952324
0.14032392 0.2292413 -0.2379904 -0.18858825 -0.27973664 -0.113851175 0.48843837 0.046933375
-0.32143 -0.21300326 0.09061818 -0.3487256 0.5816268 -0.11637906 0.01026474 0.048920386
-0.037420776 0.2593807 -0.037589327 -0.25528735 0.23354949 -0.3043361 -0.1931718 -0.17126913
0.026357502 -0.1349118 0.080771245 0.055933073 -0.38893688 0.067828886 0.24988814 0.076969415
-0.33456394 -0.1866752 0.14454728 -0.22217521 -0.039050348 -0.089724764 -0.22396836 0.11733438
-0.192435 0.05219132 -0.14554206 0.11531374 0.10694896 0.044188816 0.014852299 -0.007822874
0.041355193 -0.31535283 0.020241365 0.18442307 -0.08205593 -0.13554035 -0.12504977 0.05927121
0.11322226 -0.039176267 -0.10324994 0.18369876 0.052471016 0.14410064 0.13720761 -0.041102543
0.233841 0.115098126 -0.21078031 -0.12447323 -0.10450228 -0.13704045 0.053783584 -0.05232982
-0.6573888 -0.03832069 -0.086714104 -0.44581097 0.054211617 -0.23795693 0.08787341 -0.044758085
0.023267092 -0.12367504 -0.064838745 -0.15807167 0.044898245 -0.023588834 0.050281074 0.047798175
0.18320335 -0.0621834 -0.54657775 -0.10562376 -0.027154006 0.025261356 -0.08578601 -0.09551274
-0.10394363 0.09983892 -0.018333608 0.06860051 -0.22817796 0.0593405 0.2199483 -0.104555406
-0.22105649 -0.029265035 -0.057844464 -0.22655639 -0.041991122 -0.050994705 0.003640195 -0.013478311
-0.0187081 -0.19664356 0.33510762 -0.055669576 -0.25175837 0.16605806 -0.23863544 -0.5550186
0.049527556 -0.11505643 0.1620998 -0.25915664 -0.49506015 0.06036517 -0.24953882 -0.0538246
-0.11764349 0.037249282 0.06677101 -0.06727969 -0.06469111 0.14774208 -1.1196669 0.2510558
-0.04318743 -0.07103659 0.684548 0.46533236 0.119589426 0.22744282 -0.16014068 -0.14552426
-0.17321819 -0.06519338 -0.079705335 0.04398739 -0.06987805 -0.0742181 -0.22258277 0.16765223
00000000: 7a56 1f3e 4ae3 88bd f6b0 2bbe 4a03 213e
00000010: be83 55bc 0feb d83d 3434 783d 462b 343d
00000020: 7bf1 783d bdb2 d0be 28fd 23bd 90ba 403b
00000030: 0483 55bd 896b babd 83e4 a1be e273 95bc
00000040: a1d6 01be 3d3d d33e d3d4 3a3f 3477 6f3e
00000050: 2ff2 6abe bbfc cebe 4669 96be b986 893e
00000060: 7835 8a3d b00d e33a b08e ebbc 6680 ad3d
00000070: 8c97 3fbe 42a9 2bbe 5fa4 febc 3e84 723e
00000080: 0358 59be d304 a93d 1266 83be e492 b8bb
00000090: a16e cf3d aac0 853d 63d9 85be 0baf e93e
000000a0: d978 5bbe 3c60 ae3e 5279 223d 9d13 6a3c
000000b0: 488e d8bd b251 3abe 6b6e 863e 9351 d13e
000000c0: bf3f aa3d 8493 efbe e6e2 bf3d 19cd 843d
000000d0: f980 0e3e 5b4c 0e3f 8017 febd cc81 2abe
000000e0: 5aa0 4a3d 0de7 a0be 4e4f 773e 65d4 243e
000000f0: 7f26 663e 59fa 50be 47c3 4b3c 3c30 613c
00000100: d424 5cbe 0365 02be 3fb9 103f a244 8ebe
00000110: c82c d2be 736d d63d 57a5 b63a 2072 0dbe
00000120: 4bbb b0bd 0398 51be 7591 1d3e 71f1 0c3e
00000130: 5f4d 5bbe 8df2 fd3e 8993 60be bd6c bcbd
00000140: 343d d33e 32cd 063f 936c 083f ef41 223e
00000150: 4f05 89be 4a30 0cbf 65f3 a53d b9c1 78bb
00000160: d3f9 a1be cc34 6ebd d3c3 8fbe 8af7 12bd
00000170: ae20 f0bd 5eef 343f 1fe5 dfbe 4645 803d
00000180: 760e 2c3f 96d0 b9be d5f7 fe3e 571c 9d3e
00000190: 68dc a73e 7402 b0be fbde 123c 01e7 ff3d
000001a0: 13b1 0f3e 3bbe 6a3e c1b3 73be 471d 41be
000001b0: a439 8fbe ce2a e9bd 9814 fa3e 363d 403d
000001c0: 7992 a4be 871d 5abe 0696 b93d 298c b2be
000001d0: 7ee5 143f 2558 eebd 712d 283c be60 483d
000001e0: 8746 19bd 8ccd 843e 44f7 19bd 06b5 82be
000001f0: 9927 6f3e f1d1 9bbe d4ce 45be 2d61 2fbe
00000200: b0eb d73c 5226 0abe 656b a53d 141a 653d
00000210: bc22 c7be dfe9 8a3d ade2 7f3e 24a2 9d3d
00000220: f74b abbe c927 3fbe 3404 143e e681 63be
00000230: 42f3 1fbd 9ec1 b7bd f657 65be 024d f03d
00000240: ae0d 45be 91c6 553d fa08 15be 9c29 ec3d
00000250: 0e08 db3d 55ff 343d 0f57 733c 832b 00bc
00000260: 1064 293d ed75 a1be 38d1 a53c 67d9 3c3e
00000270: f00c a8bd 17cb 0abe 0c0d 00be 5ec6 723d
00000280: 12e1 e73d 4b77 20bd b474 d3bd 871b 3c3e
00000290: d9eb 563d 1e8f 133e 2780 0c3e 245b 28bd
000002a0: 0474 6f3e 91b8 eb3d cbd6 57be d2eb febd
000002b0: 4b05 d6bd 5554 0cbe 2d4c 5c3d cb57 56bd
000002c0: a24a 28bf 28f6 1cbd 2a97 b1bd 5641 e4be
000002d0: 000d 5e3d fbaa 73be f9f6 b33d 4154 37bd
000002e0: a19a be3c 5749 fdbd 2dca 84bd 8add 21be
000002f0: 39e7 373d 5f3d c1bc 87f3 4d3d 05c8 433d
00000300: a999 3b3e 05b4 7ebd 85ec 0bbf 4551 d8bd
00000310: 1472 debc e7f0 ce3c 93b0 afbd 2f9c c3bd
00000320: 66e0 d4bd 5978 cc3d 5d30 96bc 6d7e 8c3d
00000330: 7ca7 69be 060f 733d 213a 613e 2521 d6bd
00000340: a25c 62be 3abd efbc 51ee 6cbd 66fe 67be
00000350: e2fe 2bbd d3df 50bd 5690 6e3b 22d4 5cbc
00000360: bb41 99bc ee5c 49be 3a93 ab3e c805 64bd
00000370: 79e6 80be 200b 2a3e d95c 74be b315 0ebf
00000380: 68dd 4a3d b5a2 ebbd 7dfd 253e 2eb0 84be
00000390: 8678 fdbe 7841 773d 1b87 7fbe 2f77 5cbd
000003a0: 12ef f0bd b492 183d 3dbf 883d efc9 89bd
000003b0: c67c 84bd b349 173e 3f51 8fbf 638a 803e
000003c0: 4de5 30bd a27b 91bd 8a3e 2f3f 0b40 ee3e
000003d0: 4deb f43d c5e6 683e ebfb 23be 5004 15be
000003e0: 1c60 31be 1b84 85bd 8d3c a3bd 1f2c 343d
000003f0: 391c 8fbd a9ff 97bd bdec 63be 07ad 2b3e

bias_mu f4 [256]
-0.26063102 -0.2908952 0.10776946 0.20735717 0.37600327 0.19332728 -0.16929296 0.26442295
-0.32628152 -0.28965935 -0.095908135 -0.089712486 0.36339545 -0.07074433 0.2753013 -0.31473827
0.13470846 0.158708 0.31630552 -0.058431104 -0.25472194 0.36222312 0.1582762 0.31710428
-0.044218577 -0.27971935 0.4666341 -0.29544097 -0.04907253 -0.28051332 -0.28790823 -0.5688191
-0.14560513 -0.1488001 -0.342527 -0.043395378 0.11898706 0.013829697 -0.12957412 -0.21738362
0.4068698 -0.083124734 -0.31151417 -0.19183943 -0.24729113 -0.51280004 -0.084434554 -0.42819798
0.12642068 0.28031462 -0.06671298 -0.40417993 -0.15183355 -0.40970036 -0.57653236 0.082965955
0.12183246 -0.4560053 -0.37062794 -0.38441816 -0.12639457 -0.30033612 -0.10958595 -0.18094073
-0.530137 -0.20221177 -0.18141651 0.0014250282 -0.16816396 -0.028873723 -0.07931425 -0.41198626
-0.26329136 0.4374121 0.28719378 -0.13157861 0.17139304 -0.16721143 0.12840565 -0.1645475
0.31471953 0.11998225 -0.1104954 -0.14291671 -0.22263399 0.14557472 0.64933264 -0.15112554
-0.4331023 -0.76952976 0.6597218 -0.119951814 -0.5199556 -0.16375865 0.42585585 -0.088836186
0.045029584 -0.14550965 0.26310968 -0.10792318 -0.23046914 -0.09960231 -0.3264056 -0.42735708
0.4729738 -0.39421922 -0.3505073 -0.21802017 0.09573406 -0.19419514 -0.47859845 0.26275116
-0.14242499 -0.01593979 -0.18479265 -0.03137154 0.008007432 0.04356586 -0.15527648 -0.15585786
-0.019406302 -0.52119744 -0.013976221 -0.24385189 -0.104112424 -0.14005654 0.07342901 0.13242665
-0.35864937 -0.10872817 -0.8155708 -0.012708706 -0.6699407 -0.1311623 0.07383363 -0.4263689
-0.33945563 -0.03068752 -0.043495625 0.4645299 -0.026542887 -0.20593917 -0.36793873 -0.3719102
0.15380959 -0.22157988 -0.1296009 -0.15011609 0.2820166 -0.1606545 -0.11328992 -0.34169662
-0.28412372 0.3042361 0.25627682 -0.0050686398 -0.0701299 -0.37397778 -0.22266123 -0.22933376
-0.086711295 -0.26405454 -0.08094492 0.009345245 0.39139837 -0.11347507 -0.06274823 -0.1568739
0.24925123 -0.44909802 0.26895514 -0.12054742 -0.036524236 0.040810235 -0.10966323 0.08729924
-0.028959855 -0.1425773 -0.14870927 -0.4690608 0.15097122 0.077249035 -0.15304156 -0.06892949
0.09589228 -0.24412858 -0.29472828 -0.21180022 -0.12634712 -0.26317218 0.39724207 0.17080186
-0.17969202 -0.043164514 -0.06498178 0.1877154 -0.10522611 0.11486718 -0.13035193 -0.36443517
0.12937067 -0.40627584 -0.35054854 0.14307906 -0.12974185 -0.25502762 0.14618714 0.07727969
0.47315174 -0.29871657 0.07577141 -0.21849824 0.16094775 0.10064759 -0.36725602 -0.14311905
-0.30246532 0.018919177 -0.02642805 -0.15384275 -0.32385662 -0.32250175 -0.17480406 0.14452648
0.03630418 0.2719719 0.3230035 -0.20225903 0.2863226 0.44482756 0.44721803 -0.37660196
0.26269016 0.19509932 0.19890215 0.39150485 -0.14420462 -0.5564076 -0.16227275 0.55530834
0.050009515 -0.18056285 -0.20986336 0.05639816 -0.2599389 -0.53312755 -0.20097558 -0.22949891
0.111299895 0.10483506 0.042203672 -0.22799735 -0.10227464 -0.15168227 -0.20644574 0.1532094
00000000: 6e71 85be 37f0 94be 3cb6 dc3d 7055 543e
00000010: 8083 c03e 96f7 453e 225b 2dbe 7262 873e
00000020: 5f0e a7be 3b4e 94be 7c6b c4bd 2ebb b7bd
00000030: f80e ba3e 67e2 90bd 4bf4 8c3e 6025 a1be
00000040: 04f1 093e 5a84 223e ccf2 a13e 7455 6fbd
00000050: ea6a 82be 4f75 b93e 2813 223e 7e5b a23e
00000060: 8a1e 35bd 6037 8fbe aaea ee3e 0a44 97be
00000070: 4700 49bd 719f 8fbe b568 93be 219e 11bf
00000080: 8319 15be 0e5f 18be b35f afbe 5abf 31bd
00000090: 7daf f33d f495 623c 14af 04be d099 5ebe
000000a0: 3d51 d03e 4d3d aabd c97e 9fbe 8e71 44be
000000b0: e339 7dbe dd46 03bf 06ec acbd c43c dbbe
000000c0: 6c74 013e 6685 8f3e d1a0 88bd acf0 cebe
000000d0: 417a 1bbe 3fc4 d1be a097 13bf 0eea a93d
000000e0: 4c83 f93d 8779 e9be f2c2 bdbe 75d2 c4be
000000f0: 946d 01be a8c5 99be 996e e0bd 8748 39be
00000100: 0fb7 07bf 9a10 4fbe 40c5 39be 03c8 ba3a
00000110: 2c33 2cbe 9688 ecbc 826f a2bd ddef d2be
00000120: 20ce 86be 7bf4 df3e 100b 933e 8bbc 06be
00000130: a881 2f3e 7939 2bbe c57c 033e 247f 28be
00000140: eb22 a13e 41b9 f53d 6a4b e2bd c258 12be
00000150: 2afa 63be 8a11 153e aa3a 263f a7c0 1abe
00000160: 96bf ddbe e7ff 44bf 87e3 283f 4ca9 f5bd
00000170: cf1b 05bf 59b0 27be c709 da3e bfef b5bd
00000180: f170 383d 7b00 15be 50b6 863e d406 ddbd
00000190: 1a00 6cbe 4cfc cbbd a31e a7be 8cce dabe
000001a0: 9f29 f23e 1ad7 c9be b175 b3be ae40 5fbe
000001b0: 3810 c43d 17db 46be db0a f5be 5287 863e
000001c0: dbd7 11be 2a94 82bc 493a 3dbe 727f 00bd
000001d0: 9b31 033c 1d72 323d cc00 1fbe 3499 1fbe
000001e0: f7f9 9ebc 326d 05bf 85fc 64bc 4fb4 79be
000001f0: e538 d5bd fb6a 0fbe f361 963d da9a 073e
00000200: e4a0 b7be e0ac debd 3fc9 50bf 2d38 50bc
00000210: 3c81 2bbf 694f 06be 1636 973d 064d dabe
00000220: 21cd adbe 6564 fbbc 7828 32bd ddd6 ed3e
00000230: 7870 d9bc b8e1 52be 7762 bcbe 046b bebe
00000240: 4380 1d3e d6e5 62be 19b6 04be 08b8 19be
00000250: 7b64 903e 9d82 24be 8c04 e8bd dcf2 aebe
00000260: aa78 91be d6c4 9b3e b736 833e d516 a6bb
00000270: 44a0 8fbd 047a bfbe 4e01 64be 78d6 6abe
00000280: b195 b1bd 2832 87be 73c6 a5bd cc1c 193c
00000290: 5e65 c83e 9e65 e8bd 2582 80bd 8da3 20be
000002a0: b73b 7f3e 2df0 e5be 7db4 893e 91e1 f6bd
000002b0: 709a 15bd a228 273d 1e97 e0bd f2c9 b23d
000002c0: 383d edbc c9ff 11be 3e47 18be bd28 f0be
000002d0: 3398 1a3e be34 9e3d edb6 1cbe e82a 8dbd
000002e0: 2c63 c43d d8fc 79be a0e6 96be 28e2 58be
000002f0: 2461 01be 81be 86be 5063 cb3e afe6 2e3e
00000300: 2f01 38be 46cd 30bd 2b15 85bd 7738 403e
00000310: c980 d7bd 7c3f eb3d fa7a 05be 3f97 babe
00000320: bf79 043e 6303 d0be 197b b3be 5183 123e
00000330: 0cdb 04be fb92 82be 15b2 153e d044 9e3d
00000340: f240 f23e 61f1 98be 0a2e 9b3d 01be 5fbe
00000350: 7dcf 243e 5320 ce3d fb08 bcbe cd8d 12be
00000360: bcdc 9abe 64fc 9a3c a37f d8bc f488 1dbe
00000370: 89d0 a5be f31e a5be d6ff 32be c0fe 133e
00000380: b1b3 143d e73f 8b3e b760 a53e fe1c 4fbe
00000390: e098 923e 70c0 e33e c3f9 e43e f9d1 c0be
000003a0: 537f 863e 1ec8 473e 01ad 4b3e 5373 c83e
000003b0: 60aa 13be ba70 0ebf d42a 26be b028 0e3f
000003c0: c7d6 4c3d 78e5 38be 6ce6 56be c201 673d
000003d0: b616 85be 0c7b 08bf 8bcc 4dbe c301 6bbe
000003e0: 33f1 e33d c4b3 d63d c2dd 2c3d 2378 69be
000003f0: 5e75 d1bd 9952 1bbe 8366 53be ede2 1c3e

bias_sigma f4 [256]
-0.07587348 0.059179988 0.037023198 0.017838001 0.008098346 0.029948467 0.05875672 -0.034389175
-0.01392664 -0.08637249 -0.06255217 0.031877767 0.03198552 0.00094163656 0.04166083 0.027581723
-0.016901396 -0.053821076 0.05829795 -0.09494656 -0.004726144 -0.0007501746 0.044029135 -0.01566954
0.040568605 -0.007155135 -0.0046768757 0.10314407 0.031066993 0.048882037 -0.06965917 0.076100424
0.01810589 -0.04899632 0.006556706 -0.0075981943 0.028061377 -0.045052845 -0.07774535 0.06326134
0.029998627 -0.014383934 -0.011217309 -0.04856614 0.14326216 -0.0050453474 -0.039642423 -0.061493315
-0.007919401 0.0033389307 -0.008469069 -0.03739234 0.02457794 -0.005890015 -0.095314205 0.027037162
-0.018890597 -0.11961706 -0.034274053 0.013888678 -0.029624386 -0.058432948 -0.037402585 -0.0065113823
0.02554449 -0.03639746 0.0011880631 -0.032320227 -0.040434588 0.032868147 -0.057149477 -0.029232409
0.14155042 0.0054741628 0.05663686 -0.00033034384 -0.022073306 -0.013781518 -0.012167628 -0.06889484
0.009944255 0.05681513 0.006133534 0.031311497 -0.045183595 0.0053417473 -0.006110126 0.09975009
0.050522447 -0.1244763 0.0031780172 0.0425176 0.068009295 -0.0423659 0.0024231067 -0.038556375
-0.019659394 -0.0070880027 -0.025965987 0.05909917 -0.09515479 -0.019616049 -0.074870564 -0.0021028866
0.045135807 -0.10154128 -0.16329795 -0.018095315 0.045717686 0.02623008 -0.057935376 0.042655066
0.0043079373 0.022404185 -0.19502583 0.076451436 0.024096735 0.0044976966 -0.0367055 -0.004374843
-0.015275721 0.08656083 0.018935384 -0.0076846885 0.010171314 0.014821955 0.061340865 -0.080285825
0.049572147 0.018919589 -0.095581055 -0.012040151 -0.093918756 -0.010266035 -0.02194821 -0.13176583
0.070681386 0.097625986 -0.008143224 -0.008447214 -0.06697119 0.038888477 -0.03968209 0.03826869
0.030582117 0.02226563 -0.0052808463 -0.017040763 -0.024100572 0.030640371 0.04401432 0.0026685325
0.059597664 -0.0040611103 0.010110532 -0.015021993 -0.015389855 -0.049416173 -0.0010639272 0.089864336
-0.004261711 0.1366608 -0.015299443 -0.05838346 0.03336354 -0.01733752 -0.0015066685 -0.0034533374
0.011381821 -0.026704984 0.010477132 -0.005199112 0.003196929 0.0020633826 -0.010775591 0.023646897
0.03419432 -0.020052787 0.030690618 -0.03869932 0.0656713 0.06876908 -0.07961178 -0.04546854
0.010197581 0.039854817 -0.018035276 -0.04010549 -0.0004469928 0.044594295 -0.005452024 0.020026736
0.07491878 -0.019494295 -0.060564872 -0.007453329 0.022321286 0.0043863743 -0.0002578704 -0.1690715
0.018471202 -0.064250596 -0.026448963 -0.018635744 0.035681263 0.19693696 0.010077046 -0.058866188
0.02126097 -0.21428685 -0.13888684 0.03018698 -0.009525747 -0.04202922 -0.02895088 0.04459542
0.23037875 -0.031868223 -0.023442477 0.01931304 -0.051659785 -0.05242165 0.06867565 -0.041890357
-0.020177996 -0.019154735 0.0048971176 -0.040161606 -0.013815002 -0.008795729 -0.0024265707 -0.0069409087
0.032176103 -0.033663623 -0.04815273 0.013447743 -0.023800896 0.14418007 -0.015604355 0.015493429
-0.028515596 0.09961293 -0.017982021 0.015495735 -0.154948 -0.073144704 0.0062547354 0.09078208
-0.017605444 -0.0062738024 -0.0005958678 0.025636885 0.0017995797 0.0026031127 -0.048535515 0.08526176
00000000: 8e63 9bbd b766 723d a3a5 173d 0021 923c
00000010: edae 043c 7d56 f53c e3aa 703d aadb 0cbd
00000020: 902c 64bc 0fe4 b0bd 5a1b 80bd 4392 023d
00000030: 4003 033d 29d8 763a 8ca4 2a3d 11f3 e13c
00000040: cc74 8abc 7d73 5cbd d5c9 6e3d 5873 c2bd
00000050: c5dd 9abb 5da7 44ba e557 343d 685d 80bc
00000060: 442b 263d 9f75 eabb 7a40 99bb 333d d33d
00000070: 3580 fe3c 8838 483d 78a9 8ebd 8ada 9b3d
00000080: ce52 943c 5eb0 48bd a3d9 d63b 46fa f8bb
00000090: f9e0 e53c 5589 38bd f438 9fbd 298f 813d
000000a0: aebf f53c 98aa 6bbc cec8 37bc 4aed 46bd
000000b0: 51b3 123e 7153 a5bb 1860 22bd 6ae0 7bbd
000000c0: 60c0 01bc f6d1 5a3b dac1 0abc b628 19bd
000000d0: ad57 c93c 0701 c1bb 1834 c3bd 0a7d dd3c
000000e0: 74c0 9abc caf9 f4bd f362 0cbd 568d 633c
000000f0: d7ae f2bc 6357 6fbd 7433 19bd 6f5d d5bb
00000100: ae42 d13c 8115 15bd c8b8 9b3a 3762 04bd
00000110: bd9e 25bd c0a0 063d 9215 6abd ce78 efbc
00000120: 98f2 103e 9b60 b33b 0dfc 673d 0032 adb9
00000130: 14d3 b4bc e0cb 61bc bb5a 47bc bd18 8dbd
00000140: 3bed 223c fbb6 683d d0fb c83b 7c40 003d
00000150: 6f12 39bd d309 af3b 7437 c8bb c649 cc3d
00000160: a0f0 4e3d 6eed febd 4846 503b ef26 2e3d
00000170: 7548 8b3d de87 2dbd fccc 1e3b 4aed 1dbd
00000180: bd0c a1bc 7a42 e8bb 9fb6 d4bc f911 723d
00000190: 84e0 c2bd d6b1 a0bc bd55 99bd 95d0 09bb
000001a0: 53e0 383d e0f4 cfbd 9437 27be a03c 94bc
000001b0: 7842 3b3d 77e0 d63c a54d 6dbd 14b7 2e3d
000001c0: 9929 8d3b fb88 b73c dab4 47be 9292 9c3d
000001d0: 8466 c53c 6a61 933b 8258 16bd d85a 8fbb
000001e0: 0547 7abc ce46 b13d 611e 9b3c d7cf fbbb
000001f0: 95a5 263c c9d7 723c 8f40 7b3d e56c a4bd
00000200: 2a0c 4b3d 41fd 9a3c 00c0 c3bd 0e44 45bc
00000210: 7a58 c0bd df32 28bc bccc b3bc 9fed 06be
00000220: 67c1 903d 22f0 c73d 286b 05bc 2f66 0abc
00000230: 3128 89bd 8649 1f3d b089 22bd a1bf 1c3d
00000240: 5987 fa3c 6966 b63c f30a adbb 1299 8bbc
00000250: 906e c5bc 8401 fb3c 5c48 343d 8ce2 2e3b
00000260: ae1c 743d 1013 85bb a5a6 253c ce1e 76bc
00000270: bb25 7cbc 9d68 4abd 7973 8bba cb0a b83d
00000280: d3a5 8bbb cff0 0b3e 84aa 7abc 7f23 6fbd
00000290: 35a8 083d 6a07 8ebc 687b c5ba 6351 62bb
000002a0: d17a 3a3c 69c4 dabc 47a8 2b3c 505d aabb
000002b0: 9283 513b d139 073b 1b8c 30bc 23b7 c13c
000002c0: 580f 0c3d be45 a4bc e46a fb3c 2e83 1ebd
000002d0: ad7e 863d ced6 8c3d 800b a3bd 383d 3abd
000002e0: c113 273c ce3e 233d b7be 93bc a745 24bd
000002f0: 5c5a eab9 82a8 363d e4a6 b2bb 1c0f a43c
00000300: 046f 993d 80b2 9fbc df12 78bd 0e3b f4bb
00000310: 21db b63c 93bb 8f3b c732 87b9 1421 2dbe
00000320: eb50 973c d195 83bd 7fab d8bc fda9 98bc
00000330: 8426 123d d8a9 493e 321a 253c ac1d 71bd
00000340: 7c2b ae3c 036e 5bbe 5a38 0ebe af4a f73c
00000350: e111 1cbc d526 2cbd 652a edbc b0a9 363d
00000360: 68e8 6b3e 4188 02bd 700a c0bc 6136 9e3c
00000370: 3699 53bd 16b8 56bd d2a5 8c3d 3995 2bbd
00000380: 534c a5bc 64ea 9cbc 0078 a03b 7f80 24bd
00000390: 5158 62bc f61b 10bc 1a07 1fbb 9070 e3bb
000003a0: 17cb 033d dee2 09bd cc3b 45bd ec53 5c3c
000003b0: 19fa c2bc f1a3 133e 69a9 7fbc 27d8 7d3c
000003c0: 8a99 e9bc dd01 cc3d 084f 93bc d3e1 7d3c
000003d0: b0aa 1ebe e4cc 95bd 86f4 cc3b f5eb b93d
000003e0: 4b39 90bc 7894 cdbb 0334 1cba 7204 d23c
000003f0: e0df eb3a fc98 2a3b 2dcd 46bd b89d ae3d

weight_epsilon f4 [256, 128]
1.1964753 0.60427326 0.5887545 -0.2694722 -1.7574248 -1.6348915 -0.9376256 1.105584
-0.96905637 -1.4436402 0.577351 -0.4285695 -0.5799586 -1.1772442 0.13764632 0.50879914
-0.5377069 1.3414048 1.3861668 0.6431135 -1.6293856 1.6030563 -0.21777055 0.9437454
-0.5477654 1.0354341 0.746265 0.633343 0.7961849 -0.14492153 0.53014094 -1.7810657
0.70806634 0.83986706 -0.92535526 -0.35729036 0.99999595 0.58860487 -0.6370635 -1.3966203
0.22094937 0.69169253 -0.83845365 -0.8534211 -0.16747579 0.69572777 -1.2273263 1.3805867
1.7514379 -1.0040287 0.52511835 -0.68614274 -1.6869111 -0.7258318 0.8886385 -0.5180197
-0.7782426 -1.1595386 -0.47595385 -0.99757004 -1.3842322 -0.099800594 0.28469607 -1.7595474
0.39758223 -1.1611379 -1.9343462 1.232528 -0.2733898 -0.5982205 1.0775286 1.2089382
0.63610345 0.9802757 -1.3610891 0.86039126 1.2823303 1.5134654 -1.11251 -1.235203
1.517525 1.0492016 0.8486502 -0.91951066 0.56456894 1.3759342 -1.9052719 1.0729481
0.9706272 1.242235 -0.70130724 -1.2379906 0.13828212 0.6402654 -1.3262875 0.35595906
-1.4437085 1.627196 0.3376797 1.274364 0.9921358 -1.148464 1.4527662 -1.1822246
-1.8512043 -0.49910137 0.18441698 1.2557669 -0.6181915 0.38529938 0.9208232 0.7111249
-0.8857991 1.4452845 1.0024985 1.2409651 -1.2927301 0.48847735 -0.57398313 0.7581931
0.49824658 -1.0792624 -1.2168311 1.2568387 -0.96376956 -0.31936827 1.2630985 -0.97985125
-0.5646456 -0.28517115 -0.27784744 0.12717044 0.8293712 0.77154475 0.44248816 -0.52175176
0.4573211 0.6812887 -0.27246585 0.20225228 0.27369648 0.55556995 -0.064958625 -0.24011461
0.25375685 -0.6330413 -0.65416557 -0.3035008 0.7689464 -0.756521 0.10277118 -0.44537625
0.2585037 -0.4886464 -0.35218048 -0.29888985 -0.3757389 0.06839197 -0.25018632 0.84052795
-0.3341536 -0.39635354 0.43669748 0.16861396 -0.47192222 -0.27777684 0.30064565 0.65909886
-0.104271345 -0.32642642 0.39568654 0.40275002 0.07903587 -0.32833073 0.57920486 -0.65153223
-0.82654583 0.4738254 -0.24781603 0.32380733 0.79609406 0.34253755 -0.41936997 0.24446599
0.36727148 0.54721427 0.22461411 0.4707774 0.6532526 0.04709831 -0.13435495 0.83037287
-0.18762866 0.54796904 0.9128647 -0.5816597 0.12901923 0.28231472 -0.5085117 -0.5705272
-0.30019256 -0.46261576 0.64233077 -0.40603942 -0.6051626 -0.7142409 0.5250203 0.58292216
-0.71615666 -0.49514356 -0.4004985 0.4339393 -0.26643372 -0.64933664 0.8991438 -0.5063501
-0.4580624 -0.58624065 0.33096382 0.5842377 -0.065258674 -0.30215672 0.62590706 -0.16798568
0.68132097 -0.76791304 -0.15935922 -0.6014032 -0.46821287 0.5419879 -0.68559545 0.55792034
0.873628 0.23553799 -0.08703083 -0.5926267 0.2917395 -0.18183209 -0.43455872 -0.335597
0.41803 -0.68206465 -0.47310323 -0.58564144 0.6100706 -0.23052426 0.2708765 -0.35780963
-0.23513459 0.50933 0.574252 -0.5931325 0.45482615 0.1507176 -0.5960867 0.46241546
00000000: 1a26 993f a7b1 1a3f 9db8 163f 43f8 89be
00000010: 4cf3 e0bf 2044 d1bf 3b08 70bf c783 8d3f
00000020: 1414 78bf 34c9 b8bf 46cd 133f 766d dbbe
00000030: 2b78 14bf f0af 96bf 28f3 0c3e a940 023f
00000040: 29a7 09bf 27b3 ab3f ea6d b13f 16a3 243f
00000050: b58f d0bf f330 cd3f 3eff 5ebe 4c99 713f
00000060: 5a3a 0cbf 1b89 843f 390b 3f3f c422 223f
00000070: c6d2 4b3f 4f66 14be 51b7 073f f6f9 e3bf
00000080: d643 353f 8701 573f 15e4 6cbf c3ee b6be
00000090: bcff 7f3f cfae 163f 9816 23bf 74c4 b2bf
000000a0: 8d40 623e c312 313f e6a4 56bf ce79 5abf
000000b0: c67e 2bbe 371b 323f 0719 9dbf 11b7 b03f
000000c0: 1e2f e03f 0384 80bf 286e 063f 0da7 2fbf
000000d0: b4ec d7bf 1dd0 39bf d07d 633f f09c 04bf
000000e0: e83a 47bf c36b 94bf 39b0 f3be c060 7fbf
000000f0: 852e b1bf 4164 ccbd afc3 913e d938 e1bf
00000100: e68f cb3e 2ba0 94bf a898 f7bf 7ac3 9d3f
00000110: bff9 8bbe fb24 19bf 75ec 893f 7dbe 9a3f
00000120: add7 223f 59f3 7a3f 2b38 aebf 9a42 5c3f
00000130: 6623 a43f 3cb9 c13f ba66 8ebf 221b 9ebf
00000140: 423e c23f 3d4c 863f 2441 593f 0d65 6bbf
00000150: 9787 103f 9d1e b03f f3df f3bf 5d56 893f
00000160: 067b 783f 8e01 9f3f df88 33bf 7a76 9ebf
00000170: d499 0d3e 6fe8 233f cac3 a9bf 4440 b63e
00000180: 71cb b8bf f547 d03f 5be4 ac3e 5c1e a33f
00000190: 9dfc 7d3f de00 93bf 3ef4 b93f 2353 97bf
000001a0: 43f4 ecbf 378a ffbe ced7 3c3e f8bc a03f
000001b0: cc41 1ebf f645 c53e 12bb 6b3f 480c 363f
000001c0: bbc3 62bf 15ff b83f df51 803f f2d7 9e3f
000001d0: 2e78 a5bf b419 fa3e 8ff0 12bf f118 423f
000001e0: 2d1a ff3e 4525 8abf 1fc1 9bbf 17e0 a03f
000001f0: 9ab9 76bf 3d84 a3be 36ad a13f 88d7 7abf
00000200: 9d8c 10bf f401 92be 0542 8ebe f838 023e
00000210: ac51 543f f583 453f cf8d e23e 8691 05bf
00000220: fe25 ea3e f068 2e3f a580 8bbe 391b 4f3e
00000230: f221 8c3e d539 0e3f 0709 85bd 9be0 75be
00000240: 6bec 813e ff0e 22bf 6577 27bf 7564 9bbe
00000250: acd9 443f 5cab 41bf b279 d23d 5b08 e4be
00000260: 995a 843e dc2f fabe 0051 b4be 1708 99be
00000270: d960 c0be 1711 8c3d 6c18 80be d72c 573f
00000280: 2e16 abbe daee cabe d096 df3e 23a9 2c3e
00000290: ca9f f1be c438 8ebe 3aee 993e b4ba 283f
000002a0: 378c d5bd 5d21 a7be 6d97 ca3e 4035 ce3e
000002b0: 8fdd a13d f71a a8be c546 143f d1ca 26bf
000002c0: 8298 53bf 3e99 f23e 7cc3 7dbe 13ca a53e
000002d0: d2cc 4b3f 1561 af3e a9b7 d6be 4b55 7a3e
000002e0: 020b bc3e 3c16 0c3f 3e01 663e bc09 f13e
000002f0: 903b 273f 28ea 403d 5894 09be 5193 543f
00000300: ba21 40be b347 0c3f 80b1 693f a6e7 14bf
00000310: 9e1d 043e 8e8b 903e d32d 02bf 120e 12bf
00000320: d7b2 99be f9db ecbe ca6f 243f 66e4 cfbe
00000330: f0eb 1abf 7ed8 36bf bb67 063f 633a 153f
00000340: 0b56 37bf 7583 fdbe 240e cdbe 4b2d de3e
00000350: 006a 88be ed3a 26bf 4a2e 663f 29a0 01bf
00000360: 2887 eabe de13 16bf 1774 a93e 9a90 153f
00000370: 57a6 85bd 49b4 9abe 723b 203f 7004 2cbe
00000380: 0d6b 2e3f f395 44bf 102f 23be 8ff5 19bf
00000390: 99b9 efbe b8bf 0a3f 2f83 2fbf ded3 0e3f
000003a0: 16a6 5f3f df30 713e 383d b2bd 62b6 17bf
000003b0: e15e 953e 3132 3abe 7b7e debe 5fd3 abbe
000003c0: 0708 d63e ca9b 2ebf 963a f2be 99ec 15bf
000003d0: 962d 1c3f 8d0e 6cbe 53b0 8a3e d332 b7be
000003e0: 1fc7 70be 7363 023f 2e02 133f 88d7 17bf
000003f0: f9de e83e b755 1a3e 2399 18bf b8c1 ec3e

bias_epsilon f4 [256]
1.1963983 -0.5646092 -0.9881616 0.20936237 0.11428617 1.4359931 -0.9279999 1.2620816
-0.5804393 -0.47806597 -0.6627597 -1.5080858 1.517255 0.6031746 0.4544424 -0.72239316
-1.2310239 -1.1111187 1.1333636 -0.78692275 -0.93155336 0.8377123 -1.1828887 -0.17875248
0.40416685 1.2603602 1.0077987 0.49017578 1.2390623 0.81671757 -0.973899 0.839973
1.2666745 -1.1023079 0.57429975 0.5387827 -0.78533906 -0.41425923 -1.0321482 1.0662147
0.9477162 0.7669447 0.61139774 0.6310277 0.8838127 -0.8100465 -0.24410704 0.54738647
1.6729629 -1.4707079 -0.818763 0.9815535 -0.5836043 -1.298525 -0.3951377 -1.3801019
0.26792377 0.6110524 0.7115442 0.6456843 0.56575274 -1.0506195 0.50999653 -1.0502441
0.72503513 -0.9835902 0.55516 -1.1487616 -1.8085437 0.91366297 0.70275056 0.46497896
-1.0168853 -0.2625217 -0.9453547 1.4773284 -0.5678213 0.9436402 0.5979495 0.5073781
-0.9724981 -1.0704248 0.9719233 0.8781182 -0.58357394 0.559062 1.1429058 -0.97649914
0.39358026 1.1779634 0.8552624 0.8282718 -0.9737202 -0.62604004 -0.84412634 0.9350599
-1.0316482 -0.49733 0.13142149 1.1610798 0.11387597 0.9400534 0.35580263 0.51297307
-0.62335277 1.0836363 0.40796608 1.1421902 -0.8973561 -0.9128156 1.0651398 -1.1020662
0.8387022 -0.7626075 -0.6694038 -0.96987504 -1.6494952 0.8004272 0.29847452 0.96443313
-0.8824057 0.66827255 0.5369108 -1.0246031 -0.7389042 0.9578162 -0.7057766 0.96353
0.30765435 0.6959889 1.089056 -0.8348389 -0.3527178 -0.41742986 0.35839087 0.23290451
-0.6375678 1.2175244 -0.6599841 -0.69745266 -1.1796545 -0.939927 -0.8046298 0.80455697
0.9952539 0.892338 -0.8079266 -0.32919458 -0.8384989 0.5776262 1.2328341 -0.45051637
0.67074543 -0.63880044 1.0257082 0.29307783 -0.8962082 -0.9666044 -0.6353808 -0.754846
0.89174616 0.42266572 1.1824799 0.60830384 0.9646671 -0.8384508 1.0170518 -1.3443274
0.46241626 0.56862646 0.3167777 -0.6966554 -0.47130388 0.5904317 -0.55626094 0.62636334
-1.2554862 1.6265235 -0.90184987 -1.1410311 -0.80669993 1.1602465 1.1041633 -1.0156755
-1.2617545 1.149712 0.8340396 -1.3652778 -0.029970737 -1.0802783 -0.3185032 -0.22495861
-1.0156349 -0.26433367 -0.17627318 0.73525244 0.76933616 0.25907806 0.85046667 -0.7780235
1.4731247 0.42374977 -0.78263426 1.1174464 -0.99178696 -1.2331134 0.5121795 -0.61461234
0.91443163 0.90138763 0.9564031 -1.178698 -0.53203785 0.42200953 0.85402423 -0.7307788
-1.3027158 1.0612733 0.33263174 1.198126 0.21049151 0.7479546 -1.2456151 0.7948906
-1.1219553 -0.60336006 1.0923978 0.85791886 -0.52568024 -1.3613127 0.5629192 1.0279251
0.69545156 0.6615202 -0.6482435 0.7129208 1.108469 0.43195847 -1.3257397 -0.49383897
-0.423152 -0.731062 -0.8389219 1.4729239 0.4369116 0.8691229 -1.2876352 0.50106037
1.028174 -0.5125887 0.29570335 0.9239792 0.7069883 0.09268612 -0.5586956 -1.5083174
00000000: 9423 993f 3b8a 10bf 29f8 7cbf 1763 563e
00000010: de0e ea3d 9fce b73f 6791 6dbf e48b a13f
00000020: ac97 14bf 10c5 f4be 9faa 29bf f508 c1bf
00000030: 6935 c23f a769 1a3f adac e83e c2ee 38bf
00000040: 3192 9dbf 2339 8ebf 0f12 913f c573 49bf
00000050: 487a 6ebf 5074 563f e668 97bf e40a 37be
00000060: f5ee ce3e 7c53 a13f 8cff 803f 52f8 fa3e
00000070: 9899 9e3f 6714 513f 7251 79bf 7808 573f
00000080: 6422 a23f 6d18 8dbf 4f05 133f aaed 093f
00000090: fb0b 49bf c919 d4be 6f1d 84bf b979 883f
000000a0: 879d 723f 7d56 443f 9084 1c3f 088b 213f
000000b0: 8d41 623f 355f 4fbf 32f7 79be 8521 0c3f
000000c0: a623 d63f 2840 bcbf 749a 51bf 1747 7b3f
000000d0: 1767 15bf 1136 a6bf 7d4f cabe 2ea7 b0bf
000000e0: 4e2d 893e ee6d 1c3f c327 363f 914b 253f
000000f0: 2cd5 103f b37a 86bf 228f 023f 666e 86bf
00000100: e79b 393f 91cc 7bbf f71e 0e3f 9f0a 93bf
00000110: 5c7e e7bf d1e5 693f 76e7 333f b911 ee3e
00000120: 4c29 82bf 3f69 86be c402 72bf 1919 bd3f
00000130: bd5c 11bf 6792 713f 3813 193f 88e3 013f
00000140: a3f5 78bf ae03 89bf f7cf 783f 5bcc 603f
00000150: 1a65 15bf b01e 0f3f bd4a 923f d9fb 79bf
00000160: 5a83 c93e 81c7 963f 7af2 5a3f 9f09 543f
00000170: ba45 79bf 2944 20bf aa18 58bf 1660 6f3f
00000180: 0c0d 84bf 0aa2 febe 5b93 063e 439e 943f
00000190: ce37 e93d 57a7 703f c32b b63e 3452 033f
000001a0: 0c94 1fbf 98b4 8a3f eee0 d03e 4a33 923f
000001b0: 21b9 65bf 48ae 69bf 8056 883f 8110 8dbf
000001c0: 30b5 563f 3f3a 43bf 0c5e 2bbf bb49 78bf
000001d0: a922 d3bf cce8 4c3f a7d1 983e 17e5 763f
000001e0: 57e5 61bf e913 2b3f fc72 093f 3226 83bf
000001f0: d328 3dbf 7133 753f c6ad 34bf e7a9 763f
00000200: df84 9d3e 542c 323f 3066 8b3f 01b8 55bf
00000210: 6d97 b4be 5eb9 d5be 027f b73e 857e 6e3e
00000220: a537 23bf d7d7 9b3f b8f4 28bf 428c 32bf
00000230: ebfe 96bf 0e9f 70bf 38fc 4dbf 72f7 4d3f
00000240: f6c8 7e3f 4370 643f 47d4 4ebf 318c a8be
00000250: dda7 56bf 50df 133f 82cd 9d3f 15aa e6be
00000260: f9b5 2b3f 6d88 23bf 684a 833f 4c0e 963e
00000270: e76d 65bf 6373 77bf 51a8 22bf 963d 41bf
00000280: 7a49 643f a467 d83e 805b 973f cdb9 1b3f
00000290: 6cf4 763f b6a4 56bf c12e 823f ec12 acbf
000002a0: d3c1 ec3e 8191 113f b030 a23e 0258 32bf
000002b0: be4e f1be 8826 173f 1e67 0ebf 5959 203f
000002c0: c6b3 a0bf ec31 d03f a2df 66bf 4f0d 92bf
000002d0: e383 4ebf f582 943f 3955 8d3f a801 82bf
000002e0: 2c81 a1bf c329 933f 9f83 553f 6cc1 aebf
000002f0: 3185 f5bc 8f46 8abf da12 a3be 8d5b 66be
00000300: 5300 82bf be56 87be f580 34be 8139 3c3f
00000310: 37f3 443f e1a5 843e 2fb8 593f 8c2c 47bf
00000320: 5a8f bc3f bbf5 d83e b85a 48bf 7c08 8f3f
00000330: c0e5 7dbf a9d6 9dbf 321e 033f 3c57 1dbf
00000340: 3118 6a3f 57c1 663f d5d6 743f 93df 96bf
00000350: a233 08bf a211 d83e 55a1 5a3f 5214 3bbf
00000360: 64bf a6bf ced7 873f b54e aa3e 315c 993f
00000370: 168b 573e f479 3f3f 5170 9fbf f37d 4b3f
00000380: 3b9c 8fbf ce75 1abf b1d3 8b3f 92a0 5b3f
00000390: fb92 06bf 7f3f aebf 791b 103f 0d93 833f
000003a0: 1d09 323f 6359 293f 49f3 25bf fa81 363f
000003b0: 50e2 8d3f a929 dd3e d7b1 a9bf 76d8 fcbe
000003c0: 61a7 d8be e126 3bbf 96c3 56bf c588 bc3f
000003d0: e1b2 df3e d77e 5e3f 3bd1 a4bf 7e45 003f
000003e0: 359b 833f 0339 03bf 6e66 973e e789 6c3f
000003f0: 2ffd 343f 38d2 bd3d ad06 0fbf 8b10 c1bf

epsilon_in f4 [128]
1.0000644 0.505077 0.49210575 -0.22523622 -1.4689296 -1.3665111 -0.7837069 0.9240936
-0.80997807 -1.2066553 0.48257422 -0.3582164 -0.48475382 -0.9839902 0.115050584 0.42527574
-0.44943804 1.1212026 1.1586165 0.53754133 -1.361909 1.3399019 -0.18202178 0.7888221
-0.45784533 0.86545944 0.6237597 0.5293747 0.66548485 -0.12113151 0.4431141 -1.4886897
0.5918316 0.7019962 -0.77345085 -0.2986383 0.8358387 0.4919807 -0.5324845 -1.167354
0.18467878 0.57814574 -0.70081484 -0.71332526 -0.13998331 0.58151853 -1.0258509 1.1539525
1.4639255 -0.83920944 0.438916 -0.57350695 -1.4099913 -0.60668075 0.74276143 -0.43298262
-0.6504879 -0.9691912 -0.39782226 -0.833811 -1.1569995 -0.083417535 0.23796095 -1.4707037
0.33231595 -0.97052795 -1.6168079 1.0301987 -0.22851068 -0.5000179 0.9006437 1.0104815
0.531682 0.81935567 -1.1376555 0.7191512 1.0718256 1.2650181 -0.92988265 -1.0324347
1.2684112 0.87696683 0.70933753 -0.7685657 0.47189045 1.1500638 -1.5925064 0.8968152
0.81129104 1.0383122 -0.5861821 -1.0347646 0.11558202 0.5351608 -1.1085669 0.29752555
-1.2067124 1.3600788 0.28224692 1.0651671 0.8292689 -0.95993453 1.2142831 -0.98815304
-1.5473144 -0.41716993 0.15414347 1.0496228 -0.51671046 0.32204944 0.7696628 0.5943881
-0.74038815 1.2080296 0.8379304 1.0372509 -1.0805182 0.4082899 -0.47975925 0.6337297
0.41645545 -0.9020929 -1.0170786 1.0505186 -0.80555916 -0.26694143 1.0557508 -0.8190009
00000000: 1c02 803f ba4c 013f 49f5 fb3e 53a4 66be
00000010: e305 bcbf d6e9 aebf 04a1 48bf 6691 6c3f
00000020: b95a 4fbf ae73 9abf f813 f73e 2468 b7be
00000030: a731 f8be c8e6 7bbf a49f eb3d bebd d93e
00000040: be1c e6be 9183 8f3f 8c4d 943f 4f9c 093f
00000050: 0953 aebf e881 ab3f eb63 3abe 3ff0 493f
00000060: b46a eabe c08e 5d3f b7ae 1f3f 1a85 073f
00000070: 375d 2a3f cc13 f8bd dadf e23e 628d bebf
00000080: 4782 173f 06b6 333f e000 46bf 1fe7 98be
00000090: 86f9 553f e5e4 fb3e e750 08bf db6b 95bf
000000a0: 6f1c 3d3e 5c01 143f 9a68 33bf 7c9c 36bf
000000b0: c957 0fbe 66de 143f 154f 83bf b7b4 933f
000000c0: e961 bb3f 6ed6 56bf 99b9 e03e 5ad1 12bf
000000d0: 987a b4bf 6e4f 1bbf 9d25 3e3f e6af ddbe
000000e0: 6086 26bf ea1c 78bf 5caf cbbe a374 55bf
000000f0: 8f18 94bf d0d6 aabd 09ac 733e 0540 bcbf
00000100: 5125 aa3e 8574 78bf 90f3 cebf 8ddd 833f
00000110: b4fe 69be 2c01 00bf 9690 663f 7557 813f
00000120: 501c 083f 4bc1 513f b29e 91bf 4b1a 383f
00000130: 9531 893f 1dec a13f ca0c 6ebf d226 84bf
00000140: 4c5b a23f e680 603f 2597 353f b9c0 44bf
00000150: a09b f13e 4a35 933f 40d7 cbbf ae95 653f
00000160: c5b0 4f3f 6ae7 843f 0810 16bf 2b73 84bf
00000170: 44b6 ec3d 4c00 093f 85e5 8dbf 4555 983e
00000180: 8d75 9abf 1017 ae3f ab82 903e 6557 883f
00000190: f74a 543f 45be 75bf a16d 9b3f 99f7 7cbf
000001a0: 660e c6bf 4c97 d5be c9d7 1d3e 0a5a 863f
000001b0: 2347 04bf aae3 a43e 9f08 453f d229 183f
000001c0: 148a 3dbf b7a0 9a3f 9b82 563f a3c4 843f
000001d0: 6c4e 8abf 600b d13e 01a3 f5be 1c3c 223f
000001e0: a639 d53e 8fef 66bf a22f 82bf 6577 863f
000001f0: 2039 4ebf 8cac 88be d822 873f 0baa 51bf
