save/model/lunarlander_dqn_dueling_noisy_mod_hid_128_256.pth (torch_old, 824133 bytes, 30 tensors)

weight f4 [128, 8]
00000000: 059f 083e 4ce3 5abe aaeb abbf 6b93 823f
00000010: 870b be3f 7666 c33b d4bd 823e fe82 e33e
00000020: f2be 57bd f5d3 16be 0c93 8e3e 2607 93bd
00000030: d6f0 c83f f347 22bd 7ede 28bf 3807 cb3d
00000040: 1148 c73b 983b 8b3e b9e0 d83c a971 47be
00000050: 7766 fb3f 96f8 293d d336 863d f9b2 533e
00000060: ecee a1bd fcd2 44be 3b7d 44bd 5029 553e
00000070: df10 e0be d751 54bf 76de 59be a360 d4bd
00000080: e805 40bc 8ed7 14c0 9224 303e 5e22 49be
00000090: ae6c c53e 335a c5bb 7e96 cf3d b473 d7be
000000a0: d162 81bd 6363 953e 510a 24bf 67ec 87bf
000000b0: 3fab 84bf 373c 61be 1ad8 a93e 32fe 2d3d
000000c0: 2492 dcbc f65d dfbd fc0b ddbe 9d2f 293e
000000d0: c783 4f3e fa8f 013f 571c 4cbe 2903 1fbd
000000e0: 0824 db3d fdd0 e3be 69d7 f6be 7b53 603f
000000f0: 2374 24bd 19a4 163f 1f95 b73e cd70 853b
00000100: b936 5d3e 98bd 05bf a451 01be 894b 01bf
00000110: cd77 b8be dbba 323f 20fe 863e 86a9 05be
00000120: 98d9 6cbe 157d 2bbe 5498 273f 3256 9fbe
00000130: 5a89 2c3e 8d46 8a3e 055c c3bd 558b 403e
00000140: ad2a 31bd 6d11 8a3d c948 5cbf f2fc 5dbf
00000150: 757e 9fbf 24e7 303e 7a33 6dbe b1b6 003e
00000160: 0af7 17bc 6211 0a3e 8fd6 443f f6f3 80bf
00000170: 419c b1bc dbaf 1ebd abb8 0c3f 5d50 6c3d
00000180: a7a3 3bbe 9912 64bf 6bc9 1b3e 15c4 10bf
00000190: 5c3e abbe 69da 093f 4167 67bf 917e 2b3f
000001a0: d3bf cdbd 81f0 59bf e874 c1bf ba04 3cbf
000001b0: 2db2 603f 4c04 b93e 6ac7 0d3f 3730 d93d
000001c0: f2b1 a6bd c59b 063d fa7d 893c dcf8 1bbe
000001d0: ad1e a0bf d2d8 ca3e de03 e5be c466 203f
000001e0: 0726 68bd 397a 38be 7bd3 953f 03ef 363f
000001f0: fd98 4f3f f2c5 0d3f 0bc4 fdbd 2f7c 233f
00000200: 2dee 113d 413d 31bd e880 0f3e 6607 adbd
00000210: b91f 34c0 7c13 17be 621c 3e3d 0b3a ec3e
00000220: 5b85 a63e 086a 97bf 996e 5ebd de63 56bf
00000230: f731 eabe 2478 633e 5bbd a13e 1a9f 05bf
00000240: 1cdd b73d ec49 19be 7f21 29be 014d a53e
00000250: 1332 aabd 0509 ccbc 3449 7bbe d110 db3d
00000260: c205 5ebe b94c d33e 2a3d 1b3e 77fb 42bc
00000270: f46e ed3d a056 bdbf ef8c e43e 40ff 84be
00000280: a66a 24be c326 ebbf d585 8d3e 16fa 10bf
00000290: ac13 b03e 0a80 b83e c91f b53e a840 3bbf
000002a0: 6d08 033f 4699 51be 9298 2e3f 30d1 993d
000002b0: ed25 a3be ec48 41bf 36b9 233e 6d8a 75bb
000002c0: dca6 303d da13 08be 6688 9dbd 12d9 c03e
000002d0: 11b2 7f3f bbeb 3cbf 4651 2a3f 0a99 38bd
000002e0: 4c0f 283e 5292 04bf 204a f4bd 35f3 bcbe
000002f0: 28ae 513f 36b3 ab3e df83 3b3e 1625 20be
00000300: ce04 18bf 7b76 d7be 446d 66bf 89fe e4bd
00000310: 8cef 8e3e adde 8d3e b19a 21be 994d ec3d
00000320: 927c 24be af0d 48be 4340 923e 30af 51bf
00000330: 5ea4 753e 3257 923e 6bf5 29bd f554 51be
00000340: 1728 1b3e 94fb e6be 9f42 c03e 39db 99be
00000350: b25c f4be 88d6 87bf 2cdc 4d3d d36f f2bd
00000360: 7476 b3bd cfd7 b0bd 695b d2be 2822 f43e
00000370: ae98 c6be 750f a1bf 090e d2be b849 da3e
00000380: 1e25 913d 6fa1 41be ba72 4a3f 59b3 603f
00000390: b788 983f 4eb8 6a3e 592e c33e 10a1 a73e
000003a0: 7021 c23d a14e 93be b6fe 093f 2478 1fbe
000003b0: b3f9 02bf b605 e93d bc68 45bf 1c3d f5bb
000003c0: e415 6dbe d7d1 e9bd 9235 27bf 7b9b 73be
000003d0: f2f7 853f ccd5 5ebf dbff d6bb 679d 653e
000003e0: d6ee 7d3f fb26 c73d f50b 16bf d6db 80be
000003f0: 3ce6 313e 87ca 283f 9b23 613c b7fb d53e
0.13341911 -0.2137577 -1.3431294 1.0201238 1.4847268 0.005963142 0.25535452 0.44435877
-0.052672334 -0.14729293 0.27846563 -0.07179098 1.5698497 -0.039619397 -0.65964496 0.09913486
0.006081589 0.27193904 0.026474344 -0.19476952 1.9640645 0.041496836 0.06553426 0.20673741
-0.07906899 -0.19221109 -0.04797099 0.2081654 -0.43762872 -0.8293738 -0.21276268 -0.103699945
-0.011720158 -2.3256564 0.1720145 -0.19642016 0.3855948 -0.0060227155 0.10136126 -0.42080462
-0.06317676 0.2917739 -0.6407824 -1.0619019 -1.036476 -0.21995626 0.33172685 0.042478748
-0.026925154 -0.109065935 -0.43173206 0.1652207 0.20265113 0.50610316 -0.19932686 -0.038821373
0.10700232 -0.44495383 -0.4821122 0.8762738 -0.04014982 0.58844143 0.35855958 0.004072285
0.21602906 -0.5224242 -0.126288 -0.5050588 -0.360289 0.6981637 0.26365757 -0.1305295
-0.2312988 -0.16746934 0.6546681 -0.3112045 0.1684927 0.2700695 -0.09539036 0.18803151
-0.04325359 0.06741605 -0.8604856 -0.8671409 -1.2460467 0.17275673 -0.23164168 0.12569691
-0.009275207 0.13483194 0.7688989 -1.0074451 -0.021680953 -0.038741928 0.5496928 0.057693828
-0.18324147 -0.8909088 0.15213554 -0.565492 -0.33446014 0.5384889 -0.9039193 0.6699
-0.10046353 -0.85132605 -1.5113802 -0.7344471 0.87771875 0.3613609 0.55382407 0.106048994
-0.08139409 0.032863397 0.016783703 -0.15231651 -1.2509362 0.39618546 -0.44729513 0.6265681
-0.05667689 -0.18015374 1.1705164 0.7145845 0.81092817 0.55380166 -0.12390908 0.63861364
0.035627533 -0.043271307 0.14014018 -0.08448677 -2.8144362 -0.14753526 0.046413787 0.46138033
0.32523617 -1.1829233 -0.054304693 -0.83746135 -0.45741245 0.22213799 0.3158978 -0.52195895
0.0897772 -0.14969605 -0.16516684 0.32285312 -0.08310332 -0.024906645 -0.24539644 0.10696567
-0.21681884 0.41269472 0.15160051 -0.011900774 0.11593428 -1.4792061 0.44638774 -0.2597599
-0.16056308 -1.8371204 0.27641168 -0.566316 0.34390008 0.36035186 0.35375813 -0.7314553
0.5118473 -0.20468625 0.68201554 0.075106025 -0.31864873 -0.75501895 0.15988621 -0.0037466541
0.04312788 -0.13288823 -0.076920316 0.37665612 0.9988108 -0.73797196 0.66530263 -0.045067824
0.16412085 -0.5178577 -0.11928201 -0.36904302 0.81906366 0.33535165 0.18312024 -0.15639147
-0.5938233 -0.4208258 -0.90010476 -0.11181361 0.27917135 0.2770895 -0.15781666 0.11538238
-0.16063145 -0.1953647 0.28564653 -0.8190794 0.23988482 0.2858215 -0.041493814 -0.20442565
0.15152012 -0.45113814 0.37550828 -0.30050066 -0.4772697 -1.0612345 0.0502588 -0.11837735
-0.087628275 -0.08634912 -0.41085365 0.4768231 -0.3878836 -1.2582842 -0.41026333 0.42634368
0.07087158 -0.18909238 0.7908131 0.8777366 1.1916722 0.22921869 0.38121298 0.32740068
0.09479034 -0.28770927 0.53904283 -0.15573174 -0.5116226 0.113780424 -0.77112937 -0.0074840914
-0.23152882 -0.11416977 -0.65316117 -0.2378978 1.0466292 -0.8704498 -0.006561262 0.22423325
0.9919256 0.09724232 -0.58611995 -0.25167722 0.17372984 0.6593403 0.013741399 0.41793606

bias f4 [128]
00000000: d07a b1be c834 803d 7bc9 2fbe b355 9f3e
00000010: bf6e eb3d a3c4 3b3c 40ae d6be 7788 113e
00000020: 1155 dbbe 379c 11be 8fae d7bc 122d 34bc
00000030: e02d 8abe 085a e5be 67ae 04be 0a77 00be
00000040: be19 343e 010c 13be 0635 7cbe cd89 d8be
00000050: 70b3 8ebd 3a26 ed3d 0235 bfbd 7e3b 5bbe
00000060: fd6e 1e3e d337 543c 4e18 41be e767 b7bb
00000070: 1cf8 983d b730 813e 4460 723d a75b 92be
00000080: b3e7 3fbf a47a 93be 2204 d03d 16c0 9cbe
00000090: b10b b5be 238f cabe 2b7f 83be 762b a33c
000000a0: 029a 01bf a6ab eb3d 78c4 c8be d105 5ebe
000000b0: ee91 01bc bdb8 bdbe dc3b a5bc 4e8a c2be
000000c0: 5136 493e dcc2 9ebe efec 52be e24d 523c
000000d0: c17e c5bc 017d 8abd 8384 0a3c f1da 0ebe
000000e0: fdd5 85bc 46c5 1abe c01f 623b 7757 cfbc
000000f0: 36a2 a3bd 5fed 99be 0b72 96be b09b 59be
00000100: 16bb c8be b454 91bd 6194 303d 01f7 373e
00000110: e789 48be d689 03be 6aae 423c 6965 78bd
00000120: e103 81bd f498 88bc a56a 643d 471c 2abe
00000130: 966b 733e c132 b4be 4722 d9bd fc02 9c3c
00000140: 5988 3bb9 0b5b 04bc 02f4 edbe 46da 72bd
00000150: b2cb c9be 7ec1 223e be6f 56be 1786 bfbe
00000160: d119 7ebe 3e1a 5b3e 04be 60be f359 84be
00000170: cde3 d9bc fee2 97bd 65d9 91be 0a69 f5be
00000180: e076 f9bd 7032 1abe a7c9 93bc 8df3 a13d
00000190: ead6 81be 0b51 5cbc 77eb 523d 5c0e 1e3d
000001a0: 7624 c8bd 5c46 5ebe 1988 1cbe 875a 20be
000001b0: c448 263e 6afe 9ebe 3140 e7bd a4d2 c5bb
000001c0: 03fb 36be 81cd 81b9 eea2 b03d 0994 ad3b
000001d0: 43eb a5bc 443b 9b3d ac09 783d 74f4 d6bc
000001e0: 3259 e6be 0e06 f4bb 1853 b63d 5154 d2be
000001f0: 313a 15be ab95 21bc 3b08 7f3e 9fac 2d3e
-0.3466401 0.06260067 -0.17166702 0.3112007 0.114957325 0.011460456 -0.41929817 0.14212213
-0.42838338 -0.14219747 -0.026328353 -0.010997074 -0.26988125 -0.4479525 -0.12957154 -0.1254541
0.17587945 -0.14360048 -0.24629602 -0.42292634 -0.06967819 0.11579557 -0.09336282 -0.21409413
0.15472026 0.012952763 -0.18856928 -0.005597103 0.07469198 0.2523248 0.059173837 -0.2858555
-0.7496292 -0.28804505 0.10157038 -0.306153 -0.35360482 -0.3956233 -0.2568296 0.019918185
-0.5062562 0.11507349 -0.39212394 -0.21681906 -0.0079083275 -0.37055007 -0.020170145 -0.37996143
0.19649626 -0.3100804 -0.20598195 0.0128359515 -0.024108293 -0.06762124 0.008454445 -0.13950707
-0.01633739 -0.15114316 0.0034503788 -0.025310261 -0.07989924 -0.30063912 -0.29383883 -0.21250796
-0.39205235 -0.07096234 0.043110255 0.17965318 -0.19583856 -0.12845549 0.011882404 -0.060643587
-0.06299568 -0.016674496 0.055765767 -0.1661235 0.2377151 -0.35194972 -0.10602241 0.019044392
-0.00017884503 -0.008078347 -0.46475226 -0.059290193 -0.3941322 0.15894124 -0.20941064 -0.3740699
-0.24814536 0.2139673 -0.21947485 -0.25849876 -0.026597882 -0.07416342 -0.2848617 -0.479317
-0.12180877 -0.15058303 -0.018040491 0.07907782 -0.2535928 -0.0134470565 0.051494088 0.038587913
-0.09772579 -0.21706527 -0.15286292 -0.15659533 0.16238695 -0.31053478 -0.112915404 -0.006037073
-0.17869191 -0.0002475791 0.08624826 0.005297188 -0.020253783 0.075796634 0.0605561 -0.026239611
-0.44989926 -0.007447011 0.089025676 -0.41079953 -0.1457298 -0.009862344 0.24905483 0.16960381

weight_mu f4 [256, 128]
00000000: dd31 a5bf 6ecc 11bf f228 083e ae86 16bf
00000010: 6772 903f 8349 1e3e 463f 48bf c64e 19bf
00000020: 1b33 963d a0eb 7dbd 40dd 773e ea6b d4bd
00000030: ff63 e13e 34b1 9abe 126f 14bd 3506 aabd
00000040: 5426 033e 64b0 0fbf 949c 2a3d 4586 0fbe
00000050: b988 22bf f45f cfbd b419 1ebf 4d19 e7be
00000060: 7d01 553e 9ee1 c3bd 0f3b 2dbf f76d 16be
00000070: ff2c 65bf 27dc ec3e 135b 903d 0a19 45bf
00000080: 09b2 803e d8c6 4ebe 34dd d43e 2c69 bdbd
00000090: 97d0 10be 8786 973d e426 a4bb 7f1b d63d
000000a0: 5d5b 19be a531 4d3d 8bfc 11bf 4619 9cbd
000000b0: 339c a9be f1d6 e43d 6103 7cbe 37d6 cd3d
000000c0: d02e 60be 7be1 aa3e 75ba a13e c5dc d73e
000000d0: 4a9b 883c 97ca 26be e11f 003e e99e 9f3e
000000e0: f8c4 b6bc a511 843c 3b5d 113e 0ec6 15be
000000f0: 3f3f c8be 3df3 babe a6b7 1ebf 5b3c b23d
00000100: 0900 173f b4a0 e6bd 7fda 83bf 298b 0b3e
00000110: 51b8 773d d5fe 45bd 8a35 93be 4ddb b3bd
00000120: fa91 89bf 4ec1 433e 1ae2 443e 3a50 99be
00000130: 166a 47bf 5f14 9bbe ccce c6bc 4acc 5c3e
00000140: 848e 15bf e0d7 7e3e 2468 ddbe 9e35 12bb
00000150: d29a c23e c98a aebc e7fe 953e 4dce f6bc
00000160: f591 8ebe a440 243f 9b80 b7bd 5e32 5abe
00000170: 05fd d5be d53b 3b3e a0be acbe 35da 3a3f
00000180: 5971 07bf 330c 02be c47b 2bbe 0471 43bf
00000190: 275a 56be efcb abbd 97c8 a03e 96e7 1bbf
000001a0: 98ea 22bf d5be e93c f1f2 fd3e 150f e7bd
000001b0: 3189 10bb 91ba d43d 69e0 223f b5c5 c5bd
000001c0: cec5 4fbf 338f 6a3e 061a b6be 534d 883d
000001d0: da01 5fbe ec66 3d3d 23d6 bcbe 2d69 afbe
000001e0: d50b d9bd 2c55 27c0 543c 0d3f c1b8 24bf
000001f0: 3fd5 88be 6058 5bbd 5ac0 5abf 6e8f e6bb
00000200: 6b1e 62be 9cb8 903e 5d90 ce3e 8d16 f9be
00000210: a531 21be e398 793d 0caf 3bbe 862f 92bd
00000220: dd73 bf3d de93 f33d 0f58 a83e f3bc 41be
00000230: dbb6 713e a32e 3a3f cdf6 3f3c 801f acbc
00000240: 64f5 20be 162f 473e b8e3 443d a98f d4be
00000250: f314 babe 29ab b5be 6b86 8c3c 1d77 833e
00000260: 54f9 8f3e 9ce8 833d 087e 53be fb75 e83c
00000270: 5cde 87be 7303 6cbe 2967 acbe ef0e dabe
00000280: 9ebf 66be 4015 f73d 5796 cfbe 270d 91bb
00000290: 8185 0cbe b14d 6d3c e493 803e 5881 97be
000002a0: e435 e83d 3df7 dcbe bc0d 7d3c eee2 2c3e
000002b0: 18fd 913e 3be0 8abd 7121 09bf 108d e93d
000002c0: a9a4 b0be 4560 4cbe 73b6 603f 05ec b9be
000002d0: b98e 88bc 8d2b b83d 209d 083d 2c1f debe
000002e0: 2646 a4be a13c b13e 6042 09be 2b8f 3ebf
000002f0: c570 23bf 033f efbe 4673 f23e 7cff abbe
00000300: f1ad 99be fb80 fa3d d05e 27be 711c 9b3d
00000310: c703 813d f33a 523d 040c 99be 6515 123d
00000320: cad8 a43e 6227 48bf b947 f7be 3f3d 013f
00000330: 1579 c2bd 181a 483e a78f 4abf 59a7 f3be
00000340: 3dfd 77be 3efb 9fbe d6af dcbe af9e c03c
00000350: 701c 5d3f 9cf1 413d ae30 c2be 790b 8cbd
00000360: 27f2 85be b457 c63d e4e1 2dbf 9944 4abe
00000370: 5b77 1bbe f3d2 a5be 1d7c a7be c758 463f
00000380: e29e c3be 744f bfbd 77c0 67be f8c6 dabe
00000390: b369 d83c 0ebd 363f 0968 483e deca 963e
000003a0: d5b3 4b3e 57d7 50bc d5d2 a73e bb09 c9be
000003b0: 3f5d 76be a74b 07bf 725f 133e abb0 a4be
000003c0: 8ac3 86be aedf 013f d57c 35bf 9bab 4abe
000003d0: 4497 a63e 2214 06bf a003 c0bb 0eae b4be
000003e0: c4d2 63be d1bb d5be 9193 4fbe 6d58 f53c
000003f0: b00e e4be 4d71 393d f136 27be 88cf a0be
-1.2905842 -0.5695256 0.1329687 -0.58799255 1.1284913 0.1545773 -0.7822155 -0.59885824
0.07333966 -0.061992288 0.24205494 -0.103721455 0.44021603 -0.3021332 -0.036238737 -0.08301965
0.1280759 -0.56128526 0.04165323 -0.14016064 -0.6348987 -0.101257235 -0.6175797 -0.4513649
0.20801349 -0.095645174 -0.6766824 -0.14690386 -0.89521784 0.46261713 0.07048621 -0.7699133
0.2513583 -0.2019304 0.41575015 -0.092485756 -0.1414207 0.07398706 -0.005009519 0.10454463
-0.14976259 0.050096173 -0.57025975 -0.07622008 -0.33126983 0.11173809 -0.24610664 0.10050624
-0.21892858 0.33375153 0.31587568 0.4216062 0.01667561 -0.1628822 0.12512161 0.31175926
-0.022310719 0.016121695 0.14195721 -0.14626333 -0.39110753 -0.365137 -0.61998975 0.08702918
0.5898443 -0.112611204 -1.0301055 0.13627304 0.060478512 -0.04833873 -0.28751785 -0.08782063
-1.0747674 0.19116709 0.19226876 -0.2994402 -0.7789625 -0.3028898 -0.02426853 0.21562305
-0.58420587 0.24887037 -0.43243515 -0.002230979 0.38008744 -0.021306412 0.29296038 -0.030127669
-0.2784573 0.64161134 -0.089600764 -0.21308276 -0.417946 0.18284543 -0.33739185 0.7298921
-0.5290733 -0.12699966 -0.16746432 -0.76344323 -0.20932828 -0.083885066 0.31403038 -0.6090025
-0.6363921 0.028533379 0.49599412 -0.112821735 -0.0022054429 0.10387147 0.6362367 -0.0965685
-0.811612 0.22906189 -0.3556673 0.066553734 -0.2177805 0.046240732 -0.36882123 -0.3425993
-0.1059796 -2.6145735 0.5517018 -0.6434441 -0.26725194 -0.053551078 -0.85449755 -0.007036141
-0.22081916 0.28265846 0.40344515 -0.48650017 -0.15741594 0.06093682 -0.18328494 -0.071379706
0.09348271 0.11893438 0.32879683 -0.18919735 0.2360491 0.7272741 0.011716557 -0.021011114
-0.15718609 0.19451556 0.048068732 -0.41515854 -0.36344108 -0.35482147 0.01715394 0.25676814
0.2811991 0.06440851 -0.20653546 0.02837657 -0.26536834 -0.23048191 -0.33672455 -0.42589518
-0.22534034 0.120646 -0.40544388 -0.0044266167 -0.13722803 0.014483855 0.25112832 -0.2959087
0.11338404 -0.43157378 0.015445169 0.16883442 0.28513408 -0.0678105 -0.5356665 0.11403859
-0.34500626 -0.19958599 0.87778395 -0.3631288 -0.016669618 0.08992682 0.03335297 -0.43383157
-0.3208477 0.3461657 -0.13404226 -0.74437207 -0.6384395 -0.46727762 0.47353572 -0.33593357
-0.3001552 0.12231632 -0.16344762 0.07573784 0.062995486 0.05132575 -0.2989198 0.035664935
0.32196647 -0.78185093 -0.48296908 0.5048408 -0.09495751 0.19541204 -0.79125446 -0.47588614
-0.24217696 -0.3124637 -0.43102902 0.023513166 0.8637152 0.047349557 -0.37927765 -0.06838126
-0.2616131 0.09684697 -0.67922807 -0.1975273 -0.15182249 -0.32387504 -0.32711878 0.77479213
-0.38207155 -0.09341326 -0.22632013 -0.42729926 0.026417589 0.71382225 0.19570936 0.2945165
0.19892819 -0.0127466535 0.3277804 -0.39265236 -0.24059008 -0.5284981 0.14391878 -0.32166037
-0.2632106 0.50731933 -0.70893604 -0.19792025 0.32537282 -0.5237447 -0.005859807 -0.35289043
-0.2224837 -0.41744855 -0.20271136 0.029949391 -0.44542456 0.045274068 -0.16329552 -0.31408334

weight_sigma f4 [256, 128]
00000000: 560a 6b3d 986a 92bd 2b90 993d 9211 34bd
00000010: defc 86bd b3c8 3a3d 62b9 01bc 6828 bc3c
00000020: 9876 0cbe 0ce4 23be d55b 6e3d f120 9e3c
00000030: 14bc b0be 7e16 333e 5bf8 22be 8312 483d
00000040: 4aa4 6e3c 9a6b a2bd 9384 cd3c cc31 a9bd
00000050: 2329 80bd 7830 2dbe af91 bf3c dba2 ee3d
00000060: 631f 5c3d 3103 35bc 23a2 bebc 09c4 65bc
00000070: 91f1 32bd e20e 03bd c206 03be 8575 ef3d
00000080: 51c3 f23e bad3 4e3e 9cf1 3dbc 1760 9b3d
00000090: e40e 87be f304 353d 3df1 37be 6bb6 a53c
000000a0: c2b5 b0bd 6e89 f4bd 5b65 41bd 3d55 843c
000000b0: 89c7 083d 7f23 b33d e8b5 903d e54b f23d
000000c0: c9d8 fc3c 7d29 fc3d 7c1e 7abe 7a83 1a3e
000000d0: a440 e13d 845c a33d 3eef 393c 3443 7d3d
000000e0: a701 0a3d ddf4 d03d 1368 803d 2b6e e13d
000000f0: 0adf eb3d d3ea 2c3d 19ff f93d 68f5 d6bd
00000100: 666c a0bc 235a 0dbd 3b99 e0bd 7fbb 423e
00000110: 6736 713e c4c1 7f3d 999d 733d dcd5 d63e
00000120: 6354 dabc 277e 25bd 63f9 1ebe 6049 17be
00000130: eba5 80bd 9aa2 6c3e fee5 3f3d 5686 36bc
00000140: 922e 85bc ca60 573d 7769 cc3d d1f9 003d
00000150: 6ca3 74be c35c 233c 0a29 793d 896c 4ebe
00000160: 4d7c 9f3d 03e6 5e3d 9b1c 48bd 5b8f 69be
00000170: f23a 103e f887 e4bd 9add 823e 5bd9 a23d
00000180: 1638 86be e211 f13d 0c4e 8bbd b8fe ebbd
00000190: 38e7 afbc f475 adbd 2342 e6bc a4b9 71bc
000001a0: 7b6c 8abd be21 9c3e a8c1 47bc 522c bb3e
000001b0: 4a73 17bd 03ff 1dbb f144 38bd f4b9 143d
000001c0: a93d 1ebe 629f 4ebd efda 383e c452 ab3d
000001d0: 2de2 14bc 66db 5dbc 60c2 803d c797 05bd
000001e0: 9840 2dbe c504 313d e1f6 c13c da49 61be
000001f0: 3938 823d 84fa 10be 193e 41bd af37 543d
00000200: 5dd9 26be 5215 70bd 76f8 073e f3b9 823e
00000210: 2fa6 37be 6a2f bdbd e70a 203e 45be 5a3e
00000220: 5e68 313e a6e6 823e dc15 173e 220b 383d
00000230: 5d9b e93d 2981 bb3d c1af 153e ef97 d8bd
00000240: b637 053d 4914 05be 0a53 42bc aeab e0bd
00000250: 80ac c1bd 5359 933e 05ca 69bc aab5 35be
00000260: 83ab 813c 8cc9 11bc a548 b13d 1d34 0fbe
00000270: cf9a 20be 31e7 6b3e 67cb 743e 02ff 47be
00000280: 49ef 6d3e 10c9 48bd 54ff 81bc 0076 083e
00000290: 383d 44be 10da 7a3c 24b9 a9bd d907 7a39
000002a0: 57f4 0f3d c193 333d 80a5 b73e 65b3 fe3c
000002b0: 714d 61bd 2ed6 3fbe d616 703c 479b 973e
000002c0: 6371 f3bd 4feb 87be 5e07 07be 3e70 17bb
000002d0: 8d5d 2b3e a5a8 ff3c 8a7a 973d 9a55 873e
000002e0: e6bd b43d 1e2c 41bd 5067 d9bb e5ed 133e
000002f0: fe7f c8bc c194 81be 9b87 273c cac0 8e3d
00000300: d053 d63d be2c be3e 0e22 7d3d 658e 57bd
00000310: a628 063e 0a22 a13c de65 9c3e 5e78 d43c
00000320: 69fb 98bb 19cd 2e3e b405 803c 917f eb3d
00000330: ecee 09bd 9f49 df3d 689e de3d 18ec b9bd
00000340: 8bc9 d03d 5a65 c6bd 7773 1ebe 7080 203e
00000350: e53f 91be 6003 0cbe b6ae 523e f86d 8bbe
00000360: 0d30 abbd 8d94 f43d a00a b1ba d63c 0fbe
00000370: 1232 6b3e 4d40 cc3d 505b 6dbe 5bd8 0e3f
00000380: a860 923e 6359 80be 092f 823d c74c 333e
00000390: e946 123f 1c93 e5bc 735d 093e 79b6 72be
000003a0: c5b6 18be 4407 933d 7c49 063e 2acb 8d3d
000003b0: 9723 e83d 214e ae3d f524 cd3e 82b4 4d3d
000003c0: 27b4 adbc 8c2b b0bb 7aa0 3abe a1b3 42bb
000003d0: 5bed ca3d 5e14 00bc a1af 253e a1bd 053e
000003e0: 7354 d4bd 03b7 dfbb f56e 29be 207f 93bd
000003f0: 6c99 383e 1c6b f7bd 21ff ff3d 736e 93bd
0.057382904 -0.071492374 0.07498201 -0.04396207 -0.06591199 0.045601558 -0.007917734 0.022968486
-0.13717115 -0.16004962 0.058193047 0.019302817 -0.34518492 0.17489049 -0.15915053 0.04884578
0.014565537 -0.079306796 0.02508763 -0.08261451 -0.06257846 -0.1691302 0.023384897 0.11652156
0.05374087 -0.011048124 -0.023270672 -0.014023789 -0.043687407 -0.031996615 -0.12795547 0.11692337
0.4741464 0.20197955 -0.011593249 0.07586687 -0.26378548 0.044194173 -0.17963119 0.020228585
-0.086284176 -0.11940275 -0.0472158 0.016153926 0.033393417 0.08747005 0.07065946 0.11830882
0.03086509 0.12312601 -0.24425691 0.15089217 0.10998657 0.0797663 0.011348544 0.061831668
0.033692982 0.10202954 0.062698506 0.11007341 0.11517151 0.042216133 0.12206859 -0.10496026
-0.019582938 -0.03450979 -0.109667264 0.19016837 0.23555909 0.06244065 0.05947647 0.41960037
-0.026651567 -0.04040351 -0.15524821 -0.14774084 -0.06281646 0.23108903 0.046850197 -0.011140427
-0.016257558 0.05258254 0.09981053 0.031488243 -0.23890465 0.009970847 0.060830154 -0.2015859
0.0778738 0.054418575 -0.048855405 -0.22808592 0.14084986 -0.111587465 0.25559694 0.079516135
-0.26214665 0.11770989 -0.06801996 -0.11523193 -0.021472558 -0.084697634 -0.028107708 -0.014753733
-0.06758972 0.30494493 -0.012192167 0.3655725 -0.036975183 -0.0024108298 -0.044987623 0.03631015
-0.15453209 -0.050444968 0.18052267 0.08365396 -0.009087128 -0.013541078 0.06287074 -0.03261545
-0.16919172 0.04321744 0.023677291 -0.22000828 0.0635838 -0.14158064 -0.04717836 0.051810917
-0.16293855 -0.058614083 0.13278374 0.25532493 -0.17934488 -0.09237559 0.15629159 0.21361645
0.17324969 0.25566596 0.14754432 0.044932492 0.11406586 0.09155495 0.14617826 -0.10575854
0.032523833 -0.1299602 -0.011860618 -0.10970245 -0.0945673 0.28779086 -0.014269357 -0.1774508
0.015828853 -0.00889815 0.08656434 -0.13984723 -0.15684055 0.23037411 0.23905717 -0.19530872
0.23235811 -0.049019873 -0.01586882 0.13326263 -0.19163978 0.015310779 -0.08287266 0.00023844781
0.03514513 0.04384208 0.35868454 0.031091401 -0.055005495 -0.18734047 0.014653882 0.29610655
-0.11886861 -0.26546714 -0.13186404 -0.0023107673 0.16734906 0.031208346 0.07396419 0.26432496
0.08825283 -0.047161214 -0.0066346303 0.14446218 -0.024475094 -0.25308803 0.010225202 0.06970365
0.10465205 0.3714351 0.061800055 -0.052626032 0.13101444 0.019669551 0.30546468 0.025936302
-0.0046686423 0.17070426 0.01562772 0.11498941 -0.03367512 0.10902714 0.10870057 -0.090782344
0.10194691 -0.096873 -0.15473734 0.15673995 -0.2836906 -0.13673162 0.2057446 -0.27232337
-0.08358774 0.11942396 -0.0013507195 -0.13988051 0.22968319 0.09973202 -0.23179364 0.5579888
0.28589368 -0.25068197 0.063566275 0.17509757 0.5713945 -0.028024249 0.13414554 -0.2370242
-0.14913471 0.0717912 0.1311397 0.06923516 0.11334913 0.08510996 0.40067258 0.050220974
-0.021204067 -0.005376285 -0.1822528 -0.0029709118 0.09908553 -0.007817356 0.16180278 0.13060619
-0.1036767 -0.0068272366 -0.16546233 -0.072019815 0.18027276 -0.12080976 0.12499834 -0.07198801

bias_mu f4 [256]
00000000: 9ddc 85be 5d1d f5be d995 27be 87a0 de3d
00000010: 84db 99be 7bec b6be 49ed 85be e401 bcbc
00000020: 8287 d2be 0478 d8bd 4dbe 45be adef c9be
00000030: 6b26 36be c208 09bd ba1e cbbe 1c2d ad3e
00000040: fd8d 1cbe 80df 4bbc 781e c7be ef86 08bf
00000050: 91e4 40be f777 a6be 0da5 33be 5af3 433d
00000060: fd38 4cbe 6385 e7be 20d6 e7be 0ef2 99be
00000070: 97f5 6bbe 0ea8 a7be 7576 8dbe 243b 46be
00000080: 46b2 c8be ed16 a8be 944e 8dbe 9259 a1be
00000090: 6e89 b3be 590e 9abe f644 9cbe 79dc 84be
000000a0: 5ad4 9bbe 2859 5a3c 1177 b6be 41bd 08be
000000b0: 1b7b 253e df90 40bd c426 b0bd d6c6 a53d
000000c0: 8522 82be 909e c43e 4773 86be df8d bfbe
000000d0: 062c aabe bd43 03be b521 3cbe 1e13 1c3e
000000e0: fb7f ab3c babd 8fbe a0b5 fabe 6afb b0be
000000f0: d469 0fbe bba9 7dbe 129d a23e b9c6 6cbe
00000100: 92c3 45be a19f b33e 5aab 6ebe 0936 e8be
00000110: eb82 f4bd 9b3d 9e3d 544d 3bbd 7572 6abe
00000120: 5254 d6be fcb5 05be 0899 96be 2ec0 debe
00000130: 7b37 f6be e42b 75be eecc 91bd 481e d6be
00000140: 81e8 76be 37bb b0be 476e 373a 4353 bbbe
00000150: 4258 59be f587 d33d f76a 36be eaf5 b0be
00000160: 3174 c1be 2227 44be 11ce 47be 12b5 e7bd
00000170: b35f f23b 4272 0a3d aa19 abbe 9865 88be
00000180: 4720 42be 46b5 70be 790d 08bf c090 84bc
00000190: 457b 3e3c 7221 42be 3877 acbe 7255 5fbe
000001a0: 6574 1dbe f7a2 19be 7f45 a5be dd20 f6be
000001b0: 7fcd 6fbe bf42 30be e9b9 dabe 1ccf 9b3d
000001c0: a1d5 87be 846b 7e3e d48b 6fbe a22a 9dbe
000001d0: 9115 35be 1a85 bcbe 9bcb bcbe a11b 31be
000001e0: 496a 2dbe e707 6f3d d550 98be 3cc0 70be
000001f0: 23a1 bdbe 4ca7 363d 170b 443b e944 4cbe
00000200: afb4 963d b308 6ebe 186b 90bc 6958 82be
00000210: 3418 21be 5a21 c5bd c20e 6dbe 8141 53bb
00000220: 0bdc 24be 9e23 c1bd 1320 52bd 3d0c 463c
00000230: 90cf e3bd ff00 423e d190 91be 48ae 65be
00000240: bfdb debe 3405 943e 7b65 48be 1a41 0c3e
00000250: 1ede 11bd 5d3a 31bf f7b5 48be 4029 d03d
00000260: 5292 d8bd 8a61 afbe 5c8f 62be 2932 d8be
00000270: 639f a6be 8e09 f2bd c3c3 ecbe bc4d 23be
00000280: 88f5 73be 05b5 0f3d 182a 28be 2bbe a6be
00000290: 6c3a 95bd 66a5 04be 11eb bfbe d600 bfbe
000002a0: e3b3 22be 0adf bbbe a5cd 113d b3e9 a4be
000002b0: 0dd3 89be 6778 60bd bb77 37be 259f 32be
000002c0: 5e87 debe 7b89 4cbe f827 30be 4e5b e4be
000002d0: cfb9 f8bd e7d5 26be 2852 d8bd f70e 57be
000002e0: 6bf9 20be 0959 f9bd 3514 ccbe c60c 7bbe
000002f0: cd85 f9bd 5b04 a0be 1fc2 abbe 93ff 89be
00000300: c9f3 66be 8b50 70bd 6538 9bbe 98fd 13bf
00000310: 6769 34be 9ecb a1be b0a9 a4be f6cf a7be
00000320: 045f f63e 0d94 b5be 1039 91be f6b6 9c3d
00000330: 3368 7ebe dcf3 57be f5f1 15be 180e 81be
00000340: 1fb4 b7be 4e53 8abe 999b 453d 9436 80be
00000350: f6dd 19be 3e67 16be bbdd 2bbf e400 823d
00000360: 06eb adbe 3700 58be 0021 3b3d 45cc 9fbe
00000370: 785b 6abe 6fc8 9abe d224 a7be 6f1c c8bd
00000380: 2d43 0fbe fea4 49bd 08e4 c8be 1c7d 15be
00000390: 4da9 8bbe 5519 a1be 696a 94be 3331 92be
000003a0: 2e5a 9dbe b1f3 26bd 980f cebe 9550 103e
000003b0: d634 82be 62c4 55be 200f 47be 1f7a cabe
000003c0: d285 96be 3c36 5ebe c9a4 72bd 2caa 23be
000003d0: 9a46 6cbd 0669 f4be 861f 63be e655 7ebe
000003e0: a6dd 85be 7e51 c2be f74a aebe 48fa 63be
000003f0: be13 18be be0c 00be 955e 45be 2029 70be
-0.26144877 -0.47873965 -0.16365756 0.10870462 -0.3005029 -0.35727295 -0.26157597 -0.02295012
-0.4111901 -0.10569766 -0.19310875 -0.3944067 -0.17788093 -0.033455618 -0.3967188 0.33823478
-0.15288539 -0.012443423 -0.38890433 -0.5333089 -0.18837191 -0.325134 -0.1754343 0.0478395
-0.19943614 -0.45218953 -0.45280552 -0.30067486 -0.23042904 -0.32745403 -0.27629438 -0.19358498
-0.39198512 -0.3282999 -0.27599013 -0.3151365 -0.35065788 -0.3008907 -0.30521363 -0.25949457
-0.3043545 0.013326921 -0.35637715 -0.13353445 0.16160242 -0.04701316 -0.08601144 0.080945656
-0.2541696 0.38402224 -0.26259825 -0.37412927 -0.33236712 -0.12818809 -0.18372233 0.15241668
0.02093505 -0.28074437 -0.48966694 -0.34566814 -0.14005214 -0.24771778 0.3176046 -0.23122682
-0.19312885 0.35082725 -0.23307553 -0.45353726 -0.11939033 0.07726594 -0.045728043 -0.22895224
-0.41861206 -0.13057703 -0.2941363 -0.43505996 -0.48089203 -0.23942524 -0.07119165 -0.41819978
-0.2411213 -0.34517834 0.00069973286 -0.3658696 -0.21225074 0.10328666 -0.17814241 -0.34562618
-0.3778396 -0.19155553 -0.19512202 -0.11313833 0.007396662 0.03380037 -0.33418018 -0.2664001
-0.18957625 -0.2350665 -0.5314556 -0.016182303 0.011626069 -0.18958071 -0.33684707 -0.21809939
-0.15376432 -0.15003572 -0.32279584 -0.48071948 -0.23418234 -0.17212962 -0.42719963 0.07607862
-0.26530173 0.24845701 -0.23393184 -0.3069659 -0.17684008 -0.36820298 -0.3687409 -0.17295696
-0.16935076 0.058357146 -0.2974917 -0.23510832 -0.37037 0.04459314 0.0029913837 -0.19948162
0.073586814 -0.23245506 -0.017629191 -0.25458077 -0.15731889 -0.09625502 -0.23150161 -0.0032235088
-0.16099565 -0.094306216 -0.05130012 0.012087879 -0.11123574 0.18945692 -0.284308 -0.22429764
-0.43527028 0.2891022 -0.19569962 0.1369671 -0.035612218 -0.6922968 -0.19600664 0.10164118
-0.105747834 -0.34254104 -0.22125 -0.4222577 -0.32543477 -0.11818229 -0.46243104 -0.15947622
-0.23824131 0.035084743 -0.16422307 -0.32566962 -0.07286534 -0.1295372 -0.3748403 -0.37305325
-0.15888934 -0.36693603 0.03559651 -0.32209548 -0.2691883 -0.054802325 -0.17916767 -0.17443521
-0.43462652 -0.1997432 -0.17202747 -0.4460091 -0.12144815 -0.16292535 -0.10562545 -0.21001802
-0.15720145 -0.12175185 -0.39859167 -0.24516591 -0.121837236 -0.31253323 -0.3354654 -0.269528
-0.22553934 -0.05867056 -0.30316463 -0.5780883 -0.17618333 -0.3160066 -0.3216071 -0.3277585
0.48119366 -0.35464516 -0.28363848 0.076520845 -0.24844436 -0.21089119 -0.1464308 -0.25206065
-0.3587961 -0.2701668 0.048244093 -0.2504164 -0.15026078 -0.14687821 -0.6713521 0.06347826
-0.3396837 -0.21093832 0.045685768 -0.31210533 -0.22886455 -0.30231044 -0.3264528 -0.09771048
-0.1399047 -0.049229614 -0.39236474 -0.14598507 -0.27277604 -0.3146464 -0.28987435 -0.2855316
-0.30732864 -0.040759746 -0.40246272 0.1409324 -0.25430936 -0.20875695 -0.19439363 -0.39546296
-0.29398972 -0.21700376 -0.059239183 -0.15982884 -0.05768452 -0.47736377 -0.22179994 -0.24837455
-0.26145667 -0.379528 -0.3404157 -0.22263443 -0.14851281 -0.12504861 -0.19274361 -0.23453188

bias_sigma f4 [256]
00000000: 080a 0bbd fbb9 fa3d 4a61 283c 2e4f 81bc
00000010: 919f 4ebc e530 3c3c 4cea 2dbe d4f6 ae3c
00000020: a767 103c 8870 92bc 16e2 e0bb 446b 40be
00000030: 6148 9d3b fa8b a6bb 9021 253c b81d 913c
00000040: 32b9 923d c03b 103c c0e0 ed3c 81f9 3b3c
00000050: 3e7e c1bd f826 6f3d 6836 d938 b157 36bb
00000060: aaff 783c 4c0d 113d 4433 553d 8dcf 473e
00000070: 5926 5bbc 56ac 5cbe e10d 2dbd efb3 43bd
00000080: cd64 a0bc 7a5c 893d 9ed6 8f3d b17b a73d
00000090: 9556 5ebd b0b4 9bbd 67e9 533e 84a2 edbd
000000a0: 04d8 3f3c cce2 bcbc c781 55bc bfc0 6a3c
000000b0: 97c6 1cbd 1e5c b13c 215b 3c3d 3076 e9bd
000000c0: 3a8d 83bd 0d8a cdbb fa75 c7bc 2c1c 3b3d
000000d0: 4c70 953e 63be 8c3b ea6b 123d 7e63 cb3c
000000e0: abd7 a03c de90 8bbc 91e6 1c3e f489 2dbd
000000f0: c4a2 583c 6ae6 e23b 3356 9dbb 3202 68bc
00000100: 9a6e efbc 2d89 f7bc 0944 f43d f06e 3cbd
00000110: 577a abbc 8eae 2e3c d084 57bd a2b8 eaba
00000120: 16b2 323d fb6c 88bc ce95 53bc 7aee ecbc
00000130: c6df b23d 9a8e cebd f389 de3b 514a 12bd
00000140: 0b72 a73d 2f3e 3a3e c490 d9bc 53b7 8b3d
00000150: 8f3b 363e f7da 3f3d ba06 98bc 44b7 97bc
00000160: fd75 b03d 0864 1fbd f86f d4bd 3a6f f2bc
00000170: 354b ef39 f8bb 4abc f4dd 503d ed15 c93d
00000180: 9ae0 483c b8e6 b53b df34 04be 6a51 12be
00000190: 4b10 8fbc c282 5b3c ae3b b4bd af98 7b3d
000001a0: 6c36 f2bc b576 823c 9837 d53c 2547 023e
000001b0: f21d 923b 7de2 ccbc 423d 0ebd cd0e 893a
000001c0: 272d 503c a7e4 eb3a d473 ed3d c035 bb3d
000001d0: b09c 4d3c 4ed1 983d f95e ffbd 2e5c db3c
000001e0: aa47 293d a964 dabc 0ec9 403d 5212 7cbc
000001f0: d3a0 2f3d 53c4 3f3c 588b 013c 85b4 7e3c
00000200: be59 133c 6ad2 f5bd 3fac c9bc cdf9 c23d
00000210: a147 51bd ea61 d43c 234a fa3d d31f a83d
00000220: dda1 923d 021b 1b3c c7b1 d3bc 7557 49bc
00000230: 27d5 3cbd 3516 5dbd 23df cb3c f6eb 6e3d
00000240: e714 423d 67d0 d03a 6edb 873c 9004 8e3c
00000250: b503 a7bc ed9f 083c 9bbe 0abd 8401 b5bc
00000260: f2ee 953d 5812 893b e683 afbb ae61 39be
00000270: c539 9fbe 7226 a33c 3ac0 04be 7aaf 3d3d
00000280: f487 893d 67eb b63c 17a8 9b3a d6ee 4abd
00000290: ac60 a63c 23c2 e5bc 079e 74bd f2ec 8fbd
000002a0: e994 ce3e 5d77 70bc 2e83 b43c c94d 0a3d
000002b0: 7725 c93c f01e 29bc 27f7 6bbc cdac 5d3d
000002c0: 410f 5fbd 01ef 1abd 3f9c ccbc cc95 103c
000002d0: 1f82 5b3c f145 3937 b00b 933b fa13 a63c
000002e0: d94f b53c f314 953c 9e65 ebbd 62d5 ffbc
000002f0: 091e 953c 1963 e8bc e644 6abd a84a 3ebd
00000300: fe5f ed3d 6135 863d c90f 4dbe 19ca 2a3d
00000310: 0a07 0abd b5cb ae3d 448e 10bb adba 85bb
00000320: f901 0abd cf6f 28bd 8c85 86bd 289f 6ebc
00000330: a6a5 d73c 5557 953c 31e7 25bd b987 7b3d
00000340: 81e6 c0bc 5666 b83c 2259 fdbc c153 8bb9
00000350: 2fe8 39bd b0a2 f9bc fcd5 a83d 72f2 7abc
00000360: 319c 12bc 9fd1 e93b 6bd2 653d 279f 33bc
00000370: b0bd c5bc 7751 e9bd 606d 41be c9a6 0bbb
00000380: 7dc0 913c d4bd acbd db72 c1bd 4f72 c0ba
00000390: 88a3 76bd 3a56 813c 38d7 b8bd 5a12 4bbc
000003a0: b9ff efbd 5383 a63c 307d ebbb ea4a 08bd
000003b0: 4c7c f03b f8aa 763d b277 1dbd 5bfa 21be
000003c0: 38b2 5c3d 8700 8339 1978 aa3c 1992 143d
000003d0: 872e afba 1a1e 9b3c ad7f 02bd 8836 da3d
000003e0: b21d 1c3d 7d59 83bd a94b cbbc eb65 05bd
000003f0: 7ce7 853c e3e1 a53c 25de 67bd 3e3f 0d3c
-0.033945113 0.12242504 0.010277102 -0.015784826 -0.012611286 0.011486267 -0.16983908 0.021357931
0.008813775 -0.017875925 -0.006862889 -0.18790919 0.004799888 -0.0050826045 0.010078803 0.017714366
0.071642295 0.008803308 0.029037833 0.011473061 -0.09447907 0.058386773 0.000103575 -0.0027823264
0.015197674 0.03541307 0.052050844 0.19512768 -0.013375842 -0.21550116 -0.042249564 -0.04777902
-0.019579316 0.06707092 0.07023357 0.08177889 -0.05428179 -0.07602823 0.20694505 -0.11603263
0.011709217 -0.023057364 -0.01303143 0.014328181 -0.038275328 0.02165037 0.045985345 -0.113994956
-0.06423421 -0.0062725605 -0.024348248 0.045681164 0.29187238 0.004295157 0.035747446 0.024827715
0.019634089 -0.017036851 0.15322329 -0.04236789 0.0132224 0.00692444 -0.0048015355 -0.01416068
-0.029227544 -0.030216778 0.11927039 -0.046004236 -0.02093236 0.010661734 -0.052616894 -0.0017907808
0.043626867 -0.016653528 -0.012914134 -0.028922308 0.08734088 -0.10085793 0.006791347 -0.035715405
0.08176049 0.18187784 -0.026558287 0.06822076 0.17796157 0.04683968 -0.018557895 -0.018520005
0.086162545 -0.038913757 -0.10372919 -0.029594053 0.00045641666 -0.012373917 0.05099292 0.09818635
0.01226058 0.0055511855 -0.12910794 -0.1428887 -0.017463824 0.013397874 -0.088004455 0.061424907
-0.029566966 0.015925745 0.026027486 0.12722452 0.004459136 -0.025010342 -0.03472639 0.0010456681
0.012706078 0.0017997221 0.11594358 0.091411114 0.012549564 0.07461797 -0.124692865 0.026777353
0.04132811 -0.026659327 0.04706674 -0.015385227 0.042877983 0.011704522 0.007906757 0.015545969
0.008993564 -0.12003024 -0.024618266 0.09520302 -0.0510937 0.025925595 0.12221172 0.08209195
0.07159779 0.009466888 -0.025841607 -0.012288918 -0.046101715 -0.053976256 0.024886673 0.0583305
0.047383215 0.0015931249 0.016584124 0.01733616 -0.02038751 0.0083389105 -0.03387318 -0.02209545
0.07320966 0.004183095 -0.0053562997 -0.18103668 -0.31098762 0.019915793 -0.12963954 0.046309926
0.06715384 0.022329045 0.0011875656 -0.049544178 0.020309769 -0.028046673 -0.05972102 -0.070276156
0.40347984 -0.014676896 0.022035208 0.033765588 0.024553997 -0.0103223175 -0.014402187 0.054119874
-0.054457907 -0.037825588 -0.024976848 0.008824777 0.0133977225 1.1043144e-05 0.0044874772 0.020273197
0.0221328 0.018198466 -0.11493991 -0.031229679 0.018202798 -0.028367566 -0.057194613 -0.046457916
0.11590575 0.0655315 -0.20025553 0.04169664 -0.03369812 0.08534948 -0.0022057453 -0.0040810914
-0.033693288 -0.041122254 -0.06568441 -0.014564313 0.026324105 0.01823012 -0.040503684 0.061408732
-0.023547413 0.022509735 -0.03092629 -0.00026574548 -0.045387443 -0.030473083 0.08243939 -0.0153165925
-0.008948372 0.0071355845 0.056108873 -0.010963238 -0.024138302 -0.11392491 -0.1888938 -0.0021309128
0.01779198 -0.08434644 -0.09445735 -0.0014682504 -0.06021455 0.015788186 -0.09025425 -0.012394512
-0.11718697 0.020326292 -0.0071865544 -0.03327457 0.007339036 0.060221642 -0.03844423 -0.1581816
0.0538809 0.0002498666 0.02080922 0.036272142 -0.0013365307 0.018935252 -0.031860042 0.10654932
0.038114257 -0.06413553 -0.024816351 -0.0325679 0.016345732 0.020249313 -0.056608338 0.008621035

weight_epsilon f4 [256, 128]
00000000: 571b 803e 9469 623f efda ea3e 677b 2bbf
00000010: 7535 943e 49d9 eb3e f797 463e 49bf 57bf
00000020: 8034 833f 2f0d afbe 545b d2be 4c24 21bf
00000030: 20ec 70bf a658 21bf 774c 93bf b259 17bf
00000040: c216 0ebf dd4e 78bf 1cb7 153f 397c 14bf
00000050: 6f37 79bf 435e 943f a86d 033f b9c4 ae3e
00000060: 9bf9 f03e 8458 303f 7379 3c3f 0e6a 9cbf
00000070: 6eed d73e fb3e 53bf e72b 023f c413 57bf
00000080: 8f61 603f b8b7 11bf e0cf d43d e2ca 5cbf
00000090: ef94 2f3e 5d79 7b3f 60df 713f 32be 6bbf
000000a0: 3f58 453f 3b56 29bf b58c b6be 2f7b 4ebf
000000b0: 7f89 41bf b153 c3bd e844 823f cea3 883f
000000c0: 4168 1c3f 681d 673e 226d ccbe f370 d3be
000000d0: 112b 0cbf e5dc 0dbf eeb6 23bf fbb2 1b3f
000000e0: aa15 3a3f 7b5d 033f 0a74 53bf 9da3 943f
000000f0: 2a5c 053f 8f5c 8a3f a2b6 87bf 1897 b53e
00000100: b3dd 233f 4769 88bf 3751 7c3f 7b43 2cbf
00000110: dc80 45bf 5f67 68bf b3f3 0abf 3223 94bf
00000120: e774 ebbe d020 2fbf db26 87bf 0691 09bf
00000130: 7cb4 85bf 06e3 c13e bfa0 903e 5d1d 003f
00000140: f677 cebe f122 a0be 4f09 52bf 4518 abbe
00000150: 3ea5 1bbf c4bc 5b3f e617 dabe 0d81 023f
00000160: 05e1 2b3f 7b3d fa3e bf0f f1be 9d41 ca3e
00000170: ae82 b13e 6332 083f c17d ee3e fc13 59bf
00000180: 5e15 2abf e8ca 25bf fc89 f63e d8f3 63bf
00000190: ed64 26be af10 173f 1a1d 08bf b2cc 183f
000001a0: da48 94bf 9439 253f deda 47bf 7212 f43e
000001b0: 6f9f 203f eeb5 573f da70 39be aeb4 95be
000001c0: 736b 5f3e 5452 00bf 36a2 083f 4c67 103f
000001d0: 5c13 8bbf f291 723f ebe3 f8be 862a 0bbf
000001e0: 440f 293f 61a9 5dbf 3102 0b3f bbef 673f
000001f0: 9076 86bf 7bdb 223f 68e6 5dbf e26a 11bf
00000200: 48e9 cabe 544f b3bf 0aff 39bf a1ce 873f
00000210: 55c0 eabe 7ac8 3abf 4947 9dbe 0bdd aa3f
00000220: 97d1 cfbf 4fa2 0a3f 2b98 263f 733c 7f3f
00000230: 1bcd be3f 5e8f 7f3f 4b4f e93f 30ba 6f3f
00000240: ce0e 613f 7fa6 c43f 2d23 6dbf 6b30 6b3f
00000250: b05e c53f f800 ebbf 1f2c 50bf ec68 0abf
00000260: c9d7 3ebf b6a8 8bbf b343 95bf 85bf f73f
00000270: 9701 2bbf 764c a73f 7c2e 4ebf 3555 aa3f
00000280: 7fb3 b1bf 35ce 663f f489 28be f0db ae3f
00000290: d20d 8bbe 6228 c7bf c18d bfbf 06b3 ba3f
000002a0: 154a 9cbf b51b 863f 7f92 103f 6e86 a33f
000002b0: 1e46 993f feb0 1a3e 1756 cebf 4f6d d8bf
000002c0: abbc 77bf b708 b7be d2e5 213f 0974 273f
000002d0: 0104 5e3f 28b3 603f d6a7 813f 8b9d 76bf
000002e0: 315f 93bf 8012 50bf 7b76 a73f d06e ebbf
000002f0: 623b 53bf 6d27 dbbf a5f5 d63f fbcf 0fbf
00000300: 8ac6 81bf 9b10 d83f 54d3 c7bf 156d 883f
00000310: 3f6a 9c3f 090e b83f d316 5c3f 68a3 ea3f
00000320: fa78 3a3f dbb1 8a3f e911 d63f 0be5 593f
00000330: 47c7 d33f 058d 19bf 5514 e5be 7dec 4abf
00000340: e183 233f d1a4 fd3e 3757 a63f 1f80 073f
00000350: c887 763f 0406 aebf b4b8 2c3f 5bb5 4ebf
00000360: 1b1f 88bf 382e 46bf 51e9 3e3f de2d 20bf
00000370: d894 0cbf aab9 57bf 37e0 3cbf ddea ab3f
00000380: 14b3 863f 244d 833f d63f 43bf 9287 b43f
00000390: 1fc7 833e 8b46 6fbf f397 573f d205 72bf
000003a0: 0edf ea3f 0cda 82bf 0347 9e3f ae4b 41bf
000003b0: 016a 7ebf a3d5 aabf aadc 923e 541f ed3e
000003c0: 95f0 b0be 6140 4b3f c86a 58bf 57b9 64bf
000003d0: f748 dc3f 2c1b c0bf 8b1c 453f a96d 5c3f
000003e0: 81e3 85bf 268c af3f c62d 5cbf 49af b7bf
000003f0: adfa d43f 0afa 80bf 7abc af3f 8154 663f
0.2502086 0.8844235 0.45870158 -0.6698517 0.28947034 0.46064213 0.19393907 -0.84276253
1.0250397 -0.34189746 -0.41085303 -0.6294601 -0.941103 -0.6302589 -1.150771 -0.5912124
-0.55503476 -0.96995336 0.5848253 -0.5800205 -0.9735021 1.1591266 0.513392 0.34134462
0.47065434 0.68885064 0.73622817 -1.2219865 0.42173332 -0.82517976 0.5084824 -0.84014535
0.8764886 -0.5692096 0.103912115 -0.86247075 0.17146657 0.9823206 0.9448147 -0.9208709
0.7708778 -0.661472 -0.35654226 -0.80656713 -0.7560043 -0.09537447 1.0177279 1.0674989
0.6109658 0.22569811 -0.39927012 -0.4129711 -0.54753214 -0.55415183 -0.63951004 0.6081998
0.72689307 0.51314515 -0.82598937 1.1612431 0.52093756 1.0809497 -1.060261 0.35466838
0.6401016 -1.0657128 0.98561424 -0.6729047 -0.7714975 -0.9078273 -0.54278105 -1.1573241
-0.45987627 -0.6840944 -1.0558733 -0.53736913 -1.0445704 0.37868518 0.2824764 0.50044805
-0.40325898 -0.31276658 -0.82045454 -0.33416954 -0.60799015 0.8583491 -0.42596358 0.50978166
0.6714023 0.4887503 -0.47082326 0.39503184 0.34670013 0.53201884 0.46580318 -0.8479612
-0.66438854 -0.64762735 0.4815215 -0.8904395 -0.16249438 0.5900983 -0.53169405 0.5968734
-1.1584733 0.6454098 -0.7806834 0.47670323 0.62743276 0.8426198 -0.18109456 -0.2923941
0.21818332 -0.5012562 0.53372514 0.5640762 -1.0865283 0.94753945 -0.48611388 -0.5436176
0.6603892 -0.86586577 0.5430022 0.90600175 -1.0504932 0.6361615 -0.866797 -0.56803715
-0.39631104 -1.4008584 -0.72654784 1.0609933 -0.45849863 -0.7296215 -0.3071845 1.3348707
-1.6235837 0.54153913 0.6507594 0.99701613 1.4906343 0.99828136 1.8227323 0.93643475
0.87913215 1.536331 -0.926318 0.91870755 1.5419521 -1.8359671 -0.81317323 -0.5406635
-0.7454801 -1.0910861 -1.1661285 1.9355322 -0.667993 1.3070209 -0.8053968 1.3307253
-1.3882903 0.90158397 -0.16458875 1.366087 -0.27158982 -1.5559199 -1.4965135 1.4585884
-1.2210108 1.0477206 0.56473535 1.27754 1.1974523 0.1510658 -1.6120023 -1.6908358
-0.9677226 -0.35748836 0.632413 0.6541143 0.8672486 0.8777337 1.0129344 -0.9633414
-1.1513425 -0.8127823 1.3083032 -1.8393192 -0.82512486 -1.7121407 1.6793715 -0.5617673
-1.0138714 1.6880068 -1.5611367 1.0658289 1.2219924 1.4379283 0.85972327 1.8331118
0.72840846 1.0835527 1.6724216 0.85115117 1.654519 -0.59980804 -0.44742075 -0.792671
0.63873106 0.49539807 1.2995366 0.5292987 0.96300936 -1.3595586 0.67469335 -0.80745476
-1.0634493 -0.77414274 0.7457476 -0.6256999 -0.5491462 -0.84267676 -0.73779625 1.343105
1.05234 1.0257916 -0.7626928 1.4103873 0.25737855 -0.93467015 0.8421623 -0.9454013
1.8349321 -1.0222793 1.2365421 -0.75506103 -0.993805 -1.3346447 0.28683978 0.46312964
-0.3455855 0.7939511 -0.84537935 -0.89345306 1.7209767 -1.5008292 0.7699668 0.8610483
-1.0460054 1.3714645 -0.86007345 -1.4350368 1.6639 -1.0076306 1.3729393 0.8997269

bias_epsilon f4 [256]
00000000: 444c 47bf 14d6 9d3f 0f10 0dbf 72c0 a1bf
00000010: 8e2c 3d3f 14e3 b23f 92c1 a13f 08e2 523f
00000020: c2d4 6d3f 6c70 463f d114 62bf 1f10 83bf
00000030: e7a3 8f3f 04c2 55bf 020c cfbe cd5e 8f3f
00000040: be71 f6be 00e2 f03d e3f1 13bf 89c8 773f
00000050: 5ede 243f 8ef1 d93e aeb3 77bf b81f db3e
00000060: f927 04bf 4ac4 b5bf b176 0dbf 019b 993f
00000070: ab95 69bf 3efe 733f 45af 033f 06b0 27bf
00000080: cf86 52bf 6f06 86bf 21a2 b23f 0b49 ff3e
00000090: 7890 af3f 379e 8d3f 2fda 3dbf ccd1 a43f
000000a0: 729a 05bf d108 b33f 16b4 143f 4194 b0bf
000000b0: f45b 873f 8a83 89bf 7991 303f e892 873f
000000c0: 8d2c 5dbf 0413 5a3f 5410 443f f1c1 95bf
000000d0: 3dc0 b2bf f2d6 8d3f 6965 583f 41ae e43e
000000e0: 2379 d1be 0e84 443f 853e 43bf db27 d8bf
000000f0: 8ac4 a13f 8d7f 373f 991d e23e 4964 1dbe
00000100: eddc 0cbf 5514 a33f 7570 ba3e 10ee debe
00000110: 6de0 a0bf f0c7 7cbf 1bae 1cbf cdf6 a23f
00000120: 21c7 6ebf f635 40bf ff00 88bf 97e9 14bf
00000130: 4026 4d3f 6b2f 2dbe baab 843f 3421 49bf
00000140: 89fb 6bbe 368b 833f f8ef 24bf 880b 343f
00000150: 6021 25bf befe d03e d384 5e3f 678e 83bf
00000160: 29d3 4d3f 31e7 7abf 68c4 583f 2817 e8be
00000170: 2e52 29bf 6ce4 7dbf 8ac7 e8be 60bb 353f
00000180: 2c7d 733f 845a 9ebf 2470 3e3f bc02 17bf
00000190: 2ad7 be3e 9ff8 873f d3ee f2be 1dfe 1bbf
000001a0: 1e80 3d3f 4df3 3c3f ce6e 813e 5beb 0bbf
000001b0: 82c1 333f 5051 b2bf 736c 023f 226d 6c3f
000001c0: 3c46 e1be a36b 02bf 3801 53bf 00b6 85bf
000001d0: ed0d 92bf 55d2 8e3f 3e5c 13bf dddc 373f
000001e0: cfd8 e7be 5eb8 5d3f e0b9 7abf 44b3 1cbf
000001f0: e6b3 5a3f 285b c03f 82ae 883f 42da 5cbf
00000200: aa08 0a3f 0b84 883f 1096 71bf e488 16bf
00000210: c7e8 93bf de53 a2bf dc1b 22bf 2ee0 813f
00000220: f301 293f a4bc 903f 11a9 c73f 707c 77be
00000230: a471 56bf 2fa5 69bf 7a9e 833f d727 7cbf
00000240: 6f50 a73e 70cb 75bf bead 7dbf 947e 6f3f
00000250: b1f8 9fbe 83d0 833f dd73 363e d47e 563f
00000260: 4430 f13e 1501 773f a74b 65bf 572a 5dbf
00000270: 6b33 84bf 8d7f 89bf 16dc b9bf ff09 be3f
00000280: 0d96 cd3f f572 d4be 7587 253f ae30 61bf
00000290: 5a50 86bf c388 a6be 8c52 37bf 4922 523f
000002a0: 6854 b1be 7a82 953f 6224 01bf f70c ecbe
000002b0: fb72 1c3f 9861 16bf cc17 fa3c d8cf 843f
000002c0: 4171 c3be 1778 e8bd 1ce6 ad3e ed14 82bf
000002d0: 99cd 113f 27ed 59bf 824f 743f 799b b53f
000002e0: bde7 a43f b7c1 633f 7d5a 593f 10fd d13e
000002f0: 76e4 323f 6fa2 dfbe 51b8 a7bf 5d02 743f
00000300: 04b1 763f 37cb 9bbf 5fee 053f f8bf ccbe
00000310: 2ee7 a5bf 73cf 7b3f 791c 933f a66d 79bf
00000320: b120 2f3f 6696 0fbf 5c85 3d3f 96f7 c1bf
00000330: 281c ad3e 8006 e7be ff2e 523f 68a7 5bbe
00000340: 3be9 01bf 46c9 85bf 3c51 98bf 1897 8cbf
00000350: e600 93bf fd69 7fbf 620b 173f d7f5 823f
00000360: 20ab 7b3f 6844 7cbf d786 36bf fd1e 40bf
00000370: 7756 24bf 9870 8e3f 17cf 543f afdf 653f
00000380: 3342 dcbe 319d 993f 8789 80be 8452 393f
00000390: 2edd 883f bdd1 623f 3602 73bf 02e8 413f
000003a0: 3b44 8abf 0c18 57bf af75 5e3f 08d7 a4bd
000003b0: f720 f6bc 4168 193f c0fc 8ebe d96a 933f
000003c0: e36b 35be c1fd 9fbf 4597 4c3e 7e20 25bf
000003d0: edf4 5ebf 1eee e6be cc50 923f 9384 f23e
000003e0: be76 973f 2d2a 79bf 931d 6fbf b80f ae3e
000003f0: 846b 3c3e 1baa 363f d02d 6cbf 631a a73f
-0.7785075 1.2330956 -0.5510263 -1.2636855 0.7389611 1.3975549 1.2637198 0.82376146
0.9290277 0.7751529 -0.88313013 -1.0239295 1.1221894 -0.8349917 -0.4043885 1.1200806
-0.48133653 0.11761856 -0.57790965 0.9679037 0.64401805 0.42567104 -0.96758544 0.42797637
-0.51623493 -1.4200528 -0.55259234 1.2000428 -0.91244 0.9530982 0.51439315 -0.65502965
-0.8223695 -1.0470713 1.3955728 0.49860415 1.3715963 1.1063908 -0.74161047 1.2876525
-0.5218879 1.3987066 0.5808729 -1.3795244 1.0574937 -1.0743268 0.68971974 1.0591707
-0.86396104 0.85185266 0.76587415 -1.1699811 -1.3964916 1.1081221 0.8452974 0.44664195
-0.40912732 0.76764 -0.7626727 -1.6887163 1.2638104 0.71679 0.44163206 -0.15370287
-0.55024606 1.274058 0.36413923 -0.43541002 -1.2568489 -0.9874258 -0.61203164 1.2731568
-0.93272597 -0.7508234 -1.0625304 -0.5816893 0.8013649 -0.1691262 1.0364907 -0.7856629
-0.23045172 1.0276859 -0.64428663 0.70330095 -0.6450405 0.40819353 0.86921424 -1.0277833
0.8040033 -0.9800902 0.8467469 -0.45330167 -0.6614102 -0.9917667 -0.45464736 0.70989037
0.9511287 -1.2371373 0.74389863 -0.5898855 0.37273532 1.0622748 -0.47447833 -0.6093462
0.74023616 0.7380875 0.2527985 -0.54656 0.70217144 -1.3931065 0.5094673 0.92354023
-0.43998897 -0.5094549 -0.82423735 -1.0446167 -1.14105 1.1157938 -0.57562625 0.71821386
-0.452826 0.86609447 -0.9793987 -0.6121104 0.85430753 1.5027819 1.0678256 -0.86270535
0.5391947 1.0665296 -0.943696 -0.5880263 -1.1555413 -1.2681844 -0.6332376 1.0146539
0.660186 1.1307569 1.559847 -0.24168563 -0.8376715 -0.91267675 1.0282738 -0.9849829
0.32678553 -0.96013546 -0.99093235 0.9355252 -0.31244424 1.0298008 0.17817636 0.83787274
0.47107136 0.96486026 -0.8956856 -0.8639273 -1.0328192 -1.074205 -1.452029 1.48468
1.6061417 -0.41493955 0.64659816 -0.87964904 -1.0493271 -0.32526216 -0.7161033 0.82083565
-0.3463471 1.1680443 -0.5044614 -0.4610364 0.61112946 -0.58742666 0.030528925 1.0375929
-0.38172343 -0.1135103 0.33964622 -1.0162636 0.5695434 -0.8512749 0.9543382 1.4188071
1.2883221 0.8896746 0.849037 0.41013384 0.69879854 -0.43678614 -1.3103124 0.95316106
0.96363854 -1.2171391 0.5231685 -0.3999021 -1.2961175 0.9836342 1.1493064 -0.97432935
0.6840926 -0.56088865 0.74031615 -1.5153682 0.33810544 -0.45122147 0.8210296 -0.21450579
-0.50746506 -1.0452049 -1.1899791 -1.098361 -1.1484649 -0.997711 0.59001744 1.0231274
0.9830799 -0.9854188 -0.712995 -0.75047284 -0.64194435 1.1128111 0.83128494 0.8979444
-0.43019256 1.2001096 -0.25104925 0.72391534 1.0692499 0.88601285 -0.9492525 0.7574464
-1.0802072 -0.8402107 0.8689832 -0.080488265 -0.030045016 0.59924704 -0.27927208 1.1516982
-0.17716937 -1.2499315 0.1997958 -0.64502704 -0.8709248 -0.45103544 1.1430907 0.4736677
1.1833112 -0.9732998 -0.934045 0.33996367 0.18400389 0.7135331 -0.92257404 1.3054928

epsilon_in f4 [128]
00000000: ea8d a4be 176a 91bf 3bd6 16bf 3045 5c3f
00000010: 2660 bebe 9779 17bf 6718 7fbe 8c90 8a3f
00000020: bd88 a8bf f2da e03e 431a 073f f4fc 4e3f
00000030: c6bb 9a3f 3340 4f3f df34 bd3f 3469 423f
00000040: b683 363f 1c7a 9f3f 864f 40bf 0cbb 3e3f
00000050: 7b0f a03f 9194 bebf 28d2 28bf de7d e0be
00000060: 6fc4 1abf 8c84 62bf dc18 72bf 63ea c83f
00000070: 2fae 0abf 79ac 873f dc34 27bf 6322 8a3f
00000080: 1b1c 90bf f82c 3b3f f3ad 08be 15ce 8d3f
00000090: 5289 61be a882 a1bf 0158 9bbf 3168 973f
000000a0: b87d 7dbf c583 593f 977c ea3e 0e9d 843f
000000b0: a599 783f 34e6 fa3d fa54 a7bf e283 afbf
000000c0: 13e8 48bf 416f 94be 324b 033f 91cc 073f
000000d0: 210c 343f 6339 363f f94a 523f 3aff 47bf
000000e0: 0507 6fbf 61bd 28bf 8dce 873f a5ed bebf
000000f0: 5b4d 2bbf 08ba b1bf 3b53 ae3f 1941 e9be
00000100: c67c 52bf b438 af3f 4a0d a2bf 3046 5d3f
00000110: e3b1 7d3f 2d43 953f 2d7c 323f b148 be3f
00000120: 1e39 173f 29f4 603f 8c9a ad3f 97b4 303f
00000130: cebe ab3f a50c f9be a0c6 b9be 8490 24bf
00000140: fc9a 043f 61b2 cd3e 96e5 863f d9c5 db3e
00000150: 94ed 473f 9920 8dbf 4b12 0c3f 3ca2 27bf
00000160: b7c7 5cbf c8b7 20bf a7d2 1a3f 69e6 01bf
00000170: 8a03 e4be 32f2 2ebf 0e2c 19bf 5d6b 8b3f
00000180: 4979 5a3f 4df6 543f 3f57 1ebf 4f67 923f
00000190: 25bc 553e 6b0b 42bf dbd6 2e3f c145 44bf
000001a0: 1079 be3f a13b 54bf 965b 803f a3c1 1cbf
000001b0: 4a52 4ebf 8a8a 8abf 5033 6e3e 674c c03e
000001c0: 0a7e 8fbe 8cd4 243f d581 2fbf d57c 39bf
000001d0: d7a4 b23f b1ca 9bbf d7d9 1f3f 99c2 323f
000001e0: 9d28 59bf fb5c 8e3f ca8e 32bf 56f6 94bf
000001f0: 19b8 ac3f 1731 51bf 2d84 8e3f 46ca 3a3f
-0.32139522 -1.1360501 -0.5892064 0.8604307 -0.3718273 -0.59169906 -0.24911653 1.0825362
-1.3166729 0.43917042 0.5277445 0.80854726 1.2088554 0.80957335 1.478176 0.7594178
0.71294725 1.245914 -0.75121343 0.7450416 1.2504724 -1.4889089 -0.65945673 -0.4384603
-0.60455984 -0.884835 -0.9456918 1.5696529 -0.54172033 1.059951 -0.6531503 1.0791744
-1.1258577 0.7311549 -0.13347606 1.1078516 -0.2202504 -1.2617998 -1.2136232 1.1828672
-0.99019957 0.8496669 0.4579818 1.0360429 0.9710944 0.12250939 -1.3072808 -1.3712122
-0.7847912 -0.2899113 0.51286614 0.5304652 0.7033101 0.71181315 0.8214565 -0.7812382
-0.93370086 -0.6591397 1.0609909 -1.4916273 -0.6691491 -1.3884897 1.361915 -0.45557478
-0.8222164 1.368918 -1.2660306 0.8643522 0.9909956 1.1661125 0.6972073 1.4865934
0.5907153 0.8787256 1.3562789 0.6902556 1.3417604 -0.4864246 -0.3628435 -0.64283013
0.5179899 0.40175155 1.0538814 0.42924383 0.7809689 -1.1025573 0.5471541 -0.65481925
-0.8624224 -0.6278043 0.6047768 -0.50742203 -0.4453395 -0.6833831 -0.5983285 1.089214
0.85341316 0.83188325 -0.61851877 1.1437777 0.20872553 -0.7579867 0.68296593 -0.76668936
1.4880695 -0.82903486 1.002795 -0.61232966 -0.80594313 -1.0823529 0.23261762 0.3755829
-0.28025848 0.6438682 -0.6855748 -0.72456104 1.3956555 -1.2171232 0.6244177 0.6982818
-0.84827596 1.1122125 -0.6974913 -1.1637676 1.3493682 -0.8171553 1.1134087 0.72964895
