save/model/lunarlander_dqn_dueling_noisy_hid_128_256.pth (torch_old, 824133 bytes, 30 tensors)

weight f4 [128, 8]
0	0xbde563c0	-0.112006664
1	0x3ee721b3	0.45142898
2	0x3e1a9f42	0.15099815
3	0xbf0d4f7a	-0.55199397
4	0xbf20bab2	-0.62784874
5	0x3eec3ff8	0.46142554
6	0x3ed500b1	0.4160209
7	0xbe824f85	-0.25451294
8	0xbe911d08	-0.28342462
9	0xbf11a134	-0.568866
10	0x3f67ba6e	0.90518844
11	0xbe61dfe0	-0.22058058
12	0xbf43d3eb	-0.76495236
13	0x3edcc718	0.43120646
14	0x3f2ee2ec	0.68315005
15	0xbece31d3	-0.40272388
16	0xbe7a56e3	-0.24447207
17	0x3e5b1ef1	0.21398522
18	0xbf073590	-0.52816105
19	0x3ef82b46	0.48470515
20	0x3f9e4dd3	1.23675
21	0x3ee14024	0.43994248
22	0xbf4f80cd	-0.8105591
23	0xbeda81b2	-0.42677075
24	0x3e92e0bf	0.28687093
25	0xbe49ccac	-0.19706982
26	0xbdfbb8fd	-0.12291143
27	0x3eef4b5e	0.46737188
28	0xbf6f9c31	-0.93597704
29	0x3f0b6e0e	0.54464805
30	0x3e958112	0.29200035
31	0xbf36d96a	-0.714255
32	0x3d4b6033	0.04965229
33	0xbf2fffcc	-0.6874969
34	0xbf00579c	-0.5013368
35	0xbf17b8bd	-0.59266263
36	0xbf9edf5f	-1.2411917
37	0x3eb871e1	0.36024383
38	0xbde03787	-0.10948091
39	0x3e6ead4b	0.23308294
40	0x3c879e20	0.016554892
41	0x3cb25cde	0.021772798
42	0xbe8b7429	-0.2723706
43	0x3ceeea8d	0.029164577
44	0xbfe73a43	-1.8064655
45	0xbeffb98d	-0.49946252
46	0xbe48e97f	-0.19620322
47	0x3da8d496	0.082436725
48	0xbf185cfd	-0.5951689
49	0xbf5daef9	-0.8659511
50	0x3fd53f31	1.665991
51	0x3f8f7504	1.1207585
52	0xbf39945c	-0.72492003
53	0xbe00c49d	-0.12575002
54	0x3edfebd6	0.43734616
55	0xbc4e08f1	-0.012575374
56	0xbe8dbc40	-0.27682686
57	0x3d9a4e01	0.07534409
58	0x3ea2ff26	0.31835288
59	0xbeb72bc0	-0.35775566
60	0xbf9a81c0	-1.2070847
61	0xbdca48b2	-0.09877147
62	0xbd41057a	-0.047124363
63	0x3ecc4acc	0.39900815
64	0xbea5c97e	-0.3238029
65	0x3db7f900	0.0898304
66	0x3edcfa66	0.4315979
67	0xbed216d1	-0.41033033
68	0x3e3bfcbc	0.1835813
69	0xbf0b35c2	-0.543789
70	0xbf1fa36f	-0.62358755
71	0xbeaba5b1	-0.3352485
72	0x3cca265f	0.0246765
73	0xbd2303b4	-0.039798453
74	0x3fb05771	1.3776685
75	0x401a515c	2.4112158
76	0x3c9eca94	0.019383706
77	0x3e3b92bc	0.18317693
78	0xbf4a6f57	-0.7907614
79	0x3db15574	0.08658877
80	0x3dcee525	0.101022996
81	0xbd23059e	-0.03980028
82	0x3e5129e3	0.20426135
83	0xba4ae027	-0.000773909
84	0x3d328f8d	0.043593932
85	0x3d827814	0.06370559
86	0xbdedb5ea	-0.11606963
87	0xbeac7965	-0.33686367
88	0x3e778cca	0.241748
89	0x3e8e973e	0.27849764
90	0xbe94ca6f	-0.29060695
91	0xbf061ffa	-0.5239254
92	0xbf297c24	-0.6620505
93	0x3ec2340a	0.37930328
94	0x3d2f85b6	0.042852126
95	0x3e480c36	0.19535908
96	0xbf01caf6	-0.5070032
97	0x3d23a5e2	0.03995312
98	0x3eb3823b	0.35060295
99	0xbe9f52f8	-0.31117988
100	0xbe931628	-0.2872784
101	0x3efac60e	0.4897923
102	0x3ea6f0c0	0.32605553
103	0xbf489019	-0.78344876
104	0xbe21fc32	-0.15818861
105	0xbe9a28b3	-0.30109176
106	0x3f2e1142	0.67995083
107	0x3f8f8b2b	1.1214346
108	0x3ec91825	0.39276233
109	0x3dce7b89	0.10082156
110	0x3e4ab57e	0.19795796
111	0x3f02108a	0.50806487
112	0x3e92fa88	0.28706765
113	0xbeadb218	-0.33924937
114	0x3e0f34a6	0.13984928
115	0x3d5f695a	0.05454383
116	0xbfa10780	-1.2580414
117	0xbecb20d3	-0.3967348
118	0x3e111475	0.1416796
119	0x3e1459d0	0.14487386
120	0xbf26154d	-0.6487625
121	0xbe459993	-0.19296865
122	0xbec642f3	-0.38722953
123	0x3e826de4	0.25474465
124	0x3f24620b	0.642121
125	0xbf4e289e	-0.80530727
126	0xbea6b433	-0.32559356
127	0x3e1d8929	0.15384354
128	0xbd89ed90	-0.067347646
129	0x3cd33796	0.025783341
130	0xbf6e9f8b	-0.93212193
131	0x40449382	3.0715032
132	0x3b8795e4	0.0041377414
133	0x3d28bac4	0.04119374
134	0x3e9867c6	0.29766673
135	0x3e4a99dd	0.19785257
136	0xbeec8f0c	-0.46202886
137	0xbdbea40f	-0.093086354
138	0xbf2469c6	-0.642239
139	0x3f8c2b42	1.0950701
140	0xbf110956	-0.5665487
141	0xbf0b2ab7	-0.5436205
142	0x3ed79fc4	0.4211408
143	0x3e8315ef	0.25602672
144	0xbd538e9f	-0.051649686
145	0xbd877e74	-0.06615916
146	0xbf814c77	-1.010146
147	0xbf4a450c	-0.7901161
148	0x3e478d7f	0.1948757
149	0x3e59fe02	0.21288303
150	0xbf85e273	-1.0459732
151	0x3f00c991	0.50307566
152	0x3e714a47	0.23563491
153	0xbf0eae5d	-0.5573481
154	0xbf33676d	-0.7007969
155	0xbf4ddb92	-0.8041316
156	0x3e093f9f	0.13403176
157	0xbc68d274	-0.014210332
158	0xbdf226fb	-0.11823841
159	0x3e2dc604	0.16970068
160	0x3dd7a71d	0.10529921
161	0xbf528066	-0.8222717
162	0xbea6163e	-0.32438844
163	0xbef8b155	-0.48572794
164	0x3e9e1215	0.3087317
165	0xbd0481d8	-0.03235039
166	0x3e3956d4	0.18099529
167	0xbeb28ad5	-0.34871545
168	0xbe707ccf	-0.2348511
169	0x3ef4c0b5	0.47803274
170	0x3e250ed9	0.16118945
171	0xbf0dd703	-0.55406207
172	0x3f4cb107	0.7995762
173	0xbedbaa61	-0.42903426
174	0xbf6e87e7	-0.9317612
175	0xbe02e57e	-0.12782857
176	0xbe9456b8	-0.2897241
177	0x3e67ceb7	0.22637449
178	0x3f617ef9	0.8808437
179	0xbe8212ed	-0.25405064
180	0x3c0861e7	0.008324123
181	0xbf198a6d	-0.59976846
182	0x3f016212	0.5054027
183	0xbdfdbfa0	-0.12390065
184	0x3efce978	0.49396873
185	0xbf74d6b5	-0.95640117
186	0xbd0c5a1e	-0.03426563
187	0x3e40cdab	0.18828456
188	0xbf01a7f8	-0.50646925
189	0x3ee87e51	0.45408872
190	0xbec37438	-0.38174605
191	0xbd8b45aa	-0.06800397
192	0x3dc487e0	0.095962286
193	0xbeca79b0	-0.39545965
194	0xbfbea0e3	-1.4892849
195	0x3f7b217e	0.9809798
196	0x3e404534	0.18776399
197	0xbe03772f	-0.12838434
198	0xbeec6b1d	-0.4617547
199	0xbd385fc0	-0.04501319
200	0x3de3f960	0.11131549
201	0x3d8993d8	0.06717652
202	0x3d595f26	0.053069256
203	0x3eb5c3ac	0.35500848
204	0xbf0eea59	-0.55826336
205	0xbf2c66e9	-0.6734453
206	0xbee926e8	-0.45537496
207	0xbf16567b	-0.5872571
208	0xbe28ffa4	-0.16503769
209	0xbe7831bb	-0.2423772
210	0xbed07528	-0.40714383
211	0x3f9f9342	1.2466815
212	0x3f41fc06	0.7577518
213	0xbf5f0887	-0.87122387
214	0xbcf5d23e	-0.030007478
215	0x3e006833	0.12539749
216	0x3d91a8ec	0.071122974
217	0x3e346a14	0.1761859
218	0xbd694b58	-0.05695662
219	0xbec11246	-0.37709254
220	0xbe8d6f5f	-0.27624032
221	0x3f16010c	0.5859535
222	0xbeba800d	-0.3642582
223	0x3ef43cca	0.47702628
224	0x3b691e90	0.0035571195
225	0xbeb05f64	-0.34447777
226	0x3f8e5bf8	1.1121817
227	0x3fc4423e	1.5332716
228	0xbedfc78c	-0.4370693
229	0xbebcd70f	-0.36882827
230	0x3f315671	0.69272524
231	0x3de19906	0.11015515
232	0xbe9d4e8a	-0.30723983
233	0x3e797eaa	0.24364725
234	0xbea63086	-0.32458895
235	0x3f0301f8	0.5117488
236	0xbefa69ae	-0.48908752
237	0xbefb322a	-0.4906171
238	0xbd887765	-0.06663398
239	0x3f036f35	0.51341563
240	0x3f122970	0.5709448
241	0xbed6a04e	-0.41919178
242	0x3e2f9e8a	0.17150322
243	0xbef72549	-0.48270634
244	0x3f09ff1b	0.53904885
245	0xbdd8589a	-0.105637744
246	0x3ea2bb99	0.3178375
247	0xbeab081b	-0.3340462
248	0xbda58cf9	-0.08083529
249	0x3c0bb43d	0.008526859
250	0xbffdcf3f	-1.9828871
251	0x3f56116b	0.8362033
252	0xbdc9246f	-0.09821402
253	0x3b0c93ba	0.0021450357
254	0x3ca89808	0.020580307
255	0xbbb606b7	-0.0055549997

bias f4 [128]
0	0xbed3dd3d	-0.4137973
1	0x3c14b11c	0.009075429
2	0x3e71e99f	0.23624276
3	0xbe3a6bca	-0.18205181
4	0x3c6276df	0.013822286
5	0x3d905a08	0.07048422
6	0xbed37a73	-0.4130436
7	0xbe0531a5	-0.13007219
8	0xbe251535	-0.16121371
9	0xbcd90c00	-0.02649498
10	0xbe8b4441	-0.2720051
11	0xbefdbb75	-0.4955708
12	0xbeaa2bd2	-0.33236557
13	0xbe698e5f	-0.22808217
14	0x3e0b6a13	0.13614683
15	0xbe53bac6	-0.20676717
16	0x3c0006f0	0.007814154
17	0xbe8bc36d	-0.27297536
18	0x3dcd6421	0.10028864
19	0xbda12da3	-0.07870033
20	0xbeb1055c	-0.345744
21	0xbe3cff54	-0.18456775
22	0xbed159a7	-0.40888712
23	0xbedcc393	-0.4311796
24	0x3d939ada	0.0720727
25	0xbeb4e2d0	-0.35329294
26	0xbe67faa6	-0.22654209
27	0xbef8581c	-0.48504722
28	0xbea2b611	-0.3177953
29	0xbf065ba0	-0.5248356
30	0xbeb55cac	-0.35422266
31	0x3c8275da	0.015925337
32	0x3e47529b	0.19465105
33	0xbcdc02e8	-0.026856855
34	0xbd978808	-0.07398993
35	0x3e335780	0.17513847
36	0xbf17bced	-0.5927265
37	0xbeb7e58b	-0.35917315
38	0x3e0e78e5	0.13913305
39	0x3e9a102b	0.3009046
40	0x3c14e721	0.009088309
41	0xbeedbf88	-0.4643519
42	0xbf24b9b7	-0.6434588
43	0xbe47514a	-0.19464603
44	0xbd7765d6	-0.060399853
45	0x3d705cb9	0.058682177
46	0x3c366e00	0.0111346245
47	0xbde88575	-0.1135358
48	0x3dbfa4e7	0.093576245
49	0xbea289fb	-0.31745896
50	0xbedb9358	-0.42885852
51	0xbea3ed78	-0.32017112
52	0xbf406d8c	-0.75167155
53	0x3cb7907b	0.02240776
54	0x3e58c5b3	0.21169166
55	0xbcb8518f	-0.022499828
56	0xbf328e5d	-0.6974848
57	0x3c04b9d7	0.008100948
58	0xbdddde5f	-0.108334295
59	0x3e04fc2f	0.12986825
60	0xbecc8489	-0.39944866
61	0xbd16d4bc	-0.036823973
62	0xbf1e05e4	-0.6172774
63	0xbf3b673d	-0.73204404
64	0x3e95472a	0.29155856
65	0x3e7b71b0	0.24555087
66	0xbe8398ab	-0.25702414
67	0xbf285440	-0.65753555
68	0xbdaa41f8	-0.08313364
69	0xbe17ae72	-0.1481264
70	0xbc49351a	-0.012280727
71	0x3c117079	0.008876913
72	0xbd46ebf9	-0.048564885
73	0xbd864cf3	-0.06557646
74	0x3c469f41	0.01212293
75	0xbc8c4cd2	-0.017126475
76	0xbd9f1525	-0.07767705
77	0xbeab1071	-0.3341098
78	0xbec9b766	-0.39397734
79	0x3e711596	0.2354339
80	0xbeb41f71	-0.35180238
81	0xbc84bad6	-0.016202372
82	0xbdcc041a	-0.0996172
83	0xbeca9545	-0.3956701
84	0xbd9ccaf6	-0.07655899
85	0xbd2f2770	-0.04276222
86	0x3e64e8e8	0.22354472
87	0x3e20aae2	0.15690187
88	0xbe1ef060	-0.15521383
89	0xbea4043c	-0.3203448
90	0x3e1a0de0	0.15044355
91	0x3dfffc4f	0.12499296
92	0xbd112664	-0.035437003
93	0xbeb6501c	-0.35607994
94	0xbe1c7518	-0.15279043
95	0xba440603	-0.00074777025
96	0x3e5f8a97	0.21830212
97	0xbdbcf979	-0.09227271
98	0xbea516bd	-0.3224391
99	0xbc560d00	-0.013064623
100	0xbebb0017	-0.36523506
101	0xbcda4d3c	-0.026648156
102	0xbdd24ca3	-0.102685235
103	0x3dace624	0.08442333
104	0xbef12f0b	-0.47106203
105	0xbe8b108e	-0.27161068
106	0xbeae97a3	-0.34100065
107	0x3da4b983	0.08043196
108	0xbe5fe019	-0.2186283
109	0xbee135f2	-0.4398647
110	0xbe459919	-0.19296683
111	0x3d8097e9	0.062789746
112	0xbdf4754e	-0.119364366
113	0xbef9050b	-0.4863666
114	0x3ca056eb	0.019572696
115	0xbeacf684	-0.33781826
116	0xbef454c9	-0.47720936
117	0xbed3a175	-0.4133412
118	0x3a5c96d8	0.00084148115
119	0xbe11df0d	-0.14245243
120	0x3ea19b10	0.31563616
121	0x3e79e2b1	0.24402882
122	0x3e0e22ac	0.13880414
123	0xbef3253f	-0.47489354
124	0x3d2f22d2	0.042757817
125	0x3d0b44e3	0.034001242
126	0xbe72c251	-0.23706938
127	0xbda36acb	-0.079793535

weight_mu f4 [256, 128]
0	0xbf08a4b8	-0.5337634
1	0xbed8f380	-0.42373276
2	0xbd9ec4d8	-0.07752389
3	0xbe629f4f	-0.22131084
4	0xbe010dcf	-0.12602924
5	0xbe3e1cb4	-0.18565637
6	0xbe901093	-0.28137645
7	0xbebf8d6c	-0.37412584
8	0xbe8bff98	-0.2734344
9	0xbe1afb72	-0.15134981
10	0xbea89217	-0.32923958
11	0xbe82b192	-0.255261
12	0xbe41fe5a	-0.18944684
13	0x3e808269	0.25099495
14	0xbe55fa8d	-0.20896359
15	0xbd919179	-0.07107825
16	0x3e9909f7	0.29890415
17	0x3dac3ed5	0.08410422
18	0xbe696922	-0.22794011
19	0xbe4f1d57	-0.20226036
20	0xbd693a18	-0.05694017
21	0xbe72a41b	-0.23695414
22	0xbedbf6fd	-0.42961875
23	0xbd447b54	-0.047969177
24	0xbe1a34ae	-0.15059158
25	0xbe15f375	-0.14643653
26	0xbe1ce04f	-0.15319942
27	0xbe7fd19d	-0.24982305
28	0x3d7076ef	0.058707174
29	0xbc7fc1b5	-0.015610148
30	0xbde5ecc2	-0.112267986
31	0xbe8dcc6f	-0.27695033
32	0xbdcc1ca2	-0.09966399
33	0xbe1af977	-0.15134226
34	0xbe8934ad	-0.26798
35	0xbe5d5ceb	-0.21617477
36	0xbe2928f5	-0.1651953
37	0xbe4561bb	-0.19275562
38	0xbe871612	-0.26384026
39	0xbdcd3591	-0.100199826
40	0xbdc19755	-0.094526924
41	0xbdca913e	-0.09890984
42	0xbdaeed1f	-0.08541321
43	0xbea99b70	-0.33126402
44	0xbeb9d752	-0.3629709
45	0xbf160943	-0.5860788
46	0xbee02b43	-0.43783006
47	0xbe0df86a	-0.13864294
48	0xbe4b338e	-0.19843885
49	0xbdd12180	-0.10211468
50	0x3d962b7e	0.07332514
51	0xbe6e3a8b	-0.2326452
52	0x3daf64ee	0.08564173
53	0xbdc29298	-0.09500617
54	0xbe60924a	-0.21930805
55	0xbe87113a	-0.2638033
56	0xbbd176fb	-0.0063923574
57	0xbead5058	-0.3385036
58	0xbdbf8c6c	-0.09352955
59	0xbe843b4a	-0.25826484
60	0xbe241363	-0.1602302
61	0xbe5ccda8	-0.21562827
62	0xbdfae72e	-0.12251125
63	0xbe641729	-0.2227446
64	0xbe3e946f	-0.1861131
65	0xbe5cdc64	-0.21568447
66	0xbe5d18bb	-0.21591465
67	0xbd66e56c	-0.056371137
68	0xbd41e141	-0.04733396
69	0xbdf65b95	-0.12029187
70	0xbd48ce02	-0.04902459
71	0xbeb341f0	-0.35011244
72	0xbd7691ff	-0.060197826
73	0xbdedbf81	-0.11608792
74	0x3c7a289a	0.015268469
75	0xbea5a6c1	-0.32353786
76	0xbe43a26d	-0.1910493
77	0xbdcd0ab2	-0.100118056
78	0xbd274606	-0.040838264
79	0xbde88580	-0.11353588
80	0xbc9bbd56	-0.01901118
81	0xbdef2a8c	-0.11678037
82	0x3bb95b15	0.00565661
83	0xbe96e0ed	-0.2946848
84	0x3ce42b6f	0.027852742
85	0xbe90fefa	-0.28319532
86	0xbe7af964	-0.24509197
87	0xbe38e887	-0.18057452
88	0xbe0f99fb	-0.14023583
89	0xbe538a26	-0.20658168
90	0xbef62081	-0.48071674
91	0xbdb4e8a6	-0.08833437
92	0xbea4c5c7	-0.32182142
93	0x3d8b3eb6	0.067990705
94	0xbe5eed39	-0.21770181
95	0xbe72574d	-0.23666115
96	0xbde0b7b9	-0.10972542
97	0xbe68241b	-0.22670023
98	0xbe87e2df	-0.26540276
99	0xbe6890d5	-0.22711499
100	0xbeee546e	-0.4654879
101	0xbe795f5e	-0.24352786
102	0xbed4f5b6	-0.41593713
103	0xbe984f1e	-0.29747862
104	0xbe637919	-0.22214164
105	0xbe417276	-0.1889132
106	0xbe912a01	-0.2835236
107	0xbeac1909	-0.3361285
108	0xbadf95fa	-0.0017058246
109	0xbda8fd9a	-0.08251496
110	0xbe681c23	-0.22666983
111	0xbee5961c	-0.44841087
112	0xbd56a5a6	-0.05240407
113	0xbd86d012	-0.06582655
114	0xbe8217f7	-0.2540891
115	0xbe0e26aa	-0.13881937
116	0x3cc32698	0.023822114
117	0x3d41362d	0.047170807
118	0xbe609474	-0.2193163
119	0xbe098749	-0.13430513
120	0xbe5dfca0	-0.216784
121	0xbebc7282	-0.36806113
122	0xbe9e3971	-0.309032
123	0xbe6c037b	-0.23048203
124	0xbe83d7a9	-0.25750473
125	0xbcf0c77a	-0.029391993
126	0xbe841136	-0.2579438
127	0xbcefe04b	-0.029281756
128	0xbea8cb90	-0.32967806
129	0xbe7336f8	-0.23751438
130	0xbe0565eb	-0.1302716
131	0xbced4dcd	-0.028967762
132	0xbe6f2112	-0.23352459
133	0xbe938fc0	-0.2882061
134	0xbd993efe	-0.07482718
135	0xbe36b53c	-0.17842573
136	0xbe5a1484	-0.21296889
137	0xbe795f48	-0.24352753
138	0xbecc5512	-0.39908653
139	0xbe44fa65	-0.19236143
140	0xbbe81834	-0.0070829634
141	0x3e044e8b	0.12920587
142	0x3cb8cf05	0.022559652
143	0x3a8d59df	0.001078423
144	0x3f029832	0.5101348
145	0xbe1be953	-0.15225725
146	0xbebd220e	-0.36940044
147	0xbe38df6b	-0.18053977
148	0x3bdc7813	0.006728181
149	0xbe5e74c7	-0.21724235
150	0xbee8c23b	-0.45460686
151	0x3c5573e3	0.013028118
152	0xbe278ef7	-0.1636313
153	0xbe6a0ca8	-0.2285639
154	0xbd0bf372	-0.034167714
155	0xbe1781ff	-0.14795683
156	0xbccdba72	-0.025113318
157	0xbe71f7f1	-0.23629738
158	0xbdda8aa8	-0.10670978
159	0xbeb8917a	-0.3604849
160	0x3d6a508a	0.057205714
161	0xbe94e352	-0.29079682
162	0xbea3ab07	-0.3196642
163	0xbe12c08b	-0.14331262
164	0xbd07bc8e	-0.033138804
165	0xbf0195a9	-0.5061899
166	0xbe939f19	-0.2883232
167	0xbcbd8046	-0.023132455
168	0xbe6b6826	-0.22988948
169	0xbd7e32dd	-0.062060226
170	0xbe60a363	-0.21937327
171	0xbe1cf9df	-0.15329693
172	0xbe315b15	-0.17319901
173	0xbf155465	-0.583319
174	0xbe753f42	-0.23949912
175	0xbe28496c	-0.16434258
176	0xbe5094ee	-0.20369312
177	0xbe14a878	-0.1451739
178	0x3e57b355	0.21064503
179	0xbdf5ec06	-0.120079085
180	0xbe19408e	-0.14966032
181	0xbdb3d864	-0.087815076
182	0xbe4fb945	-0.20285518
183	0xbde1ea32	-0.11030997
184	0x3cb12934	0.021626092
185	0xbda560f9	-0.08075137
186	0xbe2ae682	-0.16689494
187	0xbe417df0	-0.18895698
188	0xbe5c6db9	-0.21526231
189	0x3b99d469	0.0046945107
190	0xbe19495e	-0.14969394
191	0xbe97710f	-0.29578444
192	0xbcce0501	-0.02514887
193	0xbde7f5d2	-0.113261834
194	0xbe880d82	-0.26572806
195	0xbd14e317	-0.036349382
196	0xbe4f8b8d	-0.20268078
197	0x3da095cb	0.07841071
198	0xbdf35be8	-0.11882764
199	0xbe8966f1	-0.2683635
200	0xbeb6b625	-0.3568584
201	0xbed47705	-0.41497055
202	0xbdd6709c	-0.10470697
203	0xbed39879	-0.41327265
204	0xbe1ef0cc	-0.15521544
205	0xbe283e0e	-0.16429922
206	0xbda7255a	-0.08161421
207	0xbe2d2308	-0.16907895
208	0xbdead9bf	-0.11467313
209	0x3da486f2	0.08033551
210	0x3b70a195	0.0036717404
211	0xbe309144	-0.17242914
212	0xbdb8b08f	-0.09018051
213	0xbe5aa3f0	-0.213516
214	0xbeb26636	-0.34843606
215	0x3b3a662b	0.0028442245
216	0x3d7b0c25	0.06129088
217	0xbe053272	-0.13007525
218	0xbf1550a8	-0.58326197
219	0xbeb08a1d	-0.34480372
220	0xbe6e81d1	-0.23291709
221	0x3e0d1d2a	0.13780656
222	0x3c01330a	0.007885704
223	0xbe584411	-0.21119715
224	0xbe69d774	-0.22836095
225	0xbe2d328e	-0.16913816
226	0xbe3ebb4e	-0.18626139
227	0xbdff7b9b	-0.12474748
228	0xbeaa7cff	-0.3329849
229	0xbe9f0dd8	-0.3106525
230	0xbe74087f	-0.23831366
231	0xbce9bfc0	-0.028533816
232	0xbe6eb8ee	-0.23312733
233	0xbe9bf37d	-0.30459204
234	0xbe3043e1	-0.17213394
235	0xbe6dd980	-0.23227501
236	0x3aaf4742	0.0013372677
237	0xbddccb8c	-0.10781011
238	0xbde73d7b	-0.11291023
239	0xbec4e68e	-0.3845715
240	0xbdd176a3	-0.10227706
241	0xbe758b60	-0.23978949
242	0xbe0d7dbd	-0.13817497
243	0xbe8145f5	-0.25248685
244	0xbe2efca0	-0.17088556
245	0x3da55f20	0.08074784
246	0xbe24bd5c	-0.1608786
247	0xbdaf8554	-0.08570352
248	0xbe9517a8	-0.2911961
249	0xbd8bf052	-0.06832947
250	0xbde78a47	-0.11305671
251	0xbe6e35e1	-0.2326274
252	0xbe088ee5	-0.1333576
253	0xba86df37	-0.0010289912
254	0xbe4d6007	-0.20056163
255	0x3d7bea9e	0.061503045

weight_sigma f4 [256, 128]
0	0x3cc2cea7	0.02378018
1	0xbd38de26	-0.045133732
2	0xba51be53	-0.0008001078
3	0xbe1e1182	-0.15436366
4	0x3dea22b1	0.11432398
5	0xbdafe6b6	-0.085889265
6	0x3d031b48	0.03200844
7	0x3d7500c2	0.059815176
8	0xbe11bd43	-0.14232354
9	0xbebb4709	-0.36577633
10	0x3e2cf0d9	0.16888751
11	0x3d194775	0.037421662
12	0x3cc1eac6	0.023671519
13	0x3d7b650e	0.06137567
14	0x3ccb2337	0.024797065
15	0x3d5cfad2	0.05395014
16	0x3e84b1f3	0.25917014
17	0xbe7e6571	-0.24843384
18	0x3d9053ea	0.07047255
19	0xbd051a05	-0.032495517
20	0x3d9ae7b7	0.07563727
21	0xbda4d75c	-0.08048889
22	0x3d9f8c58	0.0779044
23	0x3d40a998	0.047036737
24	0xbcad1908	-0.0211301
25	0xbd440be8	-0.047862917
26	0xbdb26a64	-0.08711699
27	0x3af84d67	0.0018943966
28	0xbe2eb2b9	-0.17060365
29	0x3d929bba	0.07158609
30	0x3d6be15d	0.05758797
31	0xbe8e624d	-0.27809373
32	0xbe8fe3e6	-0.2810356
33	0x3e2a224c	0.16614646
34	0x3dc25b31	0.0949005
35	0x3e4f8edd	0.20269342
36	0x3dcc6efa	0.099821046
37	0x3df02a4f	0.1172682
38	0xbd0cb778	-0.034354657
39	0x3da9312d	0.08261333
40	0x3dd51b9a	0.10405655
41	0x3dbe70aa	0.09298833
42	0xbde8ede6	-0.113735005
43	0xbe45bb01	-0.19309618
44	0xbddce205	-0.10785297
45	0x3e033def	0.12816595
46	0x3e59bd35	0.21263583
47	0x3c3ad038	0.011402182
48	0xbe43c9d9	-0.19119968
49	0xbe3fa8d6	-0.1871675
50	0xbbd67847	-0.0065451
51	0xbe4fdafc	-0.2029838
52	0xbddd5a5d	-0.10808251
53	0x3d10e5f4	0.03537555
54	0x3c8dfffc	0.017333977
55	0x3e4d4cd5	0.2004884
56	0x3e12af11	0.14324595
57	0x3dcd64bf	0.100289814
58	0x3de28cc5	0.11062006
59	0xbd540031	-0.051757995
60	0x3dafda51	0.085865624
61	0x3e1ba69f	0.1520028
62	0xbe499105	-0.19684227
63	0xba68785a	-0.00088680314
64	0x3d8e5efe	0.06951712
65	0xbdfb6599	-0.122752376
66	0x3e90139a	0.28139955
67	0x3c67299a	0.01410904
68	0xbda84187	-0.08215623
69	0x3dc8a27a	0.09796615
70	0x3e1e088a	0.15432945
71	0x3d8b33a6	0.067969605
72	0x3d2661f1	0.040620748
73	0xbd37cde8	-0.044874102
74	0xbc7748f8	-0.015093081
75	0x3e105aa9	0.14097084
76	0xbdaf2e9e	-0.085538134
77	0xbc6809a3	-0.014162454
78	0xbdab4cbb	-0.083642446
79	0xbe09553e	-0.13411424
80	0x3e9bdf3f	0.3044376
81	0xbc9c1854	-0.01905457
82	0x39b0387f	0.0003361143
83	0xbd470277	-0.048586335
84	0x3e6db495	0.23213418
85	0xbe12a4e7	-0.14320718
86	0x3df7833a	0.12085576
87	0x3cb767db	0.02238839
88	0xbc0c681b	-0.008569743
89	0xbd8fcbe7	-0.07021313
90	0xbdfca2fe	-0.12335776
91	0xbde90555	-0.1137797
92	0xbe5c9e79	-0.21544828
93	0xbe3622f9	-0.17786779
94	0x3e529a7f	0.20566748
95	0xbd42bf59	-0.047545765
96	0x3d350cc7	0.04420164
97	0x3d4da951	0.0502103
98	0x3ba60976	0.005067046
99	0x3cbaf40d	0.02282145
100	0xbcb00e5b	-0.02149122
101	0xbdf48042	-0.11938526
102	0x3e43752e	0.19087669
103	0x3dad4dc5	0.08462099
104	0x3c6358cf	0.013876154
105	0x3d2b9738	0.04189226
106	0xbe23cc90	-0.15996003
107	0xbb8827f6	-0.0041551543
108	0x3ec0cef6	0.376579
109	0x3e42c008	0.19018567
110	0xbde9cc89	-0.11415965
111	0x3e1756d9	0.14779224
112	0x3d1c5be6	0.03817358
113	0xbe195c43	-0.14976601
114	0xbe00c825	-0.12576349
115	0x3a2532fd	0.00063018483
116	0x3db53db9	0.08849663
117	0xbe13efd2	-0.14446953
118	0x3e2cff3a	0.16894236
119	0x3d01d6cc	0.031698987
120	0xbc731427	-0.014836348
121	0x3e79876b	0.24368064
122	0x3e6c2657	0.230615
123	0x3df30ceb	0.11867698
124	0x3e1ec055	0.15503056
125	0xbc63d37c	-0.013905402
126	0xbcbd1b3d	-0.023084277
127	0x3d9d8c0f	0.0769273
128	0x3c80fd0c	0.015745662
129	0x3c668b8e	0.014071358
130	0xbd9af84e	-0.075668916
131	0x3ba6be28	0.0050885864
132	0x3e1cd1b0	0.15314364
133	0x3d58734f	0.05284434
134	0x3d86ad9c	0.06576082
135	0x38000381	3.052084e-05
136	0x3c3ec8ba	0.011644537
137	0xbb5482e8	-0.003242666
138	0x3d25c30a	0.040469207
139	0xbe211805	-0.15731819
140	0x3d8db87e	0.06919955
141	0xbdadc22a	-0.084842995
142	0xbe41510a	-0.1887857
143	0x3cc656e4	0.024211355
144	0x3ab36f10	0.0013689715
145	0x3d6e24de	0.058140628
146	0xbbdde943	-0.0067721917
147	0x3ca4d9a2	0.020123307
148	0x3cb471c7	0.02202691
149	0x3de2318e	0.11044608
150	0x3d8443f7	0.06458276
151	0x3d1d1d16	0.038357817
152	0xbd94df48	-0.0726915
153	0x3de538c2	0.11192466
154	0xbd770adc	-0.06031309
155	0x3da87a7e	0.082264885
156	0xbd01b45c	-0.031666145
157	0x3dad57d7	0.0846402
158	0x3db58f7c	0.08865258
159	0xbd0abc64	-0.03387107
160	0x3ca6dd2e	0.020369139
161	0xbc985e1a	-0.018599559
162	0xbd4ae00c	-0.049530074
163	0x3ab342ab	0.0013676485
164	0x3dd93f6f	0.10607802
165	0xbc6e642a	-0.014550248
166	0xbd5000d9	-0.05078206
167	0x3e003d3e	0.12523362
168	0xbd3bf902	-0.04589177
169	0x3cced040	0.025245786
170	0x3dcccc61	0.0999992
171	0xbb7b7052	-0.0038366509
172	0x3e0a984a	0.13534656
173	0x3d913bc5	0.07091478
174	0x3e576533	0.21034698
175	0x3dcda486	0.10041146
176	0xbc76ef0c	-0.015071642
177	0x3b2823fc	0.0025656214
178	0xbe26911f	-0.16266297
179	0xbdbb5d15	-0.09148613
180	0xbc52d594	-0.012868304
181	0xbc9ee99f	-0.019398509
182	0x3dc44072	0.095826045
183	0xbb71a8de	-0.0036874334
184	0xbc194bf3	-0.009356487
185	0x3cb65bd3	0.022260582
186	0x3d4a0567	0.04932156
187	0x3db4ba17	0.08824556
188	0x3bd116c9	0.00638089
189	0x3d293a56	0.0413154
190	0x3e198f29	0.14996018
191	0x3d13575f	0.035971995
192	0x3cac6381	0.02104354
193	0x3d633e52	0.055479355
194	0xbbc93210	-0.006140001
195	0x3db44fab	0.08804258
196	0xbd6c464e	-0.057684235
197	0xbd61a7d3	-0.05509169
198	0x3d6d4c3e	0.05793404
199	0x3a2591b5	0.00063159625
200	0x3aa09572	0.001225157
201	0xbcc47a39	-0.023984062
202	0x3d5a47df	0.053291198
203	0xbe8a6f7b	-0.27038178
204	0x3d1fcee3	0.039015662
205	0xbb868d75	-0.0041062185
206	0x3d79a37e	0.060946934
207	0xbe391aa8	-0.18076575
208	0xbb13f317	-0.0022575313
209	0xbc7cea48	-0.015436716
210	0x3de20206	0.11035542
211	0xbd6fd609	-0.05855373
212	0xbe200c4b	-0.1562969
213	0x3dafd408	0.085853636
214	0x3da4512d	0.080232956
215	0x3e98ddba	0.29856664
216	0x3d3ab487	0.04558232
217	0x3c2e046b	0.0106211705
218	0x3d661ba1	0.056178693
219	0x3d23837b	0.03992031
220	0xbdff87bf	-0.124770634
221	0x3c57d546	0.013173407
222	0xbdb2cbbb	-0.08730265
223	0x3d5dc025	0.05413832
224	0xbd612f0c	-0.054976508
225	0x3d10cdf0	0.035352647
226	0xbca759f3	-0.020428633
227	0x3c239ded	0.009986383
228	0xbd82d686	-0.06388573
229	0xbc9beaa3	-0.019032782
230	0x3d88ed9d	0.06685946
231	0xbd62338f	-0.05522495
232	0x3d8b7dc6	0.06811099
233	0x3c67a5e2	0.014138671
234	0xbc1b52d9	-0.009480202
235	0x3dca3768	0.09873849
236	0x3da07bad	0.07836089
237	0xbd6b7bc5	-0.057491083
238	0x3c83cfda	0.016090322
239	0xbcf0526e	-0.02933618
240	0x3dfcfdf3	0.123531245
241	0x3bcb013b	0.006195215
242	0x3e055263	0.1301971
243	0xbb979cdb	-0.004626853
244	0x3dfa3b9a	0.12218399
245	0xbbc25c71	-0.00593143
246	0x3d216e29	0.039411698
247	0xbda40316	-0.08008401
248	0x3c2dc04e	0.010604931
249	0x3e1979ac	0.1498782
250	0xbde6fa79	-0.112782426
251	0x3ce7f3ca	0.02831449
252	0x3d1e0f18	0.038588613
253	0xbd506114	-0.05087383
254	0xbd532879	-0.05155227
255	0x3d3504f3	0.044194173

bias_mu f4 [256]
0	0xbefa2463	-0.48855886
1	0xbeaa8bea	-0.3330987
2	0xbe7ca3a5	-0.246718
3	0xbf01064a	-0.5040022
4	0xbe1e19f1	-0.15439583
5	0xbe52bdf8	-0.2058028
6	0xbeaf0758	-0.3418529
7	0xbe48b540	-0.19600391
8	0xbd8884d4	-0.0666596
9	0xbc9d1f1e	-0.019179877
10	0xbdf73c7e	-0.12072085
11	0xbe8e588b	-0.27801928
12	0xbe31a56e	-0.17348263
13	0xbe7ba8c3	-0.24576096
14	0xbf2ff991	-0.68740183
15	0xbef022a1	-0.4690142
16	0xbe5eb25f	-0.2174773
17	0xbe89df01	-0.2692795
18	0xbda44411	-0.08020795
19	0xbecd6a0c	-0.4011997
20	0xbe3df111	-0.18548991
21	0x3d9cc83b	0.076553784
22	0xbf0c9901	-0.54920965
23	0xbdf52688	-0.1197024
24	0xbe86ada0	-0.2630434
25	0xbe56fe42	-0.20995429
26	0x3c5582a8	0.013031639
27	0xbe6c1de6	-0.2305828
28	0x3d34ea85	0.044168968
29	0xbe76970c	-0.24081057
30	0xbeced160	-0.40394115
31	0xbe509597	-0.20369564
32	0xbe92390f	-0.28559157
33	0xbf16ff71	-0.5898352
34	0xbefaaf8e	-0.48962063
35	0xbe35087b	-0.17679016
36	0xbe92d21f	-0.28675935
37	0x3dfc2eac	0.123135895
38	0xbedb61ec	-0.42848146
39	0xbded9c8a	-0.11602123
40	0xbebaa06a	-0.3645051
41	0xbf1bcbd9	-0.6085792
42	0xbed09fd1	-0.4074693
43	0xbdddd65d	-0.10831902
44	0xbdf94ecc	-0.121732324
45	0xbdfe1794	-0.12406841
46	0xbebb952e	-0.36637253
47	0xbecc811e	-0.3994226
48	0xbe403409	-0.1876985
49	0x3e5519fa	0.2081069
50	0x3ddd60e1	0.10809494
51	0xbe5d6bfe	-0.21623227
52	0xbe50a87b	-0.2037677
53	0xbe546725	-0.20742472
54	0xbeb1914a	-0.3468116
55	0xbe40c3fe	-0.18824765
56	0x3e2c5659	0.16829814
57	0xbef08977	-0.46979877
58	0xbddbaa0d	-0.10725794
59	0xbe1e6b76	-0.1547068
60	0xbe41693d	-0.18887801
61	0xbe694fc6	-0.22784337
62	0xbe5f3851	-0.21798827
63	0xbd087656	-0.03331598
64	0xbeca5956	-0.39521283
65	0xbeb38be1	-0.35067657
66	0xbea7b3b2	-0.32754284
67	0xbd3c0623	-0.04590429
68	0xbed5639a	-0.41677552
69	0xbe952d1e	-0.29135984
70	0xbdfca9df	-0.12337088
71	0xbe6c9613	-0.23104124
72	0xbeda0626	-0.42582816
73	0xbe846211	-0.2585607
74	0xbe3120e9	-0.1729771
75	0xbc44085c	-0.011964884
76	0xbf09f265	-0.5388549
77	0xbeb454a3	-0.35220823
78	0xbe71a689	-0.23598684
79	0xbd907430	-0.07053411
80	0xbe30e8fc	-0.17276376
81	0xbea573f4	-0.32315028
82	0xbee748d9	-0.45172766
83	0xbe2222b6	-0.15833554
84	0xbe3612f3	-0.17780666
85	0xbecce801	-0.40020755
86	0xbecf15a1	-0.4044619
87	0xbeb5d82d	-0.35516492
88	0xbe340b16	-0.17582354
89	0xbefa8864	-0.48932183
90	0xbe7bbe38	-0.24584281
91	0xbea978c9	-0.33099964
92	0xbded1ae8	-0.115773976
93	0xbf115d20	-0.5678272
94	0xbec52d42	-0.3851109
95	0xbebbdbcc	-0.3669113
96	0xbf1058b4	-0.5638535
97	0xbe6d2248	-0.23157609
98	0xbe9522b3	-0.29128036
99	0xbe6ad74d	-0.22933693
100	0xbeb2ec51	-0.3494592
101	0x3f01f544	0.5076487
102	0xbe077b39	-0.132306
103	0xbee2b2c9	-0.44277027
104	0xbe6619b0	-0.22470737
105	0xbec191c6	-0.3780653
106	0xbe0f96e5	-0.14022405
107	0xbe5d5b3d	-0.21616836
108	0xbe4f8e4c	-0.20269126
109	0xbeb948cf	-0.3618836
110	0xbe9bf039	-0.30456713
111	0xbddbdbae	-0.1073526
112	0xbe3ba16e	-0.183233
113	0xbe50464d	-0.20339318
114	0xbea40cbb	-0.32040963
115	0xbebff74f	-0.3749337
116	0xbe8f0571	-0.2793384
117	0xbe1ce9d1	-0.15323569
118	0xbe806492	-0.2507673
119	0xbe3e2427	-0.18568479
120	0xbea42e10	-0.32066393
121	0xbe81cf1b	-0.2535332
122	0xbe64cf4f	-0.22344707
123	0xbd82739a	-0.063697055
124	0xbec022af	-0.3752646
125	0xbf00cf8a	-0.5031668
126	0xbebea805	-0.37237564
127	0x3de676a1	0.112530954
128	0xbe76e656	-0.24111304
129	0xbe7dd4f2	-0.24788263
130	0xbe3eacea	-0.18620649
131	0x3dca4c16	0.098777935
132	0xbef89cfa	-0.48557264
133	0xbe7e16a2	-0.24813321
134	0xbe1da30b	-0.15394227
135	0xbf063e45	-0.52438766
136	0xbe712963	-0.23550944
137	0xbe5a3b04	-0.21311575
138	0xbe77c63a	-0.24196711
139	0xbe23b3a7	-0.159865
140	0xbe707898	-0.23483503
141	0x3e9be882	0.30450827
142	0xbe3a0413	-0.18165617
143	0xbe8ca483	-0.27469262
144	0xbe0d81b7	-0.13819014
145	0xbe1bc927	-0.15213452
146	0xbe75b41a	-0.23994485
147	0xbe08f372	-0.13374117
148	0xbeeef488	-0.46670938
149	0xbed5b8a8	-0.41742444
150	0xbe909e01	-0.28245547
151	0xbe936cde	-0.28793997
152	0xbe067713	-0.1313136
153	0xbe9310ed	-0.2872385
154	0xbe0a685f	-0.13516377
155	0xbeced138	-0.40393996
156	0xbe0d3be4	-0.13792378
157	0xbe510d8a	-0.20415321
158	0xbe80eb0e	-0.25179332
159	0xbe9275d5	-0.28605524
160	0xbe3daccc	-0.18522948
161	0xbe64ada6	-0.22331867
162	0xbe37e85d	-0.17959733
163	0xbeed3f72	-0.46337467
164	0xbe4c522c	-0.19953221
165	0xbefe7393	-0.4969755
166	0xbe9e2a2f	-0.3089156
167	0xbecc3248	-0.39882112
168	0xbe4a8468	-0.19777071
169	0xbe6a2825	-0.22866876
170	0x3dc8c750	0.09803641
171	0xbea53fc0	-0.322752
172	0xbe4fa1d9	-0.20276584
173	0xbe77e482	-0.24208263
174	0xbe3acd3b	-0.18242352
175	0xbe0d4260	-0.13794851
176	0xbeabab2f	-0.3352904
177	0xbe924ee1	-0.28575805
178	0xbe73f9e4	-0.23825794
179	0xbea27df8	-0.31736732
180	0xbd8da043	-0.06915333
181	0xbca25e1a	-0.019820262
182	0xbe9e9b6a	-0.30977947
183	0x3d108c36	0.035289966
184	0xbe5046bb	-0.20339482
185	0xbe2da42b	-0.16957156
186	0xbe9d0f13	-0.30675563
187	0xbe4f8871	-0.20266892
188	0x3ee2a813	0.44268855
189	0xbe7f850c	-0.24953097
190	0xbeaad4d4	-0.333655
191	0xbe1393ff	-0.14411925
192	0xbeb1213d	-0.3459567
193	0xbed26ce7	-0.4109871
194	0xbea85f31	-0.32885125
195	0xbeac7c7a	-0.33688718
196	0xbe8f6d1e	-0.28012937
197	0xbec6118e	-0.38685268
198	0x3ee8757b	0.4540213
199	0xbe508ba1	-0.20365764
200	0x3df8a897	0.12141531
201	0x3bfbeb40	0.007687956
202	0xbe4fe5d9	-0.20302524
203	0xbdfa54ff	-0.12223243
204	0xbe6be783	-0.23037533
205	0xbe92eb45	-0.2869512
206	0xbe84bf1b	-0.25927052
207	0xbee27450	-0.44229364
208	0xbe9a34cf	-0.30118415
209	0xbdb51248	-0.088413775
210	0xbeb78f9b	-0.3585175
211	0xbe8639ce	-0.26215976
212	0xbeb94c76	-0.36191148
213	0xbe28c09b	-0.16479723
214	0xbea0c272	-0.3139835
215	0xbeb2a568	-0.3489182
216	0xbedfb885	-0.43695465
217	0xbe80abc0	-0.25131035
218	0xbeed5757	-0.46355698
219	0xbdd5edd5	-0.104457535
220	0xbe21481d	-0.15750165
221	0xbd2eadf7	-0.042646375
222	0xbe379309	-0.17927183
223	0xbe0bcdb8	-0.13652694
224	0xbbfec716	-0.0077751977
225	0x3e7e1f41	0.2481661
226	0xbef97421	-0.48721412
227	0xbf12f033	-0.57397765
228	0xbe849b24	-0.25899613
229	0xbe179168	-0.14801562
230	0xbe982c74	-0.29721415
231	0x3d1dcdc0	0.038526297
232	0x3ef959ac	0.48701227
233	0xbeb0b74e	-0.3451485
234	0xbd68a75b	-0.056800228
235	0xbe630cf6	-0.22172913
236	0xbdc4aab3	-0.09602871
237	0xbe5ff61a	-0.21871224
238	0xbed72162	-0.42017657
239	0xbd31561c	-0.04329501
240	0xbe44c19b	-0.1921448
241	0xbe914bc4	-0.28378117
242	0xbd8741dd	-0.06604359
243	0xbe8aa955	-0.27082315
244	0xbeb9a73a	-0.36260396
245	0xbe84991a	-0.25898057
246	0xbef8a62b	-0.48564276
247	0xbebc9c40	-0.3683796
248	0xbe1dce17	-0.15410648
249	0xbeb2807f	-0.3486366
250	0x3e2bf327	0.16791974
251	0xbec93ea4	-0.39305604
252	0xbe5d2c19	-0.21598853
253	0xbf1688d5	-0.5880254
254	0xbebbfb09	-0.36714962
255	0xbec122fc	-0.37722003

bias_sigma f4 [256]
0	0x3e0c950d	0.13728733
1	0x3b4b12b0	0.003098648
2	0xbdcbfb49	-0.09960038
3	0x3deac8d3	0.114640854
4	0xbcbf753a	-0.023371328
5	0xbdd02393	-0.10163035
6	0x3d10e9db	0.035379272
7	0x3cbf0fc2	0.023322944
8	0x398f3906	0.0002731757
9	0x3c113d47	0.008864707
10	0xbd9fb3f6	-0.07797997
11	0xbccc9963	-0.024975484
12	0xbbe65e7e	-0.0070303073
13	0x3d8881b5	0.06665365
14	0x3d3111c5	0.043229837
15	0x3e15d0a9	0.14630379
16	0x3d34fd5b	0.04418693
17	0xbb9f07b2	-0.0048532123
18	0xbbdab30f	-0.0066741775
19	0x3b5adc38	0.003339542
20	0xbd4ed6dd	-0.05049788
21	0xbc0b40a4	-0.008499298
22	0x3e29a932	0.16568449
23	0x3be31c9e	0.0069309017
24	0x3c55f783	0.0130595
25	0xbc16449f	-0.009171634
26	0x3d508544	0.050908342
27	0x3d1f488c	0.038887545
28	0x3d379831	0.044822875
29	0x3ccac2be	0.024751063
30	0xbd448fd2	-0.04798872
31	0x3cb0e38b	0.021592876
32	0x3d61eb79	0.055156205
33	0xbe4f571e	-0.20248076
34	0xbe36cf5e	-0.17852542
35	0xbd35eb66	-0.044413947
36	0xbe71c70d	-0.23611088
37	0x3db5fcfb	0.08886143
38	0xbd5c2d43	-0.053754102
39	0x3d04b29b	0.032396894
40	0xbda447ee	-0.08021532
41	0x3dc22693	0.09480014
42	0x3c789142	0.015171351
43	0xbd2c7273	-0.042101335
44	0x3caf5ffb	0.021408072
45	0xbd83cefe	-0.06435965
46	0xbd851e30	-0.064998984
47	0x3e23d889	0.1600057
48	0xbcb36b13	-0.021901643
49	0x3d015d45	0.03158309
50	0x3d67bc48	0.056576043
51	0xbd88544c	-0.06656703
52	0x3dbea4cb	0.093087755
53	0xbd839b29	-0.06426079
54	0x3deac021	0.11462427
55	0xbceebf57	-0.029143972
56	0xbad8bbd6	-0.0016535472
57	0xbaa01d4b	-0.0012215761
58	0xbc00453a	-0.007829005
59	0xbd2ef2af	-0.04271191
60	0xbcc29b39	-0.023755657
61	0x3d8e6f04	0.06954768
62	0x3ca598a2	0.020214383
63	0x3d23563c	0.03987716
64	0x3dc22cd1	0.09481204
65	0x3cb2a06c	0.02180501
66	0xbddb337a	-0.10703178
67	0xbd6c2342	-0.057650812
68	0xbd953fd8	-0.07287568
69	0x3d840fc1	0.06448317
70	0x3d44cebb	0.048048716
71	0x3c496b39	0.01229363
72	0xbc9ea008	-0.019363418
73	0x3cab33b1	0.020898672
74	0x3cdffb7d	0.027341599
75	0xbd3bfb17	-0.045893755
76	0xbdb6235d	-0.08893464
77	0xbd1425a4	-0.03616871
78	0x3dc2e103	0.09515574
79	0x3caf025e	0.021363433
80	0xbd865767	-0.065596394
81	0xbd0e2ec7	-0.03471258
82	0x3d566edc	0.052351817
83	0x3b966a03	0.0045902743
84	0xbd14b87a	-0.036308743
85	0x3da57900	0.080797195
86	0x3da7b77d	0.081892945
87	0x3d9d72af	0.0768789
88	0xbce3d8e4	-0.027813382
89	0xbdbd5e04	-0.09246448
90	0xbdf50573	-0.1196393
91	0xbd188ef2	-0.0372457
92	0x3cd3840e	0.025819805
93	0xbd5e5d65	-0.054288287
94	0xbcd56e5b	-0.026053598
95	0xbd665148	-0.05622986
96	0xbd1d3d81	-0.038388733
97	0xbdb15ca2	-0.086602464
98	0x3d87f593	0.066386364
99	0x3da109de	0.0786321
100	0xbc6f5948	-0.014608689
101	0xbba3c3c3	-0.004997702
102	0x3ce822f9	0.028336989
103	0xbc955d5e	-0.018232998
104	0x3d1353da	0.03596864
105	0x3db7d7fe	0.08976744
106	0xbd5fe507	-0.054661777
107	0xbd8e2470	-0.06940544
108	0xbd15147d	-0.036396492
109	0x3cfe7b0c	0.031064533
110	0xbd3f09b8	-0.046640128
111	0x3bfd2cdf	0.0077262963
112	0xbc6092dd	-0.01370689
113	0x3bae6990	0.0053226426
114	0x3d8750da	0.06607218
115	0xbdb65e0f	-0.08904659
116	0x3e116711	0.14199473
117	0xbce0b333	-0.027429199
118	0xbd8cf7af	-0.068831794
119	0xbd3c08fd	-0.04590701
120	0xbc7f7360	-0.015591472
121	0x3d3d813e	0.046265833
122	0xbdd3d3c7	-0.10343128
123	0x3d485d3c	0.04891704
124	0x3d3527cf	0.044227418
125	0xbcc2b374	-0.02376721
126	0x3d334c18	0.04377374
127	0x3d17100d	0.03688054
128	0xbd37f437	-0.044910636
129	0xbe1f7015	-0.155701
130	0x3aef9d9c	0.0018281224
131	0xbbd41baa	-0.0064730244
132	0xbe1abde7	-0.15111504
133	0xbba095f0	-0.0049006864
134	0x3e13ae29	0.14421906
135	0x3dfd70c8	0.12375027
136	0xbd8d7b89	-0.06908328
137	0xbd3f6b09	-0.046732936
138	0xbca3f0b9	-0.020012246
139	0xbb554adb	-0.0032545838
140	0x3c7886da	0.01516887
141	0x3d3a11c0	0.045427084
142	0xbccf82c7	-0.025330914
143	0x3da54dcc	0.08071479
144	0xbcdb80c4	-0.026794799
145	0x3c927659	0.017878698
146	0x3ac4444a	0.0014973965
147	0x3c9c5a05	0.019085893
148	0xbcf5410d	-0.029938245
149	0x3daf86e4	0.0857065
150	0xbc8ef88d	-0.017452503
151	0xba1a8592	-0.00058945373
152	0xbd0d0e7b	-0.034437638
153	0xbde97aa8	-0.11400348
154	0x3beb13cb	0.0071739904
155	0xbe8abea7	-0.2709858
156	0x3b36cbc8	0.002789246
157	0x3b3f0098	0.002914464
158	0x3d996999	0.07490844
159	0xbe8db37e	-0.27676004
160	0xbcffaeeb	-0.031211337
161	0xbd9f7279	-0.07785506
162	0x3d846b4f	0.0646578
163	0xbdb457db	-0.088058196
164	0xbc1a7af0	-0.009428725
165	0x3d96f087	0.07370096
166	0x3bbe273e	0.005803018
167	0x3de6b44a	0.11264856
168	0x3d680c8f	0.0566526
169	0x3e2ef4a5	0.17085512
170	0x3a2125f8	0.00061473204
171	0x3d03c824	0.03217329
172	0xbc5f2f72	-0.013622152
173	0xbdba93f6	-0.091102526
174	0xb894e099	-7.0990245e-05
175	0x3da3c955	0.079973854
176	0xbde70595	-0.112803616
177	0xbd1631ab	-0.03666846
178	0x3d7c4a9c	0.06159459
179	0x3d989e5c	0.0745208
180	0xbc2f3928	-0.010694779
181	0xb9b90b42	-0.00035294337
182	0x3dd31238	0.10306209
183	0xbb7be7fc	-0.0038437834
184	0xbd1207b3	-0.035651874
185	0xbd8e31bb	-0.06943079
186	0x3cd4c5a9	0.025973158
187	0x3d845684	0.06461814
188	0xbca48a8d	-0.020085597
189	0xbd90b697	-0.07066076
190	0x3daafd03	0.083490394
191	0xbdaee19c	-0.08539125
192	0xbbdf3075	-0.0068111965
193	0xbc38c339	-0.011277013
194	0x3c069413	0.008214015
195	0xbd98b4df	-0.074563734
196	0xbe6afdf6	-0.22948441
197	0x3d0d0ea6	0.034437798
198	0xbd292d62	-0.041303046
199	0x3c696c78	0.014247052
200	0xba5befe8	-0.0008389936
201	0x3d16c430	0.036808193
202	0x3cc68ed9	0.024238037
203	0x3ba2262e	0.004948399
204	0x3cdcf48d	0.02697208
205	0x3dba87a0	0.091079
206	0xbc906872	-0.017627928
207	0xbcb61b0a	-0.02222969
208	0x3d488095	0.04895075
209	0xbb4fffdb	-0.0031738195
210	0xbc3a2386	-0.0113610085
211	0x3d36f5b9	0.044667933
212	0x3e10dea5	0.14147432
213	0xbd9b0486	-0.07569222
214	0xbdb3ca6b	-0.087788425
215	0x3d2c32d4	0.04204066
216	0x3de98c2d	0.114036895
217	0xbbf4399c	-0.0074531566
218	0xbd1317e9	-0.035911474
219	0xbbf11ec6	-0.007358405
220	0xbc1ff50e	-0.009763015
221	0xbe0a8fae	-0.13531372
222	0x3c984944	0.018589623
223	0xbd0cbab4	-0.03435774
224	0x3ca9f40f	0.020746259
225	0xbdc00db7	-0.09377616
226	0x3d8129bb	0.063067876
227	0xbeb6e3bb	-0.3572062
228	0x3d7b5a79	0.06136558
229	0xbd807e32	-0.0627407
230	0xbb882aa7	-0.004155475
231	0xbc468fe8	-0.012119271
232	0xbcd39076	-0.02582572
233	0x3d84c87f	0.06483554
234	0x3cf251c4	0.029580005
235	0xbd93f8ee	-0.07225214
236	0xbcb9050e	-0.022585418
237	0xbd4a12e0	-0.049334407
238	0x3e377880	0.17917061
239	0x3aea3bb2	0.0017870574
240	0x3dae8842	0.08522083
241	0x3e25dfb7	0.16198622
242	0xbcaa69b6	-0.02080236
243	0xbd67dfcf	-0.056609925
244	0x3d9abfac	0.0755609
245	0xbda71c40	-0.08159685
246	0xbe22d502	-0.15901569
247	0xbcbe0720	-0.023196757
248	0xbb74a57a	-0.0037330077
249	0xbdb996d8	-0.09061974
250	0x3d9fe788	0.07807833
251	0xbe10f61d	-0.14156385
252	0x3c889dcc	0.016676806
253	0xbdc87efa	-0.09789844
254	0x3de046c4	0.109509975
255	0xbe819b67	-0.25313875

weight_epsilon f4 [256, 128]
0	0xbeb6eb2f	-0.35726306
1	0x3f4b7b45	0.7948497
2	0xbf123395	-0.5710996
3	0x3f6503c1	0.89458853
4	0x3f1f5438	0.6223788
5	0xbf3b6320	-0.7319813
6	0xbea5ba81	-0.32368854
7	0xbe9d287d	-0.30694953
8	0xbf584e10	-0.84494114
9	0xbea7cc8e	-0.3277325
10	0xbf2294b8	-0.63508177
11	0x3f47532d	0.7786129
12	0xbe9618d9	-0.29315832
13	0xbe9f46bb	-0.3110865
14	0x3f00f76d	0.5037754
15	0xbf0ee820	-0.55822945
16	0xbe2fa058	-0.1715101
17	0xbd5d503e	-0.054031603
18	0x3ecfc147	0.40577146
19	0xbee26c60	-0.4422331
20	0x3eee180f	0.4650273
21	0x3f123ab2	0.5712081
22	0x3e188c98	0.14897382
23	0x3f292887	0.66077465
24	0xbece8d8e	-0.40342373
25	0xbee37f5a	-0.444331
26	0xbf32c91d	-0.69838125
27	0xbf09f975	-0.53896266
28	0xbf478e79	-0.7795177
29	0x3d083539	0.033253882
30	0x3f3bdbfb	0.7338254
31	0x3e401f18	0.18761861
32	0xbeedfa39	-0.46479967
33	0xbf01ee41	-0.5075417
34	0xbea7c3bf	-0.3276653
35	0x3f162fcd	0.5866669
36	0x3e1f5a9a	0.15561906
37	0x3f08efb8	0.5349078
38	0x3f4d4db5	0.80196697
39	0x3e6e8e88	0.23296559
40	0xbeaa4b92	-0.3326078
41	0xbf159c90	-0.5844202
42	0xbecbdfbd	-0.39819136
43	0x3e4f2c77	0.20231806
44	0x3ed380d6	0.41309232
45	0xbf1b7b67	-0.6073517
46	0x3ef1a094	0.47192824
47	0x3ed0c979	0.4077871
48	0xbeed31ff	-0.46327206
49	0x3f0e9683	0.5569841
50	0x3ea82618	0.32841563
51	0xbeb879fc	-0.36030567
52	0x3eaf796e	0.3427233
53	0xbe2eafbd	-0.17059226
54	0xbe817791	-0.25286534
55	0x3e7b4c41	0.24540807
56	0xbf238f20	-0.63890266
57	0x3f0d08eb	0.5509173
58	0xbf8374f8	-1.0270071
59	0x3e970c65	0.29501644
60	0xbe651b9b	-0.22373812
61	0xbee88892	-0.45416695
62	0x3f2d5af0	0.67716885
63	0xbf0353fb	-0.5130002
64	0x3f135130	0.5754576
65	0x3e704e0b	0.23467271
66	0x3ea32797	0.31866142
67	0x3f16fc7c	0.5897901
68	0x3e08e4bc	0.13368505
69	0x3ef16a1e	0.47151273
70	0x3f3ecea7	0.74534076
71	0xbe6e8e84	-0.23296553
72	0x3e85cb71	0.26131776
73	0xbe0ff545	-0.14058407
74	0x3f116a38	0.568027
75	0x3f06e403	0.5269167
76	0x3f3b6bc6	0.73211324
77	0xbf24c6c1	-0.64365774
78	0xbf331968	-0.6996064
79	0xbea6405c	-0.32470977
80	0xbe41e6be	-0.18935677
81	0xbf60708a	-0.8767172
82	0x3f2dcc21	0.678896
83	0xbf03c8a5	-0.51478034
84	0x3ee7d4f7	0.45279667
85	0xbe64ada9	-0.22331871
86	0x3f3861ee	0.7202443
87	0xbe951e74	-0.29124796
88	0xbedb1e23	-0.4279643
89	0x3dfaddbd	0.122493245
90	0x3f1ea26d	0.6196659
91	0x3ed2e22e	0.41188186
92	0xbf1113a8	-0.5667062
93	0xbec05389	-0.37563732
94	0xbef749d4	-0.48298514
95	0xbf1cc7a2	-0.61242115
96	0x3ea7d5b6	0.32780236
97	0x3f0b1879	0.5433422
98	0xbeb3d935	-0.35126653
99	0xbf04fc71	-0.51947695
100	0x3e76f8da	0.24118367
101	0x3f1b7e05	0.60739166
102	0x3e57745f	0.21040486
103	0x3ed637e4	0.41839516
104	0x3f203591	0.62581736
105	0x3f02680a	0.5094
106	0x3ed4a28a	0.41530257
107	0xbf069ae2	-0.5258008
108	0xbf2489b9	-0.6427265
109	0xbf0458fe	-0.5169829
110	0x3f086fb2	0.53295434
111	0x3ed5f19a	0.4178589
112	0xbe7933c2	-0.2433615
113	0x3e5a4ef0	0.21319175
114	0xbef088ef	-0.46979472
115	0x3f47fe20	0.7812214
116	0xbe2b5714	-0.16732436
117	0x3f35a0f9	0.7094875
118	0xbed720d0	-0.4201722
119	0xbdaae232	-0.083439246
120	0x3ec2aa6c	0.38020647
121	0x3d2c3522	0.04204286
122	0x3e9bdaa8	0.3044026
123	0xbec4af92	-0.384152
124	0xbf3c6209	-0.7358709
125	0xbef1c459	-0.47220114
126	0xbf120f94	-0.5705502
127	0x3f68097d	0.9063948
128	0x3eacce17	0.33750984
129	0xbf403b1f	-0.7509021
130	0x3f0a1e31	0.5395232
131	0xbf585a33	-0.84512633
132	0xbf168505	-0.5879672
133	0x3f3106c8	0.6915097
134	0x3e9c90b9	0.30579165
135	0x3e947804	0.28997815
136	0x3f4c5867	0.7982239
137	0x3e9e8578	0.30961204
138	0x3f19977d	0.5999678
139	0xbf3c4ddc	-0.73556304
140	0x3e8dcc52	0.27694947
141	0x3e967847	0.2938864
142	0xbef3abfa	-0.47592145
143	0x3f07015f	0.5273647
144	0x3e25ea78	0.16202724
145	0x3d5113b1	0.05104417
146	0xbec444a3	-0.38333616
147	0x3ed5e77f	0.4177818
148	0xbee0edfe	-0.43931574
149	0xbf0a24ea	-0.53962576
150	0xbe101d5b	-0.14073698
151	0xbf1fce33	-0.6242401
152	0x3ec321ef	0.38111827
153	0x3ed6eb46	0.41976374
154	0x3f28e685	0.65976745
155	0x3f025885	0.5091632
156	0x3f3c85e1	0.73641783
157	0xbd00ad4a	-0.03141526
158	0xbf3178f4	-0.69325185
159	0xbe357fbd	-0.1772451
160	0x3ee0d1cf	0.4391007
161	0x3ef57e57	0.47947952
162	0x3e9e7d25	0.30954853
163	0xbf0de201	-0.5542298
164	0xbe168b0c	-0.1470148
165	0xbf015d79	-0.5053325
166	0xbf41f3c5	-0.7576259
167	0xbe615dea	-0.22008482
168	0x3ea0e127	0.31421778
169	0x3f0d56e8	0.55210733
170	0x3ec09a08	0.37617517
171	0xbe43b80e	-0.1911318
172	0xbec7cf25	-0.39025226
173	0x3f12e2a8	0.573771
174	0xbee44480	-0.4458351
175	0xbec53e3a	-0.38524038
176	0x3ee014a6	0.43765754
177	0xbf06b445	-0.5261882
178	0xbe9eda0e	-0.31025738
179	0x3eae46d6	0.3403842
180	0xbea5c5b4	-0.32377398
181	0x3e25072a	0.16116014
182	0x3e749e17	0.23888431
183	0xbe6d674b	-0.23183934
184	0x3f1a840d	0.60357744
185	0xbf053ca9	-0.52045685
186	0x3f78608f	0.97022337
187	0xbe8eb267	-0.27870485
188	0x3e5870bc	0.21136755
189	0x3edbad35	0.42905584
190	0xbf23c534	-0.63972783
191	0x3ef8223b	0.48463616
192	0xbf0b2c02	-0.54364026
193	0xbe6304ae	-0.22169754
194	0xbe9a223e	-0.3010425
195	0xbf0ea35f	-0.55718035
196	0xbe015319	-0.12629355
197	0xbee4110c	-0.44544256
198	0xbf3441e6	-0.70413053
199	0x3e615de6	0.22008476
200	0xbe7ccb54	-0.24686939
201	0x3e07ffa2	0.1328111
202	0xbf095ff7	-0.53662056
203	0xbefedd70	-0.49778318
204	0xbf310ef3	-0.69163436
205	0x3f1baa73	0.6080696
206	0x3f29325f	0.66092485
207	0x3e9d0f2d	0.3067564
208	0x3e372e32	0.17888716
209	0x3f5407bd	0.8282431
210	0xbf243024	-0.64135957
211	0x3ef8fea9	0.4863179
212	0xbedb0389	-0.42776135
213	0x3e5808dd	0.21097131
214	0xbf2e301d	-0.68042165
215	0x3e8cdfc5	0.27514473
216	0x3ecf00ab	0.40430197
217	0xbdecfee4	-0.11572054
218	0xbf15dd0f	-0.58540434
219	0xbec73943	-0.38910875
220	0x3f090e30	0.53537273
221	0x3eb5b148	0.35486817
222	0x3ee99d9e	0.45628065
223	0x3f141c84	0.5785601
224	0xbe9e8e1e	-0.30967802
225	0xbf0367aa	-0.51330054
226	0x3ea9e791	0.33184484
227	0x3efb4437	0.4907548
228	0xbe69511f	-0.22784851
229	0xbf12e521	-0.5738087
230	0xbe4b8ac0	-0.19877148
231	0xbeca5fc5	-0.3952619
232	0xbf1759e8	-0.5912156
233	0xbef66471	-0.48123506
234	0xbec8e0d4	-0.3923403
235	0x3efe5346	0.49672908
236	0x3f1b70cb	0.60718983
237	0x3efa0f66	0.48839873
238	0xbf00e487	-0.50348705
239	0xbeca1d5e	-0.3947553
240	0x3e6b6c76	0.22990593
241	0xbe4e3ced	-0.20140429
242	0x3ee33c51	0.44381955
243	0xbf3cef5c	-0.73802733
244	0x3e21ddde	0.15807292
245	0xbf2b9623	-0.67025965
246	0x3ecb3bd0	0.3969407
247	0x3da16f73	0.078825854
248	0xbeb7e70e	-0.35918468
249	0xbd22afa5	-0.03971829
250	0xbe933ca4	-0.28757203
251	0x3eb9cf9c	0.36291206
252	0x3f31f799	0.6951843
253	0x3ee4664a	0.4460929
254	0x3f09fc2e	0.5390042
255	0xbf5b3527	-0.8562798
