save/model/lunarlander_dqn_dueling_noisy_mod_hid_64_64.pth (torch_old, 113944 bytes, 30 tensors)

weight f4 [64, 8]
-0.08286497 -0.015952114 -2.048906 2.7250998 -0.15322527 0.030599112 -0.14660887 0.7658278
0.98050225 -0.6073003 -1.4071732 -0.5831746 -0.18658075 -0.56325394 0.43922687 -0.13447277
-0.07615041 -0.05694004 1.6188078 2.478767 0.046333797 -0.1290749 -0.6296741 -0.24432495
-0.038836963 -0.2534997 0.5320793 -0.173921 1.7108542 -1.3291483 0.04717322 0.056006074
0.04123385 0.088404015 -0.28249753 -0.024411635 -0.63576984 -0.9003928 -0.8777567 0.64032084
0.09208884 -1.6083341 -1.2912685 -0.708153 -1.3527611 -0.28634748 0.60655695 -0.39018506
0.31130123 0.2232874 -0.90400875 -0.7346189 0.17723057 0.7827479 -0.9663178 -0.3497536
-0.073280826 0.25885478 0.70083773 -0.84060234 -0.5847471 0.18926363 -0.866973 -0.9876533
-0.2705012 -1.9877723 0.85102457 -0.7455249 0.031595822 0.87698495 -0.03274466 0.40902686
0.6456921 -0.51058555 1.0752285 -0.5842435 -0.9898875 -0.8940637 -0.39063844 0.95022327
0.8155431 -0.35383806 -0.53274614 0.4374179 0.06383458 0.625448 0.60290104 -0.8603375
0.37150127 0.5942514 0.21066087 -0.7450682 -0.094957106 -0.47754133 -0.0038553204 -0.5952323
0.59349513 -0.41125 -0.8634044 0.63777995 -1.4062091 0.15175726 1.0710745 -0.8733321
-0.0027442565 -0.15731423 -0.8012483 -1.0860772 -0.28526554 -0.04098801 -0.63712883 0.2847868
0.24169023 0.04650707 0.6900728 -0.843032 -0.949991 -0.46334782 -0.65953577 -1.5616282
-0.50831246 0.05121254 0.76917326 -0.5720316 0.2606824 -0.5066173 0.17478982 -0.9730419
-0.82002896 -1.397164 1.6749635 -0.37345105 -0.96780497 0.20571396 -0.016843734 -0.34080482
1.1612046 -0.24911986 0.8687632 -0.019972615 -0.39578786 -0.069342665 0.31110832 -0.53846985
0.80966914 -0.88879275 -0.923397 0.014386411 0.17826423 -0.99080175 -0.48029795 0.2141505
-0.42451698 0.13062254 -0.054223742 -0.020626996 0.98284465 1.0977529 0.9220707 -0.60690147
0.27446368 0.3412244 0.07123538 -1.2039434 0.11277396 -0.07104778 -0.34108862 0.31876802
0.039635863 -0.15250157 0.3686688 0.17183311 -0.3939598 0.37855664 0.40802124 -0.3614006
0.036873154 -0.30078378 0.5841921 1.0236098 -1.4240962 0.48123893 -0.6970158 0.7538598
1.1121336 0.39685857 -0.23357989 -0.8172597 1.5278606 0.14942126 0.18825398 -0.17630619
-0.20469649 -0.13256551 -0.4747393 0.00086763 0.6295628 -0.23580359 -1.3711126 0.9262766
0.15668952 0.032452792 1.1037308 1.3593799 0.6404132 0.45206383 0.86634874 0.4970186
-0.16778898 0.53035945 0.082946256 -1.9747216 0.89083344 0.04027707 -1.7172891 -0.09957912
-0.84941393 -0.29195637 -0.0008247378 0.49798176 -0.022831263 0.5968839 0.3207371 -0.6642393
0.064189255 -0.08418446 -0.3424031 1.640026 0.2951015 0.3134738 -0.6927587 0.2339795
0.013769199 -0.17770365 1.5993221 0.53727347 -0.6837085 -0.11627465 0.33010566 -0.38807854
-0.20194265 0.3660189 -0.58363503 0.64906716 0.67935103 -0.8965182 -0.87865657 0.053738706
-0.09764118 -0.2231303 1.4682329 0.41895697 -1.2803208 -0.3044841 -0.062109366 -0.18019418
00000000: 1cb5 a9bd 02ae 82bc 4721 03c0 0968 2e40
00000010: 16e7 1cbe fdaa fa3c a320 16be 4a0d 443f
00000020: 3202 7b3f 0878 1bbf 401e b4bf ee4a 15bf
00000030: 060f 3fbe 6931 10bf 58e2 e03e 3bb3 09be
00000040: bff4 9bbd f639 69bd 1835 cf3f 1ea4 1e40
00000050: 82c8 3d3d 362c 04be 5232 21bf 5230 7abe
00000060: 8213 1fbd b6ca 81be 5936 083f 5918 32be
00000070: 45fd da3f 8821 aabf b538 413d a066 653d
00000080: d3e4 283d 2a0d b53d 84a3 90be e9fa c7bc
00000090: d0c1 22bf 2480 66bf aab4 60bf 11ec 233f
000000a0: 1399 bc3d e4dd cdbf 4948 a5bf 8449 35bf
000000b0: 4727 adbf 239c 92be 5147 1b3f 56c6 c7be
000000c0: e062 9f3e 74a5 643e 1e6d 67bf fc0f 3cbf
000000d0: ee7b 353e 2b62 483f 9a60 77bf e712 b3be
000000e0: 4214 96bd 9d88 843e 1a6a 333f b731 57bf
000000f0: fcb1 15bf 53ce 413e f1f1 5dbf d9d6 7cbf
00000100: 227f 8abe 536f febf bfdc 593f b8da 3ebf
00000110: 9f6a 013d 1682 603f 441f 06bd f86b d13e
00000120: 144c 253f bcb5 02bf 16a1 893f fb90 15bf
00000130: 4469 7dbf 5ce1 64bf c301 c8be d541 733f
00000140: 6fc7 503f 432a b5be 0d62 08bf 3df5 df3e
00000150: b4bb 823d 5c1d 203f b957 1a3f 143f 5cbf
00000160: 6a35 be3e dc20 183f 7cb7 573e cabc 3ebf
00000170: df78 c2bd 4c80 f4be 8ba9 7cbb 2561 18bf
00000180: 4cef 173f 5c8f d2be 1208 5dbf 8c45 233f
00000190: a9fe b3bf 4166 1b3e f818 893f b192 5fbf
000001a0: fcd8 33bb fb16 21be 9c1e 4dbf 9404 8bbf
000001b0: 530e 92be 0be3 27bd e01a 23bf 93cf 913e
000001c0: a57d 773e 337e 3e3d 9ca8 303f f2d0 57bf
000001d0: 9c32 73bf ed3b edbe 56d7 28bf 6fe3 c7bf
000001e0: c420 02bf 3ec4 513d 8ae8 443f aa70 12bf
000001f0: 2a78 853e acb1 01bf 1afc 323e 4619 79bf
00000200: 6bed 51bf 45d6 b2bf 3465 d63f fa34 bfbe
00000210: 11c2 77bf aea6 523e dffb 89bc f87d aebe
00000220: 5aa2 943f 4719 7fbe 4467 5e3f 9c9d a3bc
00000230: b5a4 cabe 8703 8ebd 9749 9f3e 29d9 09bf
00000240: 7a46 4f3f ec87 63bf bf63 6cbf fbb4 6b3c
00000250: e68a 363e 2fa5 7dbf 9de9 f5be 454a 5b3e
00000260: 4a5a d9be eac1 053e b719 5ebd f2f9 a8bc
00000270: b59b 7b3f 2b83 8c3f d30c 6c3f e55d 1bbf
00000280: 8186 8c3e f7b4 ae3e dbe3 913d d11a 9abf
00000290: 09f6 e63d 8081 91bd 2ba3 aebe 9035 a33e
000002a0: 3759 223d 5f29 1cbe 28c2 bc3e 05f5 2f3e
000002b0: 19b5 c9be 2dd2 c13e 29e8 d03e 8009 b9be
000002c0: 4e08 173d 5500 9abe 9d8d 153f a505 833f
000002d0: c948 b6bf f364 f63e a16f 32bf f5fc 403f
000002e0: 655a 8e3f 0c31 cb3e 912f 6fbe ef37 51bf
000002f0: f090 c33f e301 193e a7c5 403e 9c89 34be
00000300: f59b 51be 41bf 07be 0811 f3be aa71 633a
00000310: 072b 213f 7f76 71be 9e80 afbf 7720 6d3f
00000320: 3873 203e 38ed 043d 0d47 8d3f 2900 ae3f
00000330: 1ff2 233f e974 e73e 08c9 5d3f 3979 fe3e
00000340: e0d0 2bbe a3c5 073f badf a93d adc3 fcbf
00000350: a90d 643f 92f9 243d 21d0 dbbf 23f0 cbbd
00000360: 3173 59bf 4e7b 95be 3833 58ba 77f7 fe3e
00000370: a108 bbbc 62cd 183f a737 a43e 960b 2abf
00000380: a875 833d e768 acbd 764f afbe 5fec d13f
00000390: 8b17 973e a37f a03e a258 31bf 5298 6f3e
000003a0: 3598 613c f2f7 35be 96b6 cc3f c18a 093f
000003b0: 8507 2fbf 6721 eebd 9c03 a93e 3bb2 c6be
000003c0: 0eca 4ebe d466 bb3e 1b69 15bf 4429 263f
000003d0: f3e9 2d3f 3782 65bf a3ef 60bf 1e1d 5c3d
000003e0: 19f8 c7bd 457c 64be 0eef bb3f 8781 d63e
000003f0: 8de1 a3bf 57e5 9bbe 6466 7ebd d384 38be

bias f4 [64]
-0.0037896684 0.025096716 0.018659107 -0.114475474 -0.15458424 -0.24697381 -0.5604452 -0.14885081
-0.47118562 -0.341568 -0.27428633 -0.12541023 -0.2118811 0.047690652 -0.067586415 -0.45317808
-0.5731251 0.058523804 -0.41250795 -0.31227204 -0.027045796 0.259103 0.12199954 -0.03358188
0.3060178 -0.45161825 0.059695058 0.18569806 0.15194036 0.5086049 -0.6264508 0.22739781
-0.37189165 -0.19945885 0.28005296 -0.0036861212 -0.0045904173 0.13267659 0.09022598 0.047212336
-0.022317998 -0.19661175 -0.0115010375 0.017662698 -0.23683618 0.17815205 -0.031323005 -0.08004953
0.08926055 -0.47026736 0.39152983 0.13918841 -0.75684124 0.007628472 -0.082734115 -0.47035864
-0.0030898403 -0.26740587 0.06717485 -0.19614512 0.10346734 -0.0052729007 -0.41710344 -0.09107123
00000000: 165c 78bb a197 cd3c fcda 983c 1e72 eabd
00000010: 554b 1ebe b4e6 7cbe 5679 0fbf 596c 18be
00000020: 3e3f f1be 00e2 aebe 426f 8cbe 8a6b 00be
00000030: 5cf7 58be 4657 433d bf6a 8abd f506 e8be
00000040: 54b8 12bf a8b6 6f3d 3e34 d3be 1fe2 9fbe
00000050: 258f ddbc 26a9 843e e5da f93d 278d 09bd
00000060: 5dae 9c3e 823a e7be ce82 743d a227 3e3e
00000070: 4196 1b3e ee33 023f 145f 20bf f9da 683e
00000080: 9568 bebe f13e 4cbe 1a63 8f3e da92 71bb
00000090: 366b 96bb 5fdc 073e 66c8 b83d b961 413d
000000a0: 3cd4 b6bc 9754 49be d96e 3cbc 5db1 903c
000000b0: 2f85 72be 7e6d 363e 8d4c 00bd 02f1 a3bd
000000c0: 3cce b63d e2c6 f0be 9976 c83e 6887 0e3e
000000d0: 59c0 41bf 43f8 f93b 8170 a9bd d9d2 f0be
000000e0: eb7e 4abb 6ce9 88be f892 893d 44da 48be
000000f0: afe6 d33d 4cc8 acbb 958e d5be 8e83 babd

weight_mu f4 [64, 64]
-1.2088003 -1.0682857 0.13698861 0.38039348 0.95905876 0.4042377 -0.055925474 -0.8501346
1.5522909 0.52999234 -0.060843643 -0.80058247 -0.8329386 -0.052886844 -0.154121 -1.1546601
-0.07356361 0.8788376 1.6248847 0.13577323 -0.060426436 0.44468156 -0.36236718 -0.55851996
0.14714763 -0.19543186 -0.2788704 0.062225107 -0.6873492 0.6121429 0.109400965 -0.123547725
0.15170534 0.22870466 0.077220954 0.9986441 0.78907937 -0.029514696 0.4993247 -0.30842796
0.32259026 0.6042681 0.35769522 -0.17374904 0.7857422 0.45616707 -0.601824 -0.45644358
-0.5777333 0.5850427 0.84818935 -0.09587455 -0.29650614 -0.19832163 0.8380661 -0.34638667
0.15459459 0.06255194 -0.2255537 0.23940805 -0.6856183 0.23524873 1.2598292 1.3530122
0.27071604 -0.5721711 0.5537935 0.29230076 -0.43509665 1.2178885 -0.49650696 -1.3567302
-0.273672 0.69746363 0.044746332 -0.8356818 0.37881556 -1.7250812 -0.03346246 -0.30163357
0.2338508 0.29561654 0.2063068 0.19916311 -1.5796112 -0.17581947 0.03194919 -1.4094175
-1.1796882 -0.1680675 -2.5624762 -0.52103233 0.5561945 0.59459454 0.64051056 0.9083328
-0.04324337 -1.7041517 -0.6978686 -0.6034554 0.38121894 0.27624357 0.0005885988 -0.6444542
-0.20150538 0.17062932 -1.002396 -0.55340713 -0.014780018 0.111184895 -2.103067 -1.2699445
-0.017930727 -0.23316982 -0.3778309 -0.40803558 -0.062056746 -0.9927997 -0.5350243 0.22026765
-0.40736446 0.1782978 -0.46624318 0.73049515 0.95001304 0.73192525 -0.58083385 0.38289207
0.030627523 -0.16632949 -0.27544722 -0.22538823 -0.11053821 -0.24653216 0.03428808 -0.13837934
0.12078749 -0.3174124 0.049784534 -0.3939876 -0.21134992 -0.06266625 -0.16405518 -0.2880842
-0.21382865 -0.22179224 0.0850847 0.30645394 -0.4771364 -0.3819471 -0.42980397 0.024730401
-0.101584285 -0.007701135 -0.16815479 0.26916787 0.075963765 -0.7443399 -0.049987216 -0.4385657
0.07148251 0.10302789 0.062128115 -0.15421526 -0.076584764 0.0155784935 -0.13261825 0.05900593
-0.024633294 -0.1303087 -0.40496174 0.08006925 -0.1502915 -0.5561007 -0.012600922 -0.22144626
0.01669931 -0.26221055 0.031152496 -0.050359797 0.07548758 -0.23479968 0.1620325 0.1534588
-0.2501429 -0.59292084 0.03262882 0.034046896 -0.09105888 0.20531332 -0.19374715 0.2320345
-0.17536905 -0.14668451 -0.15427297 0.040404767 -0.22175749 -0.078432016 -0.06933494 -0.12879975
0.028426694 -0.15221846 -0.0343341 -0.07088191 -0.25940812 -0.10117709 -0.28824458 -0.16824858
0.047851536 -0.13166074 0.06662166 0.0058930316 -0.12159926 -0.1504064 -0.025478164 -0.21154541
-0.0804107 -0.11799535 -0.0023531273 -0.12993869 -0.05981667 -0.075894825 -0.0039015333 -0.07283624
0.094201595 0.009833282 -0.0213476 -0.054987803 -0.017853413 -0.14229241 -0.06409459 -0.24189548
-0.16349237 -0.112918116 -0.0010843864 -0.21662046 -0.162261 -0.25239465 -0.042121395 -0.08987281
-0.074730724 -0.1650033 -0.11499831 -0.20363605 -0.12600799 -0.14656146 -0.132794 -0.16506852
-0.17957081 -0.2028077 -0.15554854 -0.2064644 -0.12254258 -0.1419933 -0.019039722 -0.15986729
00000000: f8b9 9abf 96bd 88bf be46 0c3e efc2 c23e
00000010: e084 753f 3ef8 ce3e 1c12 65bd 6ca2 59bf
00000020: 78b1 c63f 94ad 073f 2f37 79bd f9f2 4cbf
00000030: 773b 55bf e09f 58bd e5d1 1dbe e7cb 93bf
00000040: 85a8 96bd 80fb 603f 39fc cf3f 2308 0b3e
00000050: b681 77bd 4dad e33e 3188 b9be 2afb 0ebf
00000060: dead 163e 4a1f 48be 1ac8 8ebe c1df 7e3d
00000070: 1ef6 2fbf 66b5 1c3f 9d0d e03d 9706 fdbd
00000080: a558 1b3e 8e31 6a3e 0526 9e3d 24a7 7f3f
00000090: 1b01 4a3f cec8 f1bc 7da7 ff3e 45ea 9dbe
000000a0: 8d2a a53e 50b1 1a3f d423 b73e 45eb 31be
000000b0: 6726 493f bb8e e93e 2311 1abf f9b2 e9be
000000c0: 54e6 13bf 5cc5 153f f022 593f e059 c4bd
000000d0: a7cf 97be d314 4bbe 808b 563f 9859 b1be
000000e0: 0b4e 1e3e 3b1b 803d 8df7 66be 6227 753e
000000f0: ae84 2fbf 0be5 703e 1542 a13f 812f ad3f
00000100: 4b9b 8a3e ce79 12bf 69c5 0d3f 72a8 953e
00000110: fdc4 debe c5e3 9b3f 2936 febe 56a9 adbf
00000120: bd1e 8cbe fa8c 323f ee47 373d 3eef 55bf
00000130: 1df4 c13e 76cf dcbf ef0f 09bd b76f 9abe
00000140: 9676 6f3e 0d5b 973e 1742 533e 6af1 4b3e
00000150: b330 cabf 050a 34be 27dd 023d cb67 b4bf
00000160: 0600 97bf e319 2cbe 9cff 23c0 6062 05bf
00000170: c362 0e3f 5937 183f 80f8 233f 8088 683f
00000180: f61f 31bd a521 dabf 84a7 32bf 0e7c 1abf
00000190: 212f c33e cc6f 8d3e 324c 1a3a f3fa 24bf
000001a0: 6d57 4ebe 74b9 2e3e 834e 80bf 17ac 0dbf
000001b0: e327 72bc e8b4 e33d a698 06c0 8b8d a2bf
000001c0: 76e3 92bc 12c4 6ebe 0d73 c1be 0aea d0be
000001d0: 372f 7ebd 1f28 7ebf 5af7 08bf d88d 613e
000001e0: 1392 d0be b393 363e 6db7 eebe bb01 3b3f
000001f0: 0e34 733f 745f 3b3f 87b1 14bf 6e0a c43e
00000200: 92e6 fa3c 4752 2abe 6b07 8dbe 2ccc 66be
00000210: db61 e2bd ed72 7cbe a871 0c3d 50b3 0dbe
00000220: 6e5f f73d e183 a2be deea 4b3d beb8 c9be
00000230: 1d6c 58be 2a57 80bd 15fe 27be c67f 93be
00000240: e6f5 5abe 811d 63be e340 ae3d 88e7 9c3e
00000250: 394b f4be 928e c3be 440f dcbe 6997 ca3c
00000260: 6c0b d0bd cd59 fcbb c530 2cbe 5fd0 893e
00000270: e492 9b3d 0f8d 3ebf 65bf 4cbd af8b e0be
00000280: 6c65 923d 4900 d33d 0d7a 7e3d 9bea 1dbe
00000290: 79d8 9cbd f03c 7f3c 14cd 07be 34b0 713d
000002a0: c3cb c9bc a56f 05be 2557 cfbe 59fb a33d
000002b0: 04e6 19be 9e5c 0ebf 1974 4ebc cfc2 62be
000002c0: fecc 883c 7640 86be 8533 ff3c 1346 4ebd
000002d0: 3b99 9a3d 546f 70be d9eb 253e 4e24 1d3e
000002e0: bb12 80be a9c9 17bf cca5 053d c274 0b3d
000002f0: 147d babd a83d 523e a765 46be 749a 6d3e
00000300: f293 33be 7734 16be bcf9 1dbe 787f 253d
00000310: 6514 63be f7a0 a0bd 7aff 8dbd 15e4 03be
00000320: 19df e83c 28df 1bbe eaa1 0cbd 892a 91bd
00000330: 24d1 84be ef35 cfbd cb94 93be 5b49 2cbe
00000340: f9ff 433d 13d2 06be f070 883d 551a c13b
00000350: 0809 f9bd 2304 1abe 95b7 d0bc 5c9f 58be
00000360: 5dae a4bd 8ca7 f1bd ed36 1abb a60e 05be
00000370: 5302 75bd bf6e 9bbd deb0 7fbb 2b2b 95bd
00000380: c4ec c03d c61b 213c 29e1 aebc e43a 61bd
00000390: 5241 92bc 1ab5 11be 0644 83bd 73b3 77be
000003a0: 8b6a 27be 9d41 e7bd f821 8eba c1d1 5dbe
000003b0: bf27 26be df39 81be 7c87 2cbd 3c0f b8bd
000003c0: 6c0c 99bd a0f6 28be 3c84 ebbd f885 50be
000003d0: 3d08 01be 3514 16be 26fb 07be b907 29be
000003e0: 69e1 37be d2ac 4fbe 1e48 1fbe 676b 53be
000003f0: 9bf7 fabd b166 11be 31f9 9bbc 40b4 23be

weight_sigma f4 [64, 64]
0.0009822114 -0.045176957 0.012812602 -0.007319252 -0.016611686 0.0653802 0.033596087 0.049397156
-0.22479135 0.10046201 -0.09178353 -0.0034037323 0.017753523 -0.078499034 0.019303693 0.050950527
0.032601774 0.07615304 0.35003814 0.0014102758 -0.05414306 -0.009777124 0.041237716 0.010686206
0.03137593 0.008844168 -0.03020286 -0.0012801053 0.052808113 -0.030922936 -0.37938917 -0.079548866
0.032418653 -0.019728478 0.0026464527 0.013173623 -0.010819556 0.07162477 0.03903149 -0.018802872
-0.045183223 -0.028360158 0.0018234856 -0.06134733 -0.0626288 0.09042731 -0.016335484 -0.074311905
0.06484736 0.019400798 -0.05052035 -0.014806606 0.124044895 -0.017817626 0.039884422 0.015853206
-0.04160539 -0.036275376 0.01446574 0.05686753 0.013448691 0.009022176 0.0044696266 -0.007950098
0.04254212 0.08417764 0.26268226 0.018546019 -0.24794854 -0.069944724 0.0056897914 0.194246
-0.13002345 0.16686277 -0.016391857 0.0008827617 -0.052561324 -0.056307748 0.13977167 -0.0945125
-0.006587869 0.14864326 0.100602455 0.13499749 0.14247483 -0.15086323 0.019937279 -0.04969258
-0.09870276 0.055308096 0.21028215 0.09805357 -0.094822936 0.024357168 0.00091524015 -0.027514242
0.092697755 0.08838263 0.06238136 -0.08590158 0.01155576 -0.030806947 -0.23720565 0.022069462
0.0026705342 0.051629417 0.054341223 0.082562946 -0.005492596 -0.11159767 0.01948891 -0.18525517
-0.08252564 0.4422822 -0.047019802 -0.20168848 0.26224476 0.00572255 0.07006369 -0.12792481
0.20006102 -0.07709446 -0.046216775 0.0010310304 0.007194992 0.045907337 -0.011012282 -0.10668116
0.14468199 0.05234956 -0.14506601 0.17577432 0.07155651 0.016541513 -0.17110658 -0.096099764
-0.010890495 0.18047409 -0.077427216 0.099174075 -0.046490896 0.14997263 0.16802488 -0.07189191
0.21995935 0.032709926 -0.03945981 -0.2665403 -0.14110969 0.09104776 -0.16120467 -0.04058789
-0.06567373 -0.022805294 -0.22274706 0.0871235 0.09218314 -0.04470006 0.047736455 0.105772816
0.0625 0.2118424 -0.11158151 0.056348816 0.0029082098 0.18331067 0.022643885 0.12960824
0.14986049 -0.11524843 0.062909886 0.1038153 0.11753973 0.17215519 0.14101997 0.20299852
-0.0601349 0.12621526 -0.17878534 -0.18922485 0.029624945 -0.03417545 -0.01618821 -0.054393638
0.21637385 -0.14111464 -0.00779288 0.048583746 -0.028892294 -0.00085678976 0.03209301 -0.12152302
0.012948712 0.008479052 0.06507034 0.02361187 0.14974628 0.15042603 0.033339646 0.06913542
0.03074448 0.081265226 -0.08632024 -0.049404025 0.055000827 0.08813192 -0.021336362 -0.10540229
0.038984247 0.1429459 0.0625 0.06259205 0.0057711955 -0.08038011 0.005512631 -0.01272913
0.1057824 0.02053597 0.019798147 0.029442146 -0.04306514 -0.031341095 0.10224545 0.05471755
0.0625 0.03534843 0.023141386 0.121784315 0.08506421 0.06095654 0.024926854 0.081453234
0.047763646 0.09894527 0.061679132 0.07773142 0.014489851 0.13338788 0.055657826 0.022950009
0.02959342 0.10737304 0.030499548 0.0058657066 0.057389345 -0.016189251 -0.016759306 0.13875504
0.09777741 0.057510998 0.12491778 -0.064966194 0.08896237 -0.07440884 0.023886118 -0.0025893438
00000000: 8cbd 803a 790b 39bd f3eb 513c 56d6 efbb
00000010: 3b15 88bc 0ee6 853d 0d9c 093d ac54 4a3d
00000020: b42f 66be 07bf cd3d 01f9 bbbd 2711 5fbb
00000030: d66f 913c 1ac4 a0bd c722 9e3c 80b1 503d
00000040: 7089 053d 20f6 9b3d 3338 b33e 01d9 b83a
00000050: 1dc5 5dbd 3b30 20bc e1e8 283d 3215 2f3c
00000060: 0c84 003d 21e7 103c fd6b f7bc 35c9 a7ba
00000070: 524d 583d 1952 fdbc 4c3f c2be 84ea a2bd
00000080: 6cc9 043d 9e9d a1bc 1c70 2d3b 2ed6 573c
00000090: 8244 31bc 02b0 923d 7cdf 1f3d 7b08 9abc
000000a0: 0b12 39bd 9053 e8bc 0602 ef3a 5747 7bbd
000000b0: 8743 80bd f431 b93d fed1 85bc d730 98bd
000000c0: b1ce 843d 6cee 9e3c 6dee 4ebd 6897 72bc
000000d0: 400b fe3d 45f6 91bc d95d 233d 95de 813c
000000e0: 6a6a 2abd 7d95 14bd b601 6d3c eded 683d
000000f0: e657 5c3c c0d1 133c f275 923b 2141 02bc
00000100: a540 2e3d 5465 ac3d 4a7e 863e d2ed 973c
00000110: 39e6 7dbe 2e3f 8fbd 6e71 ba3b 6ce8 463e
00000120: de24 05be 13de 2a3e 3748 86bc 2369 673a
00000130: 8b4a 57bd f4a2 66bd 4e20 0f3e c58f c1bd
00000140: 0ddf d7bb f035 183e a908 ce3d c83c 0a3e
00000150: ece4 113e e47b 1abe 8153 a33c 728a 4bbd
00000160: ac24 cabd be8a 623d 3454 573e 4fd0 c83d
00000170: 8732 c2bd af88 c73c baec 6f3a 8c65 e1bc
00000180: 52d8 bd3d f401 b53d 9983 7f3d 2bed afbd
00000190: 5f54 3d3c da5e fcbc 0ae6 72be 04cb b43c
000001a0: 2104 2f3b 5e79 533d e794 5e3d c316 a93d
000001b0: 3cfb b3bb 528d e4bd 35a7 9f3c 88b3 3dbe
000001c0: 3403 a9bd d072 e23e d697 40bd 6d87 4ebe
000001d0: f244 863e 3b84 bb3b 8d7d 8f3d b9fe 02be
000001e0: ccdc 4c3e b3e3 9dbd cd4d 3dbd a423 873a
000001f0: f8c3 eb3b 5509 3c3d dc6c 34bc a77b dabd
00000200: 8427 143e 7e6c 563d 2f8c 14be 2ffe 333e
00000210: 388c 923d 1182 873c 9036 2fbe f4cf c4bd
00000220: 0c6e 32bc 33ce 383e 2992 9ebd c71b cb3d
00000230: 3d6d 3ebd 6d92 193e b70e 2c3e 113c 93bd
00000240: 063d 613e d8fa 053d 9ca0 21bd f877 88be
00000250: 0f7f 10be 3f77 ba3d d612 25be 7d3f 26bd
00000260: f37f 86bd 2bd2 babc ce17 64be ce6d b23d
00000270: 84ca bc3d 6917 37bd 4d87 433d 6b9f d83d
00000280: 0000 803d 37ed 583e d984 e4bd 04ce 663d
00000290: aa97 3e3b cbb5 3b3e ab7f b93c 06b8 043e
000002a0: 0775 193e 5e07 ecbd e6d6 803d 1e9d d43d
000002b0: acb8 f03d 7349 303e 8a67 103e d8de 4f3e
000002c0: 0350 76bd 933e 013e 8113 37be 29c4 41be
000002d0: 03b0 f23c 8ffb 0bbd 239d 84bc ddcb 5ebd
000002e0: 1b91 5d3e 5b80 10be 6a5b ffbb c0ff 463d
000002f0: 88af ecbc 309a 60ba f673 033d 10e1 f8bd
00000300: d626 543c b9eb 0a3c 9943 853d ae6d c13c
00000310: 1757 193e 4809 1a3e 278f 083d df96 8d3d
00000320: d9db fb3c 626e a63d aac8 b0bd e05b 4abd
00000330: 8c48 613d 827e b43d 98c9 aebc 28dd d7bd
00000340: f2ad 1f3d 6960 123e 0000 803d 4330 803d
00000350: 4c1c bd3b 549e a4bd 4da3 b43b d78d 50bc
00000360: 71a4 d83d 0d3b a83c b92f a23c a830 f13c
00000370: 1265 30bd 855f 00bd 1066 d13d 821f 603d
00000380: 0000 803d 84c9 103d 0193 bd3c 0e6a f93d
00000390: 2536 ae3d 91ad 793d 6733 cc3c f4d0 a63d
000003a0: d0a3 433d d1a3 ca3d 42a3 7c3d a731 9f3d
000003b0: d766 6d3c d596 083e 76f9 633d a801 bc3c
000003c0: e66d f23c 65e6 db3d 30da f93c 1d35 c03b
000003d0: 1711 6b3d 529f 84bc d04a 89bc cd15 0e3e
000003e0: 863f c83d a790 6b3d e5d4 ff3d ff0c 85bd
000003f0: e731 b63d a963 98bd d2ac c33c fbb1 29bb

bias_mu f4 [64]
-0.2094317 -0.608356 -0.10272596 -0.22240534 -0.38970473 -0.19990255 -0.28997773 -0.3275555
-0.17201133 0.20542 -0.10130979 -0.49595582 -0.78273785 0.13262603 -0.3398825 -0.031329896
-0.8396646 -0.03577174 -0.38078249 -0.56550413 -0.51547444 -0.13521889 0.104018465 0.13440849
-0.3565887 0.15259668 0.15356416 -0.11004711 -0.752401 -0.2837737 -0.18868355 -0.8761911
-0.73498666 -0.4720538 0.3910424 -0.35695302 -0.040057655 0.1408036 -0.27757883 -0.17097679
-0.044652916 -0.44424462 -0.41849762 -0.6945952 -0.60264057 -0.54896486 0.08097921 -0.27805826
-0.2387527 -0.41307303 -0.08479091 -0.041555837 -0.7025781 0.36897573 -0.3586744 -0.37400693
-0.026084837 0.21059224 -0.2819468 -0.6805456 -0.46690136 -0.7655913 -0.8573999 -0.8467674
00000000: 4375 56be 38bd 1bbf fd61 d2bd 3abe 63be
00000010: 6187 c7be 41b3 4cbe f677 94be 5bb5 a7be
00000020: bd23 30be 9f59 523e 827b cfbd eced fdbe
00000030: 8261 48bf 1ecf 073e 1405 aebe c753 00bd
00000040: 42f4 56bf 6385 12bd ecf5 c2be e1c4 10bf
00000050: 22f6 03bf d276 0abe a207 d53d 61a2 093e
00000060: cb92 b6be 4e42 1c3e ec3f 1d3e 6160 e1bd
00000070: 5a9d 40bf c94a 91be 4336 41be 0f4e 60bf
00000080: 1628 3cbf 09b1 f1be b636 c83e 8cc2 b6be
00000090: 7f13 24bd d22e 103e d01e 8ebe 8a14 2fbe
000000a0: fae5 36bd 0874 e3be 5245 d6be fed0 31bf
000000b0: a746 1abf f688 0cbf 6ed8 a53d a75d 8ebe
000000c0: 967b 74be 4f7e d3be dba6 adbd 7436 2abd
000000d0: 29dc 33bf 63ea bc3e 2ca4 b7be d67d bfbe
000000e0: deaf d5bc 7ea5 573e 555b 90be 3d38 2ebf
000000f0: b20d efbe cbfd 43bf 8f7e 5bbf c0c5 58bf

bias_sigma f4 [64]
-0.035754412 0.16947342 -0.059486493 -0.011659753 0.070792265 0.012354569 0.051405016 -0.05871883
0.040667765 -0.0080108885 -0.023803959 0.025429945 -0.051456243 0.0012275544 0.015555646 -0.002792348
-0.15583792 0.015209955 0.0058891526 0.017686429 0.05817243 -0.009571995 0.035444044 -0.0058128512
0.064343184 0.00076153275 -0.0052162623 -0.0033907664 -0.16933453 0.09918558 0.046765555 -0.068995155
-0.06956364 -0.21839589 0.0028605766 0.069222406 -0.0050938935 -0.016961483 0.007952199 0.034161482
0.0077693798 -0.03752849 0.018385964 -0.112653054 0.0064742644 0.030343182 0.019273875 -0.042331368
0.06053512 -0.007343562 -0.019195367 -0.0037458392 0.21139865 -0.010591065 0.0108851595 0.04096528
-0.019430904 -0.005090462 -0.02601028 -0.018648561 -0.021474982 -0.012183622 0.038602833 -0.06314081
00000000: 3873 12bd 718a 2d3e 1ca8 73bd 8c08 3fbc
00000010: 89fb 903d d16a 4a3c 118e 523d 2883 70bd
00000020: 3e93 263d 1a40 03bc 8500 c3bc 7652 d03c
00000030: c8c3 52bd e4e5 a03a 1cdd 7e3c d3ff 36bb
00000040: fa93 1fbe 2d33 793c cbf9 c03b 21e3 903c
00000050: 3746 6e3d dbd3 1cbc c62d 113d bb79 bebb
00000060: 5cc6 833d 99a1 473a 2eed aabb 9f37 5ebb
00000070: 0866 2dbe cf21 cb3d 3d8d 3f3d 554d 8dbd
00000080: 6277 8ebd 2ca3 5fbe 8378 3b3b 7ac4 8d3d
00000090: adea a6bb cff2 8abc f149 023c e9ec 0b3d
000000a0: 4896 fe3b 79b7 19bd 299e 963c a5b6 e6bd
000000b0: 1126 d43b 4492 f83c 3fe4 9d3c a863 2dbd
000000c0: adf3 773d 43a2 f0bb 9a3f 9dbc c17c 75bb
000000d0: e378 583e 2586 2dbc ab57 323c 36cb 273d
000000e0: 8f2d 9fbc e4cd a6bb 8313 d5bc dec4 98bc
000000f0: 4dec afbc d19d 47bc 011e 1e3d f84f 81bd

weight_epsilon f4 [64, 64]
-0.30606875 0.06861607 0.1996474 0.30524766 0.49856785 0.14038676 0.23043585 0.39627045
-0.12606312 0.036573634 -0.199005 -0.41789323 -0.21643528 -0.09354994 -0.14287801 -0.16663665
-0.0990001 0.08800892 -0.3560118 0.32281905 0.12087193 -0.43851295 -0.15492307 -0.16323091
0.17767282 -0.30449334 0.37672156 -0.28464934 -0.25733918 -0.3491467 -0.1725971 0.10301448
0.24868664 -0.30100384 -0.4434622 -0.2999622 -0.33833167 0.19055104 -0.23824167 -0.19405408
-0.14755484 -0.30173612 0.07313205 0.39003116 -0.22931911 0.14355893 0.39792272 0.18971509
-0.4049198 0.18814698 0.2915807 0.35062993 0.30970412 -0.38487533 0.23572163 0.39899507
-0.3214488 0.049801555 0.39074376 -0.11504044 0.34100443 0.2257571 0.2447351 -0.3815776
-1.0698857 0.23985249 0.6978821 1.0670156 1.7427804 0.4907322 0.8055054 1.3851924
-0.44066286 0.12784582 -0.6956366 -1.4607764 -0.7565654 -0.32701066 -0.49944055 -0.5824906
-0.3460621 0.30764163 -1.2444654 1.1284376 0.4225167 -1.5328542 -0.5415449 -0.5705856
0.62106836 -1.0643787 1.3168578 -0.99501264 -0.89954793 -1.2204678 -0.6033258 0.36009467
0.8693024 -1.052181 -1.5501546 -1.0485399 -1.1826631 0.6660851 -0.83279127 -0.67833024
-0.51578873 -1.0547407 0.25563845 1.3633825 -0.8016017 0.50182074 1.3909681 0.663163
-1.4154269 0.6576815 1.0192417 1.2256526 1.0825934 -1.3453599 0.82398224 1.3947165
-1.1236478 0.17408499 1.3658735 -0.40213227 1.192006 0.78915054 0.85548955 -1.3338325
-1.0069944 0.22575317 0.6568583 1.0042928 1.6403341 0.46188533 0.7581551 1.3037663
-0.41475925 0.120330624 -0.65474474 -1.3749071 -0.712092 -0.3077879 -0.47008178 -0.5482499
-0.32571942 0.28955746 -1.1713116 1.0621043 0.39767978 -1.442748 -0.50971115 -0.5370447
0.5845599 -1.001811 1.2394485 -0.93652254 -0.84666955 -1.1487247 -0.5678603 0.33892712
0.8182019 -0.99033034 -1.4590315 -0.98690325 -1.1131423 0.6269305 -0.783837 -0.63845575
-0.48546898 -0.9927395 0.2406112 1.2832384 -0.75448096 0.47232208 1.3092023 0.6241801
-1.3322234 0.6190208 0.9593273 1.1536046 1.0189551 -1.2662752 0.77554584 1.3127304
-1.0575961 0.1638517 1.2855829 -0.3784936 1.121936 0.7427617 0.80520105 -1.2554255
0.41098925 -0.09213768 -0.2680866 -0.4098867 -0.6694771 -0.1885114 -0.30942935 -0.5321121
0.16927761 -0.04911109 0.26722398 0.5611472 0.2906294 0.12561889 0.19185665 0.22375976
0.13293737 -0.11817841 0.4780528 -0.43348154 -0.16230689 0.58883536 0.20803076 0.21918653
-0.23857914 0.40887377 -0.5058619 0.38222727 0.34555516 0.4688343 0.23176345 -0.13832788
-0.3339365 0.4041881 0.5954812 0.40278938 0.4543119 -0.255872 0.31991103 0.2605759
0.1981367 0.40517136 -0.09820175 -0.523734 0.30792978 -0.19277099 -0.5343308 -0.2547495
0.5437265 -0.25264382 -0.3915347 -0.470826 -0.41587085 0.5168107 -0.3165271 -0.5357707
0.43164158 -0.06687355 -0.52469087 0.15447634 -0.45790088 -0.30314675 -0.32863042 0.51238257
00000000: 0bb5 9cbe 9586 8c3d 5e70 4c3e 6c49 9c3e
00000010: 4944 ff3e 8cc1 0f3e 60f7 6b3e f6e3 ca3e
00000020: b116 01be 3cce 153d f7c7 4bbe 1af6 d5be
00000030: 36a1 5dbe 1c97 bfbd 9d4e 12be cca2 2abe
00000040: 90c0 cabd 053e b43d 2e47 b6be 8a48 a53e
00000050: b48b f73d c584 e0be 27a4 1ebe 0126 27be
00000060: ddef 353e 8de6 9bbe a6e1 c03e 8fbd 91be
00000070: f6c1 83be 5bc3 b2be 4bbd 30be 41f9 d23d
00000080: b6a7 7e3e 2d1d 9abe 7a0d e3be a594 99be
00000090: cf39 adbe d01f 433e a0f5 73be 1db6 46be
000000a0: 9e18 17be 287d 9abe 42c6 953d 2ab2 c73e
000000b0: a1d2 6abe 1d01 133e 87bc cb3e ac44 423e
000000c0: a651 cfbe 9aa9 403e 114a 953e c485 b33e
000000d0: 8a91 9e3e 610e c5be 0361 713e 1549 cc3e
000000e0: f094 a4be b7fc 4b3d 910f c83e 529a ebbd
000000f0: 2298 ae3e df2c 673e d79b 7a3e 245e c3be
00000100: 04f2 88bf e49b 753e 67a8 323f f893 883f
00000110: 6e13 df3f 4041 fb3e 9a35 4e3f fc4d b13f
00000120: 909e e1be 04ea 023e 3d15 32bf b9fa babf
00000130: 45ae 41bf f16d a7be acb6 ffbe 1b1e 15bf
00000140: 0d2f b1be 3483 9d3e a44a 9fbf a570 903f
00000150: 1c54 d83e 9134 c4bf b0a2 0abf e611 12bf
00000160: 56fe 1e3f 903d 88bf cc8e a83f 26b9 7ebf
00000170: c648 66bf 4a38 9cbf 8f73 1abf 545e b83e
00000180: 9a8a 5e3f dead 86bf 776b c6bf 8e36 86bf
00000190: 8161 97bf 8e84 2a3f cf31 55bf 0da7 2dbf
000001a0: bb0a 04bf be01 87bf 0be3 823e 5183 ae3f
000001b0: c535 4dbf 5377 003f 3e0b b23f 0dc5 293f
000001c0: b52c b5bf d15d 283f 8376 823f 2fe2 9c3f
000001d0: 6c92 8a3f c134 acbf 80f0 523f 1286 b23f
000001e0: b1d3 8fbf 5643 323e f1d4 ae3f 48e4 cdbe
000001f0: a793 983f c505 4a3f 5d01 5b3f 06bb aabf
00000200: 31e5 80bf d72b 673e de27 283f ab8c 803f
00000210: 78f6 d13f 3c7c ec3e 7416 423f d0e1 a63f
00000220: 535b d4be e76f f63d 5a9d 27bf f5fc afbf
00000230: a94b 36bf 6096 9dbe 8fae f0be 1b5a 0cbf
00000240: b2c4 a6be e040 943e 8aed 95bf 09f3 873f
00000250: af9c cb3e f7ab b8bf 6e7c 02bf c37b 09bf
00000260: b8a5 153f 583b 80bf 40a6 9e3f f1bf 6fbf
00000270: 56bf 58bf 6909 93bf 4b5f 11bf db87 ad3e
00000280: ae75 513f 4a86 7dbf 8bc1 babf b1a5 7cbf
00000290: 727b 8ebf 847e 203f 8ba9 48bf d671 23bf
000002a0: 648f f8be 2d24 7ebf c862 763e 2841 a43f
000002b0: aa25 41bf 33d4 f13e f193 a73f 44ca 1f3f
000002c0: 4c86 aabf 2678 1e3f 7996 753f 51a9 933f
000002d0: 1f6d 823f 4e15 a2bf 2c8a 463f 8d07 a83f
000002e0: 4f5f 87bf bdc8 273e fb8d a43f eac9 c1be
000002f0: 999b 8f3f a125 3e3f a821 4e3f c8b1 a0bf
00000300: 2f6d d23e aeb2 bcbd a642 89be abdc d1be
00000310: da62 2bbf 2209 41be 866d 9ebe 8038 08bf
00000320: 1c57 2d3e b628 49bd 95d1 883e 58a7 0f3f
00000330: 60cd 943e 3da2 003e 1276 443e 4721 653e
00000340: bc20 083e 8607 f2bd 56c3 f43e 4bf1 ddbe
00000350: c733 26be eabd 163f 0406 553e 6f72 603e
00000360: 174e 74be e757 d13e 2a80 01bf 4bb3 c33e
00000370: 9bec b03e 0d0b f03e 6653 6d3e d3a5 0dbe
00000380: baf9 aabe bef1 ce3e 7571 183f 693a ce3e
00000390: 929b e83e a801 83be 61cb a33e 346a 853e
000003a0: 59e4 4a3e 9f72 cf3e 001e c9bd 6e13 06bf
000003b0: f9a8 9d3e c265 45be e7c9 08bf 876e 82be
000003c0: a931 0b3f 885a 81be 3c77 c8be 1b10 f1be
000003d0: 06ed d4be b54d 043f d70f a2be 4528 09bf
000003e0: 2000 dd3e 00f5 88bd 2452 06bf 0c2f 1e3e
000003f0: fc71 eabe 0d36 9bbe 3f42 a8be 812b 033f

bias_epsilon f4 [64]
-0.32075953 -1.1212385 -1.0553284 0.43071604 -0.7241338 -0.8821856 -0.42005277 0.55743
1.4298685 -1.0339565 0.4690997 -0.16704519 -1.0605417 1.4192625 0.4091463 0.61972356
0.89870846 0.80979264 -0.9223097 0.23736966 0.50943303 -0.21863955 1.0742805 0.8185326
0.9419185 -0.5671386 -0.93799937 -0.71988106 -0.3143128 0.62626743 1.3875178 -0.5027423
-0.95090574 -1.4230169 -1.5153747 -0.57303804 -0.9275316 0.4184625 1.176186 0.71008515
-0.6676356 -1.0141098 -0.6438008 -1.4383469 -0.6814002 0.60702306 -0.5744559 0.4056412
1.0707498 1.315338 1.0097187 -0.5499317 -0.46231237 -0.64085937 -0.99539983 0.9918886
0.90375096 -0.55151147 0.770863 0.63404244 -0.73555285 0.3769097 -0.8183132 0.6152808
00000000: 983a a4be be84 8fbf 0015 87bf d086 dc3e
00000010: d560 39bf ead6 61bf 2811 d7be bcb3 0e3f
00000020: ee05 b73f b058 84bf d62d f03e e50d 2bbe
00000030: d5bf 87bf 65aa b53f a07b d13e 34a6 1e3f
00000040: c211 663f 924e 4f3f 7d1c 6cbf 0811 733e
00000050: 346a 023f 0ce3 5fbe 0682 893f 5a8b 513f
00000060: 9221 713f ff2f 11bf ba20 70bf 204a 38bf
00000070: 9bed a0be 1053 203f 2f9a b13f b8b3 00bf
00000080: 8f6e 73bf 6b25 b6bf ccf7 c1bf 9fb2 12bf
00000090: b672 6dbf b840 d63e 438d 963f 24c8 353f
000000a0: 2bea 2abf 5ace 81bf 21d0 24bf c01b b8bf
000000b0: 3e70 2ebf dd65 1b3f 8b0f 13bf 34b0 cf3e
000000c0: 540e 893f ff5c a83f 763e 813f 53c8 0cbf
000000d0: 35b4 ecbe 5c0f 24bf 86d2 7ebf 69ec 7d3f
000000e0: 395c 673f db2f 0dbf 4757 453f 9b50 223f
000000f0: 314d 3cbf 4ffa c03e f97c 51bf 0b83 1d3f

epsilon_in f4 [64]
0.9542 -0.21391746 -0.6224208 -0.9516402 -1.5543352 -0.43766978 -0.71840686 -1.2354128
0.3930144 -0.11402197 0.620418 1.302824 0.6747587 0.2916513 0.4454365 0.51950645
0.30864272 -0.27437663 1.1099025 -1.0064207 -0.37683037 1.3671081 0.48298818 0.5088887
-0.5539128 0.9492885 -1.1744672 0.88742286 0.80228066 1.0884998 0.53808874 -0.32115796
-0.7753055 0.9384097 1.3825378 0.93516225 1.0547829 -0.594062 0.7427423 0.60498303
0.460017 0.94069254 -0.22799651 -1.2159612 0.7149253 -0.44755936 -1.240564 -0.5914558
1.2623781 -0.58656704 -0.90903205 -1.0931239 -0.9655337 1.1998874 -0.7348858 -1.2439071
1.0021489 -0.15526134 -1.2181828 0.3586501 -1.0631155 -0.7038204 -0.76298624 1.1896064
00000000: 7446 743f 2e0d 5bbe f856 1fbf b19e 73bf
00000010: 75f4 c6bf 4116 e0be 83e9 37bf 0222 9ebf
00000020: 2f39 c93e 5a84 e9bd b7d3 1e3f f0c2 a63f
00000030: fcbc 2c3f 5253 953e 4110 e43e 60fe 043f
00000040: 6b06 9e3e 187b 8cbe 4911 8e3f 65d2 80bf
00000050: e9ef c0be 66fd ae3f 3a4a f73e 8846 023f
00000060: 3bcd 0dbf 9204 733f f154 96bf 252e 633f
00000070: 4462 4d3f f653 8b3f 2fc0 093f d16e a4be
00000080: 6c7a 46bf 9e3b 703f 00f7 b03f cb66 6f3f
00000090: 2003 873f 7214 18bf 5c24 3e3f 2be0 1a3f
000000a0: 5987 eb3e 3ad1 703f eb77 69be 9ea4 9bbf
000000b0: 5805 373f 8026 e5be cdca 9ebf a669 17bf
000000c0: 9b95 a13f 4229 16bf 53b6 68bf 7ceb 8bbf
000000d0: 372d 77bf e995 993f 7a21 3cbf 5938 9fbf
000000e0: 6a46 803f d4fc 1ebe 6aed 9bbf fca0 b73e
000000f0: 2b14 88bf 932d 34bf 1153 43bf 0645 983f

epsilon_out f4 [64]
-0.32075953 -1.1212385 -1.0553284 0.43071604 -0.7241338 -0.8821856 -0.42005277 0.55743
1.4298685 -1.0339565 0.4690997 -0.16704519 -1.0605417 1.4192625 0.4091463 0.61972356
0.89870846 0.80979264 -0.9223097 0.23736966 0.50943303 -0.21863955 1.0742805 0.8185326
0.9419185 -0.5671386 -0.93799937 -0.71988106 -0.3143128 0.62626743 1.3875178 -0.5027423
-0.95090574 -1.4230169 -1.5153747 -0.57303804 -0.9275316 0.4184625 1.176186 0.71008515
-0.6676356 -1.0141098 -0.6438008 -1.4383469 -0.6814002 0.60702306 -0.5744559 0.4056412
1.0707498 1.315338 1.0097187 -0.5499317 -0.46231237 -0.64085937 -0.99539983 0.9918886
0.90375096 -0.55151147 0.770863 0.63404244 -0.73555285 0.3769097 -0.8183132 0.6152808
00000000: 983a a4be be84 8fbf 0015 87bf d086 dc3e
00000010: d560 39bf ead6 61bf 2811 d7be bcb3 0e3f
00000020: ee05 b73f b058 84bf d62d f03e e50d 2bbe
00000030: d5bf 87bf 65aa b53f a07b d13e 34a6 1e3f
00000040: c211 663f 924e 4f3f 7d1c 6cbf 0811 733e
00000050: 346a 023f 0ce3 5fbe 0682 893f 5a8b 513f
00000060: 9221 713f ff2f 11bf ba20 70bf 204a 38bf
00000070: 9bed a0be 1053 203f 2f9a b13f b8b3 00bf
00000080: 8f6e 73bf 6b25 b6bf ccf7 c1bf 9fb2 12bf
00000090: b672 6dbf b840 d63e 438d 963f 24c8 353f
000000a0: 2bea 2abf 5ace 81bf 21d0 24bf c01b b8bf
000000b0: 3e70 2ebf dd65 1b3f 8b0f 13bf 34b0 cf3e
000000c0: 540e 893f ff5c a83f 763e 813f 53c8 0cbf
000000d0: 35b4 ecbe 5c0f 24bf 86d2 7ebf 69ec 7d3f
000000e0: 395c 673f db2f 0dbf 4757 453f 9b50 223f
000000f0: 314d 3cbf 4ffa c03e f97c 51bf 0b83 1d3f

weight_mu f4 [4, 64]
-0.35337588 -0.93236583 -0.2534209 -0.072556034 -0.35641357 0.006584891 0.10163337 0.73224735
0.05314389 -0.40933514 -1.0925728 0.20604561 -0.4104732 -0.42915505 -0.013116413 -0.052570477
-0.1526704 -0.38689166 -0.49837363 -0.013286736 0.66229236 0.21735069 1.3795884 0.5815025
0.25833604 -0.6158691 0.42335674 -0.014147197 -0.56560653 -0.61295867 0.028806167 -1.4367887
0.01702097 0.31824312 0.7158852 0.29314038 1.379249 -0.20268513 0.5741077 -0.017144874
-0.45561796 0.33963105 -0.043673042 -0.88845557 -0.4533202 0.07522568 0.041684072 0.16384956
-1.8034519 0.27694055 -1.6341752 0.32985976 0.22911309 -1.8940805 0.5721662 0.09769566
-1.3265185 0.115647234 -1.0116687 0.7654199 -0.32690316 -1.5211365 -0.5802082 -1.2986928
0.2875303 1.3552005 0.14426339 -0.05812126 -0.057423677 -0.05483983 -0.28817517 0.3520841
-0.111813165 -0.10745109 0.3797534 -0.09012474 -0.5273847 0.63837373 -0.3939324 0.4176038
-0.3834179 0.52960086 0.6454881 0.2787317 -0.26428467 0.5233581 -0.13005242 0.72055215
-0.577219 0.52888674 -1.5161513 0.019248955 -0.4811623 0.4091821 0.085098974 -0.87958366
-0.03830755 -0.036576696 0.32758832 0.4330222 -1.1697456 -1.052909 -0.08801616 0.18659027
0.24943659 0.0832959 1.4513204 -0.87904793 -0.36112043 0.31409925 -1.0727408 0.70176417
-1.4488214 0.14415611 0.028778266 -0.41992754 0.41109335 0.08945789 0.102180555 0.19823152
-0.68305826 0.63639784 -0.059615422 -0.2462246 0.1873674 -0.5146323 -0.57376605 -0.15099843
0.57132685 -0.822314 -0.055172108 -0.0419353 0.5874005 -0.029644204 0.11849456 1.2438203
-0.028272219 0.251099 0.35095185 -0.027552543 0.717497 -0.064277776 0.17017727 0.7407443
-1.1376631 0.16619201 0.8563723 -0.6934014 -0.48372018 0.31490144 -1.4765189 -1.470879
0.297217 -0.10745374 0.06866651 -0.013834373 -0.720644 0.26337 0.023386663 -0.019969923
7.863266e-05 0.051969502 -0.6484897 -0.47666207 0.66915846 0.47497845 -0.6571178 0.003296378
0.14149493 0.3559516 -1.0990498 -0.2276923 -0.6273937 -0.30181974 0.24907075 0.28482616
1.5903518 -0.31618688 0.38396385 -1.0103586 -0.3517293 0.0070635793 -0.20250377 0.043299746
-0.2160266 -0.5854544 0.27747202 -0.37255076 0.31941837 1.4621675 0.7359635 0.9368417
-0.8615857 0.15981886 0.09490345 -0.07809427 -0.5071533 -0.123067245 0.067965634 -1.0692153
-0.0039088987 0.506727 0.08340551 0.15771987 -0.274663 -0.40666264 -0.26529452 -1.7853456
0.81866693 -0.42850837 -0.7148439 0.7491928 -0.07245403 -1.0095687 -0.06326659 0.59579283
0.24794473 0.69005287 0.7612723 -0.055711057 0.7054316 0.32874548 -0.012568645 1.0471675
-0.14163281 -0.32924458 0.09621601 -0.2670658 -0.8687991 0.3804025 -0.29952428 0.009173003
-0.32417062 -1.165686 -0.099815205 0.9895923 0.5774466 -0.347099 0.6178327 -0.8276797
-1.0202683 0.100022055 0.40844017 1.0542637 -0.2883268 1.2126114 0.15973005 -0.22420806
1.3064663 -0.08748148 0.49458006 -0.30792502 -0.45408255 -0.51679426 -0.11353014 -0.60073066
00000000: afed b4be 87af 6ebf 62c0 81be 4298 94bd
00000010: d77b b6be 12c6 d73b 2825 d03d 9074 3b3f
00000020: 68ad 593d 6094 d1be 6dd9 8bbf 9ffd 523e
00000030: 8b29 d2be 36ba dbbe 39e6 56bc 2454 57bd
00000040: a155 1cbe aa16 c6be d42a ffbe 9cb0 59bc
00000050: fe8b 293f 2e91 5e3e 5a96 b03f 59dd 143f
00000060: 9f44 843e 99a9 1dbf 37c2 d83e a5c9 67bc
00000070: 97cb 10bf dcea 1cbf e9fa eb3c b1e8 b7bf
00000080: 906f 8b3c c3f0 a23e 4144 373f 7f16 963e
00000090: 3b8b b03f b18c 4fbe b9f8 123f 6873 8cbc
000000a0: c246 e9be 1fe4 ad3e 81e2 32bd d371 63bf
000000b0: 9619 e8be ec0f 9a3d ebbc 2a3d 2ec8 273e
000000c0: 83d7 e6bf 27cb 8d3e a72c d1bf 61e3 a83e
000000d0: 9f9c 6a3e 3b71 f2bf 7c79 123f aa14 c83d
000000e0: 5ccb a9bf 75d8 ec3d 5c7e 81bf 8ff2 433f
000000f0: da5f a7be 9ab4 c2bf 8688 14bf 913b a6bf
00000100: 2c37 933e 3677 ad3f c8b9 133e 8f10 6ebd
00000110: 1735 6bbd bb9f 60bd b28b 93be 5e44 b43e
00000120: 4dfe e4bd 510f dcbd 0a6f c23e 5293 b8bd
00000130: af02 07bf 766c 233f 82b1 c9be 2ad0 d53e
00000140: 5a4f c4be ec93 073f b53e 253f ecb5 8e3e
00000150: 5250 87be ccfa 053f 762c 05be 1b76 383f
00000160: a0c4 13bf 1f65 073f 3f11 c2bf fcaf 9d3c
00000170: e85a f6be 5180 d13e 5f48 ae3d 652c 61bf
00000180: 61e8 1cbd 72d1 15bd a8b9 a73e 16b5 dd3e
00000190: 39ba 95bf b9c5 86bf d141 b4bd 8511 3f3e
000001a0: 4e6c 7f3e 0a97 aa3d dec4 b93f 4909 61bf
000001b0: c7e4 b8be 9ed1 a03e 924f 89bf d1a6 333f
000001c0: fb72 b9bf a99d 133e 66c0 eb3c be00 d7be
000001d0: d47a d23e b335 b73d 0a44 d13d 34fd 4a3e
000001e0: e8dc 2ebf f8ea 223f 4d2f 74bd 4d22 7cbe
000001f0: 3ddd 3f3e f1be 03bf 55e2 12bf 559f 1abe
00000200: 7a42 123f 2c83 52bf 26fc 61bd 59c4 2bbd
00000210: e15f 163f 67d8 f2bc 47ad f23d 8135 9f3f
00000220: 249b e7bc 0c90 803e f6af b33e dfb5 e1bc
00000230: e2ad 373f 11a4 83bd f342 2e3e 6ba1 3d3f
00000240: f29e 91bf 3d2e 2a3e 373b 5b3f c182 31bf
00000250: 2caa f7be c33a a13e 92fe bcbf c345 bcbf
00000260: d42c 983e b510 dcbd 07a1 8c3d 91a9 62bc
00000270: 207c 38bf 6fd8 863e 6395 bf3c f797 a3bc
00000280: 96e7 a438 f9dd 543d 6c03 26bf 0d0d f4be
00000290: f84d 2b3f 6030 f33e df38 28bf 0c08 583b
000002a0: 0ce4 103e 4a3f b63e aaad 8cbf 2c28 69be
000002b0: e09c 20bf 1e88 9abe 670c 7f3e bcd4 913e
000002c0: a690 cb3f 3fe3 a1be e996 c43e 6e53 81bf
000002d0: dd15 b4be 9975 e73b 265d 4fbe 135b 313d
000002e0: 1436 5dbe 57e0 15bf d010 8e3e f9be bebe
000002f0: ce8a a33e 4e28 bb3f 1b68 3c3f dcd4 6f3f
00000300: e190 5cbf 8ea7 233e bd5c c23d e3ef 9fbd
00000310: ccd4 01bf ae0a fcbd 9131 8b3d 0cdc 88bf
00000320: 3816 80bb dcb8 013f 82d0 aa3d 5181 213e
00000330: a1a0 8cbe 1636 d0be afd4 87be 3486 e4bf
00000340: 2894 513f 7365 dbbe 0300 37bf 19cb 3f3f
00000350: c762 94bd 8c39 81bf ea91 81bd e185 183f
00000360: 39e5 7d3e 4ea7 303f bee2 423f 4731 64bd
00000370: 2a97 343f 5451 a83e b8ec 4dbc 9609 863f
00000380: 3108 11be bf92 a8be e60c c53d d9bc 88be
00000390: 9e69 5ebf 1ec4 c23e 3f5b 99be 5d4a 163c
000003a0: b1f9 a5be 3335 95bf ea6b ccbd ec55 7d3f
000003b0: 8ad3 133f f6b6 b1be 492a 1e3f d1e2 53bf
000003c0: 2798 82bf 5dd8 cc3d 121f d13e 1df2 863f
000003d0: 929f 93be da36 9b3f 4690 233e cc96 65be
000003e0: 4a3a a73f 7d29 b3bd 9939 fd3e 59a8 9dbe
000003f0: 827d e8be a14c 04bf 7d82 e8bd 7cc9 19bf

weight_sigma f4 [4, 64]
-0.006109571 -0.0040112184 -0.04556978 -0.06293979 0.06580961 -0.027785897 0.2252184 -0.0078039994
0.061852977 -0.0059627225 0.05475564 0.5923434 0.021782126 0.0013142861 -0.14184062 0.00048635306
-0.26372233 -0.015635248 0.033931177 0.035089757 1.0242789 0.0351794 -0.011371427 0.007984396
-0.11144577 -0.029306069 -0.008748816 0.085180335 0.06877349 0.008230929 0.08883405 0.2888222
0.10880222 0.44762492 0.0070172106 0.48058432 0.02817555 -0.015459133 -0.017593557 0.066352
-0.0036967257 0.0230029 0.004578257 -0.15737128 0.21532722 0.25802824 0.008766451 -0.014983803
-0.46102965 0.17068927 0.003519548 0.0042405785 0.5986755 -0.018772269 -0.11742868 -0.043355275
-0.009069454 -0.010815768 -0.006308018 0.7305662 0.09123083 0.16433643 0.008903531 0.092197575
-0.008223664 0.09899473 0.0894483 -0.02568747 -0.009191521 0.030981202 -0.23549135 -0.00034029695
0.07807527 -0.010354051 0.012235938 -0.04072848 0.019478394 0.022981498 0.04130385 0.00048302632
0.06004649 -0.023767816 -0.011562817 0.14044131 -0.26078954 -0.012872128 0.030491494 -0.006433413
-0.22658244 0.0144352475 0.006224436 0.068460025 0.15615265 -0.072222866 0.0050520813 -0.08797263
-0.13153514 0.09481936 0.023384254 0.14823051 0.00076908723 0.0060205148 -0.01724042 -0.037407916
0.033078294 -0.04881404 0.032751072 0.14040735 -0.06477169 0.010758708 0.04806434 -0.021269957
0.04609332 -0.15775062 -0.014477877 -0.013473904 0.29533827 -0.041506384 0.11639644 -0.019808603
0.05386299 0.0020125015 0.0031643547 -0.26559424 0.23383047 -0.065323226 -0.01680685 0.033101913
0.03186762 0.08971917 0.004002492 0.044536106 0.16611634 0.0088076815 -0.047101732 -0.009460962
0.08976626 0.0039676125 -0.030501971 0.30287713 0.019025551 -0.003978359 0.2639433 -0.020446608
0.11225505 0.02528398 0.039597873 -0.14287256 0.4019854 0.006269882 -0.005777674 -3.32567e-05
0.054853365 0.023854245 0.00010525772 -0.001175556 -0.0785505 0.014020871 -0.014385291 0.00409989
-0.35142112 -0.11254069 0.02154121 0.22579125 -0.064130686 0.005274622 -0.075634 0.0015284157
0.0437342 0.055283684 0.0034199748 -0.043920066 -0.08279203 0.010933254 0.06842348 -0.027931547
0.009869547 0.25097355 0.014571799 -0.013384714 0.60668737 0.018295733 -0.2897109 0.046223495
0.03713814 0.0172347 0.032763574 0.5437878 0.08676935 -0.08418566 -0.036776856 -0.034150466
0.01531716 0.059119064 -0.09979635 -0.13139756 0.16473384 0.10788794 0.1494167 -0.004561829
0.02967694 0.0262171 0.039347112 0.09530302 0.037568215 0.00999328 0.06950814 0.015083352
-0.008247474 -0.011249693 -0.048012987 -0.0295532 -0.20926176 -0.030779926 0.014263003 0.026861697
-0.11642656 0.06611985 -0.008947737 0.084256195 -0.13705984 0.105180845 0.016687855 -0.123866744
-0.06596758 0.082782805 0.009440065 -0.12420139 0.058279425 -0.007997088 0.028600559 -0.15983102
0.009267215 0.007731313 0.02562658 0.08869563 0.107231975 -0.16783418 0.008928467 -0.04740211
0.16529185 0.06785071 -0.015660506 0.013579887 -0.19249606 -0.02193506 -0.10301049 0.060604867
0.028911361 -0.0070429 0.022644185 -0.12676348 0.14901261 -0.01059594 -0.007755607 0.21230905
00000000: cc32 c8bb 8a70 83bb 61a7 3abd 94e6 80bd
00000010: 30c7 863d 409f e3bc a79f 663e b1b8 ffbb
00000020: 8c59 7d3d f162 c3bb 7347 603d d1a3 173f
00000030: 6e70 b23c 2044 ac3a ab3e 11be 34fd fe39
00000040: 9d06 87be 7e15 80bc 6bfb 0a3d 47ba 0f3d
00000050: 921b 833f 4618 103d 394f 3abc fcd0 023c
00000060: ae3d e4bd 4813 f0bc 3257 0fbc 0773 ae3d
00000070: 1ed9 8c3d 05db 063c a0ee b53d 81e0 933e
00000080: b3d3 de3d 182f e53e a1f0 e53b 260f f63e
00000090: 69d0 e63c 4e48 7dbc 5d20 90bc 8fe3 873d
000000a0: c444 72bb 9470 bc3c 3405 963b f025 21be
000000b0: bd7e 5c3e 471c 843e 29a1 0f3c a07e 75bc
000000c0: 140c ecbe 2bc9 2e3e 38a8 663b 8df4 8a3b
000000d0: cc42 193f 4dc8 99bc 737e f0bd 4d95 31bd
000000e0: 0c98 14bc 9e34 31bc 7eb3 cebb 6306 3b3f
000000f0: 3bd7 ba3d cf47 283e 1ee0 113c 15d2 bc3d
00000100: 8cbc 06bc c0bd ca3d ac30 b73d 876e d2bc
00000110: 0998 16bc 4acc fd3c a524 71be e269 b2b9
00000120: ede5 9f3d 0aa4 29bc 3e79 483c e8d2 26bd
00000130: 2791 9f3c b243 bc3c 3a2e 293d b23e fd39
00000140: 4ff3 753d b9b4 c2bc f871 3dbc d9cf 0f3e
00000150: 3586 85be 9ee5 52bc 4cc9 f93c 61cf d2bb
00000160: 3a05 68be d181 6c3c 5bf6 cb3b c534 8c3d
00000170: 7be6 1f3e 95e9 93bd ee8b a53b ff2a b4bd
00000180: 26b1 06be a730 c23d 5690 bf3c bdc9 173e
00000190: 929c 493a bd47 c53b c83b 8dbc 0b39 19bd
000001a0: 1b7d 073d 3bf1 47bd fd25 063d f2c6 0f3e
000001b0: 05a7 84bd 4b45 303c 1ddf 443d 553e aebc
000001c0: 59cc 3c3d 6189 21be 9e34 6dbc a6c1 5cbc
000001d0: 9436 973e 9902 2abd 4261 ee3d a745 a2bc
000001e0: 709f 5c3d 2ce4 033b 1061 4f3b f8fb 87be
000001f0: 4171 6f3e 2fc8 85bd 85ae 89bc df95 073d
00000200: 9f87 023d afbe b73d 5627 833b 7e6b 363d
00000210: 671a 2a3e 184e 103c bfed 40bd 2702 1bbc
00000220: 5fd7 b73d bf02 823b 45df f9bc b612 9b3e
00000230: 79db 9b3c e55c 82bb 9423 873e a57f a7bc
00000240: fae5 e53d 5920 cf3c 6131 223d 2f4d 12be
00000250: 08d1 cd3e 9573 cd3b a452 bdbb 1c7d 0bb8
00000260: ecad 603d fa69 c33c cfbd dc38 1d15 9aba
00000270: 16df a0bd ccb7 653c 49b0 6bbc 5f58 863b
00000280: 78ed b3be bc7b e6bd 3177 b03c d235 673e
00000290: f356 83bd bcd6 ac3b 00e6 9abd 1f55 c83a
000002a0: a222 333d 2571 623d a821 603b 87e5 33bd
000002b0: de8e a9bd 6421 333c 9c21 8c3d b3d0 e4bc
000002c0: e1b3 213c 9b7f 803e 8ebe 6e3c 8f4b 5bbc
000002d0: dd4f 1b3f efe0 953c fd54 94be d954 3d3d
000002e0: 2a1e 183d c92f 8d3c 1933 063d ad35 0b3f
000002f0: 21b4 b13d 8869 acbd 54a3 16bd 5ce1 0bbd
00000300: d3f4 7a3c d526 723d 0762 ccbd 158d 06be
00000310: fdaf 283e 5af4 dc3d b100 193e 657b 95bb
00000320: 0e1d f33c 3ec5 d63c 702a 213d 3b2e c33d
00000330: 21e1 193d dbba 233c 495a 8e3d 2a20 773c
00000340: 6a20 07bc a250 38bc 44a9 44bd 8d19 f2bc
00000350: b748 56be 2f26 fcbc 5faf 693c 100d dc3c
00000360: 0c71 eebd d869 873d 8799 12bc 838e ac3d
00000370: 6a59 0cbe 0e69 d73d f8b4 883c d9ad fdbd
00000380: 031a 87bd 088a a93d 81aa 1a3c 4c5d febd
00000390: 68b6 6e3d 3806 03bc b84b ea3c beaa 23be
000003a0: 84d5 173c f456 fd3b d5ee d13c 0ea6 b53d
000003b0: 709c db3d b9dc 2bbe b448 123c b728 42bd
000003c0: 4442 293e 50f5 8a3d 764a 80bc 2d7e 5e3c
000003d0: b01d 45be 28b1 b3bc 2af7 d2bd cf3c 783d
000003e0: 85d7 ec3c 21c8 e6bb 4c80 b93c 49ce 01be
000003f0: c396 183e 989a 2dbc bf22 febb 8b67 593e

bias_mu f4 [4]
0.06694048 0.14978077 -0.049504627 -0.21350572
00000000: 1718 893d 2160 193e 5dc5 4abd 3ea1 5abe

bias_sigma f4 [4]
0.011412372 0.010238674 -0.0062020416 -0.028890448
00000000: f5fa 3a3c 1cc0 273c 7f3a cbbb a9ab ecbc
