save/model/lunarlander_dqn_noisy_mod_hid_128_128.pth (torch_old, 213863 bytes, 18 tensors)

weight f4 [128, 8]
000000 e0 b1 62 3e 6a 59 df bd 62 7d bc bc df 1e 41 40
       0.22138166 -0.10905726 -0.023009006 3.0175092
000010 42 72 ce bc a3 18 7f bd 8f 22 fd be 2d 98 78 be
       -0.025200967 -0.062279355 -0.4944043 -0.242768
000020 d2 0d 0c 3f 3e e0 17 3e 93 da 02 be 33 b0 93 3d
       0.5470859 0.14831635 -0.12778692 0.07211342
000030 c3 8a ea 3f d8 e1 b5 3d d7 10 19 bf 43 8e 1a 3f
       1.8323597 0.08880967 -0.5979132 0.60373324
000040 ce be cc 3e 31 ff c9 3d ec 7c d5 3e 2e 51 0c 3e
       0.39989322 0.09863127 0.4169687 0.13702843
000050 6b 05 1c bf 68 90 4a 3f ce 10 86 bd e4 c8 8d bf
       -0.6094577 0.79126596 -0.06546174 -1.1076932
000060 c1 f4 13 3d 01 8c aa bb 5b 48 42 3c 21 db d1 bc
       0.036122087 -0.005204678 0.011858071 -0.025617184
000070 dc cf 14 c0 0e 88 50 3e 89 63 4a 3b 6f 92 a6 3c
       -2.3251867 0.203644 0.0030882081 0.020333497
000080 13 77 b7 be a2 98 35 be c8 3b 00 bf 56 45 78 3d
       -0.35833034 -0.17734006 -0.5009122 0.060613
000090 39 0a 7e 3e 9d e8 5d bf ae 9b 03 bf 3e f9 c4 3d
       0.24808587 -0.86683065 -0.51409423 0.09617852
0000a0 99 ae 9d bf ac 81 84 be 2a 22 44 bf ec bc 29 bf
       -1.2318908 -0.25880182 -0.7661463 -0.66303897
0000b0 5f 23 15 3e 86 81 0f bf 15 bc 64 3c ff f6 8e 3d
       0.14564274 -0.5605701 0.013960858 0.069807045
0000c0 ff c5 7d be 03 c4 86 bf 1c 35 50 bd 32 df 3b bf
       -0.24782561 -1.0528568 -0.0508319 -0.73387444
0000d0 1f 03 5f 3f 2d 82 c2 bd 99 5b 80 3e e1 a3 0b bf
       0.8711414 -0.09497485 0.25069883 -0.54546934
0000e0 ca df 20 3e 45 b3 91 3e 10 9f e2 be 04 18 20 bf
       0.15710369 0.28457084 -0.4426198 -0.62536645
0000f0 c5 d5 a0 3e 7b 5b d5 3d 3f 37 3b be 44 8f 4d bf
       0.31413093 0.10417839 -0.18282793 -0.8029673
000100 37 92 d5 3b ee 06 bf be b3 6a e7 bd ac ce d0 be
       0.0065176743 -0.37309974 -0.11299648 -0.40782678
000110 4d e0 30 3f 6b 7f 65 3f 81 65 16 3f b2 ff b7 be
       0.69092256 0.8964755 0.5874863 -0.35937268
000120 2b c6 4b be 0b 69 91 be dd fc 73 bc f7 6a 09 bf
       -0.19899814 -0.28400454 -0.01489183 -0.5367884
000130 4a 0c 87 bf 5d 1c c2 3e a8 eb 44 bb d2 64 01 bf
       -1.0550625 0.37912264 -0.0030047689 -0.50544465
000140 f0 20 48 be ab 6b f9 bd de 09 30 3f 6d e7 cc be
       -0.19543815 -0.12178739 0.68765056 -0.40020314
000150 52 97 bf 3f 86 01 6b be 3e 4c 3d 3f c1 8d 8e be
       1.4968054 -0.229498 0.7394446 -0.27842525
000160 64 50 86 be 67 fb 20 bf 04 cb 72 bd 17 6f 80 3e
       -0.26233208 -0.6288361 -0.059275642 0.25084755
000170 3b 03 ee be dc 9b d4 3f c7 b9 95 3e bf c8 bb bf
       -0.4648684 1.6610065 0.292433 -1.4670638
000180 13 b8 60 be 5b cf cc 3e d8 6e e3 bc 45 52 1d bf
       -0.21945219 0.4000195 -0.027762815 -0.6145366
000190 9b 6c 7b 3e 51 bb 13 3f 38 9f 52 bf 34 bd 79 bf
       0.24553148 0.577077 -0.822742 -0.97554326
0001a0 d9 6c 41 bf bd 1a 34 3e 0f ce a0 3f 22 5f 59 3c
       -0.75556713 0.17588325 1.2562884 0.01326731
0001b0 d1 02 4a 3f 6d 7b 56 3d 09 c5 0f be c7 a7 f6 bd
       0.7891055 0.0523638 -0.14040007 -0.1204372
0001c0 66 71 8d bf 68 79 8b bf 10 62 56 bf bd 8f 5a bf
       -1.1050231 -1.0896425 -0.8374338 -0.8537558
0001d0 0f 34 a2 3e 26 2c 90 3e 0e 76 eb 3e 2b e0 82 be
       0.31680343 0.28158683 0.45988506 -0.25561652
0001e0 d2 38 28 3d f4 0e f5 be b1 46 03 be 66 06 f5 3f
       0.041069813 -0.4786297 -0.12819935 1.9142578
0001f0 4e 65 5f 3e 78 ee ef 3d 48 6d 02 bf ad 90 03 bf
       0.21815988 0.11715406 -0.50948 -0.5139263
000200 1c 68 02 3e 88 50 b5 3d 80 59 ae 3f 70 90 30 3f
       0.12735027 0.08853251 1.3621063 0.68970394
000210 1f 22 57 3f d9 b4 0c bf 88 21 6f 3e 36 2a 3d 3f
       0.8403644 -0.5496345 0.23352635 0.73892534
000220 ef 7f 66 bd 90 ff 50 bd 65 54 02 3f 20 e4 01 3f
       -0.05627435 -0.051024973 0.50910026 0.50738716
000230 ed 56 9e 3c 9f 4c 01 bf 1f 8f 6e bf ef 3d 6f be
       0.019328559 -0.5050754 -0.93187135 -0.2336347
000240 8b 9f 3e 3e 82 f0 25 bc c3 eb 88 bf b3 c6 43 bf
       0.18615548 -0.010128142 -1.0696949 -0.76475066
000250 b7 11 af 3d 63 8a 19 be cd 39 ec bd c3 39 3b bf
       0.08548301 -0.14994197 -0.11534462 -0.7313501
000260 22 f0 b9 be 61 55 b6 3e 60 ed b4 3d d1 c1 f9 be
       -0.3631602 0.35612014 0.08834338 -0.48780683
000270 1b 83 54 be ee ab 3a 3e 82 08 59 3e b7 17 01 bf
       -0.20753138 0.18229648 0.21194652 -0.5042681
000280 21 71 05 3f 77 95 3d 3d 23 38 04 3f 06 9b 35 3e
       0.52125746 0.04628512 0.5164816 0.17734918
000290 71 5f a7 bf 08 28 43 bf f4 a7 6f bf ea 11 89 bf
       -1.3076001 -0.7623296 -0.9361565 -1.0708592
0002a0 74 c2 1a 3f 93 7d 15 3d ff 65 1a 3e a7 6c 73 be
       0.6045296 0.03649671 0.15077971 -0.23771916
0002b0 dd 32 f3 be 55 1b 90 bf ff 0e 1f bf cf f5 ef 3e
       -0.47499743 -1.1258341 -0.6213226 0.46867225
0002c0 ce 41 fb be d5 fc 3d 3e 45 bc 6e 3f e0 f4 07 3f
       -0.49073642 0.18553479 0.93256027 0.53108025
0002d0 08 12 a2 3d 47 e6 3e 3f 31 2f 30 3e b3 69 79 3e
       0.079135954 0.74570125 0.17205502 0.24356727
0002e0 fc 6f a4 3e 40 fb c3 be 18 2a 8b 3e 07 8f da bd
       0.32116687 -0.38277626 0.27180552 -0.106718116
0002f0 f5 f3 64 be 3f 3b 8a bf 0b 82 a7 bf a0 18 1a 3f
       -0.22358687 -1.079933 -1.3086561 0.60193825
000300 35 70 e8 be db 98 05 be de 63 69 3d da 9f 91 3d
       -0.45398107 -0.13046591 0.056980006 0.071105674
000310 1a 13 ea be 94 c9 92 3f 2f 47 90 3e 7b 1e 82 bf
       -0.45717698 1.1467767 0.2817931 -1.0165552
000320 ef c1 62 be 0f b2 89 3d 49 28 0f 3f f3 46 6b be
       -0.22144292 0.06723415 0.55920845 -0.22976284
000330 e0 29 cb 3f f6 a0 84 3d d2 dc c4 bf d7 5e 16 3f
       1.5872154 0.06476013 -1.5379889 0.58738464
000340 33 84 51 3e 0a ce 18 3f 20 28 a9 3e 43 41 d7 be
       0.20460586 0.5968939 0.33038425 -0.42041978
000350 2d a6 24 3f a7 7a a4 be 4a 2b f4 be 19 3e 71 bf
       0.64316064 -0.32124826 -0.47689277 -0.9423538
000360 bc 28 28 3e 12 d0 6b 3e db 65 20 3f 9c 8d da 3d
       0.16421789 0.23028591 0.6265542 0.10671541
000370 a2 5c 07 bf 36 8d 40 3f e9 df d2 3e 08 5c 85 3e
       -0.5287572 0.7521547 0.41186455 0.26046777
000380 b3 b8 86 3e 77 88 eb be dd 58 1e 3f a6 5b 6b be
       0.2631279 -0.46002552 0.61854345 -0.2298418
000390 32 12 52 be bb 6d 17 3f 0c 83 b3 3e 3a 42 d3 bf
       -0.20514753 0.5915181 0.35060918 -1.6504586
0003a0 c5 f2 da 3e 44 70 bb be 18 2a 19 3f 90 93 11 bf
       0.42763343 -0.3660909 0.59829855 -0.5686579
0003b0 cd 40 b0 be f1 20 21 3b 57 67 5d bf 8a 6f 2a 3e
       -0.3442444 0.0024586285 -0.8648581 0.16644111
0003c0 d9 54 81 3f 1b 65 98 3d 75 57 60 bf 54 d8 bf be
       1.0104018 0.07441159 -0.8763345 -0.37469733
0003d0 19 99 c9 3e b0 1d f0 3e fc 15 48 be ee 4d 2c 3f
       0.39374617 0.4689765 -0.19539636 0.6730641
0003e0 f0 01 25 be 48 09 06 bf e4 e5 e5 be ca dd 44 bf
       -0.1611402 -0.5235791 -0.44901955 -0.76900923
0003f0 a8 bf 0d 3f 12 b8 5a 3f bb da 14 3e 61 41 95 bf
       0.5537057 0.8543712 0.14536564 -1.1660577

bias f4 [128]
000000 ea f5 33 39 ee 60 32 bd 90 2b a0 be 3c c7 27 bb
       0.0001716238 -0.04354947 -0.31283236 -0.002560093
000010 bd 2f fc 3d 27 f4 16 bd 60 aa 7a be 02 4a 20 3d
       0.12313793 -0.036853936 -0.24479055 0.03913308
000020 31 92 19 be 49 e2 13 bc 30 8c 53 3d eb 3f ba bd
       -0.14997174 -0.009026119 0.051647365 -0.09094223
000030 dd 19 38 be 3b de 2a ba bd 78 93 be 46 3c 13 3e
       -0.17978616 -0.00065181 -0.28803053 0.14378461
000040 ac 5b 24 bf f4 b9 a5 3e f9 0b a6 bc 95 34 e9 bd
       -0.6420238 0.32368433 -0.02026938 -0.11386982
000050 10 8c 17 3e 94 04 a8 be 61 d1 16 be 4d 9c ca be
       0.14799523 -0.32815993 -0.14728309 -0.39572373
000060 0e d0 f1 be c8 3f a3 3c d9 bc 07 be 3d db 0f bf
       -0.47229046 0.019927874 -0.13255633 -0.56193906
000070 23 b5 bc be 1a 74 9b 3d c4 e7 31 be e2 96 ee bd
       -0.36856946 0.07590504 -0.17373568 -0.11649872
000080 1b c0 c7 be b4 84 c1 bd f2 b2 a7 3e f0 b9 11 be
       -0.39013752 -0.09449139 0.32753712 -0.14231086
000090 15 a3 8e be f0 7a 3e bd 61 c5 81 bd 97 f7 01 bf
       -0.27858797 -0.04650396 -0.06336475 -0.5076842
0000a0 de cb d1 3c f2 7c a5 be 1f 97 7a 3e 38 85 5b 3c
       0.025609907 -0.32321888 0.2447171 0.013398461
0000b0 84 a3 7c be c9 0b 0f 3d dc c4 b8 bd f5 c1 5c 3c
       -0.24671751 0.03492335 -0.09021923 0.013473977
0000c0 93 93 b3 be e4 83 3c bf 4e 10 6b bd 8f 7e 9d be
       -0.35073528 -0.7363875 -0.057388596 -0.3076062
0000d0 50 73 78 3e 81 fe 8c be 55 d5 c4 3d b5 5f e6 3d
       0.24262738 -0.2753792 0.09611002 0.112487234
0000e0 b0 74 a0 3e 5a 86 40 3b 9c fc 39 be 42 1b 80 bd
       0.31339025 0.0029376955 -0.18162769 -0.06255199
0000f0 e1 ac 49 bf 15 ed 18 be 4e 6b 56 bd 44 ed 0b be
       -0.7877942 -0.1493419 -0.052348427 -0.13664728
000100 38 fd 66 bb 0d a5 56 be d9 65 fd 3c ff 5b a0 be
       -0.0035246145 -0.209614 0.030932354 -0.31320187
000110 33 2c 7b be e6 3c cf bd 84 70 a4 3e 24 1d 07 bf
       -0.2452858 -0.10119037 0.32117093 -0.5277884
000120 2d 54 82 bd c8 e4 9c 3d 01 40 f5 3d a7 09 1c bf
       -0.063637115 0.07660824 0.119750984 -0.6095223
000130 d4 da c0 bc e2 17 ed be 02 a3 8f be 69 e3 44 be
       -0.023541845 -0.46307284 -0.28054053 -0.19227375
000140 1d 4a 39 bd e9 01 ac be 50 06 4d 3d 74 83 47 3e
       -0.045236696 -0.33595207 0.05005485 0.19483739
000150 88 1c 3f 3d dc 2b b9 be 74 ad a5 bb 15 ef 32 3b
       0.04665807 -0.36166275 -0.0050560776 0.0027303149
000160 01 ae 15 be 62 6f 95 bd c0 49 1d bf 81 a3 42 3b
       -0.14617158 -0.07296635 -0.6144066 0.0029699507
000170 a4 a3 1f bb e0 94 3d bf 29 79 84 be fc 21 5f be
       -0.0024359012 -0.7405529 -0.25873688 -0.21790308
000180 69 9b ba be 76 0f af bd 90 c2 88 be 14 d2 b4 be
       -0.36446694 -0.08547871 -0.2671094 -0.35316527
000190 9e 83 07 bf 9b 67 79 be 47 5e 2f be 5d ae 99 be
       -0.52935207 -0.24355929 -0.17125808 -0.3001584
0001a0 05 8c f4 3d 40 72 12 3e ce 33 66 be 70 a9 92 3d
       0.11940769 0.14301395 -0.224807 0.07161224
0001b0 ab da d5 be 1e 57 99 3e 0c 24 8a bd 92 a2 70 be
       -0.41768393 0.29949278 -0.06745157 -0.23499516
0001c0 3c 7b 29 3e ae 5a 9b 3e e0 a2 b4 bc 32 00 fd be
       0.16550916 0.3034262 -0.022050321 -0.49414212
0001d0 39 a8 8c bd 1c c2 e6 bc f8 83 2d 3d f3 7b 0d bf
       -0.068680234 -0.02816873 0.042362183 -0.55267256
0001e0 d8 f8 7e be 29 25 90 3e ee 96 0d bf 0a f5 a1 3b
       -0.24899614 0.2815335 -0.55308425 0.004942541
0001f0 42 07 65 be 9a 7d 1f be ab e1 c0 be 65 94 94 be
       -0.2236605 -0.15575257 -0.3767217 -0.29019466

weight_mu f4 [128, 128]
000000 e7 ee 04 bf cd 4f c5 3e 9a 41 14 be dc da e4 be
       -0.51927036 0.38537446 -0.1447815 -0.44698226
000010 d2 d4 2d 3f 13 ae d7 3d 5e e8 9e 3e 32 db 87 3c
       0.67902863 0.10531249 0.31036657 0.016584013
000020 b9 06 19 bf 93 3f 53 bf 57 0a fe be a8 77 cf be
       -0.5977588 -0.8251888 -0.49617264 -0.40520978
000030 5c 06 eb be b9 a4 10 bc 9d 17 9a be eb 6a 75 be
       -0.4590329 -0.008828335 -0.3009614 -0.23966567
000040 49 8d a6 3e ba 4f 8e 3e 24 f3 6f be b3 7b 32 bf
       0.32529667 0.27795202 -0.23432595 -0.6972
000050 80 fe 11 bf 35 e5 92 be 8e d6 d6 3d 2c e3 46 bd
       -0.5702896 -0.28690496 0.10490142 -0.04855649
000060 bb d2 af be 72 ab 1c 3d d0 1d 22 3b be 27 c5 be
       -0.34340462 0.03824944 0.0024737008 -0.38506883
000070 74 21 c1 be 50 e2 83 bf bf 6d 82 be 75 df 44 bf
       -0.37720835 -1.030344 -0.25474355 -0.7690347
000080 77 08 92 3e 55 5e a4 be a2 2f cd 3e e3 10 dd bd
       0.28522083 -0.3210322 0.40075403 -0.107942365
000090 6f c2 88 be 18 f7 0c be c4 8d 11 bf 71 59 8e be
       -0.2671084 -0.13766134 -0.5685694 -0.27802613
0000a0 22 c6 ab be 96 5f ad bf 0d de cc 3e a4 14 8e bc
       -0.335496 -1.3544796 0.4001316 -0.017343827
0000b0 56 43 df 3e 80 29 91 bd 12 2f ce 3e 6f 32 4e bf
       0.4360606 -0.070879936 0.40270287 -0.80545706
0000c0 ec 03 40 bf df 01 06 bf 69 0b 11 3f b9 aa bd bd
       -0.75005984 -0.52346605 0.56658036 -0.092610784
0000d0 6c 91 96 be c8 01 b2 3e 9b 61 d2 3d b2 3b 1b bf
       -0.29407823 0.34766984 0.10272523 -0.6063796
0000e0 93 70 cc 3e 34 c0 11 c0 2a da 13 bf 4c fc bd 3e
       0.39929637 -2.2773561 -0.57754767 0.3710655
0000f0 b9 b2 11 bf 5f 66 d1 bf 55 b4 7d 3e 9f 8a 6d bf
       -0.56913334 -1.6359366 0.24775822 -0.92789644
000100 b7 4b b6 bc 64 1d 45 be 91 0d 1f be 20 e0 85 3f
       -0.0222529 -0.19249493 -0.15532519 1.0459023
000110 fa 9a 0c be ae 56 3e 3c 7e 5c e7 3e 17 8f 9e be
       -0.13730994 0.011617346 0.45187753 -0.30968544
000120 30 a0 81 bf 59 f2 ab 3c 47 29 ff be 89 3b b2 bf
       -1.012701 0.020989584 -0.4983618 -1.3924419
000130 a8 28 9a 3e e0 44 f6 be f3 14 b3 bf 9c 3d 94 bc
       0.30109143 -0.48099422 -1.3990768 -0.018095784
000140 63 e4 27 be ae 7a 31 3e 82 1f 08 3e 21 79 69 bf
       -0.16395716 0.17331955 0.1329327 -0.91200453
000150 a9 c1 0a bf 7b 26 1d bf e9 a6 d7 be da 19 a0 3a
       -0.5420175 -0.6138684 -0.4211953 0.0012214736
000160 86 ec 3e bf e0 40 95 bf 73 5f af be 0e e1 c2 bf
       -0.74579656 -1.1660423 -0.3425251 -1.5224931
000170 21 7b 80 bf 63 34 3b bf c8 22 20 3e 88 bd 7a 3c
       -1.0037576 -0.7312681 0.15638268 0.015303977
000180 2c 24 c7 3e 35 33 23 be 90 d5 62 bd bb 41 11 bf
       0.38894784 -0.15937503 -0.05537945 -0.5674092
000190 cd 4e f6 3e 24 cb 03 bf de 69 3d bf 63 dd 0e bf
       0.48106995 -0.51481843 -0.73989666 -0.5580656
0001a0 c4 39 b9 3e f5 05 76 be ad e6 13 bf 5c f9 6e be
       0.36176884 -0.2402571 -0.5777386 -0.2333731
0001b0 e6 56 87 3e 7b 40 c6 be 85 ec 94 bd 4a 9f 99 bf
       0.26433486 -0.3872107 -0.07271675 -1.2001736
0001c0 e0 c8 c7 be da 00 00 bf 17 3b 3d bf 29 e1 cc 3e
       -0.39020443 -0.500013 -0.7391829 0.40015534
0001d0 a9 09 66 bf b1 ed c6 3e 8e c2 12 bf ee ce 18 bf
       -0.8985849 0.3885322 -0.57328117 -0.5969075
0001e0 c8 ae 67 bd df 09 a3 be f6 c0 c5 3d 0a 50 bb be
       -0.05656317 -0.3184347 0.09655945 -0.36584502
0001f0 1b 45 1d bf e6 1b 9e 3d 8b 02 0c bf ca eb 06 bf
       -0.6143357 0.07720165 -0.5469138 -0.52703536
000200 a0 a2 80 3f 43 6d e5 3e 18 29 84 bd 6e 87 23 3e
       1.0049629 0.44809923 -0.064531505 0.15969631
000210 5b 74 0c bf 73 a5 24 bf 8e da 3f bf 34 ef 10 3f
       -0.54865044 -0.64314955 -0.74942863 0.56614995
000220 84 9b 25 bf 6f 30 52 3c 38 9e 09 3e b0 30 f3 3d
       -0.64690423 0.01282893 0.13439262 0.11874521
000230 7c 40 ab 3e 0a 08 bd 3e c4 1f b7 bf 0a 22 3d 3c
       0.33447635 0.36920196 -1.4306569 0.01154376
000240 82 de a3 bf 21 e6 3b be c6 3e e5 3e c1 b5 78 3e
       -1.2802279 -0.18349506 0.44774455 0.24288084
000250 e7 dc 9b bc cd f1 22 bf de 17 b0 3d b0 a4 04 bd
       -0.019026233 -0.6365021 0.08598302 -0.03238362
000260 20 af e0 3d f3 8c 44 3e 49 30 f2 3e cf c5 32 be
       0.109709024 0.19194393 0.47302464 -0.1745827
000270 f7 b9 a1 3e f9 23 13 be d7 17 96 3e ef 12 80 be
       0.31587192 -0.14369191 0.29315063 -0.25014445
000280 13 ca bd be 8e 2f 1b bf b6 35 fa bd 75 b5 66 bd
       -0.37068233 -0.6061944 -0.12217276 -0.056325395
000290 ff 9f 89 3e 74 cc 3e bf 91 7b 7a 3d 60 12 da 3c
       0.2687988 -0.7453072 0.061153 0.02662009
0002a0 62 fd 18 be ae ce 0b 3f e9 4c b9 be 5f 41 4f 3f
       -0.14940408 0.54612243 -0.3619149 0.80959123
0002b0 11 a3 c4 be e6 07 f8 3c 38 c5 ac 3e cc b8 f9 3e
       -0.3840566 0.030277204 0.33744216 0.487738
0002c0 c8 7b 90 3d 21 d7 75 bf fe b7 8b 3d da 21 d0 3e
       0.070548594 -0.96031386 0.06822203 0.40650827
0002d0 93 c4 5f be c2 e3 2f be 6b 53 5e bd cf f1 02 3d
       -0.21852331 -0.17176726 -0.054278772 0.031968888
0002e0 49 62 07 3e 3d b3 b1 3e 02 15 5c 3e d6 7c 60 3e
       0.13221087 0.3470706 0.21492389 0.21922621
0002f0 0f c5 5e be 0e 0c 6d 3e 9a 46 b7 3e 58 7e d5 3e
       -0.2175486 0.2314913 0.35796052 0.41697955
000300 61 60 91 3f 5e 51 af bd a3 20 a3 3e ba b3 ee bd
       1.1357538 -0.085604414 0.31860837 -0.11655374
000310 02 76 2c bd 71 90 56 bf ae 06 d4 3e 15 17 8f 3f
       -0.04210473 -0.8381415 0.41411346 1.1178919
000320 36 15 13 3f 75 b9 76 3e 7c a2 5d 3e 2a 06 48 3e
       0.5745424 0.24094184 0.21644014 0.19533601
000330 e3 74 4d bf 2d 58 e5 3d b8 55 ce be 44 0d 8e 39
       -0.8025648 0.11198459 -0.40299773 0.00027094234
000340 c6 e8 0b 3f 80 95 b9 bf 78 6d b5 be cc a8 96 bd
       0.5465206 -1.4498749 -0.3543508 -0.07356414
000350 8f 2b be 3d 43 33 c3 be 12 d1 42 3e d2 32 99 3f
       0.09285652 -0.38125047 0.19025066 1.1968634
000360 60 07 0f 3f 28 e3 ab 3d b4 5b 9d 3e ee 1c 6b 3f
       0.5587063 0.08392936 0.30734026 0.9184102
000370 01 e2 c0 3d d3 d0 38 bf c0 09 03 3f 82 a0 ab 3c
       0.09418107 -0.7219364 0.5118675 0.02095056
000380 c8 ac 12 3d ff e2 c1 3e 31 32 b8 be de 63 39 be
       0.03580931 0.37868497 -0.35975793 -0.18104503
000390 02 8c e9 be 94 1d 9e bf e3 1b a1 bd 59 22 10 3f
       -0.4561463 -1.2352777 -0.07866647 0.5630241
0003a0 d9 bc 51 bf 37 9d 70 be fd d2 8c 3c d0 c8 b6 bd
       -0.81928784 -0.23497473 0.01719045 -0.08925021
0003b0 b6 ac 97 be 6d de c0 be 63 0c cf be f6 71 43 3e
       -0.29623955 -0.37669697 -0.40439138 0.19086441
0003c0 10 0a 40 bc df b8 13 bf d4 a3 7d bd ce 23 57 bf
       -0.011721149 -0.57703966 -0.061923817 -0.8403901
0003d0 cc 0c 4b 3e 9a c8 31 be 5e bc 3f 3f 2c 8c a3 bf
       0.198291 -0.1736168 0.748968 -1.2777152
0003e0 57 88 60 bf f8 03 30 be e8 ae ad bf e7 7d 1c bf
       -0.8770804 -0.17189014 -1.3569002 -0.6112961
0003f0 07 f9 f4 3e a6 42 c0 3e c6 eb eb be 3f fc 9a bf
       0.47846243 0.3755085 -0.46078318 -1.2108229

weight_sigma f4 [128, 128]
000000 3d 6b 58 3c 94 d6 a5 3d 52 e1 aa 3e c6 d5 35 bd
       0.013209161 0.08097568 0.3337503 -0.044393323
000010 eb 54 ca bd 4b 2d 25 bd 15 00 1a 3d cf da d8 3d
       -0.09879478 -0.040326398 0.037597734 0.105886094
000020 2a cf b7 3d 16 73 83 bd 5a c6 5b bc c0 22 d9 3d
       0.0897506 -0.06418435 -0.01341399 0.10602331
000030 c5 75 af bd 70 dc 13 3d d1 5c 22 3d db ff e9 bb
       -0.08567385 0.036098897 0.039639298 -0.007141096
000040 60 e5 a2 bd 60 c2 a0 3d 36 33 99 3d 38 bb 66 bd
       -0.07953906 0.07849574 0.07480471 -0.05633089
000050 e7 d2 8b bd 93 68 ab 3d ca a3 3e 3e b6 c7 93 3d
       -0.06827336 0.08369555 0.18617168 0.07215826
000060 57 67 bb ba 4a a2 0d bd 57 d9 4b bd f9 43 6a be
       -0.0014297765 -0.0345786 -0.04976782 -0.22877492
000070 0b 3e da 3d 86 87 73 be e8 9c 38 be 6c ee 94 bd
       0.10656365 -0.23782167 -0.18028605 -0.07272038
000080 cc 5d 9f bb 2b 78 e1 3d 70 5f a7 3c 26 e2 8c ba
       -0.0048634764 0.11009248 0.02043125 -0.001074855
000090 a2 b0 92 bc cc 5e 2d 3d 40 89 7b 3e 0f 78 bd bd
       -0.01790649 0.042326733 0.24564075 -0.09251415
0000a0 29 6f 66 3e cf 49 36 be 9a 3f ce 3c 7b 5f 49 bd
       0.22503342 -0.17801593 0.025176812 -0.049163323
0000b0 e8 d5 4d 3d 3e 79 aa be e7 64 b3 3d 2a 29 19 bd
       0.050252825 -0.33295625 0.0875948 -0.037392773
0000c0 0e 85 d2 3c 33 87 4e be 9b de 11 be ae c4 d6 3c
       0.025698211 -0.20168762 -0.14245073 0.026216831
0000d0 da 68 d8 bc 0e d7 1c be e8 11 c6 3b 7a 06 73 3e
       -0.026417185 -0.15316412 0.006044615 0.2373294
0000e0 09 00 5b bb 4e 11 33 bd 27 b7 46 3d f7 6d 6e 3c
       -0.003341677 -0.043717675 0.04851451 0.014552585
0000f0 d4 32 10 be db 0d b7 3d 09 e6 47 3d 34 4c bf 3e
       -0.1408189 0.089381896 0.048803363 0.37362826
000100 96 61 d7 3c 35 b5 85 bc 82 47 71 bd ef fc fe bd
       0.02629165 -0.016321758 -0.058906086 -0.12450587
000110 20 5d d0 bc 41 17 b7 3c eb da af 3c 57 04 1c 3e
       -0.02543503 0.022349956 0.021466693 0.1523603
000120 13 51 f6 3d 7d cf e6 bd f4 89 30 be e3 9f 47 3e
       0.120271824 -0.11270044 -0.17240125 0.19494586
000130 f4 cf a1 3d 66 a4 a6 3c d9 9c 9b 3e e5 c7 99 3e
       0.07900992 0.020342063 0.30393103 0.3003532
000140 a7 6e fd 3d ed 24 4a bc 97 ed d9 3d d2 cb d1 bd
       0.12374621 -0.012337905 0.1064102 -0.10243954
000150 48 a7 8c 3d 9e f7 12 be 1d 46 ef bd de 3e 5f 3d
       0.06867844 -0.14352271 -0.11683295 0.054503314
000160 68 5e 4b bd 08 69 94 3b e8 fb 9b bb 8a c9 5c be
       -0.04965058 0.0045291223 -0.004760254 -0.21561256
000170 2a 92 06 be d3 33 04 be b2 a4 78 3e f3 04 35 3d
       -0.13141695 -0.12910394 0.24281576 0.044194173
000180 4b be 51 3d 0b 12 55 bd 69 ed 04 3e 37 41 a1 3e
       0.05120687 -0.05201916 0.1298119 0.31495067
000190 b2 63 fd 3d 83 b1 13 be 6c b5 d1 3c 1e d3 f5 3d
       0.12372531 -0.14423184 0.025599204 0.12003158
0001a0 ac 3b 75 bd 47 b1 79 3d 0c 79 d9 3d 19 f0 df bd
       -0.05987136 0.06096008 0.10618791 -0.10934467
0001b0 0a 94 1c bd 8c 74 c5 bd 8b d8 e7 3d 95 63 c2 3e
       -0.03822712 -0.0964137 0.11320599 0.379666
0001c0 3d f2 8b bc 40 c4 8a bd 03 70 b0 bd a5 f5 e5 bd
       -0.017083282 -0.06775713 -0.086151145 -0.112284936
0001d0 ef 7b de bb c7 07 3a 3d 50 e2 6b be 06 f7 9f 3c
       -0.0067896764 0.045417573 -0.2303555 0.01952697
0001e0 c0 1a 13 bd 66 43 0f be d7 42 63 bd 8f 70 0f 3d
       -0.035914183 -0.13990554 -0.055483665 0.035019454
0001f0 c9 66 26 be 9a d8 09 3e ec 79 33 be 65 50 ea 3d
       -0.16250147 0.13461533 -0.17526978 0.11441115
000200 05 64 4f bd d5 b4 36 bd aa f5 30 bd 47 b0 96 3d
       -0.050632495 -0.04460605 -0.043203034 0.07357841
000210 f8 02 28 3d 8e b0 e7 3c dc c1 3c 3d 99 5a ee bc
       0.041018456 0.02828243 0.046083316 -0.029095935
000220 76 ea 01 be 4b b9 eb 3c 20 e2 e2 bc ec 8c c3 3c
       -0.12687096 0.028774878 -0.027695715 0.023870908
000230 ff 11 0d 3d 4c ef 84 3d bf 2f 80 bd ae 84 2f bd
       0.03444099 0.06490955 -0.06259107 -0.042851143
000240 fb d1 0b bc 2c 45 5f 3d 37 de 2c bc 59 01 88 bc
       -0.00853395 0.054509327 -0.010551027 -0.016602205
000250 c7 46 a9 bc e5 32 68 bd 08 d8 00 3d fc b3 15 be
       -0.020663632 -0.05668916 0.031456023 -0.1461944
000260 88 91 0f 3e 3a 40 75 bd 51 a9 90 3c 9f ae 3f be
       0.1402036 -0.059875704 0.017658861 -0.18718956
000270 43 42 55 3e d4 e4 ef bb c4 7e 6f 3c 5f c1 a8 bc
       0.20826058 -0.0073209796 0.014617626 -0.020600019
000280 c3 de dd bc ba 4b 5c 3c 4b 17 9a bc 9f f9 92 3d
       -0.02708376 0.013445789 -0.018809935 0.07176518
000290 39 20 9a 3d b0 18 08 3c 3a 4e f9 3d fd 0d 36 3d
       0.07525677 0.008306667 0.12173124 0.044446934
0002a0 ec 87 01 bc 3b c2 39 3d 03 c6 f4 bc b2 29 80 3b
       -0.007905941 0.04535125 -0.029879576 0.0039112205
0002b0 d6 1b bb 3d 86 c6 08 bd 88 df 31 3d 87 71 ce bc
       0.09136169 -0.03339245 0.043426067 -0.025200618
0002c0 82 11 df 3d cc 23 96 3e 07 a7 09 bc 67 ee eb bb
       0.10892011 0.29324186 -0.008401639 -0.0072000506
0002d0 d5 1a f6 bb 4a 63 80 bd b9 85 65 bd 55 9e 0a 3d
       -0.007510523 -0.06268938 -0.05603573 0.033842403
0002e0 b1 26 46 bb d3 20 a2 bc 80 f2 1a bd 68 61 7c 3d
       -0.0030235464 -0.019791042 -0.037828922 0.06161633
0002f0 72 26 e3 be 53 49 cc 3c 6b 86 00 3d 12 e3 ec bb
       -0.4436527 0.024937307 0.03137819 -0.0072292173
000300 92 9a 51 bd bb 84 30 3d 57 f3 96 3b 80 4c 04 bd
       -0.0511728 0.04309533 0.004606645 -0.03229952
000310 a0 73 c1 3d cf 44 c1 bc 39 4a ab 39 91 3f 29 be
       0.09445882 -0.02359238 0.00032670962 -0.16528155
000320 3e 5e cc bc ab 7c 98 bc f0 d1 52 bd 62 3f ef 3d
       -0.024947282 -0.018614134 -0.051469743 0.11682011
000330 da 17 cf 3d 9e bb b8 3d ad 88 f8 bc 1d 64 57 3e
       0.10111971 0.0902016 -0.03033861 0.21034284
000340 04 8d ce 3c 0c 2f 8e bd 5e 4b 25 bd 04 30 8b bd
       0.025213726 -0.06942567 -0.04035508 -0.06796268
000350 4c 9b 87 bd c4 b3 81 bc ee d0 5d bd 0a 8c 47 bd
       -0.066214174 -0.01583279 -0.05415433 -0.048717536
000360 75 4e 46 3d a8 2d 74 3c d4 3f 9d 3d 40 6b af bc
       0.048414666 0.014903463 0.0767819 -0.021413445
000370 8b 6a 0e 3d 22 bc 80 3e 10 c2 d7 bd 54 db 99 3d
       0.034769576 0.25143534 -0.10535061 0.07512537
000380 53 fb b7 3c 5f 05 e0 3c ed 52 06 3d e7 eb c3 3c
       0.022458708 0.027346311 0.032793928 0.023916198
000390 e4 6c 22 be cb a5 12 3e cd 4a 61 bc eb ba 43 be
       -0.15861851 0.14321057 -0.013750744 -0.19114272
0003a0 08 6c d2 3d ef 7c fd bc ef 0d e5 bd 08 fa 00 bd
       0.102745116 -0.030943362 -0.11184298 -0.03148845
0003b0 7d f4 10 3d d3 a1 0d 3b 64 61 71 3b 5e e6 af 3c
       0.035389412 0.0021611347 0.003683173 0.021472152
0003c0 1d 15 9f bd 7b 95 9a bb 06 6b 94 3d 0f ed d0 bd
       -0.07767699 -0.0047175265 0.072469756 -0.10201465
0003d0 df 5d c6 bd 0e 28 7c 3c 86 86 60 bd 12 c8 e7 bd
       -0.09685873 0.015390409 -0.05481579 -0.11317457
0003e0 a0 db 73 3e a5 48 cc bc a9 35 9f 3e 75 e4 66 bc
       0.23814249 -0.024936983 0.31095627 -0.014092554
0003f0 84 7c 12 3d b0 5d 88 bd a7 72 f3 bc 0b 09 08 bc
       0.03576328 -0.066584945 -0.029717756 -0.008302937

bias_mu f4 [128]
000000 b5 b4 cf bd 7f c9 0c 3e 7b 58 a6 be bb 78 82 3e
       -0.10141889 0.1374874 -0.3248938 0.25482735
000010 7b b9 71 be bc f8 a9 3d 9c ee 08 3e df 56 e6 3e
       -0.23605911 0.082993954 0.13372272 0.44988152
000020 8d 7e a4 be 1e 72 e4 be 12 85 07 3e 3e 9c 75 3e
       -0.321278 -0.44618315 0.13234356 0.23985383
000030 d5 f0 e2 3d 5a 9f ce 3e 5d 9b 2c bd 07 d6 ad be
       0.11081091 0.4035595 -0.042140353 -0.33952352
000040 ba 7c a3 be 17 8f 95 3d 45 b1 af 3e 27 b2 52 3e
       -0.31931096 0.07302683 0.34314933 0.20575772
000050 2f 0d af be dd 8c f4 3c b6 ed 13 bf 88 6b ac be
       -0.34189746 0.029852325 -0.57784593 -0.3367579
000060 79 0c 0f 3e 74 37 2b 3e 65 a4 7e 3e a5 a8 86 be
       0.13969602 0.16720372 0.24867399 -0.2630054
000070 98 93 95 3e dc 4a cb 3d ce 42 d6 3e 86 92 8f 3e
       0.29214168 0.09926388 0.41847843 0.28041476
000080 65 ab a8 3d 1f 8d 13 bf 0f 26 9d 3e f6 55 72 3e
       0.08235816 -0.5763721 0.306931 0.23665604
000090 3f b9 a1 bd ed 05 0a bf 58 4b 89 3e 9c 98 0d be
       -0.07896661 -0.5391529 0.26815295 -0.13827747
0000a0 cc e0 91 3e 95 00 8b bd 22 bf c1 be 54 d5 d3 bd
       0.2849182 -0.067872204 -0.37841135 -0.103434235
0000b0 dc 4a 4f 3e aa d1 d7 bd c0 a0 02 bf 60 1a 50 be
       0.202434 -0.10538037 -0.51026535 -0.20322561
0000c0 98 4f ee be e0 25 c4 bd 25 b4 15 bf 6d f3 3b 3e
       -0.465451 -0.095775366 -0.58478004 0.18354578
0000d0 04 88 a6 bd 59 c3 73 3e 5c 49 e7 be d1 90 38 be
       -0.08131412 0.23804988 -0.45173156 -0.18023993
0000e0 9e 72 d5 be 56 92 c6 3d ba 43 02 be 25 ad 1e 3e
       -0.41689008 0.0969588 -0.12721148 0.15495737
0000f0 79 d3 45 3d cd 71 17 bf 54 13 8b 3e 38 26 28 be
       0.04829738 -0.5915802 0.27163184 -0.1642083
000100 61 b4 0c 3b f1 ec ca bd 60 cb da 3b a0 e2 09 3e
       0.002146982 -0.09908474 0.006677076 0.13465357
000110 32 b6 7c 3e 4c 4f 76 3e bb 21 a2 bc 88 64 97 be
       0.24678877 0.24053687 -0.019791475 -0.29568887
000120 6f 8c 8c 3e cd db 97 be d7 c3 47 be 95 01 37 bf
       0.27450892 -0.29659882 -0.195083 -0.7148679
000130 18 91 a5 be c2 52 01 bd ba 20 9c bd 4f 1c 06 3e
       -0.3233726 -0.031573065 -0.076234296 0.13096736
000140 92 77 0b 3e 7e 47 9f 3e ee f0 9b 3c d0 63 0c be
       0.13619831 0.31109232 0.019035783 -0.1370995
000150 31 3f fb 3d ed 72 15 3e 7e 7d 63 be 76 20 81 3e
       0.12267912 0.14594622 -0.2221584 0.25220078
000160 4f c0 6a 3e d3 b2 f1 bd 6e f2 ae 3c bd 34 c0 be
       0.22924922 -0.11801686 0.021355834 -0.37540236
000170 20 41 a6 3e a1 9a 01 be 42 bc 87 3d 12 ea 44 be
       0.3247156 -0.12656642 0.06627704 -0.19229916
000180 0e 64 d5 3e 7d 88 da 3d e8 dc 2a be 24 ff cb be
       0.41677898 0.10670564 -0.16685832 -0.39843094
000190 d8 1c 46 3e db 33 a9 be 84 95 60 3e 47 61 1a bd
       0.1934694 -0.33047375 0.21932036 -0.037690427
0001a0 df 14 32 3e 1a 28 cc be ff 82 85 3c 34 6c 6b 3e
       0.17390774 -0.39874345 0.016297815 0.22990495
0001b0 ce c4 d0 be 4e aa df bd ba 4f c4 3e e6 7b 0f bd
       -0.4077515 -0.10921155 0.38342077 -0.035030268
0001c0 30 e8 6e bc 24 c5 7d bd d7 22 aa 3e ab 14 88 be
       -0.014581725 -0.061955586 0.33229706 -0.26578268
0001d0 a7 23 2a be 1a a9 98 3e a8 2c 43 be b3 23 85 be
       -0.16615163 0.29816514 -0.19060004 -0.260038
0001e0 20 76 37 bd 4a 09 36 3e f8 94 6d bd d3 71 d3 be
       -0.044790387 0.17776981 -0.058003396 -0.41297778
0001f0 86 ac ac 3e 47 9e fa bd 38 f5 f0 3e cb df cd 3e
       0.33725375 -0.1223722 0.47062087 0.40209803

bias_sigma f4 [128]
000000 c2 f2 94 3c ae 08 a4 bc 26 e0 dc bc 46 aa 0c bb
       0.018182162 -0.02002367 -0.026962351 -0.0021463796
000010 55 a2 ae 3c 45 a3 b1 3b c0 ff 13 bd 37 82 0f bc
       0.02131764 0.0054210746 -0.036132574 -0.008759073
000020 94 53 36 3d 27 50 c5 3c 2a a4 91 3c 39 8e 0a 3d
       0.0445133 0.024086071 0.017778475 0.03382704
000030 58 fe cc 3c 22 c5 11 bb 84 a2 3b be 02 d5 06 be
       0.025023624 -0.0022242744 -0.18323714 -0.13167194
000040 9e 15 07 3e e5 f4 cd 3b 74 5d 25 3c 44 7b 06 bc
       0.1319184 0.006285297 0.010093082 -0.0082081
000050 f1 e6 8d 3d c3 5a 0f 3c da c8 a0 3d 62 63 75 3c
       0.06928814 0.008749667 0.078508094 0.014977308
000060 e8 e5 1f 3c 25 83 23 3b d7 f7 2f bc 97 0f 06 3d
       0.009759404 0.0024949994 -0.010740242 0.03272971
000070 68 83 8f bb 0e d6 20 bc f6 9c 10 bc 53 1c 30 bc
       -0.0043796785 -0.00981666 -0.008826485 -0.0107489405
000080 35 d4 02 bb c4 12 ab bc ad d4 be 3c 91 3c 8b bc
       -0.001996291 -0.020882972 0.023294771 -0.016996654
000090 d1 f1 de 3d 00 23 6e bd d3 79 45 bc f4 81 0a 3c
       0.108859666 -0.058138847 -0.012052971 0.008453835
0000a0 f0 ab 21 bc fb a9 4e bc d8 6e a3 3d ea 03 b2 bc
       -0.009867653 -0.012613769 0.07980126 -0.021730382
0000b0 df 19 83 3c 98 a4 b0 bc e6 7b 25 bc 31 b3 85 3b
       0.016003547 -0.02156286 -0.0101003405 0.004080199
0000c0 7b b3 a6 bd 8e 7d f4 3b f3 75 82 bd 08 62 e0 bc
       -0.08139702 0.0074612563 -0.06370153 -0.027390495
0000d0 86 02 77 bb 99 2a 0e 3d 63 25 46 3c 2f 8c f6 bc
       -0.0037690713 0.034708593 0.012093875 -0.030096142
0000e0 5e 92 aa bd 4f 01 d9 3c 1d 65 f1 3d fa 13 a0 bc
       -0.083286986 0.026489882 0.11786864 -0.019540776
0000f0 af 4d 7d bc 36 3d 39 be 9c 11 94 3b 24 e1 a9 3c
       -0.015460416 -0.18089756 0.0045187008 0.020737238
000100 61 7b 1f 3d 48 8e 28 bd 41 18 0b bd 38 86 13 3b
       0.038936023 -0.041151315 -0.033958677 0.002251042
000110 c8 a6 5f 39 cd 79 d1 3c 2a c7 34 3c e3 ad aa ba
       0.00021329068 0.025570774 0.011033813 -0.0013021793
000120 a3 26 4c bc 67 16 a8 3c 86 42 b5 3b 3e b2 16 3e
       -0.012460384 0.020518495 0.005531612 0.14716431
000130 1e 5d bc bd b6 7a 9b bc 7e 8b 37 bc 73 96 18 bc
       -0.09197448 -0.018979412 -0.011202691 -0.009313214
000140 07 d7 81 3c e2 92 e9 3c 13 44 87 3b fc 2a 1e bb
       0.015849603 0.028512422 0.004127988 -0.0024134507
000150 85 3b 86 bc c7 14 cb bb 3a 2b 94 3d e4 2e fe bb
       -0.016385803 -0.006197545 0.07234807 -0.0077570546
000160 f8 f4 62 bc a0 19 43 3d 52 44 f5 3c e5 9e a9 bc
       -0.01385235 0.04763186 0.029939804 -0.02070565
000170 a2 ef d8 3c 88 fc 0f bd 5a 98 bd bc b4 a3 15 bc
       0.026481453 -0.035152942 -0.023143936 -0.009133268
000180 44 d5 76 3c 0f da dd bb a6 ab 6f bb 50 55 da bd
       0.015065495 -0.0067703794 -0.0036570816 -0.10660803
000190 c7 98 44 bc 9a 9b e3 bd a0 e9 91 3b ba 80 11 bd
       -0.011999316 -0.11113663 0.004452899 -0.035523154
0001a0 15 27 d3 3c c8 3f 6f bd ef 6b 1b bc 0c a3 30 3b
       0.025775472 -0.058410436 -0.009486183 0.0026952652
0001b0 fe 36 59 3d b3 55 06 bc ab 2e 58 3c 00 74 90 bc
       0.05303096 -0.008199143 0.01319472 -0.017633438
0001c0 35 84 df bb 5e 15 80 3a f1 8f 80 3c b3 4f e3 3c
       -0.00682118 0.0009771993 0.015693637 0.027747964
0001d0 fd d7 89 3d 41 f7 38 3c 71 e8 21 3c eb 3c 3d 3d
       0.067306496 0.011289419 0.0098820785 0.046200674
0001e0 5d e9 10 3c 00 ce 9a 3c f4 e3 3d bc 78 75 d3 bd
       0.008844701 0.018897057 -0.011589993 -0.1032514
0001f0 0d d4 79 3b 11 8f d9 3b 73 f2 d8 bb 06 d5 29 3c
       0.0038120777 0.0066393693 -0.006620699 0.01036573

weight_epsilon f4 [128, 128]
000000 dc 88 a9 3e 77 0c 01 3f c0 b4 82 bf e6 fe 5b 3f
       0.33112228 0.50409645 -1.021141 0.8593582
000010 55 d4 78 bf d6 2f a2 bf 88 f5 a6 3f 4c f9 bd bf
       -0.9719899 -1.2670848 1.304368 -1.4841704
000020 dc 89 f8 3e 8b b8 79 bf f6 92 56 3f 29 a6 9a bf
       0.48542678 -0.97547215 0.83817995 -1.2081958
000030 36 0c b7 bf 68 10 c1 bf bb 08 0c bf 06 e0 17 bf
       -1.4300601 -1.5083132 -0.5470082 -0.5932621
000040 d4 36 63 3f b2 c5 b9 3f 72 65 20 bf 12 4d 2f bf
       0.88755536 1.4513457 -0.62654793 -0.68476975
000050 c5 6c ad bf 90 95 fe 3e 66 de ac bf fe ad 8e 3f
       -1.3548819 0.49723482 -1.3505371 1.1146848
000060 de 3c ec 3e 95 97 9d 3f 6c 99 6e bf b5 c6 22 bf
       0.46140188 1.2311884 -0.93202853 -0.6358445
000070 94 7c ad bf f5 9f 9e bf f3 bc e4 3f 08 05 94 bf
       -1.3553643 -1.2392565 1.7870163 -1.1564035
000080 7d 51 2a 3f 2c f6 fc 3f ef a5 91 bf c1 4e a3 bf
       0.6653059 1.9762626 -1.1378764 -1.2758409
000090 f8 21 15 3f ea 4a cb bf dd df 4e bf d4 dd b7 bf
       0.5825496 -1.5882237 -0.8081034 -1.4364572
0000a0 40 7e 89 3f 2a 85 b7 3f 7f 04 ad bf b6 8a d0 be
       1.0741653 1.4337513 -1.3516997 -0.40730828
0000b0 29 68 5a bf 2d 5a ff be 73 31 b6 bf 49 c9 8d bf
       -0.85315186 -0.49873486 -1.4233841 -1.1077052
0000c0 93 54 ce 3f d9 39 2f 3f 90 e6 80 bf 6c 00 b7 3e
       1.611956 0.68447644 -1.0070362 0.3574251
0000d0 62 16 e0 3e a8 5d 8b 3f ac 71 59 bf 19 30 0e 3f
       0.43767077 1.0887957 -0.84939075 0.5554214
0000e0 ea 91 e7 bf ff b3 be bf a4 d7 59 be 00 ed 92 bf
       -1.8091404 -1.489868 -0.21273667 -1.1478577
0000f0 7c 94 be 3e 7d b9 dc 3e fb f1 86 3f 0c 8b 0d bf
       0.3722266 0.43110266 1.0542597 -0.55290294
000100 7d 6f e7 3f 92 1d 03 3f 3a 01 32 bf c7 34 3b bf
       1.8080899 0.51216996 -0.6953312 -0.73127407
000110 13 d9 28 3f 5c f0 ae 3f 49 e7 43 be 90 31 8e 3f
       0.6595623 1.3667102 -0.19131197 1.1108875
000120 4a bb 53 bf a6 97 71 bf 75 06 ad bf a7 6c a9 3f
       -0.82707655 -0.9437202 -1.3517596 1.3236283
000130 3a c6 d2 bf 8b f8 e4 3e a7 9b 04 3f ff 99 2d 3f
       -1.6466744 0.44720873 0.51800007 0.67813104
000140 3d d4 9b bf 2d 56 5e 3f d8 1f b8 3f 84 3b a5 bf
       -1.2174145 0.86850244 1.4384718 -1.2908788
000150 57 61 72 bf aa 8d 90 bf e8 c3 8a 3f fb 7c 98 bf
       -0.9467978 -1.1293232 1.0841036 -1.1913141
000160 9f d1 fb be 76 3b 77 bf 62 3f 0e 3f 19 3e 84 3f
       -0.49183366 -0.96575105 0.55565464 1.0331451
000170 d9 1e 93 3f c4 56 ab 3f 69 f1 bb 3f 55 8c 03 bf
       1.1493789 1.3385854 1.4683048 -0.51386005
000180 b6 a1 89 bf 56 90 8a be c0 f9 92 3f 7c 88 e8 bf
       -1.0752475 -0.27063245 1.1482468 -1.8166652
000190 c3 d7 9e 3f 97 e9 bc bf 85 7c 89 be 71 4e ae bf
       1.2409595 -1.4758786 -0.26852813 -1.3617688
0001a0 71 e7 b7 3f 34 ee ac 3f 32 a0 b4 bf b3 d0 dc 3e
       1.4367505 1.3510194 -1.4111388 0.43127975
0001b0 79 f6 b5 3f 9d f6 93 3f 34 51 0e 3f fd 20 80 3f
       1.4215842 1.1559635 0.55592656 1.0010067
0001c0 c4 65 bd 3f ae 4c 3f 3f df ac 49 bf 95 b2 05 c0
       1.4796681 0.7472638 -0.78779405 -2.0890248
0001d0 89 14 3b bf 2f 06 c3 3d 5a 06 af 3f 0d 44 20 bf
       -0.7307821 0.09522664 1.3673813 -0.6260384
0001e0 5f 9a 0a 3f 45 ca 98 3f 9d 7b 7b 3f ce b6 74 bf
       0.541418 1.1936728 0.98235494 -0.9559144
0001f0 63 a0 9e 3f 52 80 57 3f ff 69 9d 3e c5 94 2b 3f
       1.2392696 0.84180176 0.3074493 0.6702388
000200 f0 7e 0b 3e e3 5d 54 3e 1a 18 d7 be 1c 04 b5 3e
       0.13622642 0.2073894 -0.42010576 0.35354698
000210 ad bd cc be 33 73 05 bf 6e 60 09 3f 46 50 1c bf
       -0.3998846 -0.52128905 0.53662765 -0.6105999
000220 65 80 4c 3e 73 79 cd be 18 8e b0 3e dd 7e fe be
       0.19970854 -0.4013172 0.3448341 -0.49706164
000230 59 9d 16 bf 35 db 1e bf d8 71 66 be 3d ee 79 be
       -0.58833843 -0.62053233 -0.22504365 -0.24407287
000240 9e f4 ba 3e 40 db 18 3f 07 fa 83 be 96 3d 90 be
       0.36514753 0.5970955 -0.25776693 -0.28171986
000250 63 b2 0e bf df 79 51 3e 3e 3d 0e bf 5e cc ea 3e
       -0.55740947 0.20456646 -0.555622 0.45859045
000260 5b 61 42 3e 5c ab 01 3f cb 52 c4 be 56 ef 85 be
       0.1898245 0.506521 -0.38344416 -0.2615916
000270 65 bf 0e bf e4 84 02 bf 9e 35 3c 3f 02 96 f3 be
       -0.55760795 -0.50984025 0.73519313 -0.47575384
000280 04 24 8c 3e 15 24 50 3f f3 ae ef be 48 5f 06 bf
       0.27371228 0.81305057 -0.46813163 -0.5248914
000290 e9 6a 75 3e c3 45 27 bf 3e 38 aa be d3 49 17 bf
       0.23966564 -0.6534082 -0.33246034 -0.5909702
0002a0 64 43 e2 3e de 00 17 3f 97 5c 0e bf 75 97 2b be
       0.4419204 0.589857 -0.5561003 -0.16756995
0002b0 71 b5 b3 be a6 1b 52 be 59 e9 15 bf 00 54 e9 be
       -0.35099366 -0.2051836 -0.58559185 -0.455719
0002c0 a2 c5 29 3f c5 2d 90 3e 84 1f d4 be a6 93 16 3e
       0.6631719 0.2815992 -0.41430295 0.14704761
0002d0 00 62 38 3e 52 58 e5 3e a0 ea b2 be 30 fd 69 3e
       0.18006134 0.44793946 -0.3494463 0.2285049
0002e0 21 8a 3e bf e4 e9 1c bf 87 3e b3 bd 2e c9 f1 be
       -0.7442952 -0.6129439 -0.087521605 -0.472238
0002f0 f6 cf 1c 3e a3 9d 35 3e ff 11 de 3e 93 ed 68 be
       0.15313706 0.17735915 0.43373105 -0.22746877
000300 cd 6d 3e 3f 9a c4 57 3e 1a 77 92 be 4a 09 9a be
       0.7438629 0.21071091 -0.28606492 -0.30085212
000310 4c ee 8a 3e 4e f1 0f 3f 4c 31 a1 bd 9a ff e9 3e
       0.2713493 0.56227577 -0.07870731 0.4570282
000320 5a 37 ae be 42 c9 c6 be 34 5e 0e bf bb 67 0b 3f
       -0.34026605 -0.38825423 -0.5561249 0.54455155
000330 b6 6d 2d bf a6 66 3c 3e 5e 39 5a 3e 9a d7 8e 3e
       -0.6774553 0.18398532 0.21310946 0.27898866
000340 fd 37 00 bf 35 f1 b6 3e 25 80 17 3f bb f4 07 bf
       -0.5008543 0.357309 0.5917991 -0.53107804
000350 36 6f c7 be bc e1 ed be 4d 5b e4 3e 89 f0 fa be
       -0.38952035 -0.46461284 0.44600907 -0.4901164
000360 5e 33 4f be 3f 6d cb be 58 16 6a 3e 68 9f d9 3e
       -0.20234439 -0.39731786 0.22860086 0.4250443
000370 37 1b f2 3e 00 fb 0c 3f 80 a4 1a 3f e0 7a 58 be
       0.47286388 0.55070496 0.6040726 -0.21140623
000380 bf 7d e2 be 6f 06 e4 bd 2a de f1 3e 03 55 3f bf
       -0.44236562 -0.111340396 0.4723981 -0.7473909
000390 cf b2 02 3f b5 70 1b bf 8a 40 e2 bd 13 6c 0f bf
       0.5105409 -0.6071885 -0.11047466 -0.56024283
0003a0 bc 51 17 3f 40 4a 0e 3f 30 9f 14 bf bd b0 35 3e
       0.5910909 0.55582047 -0.580554 0.17743202
0003b0 d2 b8 15 3f 49 7e f3 3e ab 33 6a 3e 62 da d2 3e
       0.5848514 0.47557285 0.22871272 0.41182238
0003c0 e1 d6 1b 3f 85 67 9d 3e 14 f1 a5 be 61 04 5c bf
       0.60874754 0.30743042 -0.3241049 -0.8594418
0003d0 c3 ee 99 be 14 78 20 3d 66 03 10 3f 8d de 83 be
       -0.30064973 0.039177015 0.56255186 -0.2575573
0003e0 f3 16 64 3e b9 6f fb 3e 99 ec ce 3e d0 5a c9 be
       0.2227438 0.49108675 0.40414885 -0.39327097
0003f0 3f 85 02 3f 65 51 b1 3e d9 85 01 3e 04 2e 8d 3e
       0.5098457 0.34632412 0.12648715 0.2757417

bias_epsilon f4 [128]
000000 ad dd 98 3f a8 8f fb 3e d6 b7 8e 3f 3e 8f 99 3f
       1.194265 0.4913304 1.1149852 1.1996839
000010 a7 1c 27 bf b4 77 e8 3e de 34 36 bf 27 ee ad bf
       -0.65278095 0.45403826 -0.7117442 -1.3588303
000020 ca 50 a7 3f c2 32 b1 3f b4 80 57 3f a2 e3 0f 3f
       1.307153 1.3843615 0.8418076 0.56206715
000030 59 e6 1b 3f 47 99 76 3f c4 56 ab bf 1f 90 ab 3f
       0.6089836 0.9632763 -1.3385854 1.3403357
000040 e7 7f 2c 3f ca b1 4d 3f 1c 3a 7f bf b4 7b 96 bf
       0.67382663 0.8034941 -0.9969804 -1.1756501
000050 8b 44 ac bf 82 64 31 bf 4d 1d 6e 3f 6c 92 b1 3f
       -1.3458418 -0.6929399 0.9301346 1.387281
000060 10 ec 9b 3f f0 27 42 bf 0b 89 fa be 5b 2c 27 bf
       1.2181416 -0.7584219 -0.4893268 -0.65302056
000070 71 f1 ae 3f c2 40 8e bf ca 13 c9 bf 2f 51 56 3f
       1.3667432 -1.1113513 -1.5709164 0.83717626
000080 e2 a2 74 3f 88 07 75 bf 25 da 0c bf 6d 93 b4 be
       0.9556104 -0.95714617 -0.5502036 -0.35268727
000090 8f 1a 49 bf 33 12 ad bf 68 6a 89 3f 89 57 62 3f
       -0.7855615 -1.3521179 1.0735598 0.8841482
0000a0 03 c0 62 3f d3 26 1a 3f dc d8 9e 3f e1 9f 2d 3f
       0.88574237 0.6021549 1.240993 0.6782208
0000b0 da 48 12 3f 89 06 4c bf 6b 77 b5 3f c0 10 5a 3f
       0.5714241 -0.7969747 1.4177068 0.8518181
0000c0 96 dd f8 be f9 b6 90 bf 9a e4 55 3f 67 05 83 bf
       -0.48606557 -1.1305839 0.83551943 -1.0236024
0000d0 14 27 8a 3f d8 53 65 bf 99 8b 9e 3f 37 09 2f 3f
       1.0793176 -0.8958106 1.2386352 0.68373436
0000e0 bd cf 43 bf da 92 8e bf b0 28 5e 3f e6 c5 33 3f
       -0.7648886 -1.1138566 0.86780834 0.70223844
0000f0 a1 a0 a8 3f ea 00 24 3f fd 45 d3 3f 0a d5 71 bf
       1.317402 0.64063895 1.6505734 -0.94465697
000100 8c 00 45 bf 5f 71 40 3e c4 59 95 bf c9 ac 5b 3f
       -0.7695396 0.18793248 -1.1668019 0.85810524
000110 b8 dd 3b 3f a0 bd 7e 3f 11 48 47 bf 91 c1 db be
       0.7338519 0.99508095 -0.7784434 -0.42921117
000120 ef a1 bd bf 33 80 a4 3e 44 2e cb bf 1c a5 9e 3f
       -1.4815043 0.32129058 -1.5873494 1.2394137
000130 9b 7d 8d bf 31 8c 06 3f 7f eb 62 3e 95 86 99 be
       -1.1053957 0.52557665 0.22160147 -0.2998549
000140 92 dc 1f 3e d6 f8 b1 3f fa 6b 31 bf c3 73 88 3f
       0.15611485 1.3904064 -0.69305384 1.0660328
000150 24 c7 3c 3f 0a 93 7a 3e b2 a0 37 bf bd 38 42 bf
       0.73741364 0.24470153 -0.71729577 -0.75867826
000160 2e 60 7e 3f 13 7a 43 3f 49 49 66 3f 6d 66 52 3f
       0.9936551 0.76358145 0.89955574 0.8218754
000170 64 1d b9 be 7d 2f a0 3f 4c a0 e4 be 74 92 93 3f
       -0.36155236 1.2514492 -0.44653547 1.1529069
000180 50 a2 fb be e6 b9 9a 3f 09 44 96 3f e4 67 31 3f
       -0.49147272 1.2087982 1.1739513 0.6929915
000190 e6 c5 65 3f c8 d4 f7 3e 66 1d 0c 3f 90 35 ec 3e
       0.89755094 0.48404527 0.5473236 0.46134615
0001a0 d2 22 4e 3f 97 bf 4a 3f 06 ea 84 3f a6 b3 44 3f
       0.8052188 0.7919859 1.0383918 0.7683662
0001b0 d4 6b 69 3f d9 db 34 bf 01 d9 5f 3f ea 43 4d bf
       0.9118016 -0.7064796 0.87440497 -0.80181754
0001c0 06 14 ab 3f c4 ef bc 3f 3f 70 ae bf c1 26 71 3f
       1.3365486 1.4760671 -1.3628005 0.9419976
0001d0 f0 a1 6d bf 06 e9 e1 be ed 10 a5 be e5 c9 49 bf
       -0.9282522 -0.44123095 -0.32239476 -0.7882369
0001e0 84 aa 64 3f 75 1d 37 3f 20 ca 98 be fb a3 96 bf
       0.89322686 0.7152932 -0.2984171 -1.1768793
0001f0 e6 d6 1d bf d3 a9 a0 bf d6 a4 56 3f 19 0c 35 bf
       -0.61656034 -1.2551826 0.8384527 -0.70721585

epsilon_in f4 [128]
000000 10 f5 8d 3e 2f 1d d8 3e b8 e3 5a bf ca 35 38 3f
       0.2772603 0.42209765 -0.8550372 0.71957076
000010 86 5a 50 bf 04 ce 87 bf fc cc 8b 3f 5e 12 9f bf
       -0.8138813 -1.0609746 1.0921931 -1.242748
000020 2a 1c d0 3e 9d 19 51 bf 9f ab 33 3f 3b 7e 81 bf
       0.40646487 -0.8167971 0.7018375 -1.0116647
000030 b3 45 99 bf ca a8 a1 bf cd 82 ea be 37 57 fe be
       -1.1974396 -1.2629635 -0.45802918 -0.49675915
000040 20 41 3e 3f ba 8d 9b 3f 30 4e 06 bf 25 c9 12 bf
       0.7431812 1.2152627 -0.52463055 -0.5733817
000050 f9 36 91 bf 1c 2c d5 3e c3 bf 90 bf fe f0 6e 3f
       -1.1344901 0.41635215 -1.1308521 0.93336475
000060 67 cf c5 3e 19 f5 83 3f 9e c9 47 bf 58 4c 08 bf
       0.38634798 1.0309173 -0.7804202 -0.5324149
000070 36 44 91 bf 78 d2 84 bf ca 87 bf 3f 54 e2 77 bf
       -1.1348941 -1.037673 1.4963315 -0.96829724
000080 0e 9d 0e 3f 4a d0 d3 3f a4 e9 73 bf 43 be 88 bf
       0.55708396 1.654794 -0.9527838 -1.0683063
000090 81 bf f9 3e 5c 39 aa bf 27 39 2d bf 38 f5 99 bf
       0.48778918 -1.3298755 -0.6766533 -1.202796
0000a0 76 41 66 3f fa aa 99 3f a9 df 90 bf 91 9e ae be
       0.89943635 1.2005303 -1.1318256 -0.34105352
0000b0 37 e1 36 bf be d0 d5 be 86 8e 98 bf fb 71 6d bf
       -0.714374 -0.4176082 -1.1918495 -0.92752045
0000c0 85 c4 ac 3f 0d b9 12 3f b6 dd 57 bf d4 3b 99 3e
       1.3497473 0.57313615 -0.8432268 0.29928458
0000d0 e3 a2 bb 3e 4f 64 69 3f d2 12 36 bf 28 1e ee 3e
       0.3664771 0.91168684 -0.7112247 0.46507382
0000e0 d4 e6 c1 bf b2 ae 9f bf 34 68 36 be 5e 0d 76 bf
       -1.5148568 -1.2475188 -0.17813188 -0.96114147
0000f0 4f 94 9f 3e 07 d2 b8 3e 20 fd 61 3f c0 09 ed be
       0.31167838 0.36097738 0.88276863 -0.462965
000100 00 ca c1 3f 43 93 db 3e b6 0c 15 bf 19 c1 1c bf
       1.513977 0.4288579 -0.5822252 -0.61232144
000110 df 61 0d 3f 84 7b 92 3f 6e 09 24 be 9d 20 6e 3f
       0.55227464 1.1443944 -0.16019222 0.93018514
000120 51 4a 31 bf 35 4b 4a bf 4e e1 90 bf 72 dd 8d 3f
       -0.6925402 -0.79021007 -1.1318758 1.1083205
000130 1e 7d b0 bf b0 b9 bf 3e 1f 13 de 3e d8 5c 11 3f
       -1.3788183 0.37446356 0.43373963 0.56782293
000140 2c 7b 82 bf 96 2b 3a 3f 7f 2c 9a 3f de 5a 8a bf
       -1.0193839 0.72722757 1.2044829 -1.080898
000150 17 f4 4a bf 49 14 72 bf d3 62 68 3f 12 5e 7f bf
       -0.792787 -0.945622 0.90775794 -0.99752915
000160 54 db d2 be 29 04 4f bf c1 37 ee 3e 72 76 5d 3f
       -0.4118296 -0.8086572 0.46526912 0.8650886
000170 d9 60 76 3f d5 77 8f 3f 0c 5f 9d 3f c0 4c dc be
       0.9624153 1.1208445 1.2294631 -0.43027306
000180 d8 7c 66 bf 76 0c 68 be b9 22 76 3f 4a b5 c2 bf
       -0.90034246 -0.22661003 0.9614673 -1.5211575
000190 32 01 85 3f db 2e 9e bf 8f 3e 66 be f0 f3 91 bf
       1.039099 -1.2358049 -0.22484802 -1.1402569
0001a0 45 fd 99 3f ff cc 90 3f 8a 3e 97 bf 77 e5 b8 3e
       1.2030417 1.131256 -1.181596 0.36112568
0001b0 24 5d 98 3f 2f ca 77 3f 99 55 ee 3e d7 92 56 3f
       1.1903424 0.9679288 0.4654968 0.8381781
0001c0 d5 96 9e 3f 8b 2e 20 3f aa de 28 bf 3c e6 df bf
       1.238978 0.6257102 -0.6596476 -1.7492137
0001d0 1a a6 1c bf f2 4c a3 3d ee 8d 92 3f 3a 32 06 bf
       -0.6119095 0.079736605 1.1449564 -0.5242039
0001e0 45 1d e8 3e 81 df 7f 3f 4f 93 52 3f 5e e8 4c bf
       0.4533483 0.99950415 0.82256025 -0.80042064
0001f0 d4 d2 84 3f 5f 72 34 3f ed ce 83 3e c0 ab 0f 3f
       1.037684 0.70487016 0.2574381 0.56121445

epsilon_out f4 [128]
000000 ad dd 98 3f a8 8f fb 3e d6 b7 8e 3f 3e 8f 99 3f
       1.194265 0.4913304 1.1149852 1.1996839
000010 a7 1c 27 bf b4 77 e8 3e de 34 36 bf 27 ee ad bf
       -0.65278095 0.45403826 -0.7117442 -1.3588303
000020 ca 50 a7 3f c2 32 b1 3f b4 80 57 3f a2 e3 0f 3f
       1.307153 1.3843615 0.8418076 0.56206715
000030 59 e6 1b 3f 47 99 76 3f c4 56 ab bf 1f 90 ab 3f
       0.6089836 0.9632763 -1.3385854 1.3403357
000040 e7 7f 2c 3f ca b1 4d 3f 1c 3a 7f bf b4 7b 96 bf
       0.67382663 0.8034941 -0.9969804 -1.1756501
000050 8b 44 ac bf 82 64 31 bf 4d 1d 6e 3f 6c 92 b1 3f
       -1.3458418 -0.6929399 0.9301346 1.387281
000060 10 ec 9b 3f f0 27 42 bf 0b 89 fa be 5b 2c 27 bf
       1.2181416 -0.7584219 -0.4893268 -0.65302056
000070 71 f1 ae 3f c2 40 8e bf ca 13 c9 bf 2f 51 56 3f
       1.3667432 -1.1113513 -1.5709164 0.83717626
000080 e2 a2 74 3f 88 07 75 bf 25 da 0c bf 6d 93 b4 be
       0.9556104 -0.95714617 -0.5502036 -0.35268727
000090 8f 1a 49 bf 33 12 ad bf 68 6a 89 3f 89 57 62 3f
       -0.7855615 -1.3521179 1.0735598 0.8841482
0000a0 03 c0 62 3f d3 26 1a 3f dc d8 9e 3f e1 9f 2d 3f
       0.88574237 0.6021549 1.240993 0.6782208
0000b0 da 48 12 3f 89 06 4c bf 6b 77 b5 3f c0 10 5a 3f
       0.5714241 -0.7969747 1.4177068 0.8518181
0000c0 96 dd f8 be f9 b6 90 bf 9a e4 55 3f 67 05 83 bf
       -0.48606557 -1.1305839 0.83551943 -1.0236024
0000d0 14 27 8a 3f d8 53 65 bf 99 8b 9e 3f 37 09 2f 3f
       1.0793176 -0.8958106 1.2386352 0.68373436
0000e0 bd cf 43 bf da 92 8e bf b0 28 5e 3f e6 c5 33 3f
       -0.7648886 -1.1138566 0.86780834 0.70223844
0000f0 a1 a0 a8 3f ea 00 24 3f fd 45 d3 3f 0a d5 71 bf
       1.317402 0.64063895 1.6505734 -0.94465697
000100 8c 00 45 bf 5f 71 40 3e c4 59 95 bf c9 ac 5b 3f
       -0.7695396 0.18793248 -1.1668019 0.85810524
000110 b8 dd 3b 3f a0 bd 7e 3f 11 48 47 bf 91 c1 db be
       0.7338519 0.99508095 -0.7784434 -0.42921117
000120 ef a1 bd bf 33 80 a4 3e 44 2e cb bf 1c a5 9e 3f
       -1.4815043 0.32129058 -1.5873494 1.2394137
000130 9b 7d 8d bf 31 8c 06 3f 7f eb 62 3e 95 86 99 be
       -1.1053957 0.52557665 0.22160147 -0.2998549
000140 92 dc 1f 3e d6 f8 b1 3f fa 6b 31 bf c3 73 88 3f
       0.15611485 1.3904064 -0.69305384 1.0660328
000150 24 c7 3c 3f 0a 93 7a 3e b2 a0 37 bf bd 38 42 bf
       0.73741364 0.24470153 -0.71729577 -0.75867826
000160 2e 60 7e 3f 13 7a 43 3f 49 49 66 3f 6d 66 52 3f
       0.9936551 0.76358145 0.89955574 0.8218754
000170 64 1d b9 be 7d 2f a0 3f 4c a0 e4 be 74 92 93 3f
       -0.36155236 1.2514492 -0.44653547 1.1529069
000180 50 a2 fb be e6 b9 9a 3f 09 44 96 3f e4 67 31 3f
       -0.49147272 1.2087982 1.1739513 0.6929915
000190 e6 c5 65 3f c8 d4 f7 3e 66 1d 0c 3f 90 35 ec 3e
       0.89755094 0.48404527 0.5473236 0.46134615
0001a0 d2 22 4e 3f 97 bf 4a 3f 06 ea 84 3f a6 b3 44 3f
       0.8052188 0.7919859 1.0383918 0.7683662
0001b0 d4 6b 69 3f d9 db 34 bf 01 d9 5f 3f ea 43 4d bf
       0.9118016 -0.7064796 0.87440497 -0.80181754
0001c0 06 14 ab 3f c4 ef bc 3f 3f 70 ae bf c1 26 71 3f
       1.3365486 1.4760671 -1.3628005 0.9419976
0001d0 f0 a1 6d bf 06 e9 e1 be ed 10 a5 be e5 c9 49 bf
       -0.9282522 -0.44123095 -0.32239476 -0.7882369
0001e0 84 aa 64 3f 75 1d 37 3f 20 ca 98 be fb a3 96 bf
       0.89322686 0.7152932 -0.2984171 -1.1768793
0001f0 e6 d6 1d bf d3 a9 a0 bf d6 a4 56 3f 19 0c 35 bf
       -0.61656034 -1.2551826 0.8384527 -0.70721585
