save/checkpoint/cartpoledqn_noisy30000_ckpt.tar (torch_old, 994164 bytes, 34 tensors)

feature.weight f4 [128, 4]
0	0x3f5c2d99	0.86007077
1	0xbd381e2c	-0.04495065
2	0x3d00a107	0.031403568
3	0xbc7d159a	-0.015447045
4	0xbf168e4b	-0.5881087
5	0x3d84961e	0.06473945
6	0x3f990e2b	1.1957449
7	0x3e580602	0.21096042
8	0x3f81398c	1.0095687
9	0x3ea6d965	0.32587734
10	0x3e6df040	0.2323618
11	0x3e299ecf	0.16564487
12	0xbf81d4cb	-1.0143064
13	0x3e89ff50	0.269526
14	0x3daad840	0.08342028
15	0x3e62c4c6	0.22145376
16	0xbf086b51	-0.5328875
17	0x3ef783f9	0.48342875
18	0x3f36027b	0.71097535
19	0x3e274c1f	0.16337632
20	0x3dd0b936	0.10191576
21	0x3ed02c98	0.40659022
22	0x3f87cfbc	1.061027
23	0x3eae2f65	0.34020534
24	0xbd21e010	-0.039520323
25	0x3e5e6888	0.21719563
26	0x3cbc7080	0.023002863
27	0x3e029a8c	0.12754267
28	0xbba22ba4	-0.00494905
29	0x3e67c519	0.2263378
30	0xbe863d19	-0.2621849
31	0xbcc2afd0	-0.023765475
32	0xbd1abb14	-0.037776068
33	0xbef2c23d	-0.47413817
34	0xbf533e8b	-0.8251731
35	0xbeebd15d	-0.4605817
36	0xbd949170	-0.072543025
37	0x3da8b268	0.08237153
38	0x3e4c8944	0.19974238
39	0x3c4f8cc0	0.012667835
40	0xbcc57614	-0.024104156
41	0x3e837257	0.25673172
42	0x3eadb0dc	0.33923995
43	0x3e454b3d	0.19266982
44	0xbd97e9b9	-0.07417626
45	0xbdcb5974	-0.09929171
46	0xbf880456	-1.0626323
47	0xbec6e25d	-0.38844576
48	0x3ec1f27d	0.37880316
49	0x3efc1c21	0.4924021
50	0xbeb81658	-0.35954547
51	0x3eb7ef32	0.3592468
52	0x3e01c6d7	0.12673508
53	0xbdde3438	-0.10849804
54	0xbe862db7	-0.26206753
55	0xbe765900	-0.24057388
56	0xbd253c08	-0.040340453
57	0x3bc55e40	0.0060231984
58	0xbee4c39b	-0.44680485
59	0x3ca8f29b	0.020623496
60	0xbdd26a49	-0.102741785
61	0x3ed88e3b	0.42296013
62	0xbedccf75	-0.43127027
63	0x3e8891b1	0.26673654
64	0xbf1a37bd	-0.602413
65	0x3eca9d25	0.39573017
66	0xbdb8cdaf	-0.09023606
67	0x3acb9d19	0.001553449
68	0x3ecd31b5	0.40076986
69	0x3eacbc50	0.3373742
70	0xbe8ee526	-0.279092
71	0x3e44960e	0.19197866
72	0xbf096842	-0.5367471
73	0xbeb046e3	-0.34429082
74	0xbf0696f1	-0.5257407
75	0xbe820889	-0.25397137
76	0x3e9fd4b7	0.31216976
77	0xbe754905	-0.23953636
78	0xbf1ce5cd	-0.6128815
79	0x3e68ebd4	0.22746211
80	0xbe429884	-0.19003493
81	0x3eac4392	0.33645302
82	0x3ac465bd	0.0014983934
83	0x3d5f4b01	0.05451489
84	0xbe9d792f	-0.30756518
85	0xbe8459b6	-0.25849694
86	0xbf870015	-1.05469
87	0xbe5a3682	-0.21309856
88	0x3d1a2710	0.03763491
89	0xbeaf0fc3	-0.34191713
90	0x3d9ebc74	0.07750788
91	0xbdf5b9b1	-0.119983084
92	0x3cc77ac5	0.024350533
93	0x3e7f6707	0.24941646
94	0xbdd7916c	-0.10525784
95	0x3d259557	0.040425625
96	0x3e911b36	0.28341073
97	0x3e8e53b6	0.2779824
98	0x3f774327	0.9658684
99	0x3e93d01d	0.28869715
100	0x3e00db08	0.12583554
101	0xbe89952c	-0.26871622
102	0x3d9aea40	0.07564211
103	0xbda40d98	-0.08010405
104	0x3e8564c7	0.2605345
105	0xbec79d56	-0.38987225
106	0xbd82b5fa	-0.063823655
107	0xbe8a68d0	-0.2703309
108	0x3ec10f12	0.3770681
109	0x3d999724	0.07499531
110	0xbeb6c8ca	-0.35700065
111	0x3ea8fc0f	0.33004805
112	0x3f794cd8	0.9738288
113	0xbeb21d6b	-0.3478807
114	0xbe1e2a0e	-0.1544573
115	0xbe9a47a2	-0.30132776
116	0xbf4c6477	-0.798408
117	0xbe5ee539	-0.21767129
118	0xbe899734	-0.2687317
119	0xbe0736f0	-0.1320455
120	0x3e9b487b	0.30328736
121	0xbe86bd73	-0.26316413
122	0xbe6dec80	-0.23234749
123	0xbd42e671	-0.047583047
124	0x3e6bb710	0.23019052
125	0xbeb8ef3f	-0.3612003
126	0xbddca124	-0.10772923
127	0xbeb718b4	-0.35761034
128	0x3ea7104c	0.3262962
129	0xbf07f24c	-0.5310409
130	0xbd0f24ad	-0.034947086
131	0xbea3c01f	-0.31982514
132	0x3ca76360	0.020433128
133	0xbd27ca5e	-0.040964477
134	0xbe844671	-0.25834993
135	0x3eab69da	0.33479196
136	0xbd838402	-0.06421663
137	0x3e5730b8	0.21014678
138	0x3f40f4f8	0.7537379
139	0x3e82fb56	0.2558238
140	0xbe884f2f	-0.26622912
141	0xbe6e35ad	-0.23262663
142	0x3ed287b1	0.4111915
143	0xbe820749	-0.25396183
144	0xbebdffd7	-0.37109253
145	0xbe833876	-0.25629014
146	0xbe85e596	-0.26151723
147	0x3e075889	0.13217367
148	0x3ed7384c	0.4203514
149	0x3c929658	0.017893955
150	0xbf0538c4	-0.5203974
151	0x3e616da5	0.22014482
152	0xbd2059c9	-0.039148126
153	0xbe1051c0	-0.14093685
154	0xbec455f1	-0.38346818
155	0xbe67ca9c	-0.22635883
156	0x3f8ffeeb	1.124967
157	0xbd60bc2a	-0.054866947
158	0x3f78834c	0.97075343
159	0xbc15f4cc	-0.009152602
160	0xbeadf7c8	-0.33978105
161	0xbf01d74d	-0.5071915
162	0xbf164d31	-0.58711535
163	0xbea62b33	-0.32454833
164	0xbeaeeb98	-0.3416412
165	0x3e3b023f	0.18262576
166	0x3e9a4720	0.3013239
167	0xbd9af560	-0.07566333
168	0xbe35c281	-0.17749979
169	0x3ea1d75a	0.31609613
170	0x3f3afd60	0.7304287
171	0xbe60fd91	-0.21971728
172	0x3c602315	0.013680239
173	0xbe071bc4	-0.13194185
174	0xbee9b779	-0.4564779
175	0x3ce5e711	0.028064283
176	0x3de80164	0.1132839
177	0x3f024549	0.5088697
178	0x3fa84c82	1.3148348
179	0x3ed92016	0.42407292
180	0x3d9c01e4	0.07617548
181	0x3dedb252	0.116062775
182	0xbef86d22	-0.48520762
183	0x3e2f9070	0.17144942
184	0x3ed9cf97	0.4254119
185	0x3de60407	0.11231237
186	0xbee92f0a	-0.455437
187	0xbc198af2	-0.009371506
188	0xbd4d06b6	-0.05005523
189	0x3e5e9b74	0.21738988
190	0x3f1e2296	0.61771524
191	0x3da31dd0	0.07964671
192	0x3c3a42ec	0.0113684945
193	0xbea2102d	-0.31652966
194	0xbf41bf17	-0.75682205
195	0xbe771e4a	-0.24132648
196	0xbe85d93c	-0.261423
197	0x3eafe22a	0.34352237
198	0x3e1cb7f9	0.15304555
199	0x3d97b4e0	0.07407546
200	0xbe8bc2bd	-0.2729701
201	0x3bd2e8f0	0.0064364597
202	0xbf0291dd	-0.5100382
203	0xbe1e7298	-0.15473402
204	0xbd3a9b45	-0.045558233
205	0x3dc9d3fe	0.098548874
206	0x3e09ca9a	0.13456193
207	0xbe0aea4c	-0.1356594
208	0x3a654026	0.00087452156
209	0xbe80d342	-0.25161177
210	0xbecead13	-0.4036642
211	0xbe916e47	-0.28404447
212	0xbe8dead0	-0.2771821
213	0x396958b8	0.00022253662
214	0xbf9309f8	-1.1487417
215	0xbe4bdc3c	-0.19908231
216	0xbf2c26f5	-0.67246944
217	0x3ca12967	0.019673062
218	0x3f878410	1.0587177
219	0x3db80d10	0.089868665
220	0xbec6242e	-0.38699478
221	0x3e271d68	0.16319811
222	0xbed1db96	-0.40987843
223	0xbe599432	-0.21247938
224	0x3caa793e	0.020809766
225	0xbe3c5ca1	-0.1839471
226	0x3ec364d1	0.38162854
227	0xbeb67dd8	-0.35642886
228	0x3e3b322d	0.1828086
229	0x3e4a4605	0.19753273
230	0x3f592818	0.84826803
231	0x3e4e17c1	0.20126249
232	0xbd57e510	-0.052708685
233	0x3b55d300	0.0032626987
234	0x3ebbdac0	0.3669033
235	0xbb471e00	-0.0030382872
236	0xbe5d5228	-0.21613371
237	0x3e781ac3	0.24228959
238	0xbe78c393	-0.24293356
239	0x3e85d1fa	0.26136762
240	0x3f0c1299	0.5471588
241	0x3edfc218	0.4370277
242	0xbee33a1e	-0.44380277
243	0x3e3b7b42	0.18308738
244	0x3e7b9cbf	0.24571513
245	0xbe30bb57	-0.17258964
246	0xbf2cffe4	-0.6757796
247	0xbd718579	-0.05896518
248	0x3e5dcb86	0.2165967
249	0xbef9ed2e	-0.48813766
250	0xbf3cad87	-0.7370228
251	0xbed58680	-0.41704178
252	0x3f31f2ce	0.69511116
253	0x3efabe34	0.48973238
254	0x3f0bb298	0.5456939
255	0x3eb17314	0.3465811

feature.bias f4 [128]
0	0xbeb3bc44	-0.35104573
1	0xbe7b8008	-0.24560559
2	0xbf12150a	-0.57063353
3	0xbf02e857	-0.5113577
4	0x3e9253c2	0.28579527
5	0xbe1c612d	-0.15271445
6	0xbeb9feac	-0.36327112
7	0x3f3ceff9	0.7380367
8	0xbed26d20	-0.4109888
9	0xbe1cf89c	-0.15329212
10	0x3f263362	0.64922154
11	0xbef4d749	-0.478205
12	0xbe9f3f3e	-0.31102937
13	0x3f28e0b5	0.65967876
14	0x3e9b6623	0.30351362
15	0x3f2dd1f7	0.67898506
16	0xbea8c93b	-0.32966027
17	0x3e982409	0.29714993
18	0xbf0475fa	-0.5174252
19	0x3f1f7ab9	0.62296635
20	0x3f204cb6	0.6261705
21	0xbe05ed95	-0.13078912
22	0x3ec1e1b4	0.3786751
23	0x3f1ace3d	0.60470945
24	0x3d0c6180	0.03427267
25	0xbead498c	-0.33845174
26	0x3ec75fea	0.38940364
27	0x3f32bd20	0.6981983
28	0xbeab3e78	-0.33446097
29	0xbdcba659	-0.09943838
30	0x3f147b91	0.5800105
31	0x3f17ebcc	0.5934417
32	0x3edff486	0.43741244
33	0x3f2e8187	0.68166393
34	0xbe6d0f71	-0.23150422
35	0x3f3049aa	0.688624
36	0xbf34286c	-0.7037418
37	0xbee5609e	-0.44800276
38	0x3f1f9bc4	0.62347054
39	0x3c9d7444	0.019220479
40	0xbef536f9	-0.47893503
41	0x3f33d204	0.70242333
42	0x3f1e77cb	0.6190154
43	0x3f27ac33	0.6549713
44	0xbe27849c	-0.1635918
45	0x3f0689b8	0.5255389
46	0xbf24ca7f	-0.64371485
47	0x3e945222	0.28968912
48	0x3d4bfb3f	0.049800154
49	0x3ec639af	0.38715884
50	0x3f316e8c	0.69309306
51	0x3f3721f6	0.71536195
52	0x3f28c656	0.65927637
53	0xbf12e808	-0.573853
54	0x3e361774	0.17782384
55	0xbf0ed9bb	-0.5580098
56	0x3f14337f	0.57891077
57	0xbda5b106	-0.08090405
58	0xbeb7afe6	-0.35876387
59	0x3db58157	0.0886256
60	0x3efeef98	0.4979217
61	0x3d9a2f92	0.075286046
62	0xbe7aff3c	-0.24511427
63	0xbdd3175f	-0.10307192
64	0x3e476056	0.19470343
65	0xbea5b904	-0.32367718
66	0xbf0b2b80	-0.5436325
67	0xbd87c023	-0.06628444
68	0x3c8ba0ae	0.017044391
69	0xbe1d28e7	-0.15347634
70	0xbf0a00f8	-0.5390773
71	0x3ef7ee19	0.48423842
72	0x3e4fcbc0	0.20292568
73	0xbf17ddc3	-0.59322757
74	0x3f0c692d	0.54847986
75	0xbe9bbc06	-0.30416888
76	0x3f12b979	0.5731426
77	0xbe350f3f	-0.17681597
78	0x3ed5c72e	0.41753525
79	0x3ef5b7ec	0.47991884
80	0x3f3308a9	0.6993509
81	0xbe4105c3	-0.18849854
82	0xbec81724	-0.39080155
83	0x3ebb58a0	0.36591053
84	0xbe795ec6	-0.2435256
85	0x3f238923	0.6388113
86	0xbe5eb8cf	-0.21750186
87	0xbe4cbc9a	-0.19993821
88	0x3f211a39	0.6293064
89	0x3ee3e4f6	0.4451062
90	0x3e911295	0.2833449
91	0x3d7c4127	0.06158557
92	0xbf0979ca	-0.5370146
93	0x3c88327b	0.016625633
94	0xbe2a7936	-0.16647801
95	0x3f0bafdd	0.5456522
96	0x3f1cf6ee	0.61314285
97	0xbeac7d39	-0.33689287
98	0x3eb30dd8	0.349715
99	0x3e6b7b76	0.22996315
100	0x3ee92e16	0.45542973
101	0xbe79830c	-0.24366397
102	0xbd32c1a1	-0.04364169
103	0x3f1c3194	0.6101315
104	0xbea1e6c4	-0.31621373
105	0x3f0c70bc	0.5485952
106	0x3ed7203c	0.4201678
107	0xbe8b9e5f	-0.27269265
108	0xbec48237	-0.38380596
109	0x3f39176f	0.7230138
110	0xbeb54b9b	-0.35409245
111	0xbdbb9b52	-0.091604844
112	0x3e961460	0.2931242
113	0xbf153012	-0.58276474
114	0x3e25a1eb	0.16175048
115	0x3f20a50f	0.6275186
116	0x3d4337fc	0.047660813
117	0x3f040767	0.51573795
118	0xbed6fbae	-0.4198889
119	0xbf087f0e	-0.5331887
120	0x3e93ed77	0.2889211
121	0x3e850866	0.2598297
122	0xbea9e423	-0.33181867
123	0x3eb3bb08	0.3510363
124	0x3f1ead4c	0.6198318
125	0x3eb84513	0.359902
126	0xbe880be1	-0.26571563
127	0x3cf6e1f3	0.030137038

hidden.weight_mu f4 [128, 128]
0	0x3e8ff676	0.28117722
1	0xbe5f35bf	-0.21797846
2	0x3e98950d	0.29801217
3	0x3c854f94	0.016273297
4	0xbf0afa85	-0.5428851
5	0xbd694706	-0.0569525
6	0x3c0ef370	0.008725032
7	0xbd7e9c4a	-0.062160768
8	0x3ee7bf3c	0.45263088
9	0x3c5947b8	0.013261728
10	0xbe57683e	-0.21035859
11	0x3eb6ef07	0.35729238
12	0x3ed8b2d1	0.42323926
13	0xbdab8b2e	-0.08376156
14	0x3e228649	0.15871538
15	0xbdea7a2d	-0.114490844
16	0xbd71b595	-0.05901106
17	0x3c820358	0.015870735
18	0xbce50934	-0.02795849
19	0xbdfb5a9b	-0.12273141
20	0xbd367df0	-0.044553697
21	0x3e64ad5e	0.2233176
22	0xbeaf5a35	-0.3424851
23	0xbbbba5ae	-0.0057265377
24	0xbdc5b03a	-0.09652753
25	0xbd9df7d8	-0.07713288
26	0xbab20d0a	-0.0013584208
27	0xbe593db8	-0.2121495
28	0x3ed55370	0.4166522
29	0x3cb5acbe	0.022177096
30	0x3d251b2c	0.040309116
31	0x3d53b1de	0.0516833
32	0x3da6f85f	0.08152842
33	0xbdfdec54	-0.12398592
34	0xbd02286f	-0.03177684
35	0xbea20a50	-0.31648493
36	0x3a90ca42	0.0011046606
37	0x3d14782a	0.03624741
38	0xbd8fc6d3	-0.070203446
39	0x3e80ea4e	0.2517876
40	0x3c4370d8	0.0119287595
41	0xbe309de7	-0.17247735
42	0xbe141222	-0.14460042
43	0xbdd0c2b4	-0.10193387
44	0xbd6003d7	-0.054691162
45	0x3cc0ade4	0.023520418
46	0x3f23c82a	0.639773
47	0xbdae09a4	-0.084979326
48	0x3ea9aa5c	0.33137786
49	0xbd55961d	-0.052145112
50	0xbdab9aca	-0.08379133
51	0xbe3292ad	-0.17438765
52	0xbdc83b69	-0.097769566
53	0x3eb02043	0.34399614
54	0xbe909a07	-0.28242514
55	0x3dfad68b	0.12247952
56	0xbe0e3134	-0.13885957
57	0xbb6a255e	-0.003572784
58	0xbb54b5a0	-0.003245689
59	0xbdf65393	-0.12027659
60	0x3c006ba3	0.007838163
61	0x3dc0212e	0.093813285
62	0x3e008985	0.1255246
63	0x3ec5606f	0.38550135
64	0xbe3ac7ca	-0.18240276
65	0x3cba1eb3	0.022719717
66	0x3d57755a	0.05260215
67	0xbd8a4b2d	-0.0675262
68	0x3b038882	0.0020070379
69	0xba4f6880	-0.0007911995
70	0x3b8375e7	0.004011858
71	0xbcfd2e82	-0.030905966
72	0x3e690488	0.22755635
73	0xbdb2362e	-0.0870174
74	0xbd904698	-0.07044715
75	0x3d2a4b3a	0.041575648
76	0xbe79c1b6	-0.24390301
77	0xbe4ab91a	-0.19797173
78	0x3a9eff9c	0.0012130621
79	0xbd71c872	-0.05902905
80	0xbe85378f	-0.2601895
81	0x3d8f98b3	0.07011547
82	0xbdb554eb	-0.088540874
83	0xbe56189b	-0.20907824
84	0x3e569f5a	0.20959225
85	0xbd273790	-0.040824473
86	0xbe3c0cba	-0.1836423
87	0xbd605017	-0.05476388
88	0xbe1bedea	-0.15227476
89	0xbd991aa1	-0.07475782
90	0xbd00ef38	-0.031478137
91	0x3e9ed657	0.31022903
92	0x3e17a42f	0.14808725
93	0x3c7aeff0	0.015315995
94	0xbd34a8b2	-0.044106193
95	0x3d39edba	0.04539273
96	0xbe1f8d5f	-0.15581273
97	0x3d355eae	0.044279747
98	0xbd73b8c5	-0.05950238
99	0x3d81f201	0.06344987
100	0xbdb20c51	-0.086937554
101	0x3dd0773b	0.101789914
102	0xbe91b313	-0.28456935
103	0xbe126c6d	-0.14299174
104	0x3cb148dc	0.021641187
105	0xbe4dc8a4	-0.2009607
106	0xbcedf525	-0.029047558
107	0x3cf068d0	0.029346853
108	0xbda38f6c	-0.0798634
109	0xbe172b86	-0.14762697
110	0x3cd8a558	0.02644603
111	0x3e15c7e2	0.1462703
112	0x3da284fb	0.0793552
113	0xbb582196	-0.0032979003
114	0xbe7bcd6f	-0.24590085
115	0xbe97ecda	-0.2967289
116	0x3ea08c32	0.3135696
117	0xbe046f63	-0.12933116
118	0x3b8001d0	0.003906466
119	0xbc00dece	-0.007865621
120	0x3e212fc1	0.15740873
121	0xbe7ceac9	-0.24698938
122	0x3e61cac0	0.22049999
123	0xbe829474	-0.25503886
124	0xbdac5558	-0.084147155
125	0xbd815a0a	-0.06316002
126	0xbde80948	-0.11329895
127	0x3ded9896	0.11601369
128	0xbefea362	-0.49734026
129	0xbc46bd92	-0.012130158
130	0xbeba06ea	-0.363334
131	0xbf02b86f	-0.51062673
132	0x3e76a2f1	0.24085595
133	0xbee1180e	-0.43963665
134	0xbcce1de0	-0.02516073
135	0x3ea6bef8	0.32567573
136	0xbf1d037d	-0.6133345
137	0x3d0a80ca	0.03381423
138	0x3eab912d	0.33509198
139	0xbeeb5ea3	-0.4597064
140	0xbeff87b2	-0.49908215
141	0x3e90fc57	0.2831752
142	0x3e472e0c	0.19451159
143	0x3e6dde64	0.23229367
144	0xbe294002	-0.16528323
145	0x3e845491	0.2584577
146	0xbf1e5c07	-0.6185917
147	0x3e3ec07b	0.18628113
148	0x3ea5d9ee	0.3239283
149	0xbee79213	-0.45228633
150	0x3e80be78	0.25145316
151	0x3e8120ab	0.25220236
152	0xbcc31546	-0.023813855
153	0xbc1db418	-0.009625457
154	0x3e3242c0	0.17408276
155	0x3e1a3782	0.15060237
156	0xbf2ce2ff	-0.6753387
157	0xbe37b089	-0.17938437
158	0x3e01c214	0.12671691
159	0x3e906142	0.28199202
160	0x3e942d44	0.28940785
161	0x3e82cb54	0.25545752
162	0xbf1a1e8a	-0.6020285
163	0x3e7c2a60	0.2462554
164	0xbe4d67e5	-0.20059164
165	0xbdb308df	-0.087419264
166	0x3e7da0d7	0.24768387
167	0xbea23aad	-0.3168539
168	0xbef7811b	-0.48340687
169	0x3e996b1b	0.29964527
170	0x3e3eaac1	0.18619825
171	0x3e9949ea	0.29939204
172	0xbf148df4	-0.58029103
173	0x3dda3593	0.1065475
174	0xbef2f431	-0.47451928
175	0x3dfd0323	0.12354114
176	0xbe43f098	-0.19134748
177	0x3e94ce51	0.29063657
178	0x3e45f48d	0.1933157
179	0x3e3df386	0.18549928
180	0x3e95a5ea	0.29228145
181	0xbf99d9c1	-1.2019578
182	0x3dc024bf	0.09382009
183	0xbe9e9c16	-0.3097846
184	0x3e93e9dc	0.28889358
185	0xbe3ee76f	-0.18642972
186	0x3da71d2f	0.08159863
187	0x3da40a34	0.080097586
188	0x3e1c2d4a	0.15251651
189	0x3e084886	0.13308915
190	0xbe056fe1	-0.1303096
191	0xbee64ef2	-0.44982105
192	0x3d6aeacc	0.057352826
193	0xbd5e37e6	-0.054252528
194	0xbeb78b61	-0.35848525
195	0xbe894554	-0.26810706
196	0xbd86d8b5	-0.06584302
197	0xbea30f59	-0.31847647
198	0xbed67e31	-0.4189315
199	0x3e4e7f2d	0.20165701
200	0x3dcc6c89	0.09981639
201	0x3c9edf99	0.019393729
202	0x3d9518d9	0.0728013
203	0xbea46bc2	-0.32113463
204	0x3e959f17	0.29222938
205	0xbf103da9	-0.56344086
206	0x3e9b2da8	0.3030827
207	0x3de71967	0.11284142
208	0x3e101cba	0.14073458
209	0xbe1e35d0	-0.15450215
210	0xbe0f4b9d	-0.13993688
211	0x3e4cf816	0.20016512
212	0xbe14a1b5	-0.14514811
213	0x3de660e9	0.11248953
214	0xbefc192d	-0.49237958
215	0xbed8507b	-0.42248902
216	0x3e021e4f	0.12706874
217	0x3e9ceaee	0.30647987
218	0x3dda135b	0.10648223
219	0xbe383ea0	-0.1799264
220	0xbde3959e	-0.111125216
221	0xbdd62d75	-0.10457889
222	0xbe7b7d42	-0.24559501
223	0x3e2e5fc5	0.1702872
224	0x3e1f01f4	0.15528089
225	0xbec7adc3	-0.38999757
226	0x3e7ea560	0.24867773
227	0x3dc5428b	0.09631833
228	0x3eb1b52b	0.34708533
229	0xbe86745c	-0.2626065
230	0x3d512fb6	0.05107089
231	0x3e899f69	0.26879433
232	0xbd92665c	-0.0714843
233	0x3e714b51	0.23563887
234	0x3ea23d3e	0.3168735
235	0xbdc9b1c0	-0.09848356
236	0xbe9e3d15	-0.30905977
237	0x3e8c7527	0.2743313
238	0xbe156b37	-0.1459168
239	0xbe88f353	-0.26748142
240	0x3e920baa	0.28524524
241	0xbe4dc724	-0.20095497
242	0x3e2e21c0	0.17005062
243	0x3dec242a	0.11530335
244	0xbe4fecb2	-0.20305136
245	0x3e4019be	0.1875982
246	0xbe9516cf	-0.29118964
247	0xbf0180a6	-0.50586927
248	0x3e79e273	0.2440279
249	0x3e0b9ce3	0.13634066
250	0xbe96a6cc	-0.2942413
251	0x3e3f5a70	0.18686843
252	0x3e691df1	0.22765328
253	0x3e4088d1	0.18802191
254	0xbe6d47d7	-0.23171936
255	0x3c428d2a	0.011874476

hidden.weight_sigma f4 [128, 128]
0	0x3d3504f3	0.044194173
1	0x3d3504f3	0.044194173
2	0x3d3504f3	0.044194173
3	0x3d3504f3	0.044194173
4	0x3d535256	0.051592194
5	0x3d4e7ef6	0.050414048
6	0x3d3504f3	0.044194173
7	0x3d182435	0.037143905
8	0x3d3504f3	0.044194173
9	0x3d3504f3	0.044194173
10	0x3d18b13c	0.0372784
11	0x3d3504f3	0.044194173
12	0x3d3504f3	0.044194173
13	0x3d172098	0.03689632
14	0x3d16cb62	0.036815055
15	0x3d1883ca	0.03723506
16	0x3d5357db	0.051597457
17	0x3d52e905	0.051491756
18	0x3d3504f3	0.044194173
19	0x3d50f0a7	0.051010754
20	0x3d51f77a	0.051261403
21	0x3d3504f3	0.044194173
22	0x3d5124bb	0.05106042
23	0x3d520c87	0.05128148
24	0x3d508ca5	0.05091538
25	0x3d3504f3	0.044194173
26	0x3d16cf79	0.036818955
27	0x3d51359c	0.051076517
28	0x3d3504f3	0.044194173
29	0x3d1adf71	0.037810747
30	0x3d510485	0.0510297
31	0x3d184b60	0.03718126
32	0x3d52f791	0.05150563
33	0x3d1903ce	0.037357144
34	0x3d1c7033	0.03819294
35	0x3d187a3d	0.03722595
36	0x3d4d9c4a	0.050197877
37	0x3d4f4469	0.05060235
38	0x3d174159	0.036927555
39	0x3d3504f3	0.044194173
40	0x3d3504f3	0.044194173
41	0x3d181254	0.037126854
42	0x3d171e74	0.036894277
43	0x3d5146fa	0.05109308
44	0x3d4d98ca	0.05019454
45	0x3d190bcc	0.037364766
46	0x3d3504f3	0.044194173
47	0x3d532dbc	0.051557288
48	0x3d1778d8	0.03698048
49	0x3d523a96	0.051325403
50	0x3d51db13	0.051234316
51	0x3d1819f4	0.037134126
52	0x3d52979b	0.051414113
53	0x3d3504f3	0.044194173
54	0x3d3504f3	0.044194173
55	0x3d3504f3	0.044194173
56	0x3d1749ec	0.03693573
57	0x3d50bbc4	0.050960317
58	0x3d3504f3	0.044194173
59	0x3d534703	0.051581394
60	0x3d189885	0.03725483
61	0x3d19aa73	0.03751607
62	0x3d3504f3	0.044194173
63	0x3d3504f3	0.044194173
64	0x3d3504f3	0.044194173
65	0x3d1a41fe	0.03766059
66	0x3d3504f3	0.044194173
67	0x3d1c4e2c	0.038160488
68	0x3d1b9ff7	0.03799435
69	0x3d3504f3	0.044194173
70	0x3d1c6e5b	0.03819118
71	0x3d514f6c	0.051101133
72	0x3d19524b	0.037431996
73	0x3d3504f3	0.044194173
74	0x3d50bfc2	0.050964125
75	0x3d3504f3	0.044194173
76	0x3d515225	0.05110373
77	0x3d50c795	0.050971586
78	0x3d177656	0.03697809
79	0x3d192b9f	0.037395116
80	0x3d18b66f	0.037283357
81	0x3d1c728b	0.038195174
82	0x3d1c6d02	0.038189895
83	0x3d52fa43	0.0515082
84	0x3d351fad	0.04421966
85	0x3d190159	0.0373548
86	0x3d1912d4	0.03737147
87	0x3d4d9d2f	0.05019873
88	0x3d191ccc	0.03738098
89	0x3d16f735	0.03685685
90	0x3d51a867	0.05118599
91	0x3d529dcd	0.05142002
92	0x3d3504f3	0.044194173
93	0x3d1a0c85	0.037609596
94	0x3d3504f3	0.044194173
95	0x3d50dfbe	0.050994627
96	0x3d513686	0.05107739
97	0x3d3504f3	0.044194173
98	0x3d18ed60	0.037335753
99	0x3d195c80	0.03744173
100	0x3d52b9db	0.051446777
101	0x3d1a0ae4	0.037608042
102	0x3d3504f3	0.044194173
103	0x3d517df1	0.051145498
104	0x3d3504f3	0.044194173
105	0x3d18c4a0	0.03729689
106	0x3d1880f9	0.037232373
107	0x3d3504f3	0.044194173
108	0x3d3504f3	0.044194173
109	0x3d187c1f	0.037227746
110	0x3d4e64ce	0.050389104
111	0x3d3504f3	0.044194173
112	0x3d18b9e1	0.037286643
113	0x3d1afa14	0.03783615
114	0x3d50a1b4	0.050935462
115	0x3d512477	0.051060166
116	0x3d3504f3	0.044194173
117	0x3d50f13a	0.0510113
118	0x3d3504f3	0.044194173
119	0x3d4ee777	0.05051371
120	0x3d17163f	0.03688645
121	0x3d520615	0.05127533
122	0x3d3504f3	0.044194173
123	0x3d18e8ab	0.037331264
124	0x3d192292	0.037386484
125	0x3d16f579	0.036855195
126	0x3d4e2eef	0.050337728
127	0x3d5097c2	0.050925978
128	0x3d3504f3	0.044194173
129	0x3d3504f3	0.044194173
130	0x3d3504f3	0.044194173
131	0x3d3504f3	0.044194173
132	0x3d5bc98d	0.05365901
133	0x3d57abd8	0.052654117
134	0x3d3504f3	0.044194173
135	0x3d0e5296	0.03474673
136	0x3d3504f3	0.044194173
137	0x3d3504f3	0.044194173
138	0x3d0e9e0e	0.0348187
139	0x3d3504f3	0.044194173
140	0x3d3504f3	0.044194173
141	0x3d0e0fd9	0.034683082
142	0x3d0f040e	0.034915976
143	0x3d0e7b3b	0.03478549
144	0x3d5a0d78	0.0532355
145	0x3d5bc90d	0.053658534
146	0x3d3504f3	0.044194173
147	0x3d5ac5bb	0.053411227
148	0x3d5bc79f	0.05365717
149	0x3d3504f3	0.044194173
150	0x3d5b6067	0.053558733
151	0x3d5bcc12	0.053661413
152	0x3d596623	0.05307592
153	0x3d3504f3	0.044194173
154	0x3d0e2f84	0.034713283
155	0x3d5b1b3f	0.05349278
156	0x3d3504f3	0.044194173
157	0x3d14d6fb	0.036337834
158	0x3d5af2dc	0.053454265
159	0x3d0e5b05	0.03475477
160	0x3d5c02ca	0.053713597
161	0x3d0f07a9	0.034919415
162	0x3d1713e9	0.036884222
163	0x3d0e5bc1	0.034755472
164	0x3d5772e2	0.052599795
165	0x3d547ef9	0.051878903
166	0x3d0e1c93	0.03469522
167	0x3d3504f3	0.044194173
168	0x3d3504fb	0.044194203
169	0x3d0e2f45	0.03471305
170	0x3d0e28b9	0.034706805
171	0x3d5b580d	0.05355077
172	0x3d58cf1c	0.05293189
173	0x3d0f206d	0.034943033
174	0x3d3504f3	0.044194173
175	0x3d5c1f2f	0.053740676
176	0x3d1060b2	0.035248466
177	0x3d5bd625	0.05367102
178	0x3d5bcb2e	0.053660564
179	0x3d0e3dc8	0.034726888
180	0x3d5bcdef	0.05366319
181	0x3d3504f3	0.044194173
182	0x3d3504f3	0.044194173
183	0x3d3504f3	0.044194173
184	0x3d0e2dc4	0.034711614
185	0x3d59ec19	0.053203676
186	0x3d3504f3	0.044194173
187	0x3d5c464d	0.05377798
188	0x3d0ec242	0.034853227
189	0x3d10bca1	0.03533614
190	0x3d3504f3	0.044194173
191	0x3d3504f3	0.044194173
192	0x3d3504f3	0.044194173
193	0x3d167cb3	0.036740016
194	0x3d3504f3	0.044194173
195	0x3d0925d4	0.03348334
196	0x3d10d731	0.035361473
197	0x3d3504f3	0.044194173
198	0x3d122228	0.035677105
199	0x3d5b31d5	0.05351432
200	0x3d1125db	0.035436492
201	0x3d1ff504	0.039052024
202	0x3d5a4e37	0.053297248
203	0x3d3504f3	0.044194173
204	0x3d5b763b	0.05357955
205	0x3d5ab009	0.053390536
206	0x3d0e2cbf	0.034710642
207	0x3d0f724b	0.035021108
208	0x3d0e94a9	0.034809742
209	0x3d152130	0.036408603
210	0x3d148b79	0.036265824
211	0x3d5a1231	0.053240005
212	0x3d354dab	0.044263523
213	0x3d0f1893	0.034935545
214	0x3d0e8574	0.03479524
215	0x3d56c058	0.052429527
216	0x3d0f224c	0.034944817
217	0x3d0e32ea	0.034716524
218	0x3d5b5bc7	0.053554323
219	0x3d5ba0d7	0.053620186
220	0x3d3504f3	0.044194173
221	0x3d16d8f4	0.036827996
222	0x3d3504f3	0.044194173
223	0x3d5aa631	0.05338115
224	0x3d5b1ba5	0.05349316
225	0x3d35ca6a	0.04438249
226	0x3d0ecb65	0.03486194
227	0x3d0feb6a	0.035136618
228	0x3d5bec62	0.05369223
229	0x3d16df9e	0.03683435
230	0x3d3504f3	0.044194173
231	0x3d5b98f6	0.05361267
232	0x3d3504f3	0.044194173
233	0x3d0ea471	0.034824792
234	0x3d0e63c8	0.034763128
235	0x3d3504f3	0.044194173
236	0x3d2172bd	0.039416064
237	0x3d0e7bc1	0.03478599
238	0x3d58eee0	0.052962184
239	0x3d3504f3	0.044194173
240	0x3d0eec5a	0.03489337
241	0x3d14d740	0.03633809
242	0x3d5a4787	0.05329087
243	0x3d5aff42	0.05346609
244	0x3d3504f3	0.044194173
245	0x3d5b00b2	0.05346746
246	0x3d34efe8	0.044174105
247	0x3d5630fb	0.052292805
248	0x3d0f936b	0.035052698
249	0x3d53ff9d	0.051757444
250	0x3d3504f3	0.044194173
251	0x3d0f24a4	0.034947053
252	0x3d0f4326	0.034976147
253	0x3d0e6419	0.03476343
254	0x3d5b6e2b	0.05357186
255	0x3d5a5c15	0.053310473

hidden.bias_mu f4 [128]
0	0xbe53a035	-0.20666583
1	0x3e96d61f	0.29460236
2	0x3a67089e	0.0008813235
3	0xbd465506	-0.04842093
4	0x3e2c3011	0.16815211
5	0x3e95ec99	0.29282072
6	0x3a274734	0.00063811545
7	0x3eac5ded	0.3366541
8	0xbde5e46e	-0.1122521
9	0xbc04a558	-0.008096062
10	0x3ea0796f	0.31342646
11	0x3e3f5cbf	0.18687724
12	0x3e9bb7c1	0.3041363
13	0x3eb2d43f	0.34927556
14	0x3c69ffcd	0.014282179
15	0x3db11796	0.08647077
16	0xbdadb1be	-0.08481167
17	0x3e927840	0.28607368
18	0x3e86401d	0.2622079
19	0xbd0e8792	-0.03479726
20	0x3e5e55dd	0.21712442
21	0xbcc417be	-0.023937102
22	0xbdd1b55f	-0.10239672
23	0xbca2d02b	-0.019874653
24	0xbd5cce93	-0.053907942
25	0x3d415197	0.04719695
26	0xbda7c5c3	-0.08192017
27	0x3e82a9d5	0.25520197
28	0x3e9b0473	0.30276832
29	0xbbf90098	-0.0075989477
30	0xbd994e78	-0.0748567
31	0xbd05f0dd	-0.03270041
32	0x3e985f90	0.29760408
33	0xbe4521d4	-0.19251186
34	0xbd991252	-0.074741974
35	0xbdb269fb	-0.087116204
36	0x3ead80af	0.3388724
37	0xbdfc2ebf	-0.123136036
38	0xbd88cfdc	-0.06680271
39	0x3debbad3	0.11510243
40	0x3e646dd6	0.22307524
41	0x3eb1383f	0.34613225
42	0xbd6519e8	-0.05593291
43	0xbb0ddb23	-0.0021645508
44	0x3e4a01ce	0.19727251
45	0x3e219b33	0.1578186
46	0x3e7751f4	0.24152356
47	0xbdb4dd83	-0.088313125
48	0xbdbe5295	-0.09293095
49	0x3e94dd4f	0.29075095
50	0x3e5009b3	0.203162
51	0x3e864be5	0.26229778
52	0x3e91c6e9	0.2847207
53	0x3e75fe8b	0.24022882
54	0xbc991f44	-0.018691666
55	0xbdb72e19	-0.08944339
56	0x3e9fffdd	0.31249896
57	0x3c24b948	0.01005394
58	0x3ea94c4e	0.33066028
59	0x3e4dde64	0.20104367
60	0x3d6830a1	0.056687
61	0x3e74de91	0.23913027
62	0x3d87be69	0.06628115
63	0x3af53aa4	0.0018709493
64	0xbc7ae68d	-0.015313757
65	0x3e93da72	0.28877598
66	0xbd12a6ed	-0.035803724
67	0xbd8e8e95	-0.06960789
68	0x3e88cfd2	0.26721054
69	0x3d793285	0.060839195
70	0x3ca60fc9	0.020271199
71	0xbd20cf19	-0.039260004
72	0x3c304838	0.010759406
73	0x3d898f17	0.06716745
74	0xbe4a92b4	-0.19782525
75	0xbc123b8d	-0.008925331
76	0x3d3e2126	0.04641833
77	0xbdba164c	-0.09086284
78	0xbc5ddb08	-0.013540991
79	0x3e76db66	0.24107131
80	0xbd39eac8	-0.04538992
81	0x3e31e30d	0.17371769
82	0x3d6a1e66	0.057157896
83	0xbd8bc80f	-0.068252675
84	0x3e9a74c6	0.30167216
85	0xbce51fc3	-0.027969247
86	0xbdbd386d	-0.09239278
87	0x3d4aad58	0.04948172
88	0x3cb6a67d	0.022296185
89	0x3e8808b7	0.2656915
90	0xbacf57bc	-0.0015818994
91	0x3e9786a4	0.2959491
92	0xb82be664	-4.0984145e-05
93	0x3e50ee82	0.20403484
94	0xbc9e57f9	-0.019329058
95	0x3cdb7770	0.02679035
96	0xbd88ec98	-0.06685752
97	0x3cf1ab30	0.029500574
98	0x3d627726	0.05528941
99	0x3d84ffa3	0.06494071
100	0x3e70be7f	0.23510168
101	0x3d871c45	0.06597189
102	0x3e964ba8	0.29354596
103	0x3c8fb8c1	0.017544152
104	0x3e6062d4	0.219127
105	0x3ea1fd66	0.3163864
106	0xbda9d36f	-0.08292281
107	0x3d870535	0.0659279
108	0x3e9ff2d6	0.31239957
109	0x3ad31180	0.0016103238
110	0xbdae667f	-0.08515643
111	0x3d692ac4	0.05692555
112	0x3e9835a9	0.2972844
113	0x3cbf1cbc	0.023329131
114	0xbd763cee	-0.0601167
115	0xbcf957a8	-0.030437306
116	0x3d267d97	0.040647116
117	0x3e99320d	0.29920998
118	0xbd601e06	-0.054716133
119	0xbcbf3d87	-0.023344768
120	0x3e9641c2	0.29347044
121	0xbd9af1e1	-0.07565666
122	0xbdb594de	-0.08866285
123	0x3d67d4b5	0.056599338
124	0x3d3b7436	0.045765124
125	0x3d83eb50	0.06441367
126	0x3e9e0115	0.308602
127	0xbd44864a	-0.04797963

hidden.bias_sigma f4 [128]
0	0x3d143389	0.03618196
1	0x3d0645d3	0.032781433
2	0x3d3504f3	0.044194173
3	0x3d4c3863	0.049858462
4	0x3d501abc	0.050806746
5	0x3d0427d3	0.03226454
6	0x3d54382c	0.051811382
7	0x3d0fd7af	0.0351178
8	0x3d1c6c45	0.03818919
9	0x3d1c92cd	0.038225938
10	0x3d0f0b05	0.03492262
11	0x3d041562	0.032246955
12	0x3d510cab	0.05103747
13	0x3d14646b	0.03622858
14	0x3d030af9	0.031992886
15	0x3d00c4d3	0.031437706
16	0x3d5a26c1	0.053259615
17	0x3d0c3128	0.034226567
18	0x3d098cbb	0.033581477
19	0x3d5543a6	0.052066468
20	0x3d12361c	0.035696134
21	0x3d3504f3	0.044194173
22	0x3d0f706b	0.03501932
23	0x3d3504f3	0.044194173
24	0x3d473f65	0.048644442
25	0x3d19d4e9	0.037556563
26	0x3d3504f3	0.044194173
27	0x3d5b2f10	0.05351168
28	0x3d5e23fb	0.054233532
29	0x3d1c6bc4	0.03818871
30	0x3d3504f3	0.044194173
31	0x3d5cc7d1	0.053901497
32	0x3d3540ec	0.044251367
33	0x3d4aea9f	0.04954016
34	0x3d3504f3	0.044194173
35	0x3d3504f3	0.044194173
36	0x3d5fe374	0.054660276
37	0x3d0ecb1a	0.03486166
38	0x3d3504f3	0.044194173
39	0x3d594046	0.05303981
40	0x3d10a2c4	0.035311475
41	0x3d5866fe	0.052832596
42	0x3d6200e4	0.05517663
43	0x3d3504f3	0.044194173
44	0x3d5d1707	0.05397704
45	0x3d036e9a	0.0320879
46	0x3d603888	0.054741412
47	0x3d3504f3	0.044194173
48	0x3d112186	0.03543236
49	0x3d61e7e9	0.055152807
50	0x3d5c8b9c	0.05384408
51	0x3d0dda4b	0.03463201
52	0x3d0f4804	0.03498079
53	0x3d5df9cb	0.0541933
54	0x3d17de65	0.037077326
55	0x3d14fabf	0.036371943
56	0x3d5f8a09	0.054575
57	0x3d5e592d	0.054284263
58	0x3d5d1f82	0.053985126
59	0x3d0a719a	0.033799745
60	0x3d3504f3	0.044194173
61	0x3d5fb54e	0.054616265
62	0x3d10506b	0.035232943
63	0x3d3504f3	0.044194173
64	0x3d3504f3	0.044194173
65	0x3d4e9490	0.05043465
66	0x3d29336b	0.0413088
67	0x3d3504f3	0.044194173
68	0x3d03e456	0.03220018
69	0x3d5da571	0.054112855
70	0x3d5ae331	0.053439323
71	0x3d57b2f5	0.0526609
72	0x3d3504f3	0.044194173
73	0x3d5ed985	0.05440666
74	0x3d12382e	0.03569811
75	0x3d107807	0.035270717
76	0x3d0fb56c	0.035085127
77	0x3d3504f3	0.044194173
78	0x3d15c913	0.036568712
79	0x3d25deb0	0.040495574
80	0x3d3504f3	0.044194173
81	0x3d0d788d	0.034538794
82	0x3d52e0bd	0.05148386
83	0x3d3504f3	0.044194173
84	0x3d3504f3	0.044194173
85	0x3d11cb79	0.035594437
86	0x3d5cc175	0.053895433
87	0x3d3504f3	0.044194173
88	0x3d3504f3	0.044194173
89	0x3d5db6d5	0.05412944
90	0x3d3504f3	0.044194173
91	0x3d69c307	0.05707076
92	0x3d3504f3	0.044194173
93	0x3d67f2ac	0.056627914
94	0x3d0d1ffc	0.03445433
95	0x3d3504f3	0.044194173
96	0x3d3504f3	0.044194173
97	0x3d0f0951	0.034920994
98	0x3d3504f3	0.044194173
99	0x3d541ff4	0.051788285
100	0x3d0ca825	0.034340043
101	0x3d5a61fd	0.053316105
102	0x3d31c156	0.04339727
103	0x3d0fae7e	0.035078518
104	0x3d5fde4f	0.05465537
105	0x3d0a7d7b	0.033811074
106	0x3d3504f3	0.044194173
107	0x3d12fc47	0.03588512
108	0x3d5af5c6	0.053457044
109	0x3d3504f3	0.044194173
110	0x3d3504f3	0.044194173
111	0x3d6014c7	0.054707315
112	0x3d5adea0	0.053434968
113	0x3d3504f3	0.044194173
114	0x3d3504f3	0.044194173
115	0x3d2f5e4e	0.042814545
116	0x3d5837ad	0.05278747
117	0x3d0e8cfd	0.034802426
118	0x3d0c0e20	0.03419316
119	0x3d1d05c0	0.03833556
120	0x3d5f8784	0.054572597
121	0x3d59f07c	0.05320786
122	0x3d3504f3	0.044194173
123	0x3d0c1d26	0.034207486
124	0x3d1c6bdd	0.038188804
125	0x3d5be7ac	0.053687736
126	0x3d338cef	0.043835577
127	0x3d3504f3	0.044194173

hidden.weight_epsilon f4 [128, 128]
0	0x00000000	0.0
1	0x00000000	0.0
2	0x00000000	0.0
3	0x00000000	0.0
4	0x00000000	0.0
5	0x00000000	0.0
6	0x00000000	0.0
7	0x00000000	0.0
8	0x00000000	0.0
9	0x00000000	0.0
10	0x00000000	0.0
11	0x00000000	0.0
12	0x00000000	0.0
13	0x00000000	0.0
14	0x00000000	0.0
15	0x00000000	0.0
16	0x00000000	0.0
17	0x00000000	0.0
18	0x00000000	0.0
19	0x00000000	0.0
20	0x00000000	0.0
21	0x00000000	0.0
22	0x00000000	0.0
23	0x00000000	0.0
24	0x00000000	0.0
25	0x00000000	0.0
26	0x00000000	0.0
27	0x00000000	0.0
28	0x00000000	0.0
29	0x00000000	0.0
30	0x00000000	0.0
31	0x00000000	0.0
32	0x00000000	0.0
33	0x00000000	0.0
34	0x00000000	0.0
35	0x00000000	0.0
36	0x00000000	0.0
37	0x00000000	0.0
38	0x00000000	0.0
39	0x00000000	0.0
40	0x00000000	0.0
41	0x00000000	0.0
42	0x00000000	0.0
43	0x00000000	0.0
44	0x00000000	0.0
45	0x00000000	0.0
46	0x00000000	0.0
47	0x00000000	0.0
48	0x00000000	0.0
49	0x00000000	0.0
50	0x00000000	0.0
51	0x00000000	0.0
52	0x00000000	0.0
53	0x00000000	0.0
54	0x00000000	0.0
55	0x00000000	0.0
56	0x00000000	0.0
57	0x00000000	0.0
58	0x00000000	0.0
59	0x00000000	0.0
60	0x00000000	0.0
61	0x00000000	0.0
62	0x00000000	0.0
63	0x00000000	0.0
64	0x00000000	0.0
65	0x00000000	0.0
66	0x00000000	0.0
67	0x00000000	0.0
68	0x00000000	0.0
69	0x00000000	0.0
70	0x00000000	0.0
71	0x00000000	0.0
72	0x00000000	0.0
73	0x00000000	0.0
74	0x00000000	0.0
75	0x00000000	0.0
76	0x00000000	0.0
77	0x00000000	0.0
78	0x00000000	0.0
79	0x00000000	0.0
80	0x00000000	0.0
81	0x00000000	0.0
82	0x00000000	0.0
83	0x00000000	0.0
84	0x00000000	0.0
85	0x00000000	0.0
86	0x00000000	0.0
87	0x00000000	0.0
88	0x00000000	0.0
89	0x00000000	0.0
90	0x00000000	0.0
91	0x00000000	0.0
92	0x00000000	0.0
93	0x00000000	0.0
94	0x00000000	0.0
95	0x00000000	0.0
96	0x00000000	0.0
97	0x00000000	0.0
98	0x00000000	0.0
99	0x00000000	0.0
100	0x00000000	0.0
101	0x00000000	0.0
102	0x00000000	0.0
103	0x00000000	0.0
104	0x00000000	0.0
105	0x00000000	0.0
106	0x00000000	0.0
107	0x00000000	0.0
108	0x00000000	0.0
109	0x00000000	0.0
110	0x00000000	0.0
111	0x00000000	0.0
112	0x00000000	0.0
113	0x00000000	0.0
114	0x00000000	0.0
115	0x00000000	0.0
116	0x00000000	0.0
117	0x00000000	0.0
118	0x00000000	0.0
119	0x00000000	0.0
120	0x00000000	0.0
121	0x00000000	0.0
122	0x00000000	0.0
123	0x00000000	0.0
124	0x00000000	0.0
125	0x00000000	0.0
126	0x00000000	0.0
127	0x00000000	0.0
128	0x00000000	0.0
129	0x00000000	0.0
130	0x00000000	0.0
131	0x00000000	0.0
132	0x00000000	0.0
133	0x00000000	0.0
134	0x00000000	0.0
135	0x00000000	0.0
136	0x00000000	0.0
137	0x00000000	0.0
138	0x00000000	0.0
139	0x00000000	0.0
140	0x00000000	0.0
141	0x00000000	0.0
142	0x00000000	0.0
143	0x00000000	0.0
144	0x00000000	0.0
145	0x00000000	0.0
146	0x00000000	0.0
147	0x00000000	0.0
148	0x00000000	0.0
149	0x00000000	0.0
150	0x00000000	0.0
151	0x00000000	0.0
152	0x00000000	0.0
153	0x00000000	0.0
154	0x00000000	0.0
155	0x00000000	0.0
156	0x00000000	0.0
157	0x00000000	0.0
158	0x00000000	0.0
159	0x00000000	0.0
160	0x00000000	0.0
161	0x00000000	0.0
162	0x00000000	0.0
163	0x00000000	0.0
164	0x00000000	0.0
165	0x00000000	0.0
166	0x00000000	0.0
167	0x00000000	0.0
168	0x00000000	0.0
169	0x00000000	0.0
170	0x00000000	0.0
171	0x00000000	0.0
172	0x00000000	0.0
173	0x00000000	0.0
174	0x00000000	0.0
175	0x00000000	0.0
176	0x00000000	0.0
177	0x00000000	0.0
178	0x00000000	0.0
179	0x00000000	0.0
180	0x00000000	0.0
181	0x00000000	0.0
182	0x00000000	0.0
183	0x00000000	0.0
184	0x00000000	0.0
185	0x00000000	0.0
186	0x00000000	0.0
187	0x00000000	0.0
188	0x00000000	0.0
189	0x00000000	0.0
190	0x00000000	0.0
191	0x00000000	0.0
192	0x00000000	0.0
193	0x00000000	0.0
194	0x00000000	0.0
195	0x00000000	0.0
196	0x00000000	0.0
197	0x00000000	0.0
198	0x00000000	0.0
199	0x00000000	0.0
200	0x00000000	0.0
201	0x00000000	0.0
202	0x00000000	0.0
203	0x00000000	0.0
204	0x00000000	0.0
205	0x00000000	0.0
206	0x00000000	0.0
207	0x00000000	0.0
208	0x00000000	0.0
209	0x00000000	0.0
210	0x00000000	0.0
211	0x00000000	0.0
212	0x00000000	0.0
213	0x00000000	0.0
214	0x00000000	0.0
215	0x00000000	0.0
216	0x00000000	0.0
217	0x00000000	0.0
218	0x00000000	0.0
219	0x00000000	0.0
220	0x00000000	0.0
221	0x00000000	0.0
222	0x00000000	0.0
223	0x00000000	0.0
224	0x00000000	0.0
225	0x00000000	0.0
226	0x00000000	0.0
227	0x00000000	0.0
228	0x00000000	0.0
229	0x00000000	0.0
230	0x00000000	0.0
231	0x00000000	0.0
232	0x00000000	0.0
233	0x00000000	0.0
234	0x00000000	0.0
235	0x00000000	0.0
236	0x00000000	0.0
237	0x00000000	0.0
238	0x00000000	0.0
239	0x00000000	0.0
240	0x00000000	0.0
241	0x00000000	0.0
242	0x00000000	0.0
243	0x00000000	0.0
244	0x00000000	0.0
245	0x00000000	0.0
246	0x00000000	0.0
247	0x00000000	0.0
248	0x00000000	0.0
249	0x00000000	0.0
250	0x00000000	0.0
251	0x00000000	0.0
252	0x00000000	0.0
253	0x00000000	0.0
254	0x00000000	0.0
255	0x00000000	0.0

hidden.bias_epsilon f4 [128]
0	0x00000000	0.0
1	0x80000000	-0.0
2	0x00000000	0.0
3	0x80000000	-0.0
4	0x00000000	0.0
5	0x80000000	-0.0
6	0x80000000	-0.0
7	0x80000000	-0.0
8	0x00000000	0.0
9	0x80000000	-0.0
10	0x80000000	-0.0
11	0x80000000	-0.0
12	0x80000000	-0.0
13	0x80000000	-0.0
14	0x00000000	0.0
15	0x80000000	-0.0
16	0x80000000	-0.0
17	0x80000000	-0.0
18	0x80000000	-0.0
19	0x80000000	-0.0
20	0x80000000	-0.0
21	0x80000000	-0.0
22	0x00000000	0.0
23	0x80000000	-0.0
24	0x80000000	-0.0
25	0x00000000	0.0
26	0x80000000	-0.0
27	0x00000000	0.0
28	0x00000000	0.0
29	0x00000000	0.0
30	0x80000000	-0.0
31	0x80000000	-0.0
32	0x80000000	-0.0
33	0x80000000	-0.0
34	0x80000000	-0.0
35	0x80000000	-0.0
36	0x00000000	0.0
37	0x00000000	0.0
38	0x00000000	0.0
39	0x00000000	0.0
40	0x80000000	-0.0
41	0x80000000	-0.0
42	0x80000000	-0.0
43	0x00000000	0.0
44	0x00000000	0.0
45	0x80000000	-0.0
46	0x00000000	0.0
47	0x00000000	0.0
48	0x00000000	0.0
49	0x00000000	0.0
50	0x00000000	0.0
51	0x80000000	-0.0
52	0x80000000	-0.0
53	0x00000000	0.0
54	0x00000000	0.0
55	0x00000000	0.0
56	0x00000000	0.0
57	0x80000000	-0.0
58	0x00000000	0.0
59	0x80000000	-0.0
60	0x80000000	-0.0
61	0x00000000	0.0
62	0x00000000	0.0
63	0x00000000	0.0
64	0x80000000	-0.0
65	0x00000000	0.0
66	0x80000000	-0.0
67	0x80000000	-0.0
68	0x80000000	-0.0
69	0x80000000	-0.0
70	0x80000000	-0.0
71	0x80000000	-0.0
72	0x00000000	0.0
73	0x80000000	-0.0
74	0x00000000	0.0
75	0x00000000	0.0
76	0x00000000	0.0
77	0x80000000	-0.0
78	0x00000000	0.0
79	0x80000000	-0.0
80	0x00000000	0.0
81	0x80000000	-0.0
82	0x80000000	-0.0
83	0x00000000	0.0
84	0x80000000	-0.0
85	0x00000000	0.0
86	0x80000000	-0.0
87	0x00000000	0.0
88	0x80000000	-0.0
89	0x00000000	0.0
90	0x80000000	-0.0
91	0x00000000	0.0
92	0x80000000	-0.0
93	0x00000000	0.0
94	0x00000000	0.0
95	0x00000000	0.0
96	0x80000000	-0.0
97	0x00000000	0.0
98	0x00000000	0.0
99	0x80000000	-0.0
100	0x80000000	-0.0
101	0x80000000	-0.0
102	0x00000000	0.0
103	0x00000000	0.0
104	0x00000000	0.0
105	0x80000000	-0.0
106	0x00000000	0.0
107	0x00000000	0.0
108	0x00000000	0.0
109	0x80000000	-0.0
110	0x80000000	-0.0
111	0x80000000	-0.0
112	0x00000000	0.0
113	0x80000000	-0.0
114	0x80000000	-0.0
115	0x00000000	0.0
116	0x80000000	-0.0
117	0x80000000	-0.0
118	0x80000000	-0.0
119	0x80000000	-0.0
120	0x00000000	0.0
121	0x80000000	-0.0
122	0x80000000	-0.0
123	0x00000000	0.0
124	0x00000000	0.0
125	0x80000000	-0.0
126	0x80000000	-0.0
127	0x80000000	-0.0

out.weight_mu f4 [2, 128]
0	0xbf0c4ecd	-0.5480774
1	0x3eb8175c	0.35955322
2	0x3c0206bf	0.007936179
3	0xbd8b1cc7	-0.06792598
4	0x3ea80b30	0.32821035
5	0x3e84d809	0.25946072
6	0xbd961564	-0.07328299
7	0x3e7ea1e4	0.24866444
8	0x3d8d1ff7	0.068908624
9	0xbe9486bd	-0.29009047
10	0x3ea8099b	0.32819828
11	0x3e948e5d	0.29014865
12	0x3e9df3ce	0.3085007
13	0x3e838324	0.2568599
14	0x3c7f7662	0.0155921895
15	0x3e7ce5e3	0.2469707
16	0xbd53d2e6	-0.0517148
17	0x3eb137f0	0.3461299
18	0x3e96d5cb	0.29459986
19	0x3c162793	0.009164709
20	0x3e9adbd8	0.30245852
21	0xbd323ed5	-0.043516953
22	0xbce76679	-0.028247105
23	0xbc973323	-0.018457001
24	0x3d8ac81b	0.06776448
25	0xbc5052cd	-0.012715054
26	0xbd51ba30	-0.051202953
27	0x3e87fbe0	0.26559353
28	0x3ec4df5c	0.3845166
29	0xbd8dfd17	-0.06933039
30	0x3d07b09a	0.033127405
31	0xbd0d178d	-0.034446288
32	0x3eafb019	0.3431404
33	0xbea2b061	-0.3177519
34	0x3d13ac06	0.036052726
35	0xbdb2aefc	-0.08724782
36	0x3e977649	0.29582432
37	0xbe91ae3c	-0.28453243
38	0xb6ca8000	-6.0349703e-06
39	0x3e821f69	0.2541459
40	0x3ea328aa	0.31866962
41	0x3dcb9760	0.09940982
42	0x3c0960ae	0.008384867
43	0xbd078139	-0.03308222
44	0x3eb372b5	0.35048452
45	0x3ebb1cd5	0.36545435
46	0x3e9b8da4	0.303815
47	0x3d2ba291	0.041903082
48	0x3a29f84d	0.0006483838
49	0x3ea8e67f	0.32988355
50	0x3e97b42d	0.2962965
51	0x3e93aa1c	0.2884072
52	0x3e6ba392	0.23011616
53	0x3ebc0845	0.3672506
54	0xbc98b9e9	-0.018643336
55	0xbbdbe165	-0.0067102187
56	0x3e962fa5	0.29333225
57	0xbcd7f1c4	-0.0263604
58	0x3eb2f7f3	0.34954795
59	0x3ea70d27	0.32627222
60	0xbb584f9d	-0.0033006438
61	0x3ea5dcc6	0.32395
62	0xbd0d821d	-0.034547914
63	0xbd143a6b	-0.036188524
64	0xbd197859	-0.037468288
65	0x3e9bb98d	0.30415002
66	0xbd83f18e	-0.06442557
67	0xb99af632	-0.000295566
68	0x3ea6c64f	0.32573172
69	0xbd787a67	-0.060663607
70	0xbd8bc471	-0.068245776
71	0xbcc08c60	-0.023504436
72	0xbb449580	-0.0029996336
73	0xbd25988d	-0.040428687
74	0xbe83f942	-0.25776106
75	0xbd398e8b	-0.045301955
76	0xbe154ed9	-0.14580859
77	0xbcf9986e	-0.030468192
78	0xbcebf37d	-0.028802628
79	0x3e76e9fc	0.24112695
80	0xbc4cada0	-0.012492567
81	0x3ea499fc	0.3214873
82	0x3c9b9657	0.018992586
83	0x3d46d345	0.048541326
84	0xbd2b46b4	-0.041815475
85	0xbe9de6ed	-0.30840245
86	0xbeb31049	-0.34973362
87	0xbb9cb9de	-0.0047828993
88	0x3c8b5481	0.017008068
89	0x3eabedca	0.33579856
90	0x3cf65e5d	0.030074293
91	0x3ea2d5a5	0.31803623
92	0xbc72a4dd	-0.014809814
93	0x3e7bcd80	0.24590111
94	0xbd741aeb	-0.059595983
95	0xbc8d7f98	-0.017272756
96	0xbc85dc39	-0.016340362
97	0xbd006210	-0.03134352
98	0x3c8c3510	0.017115146
99	0xbd943b1e	-0.07237838
100	0x3eab9c38	0.33517623
101	0xbd6edbd9	-0.05831513
102	0x3e9727a4	0.2952243
103	0x3a7f6abd	0.0009743383
104	0x3e9384ec	0.2881235
105	0x3ec78b7b	0.38973603
106	0x3d9159a3	0.07097175
107	0xbd7db928	-0.061944157
108	0x3eb0a4b3	0.34500656
109	0x3d7e05de	0.062017314
110	0x3d4ad841	0.049522642
111	0xbc53dc4f	-0.012930944
112	0x3eb146ae	0.34624237
113	0x3dacec23	0.08443477
114	0x3c595003	0.013263705
115	0x3c2a20e3	0.010383817
116	0xbd93b68e	-0.07212554
117	0x3e9ba19c	0.30396736
118	0x3d398471	0.04529232
119	0xbe3382c2	-0.17530349
120	0x3ea1a362	0.31569964
121	0xbd787f17	-0.060668077
122	0xbebfb661	-0.37443832
123	0x3a9b0068	0.0011825683
124	0xbd88d7b3	-0.06681766
125	0xbd84c7ed	-0.06483445
126	0x3e6a4f4b	0.2288181
127	0xbd282072	-0.041046567
128	0xbec27629	-0.37980774
129	0x3eb7fa6f	0.35933253
130	0x3d48ae9e	0.048994653
131	0xbc783b8a	-0.015150914
132	0x3c3aef8d	0.011409652
133	0x3e91e703	0.2849656
134	0x3d561b22	0.05227197
135	0x3ea936cc	0.3304962
136	0x3cce1bdf	0.025159774
137	0xbedddbcd	-0.43331757
138	0x3e8f45fd	0.27983084
139	0xbba87bfc	-0.005141733
140	0x3e93755b	0.28800473
141	0x3ec5f26b	0.38661513
142	0xbd5cd12a	-0.053910412
143	0x3c85e568	0.016344741
144	0x3b1d97b9	0.0024046733
145	0x3ec2d5fb	0.3805388
146	0x3ea1d4d6	0.31607693
147	0xbcc11f37	-0.023574455
148	0x3eb72a92	0.35774666
149	0x3d07455a	0.033025123
150	0xbc9ea7d5	-0.019367138
151	0x3c9b52b8	0.018960342
152	0x3c9b2650	0.018939167
153	0xbd626ea3	-0.055281293
154	0xbd92fcea	-0.07177146
155	0x3ea058fe	0.31317896
156	0x3eb62861	0.35577682
157	0x3d1da382	0.03848601
158	0xbb1ec38d	-0.0024225444
159	0xbcc96d92	-0.02458838
160	0x3ecc60db	0.39917645
161	0xbde38200	-0.1110878
162	0xbc8ddaf5	-0.01731632
163	0xbd37dba0	-0.044887185
164	0x3eabe9b5	0.33576742
165	0x3cd0c2df	0.025483547
166	0xbdb4a7ac	-0.08821043
167	0xbc9d9030	-0.019233793
168	0x3e77735d	0.24165101
169	0x3ec79526	0.3898098
170	0xbc830e65	-0.015998075
171	0xbd0c4e0d	-0.034254123
172	0x3ed622a6	0.4182331
173	0x3e98db73	0.29854926
174	0x3e87660f	0.26445052
175	0xbe64ef65	-0.22356947
176	0xbd75a371	-0.059970323
177	0x3e77cab9	0.24198426
178	0x3eaaaff4	0.33337367
179	0x3e2bc973	0.16776066
180	0x3eaef469	0.34170845
181	0x3ec6ef4b	0.3885444
182	0xbca571ea	-0.02019592
183	0xbd9e5957	-0.07731884
184	0x3e7b8548	0.24562562
185	0xbd2677d9	-0.04064164
186	0x3ea15174	0.31507456
187	0x3ea117e9	0.31463555
188	0x3d7f4766	0.06232395
189	0x3e8a4cb2	0.2701164
190	0x3dc8d921	0.09807039
191	0xbd0747de	-0.033027522
192	0x3d1f2fa7	0.038863804
193	0x3e8d1798	0.27557063
194	0x3cf23a9b	0.02956896
195	0x3c9eb5eb	0.019373855
196	0x3eb6af9d	0.35680857
197	0x3d8e28f3	0.06941404
198	0x3dc2ee3a	0.09518094
199	0x3cc2d28f	0.023782043
200	0x3c832f7c	0.016013853
201	0xbd5438f8	-0.051812142
202	0xbd992706	-0.07478146
203	0xbd1dc86a	-0.038521208
204	0xbd6c4430	-0.057682216
205	0x3cd04b83	0.025426632
206	0xbd5c951b	-0.053853136
207	0x3ea445aa	0.320844
208	0x3cb3c9bc	0.02194678
209	0x3ebb7821	0.3661509
210	0x3e03505a	0.1282362
211	0xbd7990be	-0.060929053
212	0x3e830d0b	0.25595888
213	0xbdc548aa	-0.09633
214	0xbf068c30	-0.5255766
215	0x3dc16a20	0.0944407
216	0xbda5f2e6	-0.0810297
217	0x3e95e9c3	0.2927991
218	0x3dbca7bb	0.092116795
219	0x3eb55e9c	0.35423744
220	0x3d676408	0.05649188
221	0x3ea404d0	0.32034922
222	0x3cf95998	0.03043823
223	0xbda99247	-0.08279853
224	0xbd865a5f	-0.06560206
225	0x3d442578	0.047887295
226	0x3d1dec16	0.038555227
227	0x3d3c0f74	0.045913175
228	0x3ea9de19	0.3317726
229	0xbc0d2700	-0.008615255
230	0x3e9a8b9d	0.3018464
231	0xbd8629a9	-0.06550915
232	0x3eb2ab0c	0.34896123
233	0x3eba8c57	0.36435196
234	0x3d80ad55	0.062830605
235	0x3d461f2f	0.048369583
236	0x3e831530	0.25602102
237	0x3bf49510	0.0074640587
238	0xbc316990	-0.010828391
239	0xbcafdb29	-0.021466808
240	0x3e9403ea	0.28909236
241	0x3d8be45d	0.06830666
242	0x3c918564	0.0177638
243	0x3d5d63fe	0.054050438
244	0xbba151f1	-0.0049230983
245	0x3e8c032d	0.27346173
246	0x3e327350	0.174268
247	0xbf0e68ef	-0.55628866
248	0x3ea63bc3	0.3246747
249	0x3dacfc22	0.08446528
250	0xbe0c95b9	-0.1372899
251	0x3cb8ac7f	0.02254319
252	0x3c81c85c	0.01584261
253	0x3d96ecd5	0.07369391
254	0x3ea9c3b5	0.33157125
255	0x3de9876c	0.11402783
