save/checkpoint/cartpoledqn_noisy10000_ckpt.tar (torch_old, 768635 bytes, 34 tensors)

feature.weight f4 [128, 4]
0.7389072 -0.027192427 -0.3468972 -0.31606147 -0.626234 0.29316124 1.1854129 -0.01585368
0.88023275 0.32270792 -0.08567003 -0.28547 -1.0233613 0.21811514 0.18084894 0.30518687
-0.5325364 0.46538347 0.70177925 0.19829947 -0.03456888 0.31038386 0.72938055 0.41511482
-0.039520323 0.21719563 0.023002863 0.12754267 0.014952182 0.22070748 -0.2284978 -0.020832222
-0.05513116 -0.49479285 -0.790917 -0.48296434 -0.072543025 0.08237153 0.19974238 0.012667835
-0.006934552 0.24996799 0.37361974 0.20062846 -0.067251414 0.0413725 -1.107816 -0.47910842
0.25556326 0.44250172 -0.6656353 0.13029602 0.15127634 -0.11224184 -0.2284132 -0.24376915
-0.014715099 0.00047552123 -0.41366315 0.016412348 -0.08291265 0.41725793 -0.39769197 0.27113318
-0.6565879 0.3545634 0.008945769 0.0043705413 0.36735848 0.2670548 -0.29251155 0.14535876
-0.46192542 -0.25901464 -0.30938333 -0.39182717 0.33369896 -0.25400382 -0.58595884 0.24419679
-0.16917664 0.33194458 0.034882903 0.05641029 -0.16896139 -0.16734685 -1.0976251 -0.27560717
0.029948115 -0.35708827 0.09214267 -0.14861734 0.044314764 0.24432963 -0.071218 0.043989338
0.21086012 0.3133864 0.5756564 0.28732392 0.12583554 -0.26871622 0.07564211 -0.08010405
0.28666097 -0.39551243 -0.027963527 -0.27525353 0.40240502 0.07348329 -0.30481732 0.3418341
0.8509085 -0.3117832 -0.53714854 -0.5187894 -0.71444774 -0.20435025 0.38914326 -0.052981395
0.31197482 -0.2759197 -0.1961004 -0.02579599 0.24994242 -0.3684445 -0.07408541 -0.35555127
0.3414822 -0.541416 -0.011140686 -0.34582764 0.033824358 -0.052559838 -0.22410761 0.3521875
-0.0655473 0.20475914 0.691115 0.25084737 -0.24646671 -0.23621738 0.4231372 -0.27640715
-0.37968612 -0.2740351 -0.2219353 0.21737279 0.4257705 0.00018007749 -0.6208427 0.37769023
-0.019005852 -0.14820002 -0.35041592 -0.22559106 1.0523931 -0.05283241 0.09015135 -0.31269473
-0.2954291 -0.49458146 -0.406474 -0.28109497 -0.32551956 0.1748699 0.3340213 -0.069433905
-0.1609912 0.30504045 0.7719498 -0.20925675 0.028607635 -0.14226587 -0.42306063 0.038176708
0.040533237 0.44328555 1.0642163 0.49162436 0.09411951 0.109055474 -0.45002773 0.18173191
0.4368735 0.17186736 -0.49988467 -0.16572241 -0.03355052 0.21340854 0.66092014 0.092795625
0.19660679 -0.21490149 -0.72132945 -0.26700017 -0.2402871 0.3473831 0.190116 0.06783436
-0.25423184 -0.0016470205 -0.47763944 -0.15284294 -0.0240555 0.09385781 0.16812561 -0.1352693
-0.0024056388 -0.28161764 -0.40726367 -0.31207448 -0.27712575 0.0002966202 -1.1487557 -0.19914117
-0.5935206 0.09864909 0.8725491 0.052124027 -0.41795936 0.14208701 -0.406226 -0.22399913
0.045851998 -0.18673098 0.41447267 -0.36106786 0.084208556 0.18895234 0.6051816 0.19286713
-0.052708685 0.0032626987 0.3669033 -0.0030382872 -0.08856084 0.32340237 -0.2304614 0.26372236
0.5419213 0.38346174 -0.41955832 0.19898473 0.38039833 -0.15410621 -0.45951152 -0.10904245
0.23744781 -0.55018586 -0.784647 -0.37310317 0.64330673 0.50774145 -0.720129 0.22470042
00000000: 0629 3d3f a7c2 debc 839c b1be cfd2 a1be
00000010: df50 20bf 3b19 963e 9cbb 973f 94df 81bc
00000020: ef56 613f f939 a53e c573 afbd 2029 92be
00000030: 81fd 82bf 9359 5f3e 7730 393e 7441 9c3e
00000040: 4e54 08bf be46 ee3e cea7 333f 040f 4b3e
00000050: 1998 0dbd a2ea 9e3e afb8 3a3f ee89 d43e
00000060: 10e0 21bd 8868 5e3e 8070 bc3c 8c9a 023e
00000070: fff9 743c 2401 623e 54fb 69be 56a8 aabc
00000080: 36d1 61bd 7d55 fdbe 8979 4abf 1a47 f7be
00000090: 7091 94bd 68b2 a83d 4489 4c3e c08c 4f3c
000000a0: 3d3b e3bb 9cf7 7f3e 164b bf3e 8c71 4d3e
000000b0: 1cbb 89bd 3676 293d eacc 8dbf b34d f5be
000000c0: 30d9 823e 968f e23e 1367 2abf 526c 053e
000000d0: 2fe8 1a3e 0ddf e5bd 26e5 69be 9f9e 79be
000000e0: 9917 71bc 614f f939 a8cb d3be 3073 863c
000000f0: 1cce a9bd d5a2 d53e 489e cbbe f8d1 8a3e
00000100: 2516 28bf 5589 b53e 4691 123c c236 8f3b
00000110: 6916 bc3e 68bb 883e 13c4 95be edd8 143e
00000120: 7d81 ecbe 919d 84be 7e67 9ebe 929d c8be
00000130: 97da aa3e ca0c 82be 6601 16bf b90e 7a3e
00000140: a43c 2dbe a4f4 a93e 60e1 0e3d 7a0e 673d
00000150: 3704 2dbe f95c 2bbe fb7e 8cbf 621c 8dbe
00000160: c055 f53c 46d4 b6be 4cb5 bc3d 252f 18be
00000170: 6683 353d 8c31 7a3e beda 91bd 2a2e 343d
00000180: b7eb 573e 2f74 a03e 385e 133f 1f1c 933e
00000190: 08db 003e 2c95 89be 40ea 9a3d 980d a4bd
000001a0: 3ac5 923e 9b80 cabe c413 e5bc 08ee 8cbe
000001b0: 0808 ce3e 687e 963d 0411 9cbe e104 af3e
000001c0: 24d5 593f 0ca2 9fbe 9182 09bf 62cf 04bf
000001d0: 0ce6 36bf 3141 51be c93d c73e 0503 59bd
000001e0: 2abb 9f3e 5945 8dbe 8bce 48be 1d52 d3bc
000001f0: e8f0 7f3e c2a4 bcbe 17ba 97bd d10a b6be
00000200: c1d6 ae3e 3d9a 0abf 6d87 36bc 5210 b1be
00000210: 698b 0a3d fc48 57bd 777c 65be ec51 b43e
00000220: aa3d 86bd 61ac 513e eaec 303f 116f 803e
00000230: c561 7cbe f8e2 71be 70a5 d83e 3d85 8dbe
00000240: 3866 c2be 544e 8cbe 0243 63be f996 5e3e
00000250: 97fe d93e 2fd3 3c39 8cef 1ebf 9d60 c13e
00000260: 29b2 9bbc bfc1 17be b769 b3be 5801 67be
00000270: d1b4 863f cc66 58bd 45a1 b83d 8619 a0be
00000280: 7c42 97be c839 fdbe 5c1d d0be aeeb 8fbe
00000290: 80aa a6be 1811 333e d704 ab3e 5d33 8ebd
000002a0: e1da 24be 432e 9c3e 819e 453f 6747 56be
000002b0: 8f5a ea3c 25ae 11be 679b d8be 2e5f 1c3d
000002c0: 2e06 263d 53f6 e23e 3d38 883f 30b6 fb3e
000002d0: bbc1 c03d 7a58 df3d 096a e6be ee17 3a3e
000002e0: e2ad df3e fffd 2f3e e2f0 ffbe 23b3 29be
000002f0: 456c 09bd c587 5a3e 1032 293f a20b be3d
00000300: 4a53 493e 230f 5cbe 0ca9 38bf 3fb4 88be
00000310: d20d 76be 33dc b13e c5ad 423e beec 8a3d
00000320: ad2a 82be d6e0 d7ba 288d f4be dc82 1cbe
00000330: 0a10 c5bc 8638 c03d 1f29 2c3e 0984 0abe
00000340: eca7 1dbb 3030 90be dd84 d0be 3ac8 9fbe
00000350: 6de3 8dbe b083 9b39 6d0a 93bf aaeb 4bbe
00000360: f7f0 17bf 8908 ca3d 615f 5f3f 0180 553d
00000370: c5fe d5be 427f 113e dbfc cfbe 0760 65be
00000380: 4ecf 3b3d 6836 3fbe c335 d43e e3dd b8be
00000390: 8975 ac3d b97c 413e 2eed 1a3f f67e 453e
000003a0: 10e5 57bd 00d3 553b c0da bb3e 001e 47bb
000003b0: 635f b5bd ff94 a53e 13fe 6bbe 9e06 873e
000003c0: 5bbb 0a3f 1955 c43e 59d0 d6be a7c2 4b3e
000003d0: 92c3 c23e 05ce 1dbe 1845 ebbe a651 dfbd
000003e0: 8525 733e fbd8 0cbf a0de 48bf 6107 bfbe
000003f0: c0af 243f 58fb 013f 605a 38bf de17 663e

feature.bias f4 [128]
-0.36296913 -0.12443137 -0.6108532 -0.4185406 0.24836627 -0.22030078 -0.36327112 0.6952832
-0.37037578 -0.15329212 0.6076452 -0.35812184 -0.3756181 0.61742115 0.25975683 0.6369325
-0.17382824 0.31554648 -0.5682824 0.58374155 0.5846107 -0.1462547 0.33876827 0.56229573
-0.027286058 -0.33845174 0.34655225 0.65477246 -0.31823 -0.15361133 0.54037565 0.54979974
0.39119282 0.64243263 -0.15774344 0.6505601 -0.6944887 -0.29886144 0.5796956 -0.14965364
-0.47429383 0.6611049 0.57837397 0.6134089 -0.23155858 0.4865265 -0.5592217 0.25271407
0.026894523 0.34664747 0.64979005 0.6731839 0.60757923 -0.57388633 0.21014363 -0.5227344
0.53828055 -0.09327795 -0.35876387 0.10679344 0.48847425 0.07368747 -0.1830801 -0.2820222
0.19339114 -0.23213474 -0.5625434 -0.19621396 -0.17745607 -0.31580243 -0.53915375 0.49536103
0.15515588 -0.49400112 0.507118 -0.2715477 0.53153855 -0.17386547 0.38826668 0.4441823
0.65651613 -0.17331491 -0.29614803 0.31734613 -0.09224079 0.59919167 -0.11276551 -0.30866963
0.5892974 0.40278155 0.26291096 0.009863329 -0.45068645 -0.032148477 -0.33175528 0.50823957
0.5789951 -0.39661354 0.3094305 0.20038828 0.41372398 -0.1687976 0.03125799 0.5683246
-0.31621373 0.503562 0.37864354 -0.24870619 -0.27721238 0.680706 -0.26432717 -0.11317534
0.2975675 -0.5769398 0.11549583 0.56820863 -0.015977595 0.47512814 -0.43298343 -0.5458531
0.2687945 0.22992933 -0.39142215 0.31036633 0.58103323 0.33832186 -0.24525246 0.056002043
00000000: 17d7 b9be e0d5 febd e060 1cbf f44a d6be
00000010: ba53 7e3e 8796 61be acfe b9be 14fe 313f
00000020: e5a1 bdbe 9cf8 1cbe a38e 1b3f bf5b b7be
00000030: 0451 c0be 500f 1e3f d9fe 843e 020e 233f
00000040: 0800 32be 4f8f a13e f57a 11bf 1670 153f
00000050: 0ca9 153f cbc3 15be 0973 ad3e 9df2 0f3f
00000060: 0387 dfbc 8c49 adbe 4c6f b13e 2b9f 273f
00000070: 0bef a2be 4a4c 1dbe 0f56 0a3f adbf 0c3f
00000080: 6d4a c83e 7776 243f 7f87 21be 1b8b 263f
00000090: 03ca 31bf 5e04 99be ee66 143f ce3e 19be
000000a0: a4d6 f2be 2c3e 293f 5110 143f 5e08 1d3f
000000b0: b11d 6dbe 001a f93e 2729 0fbf bd63 813e
000000c0: e751 dc3c c77b b13e a458 263f c855 2c3f
000000d0: 508a 1b3f 37ea 12bf e42f 573e ecd1 05bf
000000e0: c1cc 093f 8308 bfbd e6af b7be 85b6 da3d
000000f0: 4c19 fa3e 75e9 963d 5a79 3bbe 3765 90be
00000100: 5408 463e bbb4 6dbe d802 10bf 50ec 48be
00000110: 0bb7 35be dbb0 a1be fb05 0abf f69f fd3e
00000120: 2fe1 1e3e b7ed fcbe 7cd2 013f 4d08 8bbe
00000130: e912 083f ca09 32be e4ca c63e dd6b e33e
00000140: 7111 283f 7779 31be b7a0 97be 317b a23e
00000150: bde8 bcbd a064 193f 9bf1 e6bd f209 9ebe
00000160: 32dc 163f 6239 ce3e 449c 863e cd99 213c
00000170: 60c0 e6be 1fae 03bd d4db a9be fd1b 023f
00000180: 0639 143f ee10 cbbe ad6d 9e3e 9632 4d3e
00000190: a1d3 d33e 47d9 2cbe 6108 003d b97d 113f
000001a0: c4e6 a1be 70e9 003f 91dd c13e d6ac 7ebe
000001b0: c8ee 8dbe c042 2e3f e455 87be 79c8 e7bd
000001c0: c45a 983e 54b2 13bf 1489 ec3d 1f76 113f
000001d0: 72e3 82bc ff43 f33e 01b0 ddbe 07bd 0bbf
000001e0: 6f9f 893e 9872 6b3e 7c68 c8be 56e8 9e3e
000001f0: 98be 143f 8638 ad3e 7623 7bbe 6662 653d

hidden.weight_mu f4 [128, 128]
0.22124125 -0.21797846 0.25501537 0.016273297 -0.24947195 -0.01588285 0.008725032 -0.042053197
0.45263088 0.013261728 -0.18245164 0.35729238 0.40003508 -0.07282566 0.1909469 -0.08638513
-0.05901106 0.012893364 -0.02795849 -0.10216874 -0.010726727 0.2233176 -0.08630023 0.011755886
-0.08941166 -0.07713288 -0.017869245 -0.19913995 0.33133903 0.022177096 0.051397767 0.05312091
0.06277085 -0.07194604 0.01892312 -0.06055815 0.0011046606 0.019083407 -0.03362276 0.22592996
0.0119287595 -0.08787173 -0.11990755 -0.057356957 -0.035461087 0.045077145 0.53468454 -0.060944125
0.22063398 -0.0040915976 0.034916874 -0.14940947 -0.06085901 0.34399614 -0.28242514 0.12247952
-0.11882021 0.01059219 -0.003245689 -0.029482037 0.0065177362 0.055112444 0.1255246 0.37035912
-0.18240276 0.022719717 0.05260215 -0.0675262 0.0020070379 -0.0007911995 0.004011858 -0.033358388
0.22564998 -0.0870174 -0.056274805 0.03791187 -0.2025029 -0.07791571 0.0012130621 -0.05655101
-0.16700187 0.07011547 -0.07165119 0.11214049 0.274565 -0.034182426 -0.080881126 -0.05476388
0.02223459 -0.04850082 -0.021743199 0.28979626 0.17649904 -0.005976946 -0.044106193 0.057281174
-0.16182804 0.044279747 -0.013141385 0.0483547 -0.052456588 0.06881392 -0.24535486 -0.076393284
0.021641187 -0.13352007 0.0025673269 0.029346853 0.022725433 -0.13293782 0.02644603 0.1462703
0.07218982 -0.0032979003 0.04221289 -0.28917935 0.3135696 -0.10548875 0.003906466 -0.007865621
0.15740873 -0.24698938 0.19270605 -0.24546276 -0.054785613 -0.061321244 -0.0700361 0.007913272
-0.23931898 0.12864418 -0.16835858 -0.44492233 0.2038323 -0.20311335 -0.02516073 0.2807036
-0.6082346 0.03381423 0.2925187 -0.52787673 -0.33895212 0.24031198 0.15482695 0.18646143
-0.09576837 0.23401558 -0.5243804 0.14611654 0.2782777 -0.31649664 0.2170694 0.20920533
0.024118818 -0.009625457 0.14025317 0.11114453 -0.37308356 -0.0903028 0.08760423 0.24189058
0.25608248 0.21209994 -0.5568779 0.20589 -0.2202451 0.042376015 0.20331682 -0.23898216
-0.38177553 0.25302798 0.14271407 0.25537986 -0.41548222 0.06422634 -0.4271857 0.09099411
-0.18383516 0.24671368 0.14606877 0.1411981 0.2488325 -1.2019558 0.09560301 -0.3173483
0.2476445 -0.13370813 0.08159863 0.058396947 0.12746976 0.15550962 -0.16778892 -0.47639537
0.065510325 -0.078295335 -0.2947866 -0.18878734 -0.077983245 -0.21840462 -0.41871518 0.17869556
0.073934734 -0.08164368 0.039302193 -0.28769645 0.2495077 -0.63358396 0.27433687 0.07698791
0.09850933 -0.17791814 0.026382029 0.16447826 -0.2915169 0.072452895 -0.42783436 -0.27657628
0.086793564 0.2669169 0.079913735 -0.118363686 -0.12462196 -0.026609402 -0.102123514 0.13147886
0.12151968 -0.28921786 0.20705603 0.07202836 0.30257323 -0.087395616 0.09172216 0.22613296
-0.0714843 0.19737633 0.27538028 -0.089151114 -0.2300756 0.2333038 -0.16022176 -0.07014489
0.2602994 -0.17028831 0.141569 0.08297209 -0.2534199 0.15340745 -0.30592042 -0.4466001
0.22173798 0.12898205 -0.18544835 0.15355064 0.18795986 0.15701677 -0.19868098 0.03056436
00000000: 118d 623e bf35 5fbe 6091 823e 944f 853c
00000010: 9375 7fbe c01c 82bc 70f3 0e3c f93f 2cbd
00000020: 3cbf e73e b847 593c 9ad4 3abe 07ef b63e
00000030: 66d1 cc3e 9f25 95bd 9687 433e b0ea b0bd
00000040: 95b5 71bd b03e 533c 3409 e5bc d83d d1bd
00000050: 27bf 2fbc 5ead 643e 2dbe b0bd c29b 403c
00000060: 761d b7bd d8f7 9dbd 8662 92bc 58eb 4bbe
00000070: 45a5 a93e beac b53c 7786 523d 5095 593d
00000080: 018e 803d 7258 93bd a904 9b3c d30b 78bd
00000090: 42ca 903a ce54 9c3c 05b8 09bd 2f5a 673e
000000a0: d870 433c 18f6 b3bd 1792 f5bd 21ef 6abd
000000b0: a53f 11bd d0a2 383d 16e1 083f 8ca0 79bd
000000c0: e0ed 613e cf12 86bb ff04 0f3d ccfe 18be
000000d0: 4c47 79bd 4320 b03e 079a 90be 8bd6 fa3d
000000e0: 0358 f3bd dd8a 2d3c a0b5 54bb 5084 f1bc
000000f0: bc92 d53b 96bd 613d 8589 003e b69f bd3e
00000100: cac7 3abe b31e ba3c 5a75 573d 2d4b 8abd
00000110: 8288 033b 8068 4fba e775 833b cea2 08bd
00000120: ca10 673e 2e36 b2bd 6980 66bd 7a49 1b3d
00000130: ec5c 4fbe 4692 9fbd 9cff 9e3a 08a2 67bd
00000140: 8a02 2bbe b398 8f3d dcbd 92bd eaa9 e53d
00000150: c993 8c3e df02 0cbd 01a5 a5bd 1750 60bd
00000160: 5125 b63c cca8 46bd cb1e b2bc 2d60 943e
00000170: 2abc 343e 42da c3bb b2a8 34bd aa9f 6a3d
00000180: 40b6 25be ae5e 353d f74e 57bc 940f 463d
00000190: b8dc 56bd 50ee 8c3d 4e3e 7bbe 1574 9cbd
000001a0: dc48 b13c 7cb9 08be 9940 283b d068 f03c
000001b0: b02a ba3c da20 08be 58a5 d83c e2c7 153e
000001c0: 42d8 933d 9621 58bb 6ce7 2c3d 510f 94be
000001d0: 328c a03e 7c0a d8bd d001 803b cede 00bc
000001e0: c12f 213e c9ea 7cbe bc54 453e 975a 7bbe
000001f0: e166 60bd fc2b 7bbd 166f 8fbd aba6 013c
00000200: 0910 75be 4dbb 033e 3166 2cbe dccc e3be
00000210: 6ab9 503e f2fc 4fbe e01d cebc 62b8 8f3e
00000220: 43b5 1bbf ca80 0a3d 03c5 953e ee22 07bf
00000230: 228b adbe 5814 763e f58a 1e3e bfef 3e3e
00000240: 3522 c4bd c8a1 6f3e cb3d 06bf 939f 153e
00000250: 6a7a 8e3e d90b a2be 7147 5e3e ec39 563e
00000260: d494 c53c 18b4 1dbc 879e 0f3e be9f e33d
00000270: cf04 bfbe adf0 b8bd d969 b33d 2ab2 773e
00000280: 3e1d 833e ba30 593e 8d8f 0ebf d4d4 523e
00000290: ee87 61be 7992 2d3d 4932 503e bdb7 74be
000002a0: 1578 c3be e28c 813e a323 123e 26c1 823e
000002b0: 16ba d4be 1989 833d 16b8 dabe 1f5b ba3d
000002c0: 493f 3cbe 83a2 7c3e 0d93 153e 3c96 103e
000002d0: f2cd 7e3e b0d9 99bf 83cb c33d 7a7b a2be
000002e0: 8596 7d3e c9ea 08be 2f1d a73d a331 6f3d
000002f0: 6f87 023e ea3d 1f3e dcd0 2bbe 18ea f3be
00000300: 472a 863d 4e59 a0bd 45ee 96be 7851 41be
00000310: aeb5 9fbd 76a5 5fbe d661 d6be f8fb 363e
00000320: 186b 973d cd34 a7bd 56fb 203d f34c 93be
00000330: f27e 7f3e 8f32 22bf e275 8c3e d6ab 9d3d
00000340: 42bf c93d 2c30 36be 201f d83c fd6c 283e
00000350: b441 95be 2f62 943d 1b0d dbbe 689b 8dbe
00000360: d3c0 b13d 55a9 883e d0a9 a33d a968 f2bd
00000370: cc39 ffbd f6fb d9bc 2226 d1bd 65a2 063e
00000380: 4fdf f83d 5d14 94be 7f06 543e 9b83 933d
00000390: e1ea 9a3e 79fc b2bd d4d8 bb3d 668f 673e
000003a0: 5c66 92bd 051d 4a3e a5fe 8c3e dc94 b6bd
000003b0: f098 6bbe 31e7 6e3e 2c11 24be 20a8 8fbd
000003c0: f745 853e 0f60 2ebe 77f7 103e 45ed a93d
000003d0: 41c0 81be d816 1d3e 9aa1 9cbe c5a8 e4be
000003e0: 480f 633e df13 043e 2ce6 3dbe 613c 1d3e
000003f0: 8d78 403e 01c9 203e 0773 4bbe 1c62 fa3c

hidden.weight_sigma f4 [128, 128]
0.044194173 0.044194173 0.044194173 0.044194173 0.051592194 0.050414048 0.044194173 0.037143905
0.044194173 0.044194173 0.0372784 0.044194173 0.044194173 0.03689632 0.036815055 0.03723506
0.051597457 0.051491756 0.044194173 0.051010754 0.051261403 0.044194173 0.05106042 0.05128148
0.05091538 0.044194173 0.036818955 0.051076517 0.044194173 0.037810747 0.0510297 0.03718126
0.05150563 0.037357144 0.03819294 0.03722595 0.050197877 0.05060235 0.036927555 0.044194173
0.044194173 0.037126854 0.036894277 0.05109308 0.05019454 0.037364766 0.044194173 0.051557288
0.03698048 0.051325403 0.051234316 0.037134126 0.051414113 0.044194173 0.044194173 0.044194173
0.03693573 0.050960317 0.044194173 0.051581394 0.03725483 0.03751607 0.044194173 0.044194173
0.044194173 0.03766059 0.044194173 0.038160488 0.03799435 0.044194173 0.03819118 0.051101133
0.037431996 0.044194173 0.050964125 0.044194173 0.05110373 0.050971586 0.03697809 0.037395116
0.037283357 0.038195174 0.038189895 0.0515082 0.04421966 0.0373548 0.03737147 0.05019873
0.03738098 0.03685685 0.05118599 0.05142002 0.044194173 0.037609596 0.044194173 0.050994627
0.05107739 0.044194173 0.037335753 0.03744173 0.051446777 0.037608042 0.044194173 0.051145498
0.044194173 0.03729689 0.037232373 0.044194173 0.044194173 0.037227746 0.050389104 0.044194173
0.037286643 0.03783615 0.050935462 0.051060166 0.044194173 0.0510113 0.044194173 0.05051371
0.03688645 0.05127533 0.044194173 0.037331264 0.037386484 0.036855195 0.050337728 0.050925978
0.044194173 0.044194173 0.044194173 0.044194173 0.05365901 0.052654117 0.044194173 0.03474673
0.044194173 0.044194173 0.0348187 0.044194173 0.044194173 0.034683082 0.034915976 0.03478549
0.0532355 0.053658534 0.044194173 0.053411227 0.05365717 0.044194173 0.053558733 0.053661413
0.05307592 0.044194173 0.034713283 0.05349278 0.044194173 0.036337834 0.053454265 0.03475477
0.053713597 0.034919415 0.036884222 0.034755472 0.052599795 0.051878903 0.03469522 0.044194173
0.044194203 0.03471305 0.034706805 0.05355077 0.05293189 0.034943033 0.044194173 0.053740676
0.035248466 0.05367102 0.053660564 0.034726888 0.05366319 0.044194173 0.044194173 0.044194173
0.034711614 0.053203676 0.044194173 0.05377798 0.034853227 0.03533614 0.044194173 0.044194173
0.044194173 0.036740016 0.044194173 0.03348334 0.035361473 0.044194173 0.035677105 0.05351432
0.035436492 0.039052024 0.053297248 0.044194173 0.05357955 0.053390536 0.034710642 0.035021108
0.034809742 0.036408603 0.036265824 0.053240005 0.044263523 0.034935545 0.03479524 0.052429527
0.034944817 0.034716524 0.053554323 0.053620186 0.044194173 0.036827996 0.044194173 0.05338115
0.05349316 0.04438249 0.03486194 0.035136618 0.05369223 0.03683435 0.044194173 0.05361267
0.044194173 0.034824792 0.034763128 0.044194173 0.039416064 0.03478599 0.052962184 0.044194173
0.03489337 0.03633809 0.05329087 0.05346609 0.044194173 0.05346746 0.044174105 0.052292805
0.035052698 0.051757444 0.044194173 0.034947053 0.034976147 0.03476343 0.05357186 0.053310473
00000000: f304 353d f304 353d f304 353d f304 353d
00000010: 5652 533d f67e 4e3d f304 353d 3524 183d
00000020: f304 353d f304 353d 3cb1 183d f304 353d
00000030: f304 353d 9820 173d 62cb 163d ca83 183d
00000040: db57 533d 05e9 523d f304 353d a7f0 503d
00000050: 7af7 513d f304 353d bb24 513d 870c 523d
00000060: a58c 503d f304 353d 79cf 163d 9c35 513d
00000070: f304 353d 71df 1a3d 8504 513d 604b 183d
00000080: 91f7 523d ce03 193d 3370 1c3d 3d7a 183d
00000090: 4a9c 4d3d 6944 4f3d 5941 173d f304 353d
000000a0: f304 353d 5412 183d 741e 173d fa46 513d
000000b0: ca98 4d3d cc0b 193d f304 353d bc2d 533d
000000c0: d878 173d 963a 523d 13db 513d f419 183d
000000d0: 9b97 523d f304 353d f304 353d f304 353d
000000e0: ec49 173d c4bb 503d f304 353d 0347 533d
000000f0: 8598 183d 73aa 193d f304 353d f304 353d
00000100: f304 353d fe41 1a3d f304 353d 2c4e 1c3d
00000110: f79f 1b3d f304 353d 5b6e 1c3d 6c4f 513d
00000120: 4b52 193d f304 353d c2bf 503d f304 353d
00000130: 2552 513d 95c7 503d 5676 173d 9f2b 193d
00000140: 6fb6 183d 8b72 1c3d 026d 1c3d 43fa 523d
00000150: ad1f 353d 5901 193d d412 193d 2f9d 4d3d
00000160: cc1c 193d 35f7 163d 67a8 513d cd9d 523d
00000170: f304 353d 850c 1a3d f304 353d bedf 503d
00000180: 8636 513d f304 353d 60ed 183d 805c 193d
00000190: dbb9 523d e40a 1a3d f304 353d f17d 513d
000001a0: f304 353d a0c4 183d f980 183d f304 353d
000001b0: f304 353d 1f7c 183d ce64 4e3d f304 353d
000001c0: e1b9 183d 14fa 1a3d b4a1 503d 7724 513d
000001d0: f304 353d 3af1 503d f304 353d 77e7 4e3d
000001e0: 3f16 173d 1506 523d f304 353d abe8 183d
000001f0: 9222 193d 79f5 163d ef2e 4e3d c297 503d
00000200: f304 353d f304 353d f304 353d f304 353d
00000210: 8dc9 5b3d d8ab 573d f304 353d 9652 0e3d
00000220: f304 353d f304 353d 0e9e 0e3d f304 353d
00000230: f304 353d d90f 0e3d 0e04 0f3d 3b7b 0e3d
00000240: 780d 5a3d 0dc9 5b3d f304 353d bbc5 5a3d
00000250: 9fc7 5b3d f304 353d 6760 5b3d 12cc 5b3d
00000260: 2366 593d f304 353d 842f 0e3d 3f1b 5b3d
00000270: f304 353d fbd6 143d dcf2 5a3d 055b 0e3d
00000280: ca02 5c3d a907 0f3d e913 173d c15b 0e3d
00000290: e272 573d f97e 543d 931c 0e3d f304 353d
000002a0: fb04 353d 452f 0e3d b928 0e3d 0d58 5b3d
000002b0: 1ccf 583d 6d20 0f3d f304 353d 2f1f 5c3d
000002c0: b260 103d 25d6 5b3d 2ecb 5b3d c83d 0e3d
000002d0: efcd 5b3d f304 353d f304 353d f304 353d
000002e0: c42d 0e3d 19ec 593d f304 353d 4d46 5c3d
000002f0: 42c2 0e3d a1bc 103d f304 353d f304 353d
00000300: f304 353d b37c 163d f304 353d d425 093d
00000310: 31d7 103d f304 353d 2822 123d d531 5b3d
00000320: db25 113d 04f5 1f3d 374e 5a3d f304 353d
00000330: 3b76 5b3d 09b0 5a3d bf2c 0e3d 4b72 0f3d
00000340: a994 0e3d 3021 153d 798b 143d 3112 5a3d
00000350: ab4d 353d 9318 0f3d 7485 0e3d 58c0 563d
00000360: 4c22 0f3d ea32 0e3d c75b 5b3d d7a0 5b3d
00000370: f304 353d f4d8 163d f304 353d 31a6 5a3d
00000380: a51b 5b3d 6aca 353d 65cb 0e3d 6aeb 0f3d
00000390: 62ec 5b3d 9edf 163d f304 353d f698 5b3d
000003a0: f304 353d 71a4 0e3d c863 0e3d f304 353d
000003b0: bd72 213d c17b 0e3d e0ee 583d f304 353d
000003c0: 5aec 0e3d 40d7 143d 8747 5a3d 42ff 5a3d
000003d0: f304 353d b200 5b3d e8ef 343d fb30 563d
000003e0: 6b93 0f3d 9dff 533d f304 353d a424 0f3d
000003f0: 2643 0f3d 1964 0e3d 2b6e 5b3d 155c 5a3d

hidden.bias_mu f4 [128]
-0.17048454 0.24545382 0.0008813235 -0.042004764 0.13490857 0.24556445 0.00063811545 0.2887559
-0.08056499 0.032304794 0.26569167 0.15756255 0.25636226 0.30060172 0.014282179 0.057120163
-0.08481167 0.23675166 0.2140588 -0.03479726 0.16834827 -0.023937102 -0.10239672 -0.019874653
-0.053907942 0.04719695 -0.08192017 0.20736906 0.2535534 -0.0075989477 -0.0748567 -0.03270041
0.24810715 -0.17838055 -0.074741974 -0.087116204 0.29044512 -0.123136036 -0.06680271 0.09137761
0.17621589 0.30087966 -0.05593291 -0.0021645508 0.14754505 0.10952972 0.19425665 -0.023333237
-0.09293095 0.24384487 0.15475748 0.21822004 0.23690876 0.19069774 -0.018691666 -0.08944339
0.2657331 0.01005394 0.28218505 0.1527168 0.056687 0.19164002 0.06628115 0.0018709493
-0.015313757 0.24126896 -0.035803724 -0.06960789 0.218294 0.060839195 0.020271199 -0.039260004
0.010759406 0.06716745 -0.18593284 -0.008925331 0.04641833 -0.071554825 -0.013540991 0.19340841
-0.04538992 0.124712944 0.057157896 -0.068252675 0.2741349 0.03730597 -0.04468528 0.04948172
0.022296185 0.21765578 -0.0015818994 0.2471001 -4.0984145e-05 0.15632461 -0.019329058 0.02679035
-0.06685752 0.029500574 0.05528941 0.06494071 0.18643601 0.06597189 0.2456132 0.017544152
0.1705795 0.2670512 -0.08292281 0.0659279 0.26505193 0.0016103238 -0.08515643 0.05692555
0.2492527 0.023329131 -0.028364323 -0.030437306 0.040647116 0.2517577 -0.054716133 0.037355535
0.24504086 -0.07565666 -0.050769128 0.056599338 0.045765124 0.06441367 0.26096702 -0.016642869
00000000: 8093 2ebe 3f58 7b3e 9e08 673a 300d 2cbd
00000010: 7925 0a3e 3f75 7b3e 3447 273a d0d7 933e
00000020: 42ff a4bd 0852 043d bd08 883e 1458 213e
00000030: ea41 833e 78e8 993e cdff 693c d5f6 693d
00000040: beb1 adbd 076f 723e 3b32 5b3e 9287 0ebd
00000050: 7d63 2c3e be17 c4bc 5fb5 d1bd 2bd0 a2bc
00000060: 93ce 5cbd 9751 413d c3c5 a7bd 8e58 543e
00000070: c0d1 813e 9800 f9bb 784e 99bd ddf0 05bd
00000080: cd0f 7e3e 64a9 36be 5212 99bd fb69 b2bd
00000090: 39b5 943e bf2e fcbd dccf 88bd 2f24 bb3d
000000a0: f071 343e e60c 9a3e e819 65bd 23db 0dbb
000000b0: 0d16 173e 1e51 e03d 37eb 463e 5825 bfbc
000000c0: 9552 bebd 78b2 793e bf78 1e3e 1375 5f3e
000000d0: 3698 723e 4546 433e 441f 99bc 192e b7bd
000000e0: 2b0e 883e 48b9 243c 8f7a 903e cb61 1c3e
000000f0: a130 683d 483d 443e 69be 873d a43a f53a
00000100: 8de6 7abc 360f 773e eda6 12bd 958e 8ebd
00000110: 7688 5f3e 8532 793d c90f a63c 19cf 20bd
00000120: 3848 303c 178f 893d 2e65 3ebe 8d3b 12bc
00000130: 2621 3e3d 568b 92bd 08db 5dbc db0c 463e
00000140: c8ea 39bd 8069 ff3d 661e 6a3d 0fc8 8bbd
00000150: 695b 8c3e 25ce 183d ea07 37bd 58ad 4a3d
00000160: 7da6 b63c 28e1 5e3e bc57 cfba cf07 7d3e
00000170: 64e6 2bb8 8f13 203e f957 9ebc 7077 db3c
00000180: 98ec 88bd 30ab f13c 2677 623d a3ff 843d
00000190: 15e9 3e3e 451c 873d 0782 7b3e c1b8 8f3c
000001a0: 64ac 2e3e efba 883e 6fd3 a9bd 3505 873d
000001b0: e3b4 873e 8011 d33a 7f66 aebd c42a 693d
000001c0: 1a3c 7f3e bc1c bf3c 4c5c e8bc a857 f9bc
000001d0: 977d 263d 63e6 803e 061e 60bd 1e02 193d
000001e0: feeb 7a3e e1f1 9abd 4af3 4fbd b5d4 673d
000001f0: 3674 3b3d 50eb 833d 789d 853e a056 88bc

hidden.bias_sigma f4 [128]
0.03618196 0.032781433 0.044194173 0.049858462 0.050806746 0.03226454 0.051811382 0.0351178
0.03818919 0.038225938 0.03492262 0.032246955 0.05103747 0.03622858 0.031992886 0.031437706
0.053259615 0.034226567 0.033581477 0.052066468 0.035696134 0.044194173 0.03501932 0.044194173
0.048644442 0.037556563 0.044194173 0.05351168 0.054233532 0.03818871 0.044194173 0.053901497
0.044251367 0.04954016 0.044194173 0.044194173 0.054660276 0.03486166 0.044194173 0.05303981
0.035311475 0.052832596 0.05517663 0.044194173 0.05397704 0.0320879 0.054741412 0.044194173
0.03543236 0.055152807 0.05384408 0.03463201 0.03498079 0.0541933 0.037077326 0.036371943
0.054575 0.054284263 0.053985126 0.033799745 0.044194173 0.054616265 0.035232943 0.044194173
0.044194173 0.05043465 0.0413088 0.044194173 0.03220018 0.054112855 0.053439323 0.0526609
0.044194173 0.05440666 0.03569811 0.035270717 0.035085127 0.044194173 0.036568712 0.040495574
0.044194173 0.034538794 0.05148386 0.044194173 0.044194173 0.035594437 0.053895433 0.044194173
0.044194173 0.05412944 0.044194173 0.05707076 0.044194173 0.056627914 0.03445433 0.044194173
0.044194173 0.034920994 0.044194173 0.051788285 0.034340043 0.053316105 0.04339727 0.035078518
0.05465537 0.033811074 0.044194173 0.03588512 0.053457044 0.044194173 0.044194173 0.054707315
0.053434968 0.044194173 0.044194173 0.042814545 0.05278747 0.034802426 0.03419316 0.03833556
0.054572597 0.05320786 0.044194173 0.034207486 0.038188804 0.053687736 0.043835577 0.044194173
00000000: 8933 143d d345 063d f304 353d 6338 4c3d
00000010: bc1a 503d d327 043d 2c38 543d afd7 0f3d
00000020: 456c 1c3d cd92 1c3d 050b 0f3d 6215 043d
00000030: ab0c 513d 6b64 143d f90a 033d d3c4 003d
00000040: c126 5a3d 2831 0c3d bb8c 093d a643 553d
00000050: 1c36 123d f304 353d 6b70 0f3d f304 353d
00000060: 653f 473d e9d4 193d f304 353d 102f 5b3d
00000070: fb23 5e3d c46b 1c3d f304 353d d1c7 5c3d
00000080: ec40 353d 9fea 4a3d f304 353d f304 353d
00000090: 74e3 5f3d 1acb 0e3d f304 353d 4640 593d
000000a0: c4a2 103d fe66 583d e400 623d f304 353d
000000b0: 0717 5d3d 9a6e 033d 8838 603d f304 353d
000000c0: 8621 113d e9e7 613d 9c8b 5c3d 4bda 0d3d
000000d0: 0448 0f3d cbf9 5d3d 65de 173d bffa 143d
000000e0: 098a 5f3d 2d59 5e3d 821f 5d3d 9a71 0a3d
000000f0: f304 353d 4eb5 5f3d 6b50 103d f304 353d
00000100: f304 353d 9094 4e3d 6b33 293d f304 353d
00000110: 56e4 033d 71a5 5d3d 31e3 5a3d f5b2 573d
00000120: f304 353d 85d9 5e3d 2e38 123d 0778 103d
00000130: 6cb5 0f3d f304 353d 13c9 153d b0de 253d
00000140: f304 353d 8d78 0d3d bde0 523d f304 353d
00000150: f304 353d 79cb 113d 75c1 5c3d f304 353d
00000160: f304 353d d5b6 5d3d f304 353d 07c3 693d
00000170: f304 353d acf2 673d fc1f 0d3d f304 353d
00000180: f304 353d 5109 0f3d f304 353d f41f 543d
00000190: 25a8 0c3d fd61 5a3d 56c1 313d 7eae 0f3d
000001a0: 4fde 5f3d 7b7d 0a3d f304 353d 47fc 123d
000001b0: c6f5 5a3d f304 353d f304 353d c714 603d
000001c0: a0de 5a3d f304 353d f304 353d 4e5e 2f3d
000001d0: ad37 583d fd8c 0e3d 200e 0c3d c005 1d3d
000001e0: 8487 5f3d 7cf0 593d f304 353d 261d 0c3d
000001f0: dd6b 1c3d ace7 5b3d ef8c 333d f304 353d

hidden.weight_epsilon f4 [128, 128]
0.0 0.0 0.0 0.0 0.0 0.0 0.0 0.0
0.0 0.0 0.0 0.0 0.0 0.0 0.0 0.0
0.0 0.0 0.0 0.0 0.0 0.0 0.0 0.0
0.0 0.0 0.0 0.0 0.0 0.0 0.0 0.0
0.0 0.0 0.0 0.0 0.0 0.0 0.0 0.0
0.0 0.0 0.0 0.0 0.0 0.0 0.0 0.0
0.0 0.0 0.0 0.0 0.0 0.0 0.0 0.0
0.0 0.0 0.0 0.0 0.0 0.0 0.0 0.0
0.0 0.0 0.0 0.0 0.0 0.0 0.0 0.0
0.0 0.0 0.0 0.0 0.0 0.0 0.0 0.0
0.0 0.0 0.0 0.0 0.0 0.0 0.0 0.0
0.0 0.0 0.0 0.0 0.0 0.0 0.0 0.0
0.0 0.0 0.0 0.0 0.0 0.0 0.0 0.0
0.0 0.0 0.0 0.0 0.0 0.0 0.0 0.0
0.0 0.0 0.0 0.0 0.0 0.0 0.0 0.0
0.0 0.0 0.0 0.0 0.0 0.0 0.0 0.0
0.0 0.0 0.0 0.0 0.0 0.0 0.0 0.0
0.0 0.0 0.0 0.0 0.0 0.0 0.0 0.0
0.0 0.0 0.0 0.0 0.0 0.0 0.0 0.0
0.0 0.0 0.0 0.0 0.0 0.0 0.0 0.0
0.0 0.0 0.0 0.0 0.0 0.0 0.0 0.0
0.0 0.0 0.0 0.0 0.0 0.0 0.0 0.0
0.0 0.0 0.0 0.0 0.0 0.0 0.0 0.0
0.0 0.0 0.0 0.0 0.0 0.0 0.0 0.0
0.0 0.0 0.0 0.0 0.0 0.0 0.0 0.0
0.0 0.0 0.0 0.0 0.0 0.0 0.0 0.0
0.0 0.0 0.0 0.0 0.0 0.0 0.0 0.0
0.0 0.0 0.0 0.0 0.0 0.0 0.0 0.0
0.0 0.0 0.0 0.0 0.0 0.0 0.0 0.0
0.0 0.0 0.0 0.0 0.0 0.0 0.0 0.0
0.0 0.0 0.0 0.0 0.0 0.0 0.0 0.0
0.0 0.0 0.0 0.0 0.0 0.0 0.0 0.0
00000000: 0000 0000 0000 0000 0000 0000 0000 0000
00000010: 0000 0000 0000 0000 0000 0000 0000 0000
00000020: 0000 0000 0000 0000 0000 0000 0000 0000
00000030: 0000 0000 0000 0000 0000 0000 0000 0000
00000040: 0000 0000 0000 0000 0000 0000 0000 0000
00000050: 0000 0000 0000 0000 0000 0000 0000 0000
00000060: 0000 0000 0000 0000 0000 0000 0000 0000
00000070: 0000 0000 0000 0000 0000 0000 0000 0000
00000080: 0000 0000 0000 0000 0000 0000 0000 0000
00000090: 0000 0000 0000 0000 0000 0000 0000 0000
000000a0: 0000 0000 0000 0000 0000 0000 0000 0000
000000b0: 0000 0000 0000 0000 0000 0000 0000 0000
000000c0: 0000 0000 0000 0000 0000 0000 0000 0000
000000d0: 0000 0000 0000 0000 0000 0000 0000 0000
000000e0: 0000 0000 0000 0000 0000 0000 0000 0000
000000f0: 0000 0000 0000 0000 0000 0000 0000 0000
00000100: 0000 0000 0000 0000 0000 0000 0000 0000
00000110: 0000 0000 0000 0000 0000 0000 0000 0000
00000120: 0000 0000 0000 0000 0000 0000 0000 0000
00000130: 0000 0000 0000 0000 0000 0000 0000 0000
00000140: 0000 0000 0000 0000 0000 0000 0000 0000
00000150: 0000 0000 0000 0000 0000 0000 0000 0000
00000160: 0000 0000 0000 0000 0000 0000 0000 0000
00000170: 0000 0000 0000 0000 0000 0000 0000 0000
00000180: 0000 0000 0000 0000 0000 0000 0000 0000
00000190: 0000 0000 0000 0000 0000 0000 0000 0000
000001a0: 0000 0000 0000 0000 0000 0000 0000 0000
000001b0: 0000 0000 0000 0000 0000 0000 0000 0000
000001c0: 0000 0000 0000 0000 0000 0000 0000 0000
000001d0: 0000 0000 0000 0000 0000 0000 0000 0000
000001e0: 0000 0000 0000 0000 0000 0000 0000 0000
000001f0: 0000 0000 0000 0000 0000 0000 0000 0000
00000200: 0000 0000 0000 0000 0000 0000 0000 0000
00000210: 0000 0000 0000 0000 0000 0000 0000 0000
00000220: 0000 0000 0000 0000 0000 0000 0000 0000
00000230: 0000 0000 0000 0000 0000 0000 0000 0000
00000240: 0000 0000 0000 0000 0000 0000 0000 0000
00000250: 0000 0000 0000 0000 0000 0000 0000 0000
00000260: 0000 0000 0000 0000 0000 0000 0000 0000
00000270: 0000 0000 0000 0000 0000 0000 0000 0000
00000280: 0000 0000 0000 0000 0000 0000 0000 0000
00000290: 0000 0000 0000 0000 0000 0000 0000 0000
000002a0: 0000 0000 0000 0000 0000 0000 0000 0000
000002b0: 0000 0000 0000 0000 0000 0000 0000 0000
000002c0: 0000 0000 0000 0000 0000 0000 0000 0000
000002d0: 0000 0000 0000 0000 0000 0000 0000 0000
000002e0: 0000 0000 0000 0000 0000 0000 0000 0000
000002f0: 0000 0000 0000 0000 0000 0000 0000 0000
00000300: 0000 0000 0000 0000 0000 0000 0000 0000
00000310: 0000 0000 0000 0000 0000 0000 0000 0000
00000320: 0000 0000 0000 0000 0000 0000 0000 0000
00000330: 0000 0000 0000 0000 0000 0000 0000 0000
00000340: 0000 0000 0000 0000 0000 0000 0000 0000
00000350: 0000 0000 0000 0000 0000 0000 0000 0000
00000360: 0000 0000 0000 0000 0000 0000 0000 0000
00000370: 0000 0000 0000 0000 0000 0000 0000 0000
00000380: 0000 0000 0000 0000 0000 0000 0000 0000
00000390: 0000 0000 0000 0000 0000 0000 0000 0000
000003a0: 0000 0000 0000 0000 0000 0000 0000 0000
000003b0: 0000 0000 0000 0000 0000 0000 0000 0000
000003c0: 0000 0000 0000 0000 0000 0000 0000 0000
000003d0: 0000 0000 0000 0000 0000 0000 0000 0000
000003e0: 0000 0000 0000 0000 0000 0000 0000 0000
000003f0: 0000 0000 0000 0000 0000 0000 0000 0000

hidden.bias_epsilon f4 [128]
0.0 -0.0 0.0 -0.0 0.0 -0.0 -0.0 -0.0
0.0 -0.0 -0.0 -0.0 -0.0 -0.0 0.0 -0.0
-0.0 -0.0 -0.0 -0.0 -0.0 -0.0 0.0 -0.0
-0.0 0.0 -0.0 0.0 0.0 0.0 -0.0 -0.0
-0.0 -0.0 -0.0 -0.0 0.0 0.0 0.0 0.0
-0.0 -0.0 -0.0 0.0 0.0 -0.0 0.0 0.0
0.0 0.0 0.0 -0.0 -0.0 0.0 0.0 0.0
0.0 -0.0 0.0 -0.0 -0.0 0.0 0.0 0.0
-0.0 0.0 -0.0 -0.0 -0.0 -0.0 -0.0 -0.0
0.0 -0.0 0.0 0.0 0.0 -0.0 0.0 -0.0
0.0 -0.0 -0.0 0.0 -0.0 0.0 -0.0 0.0
-0.0 0.0 -0.0 0.0 -0.0 0.0 0.0 0.0
-0.0 0.0 0.0 -0.0 -0.0 -0.0 0.0 0.0
0.0 -0.0 0.0 0.0 0.0 -0.0 -0.0 -0.0
0.0 -0.0 -0.0 0.0 -0.0 -0.0 -0.0 -0.0
0.0 -0.0 -0.0 0.0 0.0 -0.0 -0.0 -0.0
00000000: 0000 0000 0000 0080 0000 0000 0000 0080
00000010: 0000 0000 0000 0080 0000 0080 0000 0080
00000020: 0000 0000 0000 0080 0000 0080 0000 0080
00000030: 0000 0080 0000 0080 0000 0000 0000 0080
00000040: 0000 0080 0000 0080 0000 0080 0000 0080
00000050: 0000 0080 0000 0080 0000 0000 0000 0080
00000060: 0000 0080 0000 0000 0000 0080 0000 0000
00000070: 0000 0000 0000 0000 0000 0080 0000 0080
00000080: 0000 0080 0000 0080 0000 0080 0000 0080
00000090: 0000 0000 0000 0000 0000 0000 0000 0000
000000a0: 0000 0080 0000 0080 0000 0080 0000 0000
000000b0: 0000 0000 0000 0080 0000 0000 0000 0000
000000c0: 0000 0000 0000 0000 0000 0000 0000 0080
000000d0: 0000 0080 0000 0000 0000 0000 0000 0000
000000e0: 0000 0000 0000 0080 0000 0000 0000 0080
000000f0: 0000 0080 0000 0000 0000 0000 0000 0000
00000100: 0000 0080 0000 0000 0000 0080 0000 0080
00000110: 0000 0080 0000 0080 0000 0080 0000 0080
00000120: 0000 0000 0000 0080 0000 0000 0000 0000
00000130: 0000 0000 0000 0080 0000 0000 0000 0080
00000140: 0000 0000 0000 0080 0000 0080 0000 0000
00000150: 0000 0080 0000 0000 0000 0080 0000 0000
00000160: 0000 0080 0000 0000 0000 0080 0000 0000
00000170: 0000 0080 0000 0000 0000 0000 0000 0000
00000180: 0000 0080 0000 0000 0000 0000 0000 0080
00000190: 0000 0080 0000 0080 0000 0000 0000 0000
000001a0: 0000 0000 0000 0080 0000 0000 0000 0000
000001b0: 0000 0000 0000 0080 0000 0080 0000 0080
000001c0: 0000 0000 0000 0080 0000 0080 0000 0000
000001d0: 0000 0080 0000 0080 0000 0080 0000 0080
000001e0: 0000 0000 0000 0080 0000 0080 0000 0000
000001f0: 0000 0000 0000 0080 0000 0080 0000 0080

out.weight_mu f4 [2, 128]
-0.47772682 0.31272408 0.007936179 -0.06792598 0.30293852 0.21605909 -0.07328299 0.20275398
0.068908624 -0.27769688 0.2830158 0.27039948 0.26194346 0.21313146 0.0155921895 0.22686063
-0.0517148 0.30086687 0.24847166 0.009164709 0.25869927 -0.043516953 -0.028247105 -0.018457001
0.06776448 -0.012715054 -0.051202953 0.22053102 0.3370492 -0.06933039 0.033127405 -0.034446288
0.29756582 -0.33172488 0.036052726 -0.08724782 0.25247815 -0.28453243 -6.0349703e-06 0.23440215
0.271638 0.050638124 0.008384867 -0.03308222 0.30508092 0.3180523 0.25935042 0.12811945
0.0006483838 0.28559667 0.25188518 0.25329557 0.18693995 0.3187017 -0.018643336 -0.0067102187
0.24733216 -0.0263604 0.30402395 0.28261656 -0.0033006438 0.28206605 -0.034547914 -0.036188524
-0.037468288 0.25716847 -0.06442557 -0.000295566 0.28217426 -0.060663607 -0.068245776 -0.023504436
-0.0029996336 -0.040428687 -0.26071066 -0.045301955 -0.14580859 -0.08758481 -0.028802628 0.19452584
-0.012492567 0.27713493 0.018992586 0.048541326 -0.09181946 -0.31822562 -0.33008042 -0.0047828993
0.017008068 0.2897962 0.030074293 0.27234453 -0.014809814 0.19928493 -0.059595983 -0.017272756
-0.016340362 -0.03134352 0.017115146 -0.07237838 0.28857073 -0.05831513 0.24646796 0.0009743383
0.24397287 0.3428726 0.07097175 -0.061944157 0.2989968 0.062017314 0.049522642 -0.012930944
0.2989498 0.08443477 0.04452575 0.010383817 -0.07212554 0.25881132 0.04529232 -0.14994957
0.27062714 -0.060668077 -0.42529744 0.0011825683 -0.06681766 -0.06483445 0.18479145 -0.041046567
-0.3438249 0.31575465 0.048994653 -0.00861239 -0.041327585 0.24131957 0.05227197 0.28668463
-0.006568498 -0.41698354 0.2341197 -0.055485792 0.242288 0.34287077 -0.053910412 -0.03659904
0.0024046733 0.3367084 0.27230322 -0.023574455 0.31261566 0.033025123 -0.019367138 0.018960342
0.018939167 -0.055281293 -0.07177146 0.26999447 0.31132296 0.03848601 -0.0024225444 -0.02458838
0.35563147 -0.11941565 -0.01731632 -0.044887185 0.2928927 0.025483547 -0.08821043 -0.0740519
0.19675308 0.35206068 -0.015998075 -0.034254123 0.37360406 0.25369355 0.22137785 -0.26761958
-0.059970323 0.19607338 0.29029587 0.12301126 0.2983525 0.3438427 -0.02019592 -0.07731884
0.20295444 -0.04064164 0.2712226 0.27041265 0.06232395 0.22511336 0.09807039 -0.033027522
0.038863804 0.23032911 0.02956896 0.019373855 0.3120055 0.06941404 0.09518094 0.023782043
0.016013853 -0.051812142 -0.09409311 -0.038521208 -0.057682216 0.06077104 -0.053853136 0.2789719
0.02194678 0.3239286 0.1282362 -0.060929053 0.22285494 -0.090202115 -0.5152897 0.0944407
-0.0810297 0.24858393 0.092116795 0.30952492 0.05649188 0.27902117 0.03043823 -0.08279853
-0.06560206 0.047887295 0.038555227 0.045913175 0.28937188 -0.008615255 0.25844157 -0.06550915
0.30482087 0.31942886 0.062830605 0.048369583 0.21149278 0.0074640587 -0.010828391 -0.021466808
0.24406497 0.06830666 0.0177638 0.054050438 -0.0049230983 0.2294109 0.174268 -0.54352707
0.28062633 0.08446528 -0.11624606 0.02254319 0.01584261 0.07369391 0.2905451 0.12675746
00000000: 9c98 f4be 5f1d a03e bf06 023c c71c 8bbd
00000010: c21a 9b3e 983e 5d3e 6415 96bd bd9e 4f3e
00000020: f71f 8d3d 492e 8ebe 72e7 903e cd71 8a3e
00000030: 741d 863e 223f 5a3e 6276 7f3c 274e 683e
00000040: e6d2 53bd 390b 9a3e 5b6f 7e3e 9327 163c
00000050: 3b74 843e d53e 32bd 7966 e7bc 2333 97bc
00000060: 1bc8 8a3d cd52 50bc 30ba 51bd e2d2 613e
00000070: b691 ac3e 17fd 8dbd 9ab0 073d 8d17 0dbd
00000080: 8c5a 983e d8d7 a9be 06ac 133d fcae b2bd
00000090: d144 813e 3cae 91be 0080 cab6 1e07 703e
000000a0: 2314 8b3e ec69 4f3d ae60 093c 3981 07bd
000000b0: 9133 9c3e c0d7 a23e 94c9 843e bf31 033e
000000c0: 4df8 293a ba39 923e 18f7 803e f5af 813e
000000d0: 306d 3f3e df2c a33e e9b9 98bc 65e1 dbbb
000000e0: a444 7d3e c4f1 d7bc 07a9 9b3e 1eb3 903e
000000f0: 9d4f 58bb f66a 903e 1d82 0dbd 6b3a 14bd
00000100: 5978 19bd 96ab 833e 8ef1 83bd 32f6 9ab9
00000110: 2579 903e 677a 78bd 71c4 8bbd 608c c0bc
00000120: 8095 44bb 8d98 25bd de7b 85be 8b8e 39bd
00000130: d94e 15be aa5f b3bd 7df3 ebbc c831 473e
00000140: a0ad 4cbc a1e4 8d3e 5796 9b3c 45d3 463d
00000150: d70b bcbd 78ee a2be 4d00 a9be deb9 9cbb
00000160: 8154 8b3c 2b60 943e 5d5e f63c be70 8b3e
00000170: dda4 72bc 5911 4c3e eb1a 74bd 987f 8dbc
00000180: 39dc 85bc 1062 00bd 1035 8c3c 1e3b 94bd
00000190: 8bbf 933e d9db 6ebd 1962 7c3e bd6a 7f3a
000001a0: 06d4 793e ff8c af3e a359 913d 28b9 7dbd
000001b0: 1c16 993e de05 7e3d 41d8 4a3d 4fdc 53bc
000001c0: f30f 993e 23ec ac3d a260 363d e320 2a3c
000001d0: 8eb6 93bd eb82 843e 7184 393d 618c 19be
000001e0: a48f 8a3e 177f 78bd 96c0 d9be 6800 9b3a
000001f0: b3d7 88bd edc7 84bd f839 3d3e 7220 28bd
00000200: d109 b0be 98aa a13e 9eae 483d fb1a 0dbc
00000210: 1d47 29bd 7a1c 773e 221b 563d 54c8 923e
00000220: 8e3c d7bb de7e d5be 13bd 6f3e 1245 63bd
00000230: 581a 783e c28c af3e 2ad1 5cbd e0e8 15bd
00000240: b997 1d3b 0b65 ac3e 546b 8b3e 371f c1bc
00000250: 290f a03e 5a45 073d d5a7 9ebc b852 9b3c
00000260: 5026 9b3c a36e 62bd eafc 92bd b73c 8a3e
00000270: b965 9f3e 82a3 1d3d 8dc3 1ebb 926d c9bc
00000280: 5415 b63e 3190 f4bd f5da 8dbc a0db 37bd
00000290: 08f6 953e dfc2 d03c aca7 b4bd 86a8 97bd
000002a0: a479 493e 4c41 b43e 650e 83bc 0d4e 0cbd
000002b0: 0849 bf3e 1fe4 813e e0b0 623e 6f05 89be
000002c0: 71a3 75bd 76c7 483e a9a1 943e 54ed fb3d
000002d0: a9c1 983e 260c b03e ea71 a5bc 5759 9ebd
000002e0: 4ad3 4f3e d977 26bd b0dd 8a3e 8773 8a3e
000002f0: 6647 7f3d 1e84 663e 21d9 c83d de47 07bd
00000300: a72f 1f3d 65db 6b3e 9b3a f23c ebb5 9e3c
00000310: 2fbf 9f3e f328 8e3d 3aee c23d 8fd2 c23c
00000320: 7c2f 833c f838 54bd e3b3 c0bd 6ac8 1dbd
00000330: 3044 6cbd 0eeb 783d 1b95 5cbd 68d5 8e3e
00000340: bcc9 b33c f8d9 a53e 5a50 033e be90 79bd
00000350: 1634 643e e3bb b8bd 07ea 03bf 206a c13d
00000360: e6f2 a5bd c98c 7e3e bba7 bc3d 0d7a 9e3e
00000370: 0864 673d dddb 8e3e 9859 f93c 4792 a9bd
00000380: 5f5a 86bd 7825 443d 16ec 1d3d 740f 3c3d
00000390: 8d28 943e 0027 0dbc 7452 843e a929 86bd
000003a0: 7b11 9c3e 2e8c a33e 55ad 803d 2f1f 463d
000003b0: 9091 583e 1095 f43b 9069 31bc 29db afbc
000003c0: 2bec 793e 5de4 8b3d 6485 913c fe63 5d3d
000003d0: f151 a1bb b1ea 6a3e 5073 323e 9724 0bbf
000003e0: 41ae 8f3e 22fc ac3d 6a12 eebd 7fac b83c
000003f0: 5cc8 813c d5ec 963d 54c2 943e b5cc 013e

out.weight_sigma f4 [2, 128]
0.037559297 0.053144157 0.044194173 0.038189415 0.050234996 0.03627592 0.050888248 0.036443904
0.044194173 0.034198765 0.051988665 0.053642765 0.051609788 0.053170312 0.051443808 0.050482377
0.0368095 0.03519299 0.036212817 0.037084606 0.03624797 0.044194173 0.0512173 0.044194173
0.044194266 0.050232895 0.044194173 0.05187285 0.036743235 0.03818893 0.044194173 0.05169928
0.044194173 0.049358305 0.044194173 0.044194173 0.036196828 0.037027817 0.044194173 0.051386654
0.05224031 0.035693713 0.05161226 0.044194173 0.051562224 0.053901736 0.03661367 0.044194173
0.03688992 0.036775008 0.05182626 0.05192762 0.05194022 0.03649544 0.050294224 0.0373948
0.036594827 0.051605284 0.036547538 0.035973143 0.044194173 0.036624808 0.037437204 0.044194173
0.044194173 0.051865775 0.053198315 0.044194173 0.033667486 0.051507987 0.036787026 0.036926623
0.044194173 0.05172601 0.05066928 0.05073151 0.03686643 0.044194173 0.05051548 0.036055647
0.044194173 0.053113062 0.036681745 0.044194173 0.044194173 0.037223313 0.051669434 0.044194173
0.044194173 0.036600623 0.044194173 0.036168892 0.044194173 0.036652744 0.0514565 0.044194173
0.044194173 0.037191633 0.044194173 0.0369159 0.03625974 0.03702185 0.036976013 0.036935575
0.036602657 0.052918103 0.044194173 0.03738732 0.05207771 0.044194173 0.044194173 0.051659025
0.051788356 0.044194173 0.044194173 0.044194173 0.051198233 0.051962525 0.035267524 0.044194374
0.036695197 0.036845565 0.044194173 0.051366687 0.038201667 0.051642988 0.035970137 0.044194173
0.044194173 0.046510678 0.044194173 0.03780958 0.044195216 0.036617074 0.050957985 0.036616232
0.050176587 0.03503922 0.051915586 0.04567552 0.05036439 0.053601377 0.051307164 0.04674754
0.037027966 0.03352805 0.0363285 0.037318297 0.04020545 0.044194173 0.051200733 0.044194173
0.044194173 0.05019752 0.044194173 0.051678877 0.04413714 0.044194173 0.044194173 0.051409952
0.044194173 0.044194173 0.044194173 0.044194173 0.036563985 0.037177123 0.044194173 0.051229894
0.052003227 0.044194173 0.044194173 0.044194173 0.05178664 0.051567424 0.036759038 0.044194173
0.037034076 0.03695456 0.051650237 0.051717304 0.051761504 0.044194173 0.050362673 0.038032535
0.036761697 0.051427685 0.036484636 0.036482506 0.044194173 0.036740944 0.03772318 0.044194173
0.044194173 0.044194173 0.052267954 0.044194173 0.03493663 0.05133765 0.036963288 0.044194173
0.044194173 0.05148548 0.05067682 0.044194173 0.037005935 0.044194173 0.050199457 0.036469925
0.044194173 0.052926805 0.036851052 0.044194173 0.044194173 0.037169315 0.051486854 0.044194173
0.044194173 0.036746185 0.044194173 0.03559507 0.044194173 0.03676442 0.051346496 0.044194173
0.044194173 0.037912026 0.044194173 0.037471462 0.03659887 0.037683345 0.037049 0.037073016
0.03636654 0.051336717 0.044194173 0.037389997 0.051881753 0.044194173 0.044194173 0.05147153
0.051806964 0.044194173 0.044194173 0.044194173 0.044194173 0.051785514 0.03612894 0.044194173
0.036791477 0.03706134 0.044194173 0.051265553 0.044194173 0.05142137 0.036091443 0.044194173
00000000: c7d7 193d b0ad 593d f304 353d 816c 1c3d
00000010: 36c3 4d3d 0f96 143d 3270 503d 3446 153d
00000020: f304 353d 0114 0c3d 11f2 543d 84b8 5b3d
00000030: c964 533d 1dc9 593d beb6 523d 9cc6 4e3d
00000040: 8fc5 163d 8626 103d e453 143d 07e6 173d
00000050: c078 143d f304 353d 3bc9 513d f304 353d
00000060: 0c05 353d 02c1 4d3d f304 353d a078 543d
00000070: 1380 163d ff6b 1c3d f304 353d a0c2 533d
00000080: f304 353d ef2b 4a3d f304 353d f304 353d
00000090: 2043 143d 7baa 173d f304 353d d07a 523d
000000a0: eff9 553d 9233 123d 6167 533d f304 353d
000000b0: e932 533d 11c8 5c3d 37f8 153d f304 353d
000000c0: e219 173d 64a1 163d c647 543d 0eb2 543d
000000d0: 45bf 543d 3e7c 153d 5101 4e3d 4a2b 193d
000000e0: 75e4 153d 1060 533d dfb2 153d 9358 133d
000000f0: f304 353d e503 163d c157 193d f304 353d
00000100: f304 353d 3571 543d 7ae6 593d f304 353d
00000110: ebe6 093d 0afa 523d fead 163d 5f40 173d
00000120: f304 353d a7de 533d 978a 4f3d d8cb 4f3d
00000130: 4101 173d f304 353d 52e9 4e3d 16af 133d
00000140: f304 353d 158d 593d 993f 163d f304 353d
00000150: f304 353d 7977 183d 54a3 533d f304 353d
00000160: f304 353d 89ea 153d f304 353d d525 143d
00000170: f304 353d 3021 163d 0dc4 523d f304 353d
00000180: f304 353d 4156 183d f304 353d 2035 173d
00000190: 1885 143d 39a4 173d 2974 173d c249 173d
000001a0: abec 153d a7c0 583d f304 353d 7223 193d
000001b0: 704f 553d f304 353d f304 353d 6a98 533d
000001c0: 0720 543d f304 353d f304 353d f304 353d
000001d0: 3db5 513d a8d6 543d ae74 103d 2905 353d
000001e0: b44d 163d 60eb 163d f304 353d e065 523d
000001f0: 5a79 1c3d 9987 533d 6c55 133d f304 353d
00000200: f304 353d fb81 3e3d f304 353d 38de 1a3d
00000210: 0b06 353d c9fb 153d 52b9 503d e7fa 153d
00000220: f785 4d3d 4985 0f3d 70a5 543d 4116 3b3d
00000230: e44a 4e3d 1e8d 5b3d 7627 523d 597a 3f3d
00000240: a3aa 173d b554 093d 31cd 143d 12db 183d
00000250: 78ae 243d f304 353d dcb7 513d f304 353d
00000260: f304 353d ea9b 4d3d f304 353d 3bad 533d
00000270: 25c9 343d f304 353d f304 353d 3e93 523d
00000280: f304 353d f304 353d f304 353d f304 353d
00000290: 1ec4 153d 0a47 183d f304 353d 70d6 513d
000002a0: 5601 553d f304 353d f304 353d f304 353d
000002b0: 3a1e 543d 5d38 533d a590 163d f304 353d
000002c0: 0bb1 173d aa5d 173d 338f 533d 86d5 533d
000002d0: df03 543d f304 353d 1749 4e3d 01c8 1b3d
000002e0: 6f93 163d d6a5 523d ea70 153d ae6e 153d
000002f0: f304 353d ac7d 163d 9f83 1a3d f304 353d
00000300: f304 353d f304 353d ec16 563d f304 353d
00000310: b619 0f3d 6d47 523d d166 173d f304 353d
00000320: f304 353d 70e2 523d 7f92 4f3d f304 353d
00000330: 8993 173d f304 353d f29d 4d3d 7d61 153d
00000340: f304 353d c7c9 583d 21f1 163d f304 353d
00000350: f304 353d da3e 183d e1e3 523d f304 353d
00000360: f304 353d 2b83 163d f304 353d 23cc 113d
00000370: f304 353d 4a96 163d b450 523d f304 353d
00000380: f304 353d a449 1b3d f304 353d ad7b 193d
00000390: b2e8 153d da59 1a3d b1c0 173d e0d9 173d
000003a0: 15f5 143d 7346 523d f304 353d 4126 193d
000003b0: f681 543d f304 353d f304 353d d0d3 523d
000003c0: 8a33 543d f304 353d f304 353d f304 353d
000003d0: f304 353d 0c1d 543d f0fb 133d f304 353d
000003e0: a9b2 163d a2cd 173d f304 353d d4fb 513d
000003f0: f304 353d 379f 523d 9fd4 133d f304 353d

out.bias_mu f4 [2]
0.19162205 0.21711302
00000000: 9238 443e e052 5e3e

out.bias_sigma f4 [2]
0.36317632 0.36316326
00000000: 3ff2 b93e 89f0 b93e
