save/checkpoint/cartpole_dqn_noisy_mod_hid_64_12810000_ckpt.tar (torch_old, 724278 bytes, 34 tensors)

feature.weight f4 [64, 4]
0	0xbdb9051a	-0.09034176
1	0x3e662cac	0.22477978
2	0xbe16de54	-0.14733249
3	0x3d06a286	0.03286984
4	0xbe5c9b87	-0.21543704
5	0x3e456dbb	0.1928014
6	0x3f0981c5	0.5371364
7	0xbdc55d07	-0.09636884
8	0xbe19a3a4	-0.1500383
9	0xbdbb5342	-0.091467395
10	0x3f555b14	0.833421
11	0x3ed3d1cd	0.41371003
12	0x3e7bb729	0.24581589
13	0x3d01442e	0.03155916
14	0xbf1e1d06	-0.61763036
15	0xbd3fa9ee	-0.046792917
16	0x3e2ecbe5	0.17069967
17	0x3e95b154	0.29236853
18	0xbec39a4e	-0.38203663
19	0xbd935324	-0.07193592
20	0x3e653c6c	0.2238633
21	0x3e814eb1	0.2525535
22	0xbda7d2b4	-0.08194485
23	0xbe5c3729	-0.21505417
24	0x3e9a39b9	0.30122164
25	0x3dc1e4a6	0.09467439
26	0xbe9d7a80	-0.30757523
27	0x3e77401f	0.24145554
28	0x3dc1d602	0.09464647
29	0xbe164d8d	-0.14678021
30	0x3e1c612c	0.15271443
31	0x3e62c9f6	0.22147354
32	0xbe86ec72	-0.26352268
33	0x3e8814c3	0.2657834
34	0x3ec3f94a	0.3827613
35	0x3e297868	0.16549838
36	0x3e3dedb7	0.18547712
37	0xbdbd411b	-0.092409335
38	0x3f1e714c	0.6189163
39	0x3c42650e	0.011864914
40	0xbed14f53	-0.40880832
41	0x3e82a5e7	0.25517198
42	0x3e5c4a35	0.21512683
43	0x3e3c89f6	0.18412003
44	0xbe992c16	-0.29916447
45	0x3ebc4075	0.36767927
46	0x3f089761	0.53355986
47	0x3e9e45af	0.3091254
48	0x3eafd4b9	0.34341982
49	0xbe570d3d	-0.21001144
50	0xbcdd5a0d	-0.027020479
51	0x3e4051c5	0.18781193
52	0xbed7fb68	-0.42183995
53	0x3e8a2521	0.26981452
54	0xbf8b7bd5	-1.0897166
55	0xbea54b92	-0.32284218
56	0x3d25669c	0.04038106
57	0xbcee6ed5	-0.029105583
58	0x3e7d7139	0.24750222
59	0x3e59b7b5	0.21261485
60	0xbdd482e8	-0.10376531
61	0x3eac6177	0.3366811
62	0xbe4dddfe	-0.20104215
63	0x3e97b1d9	0.29627874
64	0x3e6215bc	0.22078604
65	0xbe2b1d1e	-0.16710326
66	0xbf9c96b3	-1.223349
67	0xbe617712	-0.22018078
68	0xbeba4276	-0.3637883
69	0x3d51d159	0.05122504
70	0x3e80c703	0.25151834
71	0xbd33d14b	-0.04390077
72	0xbce99ef9	-0.028518187
73	0x3d04d241	0.032427076
74	0xbbf3b32e	-0.0074371314
75	0xbe078f83	-0.13238339
76	0x3ec6402a	0.38720828
77	0xbeda67ec	-0.4265741
78	0x3f317678	0.69321394
79	0x3ea04f50	0.3131051
80	0xbe360f36	-0.1777924
81	0x3dc4d8d7	0.096116714
82	0x3f8c849e	1.0977972
83	0x3e26eff8	0.16302478
84	0xbdf6f30b	-0.120580755
85	0x3e923ff4	0.28564417
86	0x3f2a6e09	0.6657415
87	0xbe1a060c	-0.15041369
88	0x3e2863bf	0.164443
89	0xbddad559	-0.10685224
90	0xbf8ea662	-1.1144526
91	0xbea7d43a	-0.32779104
92	0xbe4ab1ea	-0.19794431
93	0x3d219cb7	0.039456096
94	0x3f5938f5	0.84852535
95	0x3e9f4721	0.31108955
96	0x3ea32d6a	0.31870586
97	0xbef4bd45	-0.4780065
98	0xbd879773	-0.066206835
99	0xbedcbd20	-0.4311304
100	0x3ee7ae19	0.45250013
101	0xbe8f4774	-0.27984202
102	0xbf392a3c	-0.7233007
103	0xbef4be91	-0.4780164
104	0xbe412774	-0.18862706
105	0x3dd32369	0.10309488
106	0xbf06884b	-0.52551717
107	0xbd194104	-0.03741552
108	0xbee7d17c	-0.4527701
109	0x3e3899a0	0.18027353
110	0x3f4bb435	0.7957185
111	0x3eafaaa3	0.34309873
112	0x3e0b8b28	0.13627303
113	0xbeff48e6	-0.49860305
114	0xbf4c0bd6	-0.7970556
115	0xbeb408c9	-0.35162953
116	0x3ea6e4ce	0.3259644
117	0xbd219e60	-0.03945768
118	0xbf03b9cc	-0.5145538
119	0x3e0392a9	0.12848915
120	0xbe158d10	-0.14604592
121	0x3e098edb	0.13433401
122	0xbd6bf2d9	-0.057604644
123	0x3e12fcd9	0.14354266
124	0x3cf7d8c6	0.030254733
125	0x3e649d0e	0.22325537
126	0x3f715940	0.9427681
127	0x3e9721ab	0.29517874
128	0x3e510e53	0.2041562
129	0x3e96dfeb	0.2946771
130	0xba944225	-0.0011311217
131	0x3e605816	0.21908602
132	0x3eba985b	0.36444363
133	0x3d8e59d1	0.06950725
134	0xbe27229f	-0.163218
135	0x3e3f053b	0.18654339
136	0xbe9c0a92	-0.30476815
137	0x3e8f6fad	0.2801489
138	0x3f4c1900	0.79725647
139	0xbe473f5a	-0.1945776
140	0xbd68e467	-0.056858446
141	0x3e8421a7	0.25806925
142	0x3f6958a5	0.91150886
143	0x3ea8c7aa	0.32964832
144	0x3ed870e2	0.42273623
145	0x3db47b65	0.08812598
146	0x3eb776e6	0.358329
147	0x3dd576b3	0.10423031
148	0x3e0f73cc	0.14009017
149	0xbebd052c	-0.36918008
150	0xbe2edcb2	-0.17076376
151	0xbe90f7ef	-0.28314158
152	0xbcb29b48	-0.02180256
153	0x3c4d1467	0.012517071
154	0x3f0f382e	0.559451
155	0xbe91a401	-0.28445438
156	0xbc0cb82d	-0.008588833
157	0xbd887b27	-0.066641144
158	0x3d32308e	0.043503337
159	0xbdf66aeb	-0.12032112
160	0xbe538458	-0.20655954
161	0x3d749c06	0.059719108
162	0x3e8f279d	0.2795991
163	0xbe1f277b	-0.15542404
164	0x3dab7f90	0.0837394
165	0xbe80297b	-0.25031647
166	0x3ec71970	0.38886595
167	0xbebddf4d	-0.37084427
168	0x3e6e878c	0.23293895
169	0xbe4b3a93	-0.19846563
170	0xbe8e7f93	-0.27831706
171	0x3e877d49	0.26462772
172	0xbe228832	-0.15872267
173	0xbe8a20b3	-0.26978073
174	0x3ed5c901	0.41754916
175	0xbe8e6f24	-0.2781917
176	0xbc3c0e79	-0.01147806
177	0x3d75d4ea	0.060017504
178	0xbe0c293e	-0.13687608
179	0x3e1dd33d	0.15412612
180	0xbe68eca3	-0.2274652
181	0x3ea5a1ec	0.323501
182	0x3efb7f92	0.49120766
183	0x3eedb707	0.464287
184	0x3eaaf215	0.3338782
185	0xbed38c14	-0.4131781
186	0x3e31c71c	0.1736111
187	0x3e62303a	0.2208871
188	0xbe8ad141	-0.27112773
189	0xbe4a2a76	-0.1974276
190	0x3f167cd5	0.5878423
191	0xbe0815ee	-0.13289616
192	0xbe6e98de	-0.23300502
193	0x3e466a58	0.19376504
194	0x3de1a1a4	0.11017159
195	0x3d7f188b	0.062279265
196	0x3eabfd5f	0.33591744
197	0xbe443394	-0.191603
198	0xbef42870	-0.476871
199	0x3e52aad9	0.20572986
200	0x3e6db2cd	0.23212738
201	0x3e786982	0.24258998
202	0xbf0d141d	-0.55108815
203	0x3e03e747	0.12881194
204	0x3e113c5f	0.14183186
205	0x3e58faa4	0.21189362
206	0xbe8d8045	-0.27636924
207	0xbe9e3282	-0.3089791
208	0x3e39d2e6	0.18146858
209	0x3e25abb1	0.16178776
210	0xbf674314	-0.9033673
211	0xbd93b4e3	-0.07212236
212	0x3e4184b9	0.18898286
213	0xbeb25555	-0.34830728
214	0x3e0f6915	0.1400493
215	0xbd76cfd2	-0.060256787
216	0xbed05a82	-0.40694052
217	0x3ca50891	0.020145686
218	0xbd95d2a5	-0.07315568
219	0xbd937b9e	-0.072013125
220	0xbe8c71f5	-0.27430692
221	0xbdcd5a2d	-0.10026965
222	0x3e76a509	0.24086393
223	0x3eb8edc8	0.36118913
224	0x3ecd2e99	0.40074614
225	0xbe7b71a7	-0.24555074
226	0xbf7824ac	-0.96930957
227	0xbee331c2	-0.443739
228	0xbede345d	-0.43399325
229	0x3dc82494	0.09772602
230	0xbe0d0904	-0.1377297
231	0xbdefab75	-0.11702625
232	0xbef71e22	-0.48265177
233	0x3ea58dc2	0.32334715
234	0x3f92dcff	1.1473693
235	0x3ec0a99b	0.376294
236	0xbed52186	-0.4162714
237	0xbd80f60f	-0.06296932
238	0x3fbc6a20	1.4719887
239	0xbdb83a74	-0.08995524
240	0xbe3d5d5d	-0.18492647
241	0xbccf569f	-0.025309859
242	0xbe7f670c	-0.24941653
243	0x3cf862f8	0.03032063
244	0xbe5ae80a	-0.21377578
245	0x3bd92e75	0.0066278526
246	0xbe930625	-0.28715625
247	0x3cc9f43e	0.024652597
248	0x3ea4aafa	0.32161695
249	0x3e933e10	0.28758287
250	0x3e8ec481	0.27884296
251	0x3e2617ec	0.16220063
252	0xbeac882c	-0.3369764
253	0xbe82b165	-0.25525966
254	0x3e65ae70	0.22429824
255	0xbe09a5af	-0.1344211

feature.bias f4 [64]
0	0x3ef92949	0.4866431
1	0xbe3680b7	-0.17822538
2	0xbf16077f	-0.5860519
3	0x3f12bcff	0.57319635
4	0xbedc4325	-0.43019977
5	0xbf011ecb	-0.5043761
6	0xbf127029	-0.5720239
7	0x3ecbde27	0.39817926
8	0xbeb776b8	-0.35832763
9	0xbe768fd6	-0.24078307
10	0x3e77ff37	0.2421845
11	0x3f10627f	0.56400293
12	0xbf1b7ee6	-0.60740507
13	0xbea3977f	-0.3195152
14	0x3ec1fafd	0.378868
15	0xbf0e5d35	-0.5561097
16	0xbe94c60c	-0.29057348
17	0xbeb1d5af	-0.3473334
18	0x3f1a0d51	0.6017657
19	0xbeafac45	-0.3431112
20	0xbe996e8d	-0.29967156
21	0x3f082ca2	0.53193104
22	0xbe80a88d	-0.25128594
23	0xbe6069d5	-0.21915372
24	0x3eee4a37	0.46540996
25	0xbec9d937	-0.39423534
26	0x3ef36d44	0.475443
27	0xbe8573b6	-0.26064843
28	0x3e9a5f94	0.30151045
29	0x3ee66f7c	0.4500693
30	0x3e9f2b47	0.31087705
31	0xbed93db9	-0.42429903
32	0xbd8cd83b	-0.0687718
33	0x3eb3f04f	0.35144278
34	0x3e9b2f28	0.30309415
35	0xbe84c49a	-0.25931245
36	0xbf10f78e	-0.5662774
37	0x3e99559f	0.29948136
38	0x3f027035	0.50952464
39	0xbe92a2b6	-0.28639764
40	0x3f2800dd	0.6562632
41	0x3ebe2be1	0.37142852
42	0x3e91256f	0.28348872
43	0x3ed864ca	0.42264396
44	0x3f309e49	0.68991524
45	0xbe66af15	-0.22527726
46	0xbefa9a6d	-0.48945943
47	0xbedce468	-0.4314301
48	0x3ee8a500	0.45438385
49	0x3f2c8a7f	0.6739883
50	0xbea969f8	-0.3308866
51	0xbf0db91e	-0.5536059
52	0xbee0b477	-0.43887684
53	0x3ed4e5c9	0.41581562
54	0xbed95c12	-0.42453057
55	0x3f0e2803	0.55529803
56	0xbe14775b	-0.14498655
57	0xbf0e3259	-0.55545574
58	0xbee1ba3f	-0.44087407
59	0xbea1bd0e	-0.3158955
60	0x3f2a71a9	0.6657968
61	0x3f18ab52	0.59636414
62	0x3eda2c82	0.42612082
63	0xbea4bfe0	-0.3217764

hidden.weight_mu f4 [128, 64]
0	0x3eaf616d	0.34254017
1	0xbdfc9e95	-0.123349346
2	0xbe94742d	-0.28994885
3	0x3e2deca2	0.169848
4	0x3b6b237f	0.0035879312
5	0xbe27ec82	-0.16398814
6	0xbe9a3b8e	-0.30123562
7	0x3e6f92cf	0.23395847
8	0xbd3d6d6a	-0.046246924
9	0xbe8018e6	-0.25018996
10	0x3e9ad707	0.30242178
11	0x3e934dfa	0.2877043
12	0xbe77f635	-0.24215014
13	0xbe382782	-0.17983821
14	0x3ea64202	0.32472235
15	0x3d43932b	0.047747772
16	0xbf65551f	-0.8958301
17	0xbed381e2	-0.4131003
18	0x3eb1f96a	0.347606
19	0xbdd17f6b	-0.10229381
20	0xbf6ecdb2	-0.93282616
21	0x3ea308e4	0.3184272
22	0xbeab5537	-0.3346345
23	0x3d2d14bf	0.042256113
24	0x3ea324e0	0.3186407
25	0xbed8aab9	-0.4231775
26	0x3e7c65e7	0.24648248
27	0xbd707e88	-0.05871442
28	0x3e59fd20	0.21287966
29	0x3eb40732	0.3516174
30	0x3e61a6ae	0.2203624
31	0xbf0c678d	-0.54845506
32	0x3dbaabed	0.091148235
33	0x3e8f4a57	0.27986404
34	0x3e8a404d	0.27002183
35	0xbd96fefe	-0.07372855
36	0xbe79bd7f	-0.24388693
37	0x3e8d7b71	0.2763324
38	0x3e3bfd3c	0.1835832
39	0xbd07177a	-0.032981373
40	0x3ea44005	0.32080093
41	0x3e253052	0.16131714
42	0x3e385893	0.18002538
43	0x3ea6367e	0.3246345
44	0x3e377f0e	0.17919561
45	0x3d158209	0.036500964
46	0xbe7d2984	-0.24722868
47	0x3dcf1388	0.10111147
48	0x3e465161	0.19366981
49	0x3e667ff4	0.22509748
50	0xbdcb54d9	-0.09928293
51	0xbe202ba7	-0.15641652
52	0xbe682316	-0.22669634
53	0x3e9838f3	0.2973095
54	0x3d7a749f	0.061146375
55	0x3e3dc522	0.18532231
56	0x3d0fa281	0.035067085
57	0xbedbeace	-0.4295258
58	0xbf1d593e	-0.614643
59	0xbe1a4364	-0.1506477
60	0x3ea34217	0.3188636
61	0x3e990caf	0.2989249
62	0x3dfe40eb	0.12414726
63	0x3cbeacf0	0.023275822
64	0x3e62e0d4	0.22156078
65	0x3ccb6b01	0.024831297
66	0xbe45f672	-0.19332293
67	0x3eb1c51c	0.34720695
68	0xbe32bf08	-0.17455685
69	0xbded8e27	-0.11599379
70	0xbdcfffa5	-0.10156182
71	0x3e5ce58e	0.21571943
72	0xbdfa74f7	-0.122293405
73	0xbe38bf07	-0.18041621
74	0x3eae2da0	0.34019184
75	0x3ecb9853	0.39764652
76	0xbd9d52d2	-0.07681812
77	0x3d73a8ef	0.05948728
78	0x3e609620	0.21932268
79	0xbe15884c	-0.14602774
80	0xbf557af7	-0.83390754
81	0xbecb7566	-0.39738005
82	0x3e3dd01d	0.1853642
83	0xbdf712c2	-0.12064125
84	0xbf7792b5	-0.9670823
85	0x3eb0be47	0.3452017
86	0xbe9bf90e	-0.3046345
87	0x3dc4cb72	0.096091166
88	0x3e98cac5	0.298422
89	0xbebc29ba	-0.36750585
90	0x3e3e0f02	0.18560413
91	0xbe1e308b	-0.15448205
92	0x3ea4acf6	0.3216321
93	0x3e7bb49d	0.24580617
94	0x3e8e4b29	0.27791718
95	0xbf13a363	-0.57671183
96	0xbd804dd4	-0.062648445
97	0x3e75e2bc	0.24012274
98	0x3e8bebc1	0.27328303
99	0xbe63de74	-0.22252828
100	0xbec666dc	-0.3875035
101	0x3e65fade	0.2245898
102	0x3e4fddb6	0.2029942
103	0xbdfc71de	-0.12326406
104	0x3ec55c9f	0.38547227
105	0x3e49bb92	0.19700459
106	0x3e118003	0.14208989
107	0x3e0680e5	0.13135107
108	0x3eaa39bf	0.33247182
109	0x3c1301f9	0.008972638
110	0xbd63ae7d	-0.055586327
111	0xbcf136e7	-0.029445125
112	0x3e66c1c7	0.22534858
113	0x3e96464e	0.29350513
114	0xbdcd1e80	-0.10015583
115	0xbdcf0472	-0.1010827
116	0xbebc8c0f	-0.36825606
117	0x3ec22007	0.3791506
118	0x3df0c84b	0.11756953
119	0x3e9e80f3	0.30957755
120	0x3cd5b14c	0.026085518
121	0xbeb60e10	-0.35557604
122	0xbf298f89	-0.6623464
123	0xbe2cbf50	-0.16869855
124	0x3e355674	0.1770876
125	0x3e911ee4	0.2834388
126	0x3e5215ab	0.20516078
127	0x3db1d719	0.08683605
128	0x3e5659b4	0.20932657
129	0x3d8298a7	0.063767724
130	0xbe49dbd1	-0.1971276
131	0x3e76f3a7	0.24116383
132	0xbe27ba65	-0.16379698
133	0x3c021a1e	0.007940797
134	0xbe0335de	-0.12813517
135	0x3e3c9bce	0.1841881
136	0xbd8e8460	-0.06958842
137	0xbe647429	-0.22309937
138	0x3e3e06fc	0.18557352
139	0x3ecf8010	0.4052739
140	0xbd73ab22	-0.059489377
141	0x3c9621ff	0.018326757
142	0x3ec24431	0.3794265
143	0x3ce597a6	0.028026413
144	0xbf5171a5	-0.8181403
145	0xbea0c594	-0.3140074
146	0x3eb0f406	0.34561175
147	0xbdf1fb95	-0.118155636
148	0xbf80d870	-1.0066051
149	0x3eb9bb15	0.36275545
150	0xbec1112f	-0.37708423
151	0xbcfbab1e	-0.030721243
152	0x3e694dba	0.22783557
153	0xbebe5491	-0.37173894
154	0x3eceec18	0.404145
155	0xbe05fb4f	-0.13084148
156	0x3e86a17c	0.26295078
157	0x3e72968e	0.23690245
158	0x3e500bc2	0.20316985
159	0xbf32d697	-0.6985869
160	0xbd75e249	-0.060030255
161	0x3e8a6cc8	0.27036119
162	0x3e9b4374	0.303249
163	0xbe9b4f9b	-0.30334172
164	0xbefa1765	-0.48845974
165	0x3e14a2f6	0.1451529
166	0x3ebe9995	0.3722655
167	0xbc216120	-0.009849817
168	0x3ec65adc	0.38741195
169	0x3e0b5d75	0.1360987
170	0x3e5432ab	0.20722453
171	0x3e97f659	0.29680136
172	0x3e78059b	0.24220888
173	0x3d7d0c27	0.061779168
174	0xbe8205da	-0.2539509
175	0x3db2b32e	0.08725582
176	0x3ea32add	0.3186864
177	0x3e9a1568	0.30094457
178	0xbe1434cc	-0.14473265
179	0xbd283696	-0.041067682
180	0xbe6d8d68	-0.23198473
181	0x3e1cff0a	0.15331665
182	0xbb4d68c1	-0.0031342956
183	0x3e51ddc4	0.20494753
184	0x3dbddd4d	0.092707254
185	0xbe1a2ab0	-0.15055346
186	0xbf64dfd3	-0.8940403
187	0x3c00c12e	0.007858558
188	0x3e9de3ba	0.30837804
189	0x3e4a0a66	0.19730529
190	0x3e610268	0.21973574
191	0x3e17432c	0.14771718
192	0x3e92aace	0.2864594
193	0xbd94da2a	-0.07268174
194	0xbe374975	-0.17899115
195	0x3eb7e6eb	0.35918364
196	0xbe110934	-0.14163667
197	0xbe3d82ee	-0.18506977
198	0xbe76a4fe	-0.24086377
199	0x3e39364a	0.18087116
200	0x3dc32feb	0.09530624
201	0xbe8e39d9	-0.2777851
202	0x3e73ac60	0.23796225
203	0x3eb9089b	0.36139378
204	0xbe16f9e5	-0.14743765
205	0xbd6ec091	-0.058289114
206	0x3e8ba9c3	0.27277955
207	0xbd01396d	-0.031548906
208	0xbf7e2a36	-0.9928316
209	0xbebc3f06	-0.36766833
210	0x3e17f355	0.14838918
211	0x3c76bfe0	0.015060395
212	0xbf40058d	-0.7500847
213	0x3ea4749c	0.32120216
214	0xbed75bf1	-0.42062333
215	0xbbc26d32	-0.0059334273
216	0x3e8c839b	0.27444157
217	0xbec04a8f	-0.37556884
218	0x3e33817f	0.17529868
219	0xbe0b837f	-0.1362438
220	0x3e89d65e	0.26921362
221	0x3e66ca89	0.22538199
222	0x3e8d1db5	0.27561727
223	0xbf027084	-0.50952935
224	0x3d0f1dff	0.034940716
225	0x3e0f19c4	0.13974673
226	0x3e6ab27c	0.22919649
227	0xbe78102b	-0.24224918
228	0xbee5da40	-0.44893074
229	0x3eac04ac	0.33597314
230	0x3ebb6a35	0.36604467
231	0xbdc081b0	-0.09399736
232	0x3ecb6a45	0.39729515
233	0x3e5b9267	0.21442567
234	0x3dd3f59a	0.10349579
235	0x3e3d5dce	0.18492815
236	0x3e9db733	0.30803832
237	0x3b8157ca	0.003947233
238	0xbd9269dc	-0.07149097
239	0x3d291e92	0.04128892
240	0x3e2af43e	0.16694734
241	0x3e757836	0.23971638
242	0xbe9d9dab	-0.30784354
243	0xbe69f3e8	-0.22846949
244	0xbed46891	-0.41486028
245	0x3e833fb6	0.25634545
246	0xbd5bb915	-0.053643305
247	0x3e0690ce	0.13141176
248	0xbe721f7f	-0.23644827
249	0xbe48c17c	-0.19605058
250	0xbf19e6f9	-0.6011806
251	0xbd51a8b1	-0.051186267
252	0x3ea29bb0	0.31759405
253	0x3e6de577	0.23232065
254	0x3eb5b5bc	0.35490215
255	0xbd2914a5	-0.041279454

hidden.weight_sigma f4 [128, 64]
0	0xbdc00257	-0.09375446
1	0x3e1fcba2	0.15605024
2	0x3e8463ae	0.258573
3	0x3b86dc81	0.0041156416
4	0xbd2c87fb	-0.04212187
5	0xbd90e922	-0.070757166
6	0xbd9484e1	-0.07251907
7	0x3df23a90	0.11827576
8	0x3dcb5505	0.099283256
9	0xbd2d6600	-0.042333603
10	0xbcab90b3	-0.020943021
11	0x3de9a713	0.1140882
12	0x3df8eb72	0.12154283
13	0x3d4bea28	0.049783856
14	0xbd51945b	-0.051166873
15	0x3d111d48	0.035428315
16	0xbe34232d	-0.17591543
17	0x3e82e4f6	0.25565308
18	0x3e1536fb	0.14571755
19	0x3d11f616	0.035635076
20	0x3f46af3a	0.77611125
21	0x3c8b060e	0.01697066
22	0xbd9451aa	-0.07242139
23	0x3d6af0d3	0.057358574
24	0x3d441300	0.047869682
25	0x3dade1e2	0.08490349
26	0x3d5a30a9	0.053269062
27	0x3d55816c	0.05212538
28	0xbdce935c	-0.100867
29	0x3d774117	0.06036481
30	0xbe1c5ae5	-0.15269049
31	0xbe7554a6	-0.23958072
32	0xbb673b01	-0.0035282972
33	0x3d8a4151	0.06750739
34	0x3d875f1f	0.0660994
35	0xbd821709	-0.0635205
36	0x3e50bd54	0.20384723
37	0x3dd7536b	0.105139576
38	0xbe276c31	-0.16349865
39	0x3d96c1ec	0.073612064
40	0x3d2eff6f	0.04272407
41	0x3e1ec644	0.1550532
42	0x3d85e560	0.065378904
43	0x3c8501b4	0.016236164
44	0x3d14c590	0.036321223
45	0xbdb81609	-0.08988578
46	0x3c236162	0.009971948
47	0xbe1d7906	-0.15378198
48	0x3c2cbccb	0.010543059
49	0x3b30a325	0.002695271
50	0xbbafd9f8	-0.00536656
51	0xbd56e943	-0.05246855
52	0xbdf80662	-0.121105924
53	0xbe25682b	-0.16153018
54	0x3e53521d	0.20636792
55	0xbbe0c04a	-0.00685886
56	0x3dc29dc5	0.095027484
57	0x3e939b07	0.28829214
58	0xbec5eaf8	-0.3865583
59	0x3d4563d8	0.04819092
60	0xbd5d533c	-0.054034457
61	0x3b9c1c77	0.0047641355
62	0xbca0baee	-0.019620385
63	0x3ce03259	0.027367758
64	0xbcd9e359	-0.026597666
65	0x3cede468	0.029039577
66	0x3e96239c	0.29324043
67	0x3d869f82	0.065733925
68	0x3d8d6e87	0.06905847
69	0x3cb1cacd	0.021703148
70	0xbb23b1d5	-0.0024977822
71	0xbd95e1b8	-0.07318443
72	0x3d23dd5c	0.040006027
73	0x3d5ab635	0.053396422
74	0x3caa36ed	0.020778144
75	0x3ddd670c	0.1081067
76	0xbd7c2131	-0.06155509
77	0x3df4aff9	0.119476266
78	0x3dd5ef47	0.10446029
79	0x3d0c8099	0.034302328
80	0xbe98fa21	-0.29878333
81	0x3e642a17	0.22281681
82	0x3d02b85f	0.03191411
83	0x3d99755f	0.0749309
84	0x3f1b5d5a	0.6068932
85	0xbcfa0c0e	-0.030523326
86	0xbe4ab7e7	-0.19796716
87	0x3c265717	0.0101526
88	0x3d97970e	0.07401858
89	0x3e3e7e6b	0.18602912
90	0x3dbe9cc8	0.093072474
91	0x3d26336f	0.040576395
92	0xbd0c0ad7	-0.034190025
93	0x3b4bdee6	0.00311082
94	0xbd02f454	-0.03197129
95	0xbe85298f	-0.2600827
96	0x3d985860	0.07438731
97	0x3da9d046	0.08291678
98	0x3d0e7fbd	0.03478979
99	0xbcdc3610	-0.026881248
100	0x3defb802	0.117050186
101	0x3e4802d8	0.19532335
102	0xbd134673	-0.035955857
103	0x3ddc13e7	0.107459836
104	0x3bc242be	0.0059283664
105	0x3e129a34	0.14316636
106	0x3da0628b	0.078312956
107	0xbccc029d	-0.02490359
108	0xbcc05b48	-0.023481026
109	0x3d3a1b40	0.045436144
110	0xbd550dd2	-0.052015133
111	0xbdbe6dde	-0.09298299
112	0x3b0848c5	0.0020795327
113	0xbda9a633	-0.08283653
114	0xbdd79d14	-0.10528007
115	0x3d8562ca	0.06512983
116	0xbdeec775	-0.11659137
117	0xbd50e8c8	-0.051003247
118	0xbc813c2d	-0.015775764
119	0xbdc61618	-0.09672183
120	0xbcc36552	-0.023852024
121	0x3d741f21	0.0596
122	0xbee94597	-0.45560905
123	0x3d2ba3a8	0.04190412
124	0x3e38992d	0.18027182
125	0x3bcba316	0.0062145097
126	0xbcba9c99	-0.02277975
127	0x3cdbd006	0.026832592
128	0x3d34f316	0.044177137
129	0x3d75cbb1	0.06000871
130	0xbd9a8a5a	-0.0754592
131	0xbd3faf51	-0.046798054
132	0x3e140cf4	0.14458066
133	0x3d6b537c	0.057452664
134	0x3e10d798	0.14144742
135	0x3dab2f49	0.08358628
136	0x3d714dca	0.058912076
137	0x3c735879	0.0148526365
138	0x3d027928	0.031853825
139	0xbd30e86c	-0.043190405
140	0x3d0f8491	0.035038535
141	0x3e17d630	0.148278
142	0x3d660d0a	0.05616478
143	0x3db9c8a8	0.09071475
144	0x3ec7c69b	0.3901871
145	0xbe7a489b	-0.2444176
146	0xbd9b74a1	-0.075906046
147	0x3e523b53	0.20530443
148	0xbf11ca73	-0.5694954
149	0x3d2b593d	0.04183315
150	0x3edab2f2	0.4271465
151	0x3de506c2	0.111829296
152	0xbb8cc69c	-0.004296137
153	0xbd429166	-0.047501944
154	0xbd3aad7d	-0.045575608
155	0x3dad84c1	0.084725864
156	0x3ce04f5f	0.027381597
157	0xba9fb4cb	-0.0012184618
158	0x3e5ef0fb	0.21771614
159	0x3e9dff1f	0.30858704
160	0xbd5ac7e8	-0.0534133
161	0x3c2ecc2c	0.010668796
162	0x3dc4b29c	0.096043795
163	0x3e8410a8	0.25793958
164	0x3e067af3	0.13132839
165	0x3d96a5c5	0.07355837
166	0x3dbe82d9	0.09302301
167	0x3d8f8d11	0.07009328
168	0xbc48253d	-0.01221591
169	0x3be100cc	0.00686655
170	0xbd3caa06	-0.046060584
171	0x3db8bea3	0.09020736
172	0x3d66476e	0.056220464
173	0x3e3a99b1	0.18222691
174	0x3e0ae76a	0.1356484
175	0x3c6e1001	0.014530183
176	0xbca97925	-0.020687649
177	0x3e47d5ca	0.19515148
178	0x3dae327b	0.08505722
179	0x3de44ba1	0.111472376
180	0x3e04adf4	0.12956983
181	0xbbc4650c	-0.005993491
182	0x3b2ecfc6	0.0026674136
183	0xbd8516c7	-0.06498485
184	0x3dcb7439	0.09934277
185	0x3e0afa7d	0.13572116
186	0x3f0aa6fd	0.54161054
187	0xbd90d67e	-0.07072161
188	0xbcded676	-0.027201872
189	0x3d94c9d5	0.07265059
190	0x3e024562	0.1272178
191	0x3e0a9f7c	0.13537401
192	0x3c10450d	0.0088055255
193	0x3db79c68	0.08965379
194	0x3e37432d	0.1789672
195	0xbd1b887b	-0.037971955
196	0xbd171699	-0.036886785
197	0x3d8c7bb5	0.06859533
198	0xbdd15fbe	-0.102233395
199	0xbd154657	-0.036444034
200	0xbd772ba8	-0.06034437
201	0xbbad4294	-0.0052874777
202	0x3e16f5ab	0.14742152
203	0x3e031315	0.12800248
204	0x3db98ced	0.090600826
205	0xbd70db50	-0.058802903
206	0xbe26e4f5	-0.16298278
207	0x3d0c4ddd	0.034253944
208	0xbe8969b8	-0.2683847
209	0x3dc0e356	0.09418361
210	0x3dcb39ef	0.09923159
211	0x3c7d2bc1	0.015452326
212	0x3f28a020	0.6586933
213	0x3cd73bbb	0.026273599
214	0xbe322ce2	-0.17399934
215	0x3d5314dd	0.05153357
216	0x3d8e354e	0.06943761
217	0x3e7c0a37	0.24613272
218	0x3de71169	0.112826176
219	0x3ddaef51	0.10690177
220	0xbd5e1b2f	-0.054225143
221	0xbc5755a6	-0.013142979
222	0xbdf922ba	-0.12164827
223	0xbe9c545b	-0.30533108
224	0xbcd95ea2	-0.026534382
225	0x3dd86c6e	0.10567556
226	0xbdb6a460	-0.08918071
227	0xbd40b14d	-0.047044087
228	0xbe55be7c	-0.20873445
229	0x3e592198	0.21204221
230	0x3d6910fc	0.056900963
231	0x3b6d37f9	0.0036196692
232	0x3d121eb9	0.03567383
233	0x3e2c0e4a	0.16802326
234	0x3e19e4c2	0.1502867
235	0xbd38cc5e	-0.045116775
236	0x3cf51de4	0.02992148
237	0xbd2965b7	-0.04135677
238	0x3e053062	0.13006738
239	0x3db1e55d	0.08686326
240	0xbd6f1d74	-0.058377698
241	0xbc8a5d1e	-0.016890105
242	0xbdf02e23	-0.1172755
243	0xbe006614	-0.1253894
244	0xbe499155	-0.19684346
245	0x3c115b98	0.008871935
246	0x3cccfbf6	0.025022488
247	0x3dd3f3ab	0.1034921
248	0x3dd475af	0.10374009
249	0x3dd51bed	0.10405717
250	0xbeabc3b4	-0.33547747
251	0xbda743ce	-0.081672296
252	0x3d9afc3d	0.07567642
253	0xbe6fab7d	-0.23405261
254	0xbd4c136e	-0.049823217
255	0xbe2f9eab	-0.17150371

hidden.bias_mu f4 [128]
0	0x3e8a7d3b	0.27048668
1	0x3e976aad	0.29573575
2	0x3e642bf2	0.22282389
3	0x3ea7d797	0.3278167
4	0x3e5c0d80	0.21489525
5	0x3e603ebf	0.21898936
6	0x3d3e533f	0.04646611
7	0x3eb8c89a	0.36090547
8	0xbe1cbac6	-0.15305623
9	0x3e8b92c6	0.27260417
10	0xbdf6bb3b	-0.1204743
11	0x3e15ee3f	0.14641665
12	0x3d86ffe8	0.06591779
13	0x3be2f39b	0.0069260127
14	0x3eac7940	0.33686256
15	0xbda800e5	-0.082032956
16	0x3e591a43	0.21201424
17	0x3e9c7998	0.3056152
18	0x3eb483a2	0.35256678
19	0x3e691729	0.22762741
20	0xbd9f5785	-0.07780365
21	0xbe00069f	-0.12502526
22	0xbe0ea342	-0.13929465
23	0xbcf65a7e	-0.030072447
24	0x3ec2b517	0.38028786
25	0x3e3de336	0.18543705
26	0x3e8c27d5	0.2737414
27	0xbdf0f412	-0.11765303
28	0x3eba4450	0.36380243
29	0x3d1f223f	0.03885102
30	0x3e9581d0	0.29200602
31	0x3e54fca5	0.20799501
32	0xbe2ab4a3	-0.1667047
33	0x3e3bf0f0	0.18353629
34	0xbde89f16	-0.11358468
35	0x3e9948ff	0.29938504
36	0x3e5c63cc	0.21522444
37	0x3d128e72	0.035780378
38	0xbe2b037d	-0.1670055
39	0x3ec01d98	0.37522578
40	0x3e82ad00	0.25522614
41	0x3e81f002	0.25378424
42	0xbe273cc6	-0.16331777
43	0x3e7da515	0.24770005
44	0xbd6e8d4e	-0.058240227
45	0x3e203ba8	0.15647757
46	0xbd217a74	-0.03942342
47	0xbe3bf25e	-0.18354174
48	0xbe306eaa	-0.17229715
49	0x3ecc387c	0.39886844
50	0xbd2a340a	-0.041553535
51	0xbd053ef6	-0.032530747
52	0xbde1d7f7	-0.1102752
53	0xbc6ffbb6	-0.014647415
54	0x3e7afca4	0.24510437
55	0xbcc58460	-0.024110973
56	0x3eb721f2	0.35768086
57	0xbd0efea6	-0.03491082
58	0xbe10b7c2	-0.14132598
59	0x3ebb756a	0.36613017
60	0x3ec9c104	0.39405072
61	0x3ec2dfa9	0.38061264
62	0x3ec6fbc5	0.3886396
63	0xbd9f31b8	-0.07773155
64	0x3eb94aff	0.3619003
65	0x3eb5b40c	0.35488927
66	0x3e5ea67d	0.21743198
67	0xbdc01504	-0.093790084
68	0xbdef3c25	-0.116813935
69	0x3ea55c26	0.32296866
70	0x3e97fde5	0.29685894
71	0xbe2f707e	-0.17132756
72	0xbdddbf05	-0.1082745
73	0xbe01087c	-0.12600893
74	0xbdcef5d2	-0.1010548
75	0xbdb6b937	-0.08922046
76	0xbda814c3	-0.08207085
77	0xbe1206c1	-0.14260389
78	0x3eadc9e9	0.33943108
79	0x3ec5493b	0.38532433
80	0xbcfecfa8	-0.031104878
81	0x3eccf52c	0.400308
82	0x3e03e0ac	0.12878674
83	0x3eba3a48	0.3637259
84	0xbddc9e75	-0.10772411
85	0x3eb30a15	0.3496863
86	0xba52326a	-0.00080183765
87	0xbe07bb37	-0.1325501
88	0xbdcfabfa	-0.10140224
89	0x3ea3958d	0.31950036
90	0x3ead0f09	0.33800533
91	0xbd2da0be	-0.042389624
92	0x3ec1d28a	0.3785594
93	0xbe2b574d	-0.16732521
94	0xbe109935	-0.14120944
95	0xbe165789	-0.1468183
96	0x3ed70739	0.41997698
97	0xbe11c044	-0.142335
98	0xbe4abcac	-0.19798535
99	0xbe0fb2c1	-0.14033033
100	0x3e4d011c	0.20019954
101	0x3e04174b	0.1289951
102	0xbe3942c5	-0.18091877
103	0xbe0e80fd	-0.13916393
104	0x3c0ba1b9	0.008522444
105	0x3c76eb44	0.01507074
106	0x3e7f75e5	0.24947317
107	0x3eb2cacc	0.34920347
108	0x3e7ba505	0.24574669
109	0x3e8811cc	0.26576078
110	0x3e91c5bf	0.2847118
111	0x3eb92909	0.3616412
112	0xbe3b168b	-0.18270318
113	0xbc6e2fcf	-0.014537766
114	0xbe23186c	-0.15927285
115	0xbdc6f4b2	-0.09714641
116	0xbdce3070	-0.100678325
117	0x3d8f5a27	0.06999617
118	0x3ebd5976	0.36982316
119	0x3ec67dd4	0.38767874
120	0xbe4801bd	-0.19531913
121	0x3ed4f56d	0.41593495
122	0x3dcf9817	0.10136431
123	0x3e227165	0.15863569
124	0xbe1e0899	-0.15432967
125	0x3e426104	0.18982321
126	0x3e9a3e71	0.30125764
127	0x3e530c98	0.20610273

hidden.bias_sigma f4 [128]
0	0x3d78e312	0.060763426
1	0x3d05b8a8	0.032646805
2	0xbd00898b	-0.03138117
3	0xbb036fd3	-0.0020055666
4	0xbd64d62f	-0.055868324
5	0x3dc0f969	0.09422571
6	0x3d15fd54	0.036618546
7	0x3cbe08bb	0.023197522
8	0x3d53789f	0.051628705
9	0xbbfb1366	-0.0076622246
10	0x3d628e38	0.05531141
11	0xbb4bfb72	-0.0031125215
12	0xbd44be28	-0.04803291
13	0x3b8a822d	0.004226944
14	0xbc92c472	-0.017915938
15	0x3d3c8f69	0.046035204
16	0x3d9e2bb5	0.0772318
17	0xbc96fbba	-0.01843058
18	0xbd95b5db	-0.07310077
19	0xbd23ef6a	-0.040023245
20	0x3e358052	0.17724732
21	0xbbff760c	-0.0077960547
22	0xbda04741	-0.078260906
23	0xbb99e33b	-0.0046962774
24	0xbd8269d1	-0.06367839
25	0x3d736528	0.059422642
26	0x3bafb86d	0.0053625614
27	0x3d2ded42	0.042462595
28	0xbd6ea757	-0.058265056
29	0xbcef090f	-0.029179124
30	0x3da07260	0.07834315
31	0x3cbd9130	0.02314052
32	0xbcfb8fea	-0.030708272
33	0x3d1f4864	0.038887396
34	0xbd34cc3d	-0.04414009
35	0x3cfbd05e	0.030739006
36	0xbc8927a0	-0.016742527
37	0x3e02c68f	0.12771057
38	0x3cb788b2	0.022404049
39	0x3cd5416e	0.026032176
40	0xbd6159df	-0.05501735
41	0x3dc26910	0.09492695
42	0xbd21f9d9	-0.039544914
43	0x3d8a1acf	0.067433946
44	0xbc568481	-0.013093115
45	0x3cd9bfaa	0.02658065
46	0x3d6399c1	0.055566553
47	0x3d048088	0.03234914
48	0x3d6333f7	0.05546948
49	0x3cdc56ea	0.026896913
50	0x3d6c272c	0.057654545
51	0x3cbbf325	0.022943089
52	0xbdc6a1da	-0.096988395
53	0xbcbcfc80	-0.02306962
54	0x3d741066	0.05958595
55	0x3e29df21	0.16589023
56	0x3da62ccb	0.08114012
57	0x3d1c8402	0.03821183
58	0x3d33044f	0.04370528
59	0x3cec8b7e	0.028875109
60	0xbcf6bcd8	-0.030119345
61	0xbdddd4b9	-0.10831589
62	0x3db90f09	0.09036071
63	0x3ce94f67	0.028480245
64	0x3d05c4d6	0.03265842
65	0xbcb927ad	-0.022601927
66	0xbcef7d46	-0.02923454
67	0x3d34342a	0.04399506
68	0xbac123eb	-0.0014735436
69	0x3c8fe124	0.01756341
70	0x3da18d70	0.07888305
71	0x3d643612	0.055715628
72	0x3c629e68	0.013831712
73	0x3d428a09	0.04749492
74	0xbd2e44b5	-0.042545993
75	0x3c4288b2	0.011873411
76	0x3c29a7bf	0.010354935
77	0x3b5340dc	0.0032234704
78	0x3cf01ac6	0.029309642
79	0x3d886325	0.06659535
80	0x3d10ccda	0.03535161
81	0x3cb48cc8	0.022039786
82	0x3e150843	0.14553933
83	0x3d514451	0.051090542
84	0x3e072585	0.13197906
85	0x3d8b8cef	0.0681399
86	0x3e3e75f9	0.1859969
87	0xbd6d6383	-0.05795623
88	0x3cc05a11	0.023480447
89	0x3dccf32e	0.1000732
90	0x3d7ac8a0	0.061226487
91	0xbca18c54	-0.019720234
92	0xbd25e9be	-0.040506117
93	0x3cd65b42	0.026166562
94	0x3d4e751f	0.050404664
95	0xbde7320c	-0.112888426
96	0x3d87725d	0.0661361
97	0x3d6aad98	0.05729446
98	0x3d556c51	0.05210525
99	0x3d7456bc	0.05965303
100	0xbc8998da	-0.016796518
101	0x3d7b4ccb	0.061352532
102	0x3d03377e	0.032035343
103	0x3c6b974b	0.014379333
104	0x3ddb77d5	0.107162155
105	0x3e0270e4	0.12738377
106	0x3dcdec0f	0.1005479
107	0xbcdd60fc	-0.027023785
108	0xbd11d5f3	-0.03560443
109	0x3d860071	0.06543053
110	0xbc370552	-0.011170702
111	0xbd00051b	-0.03125487
112	0x3c8b60c2	0.017013911
113	0x3e50cac6	0.20389852
114	0x3dad6591	0.08466638
115	0x3d4d98b3	0.050194453
116	0xbc87e351	-0.016587885
117	0x3c47a304	0.012184862
118	0x3d3b32b6	0.04570266
119	0x3cb31d08	0.02186443
120	0xbcf460ff	-0.029831408
121	0xbd321796	-0.043479525
122	0xbd098d53	-0.033582043
123	0x3d3223ee	0.043491296
124	0x3c54aefd	0.012981174
125	0x3d321ef3	0.043486547
126	0xbbb16b51	-0.0054144044
127	0x3c013316	0.007885715

hidden.weight_epsilon f4 [128, 64]
0	0xbe6a9149	-0.22906984
1	0xbf18d9bd	-0.5970724
2	0xbf116519	-0.5679489
3	0xbf54f5bd	-0.83187467
4	0xbf912ec5	-1.1342398
5	0x3f8bf2ac	1.0933433
6	0xbf6712e4	-0.902632
7	0x3eabdfec	0.33569276
8	0x3f7216b3	0.94565886
9	0xbde1af6c	-0.11019787
10	0x3f14e33c	0.5815923
11	0xbef14e2e	-0.4712996
12	0xbf1dacaa	-0.6159159
13	0xbecc3c64	-0.39889824
14	0xbf473d6c	-0.778281
15	0x3f1b1a49	0.6058698
16	0xbf64bb4a	-0.8934828
17	0xbea23488	-0.31680703
18	0xbf590b9d	-0.84783345
19	0x3f7727b8	0.9654498
20	0xbfc3b585	-1.528977
21	0x3f00eeed	0.5036457
22	0x3eab719b	0.33485112
23	0xbf8ebbe1	-1.1151086
24	0x3ee4f6f2	0.44719654
25	0x3eeeb99c	0.46625984
26	0xbf888fbb	-1.0668863
27	0x3ec4bc32	0.38424832
28	0xbee3c85e	-0.44488806
29	0x3f2f6b80	0.68523407
30	0x3f3bc198	0.73342276
31	0x3f5b0116	0.8554853
32	0x3f16e1b3	0.5893814
33	0x3ed6cb1c	0.41951835
34	0xbef1725c	-0.47157562
35	0x3f3e6e7c	0.74387336
36	0x3f13f8c9	0.5780149
37	0x3f391bca	0.7230803
38	0x3e899b31	0.26876214
39	0x3f68c6ee	0.9092854
40	0x3f47db63	0.7806913
41	0xbf4844d6	-0.78230035
42	0xbf8654b3	-1.0494598
43	0xbf66ea1c	-0.9020097
44	0x3f5b050c	0.85554576
45	0xbf52559f	-0.821619
46	0x3f17d80d	0.5931404
47	0xbf0f371f	-0.55943483
48	0x3f03a901	0.51429754
49	0x3e497211	0.19672419
50	0xbf8f8296	-1.1211727
51	0x3f60e4a7	0.87848896
52	0xbf5434f4	-0.828933
53	0xbf6c8f0d	-0.9240578
54	0x3f13010c	0.5742347
55	0x3f9bb422	1.2164347
56	0x3f86fb1a	1.054538
57	0xbe1c7579	-0.15279187
58	0x3f9cc3c8	1.2247248
59	0xbf8a2529	-1.079259
60	0xbf54106a	-0.82837546
61	0xbf5c5143	-0.86061496
62	0x3f83a30e	1.0284135
63	0x3f572157	0.8403525
64	0xbe680c62	-0.22660974
65	0xbf173581	-0.59066015
66	0xbf0fd55c	-0.56184936
67	0xbf52ac3e	-0.8229407
68	0xbf8f9f9d	-1.1220585
69	0x3f8a71e9	1.0816013
70	0xbf649797	-0.8929381
71	0x3eaa0762	0.33208758
72	0x3f6f7d1e	0.9355029
73	0xbddf42f1	-0.1090144
74	0x3f1349e5	0.5753463
75	0xbeeeb6c0	-0.46623802
76	0xbf1bfb2a	-0.6093012
77	0xbeca0ae1	-0.39461425
78	0xbf4519a5	-0.76992255
79	0x3f196fdb	0.599363
80	0xbf62466e	-0.8838872
81	0xbea07693	-0.31340465
82	0xbf56b6e3	-0.83872813
83	0x3f748035	0.9550813
84	0xbfc19b73	-1.5125564
85	0x3eff18e3	0.49823675
86	0x3ea99a3f	0.33125493
87	0xbf8d3375	-1.1031328
88	0x3ee28173	0.44239387
89	0x3eec2947	0.46125242
90	0xbf871847	-1.0554284
91	0x3ec29f4e	0.38012165
92	0xbee1561e	-0.44011015
93	0x3f2d8937	0.677875
94	0x3f39bd64	0.7255461
95	0x3f58a6f9	0.8462978
96	0x3f1542e0	0.5830517
97	0x3ed47c92	0.4150129
98	0xbeeeda8b	-0.4665111
99	0x3f3c62ed	0.7358845
100	0x3f1261f6	0.57180727
101	0x3f371edd	0.7153147
102	0x3e8820de	0.26587576
103	0x3f6646f3	0.8995201
104	0x3f45b5ea	0.77230704
105	0xbf461e3b	-0.7738988
106	0xbf84e361	-1.038189
107	0xbf646f40	-0.89232254
108	0x3f58aae4	0.8463576
109	0xbf501358	-0.81279516
110	0x3f163694	0.5867703
111	0xbf0dad60	-0.55342674
112	0x3f023f07	0.5087742
113	0x3e47483a	0.19461146
114	0xbf8df808	-1.1091318
115	0x3f5e7a58	0.8690543
116	0xbf51ed86	-0.82003057
117	0xbf6a04ac	-0.9141338
118	0x3f116ce2	0.56806767
119	0x3f9a080e	1.2033708
120	0x3f8587ff	1.0432128
121	0xbe1ac751	-0.15115096
122	0x3f9b14c8	1.2115717
123	0xbf88a95a	-1.0676682
124	0xbf51c962	-0.8194791
125	0xbf59f389	-0.8513723
126	0x3f823924	1.0173688
127	0x3f54d1e0	0.83132744
128	0xbde04d7c	-0.10952279
129	0xbe922965	-0.28547207
130	0xbe8b0846	-0.2715475
131	0xbecba400	-0.3977356
132	0xbf0ad452	-0.54230225
133	0x3f05d2df	0.5227489
134	0xbedcf63a	-0.43156606
135	0x3e245a74	0.1605013
136	0x3ee77ea3	0.45213804
137	0xbd57cf20	-0.052687764
138	0x3e8e5f49	0.27807072
139	0xbe66bee5	-0.22533758
140	0xbe96c647	-0.2944815
141	0xbe434c63	-0.19072108
142	0xbebe8563	-0.3721114
143	0x3e9450b5	0.28967825
144	0xbedab8dd	-0.42719164
145	0xbe1b1b63	-0.15147166
146	0xbecf8c1c	-0.40536582
147	0x3eec56e7	0.4616005
148	0xbf3b2509	-0.73103386
149	0x3e769508	0.24080288
150	0x3e23f0f6	0.16009888
151	0xbf087cde	-0.5331553
152	0x3e5af1ea	0.21381345
153	0x3e64473b	0.22292797
154	0xbf0295dd	-0.51009923
155	0x3e3c2038	0.18371665
156	0xbe59d093	-0.21270971
157	0x3ea7be51	0.32762387
158	0x3eb38a35	0.3506638
159	0x3ed16ba3	0.40902433
160	0x3e904769	0.28179482
161	0x3e4d64d5	0.20057996
162	0xbe66e17e	-0.22546956
163	0x3eb61920	0.35566044
164	0x3e8d7f17	0.27636024
165	0x3eb10210	0.34571886
166	0x3e03959f	0.12850045
167	0x3ede9730	0.43474722
168	0x3ebf1c70	0.37326384
169	0xbebf8146	-0.37403315
170	0xbf0073d2	-0.5017673
171	0xbedccf3b	-0.43126854
172	0x3ed16f6d	0.40905324
173	0xbec9214c	-0.39283216
174	0x3e9132fb	0.28359208
175	0xbe88f2b7	-0.26747677
176	0x3e7bcc18	0.24589574
177	0x3dc0a152	0.094057694
178	0xbf093ae1	-0.5360547
179	0x3ed70d3a	0.4200228
180	0xbecaeba6	-0.3963291
181	0xbee234f1	-0.44181016
182	0x3e8c9232	0.27455288
183	0x3f14e3d3	0.5816013
184	0x3f0112f2	0.50419533
185	0xbd959cb4	-0.073052794
186	0x3f15e795	0.5855649
187	0xbf04198e	-0.51601493
188	0xbecac8b7	-0.39606258
189	0xbed2ad19	-0.41147688
190	0x3efbc0b7	0.49170467
191	0x3ecdb74a	0.401789
192	0x3d54adc9	0.051923547
193	0x3e0a9659	0.13533916
194	0x3e03d3d0	0.12873769
195	0x3e41166b	0.18856208
196	0x3e83a28d	0.25709954
197	0xbe7dc704	-0.2478295
198	0x3e5182da	0.20460072
199	0xbd9bd612	-0.0760919
200	0xbe5b7f87	-0.21435367
201	0x3ccca01c	0.02497869
202	0xbe06fe83	-0.13183026
203	0x3ddac9b9	0.10683007
204	0x3e0ef609	0.13961042
205	0x3db92d79	0.09041876
206	0x3e34a5da	0.17641392
207	0xbe0ca118	-0.13733327
208	0x3e4f6334	0.20252687
209	0x3d9311ac	0.07181105
210	0x3e44cab2	0.19217947
211	0xbe601785	-0.21883972
212	0x3eb1724b	0.3465751
213	0xbde9cdc4	-0.114162
214	0xbd9b720c	-0.07590112
215	0x3e816a29	0.25276306
216	0xbdcf994b	-0.1013666
217	0xbdd872cb	-0.1056877
218	0x3e77a2ed	0.24183245
219	0xbdb26076	-0.08709805
220	0x3dce86f3	0.10084333
221	0xbe1f0cf5	-0.15532286
222	0xbe2a3c5a	-0.16624585
223	0xbe469160	-0.19391394
224	0xbe08cd57	-0.13359581
225	0xbdc2bffd	-0.09509275
226	0x3ddaea87	0.10689264
227	0xbe2ca955	-0.1686147
228	0xbe0629f0	-0.13101935
229	0xbe27d5cc	-0.16390151
230	0xbd7987ef	-0.060920652
231	0xbe530e34	-0.20610887
232	0xbe353513	-0.17696027
233	0x3e3594af	0.177325
234	0x3e73976f	0.23788236
235	0x3e515de0	0.20445967
236	0xbe4694f7	-0.19392763
237	0x3e3eb504	0.1862374
238	0xbe09acb4	-0.13444787
239	0x3e01d9e7	0.1268078
240	0xbdeebfa4	-0.11657646
241	0xbd36a5ce	-0.044591717
242	0x3e821e54	0.25413764
243	0xbe4be842	-0.19912818
244	0x3e40679e	0.18789527
245	0x3e567bfc	0.20945734
246	0xbe054952	-0.1301625
247	0xbe8d2c96	-0.2757308
248	0xbe74c530	-0.23903346
249	0x3d0ddbe2	0.034633525
250	0xbe8e22e2	-0.27760988
251	0x3e7a821f	0.244637
252	0x3e40467e	0.1877689
253	0x3e47c22d	0.19507666
254	0xbe6eb4db	-0.23311178
255	0xbe430e2c	-0.19048375

hidden.bias_epsilon f4 [128]
0	0xbf59d07b	-0.8508374
1	0xbf5779a3	-0.8416998
2	0xbed0485c	-0.40680206
3	0x3e457d31	0.19286038
4	0x3e47c3fa	0.19508353
5	0xbee29054	-0.4425074
6	0xbfebb14d	-1.8413483
7	0x3f1937c2	0.59850705
8	0xbe6657fb	-0.224945
9	0xbf86d529	-1.0533801
10	0xbf703684	-0.93833184
11	0xbf8e9df7	-1.1141957
12	0xbf28894e	-0.6583451
13	0xbf481c64	-0.7816832
14	0xbe775aeb	-0.24155776
15	0xbf9ec6c4	-1.2404408
16	0x3f1892be	0.5959891
17	0xbe85ad4c	-0.26108778
18	0xbf820f78	-1.0160971
19	0xbfa0bdb2	-1.255789
20	0xbe177ace	-0.1479294
21	0xbf0f2fd9	-0.55932385
22	0xbfa2286f	-1.2668589
23	0xbf7e92d5	-0.994428
24	0x3e39e8fd	0.18155284
25	0x3f7daff5	0.99096614
26	0xbf2fe30a	-0.6870581
27	0xbf331a5e	-0.6996211
28	0xbec7a532	-0.38993222
29	0xbf7df3f2	-0.99200356
30	0xbf35a07e	-0.70948017
31	0x3f338786	0.7012867
32	0x3f9d2d95	1.2279536
33	0x3f3c1ee3	0.7348463
34	0xbf78b573	-0.9715187
35	0xbf6ca0a3	-0.9243261
36	0x3f9fba87	1.2478799
37	0xbf9ae26e	-1.2100351
38	0x3f5103d5	0.8164647
39	0xbf8ae3d8	-1.0850782
40	0xbf377853	-0.71667975
41	0x3f746d1e	0.95479
42	0x3e2fcb75	0.17167456
43	0x3faac147	1.3340234
44	0xbf095247	-0.5364117
45	0xbf00c455	-0.5029958
46	0xbee1aa45	-0.44075218
47	0x3f13130d	0.57450944
48	0xbfa6670e	-1.30002
49	0xbf7f57b9	-0.9974323
50	0xbf3dcd77	-0.7414164
51	0x3f24e035	0.6440461
52	0x3f8c229b	1.0948061
53	0xbf255595	-0.6458371
54	0xbf7ab391	-0.97930247
55	0x3e397872	0.18112352
56	0x3f16b018	0.5886245
57	0x3f4fa7e1	0.8111554
58	0x3f8d61d1	1.1045476
59	0x3f945054	1.1587014
60	0x3eea315f	0.45740792
61	0xbfae650e	-1.362459
62	0xbf30b3db	-0.6902444
63	0x3f7b8490	0.9824915
64	0xbfa92b14	-1.3216271
65	0x3e884a57	0.26619217
66	0x3ec9c55e	0.39408392
67	0xbfb63b17	-1.4236783
68	0xbf239be8	-0.6390977
69	0xbfc905df	-1.5704917
70	0xbedd32a3	-0.43202695
71	0xbf75a6b5	-0.959575
72	0xbf730823	-0.9493429
73	0x3e9a5b3b	0.30147728
74	0x3edf2136	0.43580025
75	0xbed9569d	-0.42448893
76	0xbfaa2acd	-1.3294312
77	0xbf8e0476	-1.1095111
78	0x3f88d1f5	1.0689074
79	0xbf92617f	-1.1436003
80	0xbf8f7a3b	-1.1209177
81	0xbfb8ee6f	-1.4447764
82	0x3f3df2b8	0.74198484
83	0x3f03ed00	0.5153351
84	0x3e9a6433	0.3015457
85	0xbe311c58	-0.17295969
86	0x3fb2ceaa	1.3969319
87	0x3f68fdc6	0.9101223
88	0x3fa89630	1.3170834
89	0xbf30fd41	-0.69136435
90	0x3fa4de31	1.2880307
91	0x3e1854ea	0.14876142
92	0x3f718d66	0.9435638
93	0x3e880525	0.26566425
94	0xbf67625e	-0.9038447
95	0x3f3664ab	0.7124736
96	0x3efad42d	0.48990002
97	0x3f060049	0.52344185
98	0xbf03a5dc	-0.51424956
99	0x3f8bcde0	1.0922203
100	0x3f64e75f	0.89415544
101	0xbf7d1bdc	-0.98870635
102	0x3f3ef7f5	0.745971
103	0x3f5f866f	0.87314504
104	0xbf1543a5	-0.5830634
105	0x3f1e8573	0.6192238
106	0x3e8b7226	0.27235526
107	0x3f880242	1.0625689
108	0x3f90789d	1.1286808
109	0xbf53a8fd	-0.8267973
110	0xbec79cb7	-0.3898675
111	0x3fadd9fd	1.358215
112	0xbf94e67f	-1.1632842
113	0x3f0341b2	0.5127212
114	0x3f528d25	0.8224662
115	0xbf40735d	-0.7517603
116	0xbf9ffb13	-1.2498497
117	0x3f625393	0.88408774
118	0xbf453e92	-0.770486
119	0x3ecbc27e	0.39796823
120	0xbf02723a	-0.50955546
121	0xbf4fed39	-0.8122135
122	0xbf855bd2	-1.0418646
123	0xbf1803db	-0.5938088
124	0x3ed1fa39	0.41011217
125	0xbf3f6111	-0.74757487
126	0xbf94196d	-1.1570259
127	0x3e5dc55c	0.21657318

out.weight_mu f4 [2, 128]
0	0x3e95a5b3	0.2922798
1	0x3e9cb52e	0.3060698
2	0x3ea37a16	0.31929082
3	0x3e96466e	0.2935061
4	0x3eb2cae4	0.34920418
5	0x3e258ec9	0.1616775
6	0x3d2eaa1d	0.0426427
7	0x3e93e300	0.28884125
8	0xbd936dd7	-0.07198685
9	0x3ea4ec6d	0.3221163
10	0x3d850089	0.06494243
11	0x3e93ae0b	0.28843722
12	0x3e62ace8	0.22136271
13	0x3d56a890	0.052406847
14	0x3e6e5daa	0.23277918
15	0xbb950167	-0.0045472863
16	0x3cfc9d17	0.030836625
17	0x3e10eec4	0.14153582
18	0x3ea9091a	0.33014756
19	0x3e969a9e	0.2941484
20	0x3da08770	0.07838333
21	0x3c57ebfa	0.01317882
22	0xbd1189a7	-0.035531666
23	0x3dce1f77	0.10064595
24	0x3ead23f8	0.33816504
25	0x3e544726	0.20730266
26	0x3deb76c4	0.11497262
27	0xbd72fdfe	-0.059324257
28	0x3eac8852	0.33697754
29	0x3e28ae30	0.16472697
30	0x3ea26d30	0.31723928
31	0x3e868e04	0.26280224
32	0xbecbc823	-0.3980113
33	0x3e3f416c	0.186773
34	0xbf00de9c	-0.50339675
35	0x3e95c4c8	0.29251695
36	0x3e199c31	0.15000989
37	0x3cfbcd8f	0.030737666
38	0xbc86c0b2	-0.016449306
39	0x3e89956c	0.26871812
40	0x3eaea079	0.34106806
41	0x3dac8c56	0.084252045
42	0x3d81a86e	0.063309535
43	0x3e827ce8	0.2548592
44	0xbdcf6dbf	-0.10128354
45	0x3e98ed9c	0.29868782
46	0xbc58e09e	-0.013237147
47	0xbf03c148	-0.514668
48	0xbd49a4cc	-0.04922943
49	0x3ea7aa46	0.32747096
50	0x3d1d05fe	0.038335793
51	0x3dd95bf1	0.106132396
52	0xbf4cf9c0	-0.8006859
53	0xbdb2740f	-0.08713543
54	0x3e9cc8f3	0.30622062
55	0x3c5bb27e	0.013409255
56	0x3e9013a8	0.28139997
57	0xbcf78c58	-0.030218288
58	0xbdc06759	-0.09394712
59	0x3ea3c99e	0.3198976
60	0x3e66532c	0.22492665
61	0x3e6cf300	0.23139572
62	0x3e81f0ba	0.25378972
63	0xbd5517f6	-0.052024804
64	0x3ea618a2	0.32440668
65	0x3eacacb9	0.33725527
66	0x3e61cf49	0.2205173
67	0x3d8d9965	0.06914023
68	0x3cadd9f6	0.021222096
69	0x3e9e72b2	0.3094688
70	0x3e83a005	0.25708023
71	0x3d0a7991	0.03380734
72	0x3c82b596	0.015955728
73	0x3cee5a20	0.02909571
74	0x39741ade	0.00023279662
75	0x3d0193a2	0.031634934
76	0x3d525005	0.051345844
77	0x3d35ef57	0.044417705
78	0x3e77ae8e	0.24187681
79	0x3e9d6474	0.30740702
80	0xbd0af8d5	-0.03392871
81	0x3e85411a	0.2602623
82	0x3d4344db	0.047673088
83	0x3eab7f27	0.33495447
84	0x3da5afe0	0.08090186
85	0x3e9f55ab	0.31120047
86	0xbb9ef461	-0.0048509096
87	0xbe5d5d8d	-0.21617718
88	0xbd26e587	-0.040746238
89	0x3ea1c5b8	0.3159616
90	0x3e9b4c75	0.3033177
91	0xbcab4dd9	-0.020911144
92	0x3eb5b026	0.35485953
93	0xbd197564	-0.037465468
94	0x3cc4f14b	0.024040839
95	0x3d9837b8	0.074325025
96	0x3eb4be3a	0.3530138
97	0xbb3f73c3	-0.0029213286
98	0xbcd5d238	-0.026101217
99	0x3d98fc98	0.074700534
100	0x3ea0c810	0.31402636
101	0x3e16f37b	0.14741318
102	0xbdc3458a	-0.09534748
103	0x3cf8422b	0.030304989
104	0x3d5c1664	0.05373229
105	0x3d898b58	0.06716031
106	0x3e8e7c5a	0.27829248
107	0x3ea51dbb	0.32249245
108	0x3e9c18ae	0.3048758
109	0x3e686d3b	0.22697918
110	0x3e927f94	0.2861296
111	0x3e71a3a8	0.23597586
112	0x3d8d3694	0.068951756
113	0xba9fc4a9	-0.0012189347
114	0xbcb3b9ce	-0.021939185
115	0x3caed954	0.021343865
116	0x3ca3e642	0.020007256
117	0x3e6347e6	0.22195396
118	0x3e9cf1bf	0.30653188
119	0x3e993f53	0.29931125
120	0x3c093776	0.008375039
121	0x3e899498	0.2687118
122	0x3e5afe4e	0.21386072
123	0x3e853f10	0.26024675
124	0x3d49ae26	0.049238347
125	0x3eaf2d97	0.3421447
126	0x3e9a93b1	0.30190805
127	0x3e3095af	0.172446
128	0x3ea0e712	0.31426293
129	0x3e9340a2	0.28760248
130	0x3e966eee	0.29381508
131	0x3ea3ac2a	0.31967288
132	0x3e96fe36	0.29490823
133	0x3e9e1caf	0.3088126
134	0x3d789644	0.06069018
135	0x3e8be178	0.27320457
136	0xbd398cf5	-0.045300443
137	0x3e804c89	0.25058392
138	0xbcfbacae	-0.030721989
139	0x3df796bb	0.120892964
140	0x3c402dc2	0.0117296595
141	0xbdc6f549	-0.09714753
142	0x3e869be3	0.26290807
143	0x3d6e7666	0.058218382
144	0x3e8291e3	0.25501928
145	0x3e94a19e	0.29029554
146	0x3e84441f	0.25833222
147	0x3dafabe9	0.08577711
148	0x3ac7e1bc	0.0015249769
149	0x3d7fdbcf	0.062465485
150	0x3baa2139	0.0051919487
151	0x3c8e276a	0.017352778
152	0x3ea53242	0.32264906
153	0x3e9a03c1	0.3008099
154	0x3e95c028	0.29248166
155	0x3bfca22d	0.0077097625
156	0x3e944862	0.28961474
157	0x3d812d64	0.06307486
158	0x3ebcdef4	0.3688885
159	0x3e8ab8e8	0.27094197
160	0xbee22f77	-0.44176838
161	0x3e96ba2f	0.29438922
162	0xbe9466a6	-0.28984565
163	0x3ead406d	0.33838215
164	0x3e737758	0.23775995
165	0x3d9dc538	0.07703632
166	0xbd3dfc0e	-0.046382956
167	0x3eab5476	0.33462876
168	0x3e737fd6	0.23779234
169	0x3e5a194b	0.21298711
170	0xbd8d4aae	-0.0689901
171	0x3e810890	0.25201845
172	0x3c39f258	0.011349283
173	0x3e521871	0.20517136
174	0xbe0b00bc	-0.13574499
175	0x3e4b8cf6	0.19877991
176	0xbc242055	-0.010017474
177	0x3e943902	0.28949744
178	0xbd956aec	-0.07295784
179	0xbe2c1e8a	-0.16808525
180	0xbf245161	-0.64186674
181	0x3d4d34de	0.050099246
182	0x3dd01516	0.10160272
183	0x3d649131	0.055802528
184	0x3ead7ce0	0.33884335
185	0x3c45571f	0.012044697
186	0x3aa7c8f7	0.0012800981
187	0x3e7e2088	0.24817097
188	0x3eadce96	0.33946675
189	0x3ea85d2f	0.32883593
190	0x3e890fb5	0.26769796
191	0xbcc37a16	-0.023861926
192	0x3ea7b4b0	0.3275504
193	0x3ea50be0	0.32235622
194	0x3e6f442f	0.23365854
195	0xbd8b057b	-0.06788155
196	0xbcbd4404	-0.023103721
197	0x3e82f35f	0.25576302
198	0x3ea45043	0.32092485
199	0x3cca302d	0.024681175
200	0x3c73188a	0.014837394
201	0x3d9669eb	0.07344421
202	0xbefa3d43	-0.48874864
203	0xbd6ce75c	-0.05783783
204	0xbdb17489	-0.086648054
205	0xbd21332d	-0.039355446
206	0x3eaa0024	0.33203232
207	0x3eaacc6d	0.3335909
208	0x3cc71b9e	0.024305161
209	0x3ea385ee	0.31938118
210	0x3e8f5e6e	0.28001732
211	0x3e6bf96f	0.2304437
212	0xbd2cfe65	-0.042234797
213	0x3e37a1f4	0.17932874
214	0xbc9f0333	-0.019410705
215	0x3d8d0af2	0.06886853
216	0xbc81d9a3	-0.015850848
217	0x3e9aac45	0.30209556
218	0x3eae596e	0.34052604
219	0xbd1d125b	-0.038347583
220	0x3e7e72fd	0.24848552
221	0xbc775ec7	-0.01509828
222	0xbc830c2a	-0.015997011
223	0xbdc600be	-0.0966811
224	0x3e924f39	0.28576067
225	0xbce6c105	-0.02816821
226	0xbd5eac97	-0.054363813
227	0x3b2ae30d	0.0026075274
228	0x3e83c9d9	0.25739935
229	0x3df5372f	0.11973416
230	0x3c33c462	0.010972114
231	0xbe169a68	-0.14707339
232	0xbb403398	-0.0029327627
233	0xbccda685	-0.025103817
234	0x3e8bed6c	0.27329576
235	0x3e3d1c23	0.18467765
236	0x3ea43df6	0.32078522
237	0x3e8c6e57	0.27427933
238	0x3eafb7bd	0.3431987
239	0x3e9bb4da	0.30411416
240	0x3d0f6e58	0.03501734
241	0xbdf6bdad	-0.120478965
242	0x38aa35ed	8.116276e-05
243	0xbd01c70a	-0.03168396
244	0x3a99e721	0.0011741855
245	0x3d305ae6	0.043055438
246	0x3ebce186	0.3689081
247	0x3e8efc0a	0.27926666
248	0x3cd5e20f	0.02610877
249	0x3ead925a	0.3390072
250	0xbd7e75f4	-0.062124208
251	0x3e2ea1f3	0.17053966
252	0xbd864c9e	-0.06557582
253	0x3eabdef2	0.3356853
254	0x3e834c94	0.25644362
255	0x3e9b7e63	0.30369863
